nn/checkpoints/main_material_different/9/model_30.pt (torch, 451442 bytes, 98 tensors)

weight f4 [8, 5, 3]
00000000: 418b 7b3e 9d25 3ebe eaf1 c53c 2163 b2bd
00000010: 1d6d 37bd 5216 953e 7ac8 383d 1abd 1b3e
00000020: a722 3c3e a694 34be ecaf 14be 71ee e13d
00000030: 2433 8e3e 56c0 7c3e e5e5 2abe 3e38 f7bc
00000040: 7273 953e 17c2 b3bd 561e f3bd dfdb dcba
00000050: 3e51 18be b11d 003e 7050 4fbc 31e3 dabd
00000060: 1b80 763e f2da 15bd 7144 5bbe b58c 16bd
00000070: 642a 9e3d db8e 44be c0ca e23d 2828 193e
00000080: 21d3 fcbd 558f 3f3e bd5f b73e cfe0 a6be
00000090: ab9f 4bbe 0339 753d 93c1 6cbe 3763 94be
000000a0: c718 143d 9e45 883e d613 78be 0d0d f33c
000000b0: 9f58 83be e503 783e 04aa 43be e18f 87be
000000c0: c3bb ba3d 4958 29be ebef 213e fb62 15be
000000d0: a7aa 253d 8b94 99bd 864c 8e3d 02e2 a0be
000000e0: 67e2 ad3d f199 a23d 0749 053e 5d14 7cbe
000000f0: a479 67be 5be0 323e a523 d4bd 02f4 c13d
00000100: 40eb e2bd 47ab 11bd 6942 603e db30 ed3d
00000110: d933 40be 4248 2e3b 6682 3d3d 863a dcbd
00000120: 063d 58be b5a3 9fbe 2c2e 2e3e 099d 0a3e
00000130: e027 8b3d e97b 13be f454 92bd 64b4 6e3e
00000140: cb4e 5bbe b819 8a3d 8d58 4dbd 13d1 7b3c
00000150: 7418 aabd 0c91 df3d b151 8b3e de34 cbbd
00000160: a072 9d3e d42e 343c 5b6f 89be 4523 2bbe
00000170: 9a65 36bc b26b 8c3d 8e96 12be b779 2abe
00000180: fded 5ebd 2a69 883e 4304 88bd 894a 48be
00000190: 0bab 6c3e 0812 ef3d 4e4a 9fbd 9749 78be
000001a0: 8474 d73d c7f5 94bd a650 29bd 5829 b7bd
000001b0: 5967 813e 4faa 463c b549 2abe 1172 8f3e
000001c0: dd08 4dbd 8d59 1bbe 79f7 6a3e ae7f 9fbe
000001d0: c669 00be fb08 143e 8dbd 34be a56a c63d
0.2456484 -0.18569036 0.024163205 -0.087103136 -0.044781793 0.29118592 0.045113064 0.15208855
0.18372594 -0.1763483 -0.14520234 0.11031807 0.27773392 0.24682745 -0.1668926 -0.030178186
0.2918964 -0.08777254 -0.118710205 -0.0016850195 -0.14874741 0.12511326 -0.012653455 -0.106878646
0.24072306 -0.036585756 -0.21412827 -0.036755282 0.07722929 -0.1919512 0.11073828 0.14956725
-0.12344957 0.1870702 0.3581523 -0.3259339 -0.19885127 0.059868824 -0.23120718 -0.28981945
0.036156442 0.26615614 -0.24226317 0.029669309 -0.2565355 0.24220236 -0.19107825 -0.26476958
0.09117844 -0.16537584 0.15814178 -0.1458854 0.04044595 -0.074990354 0.069481894 -0.3142243
0.084904484 0.07939518 0.13016139 -0.24617143 -0.22604996 0.17468397 -0.10358361 0.09470369
-0.110800266 -0.035563733 0.21900333 0.11581584 -0.18769778 0.0026593362 0.046266936 -0.1075335
-0.21117029 -0.31179586 0.170098 0.13536467 0.06794715 -0.14402737 -0.0714511 0.23311001
-0.21416776 0.06743187 -0.050133277 0.015369671 -0.08305445 0.10916337 0.27210763 -0.09922193
0.30751514 0.010997493 -0.2684277 -0.16712673 -0.011132622 0.06856479 -0.14315245 -0.16647993
-0.054426182 0.26642734 -0.06641438 -0.19559683 0.23112123 0.11673361 -0.07777844 -0.24246822
0.105202705 -0.07273441 -0.041336678 -0.089434326 0.2527416 0.012125566 -0.1662968 0.28016713
-0.05005728 -0.1517088 0.22945966 -0.311521 -0.1254035 0.14456551 -0.17650433 0.096883096

bias f4 [8]
00000000: c467 893e b7ed 7fbe d920 113e 6ece 1bbe
00000010: 8d44 35be 229a c23c 35b8 19be b3a1 f33c
0.2683698 -0.24993025 0.14172687 -0.15215465 -0.17701931 0.023755137 -0.15011676 0.02974019

weight f4 [8]
00000000: 0465 793f ebe5 813f e5f0 7b3f 5ea6 613f
00000010: f936 883f b67e 5a3f e5cd 803f dff2 9f3f
0.9741976 1.014829 0.9841445 0.8814448 1.0641776 0.85349596 1.0062834 1.2495993

bias f4 [8]
00000000: 867a 10bd 61ae 053d 8435 993a 5a50 d1bd
00000010: fef7 07bc d8cf 5a3d 3028 17bd d7be 8dba
-0.035273097 0.032637004 0.0011688923 -0.10220404 -0.008298872 0.05342087 -0.03690356 -0.0010814321

running_mean f4 [8]
00000000: 1dde 143f e7d1 b4be 4a5a 42bd 0300 babe
00000010: 166d bdbe 3163 833e 17c2 cabe f892 2ebd
0.5815142 -0.35316393 -0.047449388 -0.36328134 -0.36997288 0.25661615 -0.39601204 -0.04262063

running_var f4 [8]
00000000: 340f c63e c6f2 4f3e afe3 e03e 19e4 713e
00000010: 7bb6 293e d309 9b3e 17a3 833e dc77 a43e
0.38683474 0.20307454 0.4392371 0.23622169 0.16573517 0.30280933 0.25710365 0.32122695

weight f4 [8, 8, 3]
00000000: e96e 3f3e 770e a73d 9dbe 9abc 4015 e5bd
00000010: 3958 193c 785f 443e a6f0 5b3e 502b 18be
00000020: 4c11 70bd d5c8 d93c bb1d 583b 6d74 833d
00000030: 900f 37be 67cc 573e dde6 6ebd c2a4 3c3e
00000040: 4bf0 57be f08d 4cbb e308 81be 663c 2f3e
00000050: 9ce8 053b ddc1 50be 4fdf 3e3e e12b 5f3e
00000060: 6cef e1bd c6d4 ddbd 33a9 4f3c 2765 48be
00000070: 75ca 8f3d 0487 3a3d 013a 53bd 6d20 173e
00000080: 5642 08be 4c7e 193d 221e a8be 586f acbd
00000090: 91d9 e93d bf64 aebd 52b1 76bd 2c37 2bbe
000000a0: ce26 7b3d 438e 533e 8241 1a3c 0163 f4bd
000000b0: 054a 58be 93d5 dcbd 088f b2be c7a2 333e
000000c0: 67bd c9bc 9049 ed3c 9155 15be c7fc 0e3e
000000d0: c97a 37be c6ea 753e 2692 bebd 4712 e2bc
000000e0: 2bb4 8a3d 8470 55be 00bf 68be f26e 59be
000000f0: 55a9 003e a863 fd3d 7824 433e 2fe3 873d
00000100: efd4 263e ac85 cfbd f9e4 803d 2a43 653e
00000110: 227e 0b3d 4e1f 86be bcda e4bd 4dc0 b73d
00000120: aa49 9e3e be1d 9c3c be88 4fbe 2b5f 04bc
00000130: b128 2dbe 29cf 26bd 8b52 02bd d4d9 e7bc
00000140: ee73 01bb ace3 ef3d e099 d7bc a6e6 903d
00000150: 953d 073e 2f22 403e 6339 debd fb2b d6bb
00000160: a699 6e3e 61b3 fc3d 3355 1ebe b058 333e
00000170: a70b 27be 586e e63b 9f71 63be 3a70 f03d
00000180: 5b27 78be f507 153e 01cf 20bd d62c 433e
00000190: 2b7a 0ebe 64bb 56be bdb9 d1bd c979 1ebd
000001a0: 2219 b43d 5fd2 593e d213 b33c 9eed 3cbe
000001b0: 3645 333d 9b72 7b3d 9017 933d bcab d8bd
000001c0: ac7a 223e 6757 6fbd fa41 2c3e 3bbe d4bd
000001d0: a651 383e e706 14bd bdef ff39 2814 9dbe
000001e0: 61be 623e a93f a03d a7c9 7f3e 5ac9 15be
000001f0: c37f b9bc fb28 cfbd 0a6f b83c 0ffa 04be
00000200: 05df 04bd 5bd1 29bd 4363 583e e1f6 f83c
00000210: b728 323e 51b8 32be d0f3 9abd 3d08 99bd
00000220: 3158 d3bb 83db 84bd 3cf0 2f3e 9436 28be
00000230: 3eb9 1d3e ffb8 563e cb79 b7bd 467f 5ebe
00000240: 8881 0e3c f44e 913d 48d1 3f3e 07ce 423e
00000250: 565b c73b c8f0 023e ceb0 a4be e44c 823c
00000260: 38be a13e 07cd 663e bc85 2bbd c189 74bb
00000270: 0b60 c53d 2524 3cbd 6096 dd3d b466 10be
00000280: 0777 b03d 7fb2 a83c ca94 3fbe 71a6 2c3c
00000290: aae3 b7bc 94a3 8b3e e92d 60bd 8f6a a8bb
000002a0: c0f5 12bc e370 30be 89d8 4ebe e53d 80be
000002b0: 0441 053e 9df1 513e 383f 1c3e 17f6 0abd
000002c0: eacb 9bbc 86a6 7abb e1af 6dbd ef93 c13d
000002d0: ac98 56bd f789 243d e11c 69be c3cd f8bd
000002e0: 17fd 22bd 9d0f ce3d 3e0b 7ebd 33f2 c2bd
000002f0: 9919 dd3d acd7 a5be 123d 7d3e 226b 053e
0.18694653 0.08157056 -0.01888972 -0.11185694 0.009359413 0.19177043 0.21478519 -0.14860272
-0.058610246 0.026585022 0.0032976705 0.06418691 -0.1787703 0.21074067 -0.058325637 0.18422225
-0.21087758 -0.003121253 -0.25202093 0.17112884 0.0020432835 -0.20386453 0.18639873 0.21794082
-0.11031994 -0.10831599 0.012674618 -0.19569837 0.070210375 0.045538917 -0.05156899 0.14758463
-0.13306555 0.03747396 -0.3283549 -0.08419675 0.114184506 -0.085153095 -0.0602277 -0.16720265
0.061316304 0.20659737 0.009415032 -0.11932946 -0.21121986 -0.107829235 -0.3487475 0.17542563
-0.024626447 0.028965741 -0.14583422 0.13963614 -0.17917933 0.2401534 -0.09305219 -0.027596606
0.067726456 -0.20843703 -0.2272911 -0.21233729 0.12564595 0.123725235 0.1905688 0.06635129
0.16292165 -0.10132918 0.06293673 0.22388902 0.034055836 -0.2619576 -0.11174533 0.08972225
0.30915576 0.01905715 -0.20267007 -0.00807933 -0.16910054 -0.040724907 -0.031817 -0.02830211
-0.0019752937 0.11713347 -0.02631849 0.07075243 0.13207085 0.1876304 -0.108507894 -0.0065360046
0.233008 0.12338901 -0.15462188 0.175143 -0.16313039 0.007032197 -0.22211312 0.117401555
-0.24233763 0.14553817 -0.039259914 0.19060072 -0.13913791 -0.20969921 -0.10240505 -0.038690362
0.08793856 0.21271656 0.021860037 -0.18450019 0.043767177 0.061388593 0.071822286 -0.10579631
0.15867108 -0.058432963 0.16822043 -0.10387846 0.17999896 -0.036139395 0.0004881601 -0.3067944
0.22142936 0.07824642 0.24979268 -0.14627591 -0.02264393 -0.10115238 0.022513885 -0.12986015
-0.03243925 -0.041459423 0.21131615 0.030391159 0.17398344 -0.17453124 -0.07566035 -0.074722745
-0.006449722 -0.06487181 0.17181486 -0.1642707 0.15402696 0.20969008 -0.08958777 -0.21728238
0.008697875 0.07095137 0.18732178 0.19023906 0.006083886 0.12787163 -0.3216614 0.015905805
0.31590438 0.22539149 -0.041875586 -0.0037313553 0.09637459 -0.045932908 0.108196974 -0.14101678
0.08616453 0.020592926 -0.18709102 0.01053773 -0.022447426 0.27273238 -0.054731283 -0.005139656
-0.008969724 -0.17230563 -0.20199789 -0.25047222 0.13013083 0.20502324 0.15258491 -0.033926096
-0.019018132 -0.0038246228 -0.05802906 0.09452044 -0.052391693 0.040170636 -0.22764923 -0.12148621
-0.039792147 0.10061572 -0.06202244 -0.09518852 0.10795898 -0.32391107 0.24730328 0.13029149

bias f4 [8]
00000000: fc2d 51be 5727 193e 3548 453e 0b37 e6bc
00000010: d65a 663e acec c53d c1ce 0abe 0b06 56bd
-0.20427698 0.14956413 0.19265826 -0.028102418 0.22495589 0.09664282 -0.13555433 -0.052251857

weight f4 [8]
00000000: e533 7f3f 18fd 923f 063e 893f 8962 6d3f
00000010: 728e 763f 6b46 663f 9244 723f 0e15 7c3f
0.9968856 1.1483488 1.0722053 0.9272848 0.96311104 0.899512 0.9463588 0.98469627

bias f4 [8]
00000000: 83e0 5b3e 89bc a73e 8cb3 b73c fa6a ebbc
00000010: 7479 213c cce7 0a3e aadc de3d b74d 78bd
0.21472363 0.32761028 0.022424482 -0.028737534 0.009855617 0.13564986 0.10881932 -0.06062099

running_mean f4 [8]
00000000: 1dd5 83bd 509b 29be 332e 7d3e e5ac 4a3d
00000010: b003 1c3e 019b 073e 74e8 f23d 307c 47be
-0.064371325 -0.16563153 0.24724655 0.04948129 0.15235782 0.13242723 0.11860743 -0.19480968

running_var f4 [8]
00000000: fde8 3e3e cec8 813e e018 bd3d 3f54 563e
00000010: 8927 473e b334 e53d 7ba6 853e 86e6 2f3e
0.18643565 0.25348514 0.0923326 0.20930575 0.19448675 0.11191692 0.26103577 0.17177781

weight f4 [8, 8, 3]
00000000: c962 9e3d ce1e f93d cf8f 95bd 6652 5ebe
00000010: 9e23 d2be e835 c33c 1de8 27be e1ac 1e3e
00000020: c906 373e 15c6 463e ffb0 01be 8275 0a3d
00000030: 473b f53c 7f68 e13d 903c ee3b 1de5 66bd
00000040: c5f2 c3bb 65bd 38be 93b8 60be 60fe 4e3c
00000050: f985 80be dfc3 0a3e a1c7 36be bd6d 90ba
00000060: 07e5 1dbe 85f3 43be 2688 94be 7039 a8bc
00000070: 00bc 6fbe 613c 80bd 3450 65be b481 09be
00000080: c2d7 da3c f7e7 de3d 15ea c6bd 399e 913c
00000090: ec70 0abe 19e6 853d 1260 013d 11dd 20bd
000000a0: 043b 45be 947b 933d f4d5 843e 321e bb3d
000000b0: 317a 4abd e792 6ebe 740e 9e3d 703a 89be
000000c0: 7adf 5fbd cc80 343d 3ba7 3dbe 045c e0b9
000000d0: 0731 f63d f653 68be 817a 273e 6d96 8abe
000000e0: da39 a6bd e8e6 033e b64a 813e eaf7 fabd
000000f0: c71e 623d c7c4 88be 27e5 9a3e 3d2b 913d
00000100: b70b 623e 69ef 40bd 9c05 4bbe 966d cbbd
00000110: 756e 50be 6cdb d1bb d20e fb3d 963d 04bc
00000120: 2352 253e 6350 60be aaf9 593e 692f e7bc
00000130: 021c 8c3e 83d0 93bd 6208 12bd 2e70 5cbe
00000140: 062a c5bc f025 9bbe 9847 80bd 5df4 973c
00000150: c5dd 9abd c8b9 d03c 8d38 cebc 5765 abbd
00000160: 3338 dcbd 546a 4dbe d79c 573d 0024 493e
00000170: 2aec 9e3d 389e 9b3b d578 683d 5155 683e
00000180: 7026 9a3e f06f 933d 55f8 04be c244 943e
00000190: 9ec1 bfbd 7fe8 8bbe 0ff3 c53c f0a4 033d
000001a0: 5404 09be 2a58 953d 6162 71be 9386 843d
000001b0: a884 aebe 41a9 5c3c c981 0a3e 15e1 f33d
000001c0: 933a 8d3d 0aad 4fbe c978 50be 6f51 d33d
000001d0: 30d7 133e 996b 693e 9c92 afbd 07d3 53bc
000001e0: a0d6 863d 76c1 473e 7614 4e3e cfbc c53e
000001f0: b53c 18be 1a52 25be 1eee 313c 5c79 3a3d
00000200: e69a 57be ee9c 9a3d 43e2 48be 7059 d53d
00000210: d516 cc3d b7b7 3fbc 56da edb9 f55f 83be
00000220: 8975 c73d d7d0 013e 7636 5abd 3966 71ba
00000230: e38f 8abd e358 a83c 8fa1 b3bd a2f3 7ebe
00000240: 9cb1 343e 9b1e 863b d34f 283d 3bb7 16bc
00000250: 98a7 403c 6141 203e ab4b f23d 6246 19bd
00000260: 9b45 52be ecbf 3c3e 32c8 583e b7ef 1fbe
00000270: 80fb 2cbe a254 89be 8e88 f3bc 4b17 54be
00000280: b56a 853c 79dd 553e 82e3 3e3d 5fc6 7f3e
00000290: d4b0 803e fb2c a4bd 070d c3bb ab3f 6bbe
000002a0: 102a d83d 2eb6 383e 34ce cdbd cd2f 47be
000002b0: f131 063e 95ba e33d 423d 173e 3459 183e
000002c0: 9169 473e cd4a 4e3e 01f1 dfbc d8a9 0ab9
000002d0: 7e77 743d ca08 203d 7ecc c43d 5a36 6e3e
000002e0: 2a2d 12be 7cc5 20be 6d7e 383e 1988 90bd
000002f0: 29e7 b23d 48a8 e1bd e8f6 c1bc 6c43 553e
0.077336855 0.12164079 -0.0730282 -0.2171112 -0.410428 0.023829415 -0.16397138 0.15495636
0.17873682 0.194115 -0.12665175 0.03380347 0.029935492 0.11006259 0.007270403 -0.056370843
-0.005979868 -0.18040998 -0.2194541 0.01263389 -0.25102213 0.13551281 -0.1784959 -0.0011019033
-0.15419398 -0.19135864 -0.29010123 -0.0205352 -0.2341156 -0.06261516 -0.22393876 -0.13428384
0.02671421 0.108840875 -0.09712616 0.017775642 -0.13519639 0.06538028 0.03158576 -0.039273325
-0.19260794 0.07201305 0.25944483 0.09136619 -0.049432937 -0.23298226 0.077176005 -0.26802397
-0.054656483 0.044068143 -0.18520825 -0.00042793166 0.1202107 -0.22688279 0.16355325 -0.2706789
-0.08116503 0.12881052 0.25252312 -0.12254317 0.055205133 -0.2671263 0.30252954 0.07088325
0.22074781 -0.04710332 -0.19826359 -0.09933011 -0.20354636 -0.006404331 0.12258686 -0.008071324
0.16144614 -0.21905665 0.21286646 -0.02822085 0.27365118 -0.07217505 -0.035652526 -0.21527168
-0.02406789 -0.30302382 -0.062636554 0.018549139 -0.075618304 0.025479212 -0.02517345 -0.083689384
-0.10752907 -0.20060092 0.05263981 0.19642639 0.077598885 0.0047490858 0.05675586 0.22688796
0.3010745 0.07199085 -0.12985356 0.28958708 -0.093631014 -0.27325818 0.024163751 0.03213972
-0.13380557 0.072922066 -0.23572685 0.064709805 -0.34085584 0.013468088 0.13526072 0.11908165
0.06895938 -0.20280853 -0.20358576 0.103182666 0.14437556 0.22794951 -0.085728854 -0.012928731
0.06583905 0.19507393 0.20124993 0.38620612 -0.14866908 -0.161446 0.010859994 0.045525894
-0.21055183 0.07549463 -0.19617562 0.104174495 0.09965292 -0.011701516 -0.00045366836 -0.25659147
0.09739215 0.12677322 -0.053274594 -0.0009208653 -0.067657255 0.020550197 -0.08771049 -0.24897626
0.17645878 0.004093004 0.04109175 -0.009198959 0.011758707 0.1564994 0.11830839 -0.037420638
-0.20534365 0.18432587 0.21170118 -0.15618788 -0.16892815 -0.26822382 -0.0297282 -0.2071201
0.016286233 0.20885266 0.046603687 0.24978016 0.2513491 -0.08016392 -0.0059524807 -0.22973506
0.10554898 0.18038246 -0.10049096 -0.19451828 0.13104989 0.11119572 0.14769462 0.14877778
0.19473864 0.20145722 -0.0273366 -0.00013223977 0.05968427 0.039070882 0.09609316 0.23262921
-0.14275041 -0.15700334 0.18016978 -0.070572086 0.087354966 -0.11018425 -0.023677304 0.208265

bias f4 [8]
00000000: 7e20 f13d 7654 4ebd 299c 45bd 4a27 8f3e
00000010: c67f 33be 76c7 223e 0d1b fe3d acc0 203e
0.117737755 -0.050373517 -0.04824463 0.27959663 -0.1752921 0.15896401 0.12407503 0.15698498

weight f4 [8]
00000000: 0585 8a3f 4e03 953f 9f06 803f fb53 693f
00000010: c83e 803f fa2c 823f 4348 713f 7aeb 7a3f
1.0821844 1.1641634 1.0002021 0.9114377 1.0019159 1.0169976 0.9425089 0.9801556

bias f4 [8]
00000000: 3f70 0d3c 452b f13d f8e3 043e ea5c 8cba
00000010: e7b1 fc3d 1bed 453e b3c5 75bd ceb6 debd
0.008632719 0.11775831 0.12977588 -0.0010708843 0.1233862 0.1932873 -0.060002994 -0.10874711

running_mean f4 [8]
00000000: 4a34 7cbe 2945 19bf 2ea5 49be b2b8 8b3e
00000010: e51e 48be fb6e 593e 44c3 853e 41e5 0d3f
-0.24629322 -0.59871155 -0.19691917 0.2728935 -0.19543035 0.21233742 0.26125538 0.5542794

running_var f4 [8]
00000000: a93e 993e 74dd 823e f6d8 2c3e 22f3 8e3e
00000010: feae ad3e b94c 8a3e 0cf6 0b3f a625 683e
0.29930618 0.2555958 0.16879639 0.2791987 0.3392257 0.2701166 0.5467231 0.22670612

weight f4 [8, 8, 3]
00000000: b94a a83e 56c4 cbbd 71dc 943e 7dbb c2bd
00000010: 0e68 b13d bd50 993e 56d5 cbbd b3d9 343d
00000020: a43f 11be 32ad 06bd 80c9 17be cd39 b0bd
00000030: f3ca 073e d918 edbc ecb5 81be c828 933c
00000040: c369 72bc a7e8 d9bd 0369 0fbe d995 923d
00000050: 3f4f 003b 0beb 43bd bb36 083e f75d 193e
00000060: 52de 99bd 378d efbd 337d c7bd 3094 283e
00000070: 8d71 76bd af4d 31be 326f 2dbc ff1e 3ebd
00000080: 5e0d 5c3d be19 f0bd 2a9a c2bd a9aa aabd
00000090: 4471 1ebe 0373 55be 9701 cebe 5380 2cbe
000000a0: 34b2 36bd 3704 a3be 81a3 543d a377 a83b
000000b0: 94a7 1dbe 746c 02be bc47 61be 17e9 903c
000000c0: f851 0b3e b68e ff3d 6602 dc3d 936f 6e3e
000000d0: 4b98 ae3d cceb 623e 83ff 073e 67d0 36bc
000000e0: f49e 613d 22a8 0fbe ce53 a4bc cf23 47be
000000f0: 8a43 ee3d 8333 e6bc f144 6c3e 217c 4cbc
00000100: 4bb6 f5bd 7c40 223e 83ff 80bd 6419 dc3d
00000110: f18d d83d 3dee 073e 0dec 233e 0378 a63e
00000120: f9f4 0a3e 3179 f13d 2bfe 87bc b14c 97bd
00000130: cb3a 21be 4e60 803e 16e7 eabb 0344 a9bd
00000140: 4eb6 303e af54 133d 0eae f3bd 0a3b a33a
00000150: e252 043e 99eb 3b3e aef4 ef3d e79d a23e
00000160: ea5c be3d 3fc2 ac3d 5224 3c3e 295e 10be
00000170: 449d 26bc e140 50be c503 91be 07b9 963d
00000180: f03f 883d dbaf 0f3e b11e e8bd f0d0 08be
00000190: 6e2f 89bd 2d0d 053d 2a31 273e ec58 47bd
000001a0: b443 20be d55d 053e 4e8d 65be 9898 4fbc
000001b0: 2cb7 4abe 9c1d f23d 2e19 ee3d e775 8abc
000001c0: 1348 4c3e b20e 44be 4a46 cabd 1325 d13d
000001d0: 490a 8c3e 397c 31be 5215 4dbe 63b2 d8bd
000001e0: 826b eebd 517c 30be a580 3cbe dd94 df3d
000001f0: b5d7 acbe e561 a1be f3c8 1fbc 5683 37be
00000200: eb8d 32be e0af 85bd c185 68bd 877c 04bd
00000210: b60b a0bd ae9b 28bd 2294 15ba c4d2 093e
00000220: 8dca 9bbd b94a 9f3e 77f6 443e b6e8 183e
00000230: 59d6 d23d b29f 3fbb 0bab 4cbe 6a85 5dbd
00000240: 25c1 e73d 17ca 5abe 40e6 d8bd 929b 77be
00000250: 2ea9 0bbb 6923 11bd 6ef0 713e 27b3 4cbe
00000260: 0ed9 703d 9b36 6d3e 6539 0b3e a3d2 773e
00000270: 85a5 863e de7d a83d ceb0 b93d a4da 363e
00000280: ed4c 353e 2f86 8d3d d23c 503e acd6 11be
00000290: 633a 4f3e 4c77 2fbe 165e 94bb 2689 d43d
000002a0: 54fc acbe d731 30ba e963 803d 60aa 78be
000002b0: ae69 823e 8f49 26bd d48f 5b3e 0b94 93ba
000002c0: eea0 b3be 7f91 c2bc 0f76 083e 2d70 22bd
000002d0: d074 473d 22d5 b9bd 7711 b73d a87c 88be
000002e0: f6e6 d43d 8c68 773d f385 8bbe f42e 343d
000002f0: 36c8 e2bc 05bc b23c 5636 3d3d 7661 f13d
0.3286951 -0.099495575 0.29074433 -0.09508417 0.08662425 0.2994441 -0.099528 0.044152927
-0.14184433 -0.032880016 -0.1482296 -0.086047746 0.13261013 -0.028942512 -0.25334108 0.017963782
-0.014795723 -0.10640078 -0.14004903 0.071574874 0.0019578484 -0.047831576 0.13302128 0.14977251
-0.07513107 -0.116968565 -0.09740677 0.16462779 -0.060166884 -0.1731479 -0.010585593 -0.04641628
0.053723685 -0.1172366 -0.09502061 -0.08333332 -0.15472895 -0.20844655 -0.40235588 -0.16845827
-0.04460354 -0.31839153 0.051913742 0.005141215 -0.15395957 -0.12736684 -0.2200002 0.01768927
0.13605487 0.12478392 0.10742645 0.2328475 0.08525141 0.22160262 0.13281064 -0.011158085
0.05508323 -0.14028981 -0.020059492 -0.19447254 0.11633976 -0.028100735 0.23073174 -0.0124807665
-0.1199766 0.15844911 -0.06298735 0.107470304 0.10573948 0.13274474 0.16008015 0.32513437
0.13570012 0.117906936 -0.016600689 -0.073876746 -0.15745084 0.25073475 -0.007168661 -0.08264925
0.17257044 0.035969432 -0.11898433 0.0012453508 0.12922242 0.18351592 0.11716591 0.31761095
0.09295066 0.08435487 0.1837323 -0.14098419 -0.010169331 -0.2033725 -0.28323188 0.0735951
0.0665282 0.14031927 -0.11333979 -0.13360953 -0.066984996 0.03248327 0.16327348 -0.048668787
-0.15650827 0.13024075 -0.22417185 -0.0126706585 -0.19796437 0.11822054 0.116258964 -0.016901923
0.19949369 -0.19146231 -0.09876688 0.102121495 0.27351597 -0.17332543 -0.20027664 -0.105808996
-0.11641599 -0.17234923 -0.18408449 0.10917065 -0.3375832 -0.3152 -0.0097525 -0.17921194
-0.1743695 -0.06527686 -0.056768183 -0.03234532 -0.07814734 -0.041164093 -0.00057059724 0.13459307
-0.07606993 0.31111696 0.19234644 0.14932522 0.1029479 -0.0029239473 -0.19987123 -0.05408231
0.11316136 -0.21366154 -0.10590792 -0.24180439 -0.0021310556 -0.03543416 0.23626873 -0.19990216
0.05880075 0.23165362 0.13596113 0.24201445 0.26298156 0.08227132 0.09066926 0.17856842
0.17705126 0.06910359 0.20335701 -0.14242047 0.20237117 -0.17135352 -0.0045278175 0.103777215
-0.3378626 -0.0006721294 0.06269056 -0.24283743 0.25471252 -0.040597495 0.21441585 -0.001125933
-0.35083717 -0.023751019 0.13326286 -0.03965776 0.048695385 -0.09073855 0.08938878 -0.26657605
0.10395615 0.060402438 -0.27250633 0.04399009 -0.027683359 0.02181817 0.046194397 0.11786167

bias f4 [8]
00000000: 742f dabd c94f 053e fb31 5e3e fa02 fabd
00000010: fe89 6bbd a212 fd3d cfcc 5fbd 4341 733e
-0.10653582 0.13018717 0.21698754 -0.12207599 -0.057504646 0.123570696 -0.05463868 0.23755364

weight f4 [8]
00000000: ee30 813f be05 993f e6ad 6e3f aa04 703f
00000010: e366 843f 75a4 783f 3082 7e3f ce68 7d3f
1.0093057 1.1954877 0.932341 0.93757117 1.0343899 0.9712594 0.994174 0.98988044

bias f4 [8]
00000000: f59d 333e 816f f63d 68fc 70be 11ae a1bd
00000010: b6b5 86bd 7e0a 533d 5af1 603e 5c87 5c3e
0.17540725 0.120329864 -0.23533785 -0.07894529 -0.06577627 0.051523678 0.21967068 0.2153601

running_mean f4 [8]
00000000: 6953 8d3c c1e4 21bf c00b 603f 53c3 653e
00000010: 2588 2dbe ff99 a7be 158d 903e 1c6d 2b3d
0.017251687 -0.63239676 0.8751793 0.22437792 -0.16946466 -0.32734677 0.28232637 0.0418521

running_var f4 [8]
00000000: aaf1 353e 7dd4 773f e8fa d43e d84d 713e
00000010: 86b9 863e efa0 803e 9538 263f 64dc 453e
0.17767969 0.96808606 0.41597676 0.23564851 0.26313418 0.25122783 0.6493009 0.19322354

weight f4 [8, 8, 3]
00000000: 7e77 8b3d 2d28 b7bd e808 8c3e 3e09 e03b
00000010: 2163 b63d fe75 423e 51e3 00bd 392d 683d
00000020: 49ea 7c3d a511 c0bd 3ab7 aa3d 3a2b a3bd
00000030: 99a5 293e 1510 92bc c0c9 b3be 00c0 1abe
00000040: 0f7c 433e 5b9f cdbd 465d 26be dafe 2a3c
00000050: f723 303d edad cd3d 0249 2abe 4b79 29be
00000060: a9cd 4c3e 451d adbd 114d 413e aabc 7f3c
00000070: e13d 0c3d fc16 2bbd 0cdb 33be 9c02 d23c
00000080: 6fd1 073d 0dcb 073e cd64 e33d 3d53 203e
00000090: 0dee 423d 3294 903d dce2 59be a120 043e
000000a0: 920a 66bd 766f 49bd 3058 023e cdcb 383d
000000b0: e6b9 82bc a48d 13be 81cf 72be b376 44be
000000c0: 2882 05be acb6 86ba 773b 5cbe 027b a33d
000000d0: 2419 d4bd 3e19 333e 4ed8 773d 4c65 7abd
000000e0: a1ed f73c d053 203d 31f8 a3be 4c14 9bbd
000000f0: f5d3 85bd a6fc 73bd db44 4ebe 778f 093e
00000100: 1791 5dbe eec5 853e 33e3 afbd f2d6 333e
00000110: 934f fc3d e36a 3d3e b5c9 c5bd d81b 5ebd
00000120: 377e 29bc 3523 ccbc 682c b53d dd77 bbbd
00000130: d9b5 00bd 14fb a73b eb01 69be ee88 72be
00000140: 9a3f 15be 82c4 633d f062 54bd 4508 8e3c
00000150: 6a07 ddbc 6f7f 17be e26b 2fbe c265 e6bb
00000160: a9b3 d1bd 5178 73bd 1132 1b3e f30b 1bbe
00000170: 488e 33be dcd3 f0bd 6bda 03be 0f84 86be
00000180: bfb5 813e ebc9 703e 8378 863c 3e1c 6bbd
00000190: 9927 c53e cfb5 9c3e da7d 97bd da27 0fbe
000001a0: 0a2d 46bd a780 dd3d f0ae c6bd 82f7 b63d
000001b0: 4287 6e3c c00c c1bd 3c2c 8bbe 0e44 71be
000001c0: 3e85 c53d de3e b4bd 8340 10be 7a69 ef3d
000001d0: c51d 35bc ce8d 64be 9bad 88bd c18e 23bd
000001e0: d60c 1bbe 081a 693d 24de 9cbc 0c8e 3cbe
000001f0: 4512 6e3e 34f3 5ebe 6fcf db3d 014b 1ebe
00000200: 1aa3 ec3d e79d 57be 9d82 1fbd 3349 42bd
00000210: 2178 8cbe c7db 62bc 8dd7 c93d 5d89 f7bd
00000220: 48e9 13bd decd f9bc daa9 e7bc 168b b1bd
00000230: f6e8 953e 20db 87be fafb 813d c176 28be
00000240: b8db a7bd dacd fbbd 156d 70be c10f a2be
00000250: 19ec 08be 4b8b 57be ca6e 5bbe 8492 ddbd
00000260: 3bd8 2dbe 8e51 a6bd 1e7d 42bb 9906 853c
00000270: aeae d93d 649d 093e 6311 5e3c 5fd7 01be
00000280: 7d51 673c 6bc0 a63d a3c7 7fbd 96d2 4d3e
00000290: d9bf 513e 0e62 dcbd 8c41 f43d 9beb b33d
000002a0: eb49 413a 725a d5bc 631f 08be aaec c3be
000002b0: f9dd a7be bd63 c2bc fdf9 ef3d 289f 473e
000002c0: e543 41be 812a 143e d451 97bd 0f80 f5bb
000002d0: 0a9f 353d e44c 25bd 8988 0bbe 463f 15be
000002e0: 761c e8bd 4817 87be 4ede 423e b552 db3c
000002f0: 7ee3 b7bd 94d0 bdbd 93f7 1b3d 1e89 4ebc
0.06809901 -0.0894321 0.27350545 0.0068370393 0.08905626 0.18990323 -0.031466786 0.056683753
0.06174687 -0.093783654 0.08335729 -0.07967229 0.16567077 -0.017829934 -0.3511486 -0.15112305
0.19090293 -0.1004016 -0.16246518 0.010436738 0.04300305 0.10042939 -0.16629413 -0.16550176
0.20000328 -0.08452848 0.18877055 0.015608946 0.0342387 -0.041769966 -0.17564029 0.02563601
0.033158716 0.13261051 0.111032106 0.15656753 0.047590304 0.07059516 -0.21277946 0.12903072
-0.056162424 -0.049178563 0.12728953 0.045116235 -0.015957784 -0.144095 -0.23711969 -0.19185905
-0.13037932 -0.0010277829 -0.21507059 0.07982446 -0.10356358 0.17490098 0.06050902 -0.06113176
0.030264677 0.03914243 -0.32025293 -0.07572231 -0.06534568 -0.059567116 -0.20143454 0.13433634
-0.21637379 0.2612757 -0.08588257 0.17562464 0.12319865 0.18497805 -0.09657613 -0.054225773
-0.010345033 -0.024919132 0.088463604 -0.091537215 -0.031423423 0.0051263664 -0.22754638 -0.23685047
-0.14575043 0.055607326 -0.051852167 0.017337928 -0.026981074 -0.14794706 -0.17130998 -0.0070311734
-0.102393456 -0.059440915 0.15155818 -0.15141277 -0.17534745 -0.11759159 -0.12876289 -0.26272628
0.25333974 0.23514526 0.016414886 -0.05739998 0.38506773 0.3060746 -0.07397051 -0.13980046
-0.048382796 0.10815554 -0.097013354 0.08933927 0.014558615 -0.0942626 -0.27182186 -0.23561117
0.096445546 -0.088010535 -0.1408711 0.1169004 -0.011054461 -0.22319719 -0.066737376 -0.039931063
-0.15141615 0.05690959 -0.019148894 -0.18413562 0.23249157 -0.21772462 0.10732924 -0.15458299
0.11554547 -0.21056329 -0.038942922 -0.04743309 -0.274354 -0.013846344 0.09855566 -0.12086747
-0.036111146 -0.030493673 -0.028279234 -0.08669107 0.29279298 -0.26534367 0.06346889 -0.16451551
-0.08196205 -0.122951224 -0.23479111 -0.31652644 -0.13371314 -0.2104923 -0.21428981 -0.10818961
-0.16977017 -0.08121024 -0.0029676626 0.016238498 0.10629021 0.13438946 0.01355395 -0.12679814
0.014118549 0.081421696 -0.062446248 0.20099863 0.2048334 -0.1076089 0.119265646 0.087851726
0.00073733804 -0.026044104 -0.13293223 -0.38266498 -0.3278654 -0.0237292 0.11717603 0.19494307
-0.18873556 0.14469339 -0.07388654 -0.0074920724 0.044341125 -0.04035653 -0.13626303 -0.14574918
-0.113335535 -0.2638495 0.19030115 0.026772836 -0.089789376 -0.09268299 0.038077902 -0.0126059335

bias f4 [8]
00000000: dcbd 2abe 0a71 53bc b0f6 fe3c af1e 42bc
00000010: 9126 39be 8661 363e b1d6 0fbe 9bd2 9dbc
-0.16673988 -0.012905369 0.03112349 -0.011848136 -0.18081118 0.1781064 -0.14046742 -0.019265464

weight f4 [8]
00000000: 7dae 7d3f 4fec 693f 2808 863f efcb 963f
00000010: cf44 813f 2d23 743f 123b 753f e818 853f
0.99094373 0.91376203 1.0471239 1.1780986 1.0099124 0.95366174 0.9579326 1.0398226

bias f4 [8]
00000000: 208d 113d 7b8e 063e caa0 303e 6dba 5a3e
00000010: 7054 c2bb b085 463e d981 8c3d 342c 7d3e
0.035534978 0.1314029 0.17248836 0.21360178 -0.005930476 0.19386935 0.06860704 0.24723893

running_mean f4 [8]
00000000: 5a0f 1cbe df92 48bc f431 93bd 1761 17bf
00000010: d720 c0bc d1fd 5fbe 01fb febe 2fc0 0fbf
-0.15240231 -0.012242048 -0.07187262 -0.5913252 -0.02345316 -0.21874167 -0.49800876 -0.56152624

running_var f4 [8]
00000000: d0bb 943e a372 473e 4498 483e 4fcf 183f
00000010: 78a8 ed3e 7b2f 113e e205 663e d26d 1d3e
0.2904954 0.19477324 0.19589335 0.5969133 0.46417594 0.14178269 0.22463182 0.15373924

weight f4 [8, 8, 3]
00000000: 97a4 6cbe 253f c2bc 5bae 323e 6d14 52be
00000010: a98e 0bbe 8f78 bb3d ff8c bf3c a117 17be
00000020: 735c 82be ad94 d8be 212e 8fbe 89b8 893d
00000030: b611 7bbe b47f 19be e00e 99be 10db 7c3c
00000040: e2d2 623b a7c0 403b 1aa6 0e3c 655a 073e
00000050: 6631 2c3d ed62 c9bd 6770 4d3e 1068 1a3e
00000060: 71dc 413e 9b15 02bd 2b92 a4bd ada1 58bd
00000070: 90db aa3d b7e7 413e 6f62 b03e fceb 6dbd
00000080: 8054 653a ae22 8cbd 0999 c3bd 5f12 4dbd
00000090: e6b7 253e 9ffa 0abd 20dd 24be 45af d1bd
000000a0: a67d c83c 858b 24be f88d 60be 3278 7a3d
000000b0: 057a 3dbe 0c49 313d 926f 933d 0d37 873e
000000c0: 3984 74be 2fc5 0ebc ab69 2c3b 1652 7ebe
000000d0: 88ca 5f3d d19e 863d 2256 83bd 15e2 073e
000000e0: 9a8b 06be eea2 48be 140b 7dbd e12c 27be
000000f0: 00d2 0fbe 4344 e6bd a989 623d 1dcf 28bd
00000100: 9b9e 823e 6516 40be f737 ff3d 8d98 103e
00000110: e2f7 f23d d259 8dbe 5dcb 48be 8de2 c13d
00000120: acd9 9abd 11e7 353d ab61 bbbd 483f 6fbd
00000130: 80f1 d1bd 3ed8 64be 8f01 3d3e ee96 e83d
00000140: 7af6 58be baea acbe ce0d 153e 5157 70bd
00000150: 95cb eabc bac1 c63c d186 b0bd 6815 4d3e
00000160: 77b6 4a3e 145e 123d 83d1 03bd 922c c73d
00000170: 1dbb 34bd 3901 8fbe bdab 533e 64d8 5d3e
00000180: 863b b23d ee44 34be 8463 47be a547 0e3d
00000190: fafc dd3d c77c d0bc 55bf 993d dbfc 3b3e
000001a0: d2f3 51be 23b0 cebe ce5f 74be e515 26be
000001b0: 5204 4dbd 402c 9c3d 6444 1cbe 0eeb cfbd
000001c0: c493 b2bc ed30 55be 879a 413e db0d 473e
000001d0: 388f 893d 473e 1ebe e2c8 393e 7897 84bc
000001e0: 27b9 76be c7d5 7fbc bf8f d53d b55a 51be
000001f0: 2178 09bd d491 4b3e 749e e6bc d4ae 71be
00000200: 2b12 b33c 8bc7 36be 3c51 babd 55cb 5a3e
00000210: 788d e3bd ba65 2bbe 76d0 073e e4b2 22be
00000220: 3ba6 523e e553 6abe 6622 6ebe 7c9a b03d
00000230: eafa 0a3e dbcc 82be d370 37be 8b63 21be
00000240: 5407 7cbe ad9d 373d 3cd4 8dbd 24b2 9fbe
00000250: 26ae 81be 6229 1b3e 31f0 653e 9935 40be
00000260: 78c6 20be ac55 07be 1455 903d 6eae e93d
00000270: d389 39bd fef0 063e 06b3 d8bc 13b2 82bd
00000280: e1d0 4a3e a9a6 e1bc 1016 b23c d8ef 823e
00000290: aaee fc3d f11c c4bd 8720 1bbe c9ba 243d
000002a0: b9bf fdbd fa57 2dbe 5657 403e 730f cebd
000002b0: a744 a3bd 370f 50bd 6d16 08bd 2bed 4fbd
000002c0: 04d8 13be 3d55 08be d35f 8abd 9d61 843e
000002d0: 7452 0fbe 99fa 41be 16e8 c5bd 75af f33d
000002e0: 4b75 7f3d b764 7dbe a573 39be 149a 7cbb
000002f0: 0b6b 3ebe 8904 31be 6b1c 283e b41a f1bd
-0.23109661 -0.02371175 0.17449324 -0.20515604 -0.1362864 0.09153854 0.023382662 -0.14755107
-0.25461158 -0.4230093 -0.2796488 0.067246504 -0.24518475 -0.14990121 -0.2989416 0.015433088
0.003461056 0.0029411705 0.008706594 0.13218077 0.042039298 -0.09833322 0.2006241 0.15078759
0.18931748 -0.031758886 -0.08035692 -0.05288856 0.083426595 0.18936048 0.344501 -0.05808638
0.0008748248 -0.06842552 -0.095506735 -0.05006635 0.16183433 -0.033930417 -0.16099977 -0.10238508
0.024473976 -0.16068847 -0.21929157 0.061149783 -0.18503578 0.043282554 0.07199015 0.26409188
-0.23878564 -0.008714004 0.00263081 -0.24836001 0.05463651 0.065732606 -0.06412913 0.13269837
-0.13139191 -0.19593403 -0.061778143 -0.16325714 -0.14044952 -0.11243489 0.055307064 -0.041213144
0.2551163 -0.18758543 0.12461846 0.14120694 0.11863686 -0.2760759 -0.19608827 0.09467039
-0.07561049 0.044409815 -0.09149488 -0.05840996 -0.102511406 -0.22348115 0.18457626 0.113569126
-0.21187773 -0.33772832 0.14556047 -0.05867702 -0.028661529 0.024262298 -0.08619464 0.20027697
0.19796167 0.03573425 -0.032182228 0.09725298 -0.044123758 -0.2793062 0.20670982 0.21664578
0.087027594 -0.1760442 -0.19471556 0.034736294 0.10839267 -0.025450123 0.07507197 0.18358175
-0.20503166 -0.40368757 -0.23864672 -0.1621929 -0.05005295 0.076256275 -0.15260464 -0.10152255
-0.021798976 -0.20819445 0.18906604 0.19438879 0.0671677 -0.15453444 0.18143037 -0.016185507
-0.24094068 -0.015614933 0.10427808 -0.20444758 -0.03356183 0.19879848 -0.028151728 -0.23601848
0.02185925 -0.17849557 -0.090975255 0.21366628 -0.111109674 -0.16738024 0.13263115 -0.15888554
0.20571224 -0.22883566 -0.2325531 0.086232156 0.13572279 -0.25546917 -0.17914133 -0.15760629
-0.2461217 0.044828106 -0.06925246 -0.31190598 -0.25328177 0.15152505 0.22454907 -0.18770446
-0.1570071 -0.13216275 0.07047477 0.11410223 -0.045297455 0.13177869 -0.026452553 -0.06381621
0.19806243 -0.02754529 0.021739036 0.2557361 0.12350209 -0.09575833 -0.15149127 0.040217195
-0.12390084 -0.16928092 0.18783316 -0.100615405 -0.07972079 -0.05079576 -0.033224512 -0.05076329
-0.14437872 -0.13313766 -0.06756558 0.25855723 -0.13996297 -0.18943252 -0.096634075 0.118987
0.06236772 -0.24745451 -0.18110521 -0.0038543986 -0.18595521 -0.17286886 0.1641709 -0.11772671

bias f4 [8]
00000000: 5ebd 14bd ffaa 10be e689 0d3e 37b6 aabd
00000010: b088 78bd 8193 3d3e 9fa5 0d3d 3595 ad3b
-0.036313407 -0.1412773 0.13822135 -0.08335536 -0.06067723 0.185133 0.034581777 0.005297328

weight f4 [8]
00000000: e1c3 523f aca9 4d3f 4efb 343f 4018 4d3f
00000010: 3413 383f a58a 453f 5041 303f 15dd 4d3f
0.8233014 0.80337024 0.7069596 0.8011513 0.719043 0.7716468 0.6884966 0.8041547

bias f4 [8]
00000000: b7f5 a8bd e0f7 54be 838c 3bbe d4f1 46be
00000010: fe8e 3ebe 8f14 57be c124 13be 92da 74be
-0.082499914 -0.20797682 -0.1831532 -0.19428188 -0.18609235 -0.21003936 -0.14369489 -0.23911503

running_mean f4 [8]
00000000: 3e54 2dbf 8270 d2bd d5ff 9cbe 8717 00be
00000010: 92cb febe 5fba d5be bd27 dbbd 09db 13bf
-0.6770667 -0.102753654 -0.30663934 -0.12508975 -0.49764687 -0.41743752 -0.10700939 -0.57756096

running_var f4 [8]
00000000: 757c d03e b26c 4c3e c4cc b23e 4043 2f3e
00000010: e78a be3e 3526 ac3e 205e ae3e 3518 5d3e
0.40719953 0.19963339 0.3492185 0.17115498 0.3721535 0.336229 0.34056187 0.21591265

weight f4 [128, 25]
00000000: db6c 653e f144 40be 1d0e 093d 3cbe 4fbe
00000010: 2120 0ebf 2179 fdbe c3ac 98be 73eb 63be
00000020: 401d 81bc ff42 643e d720 333e 550a 83be
00000030: e22a 2f3e 5e2f 5f3c 9977 efbd 4ddd 2fbe
00000040: 6c7d 603e 2c29 83bd 6f1e cabd a6d9 2c3d
00000050: 18a7 6bbd f8c7 87be 7226 06be e550 72bd
00000060: 8be8 ab3c ead7 fa3d 0f2a bc3d 946c 173c
00000070: 953c 0fbd 0255 253d c45a 193e 3109 803e
00000080: 1de7 a03e e2fe b73d 25f3 36be e269 3dbe
00000090: 769f 76be d7ea 99be 8d38 0d3e 9aba bfbd
000000a0: d9d8 efbc cfd5 31be 30f9 bd3d e938 3bbe
000000b0: b75e f0bd ea77 e1bd beb1 23be ab17 263d
000000c0: 52d7 603e ba08 ddbd b3ea 0fbf a159 0dbf
000000d0: 3d26 c5be c915 1fbe f903 f93d 3558 353e
000000e0: 37e9 3fbe 493a 19bd 2038 173c 8945 1fbe
000000f0: 9a65 56be d107 483d c27b 323e 45e1 013d
00000100: 455f d5bc 5e95 90be 5661 8bbe 5ec8 613e
00000110: aa0b 1dbd c19a a8bc 63ae 603e e50f 513e
00000120: 6e6b 3f3e 8acd fa3d a325 cdbc 704b 8ebe
00000130: fa0f c0be ecc1 0bbe 0fbe 2dbe 043e 2dbd
00000140: eb4e afbe 8ba6 583c 994c 0b3e 0ce9 2b3e
00000150: 2165 093e 62bf 273d e454 4d3d 248f 80be
00000160: a08d 95bd 1b68 ed3d 52a6 263e 4ff8 2c3e
00000170: de31 983d 6b57 49be 3186 b83e b647 b9bd
00000180: 5014 52bd 991a 8fbd 37bd 2abe 55ed 553e
00000190: 78ac 793e bf23 8b3e 0bc6 ae3e c24b 0a3c
000001a0: d86a 793d cd97 3fbd dbbf d43d 1422 603d
000001b0: 7fd1 04be c85d 04be 00bc 21be b619 c1bc
000001c0: f54a 46bc 925a e4bd 8656 5fbe 2c41 0e3e
000001d0: ba46 dbbd adcc 313d ac66 f4be 0465 0dbe
000001e0: f9d1 09be f9e5 17be a3ce 27be bf9c 61bd
000001f0: c624 063d 783e c0be c585 a63e ee8a 3abe
00000200: 3845 63be 4234 dbbd 5630 93be 0621 03bf
00000210: ff0a 12be dc53 4e3e 47da 283e b65e 063c
00000220: 3ec4 ae3d 8577 a0bd 693b 8a3d e54c 81be
00000230: 283e 60bd b310 833d 34b9 f9bc e35a e6bd
00000240: e09d 283e c571 693e d491 95bd 5f2d c83d
00000250: 93b4 3fbd 77ae 8ebc 5c78 0fbd 875a f7bb
00000260: 4cd7 1b3e 484f 10be ecf1 143e 0c64 973e
00000270: 795c 263d ee4c 863e c31f fdbe 80f4 bdbe
00000280: c17f 9dbe 0195 453e 9626 37bd da55 503e
00000290: 92b3 87be 4aa9 2b3e 336e 0c3e d9f7 edbc
000002a0: 71cc 033c 7973 49be 2b9c 78bd 94f0 8abe
000002b0: 48fd 963d 3e41 373c db9a 78be 39ab 003d
000002c0: e986 59bd da87 003e fb9e 8fbc 96aa 9ebd
000002d0: 0914 4b3d 1c2b 863e 15c1 7abd e876 623d
000002e0: fbc7 56bd 2b8e 90be 3416 1dbe e32b 363d
000002f0: d98b 90be dcf4 4cbe e0cb 013e e7a3 aabd
00000300: 3a79 87be d74e 81be 0ff1 74be ce54 9abe
00000310: ab1b 2ebe 711c dfbd 5972 153d c310 e83d
00000320: 114f 213e ec02 0d3e 3739 23bb 0a4f 9bbe
00000330: e16e 6fbe ddb9 3cbe 469c 2fbb d565 903e
00000340: f623 103d 6db9 acbe ef2d 1abe 7ab4 bdbd
00000350: 7f44 1ebe ec36 963b 65b7 e7bc 81c8 7d3e
00000360: 0d4a 14be 36eb 12be 9284 56be b0df 533e
00000370: 3c7b 92bd fb2c 133e c656 883d 3e5e 91bb
00000380: 16b0 e33b d53e f2be 234a c43e 6fe4 c9bd
00000390: edd8 4bbe 8903 14bf 60cd ecbe 004e 27bf
000003a0: 56eb 0fbf 8295 1c3e 1bc4 22bc a2ac 053d
000003b0: 3ea9 643e d3fb 453d 4c5c 68bd bfb2 a1bd
000003c0: 5747 183e c617 34bd c8a5 6cbe 238f 1bbe
000003d0: a249 3fbd 769b 63be b4b2 f3bd efd0 cf3d
000003e0: 992d ddbd a7d6 073c 5bb4 823c 0438 1fbe
000003f0: 4e6d 143e ca25 7f3d 2328 713e 2060 92be
0.22404806 -0.18776299 0.033460725 -0.20287412 -0.55517775 -0.49506477 -0.29819307 -0.22257785
-0.015761018 0.22291182 0.17492996 -0.2559382 0.17106202 0.013622133 -0.11692733 -0.17174263
0.21922845 -0.06404337 -0.09869086 0.042199753 -0.0575324 -0.26519752 -0.13100603 -0.05915918
0.020984909 0.122482136 0.091877095 0.009242196 -0.034969885 0.040364273 0.1497603 0.25007012
0.31426325 0.08984162 -0.1786619 -0.18497422 -0.24084267 -0.3006198 0.13791104 -0.09361763
-0.029278206 -0.17366718 0.09276044 -0.18283428 -0.117368154 -0.110092 -0.15985772 0.040549915
0.21957138 -0.1079268 -0.562175 -0.5521489 -0.38505736 -0.15535654 0.12158961 0.1770943
-0.18741308 -0.0374091 0.00922969 -0.1555387 -0.20937195 0.04883558 0.17430022 0.031708974
-0.026046405 -0.28238958 -0.272227 0.2204909 -0.0383412 -0.020581605 0.21941523 0.2041622
0.18693325 0.12246235 -0.02504236 -0.2779193 -0.3751219 -0.13648194 -0.16967033 -0.04229547
-0.34239897 0.013223301 0.13603438 0.16788119 0.13417484 0.040954 0.050129786 -0.25109208
-0.073024035 0.11592122 0.16274384 0.16891597 0.074313864 -0.19662254 0.3603988 -0.09046881
-0.051288903 -0.06987495 -0.16673742 0.20891316 0.24382198 0.2717571 0.3413547 0.008440914
0.06089291 -0.046775628 0.10388156 0.05472 -0.12970541 -0.129264 -0.15794373 -0.02357183
-0.012102832 -0.111500874 -0.2181035 0.13892049 -0.107068494 0.043408085 -0.47734582 -0.13808066
-0.13459004 -0.14833821 -0.1638742 -0.055081125 0.032749914 -0.3754766 0.32523933 -0.1821706
-0.22194374 -0.10703327 -0.28747815 -0.51222265 -0.14262007 0.20149177 0.16489516 0.008201292
0.08533524 -0.078352965 0.06749613 -0.25253978 -0.054746777 0.063996695 -0.03048382 -0.11247804
0.16466475 0.22797306 -0.07303205 0.09774279 -0.04680307 -0.017417176 -0.035026893 -0.0075486335
0.15218848 -0.14092743 0.14545411 0.29568517 0.040615533 0.26230568 -0.49438295 -0.371006
-0.3076153 0.19295122 -0.044714533 0.2034525 -0.2650419 0.16763797 0.13713913 -0.029048847
0.008044348 -0.19672956 -0.06069581 -0.27136672 0.07372528 0.011184989 -0.24277823 0.03141329
-0.053107176 0.12551823 -0.017531862 -0.077473804 0.049579654 0.26204765 -0.061219294 0.05528918
-0.05243681 -0.28233466 -0.15340501 0.044475447 -0.28231695 -0.20015281 0.12675428 -0.08332043
-0.26459676 -0.25255463 -0.23920082 -0.30142826 -0.17002742 -0.10894097 0.036486004 0.11331322
0.15752818 0.13770646 -0.002490593 -0.3033374 -0.2338214 -0.18430276 -0.0026796027 0.28202692
0.035190545 -0.3373522 -0.15056585 -0.09262939 -0.15455817 0.004584184 -0.028285692 0.24783517
-0.14481373 -0.14347538 -0.20949009 0.20690799 -0.07152411 0.14372627 0.06657176 -0.0044362834
0.0069484813 -0.47313562 0.38337812 -0.098580234 -0.1990697 -0.57817894 -0.4625044 -0.65353394
-0.5621847 0.15291408 -0.0099344505 0.03263534 0.22330186 0.04833586 -0.056728646 -0.07895421
0.14870964 -0.043967985 -0.23110116 -0.15191321 -0.04670108 -0.22227272 -0.11899319 0.10147273
-0.10799713 0.008290923 0.01595514 -0.15548712 0.14494821 0.062291898 0.23550467 -0.28588963

bias f4 [128]
00000000: 14d5 a73d 633e 193e a893 f6bb d2f1 1dbe
00000010: 4cdb 023e 2132 90bc 8792 f3bd ca77 253e
00000020: 94f9 9ebc 3b98 fd3a 12e0 ce3d 54d7 ecbc
00000030: 6061 22bd 21f3 b13d f482 57bd a64c 053e
00000040: c0df 673e ef0c c4bd 17cc 7bbd 7195 4ebc
00000050: 681c 9ebd e2be 7fbd eeee 78be 6734 2abe
00000060: 0980 8b3d b3c2 eebc ad88 163d 383d 6a3c
00000070: 13f7 043e 4954 e43c 80db ef3c ae93 5e3d
00000080: 82a1 38bc fd0b 0abe d007 19be e6b8 273d
00000090: 4761 073e 1f0a cfbd 2802 2dbd e61b 6d3d
000000a0: 6d83 ce3d caa1 fc3d 15d4 52be 84d2 bebc
000000b0: 1997 b33d c027 53b9 d686 00be c436 8bbd
000000c0: 1cb0 d23c c9e9 b83b 5524 18bc dd4b 883d
000000d0: ecf9 683d 81e1 91bd c7aa 053e 4674 40be
000000e0: 2617 03be 6bd0 48bb f46c 64bc 410b d43d
000000f0: cb4c 673e f160 b2bc 18ac 00be 2e7d 853e
00000100: d23d 55bc 95df ab3d 6a8e f03d bf60 f2bd
00000110: e068 fb3d 093c 65bd cd72 86bb 295c 2c3e
00000120: b34d 193e 1d4b 01be 0b63 23bd f0e1 c3bd
00000130: d015 2e3e 1660 03be b08d f2bd 8862 923b
00000140: 4abe 03be 3027 83bd 715a 6b3e 096b bbbd
00000150: 886b 443e 2326 843d 9c61 debd d76b 6f3a
00000160: eaca d43a 0476 ddbd 49e0 3dbe 2c1f 7f3e
00000170: 36fa dc3d 1d3e acbd cf47 92bd 8635 3bbe
00000180: e1a3 3cbe 3c18 ea3c 2046 ac3d 7031 e93d
00000190: 6fd1 2b3d 2068 4dbd f464 70bd 81c4 32be
000001a0: 94b6 4f3d 835f 75be 2ea5 fabd df0a 4cbe
000001b0: 0f51 b8b9 da14 40bd c5d6 c53c d891 d3bd
000001c0: 4b94 143e abcf 87bc f4e0 07be 57fc 4a3d
000001d0: d884 3abd f83c 7f3c df47 13be 2f79 323e
000001e0: 6878 db3c 3067 a13d 0d0a 5dbd a559 febc
000001f0: 15b7 9ebd 4f6e f83c 6825 0e3e 6f13 2a3d
0.08194938 0.14965205 -0.007524926 -0.15424278 0.12778968 -0.017602028 -0.11893182 0.16158977
-0.019406117 0.0019347736 0.10101332 -0.02891127 -0.039643645 0.08688951 -0.05261512 0.1301752
0.22643948 -0.095727794 -0.061473932 -0.012608872 -0.07720262 -0.0624379 -0.24309894 -0.16621552
0.0681153 -0.029145574 0.036751438 0.014296822 0.12984876 0.027872222 0.02927947 0.054340057
-0.011268975 -0.13481136 -0.14944386 0.040947817 0.13220702 -0.10109352 -0.042238384 0.057887934
0.10083661 0.12335546 -0.20588715 -0.023293741 0.08769054 -0.00020137336 -0.12551436 -0.06797555
0.025718741 0.0056431037 -0.009286006 0.06655095 0.05687897 -0.071230896 0.13053428 -0.18794355
-0.12801799 -0.0030641805 -0.013941992 0.10353709 0.22587888 -0.02177474 -0.12565649 0.26072067
-0.013015227 0.08392254 0.11745913 -0.11834859 0.12275863 -0.055965457 -0.004103041 0.16832031
0.14971046 -0.1262631 -0.039889377 -0.095645785 0.17000508 -0.12829623 -0.11843431 0.0044673122
-0.12865558 -0.06403959 0.2298372 -0.09151275 0.19181645 0.064525865 -0.10858461 0.0009133196
0.001623479 -0.10813525 -0.18542589 0.24914235 0.107899114 -0.08410285 -0.07142603 -0.18282136
-0.1842189 0.028576009 0.08411813 0.113863826 0.04194778 -0.05014813 -0.058690026 -0.17457773
0.05071123 -0.23962216 -0.12238537 -0.19926022 -0.00035155608 -0.046894886 0.024150262 -0.10330552
0.14509694 -0.016578516 -0.13269407 0.049557056 -0.045536846 0.015578501 -0.14382885 0.1742904
0.026790813 0.078810096 -0.053964663 -0.031048605 -0.07749764 0.030326037 0.13881457 0.04152244

weight f4 [128, 127]
00000000: a27b 813d 9403 9abd e1be 2a3d e114 a73d
00000010: 5221 b7bc 2dc6 993c 11c0 a53b c084 84be
00000020: 8907 573c 552d be3d b210 b2bd 2ff2 3cbe
00000030: 1c57 313e bb0a 933d 9452 5f3d b233 07be
00000040: 28e9 f0bd 66ef 12be b253 a6bd 36e6 d73d
00000050: 2726 033c 9e26 20bd 2b43 ca3d 34e5 8f3c
00000060: 9b81 e6bb c5d0 e5bd 9656 0abe e8e7 01be
00000070: 8c4d 5bbd d0bd 963d f78c 03be 4a15 f139
00000080: 70bd 8abd 8b36 c33d b54c 6339 9c8b 853c
00000090: b84b fdbc a0c6 dfbd edb0 d73d 399d ef3d
000000a0: c654 03bc 4066 fe3c 976d 10bc cd99 3d3d
000000b0: 722a 6b3d 6cb4 4abe e837 edbd 74a0 ec3d
000000c0: d429 053e 5148 38bd e200 2bbd a2c6 62bd
000000d0: f5c6 e9bd 51ba 0bbe b351 b4bd a3ce eb3d
000000e0: 444c ab3d 36f5 263c 58b1 15bc eef0 2c3d
000000f0: 3e15 3d3d 4183 753c ee4a 483d 142e 863d
00000100: c77b dfbb bcc2 ddbd 15b1 e43d 8fdc 803e
00000110: fba2 af3c ec03 71bd 14b6 00be f1f0 13bd
00000120: 7ce5 1dbd ada8 70bd 33ea fe3d 7e18 d93d
00000130: 0018 0f3e d3ed 283d 3603 0a3d 4367 53bd
00000140: 0bd4 37bd 7407 0bbe e84b 0ebe 6257 80be
00000150: e8f1 1d3c cabf 973d 9939 18be 0656 fdbd
00000160: cce5 743d 46bc 40bd 1a77 0bbe be84 a53c
00000170: fcb4 bb3d b59f 95bd caa3 5bbd a28e 8e3d
00000180: aca1 11bc defd d0bd 914b 57bd afd8 2d3d
00000190: 4d05 9fbd 2d63 b63c 5229 683c ae3f df3d
000001a0: 08ee a73d c703 fa3c 8206 2dbd fc77 be3d
000001b0: 899c 3f3e 4378 2fbd 959c 843c c99e e33d
000001c0: b943 c83b 8fc3 373c 4d46 353b 5751 f9bd
000001d0: 6436 dbbd af32 8cbb 86f5 d53d eec4 babd
000001e0: 4365 6bbd 016d 38be cc88 9abd f5a9 c4bd
000001f0: 18ba 60bc 07a5 a9bd 48ce 5cbe 5355 c73b
00000200: 1324 1ebe 3b83 4dbe 3aa5 a1bc 0ba8 c5bb
00000210: 0e73 0d3d a0dd 013e 8817 fcbd a673 fd3d
00000220: 9ca9 d33d c8e8 80be 7c06 afbd 10dd 0b3e
00000230: 9049 883d 9604 e73d c299 2ebd 7566 ebbe
00000240: c7c1 223e 8fe5 933d 88b4 dc3d 8fe4 b73c
00000250: d833 d3bc cf2e 99bd f9ef c4bd 4aa3 603d
00000260: 404f 6d3d e3d8 d1bd 311b b4bd 72a8 9ebe
00000270: 33ac 62be d040 53bd 6d69 aa3c 4b2d 8c3d
00000280: 8382 063e 6f50 2f3d 9319 7abd 26f5 903d
00000290: 31a3 99be 25b6 05bc 6af4 a73d 57cf 47bd
000002a0: 29de 93bd 922c 13be f107 d0bd 4f75 773d
000002b0: 6836 4bbc e8bc 67be cf98 083c 5fd3 5b3d
000002c0: 8288 953d fc62 22bd c9d2 763b 1249 67bd
000002d0: 722c 45be ce12 4ebe cc2b 763d 9b5f 683d
000002e0: 54a4 81bc 2f65 d4bd 2b4d cf3d bc19 4f3d
000002f0: bbc6 a53b ee2a bd3c 83d5 3c3e 62d0 cb3d
00000300: 2e2f 13bd 643f 233e c668 a93d 29fd fb3c
00000310: 29ed f0bb 9d9a a4be 4f41 11be b280 053d
00000320: 09da c93d f3c6 8a3c 09d6 4c3d cd57 c63d
00000330: 07a7 e9bd 4bc1 9fbe 8de5 0cbe ba78 76be
00000340: 3e65 fdbc db8c 49be 758d 25be df07 163e
00000350: f94e fb3d b425 45be 6827 69be 689c 653d
00000360: c138 8d3d bcc7 6f3d a470 d2bd d8f8 e93d
00000370: 3cd5 50bc d108 febd e8fe 903d 6e9e 0fbc
00000380: b03e 5cbd 5637 82bd 0d94 203a 7d1a 35be
00000390: 0b3c 24be 158b 2bbe 5cc9 40bc ed71 a73d
000003a0: f16b 59be 33eb 63be becb 1d3e 973b c33d
000003b0: d6b0 60be a64a 85be 0a83 273e 0a0b 763e
000003c0: 727b ad3d d146 50be fc04 77be 92af 8ebd
000003d0: 1af9 213d e896 053e 3311 aebe 1587 05bf
000003e0: a57b bfbe ec0a d9be 7c60 82b9 7105 a13d
000003f0: 0e7a 68be 8754 8abe 71a6 693d 8df3 f73d
0.06322409 -0.07520214 0.041685943 0.08158279 -0.022354756 0.018771255 0.0050582965 -0.2588253
0.013124355 0.0928599 -0.08694591 -0.1845176 0.17318386 0.07179781 0.054522112 -0.13203314
-0.11763221 -0.14349136 -0.08121432 0.10541956 0.008004702 -0.03909933 0.098760925 0.017565347
-0.007034493 -0.1122146 -0.13509592 -0.12686121 -0.05354075 0.073604226 -0.12846743 0.00045982964
-0.067744136 0.095318876 0.00021676983 0.016301923 -0.030919895 -0.109265566 0.10531793 0.1169991
-0.008015817 0.031054616 -0.008815191 0.046289254 0.057413526 -0.19795388 -0.11582929 0.115540415
0.13004237 -0.04499084 -0.04174889 -0.055365212 -0.11414901 -0.13645293 -0.088046454 0.11514022
0.08364156 0.010190299 -0.00913652 0.042221956 0.046162836 0.014984907 0.048899584 0.065517575
-0.0068201753 -0.10828158 0.11166588 0.25168273 0.02144002 -0.05884163 -0.12569457 -0.03611845
-0.03854893 -0.05875461 0.12447014 0.10600375 0.13973999 0.04124243 0.03369447 -0.05161215
-0.044879954 -0.13577062 -0.13896143 -0.25066668 0.0096401945 0.07409628 -0.14865722 -0.12369923
0.059789464 -0.04705455 -0.13619652 0.020204898 0.091653794 -0.07305852 -0.053623 0.06960799
-0.008888643 -0.10204671 -0.0525623 0.042442974 -0.07764683 0.022264088 0.014170008 0.10900818
0.08199698 0.03051938 -0.042242534 0.09300229 0.18712057 -0.0428393 0.016187945 0.1111427
0.006111589 0.011216058 0.002766031 -0.121737175 -0.107037336 -0.004278503 0.104472205 -0.091195926
-0.057469618 -0.18010332 -0.07545623 -0.09602729 -0.013716243 -0.082834296 -0.21563065 0.0060831695
-0.15443449 -0.20069592 -0.019732106 -0.006031995 0.034533553 0.126822 -0.12309176 0.12375574
0.10335085 -0.25177598 -0.08546159 0.13658547 0.06654656 0.112801716 -0.042627104 -0.45976606
0.15894233 0.07221519 0.10776621 0.022447852 -0.025781557 -0.07479631 -0.09616084 0.054843225
0.057936907 -0.10246446 -0.08794249 -0.3098789 -0.22136001 -0.051575482 0.020802224 0.068445764
0.13135724 0.042801317 -0.061059546 0.07078008 -0.30007318 -0.008161102 0.08200915 -0.04878172
-0.07220108 -0.14372471 -0.10157765 0.06041461 -0.012403108 -0.22630656 0.008337214 0.053668376
0.073014274 -0.03964518 0.003766226 -0.05646617 -0.19255236 -0.20124361 0.06010036 0.0567318
-0.015825428 -0.10370862 0.101221405 0.05056165 0.005059091 0.02309176 0.18440823 0.09951855
-0.035933666 0.1594215 0.08271937 0.030760365 -0.0073524904 -0.3214921 -0.1418507 0.032593437
0.0985604 0.01694057 0.050008807 0.096847154 -0.11408811 -0.31202158 -0.13759442 -0.24069491
-0.030932065 -0.19682638 -0.16167243 0.1465144 0.12270922 -0.19252664 -0.22768939 0.056057364
0.068955906 0.05854009 -0.10275391 0.11424416 -0.012746152 -0.12404025 0.070798695 -0.0087658
-0.05377072 -0.06358211 0.0006125577 -0.17685886 -0.1603853 -0.16752274 -0.011766758 0.081760265
-0.21232583 -0.2225769 0.15409753 0.0953285 -0.21942458 -0.26033515 0.16358581 0.24027649
0.08470811 -0.20339514 -0.24122995 -0.06967081 0.039544202 0.13045847 -0.33997497 -0.52159244
-0.3739902 -0.42391145 -0.0002486742 0.07862366 -0.2270281 -0.27017614 0.057043497 0.121070005
