nn/checkpoints/main_material_different/9/model_0.pt (torch, 451231 bytes, 98 tensors)

weight f4 [8, 5, 3]
0	0x3e43685e	0.19082782
1	0xbd6ecf1f	-0.058302995
2	0x3cb53432	0.022119615
3	0xbd62fc2d	-0.055416275
4	0x3ca55c18	0.020185515
5	0x3e8d17d6	0.27557248
6	0x3c975628	0.0184737
7	0x3de06a07	0.10957723
8	0x3e59f2f9	0.21284093
9	0xbe5e44b1	-0.21705891
10	0xbdde3e1b	-0.108516894
11	0x3d659f03	0.05605985
12	0x3e4a5736	0.19759831
13	0x3e7cdb42	0.24693015
14	0xbe3a5027	-0.18194638
15	0xbd03791e	-0.03209793
16	0x3e418d28	0.18901503
17	0xbd37f647	-0.044912603
18	0xbe070bc4	-0.13188082
19	0x3bbc46aa	0.0057457285
20	0xbe3de6f3	-0.18545131
21	0x3e61ea78	0.22062099
22	0xbcbc3e25	-0.022978852
23	0xbd79086e	-0.060799055
24	0x3e378a75	0.17923911
25	0x3ca93eed	0.020659888
26	0xbd95c0d8	-0.07312173
27	0xbda8ecb4	-0.082482725
28	0x3d00a6da	0.031409122
29	0xbdf17909	-0.11790664
30	0x3e26e0d2	0.162967
31	0x3e6bf682	0.23043254
32	0xbd0e8f7c	-0.034804806
33	0x3e3b3b6b	0.18284385
34	0x3e8b9e9f	0.27269456
35	0xbe75b378	-0.23994243
36	0xbe3f5fc2	-0.18688872
37	0x3dd687f2	0.10475148
38	0xbe6d88cc	-0.23196715
39	0xbe6d9bf9	-0.2320403
40	0x3e476c76	0.19474968
41	0x3e80a58f	0.2512631
42	0xbe27ba4e	-0.16379663
43	0xbdfc4c55	-0.12319247
44	0xbe2f481c	-0.17117351
45	0x3e46a7d7	0.19399963
46	0xbdc07a45	-0.09398321
47	0xbe099514	-0.13435775
48	0x3db04e75	0.086087145
49	0xbdf7cfcb	-0.1210018
50	0x3e22a5bb	0.15883534
51	0xbe4ffedd	-0.20312066
52	0x3c06295b	0.008188571
53	0xbc2267d8	-0.009912454
54	0x3d7d689a	0.061867334
55	0xbe5ffe94	-0.21874458
56	0x3e3008bb	0.1719083
57	0x3d9e2828	0.07722503
58	0x3e76dfe9	0.24108852
59	0xbe3cb959	-0.1843008
60	0xbe4e7f98	-0.2016586
61	0x3dec4c06	0.11537938
62	0xbe070ad5	-0.13187726
63	0x3df67d2f	0.120355956
64	0xbda7d2db	-0.08194514
65	0x3d5e48bb	0.05426858
66	0x3e26b96d	0.16281672
67	0x3dbae535	0.09125749
68	0xbe1a5ffc	-0.15075678
69	0xbdb2dfff	-0.0873413
70	0xbc11a9d3	-0.008890587
71	0xbe409d9a	-0.1881012
72	0xbe5a9619	-0.2134632
73	0xbe4160f6	-0.18884644
74	0x3e28e399	0.16493072
75	0x3e666a99	0.22501601
76	0x3d9017e0	0.07035804
77	0xbd1f8507	-0.038945224
78	0xba85fce8	-0.0010222467
79	0x3e5ecd06	0.21757898
80	0xbe2aaa88	-0.16666615
81	0x3d82c2b5	0.06384794
82	0xbe2f6dbe	-0.17131707
83	0xbc715df9	-0.0147318775
84	0xbded61a2	-0.115908876
85	0x3db65105	0.08902172
86	0x3e1e696b	0.15469901
87	0xbe0bc68d	-0.1364996
88	0x3e02ac15	0.12760957
89	0xbc163105	-0.009166961
90	0xbe3d7e95	-0.18505318
91	0xbe47aafe	-0.19498822
92	0xbdab0429	-0.08350403
93	0x3de6f2c3	0.11276772
94	0xbe32de6b	-0.17467658
95	0xbe33e7cd	-0.17568894
96	0xbd9403e6	-0.07227306
97	0x3e714078	0.23559749
98	0xbd1c7e2b	-0.03820626
99	0xbe2b631e	-0.16737029
100	0x3e1f8181	0.15576746
101	0x3dcbdc3b	0.09954115
102	0xbcfc73e5	-0.030816982
103	0xbe6173b8	-0.220168
104	0x3d26db85	0.040736694
105	0xbc524468	-0.012833692
106	0xbd67bf9e	-0.056579225
107	0xbd7945db	-0.060857635
108	0x3e0b49c6	0.13602361
109	0xbdbb297d	-0.09138773
110	0xbe400da0	-0.18755198
111	0x3e3ff9b7	0.18747602
112	0xbcf8745e	-0.030328926
113	0xbe1d53fd	-0.1536407
114	0x3e876b9b	0.26449284
115	0xbe4ee42d	-0.2020423
116	0xbcba39bc	-0.022732608
117	0x3d9294bf	0.07157277
118	0xbe49d4d0	-0.19710088
119	0x3e19453f	0.14967822

bias f4 [8]
0	0x3e6c9f5d	0.23107667
1	0xbe367883	-0.17819409
2	0x3d890ab1	0.06691492
3	0x3d16a93e	0.036782496
4	0xbe4206dd	-0.1894793
5	0x3d1c8c46	0.038219713
6	0xbe51616a	-0.20447317
7	0xbad1c473	-0.0016003981

weight f4 [8]
0	0x3f7bf284	0.98416924
1	0x3f819ec7	1.012658
2	0x3f80a71b	1.0050997
3	0x3f7bc948	0.98354006
4	0x3f83f483	1.0308994
5	0x3f819f71	1.0126783
6	0x3f812edb	1.0092424
7	0x3f7aef10	0.9802103

bias f4 [8]
0	0xbb8dd97e	-0.0043289056
1	0x3c523a00	0.012831211
2	0xbc1b239c	-0.009468939
3	0x3c77b280	0.015118241
4	0x3bdd3037	0.0067501324
5	0x3d1cc69a	0.03827534
6	0x3ca3d663	0.019999688
7	0xbd4db360	-0.050219893

running_mean f4 [8]
0	0x3f252604	0.6451113
1	0xbe247f3f	-0.16064166
2	0x3dc78e48	0.09743935
3	0x3c895b7b	0.016767254
4	0xbf070e7d	-0.5275648
5	0x3e68a84c	0.2272045
6	0xbf191116	-0.59791696
7	0xbe07598d	-0.13217755

running_var f4 [8]
0	0x3f63b70f	0.889512
1	0x3e342228	0.17591155
2	0x3ee21397	0.4415557
3	0x3e089663	0.13338618
4	0x3f5df55f	0.8670253
5	0x3e9a308c	0.30115163
6	0x3f4e43c8	0.80572176
7	0x3ec866fa	0.39141065

weight f4 [8, 8, 3]
0	0x3e1f2085	0.15539749
1	0x3dd037b9	0.10166878
2	0x3d35e5c3	0.04440857
3	0xbd9d7792	-0.07688822
4	0x3d8bf48c	0.06833753
5	0x3e52f54f	0.2060139
6	0x3e4a9ffe	0.19787595
7	0xbd33369a	-0.043753244
8	0xbd9db6fd	-0.07700918
9	0x3dc86f5e	0.097868666
10	0x3d9011f0	0.07034671
11	0x3e3a2298	0.18177259
12	0xbd71991d	-0.05898391
13	0x3da7277a	0.081618264
14	0xbd7874bc	-0.0606582
15	0x3e063d0c	0.13109225
16	0xbe21d0f7	-0.1580237
17	0x3c271ee2	0.010200234
18	0xbe2756ca	-0.16341701
19	0x3e32e767	0.17471085
20	0x3d5c441a	0.053775884
21	0xbd67d331	-0.056597892
22	0x3e30b0e9	0.17254986
23	0x3e3c69b3	0.18399696
24	0xbde72f40	-0.11288309
25	0xbe1b2dec	-0.15154237
26	0x3c93c077	0.01803611
27	0x3948c9a7	0.00019148608
28	0x3e385fed	0.18005343
29	0x3da77f4b	0.08178576
30	0x3d00e5ed	0.031469274
31	0x3e1dc64a	0.15407673
32	0xbd8878ea	-0.066636875
33	0x3e0c22be	0.13685128
34	0xbe4fbc11	-0.20286585
35	0xbd30f333	-0.043200683
36	0x3ce39e0a	0.02778532
37	0xbcd65105	-0.02616168
38	0xbb8eb035	-0.0043545016
39	0xbe26984d	-0.16269036
40	0x3d708e8f	0.058729704
41	0x3e34c46c	0.17653054
42	0x3da418b5	0.08012525
43	0xbd8ba0c5	-0.06817774
44	0xbde107f5	-0.10987846
45	0xbdbf3a7d	-0.09337328
46	0xbdb2d31e	-0.08731674
47	0xbcf15eff	-0.029464243
48	0xbd098e14	-0.033582762
49	0x3d49898d	0.049203444
50	0xbe280432	-0.1640785
51	0x3df25182	0.11831953
52	0xbde504b4	-0.11182538
53	0x3e4ebcdb	0.2018923
54	0xbde07de6	-0.10961513
55	0xbd375531	-0.04475898
56	0xbc5fb11f	-0.013653069
57	0xbdf138f4	-0.11778441
58	0xbe3a9092	-0.18219212
59	0xbe347d24	-0.17625862
60	0x3d78a58d	0.060704757
61	0x3e17f9d6	0.14841399
62	0x3dc3eb06	0.095663115
63	0x3d8b7a9d	0.06810496
64	0x3e0e31a9	0.13886131
65	0xbdc20c76	-0.09475033
66	0xbda0ba96	-0.078480884
67	0x3e6f7e0c	0.23387927
68	0x3d9d5f3a	0.07684179
69	0xbdbb4aa2	-0.091450945
70	0x3dc5282a	0.09626801
71	0x3c333340	0.010937512
72	0x3e4eda72	0.20200518
73	0xbd83a90e	-0.06428729
74	0xbdbc8e1d	-0.092067935
75	0x3da1451b	0.07874509
76	0xbdc2f380	-0.095191
77	0xbda3abe4	-0.0799177
78	0xbd42a228	-0.047517926
79	0x3c5d577b	0.0135096265
80	0x3db16bea	0.08663161
81	0x3d7aea30	0.061258495
82	0x3d3f7291	0.04674012
83	0x3e168978	0.14700878
84	0x3e4e1657	0.2012571
85	0x3e473827	0.19455014
86	0xbd5906b9	-0.052984927
87	0x3d3f6824	0.046730176
88	0x3e297a62	0.16550592
89	0x3e618df8	0.22026813
90	0xbcca181d	-0.024669701
91	0x3e2be3b6	0.16786084
92	0xbdef4f12	-0.11685003
93	0xbd5b0244	-0.053468958
94	0xbe113b22	-0.14182714
95	0xbb4fdf87	-0.0031718926
96	0xbe617308	-0.22016537
97	0x3dfc9b2e	0.12334286
98	0xbd9d4821	-0.07679773
99	0x3c9f751b	0.01946502
100	0xbe02de35	-0.12780078
101	0xbdce38ef	-0.10069453
102	0xbd834cd9	-0.06411142
103	0x3caf0885	0.021366367
104	0x3dce83eb	0.10083755
105	0x3de223cf	0.11041986
106	0xbde5fa67	-0.11229401
107	0xbe2d37af	-0.16915773
108	0x3da83e49	0.08215005
109	0x3d966a19	0.07344455
110	0x3db4e095	0.08831898
111	0xbe369134	-0.17828828
112	0x3d9ff913	0.07811179
113	0xbe37ac20	-0.17936754
114	0x3d986f9f	0.07443165
115	0xbe033387	-0.12812625
116	0x3de01c72	0.109429255
117	0xbd1f71ad	-0.03892677
118	0xbd4a0d17	-0.04932889
119	0xbd802d3f	-0.0625863
120	0x3e20e2c0	0.15711498
121	0x3db58f39	0.08865208
122	0x3e58a655	0.211572
123	0xbdb7d759	-0.08976621
124	0xbd5c4018	-0.053772062
125	0xbd5a1147	-0.053239133
126	0xbd3485fc	-0.04407309
127	0xbd7ad359	-0.061236713
128	0x3d677b7b	0.056514245
129	0xbd5e469f	-0.05426657
130	0x3e59b288	0.2125951
131	0x3e41515d	0.18878694
132	0x3e053319	0.13007773
133	0xbd9f2088	-0.07769877
134	0xbd5728f9	-0.05252931
135	0xbe165b86	-0.14683351
136	0x3d0184e0	0.03162086
137	0x3c79d7ac	0.015249174
138	0x3e02db76	0.1277903
139	0xbc7075b0	-0.014676496
140	0x3e248140	0.1606493
141	0x3e1b16af	0.15145372
142	0xbdc6808f	-0.09692489
143	0xbdc00ee1	-0.09377838
144	0x3d9cf752	0.0766436
145	0x3dcd5e87	0.10027795
146	0x3e2ac501	0.16676714
147	0x3dcab8c4	0.098985225
148	0x3d19267b	0.037390213
149	0xbcab242a	-0.020891268
150	0xbe1a8a68	-0.1509186
151	0xbcca43e7	-0.024690581
152	0x3e5d2724	0.21596962
153	0x3dfe7f7c	0.124266595
154	0xbe07a997	-0.13248287
155	0xbdd9a180	-0.10626507
156	0x3ca21aea	0.019788224
157	0xbd99af9c	-0.07504198
158	0x3d0fc2a5	0.035097737
159	0xbde5ab82	-0.11214353
160	0x3e1eea7d	0.15519138
161	0x3dc34fe2	0.09536721
162	0xbe38f941	-0.18063833
163	0xbd282994	-0.041055277
164	0xbe4989ca	-0.19681469
165	0x3e16e348	0.14735138
166	0x3d998009	0.07495124
167	0x3d285618	0.04109773
168	0xbd9c2735	-0.07624666
169	0xbde07603	-0.10960009
170	0xbe084abf	-0.13309763
171	0xbe587f3a	-0.21142283
172	0x3e180617	0.14846073
173	0x3e381edf	0.17980526
174	0x3dfef34a	0.124487475
175	0xbaf2b3f3	-0.0018516764
176	0x3d07bc40	0.033138514
177	0x3d9837b8	0.074325025
178	0xbde4d473	-0.11173334
179	0x3c5628ab	0.013071219
180	0xbd954ec5	-0.07290415
181	0x39228251	0.0001549807
182	0xbe445e90	-0.19176698
183	0xbdc9a1a8	-0.098452866
184	0x3c55e5ad	0.013055247
185	0x3e5864b9	0.21132173
186	0x3ccd6c43	0.025076037
187	0x37f7a654	2.9522147e-05
188	0x3ddf48bd	0.109025456
189	0xbe23cf40	-0.15997028
190	0x3e231589	0.15926184
191	0x3d41e3f8	0.04733655

bias f4 [8]
0	0xbe43ef5f	-0.19134282
1	0x3d08bab3	0.033381175
2	0x3e27c72d	0.16384573
3	0xbd061e30	-0.032743633
4	0x3e034c36	0.12822041
5	0x3e2db06f	0.16961835
6	0xbe31cd05	-0.17363365
7	0xbda73276	-0.081639215

weight f4 [8]
0	0x3f7a3f8e	0.97753227
1	0x3f7eea89	0.9957662
2	0x3f848a5c	1.0354724
3	0x3f82129a	1.0161927
4	0x3f8192fc	1.0122981
5	0x3f836f1e	1.0268285
6	0x3f7bb561	0.9832364
7	0x3f786411	0.9702769

bias f4 [8]
0	0x3c5f0c69	0.013613799
1	0x3c4c8238	0.012482218
2	0x3caf2773	0.021381116
3	0xbc31cfe4	-0.010852788
4	0x3d1d29ec	0.038370058
5	0x399c64d4	0.00029829761
6	0x3d351c45	0.044216413
7	0xbcfb11c9	-0.030648129

running_mean f4 [8]
0	0x3e1044cf	0.14088748
1	0xbccd1a72	-0.025037024
2	0x3e5c73a7	0.21528493
3	0x3e84b4f6	0.25919312
4	0xbd541137	-0.05177423
5	0x3eca8efc	0.39562213
6	0xbdc11973	-0.09428682
7	0xbdcf4e78	-0.101223886

running_var f4 [8]
0	0x3e907f6e	0.2822222
1	0x3dd2d446	0.10294394
2	0x3de76b10	0.112997174
3	0x3e043c22	0.12913564
4	0x3e972779	0.29522303
5	0x3de00341	0.10938121
6	0x3ea9665c	0.33085907
7	0x3d9a6119	0.07538051

weight f4 [8, 8, 3]
0	0x3d905b77	0.070486955
1	0x3d739c9d	0.05947553
2	0x3c7c196a	0.015386919
3	0xbde2ef36	-0.11080782
4	0xbe1e9a10	-0.15488458
5	0x3dca8c3f	0.09890031
6	0xbdb91a76	-0.0903825
7	0x3cbb73fc	0.022882454
8	0x3e2f8ff1	0.17144753
9	0x3de60050	0.11230528
10	0xbe502d24	-0.2032972
11	0x3da92234	0.08258477
12	0x3e327d9f	0.17430733
13	0x3d5afedc	0.05346571
14	0xba384615	-0.0007029486
15	0xbdf8b18e	-0.12143241
16	0x3b8948df	0.004189595
17	0xbe41dd2a	-0.18932024
18	0xbe6c832d	-0.23096915
19	0x3d1cf4c9	0.038319383
20	0xbe2de00e	-0.16980001
21	0x3df1db6b	0.11809429
22	0xbc1a5e4f	-0.009421899
23	0xbd7d926f	-0.061907228
24	0xbdd0d917	-0.101976566
25	0xbe40992f	-0.18808435
26	0xbe1d4834	-0.15359575
27	0x3d4a7dad	0.04943626
28	0xbe129c0b	-0.14317338
29	0xbdb82583	-0.0899153
30	0xbe1ef9a1	-0.15524913
31	0xbda45450	-0.08023894
32	0x3daa0aa1	0.083028086
33	0x3e0b0a73	0.13578205
34	0xbd632a9d	-0.05546056
35	0xbd2e41cc	-0.042543218
36	0xbd50b7bf	-0.050956484
37	0x3deb7bdd	0.114982344
38	0x3e0c379e	0.13693091
39	0xbe09d63f	-0.13460635
40	0xbe554259	-0.20826091
41	0x3c8ff503	0.017572885
42	0x3e199902	0.14999774
43	0x3df28bbd	0.11843059
44	0xbc81975c	-0.015819244
45	0xbe448de6	-0.19194755
46	0x3d659dfb	0.056058865
47	0xbe27c798	-0.16384733
48	0xbe020140	-0.1269579
49	0x3bb2d2c7	0.0054572555
50	0xbe2879e6	-0.1645275
51	0x3d7eb973	0.062188577
52	0x3e0abf97	0.13549648
53	0xbdc8bb2e	-0.09801327
54	0x3ddd1402	0.10794832
55	0xbe2aba43	-0.16672616
56	0xbd4061d2	-0.04696829
57	0x3e486e38	0.19573295
58	0x3e4555d1	0.19271018
59	0xbc8cbe10	-0.017180473
60	0x3d506a7f	0.050882813
61	0xbdb3cd81	-0.08779431
62	0x3e1cc3c6	0.15309057
63	0x3dc5ca58	0.09657735
64	0x3e62bab3	0.22141533
65	0x3cb6b57d	0.022303337
66	0xbe3106ff	-0.17287825
67	0xbda3692c	-0.07979044
68	0xbe3c9765	-0.18417127
69	0x3e066973	0.13126163
70	0x3d615811	0.055015627
71	0x3e38703b	0.18011563
72	0x3e155b97	0.1458572
73	0xbe267b9d	-0.16258092
74	0x3dc634c7	0.09678035
75	0x3bbe4df0	0.0058076307
76	0x3e32c80a	0.17459121
77	0xbcc94e15	-0.024573365
78	0xbd94de72	-0.072689906
79	0xbe517a93	-0.20456915
80	0xbda9fe00	-0.083004
81	0xbe385700	-0.18001938
82	0xbdf63dff	-0.120235436
83	0xbc5c451f	-0.013444214
84	0xbe16515e	-0.14679477
85	0x3d901b56	0.07036464
86	0xbdd723c2	-0.10504867
87	0xbd11b23c	-0.03557037
88	0xbe5534f2	-0.20820978
89	0xbe6430fc	-0.22284311
90	0x3e2ccee4	0.16875798
91	0x3e069759	0.13143672
92	0x3dcbfff4	0.099609286
93	0x3d98e10a	0.07464798
94	0x3d6ab62e	0.057302646
95	0x3ddae169	0.10687525
96	0x3e3cd9dd	0.18442483
97	0x3dc8fbd5	0.09813658
98	0xbe3ff5c1	-0.18746091
99	0x3e24316f	0.16034482
100	0xbd913169	-0.07089502
101	0xbdb7224b	-0.08942088
102	0xbc151696	-0.009099623
103	0x3dde108e	0.10843001
104	0xbdf7e619	-0.121044345
105	0x3e195a4c	0.14975852
106	0xbe3b7161	-0.1830497
107	0x3e2f0242	0.17090705
108	0xbe6f0a37	-0.2334374
109	0xbcf76caa	-0.030203182
110	0x3ce8a55c	0.028399162
111	0x3e2110e8	0.15729105
112	0x3dde43f9	0.108528085
113	0xbe15b8b2	-0.14621237
114	0xbe4b9eb4	-0.19884759
115	0x3e0650e1	0.1311679
116	0x3e55b287	0.20868884
117	0x3e04b232	0.12958601
118	0xbdf6944c	-0.12040004
119	0x3dee4936	0.11635058
120	0x3e06b891	0.13156344
121	0x3e4aa6d3	0.19790201
122	0x3e369392	0.17829731
123	0x3e4bc183	0.19898038
124	0xbe065982	-0.13120082
125	0xbce8934d	-0.028390551
126	0xbd6ece5e	-0.058302276
127	0x3d8f8946	0.07008605
128	0xbda36a19	-0.07979221
129	0x3db62462	0.08893658
130	0xbe5524e5	-0.20814855
131	0x3e22d7b1	0.15902592
132	0x3dd65e12	0.10467161
133	0x3d583471	0.052784387
134	0xbd299040	-0.041397333
135	0xbe4f14e8	-0.20222819
136	0x3d73565e	0.059408538
137	0x3df4715e	0.119356856
138	0xbda2ee11	-0.07955564
139	0xbd5a1167	-0.053239252
140	0xbdc1bd0c	-0.09459886
141	0x3d539829	0.051658783
142	0xbe3d5873	-0.18490772
143	0xbdd38b21	-0.10329271
144	0x3e1c91d4	0.15290004
145	0xbd12558c	-0.035726115
146	0x3d1212f5	0.03566261
147	0xbe00c2f6	-0.12574372
148	0xbdcaf76c	-0.09910473
149	0x3e0a4f28	0.13506758
150	0x3e0b03c8	0.13575661
151	0xbd345768	-0.04402867
152	0xbe57df7e	-0.21081349
153	0x3e32ff74	0.1748026
154	0x3e1ca737	0.15298162
155	0xbdbcde37	-0.092220716
156	0xbe14cd9e	-0.14531562
157	0xbe5dfbd4	-0.21678096
158	0xbe0dd0de	-0.13849208
159	0xbd4c0e3f	-0.049818274
160	0xbd27804a	-0.04089383
161	0x3e246579	0.16054334
162	0x3dc752e8	0.0973261
163	0x3e49d693	0.1971076
164	0x3e1653e1	0.14680435
165	0x3da84d71	0.08217896
166	0xbdba72cc	-0.09103927
167	0xbe2818d1	-0.16415717
168	0x3d758bea	0.059947886
169	0x3dbccf77	0.09219258
170	0xbdcc6e76	-0.09982006
171	0xbdd6b445	-0.104836024
172	0x3e4a1332	0.19733885
173	0x3e01cd5f	0.12675999
174	0x3d9ea397	0.07746046
175	0x3d9e2146	0.0772119
176	0x3e143235	0.14472277
177	0x3d9851b1	0.074374564
178	0xbdb1b7c8	-0.086776316
179	0xbb5a3563	-0.003329598
180	0xbdbe72ee	-0.09299265
181	0x3b3e1659	0.002900502
182	0xbc82cc14	-0.015966453
183	0x3e4897d3	0.19589166
184	0xbe276a86	-0.16349229
185	0xbe414ea5	-0.18877657
186	0x3e16fce6	0.1474491
187	0xbd57705f	-0.0525974
188	0x3d91e88c	0.07124433
189	0x3cf1f8a3	0.029537505
190	0xbcb196ce	-0.021678355
191	0x3da3830c	0.079839796

bias f4 [8]
0	0x3e02e02f	0.12780832
1	0xbd46c164	-0.048524275
2	0xbcb5461d	-0.02212816
3	0x3e2be4e7	0.16786538
4	0xbe0d21bb	-0.13782398
5	0x3df05ca4	0.1173642
6	0x3e1a3903	0.1506081
7	0x3e4232b1	0.1896465

weight f4 [8]
0	0x3f7959fb	0.97402924
1	0x3f7e95f0	0.99447536
2	0x3f7f6293	0.9975979
3	0x3f839f7e	1.0283048
4	0x3f807ad5	1.0037485
5	0x3f80060d	1.0001847
6	0x3f72b96c	0.9481418
7	0x3f81e58c	1.0148177

bias f4 [8]
0	0xbaf46aaa	-0.0018647511
1	0x3c972662	0.01845092
2	0x3bc47c54	0.0059962664
3	0x3cfbb86b	0.030727586
4	0x3d18f3ce	0.037341885
5	0x3c6d7b07	0.014494664
6	0x3d67d03e	0.05659508
7	0xbcbfa05a	-0.023391891

running_mean f4 [8]
0	0x3d43f77e	0.04784345
1	0xbe93dc53	-0.28879032
2	0x3d881788	0.06645113
3	0x3cc52374	0.024064757
4	0xbd3eef61	-0.04661501
5	0x3e243edf	0.16039608
6	0x3e0db231	0.13837506
7	0x3eb7dca5	0.35910526

running_var f4 [8]
0	0x3e7d8dd7	0.24761139
1	0x3e848af2	0.25887257
2	0x3d96d12e	0.073641166
3	0x3deea31a	0.11652203
4	0x3ea52fb0	0.32262945
5	0x3e199978	0.1499995
6	0x3eeaed53	0.4588419
7	0x3dd20683	0.10255148

weight f4 [8, 8, 3]
0	0x3d87ee7b	0.066372834
1	0xbda34931	-0.079729445
2	0x3e4d9393	0.20075826
3	0x3ccde8a8	0.025135353
4	0xbcf8d87b	-0.030376663
5	0x3e0aa211	0.13538386
6	0xbdfb3b0b	-0.12267121
7	0x3cff4ed5	0.03116552
8	0xbe462652	-0.19350556
9	0xbcee9794	-0.029125012
10	0xbe30a6cb	-0.17251126
11	0xbdce4967	-0.10072594
12	0x3da25119	0.079256244
13	0xbd75fcb3	-0.060055446
14	0xbe34a131	-0.17639615
15	0x3d284c06	0.041088127
16	0x3d0dfa00	0.034662247
17	0xbd1fe3de	-0.03903567
18	0xbe2dc870	-0.16970992
19	0x3dcf4b98	0.1012184
20	0x3d85f589	0.06540973
21	0xbc0d08a0	-0.008608013
22	0x3e3d1889	0.1846639
23	0x3db5dc71	0.088799365
24	0xbd0c425b	-0.03424297
25	0xbdbdf7ea	-0.092758015
26	0xbddeb8d0	-0.10875094
27	0x3dccae18	0.09994143
28	0xbda1ba29	-0.07896835
29	0xbde037cc	-0.109481424
30	0x3d431921	0.047631387
31	0x3bb3b777	0.005484517
32	0x3daf2b27	0.085531525
33	0xbe2d2d33	-0.16911773
34	0xbdc4c639	-0.096081205
35	0xbe02a72b	-0.12759082
36	0xbd872e80	-0.06600666
37	0xbdf695ca	-0.12040289
38	0xbe4a1380	-0.19734001
39	0xbe2a0234	-0.16602403
40	0x3dbe44d6	0.09290473
41	0xbdc819c6	-0.09770541
42	0x3d1b0cce	0.03785401
43	0x3da6a07a	0.08136077
44	0xbe0a9bf2	-0.13536051
45	0xbe37d6af	-0.17952989
46	0xbe2343b8	-0.15943801
47	0x3d8727ce	0.06599389
48	0x3dd2898f	0.102801435
49	0x3ded435a	0.11585112
50	0xbd66b688	-0.05632642
51	0x3e1993af	0.14997743
52	0xbd821919	-0.06352443
53	0x3e2e192d	0.17001791
54	0x3e18b1b4	0.14911538
55	0x3dff6152	0.12469734
56	0x3dc6e01a	0.09710713
57	0xbe2d1f88	-0.1690656
58	0x3cf6573b	0.030070892
59	0xbd6e3185	-0.058152694
60	0x3deac6be	0.11463688
61	0xbd316e8f	-0.043318328
62	0x3e1bbfec	0.15209931
63	0xbd279090	-0.04090935
64	0xbe26a99d	-0.1627564
65	0x3e4f1101	0.2022133
66	0xbcc3f811	-0.023921998
67	0x3dffff9b	0.12499925
68	0xbd53c9b9	-0.05170605
69	0x3d1268a8	0.03574434
70	0x3cc3a776	0.023883563
71	0x3e5c91bb	0.21539967
72	0x3da8de5d	0.082455374
73	0x3ca9ffd6	0.020751875
74	0x3cd3c419	0.025850343
75	0xbe132063	-0.14367823
76	0xbe3d8870	-0.18509078
77	0x3e181bcb	0.14854352
78	0xbd327761	-0.04357088
79	0x3d0904d5	0.033451874
80	0x3cd56679	0.02604984
81	0xbd7e061e	-0.062017553
82	0xbd5d52e5	-0.054034133
83	0x3d086af3	0.03330512
84	0x3d7a4a52	0.061106034
85	0x3e1dc766	0.15408096
86	0x3e03a697	0.12856518
87	0x3e4f13f5	0.20222457
88	0xbde4e3c1	-0.11176253
89	0x3e01a221	0.12659504
90	0x3e3ed775	0.18636878
91	0xbe3191b1	-0.17340733
92	0xbdd118fd	-0.10209844
93	0xbdfc2c99	-0.12313194
94	0xbe46b931	-0.19406582
95	0x3e23b692	0.15987614
96	0x3d333536	0.043751918
97	0x3e0edd0a	0.13951507
98	0xbe4354a9	-0.19075264
99	0x3d29e707	0.04148009
100	0xbdb4f4c2	-0.08835746
101	0xbd56312e	-0.052292995
102	0xbd0a26ba	-0.03372834
103	0xbc4e466c	-0.012590032
104	0xbe1314f3	-0.1436346
105	0x3e5a65d3	0.21327905
106	0xbdfacb4d	-0.12245808
107	0x3cbb77bd	0.022884244
108	0xbdd6958b	-0.10477742
109	0x3ddf2f38	0.10897678
110	0x3e19c3a1	0.15016033
111	0x3cf1a939	0.029499637
112	0x3e0cee9c	0.13762897
113	0xbe439183	-0.19098477
114	0xbdb6fef9	-0.08935351
115	0x3dc74aa1	0.09731031
116	0x3dfdba54	0.12389055
117	0xbdb41c09	-0.0879441
118	0xbe5d7c26	-0.2162939
119	0xbdeadc59	-0.11467809
120	0xbe6f658a	-0.23378578
121	0xbdb6cd04	-0.089258224
122	0xbcd920ac	-0.026504837
123	0x3defd426	0.11710386
124	0xbe463338	-0.19355476
125	0xbe4a0a08	-0.19730389
126	0xbd809869	-0.0627907
127	0xbe44edbc	-0.19231313
128	0xbe1ac342	-0.15113547
129	0xbd3b5b54	-0.045741394
130	0xbe01f99f	-0.12692879
131	0xbd2d0e64	-0.042250052
132	0xbcf107cf	-0.029422669
133	0xbc4b5a0f	-0.012411608
134	0xbe106eb4	-0.1410473
135	0x3e0b0c8f	0.1357901
136	0xbdf699fa	-0.120410874
137	0x3e32f63a	0.1747674
138	0x3e058c88	0.1304189
139	0x3e042f3d	0.12908645
140	0xbd94dfd3	-0.072692536
141	0x370c6c3f	8.369853e-06
142	0xbe545d0b	-0.20738618
143	0x3b86dfb6	0.004116024
144	0x3e34aac4	0.17643267
145	0xbe2d9df9	-0.16954793
146	0xbd72c73f	-0.059272047
147	0xbddbcccf	-0.107324235
148	0xbd05b364	-0.032641783
149	0xbe0c7625	-0.13716944
150	0x3e2e1ba4	0.17002732
151	0xbe68da23	-0.22739463
152	0xbce229b4	-0.027607776
153	0x3e57a7af	0.2106006
154	0xbd22ede0	-0.039777637
155	0x3e665721	0.22494175
156	0x3e445be7	0.19175683
157	0x3e32976b	0.17440574
158	0x3d8d2447	0.06891685
159	0x3df5764f	0.11985456
160	0x3e0d67f0	0.1380918
161	0xbd27a010	-0.040924132
162	0x3e33eabe	0.17570016
163	0xbe0a1eb3	-0.13488273
164	0x3ded7b81	0.11595822
165	0xbde552be	-0.111974224
166	0xbd327d52	-0.043576546
167	0x3e001853	0.12509279
168	0xbe20fda9	-0.15721764
169	0xbd4e9cb8	-0.050442427
170	0x3a7bd620	0.0009606797
171	0xbd0bf494	-0.034168795
172	0x3e386c7d	0.18010135
173	0xbdd99cfe	-0.10625647
174	0x3e50df3c	0.20397657
175	0x3d05dce3	0.032681357
176	0xbd82c331	-0.06384886
177	0xbd41acdc	-0.047283992
178	0x3e0900c7	0.13379203
179	0xbe21f846	-0.15817365
180	0x3e019840	0.12655735
181	0xbd92f29a	-0.07175179
182	0x3e138059	0.1440443
183	0xbe419495	-0.18904336
184	0x3e2a3181	0.16620447
185	0x3d8dda42	0.06926395
186	0xbe36c7e9	-0.17849697
187	0x3dc0787d	0.09397981
188	0xbca5a560	-0.020220459
189	0x3e034094	0.12817603
190	0x3b4e2a0b	0.0031458165
191	0x3da52157	0.08063

bias f4 [8]
0	0xbe1a7b3e	-0.15086076
1	0x3e0aa61d	0.1353993
2	0x3e4d034e	0.20020792
3	0xbe0a0ece	-0.1348221
4	0xbd87c7a0	-0.06629872
5	0x3e1770b5	0.14789088
6	0xbd6ddc7d	-0.058071602
7	0x3e39ca9d	0.18143697

weight f4 [8]
0	0x3f8205ae	1.0157983
1	0x3f832b61	1.0247613
2	0x3f804b79	1.0023032
3	0x3f74aa88	0.9557271
4	0x3f7df69e	0.9920443
5	0x3f7c7124	0.9861014
6	0x3f816558	1.0109053
7	0x3f7ec645	0.99521285

bias f4 [8]
0	0x3d4e3f6d	0.050353456
1	0x3d638787	0.05554917
2	0xbd1e5c93	-0.038662504
3	0xbd30c4bd	-0.043156374
4	0x3c16b283	0.009197834
5	0xbcbe3063	-0.023216432
6	0x3d902cb8	0.070397794
7	0xbab6e130	-0.0013952609

running_mean f4 [8]
0	0xbe5dbb37	-0.21653448
1	0xbe98f7d7	-0.29876587
2	0x3eff4814	0.4985968
3	0xbdbde1b2	-0.092715636
4	0xbe022913	-0.12710981
5	0xbe6cf9d9	-0.23142184
6	0x3e3f74ab	0.18696849
7	0x3e7b5fe3	0.24548297

running_var f4 [8]
0	0x3dbc6da8	0.09200603
1	0x3eb3d97c	0.35126865
2	0x3e9f43f0	0.3110652
3	0x3e0b632e	0.13612053
4	0x3e0d63bd	0.13807578
5	0x3dd67c48	0.104729235
6	0x3f05912b	0.52174634
7	0x3e26bc4b	0.16282766

weight f4 [8, 8, 3]
0	0xbacc4a36	-0.0015586081
1	0xbd59680f	-0.053077754
2	0x3e597b11	0.21238352
3	0x3dca6442	0.09882404
4	0x3ddeb058	0.10873479
5	0x3e2c0b62	0.16801217
6	0xbcf751d3	-0.030190384
7	0x3cc2574d	0.023723269
8	0x3e0fdc14	0.14048797
9	0xbde0a774	-0.10969439
10	0x3d69d095	0.057083685
11	0xbd6d62cd	-0.057955552
12	0x3db28822	0.087173715
13	0xbc322892	-0.0108739305
14	0xbe2fad34	-0.17155915
15	0xbdf3486f	-0.1187905
16	0x3e121077	0.14264093
17	0xbd833576	-0.06406681
18	0xbe5857f9	-0.21127309
19	0xbda71ec3	-0.08160164
20	0x3d0e5e5d	0.03475796
21	0x3d99f85b	0.07518073
22	0xbd04759a	-0.032338716
23	0xbdc0fad5	-0.094228424
24	0x3e4583c4	0.19288546
25	0xbd76e844	-0.0602801
26	0x3ca98c70	0.020696849
27	0x3d368c6f	0.04456752
28	0x3cd17d21	0.025572361
29	0x3ddecaa1	0.10878492
30	0xbe1e072f	-0.15432428
31	0x3dad2d74	0.08455935
32	0xbcda455f	-0.026644407
33	0x3dd77be0	0.10521674
34	0x3ddfc253	0.10925736
35	0x3d9a458a	0.07532795
36	0x3cdaaa21	0.026692452
37	0x3d756efb	0.059920292
38	0xbe19b6fc	-0.15011209
39	0x3ddc4535	0.10755388
40	0xbce38b11	-0.027776273
41	0x3d144164	0.036195174
42	0x3d7c1ce6	0.061550997
43	0x3dc20190	0.09472954
44	0xbc402064	-0.0117264725
45	0xbe212944	-0.15738398
46	0xbda59347	-0.080847315
47	0xbe128aef	-0.14310811
48	0xbde5c76e	-0.11219679
49	0x3d0b8d9e	0.034070604
50	0xbd27a3ba	-0.040927626
51	0x3dfb0468	0.122567
52	0xbdb62b89	-0.088950224
53	0x3e1ff488	0.15620625
54	0x3c63a977	0.013895384
55	0x3bd410ef	0.006471745
56	0xbd7184ad	-0.05896442
57	0x3d97d8c8	0.074143946
58	0xbde5a360	-0.11212802
59	0xbc9a4445	-0.018831382
60	0x3b4f75b1	0.0031655843
61	0xbd538234	-0.051637843
62	0xbdf9e72c	-0.12202296
63	0x3e03be9c	0.1286568
64	0xbda504c2	-0.08057548
65	0x3e2bcf7e	0.1677837
66	0xbd1d2e7c	-0.03837441
67	0x3e5886a0	0.21145105
68	0x3e3b371d	0.18282743
69	0x3e52b0ee	0.20575306
70	0xbe123904	-0.14279562
71	0xbdc035c8	-0.09385258
72	0x3cbd3e43	0.023100978
73	0x3d2ce2a1	0.042208318
74	0x3d13bcbc	0.036068663
75	0x3d58e1c9	0.0529497
76	0x3cf9da35	0.030499557
77	0x3bc6bf4a	0.006065284
78	0xbe09319f	-0.13397835
79	0xbdb31aa9	-0.087453194
80	0x3d8d6736	0.069044515
81	0x3e026fa6	0.12737903
82	0x3da9de52	0.08294357
83	0x3dd43896	0.103623554
84	0xbd58bde8	-0.052915484
85	0xbe090aba	-0.13382998
86	0xbda17132	-0.078829184
87	0xbc9d10e6	-0.019173097
88	0xbdd801bf	-0.10547208
89	0xbdd42b62	-0.10359837
90	0x3cc5bdb0	0.024138302
91	0xbd5512ab	-0.052019756
92	0xbdfc6337	-0.12323611
93	0x3d1d32cd	0.038378526
94	0xbbc40eca	-0.0059832083
95	0xbe342296	-0.17591318
96	0x3e0ba5ec	0.13637513
97	0x3e4b3249	0.19843401
98	0x3dc14af6	0.09438126
99	0xbdc509a6	-0.09620981
100	0x3e42d0c1	0.19024946
101	0x3e2bc1ad	0.167731
102	0xbc392030	-0.011299178
103	0xbe1d23b8	-0.15345657
104	0xbd5e367d	-0.054251183
105	0x3d04452a	0.032292522
106	0xbe49bb9e	-0.19700477
107	0x3d588238	0.05285856
108	0x3e02e431	0.1278236
109	0xbddacc34	-0.1068348
110	0xbddfba08	-0.109241545
111	0xbe3733e9	-0.17890896
112	0x3dfb2896	0.122636005
113	0xbe185c12	-0.14878872
114	0xbe3bf32d	-0.18354483
115	0x3e09215e	0.13391635
116	0x3d7ca1c6	0.061677717
117	0xbe446df2	-0.19182566
118	0xbd0d944a	-0.034565248
119	0x3d3ad12d	0.04560964
120	0xbd428cd0	-0.04749757
121	0x3e05d3cf	0.1306908
122	0x3d039a1e	0.0321294
123	0xbe1f7048	-0.15570176
124	0x3ddfe845	0.10932974
125	0xbe291d62	-0.16515115
126	0x3e32685a	0.1742262
127	0xbdb60af5	-0.08888809
128	0x3e058d4d	0.13042183
129	0xbdd56ef6	-0.10421555
130	0x3d7e9d53	0.062161755
131	0xbb9dead6	-0.0048192544
132	0xbe068aaf	-0.13138841
133	0xbc1e922f	-0.009678408
134	0x3dc7c4c7	0.09754329
135	0xbe208200	-0.15674591
136	0xbd23c17f	-0.039979454
137	0xbd88aa85	-0.06673149
138	0xbd6c2eff	-0.057662006
139	0x3b896f0d	0.0041941465
140	0x3e5f20be	0.21789834
141	0xbe41fb63	-0.18943553
142	0x3e07052d	0.13185568
143	0xbdc85c67	-0.09783249
144	0xbd06f0d2	-0.032944508
145	0xbcfe69a3	-0.03105623
146	0xbe5a9ebb	-0.21349613
147	0xbe637d4d	-0.22215767
148	0xbd09951b	-0.033589464
149	0xbda13f3e	-0.078733906
150	0xbe368717	-0.1782497
151	0xbdd8fb29	-0.1059478
152	0xbe47cd7f	-0.19511984
153	0xbbdd0810	-0.006745346
154	0x3ccc4dde	0.024939474
155	0xbc6d811e	-0.014496116
156	0x3dae8df4	0.08523169
157	0x3d57827f	0.052614685
158	0x3cc65d4e	0.024214413
159	0xbd8f13c8	-0.06986195
160	0x3d93f368	0.072241604
161	0x3e030b64	0.12797314
162	0xbde9e658	-0.11420888
163	0x3e499a64	0.19687802
164	0x3dbc7145	0.09201292
165	0xbdf4c30d	-0.119512655
166	0x3dbf1813	0.09330764
167	0xbb6a9f2d	-0.0035800443
168	0xbd81a6df	-0.06330656
169	0xbd57aee1	-0.052657012
170	0xbe2a250a	-0.16615692
171	0xbe0e6cc3	-0.13908677
172	0xbe1d0b8d	-0.15336438
173	0x3d9d6b5d	0.076864935
174	0x3de824b7	0.11335128
175	0x3e4174f9	0.18892278
176	0xbe4a7c90	-0.1977408
177	0x3e074b4c	0.13212317
178	0xbe053331	-0.13007809
179	0xbd0c9abf	-0.034327265
180	0x3d8655a5	0.06559304
181	0xbd61c899	-0.055122945
182	0xbd2e0ba6	-0.042491578
183	0xbda5d6ac	-0.08097586
184	0x3c802904	0.015644558
185	0xbe16c976	-0.14725289
186	0x3dde5780	0.10856533
187	0x3d24026d	0.040041376
188	0xbca07ce3	-0.0195908
189	0xbe0c1ea6	-0.13683566
190	0x3ca9df5c	0.020736389
191	0x3cfe517e	0.031044718

bias f4 [8]
0	0xbe07bfda	-0.1325678
1	0xbd91dd35	-0.0712227
2	0xbcd2ea95	-0.025746623
3	0xbc19e287	-0.009392387
4	0xbe0f84e2	-0.14015535
5	0x3db5446f	0.08850943
6	0xbdee5e3a	-0.11639066
7	0x3d072417	0.032993402

weight f4 [8]
0	0x3f814a08	1.0100718
1	0x3f81ed8a	1.0150616
2	0x3f811331	1.0083982
3	0x3f7ead57	0.99483246
4	0x3f7d9852	0.9906055
5	0x3f7af6d5	0.98032886
6	0x3f82579c	1.0182986
7	0x3f7baf55	0.9831441

bias f4 [8]
0	0x3d0121a4	0.031526223
1	0x3c9bfc7c	0.019041292
2	0x3ce30bd0	0.027715594
3	0x3c8a4d7c	0.01688265
4	0x3c2c7270	0.010525331
5	0xba8c3393	-0.0010696523
6	0x3d542f91	0.051803175
7	0x3c6065eb	0.013696174

running_mean f4 [8]
0	0xbd9d8a83	-0.07692435
1	0x3d63f548	0.05565384
2	0x3ddaa9b6	0.10676901
3	0xbdea4ef6	-0.11440842
4	0xbd83b077	-0.064301424
5	0x3d261c68	0.040554434
6	0xbea68ee2	-0.32530886
7	0xbe3272f3	-0.17426662

running_var f4 [8]
0	0x3e38677f	0.1800823
1	0x3db4847e	0.088143334
2	0x3de23471	0.11045159
3	0x3dd7b422	0.105324045
4	0x3e809271	0.25111726
5	0x3da51d56	0.08062236
6	0x3dbafa73	0.09129801
7	0x3df5c3ca	0.120002344

weight f4 [8, 8, 3]
0	0xbd162291	-0.03665406
1	0xbc56208a	-0.013069281
2	0x3de59738	0.11210483
3	0xbe5ba0db	-0.2144808
4	0xbdc84ba5	-0.09780053
5	0x3e2adc63	0.16685633
6	0x3c913eec	0.017730199
7	0xbdb71504	-0.08939555
8	0xbe5372eb	-0.20649306
9	0xbdbe8d8f	-0.09304344
10	0xbe2575da	-0.16158238
11	0x3d7dd43b	0.061969977
12	0xbd90f338	-0.0707764
13	0xbd18ae61	-0.037275676
14	0xbe3b2a0b	-0.18277757
15	0xbce4a514	-0.027910747
16	0xbd6dd898	-0.058067888
17	0x3d88e4f9	0.06684298
18	0x3e08c43c	0.13356107
19	0x3e2beea6	0.16790256
20	0x3e349271	0.17633988
21	0xbcab1601	-0.020884516
22	0x3e0f4133	0.13989715
23	0x3daf577e	0.0856161
24	0x3e0d59cf	0.1380379
25	0xbcc38d7f	-0.023871182
26	0xbd42f0d0	-0.047592938
27	0xbca55454	-0.020181812
28	0x3daee3eb	0.08539566
29	0x3e23723a	0.15961543
30	0x3e4f6387	0.2025281
31	0x3c47a375	0.012184967
32	0x3e33c3e5	0.17555197
33	0xbdd81661	-0.105511434
34	0xbdbf0c72	-0.09328546
35	0x3d0b0cfc	0.03394793
36	0x3db02342	0.08600475
37	0xbdc36f79	-0.09542746
38	0x3d7a1b77	0.06106135
39	0xbc16b302	-0.009197952
40	0x3d318fc9	0.043350015
41	0xbe10af43	-0.14129357
42	0xbdfc7784	-0.12327483
43	0x3dba7f0c	0.091062635
44	0xbe2e1ce5	-0.1700321
45	0x3db26b87	0.087119155
46	0x3ddbc56a	0.10731013
47	0x3e584f0c	0.21123904
48	0xbe3c6d82	-0.18401149
49	0x3dfae84c	0.12251338
50	0xbd525cd2	-0.05135805
51	0xbe470089	-0.19433798
52	0x3df89f23	0.12139728
53	0x3da58a2d	0.080829956
54	0xbcd7c76c	-0.026340209
55	0x3e108791	0.14114214
56	0xbdb6f029	-0.08932526
57	0xbc0eadf7	-0.008708469
58	0x3df79ce2	0.1209047
59	0xbdc98557	-0.09839886
60	0xbd85a3ae	-0.0652536
61	0xbe33d210	-0.17560601
62	0x3dfa1346	0.12210707
63	0x3d4cca5d	0.049997676
64	0x3e3268ec	0.17422837
65	0xbe29bbc3	-0.16575532
66	0x3e67b9c1	0.22629453
67	0x3d245103	0.04011632
68	0x3d5656ed	0.052328993
69	0xbe0b377c	-0.13595384
70	0xbd76273e	-0.060096018
71	0x3da43a17	0.08018892
72	0xbd9cd3b6	-0.07657568
73	0x3d9b488f	0.07582199
74	0xbe2e6670	-0.17031264
75	0x3b064b1e	0.002049155
76	0xbe0a11b7	-0.1348332
77	0xbe2f041a	-0.17091408
78	0x3e2089b5	0.15677531
79	0x3e01a843	0.12661843
80	0xbdcd8aa0	-0.10036206
81	0xbe2e9639	-0.17049493
82	0x3e3c1367	0.18366776
83	0xbd754c52	-0.059887238
84	0x3af1e484	0.0018454944
85	0xbdeca297	-0.11554449
86	0xbd2dd8e6	-0.04244318
87	0x3e2d29ad	0.1691043
88	0x3e1a07cc	0.15042037
89	0x3e43b3d4	0.19111568
90	0x3d8ed0f3	0.06973448
91	0x3dd06db7	0.101771764
92	0xbc14f6c1	-0.009092034
93	0xbde1d626	-0.11027174
94	0x3dd5a90a	0.10432632
95	0x3e41bc60	0.18919516
96	0xbca6411f	-0.020294724
97	0xbdf6573c	-0.120283574
98	0xbe1f1aaf	-0.15537523
99	0x3dbeb63f	0.093121044
100	0x3d575c3f	0.052578207
101	0xbd838bee	-0.06423174
102	0x3d7d40ed	0.061829496
103	0x3e11dba3	0.14243941
104	0xbe4bd6ad	-0.19906111
105	0xbdb2e782	-0.08735563
106	0xbde5adc5	-0.112147845
107	0xbe250b0e	-0.16117498
108	0xbda4c76f	-0.080458514
109	0x3df6a66e	0.12043463
110	0xbdb159bd	-0.08659694
111	0xbe150c3e	-0.14555451
112	0xbdcd339b	-0.100196086
113	0xbdb85408	-0.09000403
114	0x3e4937a0	0.19650126
115	0x3e1210a6	0.14264163
116	0x3dafa220	0.08575845
117	0xbc5279bd	-0.0128464075
118	0x3e0dbd41	0.13841726
119	0xbe2f12a3	-0.17096953
120	0xbe582c87	-0.21110736
121	0xbd87d054	-0.06631532
122	0xbd22c37b	-0.039737206
123	0xbdd00431	-0.101570494
124	0xbde4657c	-0.11152169
125	0x3e612e28	0.21990263
126	0x3b062c62	0.0020473232
127	0xbe2d2bee	-0.16911289
128	0x3e08b600	0.13350677
129	0xbdfcc3c6	-0.12342028
130	0xbe37b61e	-0.17940566
131	0x3e3c4cd9	0.1838869
132	0xbd83df2d	-0.06439052
133	0xbe3aaa8e	-0.18229124
134	0x3e0b25ac	0.1358859
135	0xbde27e4f	-0.11059248
136	0x3e1f2aa1	0.15543605
137	0xbe2eb1ac	-0.17059964
138	0xbe1620ab	-0.146609
139	0x3d663d9f	0.05621111
140	0x3e6098e2	0.2193332
141	0x3c7d2edf	0.0154530695
142	0xbdf35108	-0.1188069
143	0xbd95d00b	-0.07315072
144	0xbdb466f9	-0.08808703
145	0xbe224bf4	-0.15849286
146	0xbe23f6f0	-0.16012168
147	0xbe4b6df1	-0.19866158
148	0xbe470bd0	-0.194381
149	0x3e24b4ea	0.16084638
150	0x3dd89e8a	0.10577114
151	0xbdb8576e	-0.09001051
152	0xbe351770	-0.17684722
153	0xbc334766	-0.010942316
154	0x3be81c2f	0.007083438
155	0x3adfa8d2	0.0017063862
156	0x3cb2ba24	0.021817274
157	0x3e127b29	0.14304794
158	0xbe0fe153	-0.14050798
159	0xbe20d9fc	-0.15708154
160	0x3e105b03	0.14097218
161	0x3dd12459	0.10212011
162	0x3cb91884	0.022594698
163	0x3e55f7b7	0.20895277
164	0x3e4b3074	0.19842702
165	0x3ded9fc7	0.11602741
166	0xbdc259d7	-0.09489792
167	0x3cc3a2a8	0.023881271
168	0xbd262b03	-0.040568363
169	0xbe2c466b	-0.16823737
170	0x3d042bb6	0.03226825
171	0xbd677720	-0.05651009
172	0xbdf3ec00	-0.11910248
173	0xbe5c7d38	-0.21532142
174	0x3b626c93	0.0034549579
175	0xbdf9242b	-0.121651016
176	0x3d03009c	0.031983003
177	0x3cc24636	0.02371512
178	0xbd695963	-0.05697001
179	0x3e159e42	0.14611152
180	0x3ab40ce2	0.001373675
181	0xbdd330ab	-0.10312017
182	0xbdab023e	-0.08350037
183	0x3e04449e	0.129168
184	0x3c8e03d1	0.017335804
185	0x3c482c43	0.012217584
186	0xbd51f2ba	-0.051256873
187	0xbd11c048	-0.035583764
188	0xbdd5b3e9	-0.10434706
189	0xbde86005	-0.11346439
190	0x3e827c27	0.25485346
191	0xbe1c5eb6	-0.15270504

bias f4 [8]
0	0x3cda3c4c	0.02664008
1	0xbe2b2d44	-0.16716486
2	0x3e1a0e51	0.15044524
3	0xbd774494	-0.060368136
4	0xbd164a2d	-0.036691833
5	0x3e33ed70	0.17571044
6	0x3da2919c	0.07937929
7	0xbdfd3e81	-0.12365437

weight f4 [8]
0	0x3f829b84	1.020371
1	0x3f7d1878	0.9886546
2	0x3f82614b	1.0185941
3	0x3f800d66	1.0004089
4	0x3f7c33f4	0.98516774
5	0x3f7354ee	0.9505147
6	0x3f81ff2c	1.0155997
7	0x3f6c34d3	0.92268103

bias f4 [8]
0	0x3d00862e	0.031377964
1	0xbc17768a	-0.0092445705
2	0xbcb1abff	-0.02168846
3	0x3cd73fcd	0.02627554
4	0xbc832a8c	-0.016011499
5	0xbd7dbb48	-0.061946183
6	0x3c2fbd84	0.010726336
7	0xbd994e90	-0.07485688

running_mean f4 [8]
0	0x3c7186f5	0.014741649
1	0x3be2c9d4	0.0069210324
2	0x3e3dfed5	0.18554242
3	0x3c650935	0.013979246
4	0xbe3db22d	-0.18525
5	0xbd4ba19b	-0.049714666
6	0x3cf99426	0.03046615
7	0xbebbe021	-0.36694434

running_var f4 [8]
0	0x3e2d1ba3	0.16905074
1	0x3e36fe64	0.1787048
2	0x3e161a2f	0.14658426
3	0x3eb3dae4	0.35127938
4	0x3e304398	0.17213285
5	0x3e07b6a4	0.13253266
6	0x3e23c579	0.15993299
7	0x3dc05879	0.09391875

weight f4 [128, 25]
0	0x3caad340	0.020852685
1	0xbd66ff42	-0.056395777
2	0x3dc09e8b	0.0940524
3	0xbc98eb52	-0.018666897
4	0xbe307975	-0.17233832
5	0xbe0bf740	-0.13668537
6	0xbc35352e	-0.011060042
7	0xbe18dd4d	-0.1492817
8	0xbda97f83	-0.08276274
9	0x3e0b3911	0.13595988
10	0x3d908f67	0.07058602
11	0xbddb0aa9	-0.10695393
12	0x3e3cf079	0.18451108
13	0xbc665080	-0.014057279
14	0x3cd04f4b	0.025428435
15	0xbde1022b	-0.10986742
16	0x3e013230	0.12616801
17	0x3df37aff	0.11888694
18	0x3df29bde	0.118461356
19	0x3e20d88d	0.15707608
20	0xbda4b54f	-0.08042394
21	0xbe3dda9a	-0.18540421
22	0xbe2eb891	-0.17062594
23	0xbe3e9e78	-0.18615139
24	0x3e38167b	0.17977326
25	0x3dd03df7	0.10168069
26	0x3df7cd56	0.120997116
27	0xbe001ddc	-0.1251139
28	0xbdef0c26	-0.11672239
29	0xbd9a393b	-0.07530447
30	0x3dcac176	0.09900181
31	0x3db45d44	0.088068515
32	0x3e5e605d	0.21716447
33	0x3db6034c	0.088873476
34	0xbe28c3ce	-0.16480944
35	0xbd311878	-0.043236226
36	0xbe03dafb	-0.12876503
37	0xbd9f1d9c	-0.077693194
38	0x3e203726	0.15646037
39	0xbb8cbb01	-0.0042947535
40	0xbd48396a	-0.04888288
41	0xbda9d00b	-0.08291634
42	0x3dddc153	0.10827889
43	0xbe22bedf	-0.15893124
44	0xbe369529	-0.17830338
45	0xbe046aed	-0.12931414
46	0x3d3bb202	0.04582406
47	0x3dafb562	0.08579518
48	0x3e16f65d	0.14742418
49	0xbd3ec4e9	-0.046574507
50	0xbdf567f5	-0.11982719
51	0xbe41658b	-0.18886392
52	0xbd951d6e	-0.07281004
53	0x3d9043bf	0.070441715
54	0x3e64b80b	0.22335832
55	0x3e51b2c1	0.20478345
56	0xbe12de7d	-0.14342685
57	0x3c8d0437	0.017213924
58	0xbc4e969a	-0.012609148
59	0xbe21a3d6	-0.15785155
60	0xbe21f4ff	-0.15816115
61	0x3d4b6087	0.049652603
62	0x3e4ecec0	0.20196056
63	0x3d8734df	0.06601881
64	0x3c3c7e36	0.0115047
65	0xbe13f104	-0.14447409
66	0xbcd0f4a1	-0.025507273
67	0x3db7e0f5	0.08978454
68	0x3a27230e	0.0006375768
69	0xbc7d3161	-0.015453667
70	0x3df0979c	0.11747667
71	0x3d271fad	0.040801693
72	0x3d81502d	0.063141204
73	0x3db139cd	0.08653603
74	0xbdb60b8f	-0.088889234
75	0xbd37688a	-0.04477743
76	0xbdb439e7	-0.088001065
77	0xbd23fedd	-0.04003798
78	0x3e1b03cc	0.15138167
79	0x3d1cf391	0.03831822
80	0xbe185000	-0.14874268
81	0x3dc981f2	0.09839238
82	0x3de15486	0.1100245
83	0x3e377cda	0.17918721
84	0x3e515112	0.20441082
85	0x3c6b666e	0.014367683
86	0x3d7cf36f	0.061755594
87	0xbe405823	-0.18783621
88	0xbd9df783	-0.07713225
89	0x3de2da9b	0.11076852
90	0x3e27a0b0	0.16369891
91	0x3ddc9555	0.1077067
92	0xbcc7206a	-0.024307448
93	0xbdf3f95c	-0.11912796
94	0x3e0d24b9	0.1378354
95	0x3d9a0296	0.075200245
96	0xbaaa9dc7	-0.0013016992
97	0x3c477743	0.01217443
98	0xbe209f00	-0.15685654
99	0x3dbfa170	0.09356964
100	0x3dd3f426	0.10349302
101	0x3e11d3aa	0.142409
102	0x3e5304f0	0.20607352
103	0x3d18fb54	0.03734906
104	0x3e149ccf	0.14512943
105	0xbd64e491	-0.05588204
106	0xbd8ced7d	-0.06881235
107	0xbda0cb63	-0.07851293
108	0xbddf9c70	-0.1091851
109	0x3df5c458	0.1200034
110	0xbe26769c	-0.16256183
111	0x3d833997	0.06407469
112	0xbbc5f254	-0.0060408507
113	0xbd4cec29	-0.050029907
114	0xbe39e49f	-0.18153618
115	0x3e26a0be	0.16272256
116	0xbd441680	-0.04787302
117	0xbd0c3bc0	-0.03423667
118	0xbe13be60	-0.14428091
119	0xbaa425c5	-0.0012523463
120	0xbd89aac3	-0.06722023
121	0xbe1cfc0b	-0.15330522
122	0xbd75ac1f	-0.0599786
123	0x3c5cdc14	0.013480205
124	0x3df740b2	0.120728865
125	0xbdff0565	-0.12452201
126	0x3e2124fc	0.15736765
127	0x3ba9fc62	0.005187557
128	0xbd90b2da	-0.07065363
129	0x3e32d894	0.1746543
130	0x3cf3c7f0	0.029758424
131	0xbd88c448	-0.06678063
132	0x3d47798f	0.04869991
133	0x3d956848	0.07295281
134	0x3da03aff	0.078237526
135	0xbd150331	-0.036379997
136	0x3e1a994b	0.15097539
137	0xbd6d803d	-0.057983626
138	0x3ddcb7a7	0.107772164
139	0xbdfebbf6	-0.124381945
140	0xbd4040f8	-0.04693696
141	0x3d9e81a0	0.07739568
142	0xbdf872bb	-0.12131258
143	0xbe2264ab	-0.15858714
144	0x3dc04399	0.09387893
145	0x3e0e40bf	0.13891886
146	0x3df98c59	0.12184972
147	0x3d9d02d1	0.07666553
148	0xbde40d60	-0.111353636
149	0x3d9698c4	0.073533565
150	0xbdc09560	-0.09403491
151	0xbd8f2279	-0.06988997
152	0x3e45c7c8	0.19314492
153	0xbe346a37	-0.17618643
154	0x3e22f731	0.15914609
155	0x3dec852b	0.11548837
156	0xbdb2f4a5	-0.087380685
157	0x3e27d84c	0.16391104
158	0xbdcd9336	-0.10037844
159	0xbdf8ebba	-0.12154336
160	0xbdda118e	-0.106478795
161	0x3e18963e	0.14901063
162	0xbd82e233	-0.063908
163	0x3e361f48	0.1778537
164	0xbe2e32af	-0.17011522
165	0x3e0fd95f	0.14047764
166	0x3e265ce8	0.16246378
167	0x3cbf3964	0.023342796
168	0xbd856f74	-0.065153986
169	0xbbdc9fb6	-0.006732906
170	0x3de18de8	0.110133946
171	0xbdaba4b5	-0.08381025
172	0x3e0cdeca	0.13756862
173	0x3dd09a94	0.101857334
174	0xbe1931df	-0.1496043
175	0xbc3ce3ac	-0.011528891
176	0x3cf8e9ae	0.030384865
177	0x3e2c3a3e	0.16819093
178	0x3db0e6e0	0.08637786
179	0x3d5582d0	0.052126706
180	0x3d7d01e1	0.06176937
181	0x3dd53fbb	0.10412546
182	0xbe5bcf3d	-0.21465774
183	0x3e0e6b26	0.13908061
184	0x3e28096a	0.16409841
185	0xbd1255cb	-0.03572635
186	0xbd6f1dd9	-0.058378074
187	0x3de711c8	0.112826884
188	0xbdd4927f	-0.103795044
189	0xbd986ce7	-0.074426465
190	0x3df23f91	0.118285306
191	0x3d48e088	0.049042255
192	0xbb94c7b1	-0.0045404066
193	0xbe035013	-0.12823515
194	0xbe32ab33	-0.1744812
195	0xbe0d5dae	-0.13805267
196	0xbdf89783	-0.121382736
197	0x3c6e95e7	0.014562107
198	0x3cfc2cc3	0.030783063
199	0x3dbe1f40	0.09283304
200	0x3dbdf1a7	0.09274607
201	0xbd62aaac	-0.055338547
202	0xbe018773	-0.12649326
203	0xbe1b3022	-0.1515508
204	0xbe422de8	-0.18962824
205	0x3d9d142c	0.07669863
206	0xbe1373f2	-0.14399698
207	0x3e406742	0.1878939
208	0xbb7f364d	-0.0038942278
209	0xbde87565	-0.11350516
210	0x3dc0e72f	0.09419095
211	0xbe22593d	-0.15854354
212	0xbd99f296	-0.07516973
213	0xbd1b013a	-0.037842967
214	0xbdd85559	-0.10563154
215	0x3e43e3b6	0.19129834
216	0xbe2fa4a2	-0.17152646
217	0xbdba43dd	-0.09094975
218	0xbe31c1f2	-0.1735914
219	0x3e21a2eb	0.15784805
220	0xbdbef371	-0.093237765
221	0x3cd6f93d	0.026241893
222	0x3d20105c	0.0390781
223	0x3e52210c	0.20520419
224	0xbce82be4	-0.028341241
225	0xbe208779	-0.15676679
226	0xbafac633	-0.0019132554
227	0x3e1ce555	0.15321858
228	0xbdb81711	-0.089887746
229	0xbe241274	-0.16022664
230	0xbe53c3ee	-0.2068021
231	0xbd6e3104	-0.058152214
232	0xbe5393f0	-0.20661902
233	0x3e34169c	0.1758675
234	0x3d929df9	0.07159037
235	0xbda550b5	-0.08072034
236	0x3e2fd52b	0.17171161
237	0xbca9efe1	-0.020744266
238	0x3c33d6f1	0.010976539
239	0x3d6da9d0	0.058023274
240	0x3d97ade0	0.07406211
241	0xbe00ccc1	-0.12578107
242	0xbdaf9773	-0.085738085
243	0xbd981b3a	-0.07427068
244	0xbcc8c0d9	-0.02450602
245	0xbe4e17ce	-0.20126268
246	0x3df35471	0.1188134
247	0xbdaa2165	-0.08307151
248	0xbd7bdd50	-0.061490357
249	0x3cb36972	0.021900866
250	0x3d484533	0.04889412
251	0xbe1bf831	-0.15231396
252	0x3d8752ea	0.066076115
253	0x3b0b0e6a	0.0021218308
254	0x3e58f2a6	0.21186313
255	0xbdf56f30	-0.11984098

bias f4 [128]
0	0x3db81008	0.08987433
1	0x3d462755	0.048377354
2	0xbe00b9bc	-0.12570852
3	0xbe148e3c	-0.14507383
4	0x3dc2d55c	0.09513351
5	0x3d04e34d	0.032443333
6	0xbe10a4a3	-0.14125304
7	0x3d0bb7aa	0.034110703
8	0xbd0460c4	-0.032318845
9	0x3cdc58a2	0.026897732
10	0x3e299975	0.16562445
11	0xbd1cad7f	-0.038251396
12	0xbdda9f90	-0.106749654
13	0x3d068242	0.032839067
14	0xbd912a16	-0.070881054
15	0x3e2d6fef	0.1693723
16	0x3da8f553	0.08249917
17	0xbe14c2c1	-0.14527418
18	0xbde27f6a	-0.110594586
19	0xbce93175	-0.028465966
20	0xbdf79834	-0.12089577
21	0xbdbb4297	-0.091435604
22	0xbe2872c6	-0.16450033
23	0xbe0fd615	-0.1404651
24	0x3e108843	0.1411448
25	0xbdfb6820	-0.1227572
26	0x3d7316b5	0.059347827
27	0x3b00fac8	0.0019680727
28	0x3e1075b2	0.14107397
29	0x3d351a27	0.044214394
30	0x3d23c181	0.03997946
31	0xbba597af	-0.0050534825
32	0x3c547163	0.012966487
33	0xbd99ee3f	-0.07516145
34	0xbe116982	-0.14200404
35	0x3d4b2261	0.049593333
36	0x3e255c98	0.16148603
37	0xbe10aef3	-0.14129238
38	0xbe0c52ac	-0.13703412
39	0x3d4ff940	0.050774813
40	0x3e165c71	0.14683701
41	0x3d9fd438	0.078041494
42	0xbe59feed	-0.21288653
43	0xbd15e076	-0.036591016
44	0x3e010614	0.12599975
45	0xbe047c1c	-0.12937969
46	0xbdd42d98	-0.10360259
47	0xbd0145b3	-0.03156061
48	0x3d4cca07	0.049997356
49	0xbc9ee78d	-0.019397521
50	0x3bc3e20f	0.005977876
51	0x3df86a81	0.12129689
52	0xbd2f0f21	-0.042739037
53	0xbe0205bb	-0.12697499
54	0x3e2a6ddf	0.16643475
55	0xbe1a03d5	-0.15040524
56	0xbe1349eb	-0.14383666
57	0x3c267895	0.010160585
58	0xbcd6f799	-0.02624111
59	0x3d9caaf6	0.07649796
60	0x3dfe92b7	0.124303274
61	0xbcc5f984	-0.02416683
62	0xbda6a222	-0.08136393
63	0x3e404f0c	0.18780154
64	0xbd197aba	-0.037470557
65	0x3d5e5819	0.054283235
66	0x3d0bff4b	0.034179013
67	0xbdacd595	-0.08439175
68	0x3dc687f8	0.09693903
69	0xbda88273	-0.08228006
70	0xbd63c173	-0.05560441
71	0x3cf0dc51	0.02940193
72	0x3de610d8	0.112336814
73	0xbe030c96	-0.1279777
74	0x3c3bb22c	0.011456054
75	0xbe036b37	-0.12833868
76	0x3d57a774	0.05264993
77	0xbda6b407	-0.08139806
78	0xbe06d74d	-0.13168068
79	0xbd26a152	-0.04068119
80	0xbe2be1ee	-0.16785404
81	0xbdd0df22	-0.10198809
82	0x3e1af83a	0.15133753
83	0xbe03cf69	-0.1287209
84	0x3e212b22	0.1573911
85	0x3bf099e8	0.007342566
86	0xbe0bb868	-0.13644564
87	0xbd27f5d7	-0.041005936
88	0xbda99cce	-0.08281861
89	0xbe017894	-0.12643653
90	0xbe22ecbe	-0.15910622
91	0x3e3c567d	0.18392368
92	0x3e28e7ec	0.16494721
93	0xbd973dce	-0.07384835
94	0xbdbfca31	-0.09364737
95	0xbe28b413	-0.16474943
96	0xbe214ed0	-0.15752721
97	0x3e00a01b	0.12561075
98	0x3e3a5a9d	0.18198629
99	0x3e3ead96	0.18620905
100	0x3d4ed7c6	0.050498746
101	0xbdc01777	-0.093794756
102	0xbd9ed68a	-0.07755764
103	0xbe063cab	-0.1310908
104	0x3e0f9fee	0.14025852
105	0xbe315e6a	-0.17321172
106	0xbdf691e1	-0.12039543
107	0xbe2616ae	-0.16219589
108	0xbd220201	-0.039552692
109	0xbdc5e757	-0.09663265
110	0xbbdd8668	-0.0067604072
111	0xbe0b4c93	-0.1360343
112	0x3e273c73	0.16331653
113	0x3de00533	0.10938492
114	0xbe1da8c1	-0.15396406
115	0x3daa079e	0.08302234
116	0x3b8011bf	0.0039083655
117	0xbddd06fc	-0.10792348
118	0xbe09a78b	-0.13442819
119	0x3c41343a	0.011792237
120	0x3cd98952	0.026554737
121	0xbcfb893f	-0.030705092
122	0xbe037f15	-0.12841447
123	0xbdbb238f	-0.09137642
124	0xbd9a3451	-0.0752951
125	0xbd1fbc6f	-0.038998064
126	0x3d4d2d19	0.050091837
127	0xbd97e316	-0.0741636
