nn/checkpoints/main_material_2023_04_23-10_35_57/0/model_30.pt (torch, 451442 bytes, 98 tensors)

weight f4 [8, 5, 3]
-0.040228635 -0.096382365 0.13044937 0.05262001 0.09710079 0.10735225 0.1398886 0.15092787
-0.16055882 -0.17941305 0.16090187 0.1105981 -0.15186995 -0.07589173 -0.053245865 0.3155045
0.011013924 -0.014891798 0.30365455 -0.04921691 -0.14582011 0.14459895 0.101491496 0.09786289
-0.01783026 -0.009777143 0.17337815 -0.2198992 -0.1985685 0.024664145 -0.22917482 -0.01428712
0.18547703 0.04500877 0.1308548 -0.014606993 -0.0966603 -0.02254652 0.17992024 0.024530403
0.13688546 0.19994493 0.20813446 -0.26415214 0.12133518 -0.01571226 -0.1791379 0.2743587
0.0022389547 -0.16450527 -0.014509394 -0.034320537 0.13081005 0.22342503 0.17063305 0.18337853
0.23248662 -0.05975623 0.13202238 -0.19370444 0.24075554 -0.14947101 0.079494566 0.18010916
-0.19761746 -0.027344476 -0.14461873 -0.1856396 -0.19012177 0.19062002 -0.059802476 0.22215748
-0.07839401 0.15182438 -0.057469882 0.2506001 -0.105143405 -0.13374266 0.22806683 0.06803882
0.25923547 0.09796922 0.030328471 -0.044556633 -0.08058685 0.12662491 0.16477637 0.19932897
0.03480326 -0.2184078 0.008118602 0.13986328 -0.14322731 0.09567228 -0.107065976 -0.15495491
-0.10018944 0.13777596 0.12195211 -0.17560759 -0.29199156 0.0062139756 -0.039154757 -0.097309075
-0.002699272 -0.21588181 0.05088681 0.10763656 -0.020609738 -0.22376998 -0.1282882 -0.21814325
-0.08204152 0.13726358 -0.21384054 0.11102105 0.055977814 -0.033237092 -0.07918181 0.17258458
00000000: c8c6 24bd 1e64 c5bd 8594 053e 1488 573d
00000010: c7dc c63d 7fdb db3d f53e 0f3e d68c 1a3e
00000020: 8869 24be 0eb8 37be 76c3 243e 4281 e23d
00000030: cc83 1bbe 206d 9bbd 5618 5abd ce89 a13e
00000040: bf73 343c bafc 73bc 9c78 9b3e ac97 49bd
00000050: de51 15be bf11 143e c6da cf3d 576c c83d
00000060: c410 92bc 4f30 20bc 0b8a 313e 422d 61be
00000070: 8a55 4bbe 760c ca3c ceac 6abe 8614 6abc
00000080: b1ed 3d3e 1e5b 383d cdfe 053e 2b52 6fbc
00000090: d6f5 c5bd 7bb3 b8bc 033d 383e fcf3 c83c
000000a0: b42b 0c3e 5dbe 4c3e 3321 553e f33e 87be
000000b0: 947e f83d ffb6 80bc ed6f 37be be78 8c3e
000000c0: 6dbb 123b 1274 28be cfb8 6dbc b193 0cbd
000000d0: 12f3 053e 88c9 643e 6eba 2e3e 95c7 3b3e
000000e0: f910 6e3e f3c2 74bd e030 073e 755a 46be
000000f0: 9f88 763e ee0e 19be 0cce a23d 896e 383e
00000100: 3b5c 4abe 8601 e0bc ef16 14be 4f18 3ebe
00000110: 48af 42be e531 433e 71f3 74bd 407d 633e
00000120: 0a8d a0bd da77 1b3e 8a65 6bbd a84e 803e
00000130: 6d55 d7bd d6f3 08be 5a8a 693e f057 8b3d
00000140: 83ba 843e 16a4 c83d 6a73 f83c 0481 36bd
00000150: b80a a5bd f6a9 013e 23bb 283e e51c 4c3e
00000160: dd8d 0e3d 4ba6 5fbe e303 053c 5238 0f3e
00000170: 2eaa 12be d4ef c33d 6845 dbbd 80ac 1ebe
00000180: 1f30 cdbd 2415 0d3e 07c2 f93d 7ad2 33be
00000190: eb7f 95be 9b9e cb3b bd60 20bd fb49 c7bd
000001a0: 45e6 30bb 1f10 5dbe b06e 503d 8f70 dc3d
000001b0: c1d5 a8bc f523 65be fb5d 03be f260 5fbe
000001c0: 6205 a8bd d38e 0c3e 04f9 5abe 015f e33d
000001d0: fe48 653d 9e23 08bd 132a a2bd 03ba 303e

bias f4 [8]
0.02549371 0.21929663 -0.043121476 0.011656462 -0.15382595 -0.119429424 -0.15930657 0.06958062
00000000: 2fd8 d03c 4c8f 603e 25a0 30bd bffa 3e3c
00000010: 8d84 1dbe 6a97 f4bd 4321 23be 4980 8e3d

weight f4 [8]
1.0011178 0.9914738 0.9949866 0.9745031 1.0230178 1.0078363 0.984621 1.0488001
00000000: a124 803f 3ad1 7d3f 71b7 7e3f 0979 793f
00000010: 3ff2 823f c800 813f 1f10 7c3f 153f 863f

bias f4 [8]
0.007227501 0.019650131 0.084587365 -0.0318971 0.027492864 -0.0006138208 0.016977673 0.054619417
00000000: acd4 ec3b 50f9 a03c 243c ad3d 89a6 02bd
00000010: b738 e13c d1e8 20ba c314 8b3c 9cb8 5f3d

running_mean f4 [8]
0.12907365 0.48568654 0.2506955 0.37691826 -0.1769154 0.31174755 -0.45770898 -0.2213037
00000000: e22b 043e e8ab f83e 295b 803e 6efb c03e
00000010: 5029 35be 609d 9f3e d558 eabe 709d 62be

running_var f4 [8]
0.13837117 0.5675426 0.54102343 0.79606897 0.16849557 0.94800985 0.44910547 0.5557279
00000000: 2cb1 0d3e 794a 113f 8380 0a3f 2dcb 4b3f
00000010: 1a8a 2c3e c6b0 723f 27f1 e53e 2f44 0e3f

weight f4 [8, 8, 3]
-0.102987096 0.09669857 0.13000542 0.05988251 -0.11475877 -0.08022463 0.032377772 -0.14089566
-0.03853369 -0.067510985 0.040025856 -0.1523547 -0.08861816 0.032210454 0.0040829885 -0.15609407
0.20486014 -0.21810071 0.22009031 -0.036010705 0.16579089 -0.20520371 -0.23096065 -0.0066842963
-0.15816666 -0.079956055 -0.12393451 -0.0306146 0.171147 0.21664727 -0.1280151 0.15832719
-0.06537635 0.1548762 0.066778235 -0.10848121 0.040592242 -0.13774824 0.12508424 0.060193338
-0.188932 0.009748759 -0.05537595 -0.14264968 0.11965557 -0.047057502 0.21900286 -0.14222457
-0.038008682 -0.11484015 -0.050378215 0.12889768 -0.07998541 -0.067787156 -0.16318917 -0.16088317
0.013903147 0.0241403 -0.15213606 -0.05953101 -0.1144974 -0.17452306 0.15644328 -0.13734569
0.1424708 -0.21968591 0.23293763 0.12547474 0.07905553 0.1291191 0.009702601 0.20433985
0.043446194 -0.07514098 0.18479623 -0.060917966 -0.16914393 0.123406105 -0.16541155 0.0885532
0.022764988 0.017336624 -0.092882246 -0.17205441 0.07645737 -0.1643568 0.0854013 0.15771663
0.052783556 0.008116926 0.121290825 -0.060255595 -0.033984024 0.050752416 -0.17544813 0.12975347
-0.00917827 0.17278288 0.08365188 0.115459524 -0.1283595 0.1290153 -0.10968258 0.07131425
-0.005520588 0.17513557 -0.15971676 -0.13188684 0.17188022 0.07990896 -0.08989647 -0.04562362
-0.11765622 -0.117950805 -0.06268829 -0.23329334 -0.110338815 -0.21867457 0.20966253 -0.08046582
0.0036025336 -0.114629075 0.15834494 -0.10263709 -0.11998814 0.16685125 -0.009432846 -0.19342364
-0.16873764 0.12962379 -0.028748339 -0.19208483 0.043193277 0.067909 -0.13302015 0.12298581
-0.096423164 -0.14641778 -0.16879037 -0.051839672 0.054765183 -0.10080979 -0.041139193 0.045663748
-0.021987803 0.20832671 -0.073358946 0.05509066 -0.21804126 -0.068038315 0.10526687 0.071349286
0.0380373 -0.034052722 0.058286544 -0.093910374 -0.03718571 -0.117652275 0.17458706 -0.19880658
-0.06717125 0.060207117 0.11642602 -0.02886201 0.13749795 -0.04480003 0.24534792 -0.19618383
0.07959716 -0.031623676 0.13693488 0.11300346 0.17953059 -0.12070476 0.09406639 0.22444077
-0.12404502 -0.14643762 0.028028518 0.09071699 0.038399033 -0.057612337 0.19299383 -0.033165317
-0.1594385 0.13348511 0.020879969 -0.098001264 0.102239944 -0.20026633 0.06770275 0.06947596
00000000: e6ea d2bd e609 c63d 2420 053e 5d47 753d
00000010: a506 ebbd d04c a4bd 8e9e 043d f446 10be
00000020: 81d5 1dbd 3343 8abd 27f2 233d df02 1cbe
00000030: 707d b5bd 1cef 033d 97ca 853b 20d7 1fbe
00000040: dbc6 513e cb55 5fbe 5b5f 613e f67f 13bd
00000050: 16c5 293e ec20 52be f380 6cbe f107 dbbb
00000060: 71f6 21be 00c0 a3bd 60d1 fdbd 78cb fabc
00000070: 2941 2f3e c8d8 5d3e 6416 03be 8620 223e
00000080: 09e4 85bd de97 1e3e 07c3 883d 662b debd
00000090: 0d44 263d e00d 0dbe 1516 003e 4a8d 763d
000000a0: 6477 41be 42b9 1f3c e4d1 62bd c212 12be
000000b0: fb0d f53d 5ebf 40bd 4942 603e 51a3 11be
000000c0: feae 1bbd 5031 ebbd 6359 4ebd c1fd 033e
000000d0: 64cf a3bd fed3 8abd 101b 27be 8fbe 24be
000000e0: 06ca 633c e1c1 c53c 8ec9 1bbe cad6 73bd
000000f0: 9d7d eabd 2cb6 32be ab32 203e 59a4 0cbe
00000100: dee3 113e 58f5 60be 3487 6e3e 737c 003e
00000110: dee7 a13d cc37 043e a8f7 1e3c 773e 513e
00000120: a3f4 313d 84e3 99bd 393b 3d3e 1e85 79bd
00000130: 1134 2dbe 57bc fc3d a561 29be 615b b53d
00000140: a47d ba3c 8905 8e3c 0c39 bebd 082f 30be
00000150: ae95 9c3d 264d 28be e0e6 ae3d 7880 213e
00000160: 9233 583d dbfc 043c 5367 f83d 92ce 76bd
00000170: d532 0bbd c4e1 4f3d ada8 33be 18de 043e
00000180: 7460 16bc ffed 303e ad51 ab3d 0b76 ec3d
00000190: ac70 03be 961c 043e 43a1 e0bd 350d 923d
000001a0: 0ce6 b4bb bd56 333e ca8c 23be 580d 07be
000001b0: 5e01 303e 4fa7 a33d a41b b8bd d5df 3abd
000001c0: bff5 f0bd 3190 f1bd b862 80bd 73e4 6ebe
000001d0: 51f9 e1bd 3aec 5fbe c6b1 563e 44cb a4bd
000001e0: 7c18 6c3b a6c2 eabd 2d25 223e 6533 d2bd
000001f0: 58bc f5bd 0edb 2a3e 398c 1abc d910 46be
00000200: 8fc9 2cbe 19bc 043e a381 ebbc e3b1 44be
00000210: 6feb 303d e013 8b3d 6f36 08be fcdf fb3d
00000220: 8279 c5bd 8bee 15be 62d7 2cbe d655 54bd
00000230: 7551 603d 5d75 cebd 9281 28bd e909 3b3d
00000240: c41f b4bc 9953 553e 373d 96bd bea6 613d
00000250: 3546 5fbe ac57 8bbd 2896 d73d 931f 923d
00000260: 00cd 1b3d de7a 0bbd dfbd 6e3d 1554 c0bd
00000270: 0b50 18bd adf3 f0bd f3c6 323e f493 4bbe
00000280: 1591 89bd bd9b 763d c470 ee3d 0670 ecbc
00000290: 43cc 0c3e 3c80 37bd 7c3c 7b3e 6ae4 48be
000002a0: d603 a33d d487 01bd a838 0c3e 5c6e e73d
000002b0: ded6 373e 0f34 f7bd e1a5 c03d cdd3 653e
000002c0: 510b febd bef3 15be 109c e53c d4c9 b93d
000002d0: 4e48 1d3d eafa 6bbd 2da0 453e 5bd8 07bd
000002e0: d943 23be 52b0 083e 780c ab3c e3b4 c8bd
000002f0: 2d63 d13d 9e12 4dbe bda7 8a3d 6a49 8e3d

bias f4 [8]
-0.096679285 -0.0036043515 -0.079176344 -0.000893936 0.07938828 0.06387383 -0.09106108 0.1539858
00000000: caff c5bd fc36 6cbb 3527 a2bd 0857 6aba
00000010: 5396 a23d 48d0 823d 3b7e babd 74ae 1d3e

weight f4 [8]
1.0664433 0.9948897 1.0262614 0.9285139 1.040523 1.0198439 0.9773635 0.9925039
00000000: 3781 883f 17b1 7e3f 895c 833f 16b3 6d3f
00000010: dc2f 853f 3f8a 823f 7f34 7a3f bc14 7e3f

bias f4 [8]
0.033410564 0.025314018 0.036056004 0.014466885 0.074985184 0.035480227 -0.008632165 0.012881709
00000000: 84d9 083d 585f cf3c 76af 133d 8306 6d3c
00000010: d591 993d b753 113d ed6d 0dbc ce0d 533c

running_mean f4 [8]
-0.26422358 -0.02022038 -0.12509097 0.0023396818 -0.052759305 -0.15592131 -0.059454534 0.28561762
00000000: 5048 87be 36a5 a5bc d917 00be 5955 193b
00000010: 241a 58bd d6a9 1fbe 9986 73bd 793c 923e

running_var f4 [8]
0.23284604 0.067828566 0.73979884 0.05979533 0.08751233 0.25104815 0.15134926 0.1988936
00000000: 316f 6e3e b4e9 8a3d 7563 3d3f f3eb 743d
00000010: aa39 b33d 6289 803e 4dfb 1a3e c4aa 4b3e

weight f4 [8, 8, 3]
0.027052013 -0.110290155 -0.07040017 -0.20621544 0.08341661 0.045359697 0.027269071 0.095906615
0.110509686 -0.16316386 -0.081743985 -0.15108131 -0.082178675 -0.104254544 0.21800591 0.028329348
0.0586878 0.14905551 0.006990281 0.07254139 0.061852377 -0.18016067 0.13041702 -0.12593089
0.09145352 0.036326345 -0.21945083 -0.18303844 -0.080020584 0.19685248 -0.04364458 0.10254991
-0.12307802 0.07942925 -0.11374389 -0.17532113 0.09611446 -0.047232334 0.10164165 -0.05067928
-0.13448083 -0.14164186 -0.16823898 -0.054892924 0.037240498 0.090217814 -0.054399364 0.16463047
0.12554976 -0.17079693 -0.18268551 -0.20562856 -0.08395735 -0.13047108 -0.18409441 0.018434593
-0.15975392 0.073313124 -0.11942847 0.09305745 -0.025323052 -0.023547912 0.087809235 0.05724898
0.10999212 0.07088269 -0.19336326 -0.045035016 0.095999174 0.081077054 -0.1457059 -0.15254837
-0.22981119 -0.1657295 0.032917198 -0.08811719 0.122446604 -0.09165167 -0.14978926 -0.11172086
-0.21274626 -0.13698247 -0.12179678 0.09167255 0.20948629 -0.071728796 -0.033120703 -0.12852512
-0.18584645 -0.032786503 0.11224408 0.17374784 -0.10701282 0.028490908 -0.07712347 -0.1376304
-0.10675243 -0.11169552 0.05220999 0.14035532 -0.023077643 -0.050437614 0.036480244 -0.15986331
-0.17799008 -0.1263205 0.16097336 0.14638133 -0.14086674 -0.17319238 0.07512514 -0.06361273
0.14990425 -0.06281172 -0.06842466 0.20728314 -0.20406523 -0.092068 -0.035338383 0.012649898
-0.011469899 -0.085862584 0.07886222 -0.09728369 -0.11316726 0.08914163 -0.20479606 0.024800299
0.04651225 -0.019037062 -0.09024059 0.19619828 0.1990636 -0.12100208 0.15030992 -0.1766883
-0.20434202 -0.20645845 -0.037410755 0.10512715 0.19127154 -0.034035355 0.15385191 0.1535834
-0.056100953 0.010900418 0.10775051 0.13023502 0.18067749 -0.0041535795 -0.08398318 0.030100578
0.12190047 -0.06307953 -0.13208447 0.16507502 0.16255988 0.08981244 0.015409863 -0.08765629
-0.119606264 0.1603531 -0.039323054 0.07017727 -0.12721327 0.16596724 0.10569483 -0.10688918
-0.01272984 0.13673455 0.1108822 -0.02845595 0.13460356 0.03037664 -0.13527158 -0.17263934
0.016559191 0.09583278 0.17180379 0.14950928 0.16191277 0.074490465 0.17606702 0.11624532
-0.11435366 0.0980449 -0.13989812 -0.17894405 0.21415672 0.09892432 0.0759905 0.2107698
00000000: 2f9c dd3c cedf e1bd f72d 90bd 242a 53be
00000010: 54d6 aa3d 17cb 393d 6363 df3c b06a c43d
00000020: e752 e23d 6d14 27be 6469 a7bd 0fb5 1abe
00000030: 4b4d a8bd 6883 d5bd f13c 5f3e f312 e83c
00000040: 9e62 703d 02a2 183e ba0e e53b 9590 943d
00000050: eb58 7d3d 0a7c 38be 0a8c 053e 07f4 00be
00000060: fc4b bb3d efca 143d b8b7 60be 6e6e 3bbe
00000070: d5e1 a3bd b293 493e a9c4 32bd b005 d23d
00000080: 5410 fcbd cdab a23d 8ef2 e8bd 6287 33be
00000090: a8d7 c43d b176 41bd 7f29 d03d 1495 4fbd
000000a0: 58b5 09be 900a 11be d746 2cbe 67d7 60bd
000000b0: 7e89 183d 1ec4 b83d ded1 5ebd e494 283e
000000c0: 1e90 003e 64e5 2ebe e911 3bbe 4b90 52be
000000d0: d5f1 abbd 369a 05be 3f83 3cbe 2504 973c
000000e0: 8896 23be 3125 963d ea96 f4bd e894 be3d
000000f0: 4a72 cfbc 8de7 c0bc 54d5 b33d e87d 6a3d
00000100: 8c43 e13d f22a 913d 0501 46be a376 38bd
00000110: 379b c43d ba0b a63d ed33 15be a435 1cbe
00000120: a053 6bbe feb4 29be 2fd4 063d c976 b4bd
00000130: 49c5 fa3d dfb3 bbbd 5b62 19be e8cd e4bd
00000140: 28da 59be 2245 0cbe 9770 f9bd d1be bb3d
00000150: 9383 563e 8ce6 92bd 93a9 07bd 179c 03be
00000160: 884e 3ebe 244b 06bd 39e0 e53d f4ea 313e
00000170: 8a29 dbbd c465 e93c e9f2 9dbd fcee 0cbe
00000180: 05a1 dabd 9fc0 e4bd 24da 553d 4eb9 0f3e
00000190: 530d bdbc ac97 4ebd 4f6c 153d 35b3 23be
000001a0: 0843 36be 295a 01be 33d6 243e fde4 153e
000001b0: 5f3f 10be 5859 31be 36db 993d 6447 82bd
000001c0: 8080 193e 6ea3 80bd 3a22 8cbd 0842 543e
000001d0: 7af6 50be 268e bcbd fbbe 10bd 8541 4f3c
000001e0: 3eec 3bbc b9d8 afbd 8482 a13d ac3c c7bd
000001f0: 3dc4 e7bd e38f b63d 0fb6 51be ff29 cb3c
00000200: a183 3e3d 9df3 9bbc 0fd0 b8bd 34e8 483e
00000210: 54d7 4b3e f0cf f7bd d8ea 193e c7ed 34be
00000220: 093f 51be d869 53be 053c 19bd e74c d73d
00000230: b0dc 433e a868 0bbd 5b8b 1d3e f844 1d3e
00000240: 1dca 65bd ab97 323c 4dac dc3d 545c 053e
00000250: 8503 393e c01a 88bb 60ff abbd 7d95 f63c
00000260: f4a6 f93d d72f 81bd 2741 07be 6d09 293e
00000270: 1976 263e 96ef b73d a679 7c3c 2485 b3bd
00000280: 21f4 f4bd 9a33 243e 3611 21bd 1ab9 8f3d
00000290: 3244 02be 51f3 293e 8876 d83d b7e8 dabd
000002a0: d290 50bc 2404 0c3e 3516 e33d 741c e9bc
000002b0: 84d5 093e 6ed8 f83c a284 0abe 5ec8 30be
000002c0: 24a7 873c fa43 c43d 55ed 2f3e f618 193e
000002d0: 76cc 253e 758e 983d ea4a 343e 0712 ee3d
000002e0: 4032 eabd c4cb c83d 7441 0fbe 1c3d 37be
000002f0: e64b 5b3e d598 ca3d e8a0 9b3d 0ad4 573e

bias f4 [8]
0.076705955 0.06115568 0.041297443 -0.045941945 -0.1423084 0.0030026862 0.050822735 -0.14886884
00000000: 0318 9d3d 617e 7a3d 8227 293d 9f2d 3cbd
00000010: 4bb9 11be b7c8 443b 802b 503d 1371 18be

weight f4 [8]
0.97878975 0.9999105 1.0223713 0.96942264 1.026739 0.9833122 1.0052742 1.0001284
00000000: f791 7a3f 22fa 7f3f 10dd 823f 152c 783f
00000010: 2f6c 833f 59ba 7b3f d3ac 803f 3504 803f

bias f4 [8]
0.030125026 0.034208212 0.056040257 0.09365891 0.052983087 0.034505952 0.016742187 0.011143183
00000000: c2c8 f63c e91d 0c3d 788a 653d 3ed0 bf3d
00000010: cb04 593d 1d56 0d3d e926 893c e691 363c

running_mean f4 [8]
0.072963014 -0.05796541 -0.19698271 -0.37822816 -0.31718108 -0.016199019 0.22787775 0.13323782
00000000: a26d 953d 236d 6dbd d6b5 49be 1fa7 c1be
00000010: 8f65 a2be ceb3 84bc c958 693e 7f6f 083e

running_var f4 [8]
0.1638772 0.064765885 0.12053837 0.07446404 0.033103537 0.20748061 0.14049968 0.36651635
00000000: 6dcf 273e faa3 843d d2dc f63d 9a80 983d
00000010: 9397 073d cc75 543e 26df 0f3e 08a8 bb3e

weight f4 [8, 8, 3]
-0.05978103 -0.06416324 -0.22201565 0.100563794 0.04179965 -0.013986576 -0.09528305 -0.15191463
0.1784462 0.17796063 0.17323975 -0.14529999 -0.05988228 -0.07695341 0.1252959 -0.054980338
0.03132726 0.034937367 0.08301075 -0.010261671 -0.15056051 0.13940458 0.011229719 -0.0540604
-0.0640356 0.055126086 0.18449652 0.041944355 0.07154369 0.031648576 0.12706207 0.10512415
-0.008487394 -0.031160718 -0.17430693 0.19608541 0.10257965 0.17423077 0.13457291 0.068900324
0.08432223 0.18512207 0.094253816 0.13905388 0.1070274 0.17913306 -0.14640264 0.09597989
-0.0055582155 0.018810907 -0.17179552 0.04315839 -0.1623811 -0.1654857 0.14595872 0.15911718
-0.062885776 0.07388733 -0.16789408 0.047427 -0.22032616 -0.19314273 -0.15052089 0.14320502
-0.04648661 -0.23432775 0.053425416 0.023733672 -0.09132156 -0.07128443 -0.057475086 0.018463403
0.14608428 0.053763196 0.20107807 -0.12793876 -0.12458661 -0.08945096 -0.11055462 0.116424054
0.0079905875 0.02776457 0.027446361 -0.048570808 0.049595848 0.21565881 -0.18878058 0.18802921
0.16368893 0.1667809 -0.050321937 0.05379597 0.17779705 0.21680498 0.08278433 0.21411131
-0.0984488 0.033098523 -0.03942867 -0.08313335 -0.19586541 0.10948376 0.1417098 -0.15138435
0.29011613 0.17424728 -0.17046437 -0.0024528839 0.09448967 0.06162351 -0.048080787 -0.1313379
0.032307282 -0.025721265 -0.12363316 0.064877704 0.03543707 0.018335676 -0.15326808 -0.10027304
-0.1925042 0.15621795 -0.05048128 -0.096693024 -0.17346075 -0.06597729 0.061070826 -0.06629453
0.13425988 0.025082985 -0.15232798 -0.1674432 -0.17789344 -0.15540382 -0.06554029 0.06474256
0.13303745 -0.07245616 -0.0876801 -0.0738169 -0.027548237 -0.022654658 0.11244231 -0.008029949
-0.047102917 0.14401114 0.18674076 0.058196098 -0.031495243 0.06410681 0.060250796 0.17618836
0.11898243 -0.107603185 -0.00506341 0.1800569 -0.124917835 -0.15870126 0.15266071 0.011435478
0.12036629 0.077941835 0.16412386 0.21782699 -0.08361763 0.19962196 -0.17193483 -0.052508373
-0.1793888 0.12123845 -0.036713146 0.039263874 -0.11862511 0.00854486 0.1291345 -0.059217755
0.07401552 0.18680355 -0.08966627 0.20799805 0.14764225 0.20914653 -0.14505441 0.078492254
0.08398233 -0.035578292 -0.20430595 0.014732038 0.14745495 -0.1210382 -0.15252033 -0.06304091
00000000: f4dc 74bd 0468 83bd 1258 63be 64f4 cd3d
00000010: 1c36 2b3d f427 65bc c223 c3bd 828f 1bbe
00000020: 9aba 363e 503b 363e c365 313e 85c9 14be
00000030: 1f47 75bd c099 9dbd 924d 003e 1033 61bd
00000040: 0351 003d 7c1a 0f3d 8a01 aa3d 9120 28bc
00000050: 892c 1abe 13c0 0e3e dbfc 373c 706e 5dbd
00000060: 1925 83bd e4cb 613d a8ec 3c3e d8cd 2b3d
00000070: 8085 923d f0a1 013d 8f1c 023e 554b d73d
00000080: b60e 0bbc c344 ffbc 847d 32be 9dca 483e
00000090: 4815 d23d 8d69 323e 7bcd 093e 9d1b 8d3d
000000a0: 22b1 ac3d a490 3d3e 2508 c13d 2464 0e3e
000000b0: 2e31 db3d a86e 373e 93ea 15be 1b91 c43d
000000c0: b121 b6bb 5519 9a3c 2aeb 2fbe dac6 303d
000000d0: 3b47 26be 1575 29be 3476 153e 9def 223e
000000e0: 42ca 80bd 3e52 973d 6dec 2bbe d042 423d
000000f0: 2e9d 61be 35c7 45be 2622 1abe 56a4 123e
00000100: be68 3ebd 9df3 6fbe 9cd4 5a3d 1e6d c23c
00000110: cc06 bbbd 92fd 91bd ff6a 6bbd 9040 973c
00000120: 1e97 153e cc36 5c3d 69e7 4d3e 6102 03be
00000130: 4427 ffbd 1132 b7bd 766a e2bd bc6f ee3d
00000140: f4ea 023c 8672 e33c 31d7 e03c 2ff2 46bd
00000150: 0425 4b3d aad5 5c3e b24f 41be bb8a 403e
00000160: 129e 273e 9dc8 2a3e 601e 4ebd 2a59 5c3d
00000170: 6e10 363e 2002 5e3e d58a a93d ff3f 5b3e
00000180: 869f c9bd 5192 073d f57f 21bd d141 aabd
00000190: f190 48be 0639 e03d 601c 113e 8004 1bbe
000001a0: 1a8a 943e e16d 323e 368e 2ebe 90c0 20bb
000001b0: cd83 c13d ef68 7c3d 5cf0 44bd 717d 06be
000001c0: a454 043d 67b5 d2bc 6233 fdbd 9ade 843d
000001d0: 7626 113d b334 963c 4ff2 1cbe f45b cdbd
000001e0: d21f 45be 99f7 1f3e 75c5 4ebd fe06 c6bd
000001f0: b29f 31be 1a1f 87bd 6725 7a3d 6dc5 87bd
00000200: 6c7b 093e d57a cd3c defb 1bbe 3b76 2bbe
00000210: b329 36be 2e22 1fbe fd39 86bd bf97 843d
00000220: f83a 083e e563 94bd a091 b3bd 512d 97bd
00000230: d7ac e1bc 4396 b9bc 2748 e63d 0c90 03bc
00000240: fdee 40bd a877 133e f838 3f3e 085f 6e3d
00000250: 2801 01bd 6e4a 833d 8ac9 763d b96a 343e
00000260: 0fad f33d 0f5f dcbd f6ea a5bb d660 383e
00000270: ecd4 ffbd 9582 22be 1753 1c3e df5b 3b3c
00000280: 9a82 f63d f89f 9f3d 1610 283e 0a0e 5f3e
00000290: b83f abbd b369 4c3e af0f 30be 0513 57bd
000002a0: b3b1 37be dd4b f83d 8660 16bd 28d3 203d
000002b0: b9f1 f2bd beff 0b3c d63b 043e 518e 72bd
000002c0: 7395 973d 6e49 3f3e f3a2 b7bd 71fd 543e
000002d0: 882f 173e 822a 563e 2589 14be 8cc0 a03d
000002e0: eefe ab3d 8bba 11bd 9435 51be a55e 713c
000002f0: 6efe 163e e0e2 f7bd 4a2e 1cbe 981b 81bd

bias f4 [8]
0.11397202 0.07671483 0.15817414 -0.020987343 -0.062083002 0.17800476 0.12076597 -0.024504717
00000000: 2a6a e93d aa1c 9d3d 67f8 213e a6ed abbc
00000010: bf4a 7ebd e146 363e 2654 f73d 1ebe c8bc

weight f4 [8]
1.0294064 0.965809 1.0394839 0.983955 1.0555652 1.0118568 0.9641244 1.010286
00000000: 97c3 833f 423f 773f cf0d 853f 7ae4 7b3f
00000010: c31c 873f 8684 813f dbd0 763f 0d51 813f

bias f4 [8]
0.015903983 0.012967906 0.054985218 -0.059733305 0.1445298 0.034774765 0.051249545 0.020510083
00000000: 1249 823c 5777 543c 2e38 613d e9aa 74bd
00000010: 9fff 133e fc6f 0e3d 0beb 513d c304 a83c

running_mean f4 [8]
0.1152017 0.5281438 -0.12317893 0.3373056 -0.14336416 -0.0839971 0.41950884 0.043454476
00000000: deee eb3d 6f34 073f 3c45 fcbd 52b3 ac3e
00000010: 0ece 12be ac06 acbd ddc9 d63e 52fd 313d

running_var f4 [8]
0.06648162 0.610243 0.34423587 0.6264502 0.20000082 0.17015997 0.21906507 0.13668336
00000000: 8427 883d e338 1c3f af3f b03e 0a5f 203f
00000010: 04cd 4c3e 6a3e 2e3e 9852 603e b9f6 0b3e

weight f4 [8, 8, 3]
0.096597396 0.12845504 0.21506557 0.20834646 0.14797853 -0.046101853 -0.2460028 -0.13121687
0.06375163 -0.0687975 0.13411778 -0.0061630267 0.042599514 -0.21885923 -0.030973677 0.13815391
0.06503405 0.012679109 0.056575797 -0.108304694 -0.09284608 0.19627173 0.014373912 0.1135311
-0.058331717 -0.03167124 -0.022454996 -0.1374752 0.17075475 0.08817016 0.05602498 0.0895704
0.07640103 0.12617977 -0.104253 -0.20548382 -0.098176315 0.14885223 -0.10466445 0.249658
0.036831837 0.15297045 0.16758548 0.075517796 -0.005481535 -0.1316826 -0.13837638 0.06867407
-0.049429413 -0.04875633 -0.048892763 0.091137 -0.15988916 0.079053394 0.09057792 -0.01396116
-0.14336249 -0.0052044876 0.177503 -0.19246112 0.25017348 -0.07142639 -0.25818822 0.06942623
-0.22565943 -0.20373596 0.11527376 -0.059174262 -0.11637201 -0.047768373 -0.030211916 -0.14675191
-0.11248148 -0.20222329 0.15588379 -0.00022695847 0.09327781 -0.053416755 -0.22862089 -0.1686407
0.049546752 -0.01108536 0.0037520742 -0.17287071 -0.11817476 -0.19385867 -0.02864743 0.16173105
0.06444676 -0.11485988 0.12542076 0.18282256 -0.14556673 0.04577958 0.046093162 0.10037342
-0.013852736 0.10409263 -0.17659396 0.1360041 -0.088308476 0.07773472 -0.23238024 0.17607069
0.23843919 0.07389918 0.008292026 0.077261485 0.20787196 -0.105211906 0.041377667 0.13633585
-0.085330375 0.0051163826 0.018786075 -0.15787823 0.0052723414 0.025818786 -0.011219327 0.12604411
0.14309949 -0.14869048 0.03465557 -0.08705533 -0.073912755 -0.0126322545 0.14978026 0.18414776
-0.18156452 -0.09501111 0.15868205 -0.16725078 0.07741655 -0.17719927 -0.061157938 -0.026067166
0.21836162 -0.017286696 -0.13347872 0.0022166718 -0.12236374 0.18345636 0.14555912 0.24976756
-0.055809375 -0.03577922 0.23553313 -0.014737391 -0.08584795 -0.08386978 0.07974152 -0.060053784
0.20139411 -0.053059902 -0.10366858 -0.06667011 0.08602769 -0.14777255 0.16536474 -0.00577928
-0.05228533 0.01901185 -0.14398618 0.21375564 -0.05256166 0.19590667 -0.21865493 -0.08832956
0.020562502 0.17109334 -0.15936063 0.19297235 -0.07768693 0.014156793 0.08736399 -0.13566889
-0.033830725 -0.07218235 -0.2118416 0.063518465 0.10458829 -0.17551565 0.034507215 -0.21149877
0.16032273 -0.15205476 0.10284604 0.10111247 -0.09827324 0.075500466 0.16033007 0.15633313
00000000: dbd4 c53d b889 033e 263a 5c3e c658 553e
00000010: af87 173e 4cd5 3cbd 28e8 7bbe b75d 06be
00000020: 3790 823d b4e5 8cbd 2c56 093e 37f3 c9bb
00000030: d47c 2e3d a21c 60be 82bc fdbc 3878 0d3e
00000040: 9230 853d 0abc 4f3c 06bc 673d dace ddbd
00000050: 1626 bebd 75fb 483e 8e80 6b3c fe82 e83d
00000060: 3ded 6ebd b4b9 01bd 8af3 b7bc 4dc6 0cbe
00000070: 55da 2e3e 8f92 b43d 737a 653d b070 b73d
00000080: 2578 9c3d 4535 013e 9982 d5bd 5a6a 52be
00000090: aa10 c9bd b86c 183e 515a d6bd 59a6 7f3e
000000a0: fbdc 163d 49a4 1c3e 879b 2b3e 13a9 9a3d
000000b0: 739e b3bb ced7 06be 8ab2 0dbe fea4 8c3d
000000c0: 7f76 4abd b8b4 47bd c743 48bd 09a6 ba3d
000000d0: fcb9 23be bfe6 a13d eb80 b93d 59bd 64bc
000000e0: 9ecd 12be 688a aabb 59c3 353e 8714 45be
000000f0: bd16 803e 0048 92bd 3f31 84be 572f 8e3d
00000100: 4413 67be 29a0 50be a614 ec3d b660 72bd
00000110: 7354 eebd c5a8 43bd fb7e f7bc 2246 16be
00000120: b15c e6bd 9f13 4fbe 00a0 1f3e b3fb 6db9
00000130: 7008 bf3d 87cb 5abd 981b 6abe 26b0 2cbe
00000140: 89f1 4a3d 5f9f 35bc 5ce5 753b 0505 31be
00000150: 9c05 f2bd e382 46be 04ae eabc d39c 253e
00000160: aafc 833d a83b ebbd 4d6e 003e d635 3b3e
00000170: 720f 15be 5e83 3b3d 2fcc 3c3d 9490 cd3d
00000180: 96f6 62bc 842e d53d 0cd5 34be a944 0b3e
00000190: 13db b4bd 6233 9f3d 16f5 6dbe e04b 343e
000001a0: 6729 743e 7458 973d 47db 073c 453b 9e3d
000001b0: 63dc 543e 5779 d7bd a17b 293d a09b 0b3e
000001c0: b1c1 aebd 54a7 a73b 41e5 993c d5aa 21be
000001d0: 9bc3 ac3b eb81 d33c 45d1 37bc b511 013e
000001e0: ac88 123e 5142 18be 00f3 0d3d 114a b2bd
000001f0: 925f 97bd 84f7 4ebc ff5f 193e 3b91 3c3e
00000200: 0dec 39be 2f95 c2bd 8c7d 223e ca43 2bbe
00000210: 918c 9e3d ba73 35be bf80 7abd cf8a d5bc
00000220: 309a 5f3e d49c 8dbc a5ae 08be 9545 113b
00000230: d799 fabd fcdb 3b3e 730d 153e 11c3 7f3e
00000240: 5f98 64bd 3b8d 12bd 992f 713e 1975 71bc
00000250: 0dd1 afbd ebc3 abbd 864f a33d f5fa 75bd
00000260: 423a 4e3e 5755 59bd 3150 d4bd 578a 88bd
00000270: 492f b03d b051 17be 6055 293e 1d60 bdbb
00000280: 2429 56bd bdbe 9b3c 1d71 13be c2e2 5a3e
00000290: e54a 57bd c29b 483e 14e7 5fbe 21e6 b4bd
000002a0: b172 a83c 1833 2f3e 6f2f 23be 8b9a 453e
000002b0: 531a 9fbd e5f1 673c e4eb b23d c9ec 0abe
000002c0: 1692 0abd 57d4 93bd 01ed 58be f815 823d
000002d0: 6332 d63d 60ba 33be 7057 0d3d 2293 58be
000002e0: a42b 243e 3eb4 1bbe f2a0 d23d 0e14 cf3d
000002f0: 7b43 c9bd fd9f 9a3d 912d 243e cb15 203e

bias f4 [8]
-0.014777145 -0.14579785 0.19348519 -0.054343276 -0.0054394323 0.20324089 0.16466726 0.1960432
00000000: d71b 72bc 084c 15be fb20 463e 0e97 5ebd
00000010: 443d b2bb 611e 503e 899e 283e 8cbf 483e

weight f4 [8]
0.97357655 1.0121796 1.0339547 1.0214428 0.9871309 1.0016094 0.9930085 0.97935754
00000000: 503c 793f 1a8f 813f a158 843f a3be 823f
00000010: 9cb4 7c3f bd34 803f ce35 7e3f 2db7 7a3f

bias f4 [8]
0.05038173 0.0032444806 0.055328745 0.01663646 0.025296032 0.07255038 0.0045630736 0.0042725634
00000000: 135d 4e3d 5aa1 543b 65a0 623d 2f49 883c
00000010: a039 cf3c 4b95 943d d685 953b dc00 8c3b

running_mean f4 [8]
0.17974696 0.030906245 -0.12042876 -0.24440221 0.16386695 0.27968368 0.19240677 0.20365152
00000000: 960f 383e 182f fd3c 5ba3 f6bd 9344 7abe
00000010: bdcc 273e b332 8f3e 4806 453e 068a 503e

running_var f4 [8]
0.3348442 0.058498695 0.03759552 0.061076198 0.060635284 0.2013513 0.2220731 0.11414243
00000000: b370 ab3e 549c 6f3d c3fd 193d 092b 7a3d
00000010: b45c 783d 092f 4e3e 2167 633e 82c3 e93d

weight f4 [8, 8, 3]
-0.24782233 0.07568272 0.039260946 0.057849813 0.12128814 -0.11320695 -0.012925224 -0.026688283
-0.13387875 0.17085879 0.05317929 0.20652975 0.15279327 -0.20902361 -0.035803948 0.12529491
-0.07383769 0.16702351 0.19799337 -0.0725474 0.06017584 0.06735038 0.0551952 -0.14843018
0.042902756 -0.10616387 0.21010792 0.121405 -0.03253867 0.080903925 0.06312145 0.030944709
0.11332455 -0.2021404 0.13489208 0.005858655 0.0076398198 -0.08842086 0.12507465 0.100171715
0.031531338 -0.07032592 -0.17383428 0.14445688 0.17103559 -0.030927029 -0.08396612 0.038999945
0.104847334 -0.22296628 0.08480114 0.13183582 -0.05876556 -0.20168515 -0.00935342 0.082371995
-0.093758196 0.1715775 0.0655805 -0.23595184 0.13472626 -0.024007097 0.021668078 0.11783834
0.11241259 0.06493429 0.09154329 -0.17481326 0.16481565 -0.11318784 -0.15242806 0.19564712
0.16102077 0.09557935 0.014745495 -0.13245972 -0.17022681 -0.012685152 0.06418133 0.21612044
-0.0302723 0.08943993 0.051672913 0.1839669 -0.15515547 -0.1140869 -0.17858905 0.0338201
-0.032363676 0.0803731 0.03095047 -0.119234525 0.07170356 0.13302608 -0.14769948 0.029599372
0.0912563 -0.039908852 -0.1502471 0.14060284 -0.25889564 -0.1447263 -0.13645498 0.15307055
-0.13404278 -0.014076339 -0.15252486 0.159045 0.03460521 0.15062895 -0.1431239 -0.28220877
-0.114644356 0.08173695 -0.11377244 0.04171298 -0.14983451 -0.12945853 -0.073524915 0.18450609
0.15369633 0.007625323 0.082882375 0.030176384 -0.1356286 -0.011303211 0.02730775 0.22929476
0.007715566 0.15840976 -0.033822548 -0.091598734 -0.21726044 -0.021421058 0.1061548 -0.08386117
0.025329696 0.18069018 -0.042023145 0.085002944 0.098578066 0.032463524 -0.043173335 -0.16780508
0.09394148 -0.14026394 -0.056828942 0.07240224 -0.16604088 -0.065280624 -0.063604854 0.20453851
-0.031253327 -0.14634302 0.13118248 0.013884009 0.073162474 -0.053954244 -0.25550526 -0.21616939
-0.19637655 0.030701673 -0.21812151 0.17173442 0.06968635 0.14040278 0.04804947 -0.020823808
-0.09191645 0.16849951 -0.14624254 -0.16536583 -0.13682765 -0.026681215 -0.018470898 0.17255867
-0.23041603 0.044159554 -0.031433463 0.08819324 0.1563717 0.14544038 -0.18709907 -0.084029995
-0.16065638 -0.06597121 -0.06661814 -0.052813113 -0.026460622 -0.0024845374 -0.08055277 0.048029996
00000000: 23c5 7dbe 8bff 9a3d 16d0 203d edf3 6c3d
00000010: eb65 f83d 0cd9 e7bd 52c4 53bc 63a1 dabc
00000020: 8317 09be 9bf5 2e3e 87d2 593d 897c 533e
00000030: d775 1c3e 490a 56be 29a7 12bd 4f4d 003e
00000040: 3738 97bd 3608 2b3e c6be 4a3e bb93 94bd
00000050: f17a 763d ffee 893d 5d14 623d 15fe 17be
00000060: cdba 2f3d 716c d9bd 8826 573e 2fa3 f83d
00000070: 4547 05bd f5b0 a53d d245 813d c27f fd3c
00000080: b416 e83d e5fd 4ebe 2621 0a3e f6f9 bf3b
00000090: 7457 fa3b ff15 b5bd 9213 003e d426 cd3d
000000a0: 0127 013d 0907 90bd 9d01 32be 81ec 133e
000000b0: f423 2f3e ae5a fdbc 6ef6 abbd 68be 1f3d
000000c0: 33ba d63d 4651 64be 38ac ad3d f8ff 063e
000000d0: 28b4 70bd 8d86 4ebe 163f 19bc a6b2 a83d
000000e0: 4c04 c0bd 03b2 2f3e 124f 863d 5c9d 71be
000000f0: aef5 093e 88aa c4bc 4181 b13c 3a55 f13d
00000100: 9238 e63d 45fc 843d 0c7b bb3d 3f02 33be
00000110: 6fc5 283e 07cf e7bd 1a16 1cbe b857 483e
00000120: a1e2 243e 1bbf c33d 1797 713c 85a3 07be
00000130: f04f 2ebe 62d5 4fbc 8071 833d ad4e 5d3e
00000140: 9dfd f7bc 482c b73d faa6 533d d261 3c3e
00000150: 13e1 1ebe 65a6 e9bd 0ce0 36be f286 0a3d
00000160: c68f 04bd a79a a43d d78b fd3c 3b31 f4bd
00000170: 51d9 923d fd37 083e 883e 17be 627a f23c
00000180: 95e4 ba3d 7777 23bd 60da 19be 31fa 0f3e
00000190: f88d 84be 2233 14be dbba 0bbe 87be 1c3e
000001a0: 8342 09be 72a0 66bc 7a2f 1cbe b1dc 223e
000001b0: 31be 0d3d 7a3e 1a3e 128f 12be ab7d 90be
000001c0: a9ca eabd b465 a73d 8601 e9bd 3bdb 2a3d
000001d0: 386e 19be c790 04be 3b94 96bd 2aef 3c3e
000001e0: 9262 1d3e d8dd f93b 3cbe a93d 7734 f73c
000001f0: 39e2 0abe 1a31 39bc 81b4 df3c 3fcc 6a3e
00000200: dcd2 fc3b 2b36 223e 8389 0abd 1e98 bbbd
00000210: 8579 5ebe 377b afbc b067 d93d 68bf abbd
00000220: 3980 cf3c d906 393e 7620 2cbd 0616 ae3d
00000230: 4ce3 c93d 79f8 043d 86d6 30bd 18d5 2bbe
00000240: 6464 c03d 5aa1 0fbe 77c5 68bd a047 943d
00000250: 9f06 2abe d9b1 85bd 4343 82bd 8b72 513e
00000260: 7d03 00bd f2da 15be b354 063e c179 633c
00000270: 35d6 953d 20ff 5cbd 96d1 82be 825b 5dbe
00000280: ef16 49be 1382 fb3c 3f5b 5fbe 26db 2f3e
00000290: b8b7 8e3d bfc5 0f3e 85cf 443d b196 aabc
000002a0: b13e bcbd 238b 2c3e 9bc0 15be a955 29be
000002b0: 8c1c 0cbe 9092 dabc 4850 97bc 38b3 303e
000002c0: 2ef2 6bbe a6e0 343d 60c0 00bd a89e b43d
000002d0: e71f 203e 53ee 143e e696 3fbe eb17 acbd
000002e0: 1b83 24be ea1b 87bd 176f 88bd 9052 58bd
000002f0: f2c3 d8bc 9fd3 22bb daf8 a4bd 1abb 443d

bias f4 [8]
-0.108869344 0.16069582 0.086659625 -0.040010642 -0.10292072 0.14627734 -0.009182459 -0.1377259
00000000: e4f6 debd 728d 243e 9a7a b13d 33e2 23bd
00000010: 19c8 d2bd bac9 153e 0672 16bc 0508 0dbe

weight f4 [8]
0.97814924 0.9178374 0.90015566 0.9902797 1.0206279 0.95757645 1.0133796 1.0002306
00000000: fd67 7a3f 64f7 6a3f 9a70 663f f882 7d3f
00000010: efa3 823f bb23 753f 6cb6 813f 8e07 803f

bias f4 [8]
-0.039905656 -0.07373293 0.0015466695 -0.004271165 -0.03064866 0.0049723554 -0.00022615334 0.022441603
00000000: 1d74 23bd 4a01 97bd 9eb9 ca3a 21f5 8bbb
00000010: e612 fbbc 24ef a23b 9323 6db9 74d7 b73c

running_mean f4 [8]
3.283435e-05 0.37045875 0.12756078 -0.00075069955 -0.41844198 0.24676634 -0.17093334 -0.39002335
00000000: 9db7 0938 c5ac bd3e 4b9f 023e 98ca 44ba
00000010: 073e d6be 51b0 7c3e 2609 2fbe 24b1 c7be

running_var f4 [8]
0.08857777 0.14704841 0.06584445 0.13560171 0.08436318 0.07348815 0.10372894 0.07099208
00000000: 4368 b53d dc93 163e 74d9 863d 2ddb 0a3e
00000010: 9ac6 ac3d f580 963d d76f d43d 4c64 913d

weight f4 [128, 25]
-0.09289796 0.020776283 -0.08288094 0.057963032 0.12491114 0.071677215 0.1011048 0.12614712
0.031046439 0.1245695 -0.12612182 0.271693 -0.0025486276 -0.057717927 0.055831164 0.022685545
-0.124755874 0.16265742 0.1748642 0.15063474 0.095937245 0.035592593 0.18958211 -0.14001866
0.03312891 -0.24561617 -0.11820888 0.05308195 0.11587938 -0.07623072 0.10714722 0.163098
-0.06466121 0.14958909 0.038171213 0.14358522 0.13854681 0.045837913 0.049832974 -0.061327506
-0.08654808 0.019390458 0.19386703 0.22427218 0.11193859 0.1523695 -0.033566687 -0.03966929
0.19209307 -0.04813643 0.06144297 -0.028268801 -0.14204653 0.26682156 -0.14773156 -0.14879821
-0.1328923 0.009293916 -0.30053687 -0.18331301 0.10749418 -0.23491824 0.11240099 0.08461152
0.13550965 0.06051783 -0.14651679 -0.14449762 -0.123117015 -0.1841111 0.15898363 0.17407005
-0.17563811 -0.23962966 -0.017244112 -0.10323596 -0.07048146 0.076863155 -0.012237976 0.07749231
0.0053033866 0.23977585 -0.05532868 -0.23339002 -0.09685422 -0.22691026 -0.15722027 -0.039939396
0.1197331 -0.21309052 -0.046313226 0.19316475 0.0064672604 -0.16039485 -0.17491615 0.11740508
-0.18837592 0.115101546 0.0689994 0.12420557 0.15838285 -0.12436362 0.0071876077 -0.13612166
0.06516971 0.08961911 0.019469721 0.070243165 0.08649154 -0.10819618 -0.012476572 0.0113737285
0.026987014 -0.022532757 0.06680039 -0.011958986 0.10719942 -0.15104124 0.1915113 0.09764567
-0.253375 0.03725446 0.06765751 0.013295067 -0.26658237 0.08325259 0.1697404 -0.0041702488
-0.026880097 0.09735037 -0.15499654 -0.19717497 0.14190327 0.0896016 -0.051721264 -0.05439976
-0.07281843 0.12328255 -0.023332827 0.07777077 -0.04345577 -0.028513953 -0.011629556 0.17991672
0.07842421 0.11227093 -0.02405375 0.02347709 0.2111088 0.07559329 0.19557817 0.121744804
0.17399606 0.04616724 0.01743954 -0.029231487 -0.12733997 -0.2076863 0.19850552 -0.015855532
0.18596555 -0.10749839 -0.12502491 -0.104594536 0.13886087 -0.019535072 0.11318504 -0.107169904
0.11773945 0.15332575 -0.15586537 -0.1067969 -0.032861896 0.0909431 -0.098162554 0.05450415
-0.19294533 -0.0111353705 0.07705034 0.23555948 0.16566193 0.030324904 -0.12810755 -0.14441845
-0.18405655 0.019251512 0.19453095 -0.086357586 -0.12443319 -0.120099835 0.15324111 0.12798166
-0.11051019 0.17244805 0.01657025 -0.17132092 0.11366447 -0.17701815 -0.09602034 -0.08241513
0.050577197 0.27966872 0.038456686 0.018051252 -0.05173395 0.16518949 -0.10313307 0.11153646
-0.005534196 -0.13341938 -0.17272758 -0.0494439 0.114156306 -0.09556713 0.017274033 -0.042172242
0.01451361 0.08225228 0.11039188 0.0074404366 0.022008669 -0.011582351 0.07979576 0.19319095
0.038398672 0.03157291 -0.03767585 0.09359654 -0.11401325 -0.0067414083 -0.24861443 0.055251576
0.064052075 0.09831848 0.13131899 -0.09752289 0.13006811 -0.10522285 0.18834119 0.092243195
-0.1541202 0.14769033 0.06577053 -0.11328587 -0.23230085 -0.10890402 0.01498049 -0.19472358
0.10691686 -0.05265552 0.082136154 0.100205205 0.03385348 -0.16967098 0.08108683 0.033996757
00000000: 4941 bebd 0633 aa3c 7bbd a9bd a56a 6d3d
00000010: 69d1 ff3d 81cb 923d 0910 cf3d b62c 013e
00000020: 1a55 fe3c 4b1e ff3d 1426 01be 581b 8b3e
00000030: e006 27bb a269 6cbd 38af 643d 09d7 b93c
00000040: 0280 ffbd ab8f 263e 9a0f 333e fe3f 1a3e
00000050: bf7a c43d 8ac9 113d d021 423e 0d61 0fbe
00000060: 2eb2 073d ce82 7bbe 7f17 f2bd 756c 593d
00000070: 2b52 ed3d da1e 9cbd 0070 db3d 2a03 273e
00000080: 196d 84bd e22d 193e 6b59 1c3d 0108 133e
00000090: 37df 0d3e 89c0 3b3d a91d 4c3d 8d32 7bbd
000000a0: 1f40 b1bd bdd8 9e3c 1485 463e 9ba7 653e
000000b0: 0f40 e53d c006 1c3e 397d 09bd 447c 22bd
000000c0: 0cb4 443e b52a 45bd a0ab 7b3d f993 e7bc
000000d0: a574 11be d69c 883e f146 17be 8f5e 18be
000000e0: eb14 08be 8245 183c f8df 99be 68b6 3bbe
000000f0: e925 dc3d 688e 70be 7e32 e63d ce48 ad3d
00000100: 0bc3 0a3e 8be1 773d 7f08 16be 2ff7 13be
00000110: c624 fcbd 9f87 3cbe 9bcc 223e 6b3f 323e
00000120: 7ada 33be 7a61 75be 8643 8dbc 606d d3bd
00000130: 9558 90bd 6e6a 9d3d cb81 48bc 4ab4 9e3d
00000140: 08c8 ad3b cd87 753e 53a0 62bd cbfd 6ebe
00000150: 815b c6bd 2a5b 68be 5afe 20be 7e97 23bd
00000160: a136 f53d 6734 5abe f0b2 3dbd fbcc 453e
00000170: 50eb d33b 8c3e 24be 381d 33be 1372 f03d
00000180: 9ee5 40be 5cba eb3d 8f4f 8d3d 7d5f fe3d
00000190: 1d2f 223e 5bb2 febd 0686 eb3b 7a63 0bbe
000001a0: b277 853d 398a b73d f77e 9f3c a6db 8f3d
000001b0: 7a22 b13d f595 ddbd 896a 4cbc e058 3a3c
000001c0: df13 dd3c 9e96 b8bc a5ce 883d 9fef 43bc
000001d0: 5f8b db3d 8eaa 1abe 8a1b 443e 74fa c73d
000001e0: 5eba 81be 2298 183d 0590 8a3d 8dd3 593c
000001f0: 7c7d 88be 5580 aa3d 6dd0 2d3e 95a6 88bb
00000200: a633 dcbc a15f c73d 6ab7 1ebe 3ce8 49be
00000210: 174f 113e 0b81 b73d add9 53bd 48d2 5ebd
00000220: d421 95bd 907b fc3d 7c24 bfbc 4846 9f3d
00000230: adfe 31bd 1896 e9bc e589 3ebc 173c 383e
00000240: df9c a03d 4dee e53d 5f0c c5bc 0753 c03c
00000250: e82c 583e a8d0 9a3d a545 483e 5755 f93d
00000260: 062c 323e dc19 3d3d 5edd 8e3c df76 efbc
00000270: 6965 02be b8ab 54be 0845 4b3e 76e3 81bc
00000280: c16d 3e3e 1e28 dcbd 8806 00be a935 d6bd
00000290: 8b31 0e3e 0408 a0bc 8fcd e73d e57b dbbd
000002a0: 6121 f13d 6d01 1d3e 2c9b 1fbe 55b8 dabd
000002b0: 329a 06bd 6040 ba3d 7309 c9bd be3f 5f3d
000002c0: 7693 45be 2171 36bc 92cc 9d3d 8136 713e
000002d0: 48a3 293e ef6b f83c a02e 03be 6ee2 13be
000002e0: 5279 3cbe 59b5 9d3c 1f33 473e 3fdc b0bd
000002f0: d4d6 febd e7f6 f5bd 3deb 1c3e a00d 033e
00000300: 2b53 e2bd 3996 303e 55be 873c c06e 2fbe
00000310: ebc8 e83d 3f44 35be 50a6 c4bd 44c9 a8bd
00000320: 092a 4f3d bd30 8f3e c284 1d3d 38e0 933c
00000330: fae6 53bd 6f27 293e 6e37 d3bd 3a6d e43d
00000340: 3358 b5bb 179f 08be 80df 30be b085 4abd
00000350: c8ca e93d b3b8 c3bd 4682 8d3c cdbc 2cbd
00000360: 7eca 6d3c e273 a83d 2315 e23d e8ce f33b
00000370: 864b b43c e7c3 3dbc f66b a33d d9d3 453e
00000380: ed47 1d3d 9852 013d fe51 1abd 8baf bf3d
00000390: c77f e9bd 08e7 dcbb c894 7ebe 7a4f 623d
000003a0: bc2d 833d 335b c93d 7c78 063e 15ba c7bd
000003b0: 9330 053e 147f d7bd 83dc 403e 00ea bc3d
000003c0: b0d1 1dbe 223c 173e b3b2 863d 6c02 e8bd
000003d0: 46e0 6dbe 1209 dfbd bb70 753c 9e65 47be
000003e0: 3af7 da3d 51ad 57bd 0037 a83d 6338 cd3d
000003f0: f2a9 0a3d 3bbe 2dbe da10 a63d 2f40 0b3d

bias f4 [128]
-0.051660877 -0.08717048 -0.010960506 0.11562293 0.071457945 -0.10745098 -0.031059226 -0.0066064447
-0.06004061 0.034290224 0.07163499 0.100108705 0.13310531 0.15081413 -0.13722381 0.11831067
-0.012747035 -0.010098727 -0.035116084 0.06901066 0.09053302 -0.13439462 0.06890743 0.08967527
0.065502234 0.1115387 -0.0500172 0.053639397 -0.08785622 0.11362787 -0.040219173 0.15081967
0.14394782 -0.08511415 -0.13348785 -0.03243332 -0.1369135 -0.16484846 0.08187262 0.054749258
0.0074437438 0.10317092 0.15059471 -0.083851695 -0.0760634 0.10630483 0.013911824 -0.044412654
-0.11779377 0.110258766 -0.029150259 -0.14786598 0.07782261 -0.09760435 0.16261068 0.11863425
-0.051528655 0.09111138 0.1319919 -0.0700053 -0.032098174 0.1005834 -0.017479792 0.034026407
0.027718227 -0.09178781 0.11352907 -0.011601255 -0.08656237 -0.09677356 0.054731876 -0.04514384
0.021425888 -0.03445263 -0.16685264 0.06385731 -0.043441582 -0.15537208 0.022525415 0.08722603
-0.10468883 0.11884774 -0.06358945 0.018148625 0.05961799 0.007147624 -0.0667269 -0.14479215
-0.046068974 -0.09378461 -0.10041398 0.071539424 0.1117626 -0.02698246 0.0855905 0.11098814
-0.023861792 0.017484814 -0.064162314 0.0113648325 0.02230382 0.12957022 0.065839976 -0.15733662
-0.08616962 -0.01969219 -0.039114643 -0.105138525 0.13439824 -0.011636798 0.20369151 0.118037075
0.15604143 -0.11817659 -0.08953814 0.15639307 0.14523894 -0.098207526 -0.13821645 -0.021788709
0.12670122 -0.11810074 0.06995021 0.051319025 0.03059117 0.1217059 -0.084034346 0.030197477
00000000: 5b9a 53bd 7086 b2bd b293 33bc b7cb ec3d
00000010: 8b58 923d 420f dcbd eb6f febc e07a d8bb
00000020: 25ed 75bd e873 0c3d 5eb5 923d cb05 cd3d
00000030: c24c 083e 056f 1a3e 6684 0cbe dd4c f23d
00000040: f1d8 50bc 2275 25bc e2d5 0fbd 7655 8d3d
00000050: 6069 b93d be9e 09be 571f 8d3d aba7 b73d
00000060: 0926 863d 676e e43d d6de 4cbd fcb4 5b3d
00000070: f6ed b3bd bbb5 e83d dcbc 24bd 7970 1a3e
00000080: 0f67 133e 5450 aebd 0ab1 08be cdd8 04bd
00000090: 0d33 0cbe 09ce 28be d5ac a73d c240 603d
000000a0: a6ea f33b 464b d33d 8035 1a3e 70ba abbd
000000b0: 21c7 9bbd 59b6 d93d 6bee 633c 0bea 35bd
000000c0: dc3d f1bd 59cf e13d 86cc eebc 2e6a 17be
000000d0: 7661 9f3d cae4 c7bd 6a83 263e 83f6 f23d
000000e0: b60f 53bd 9a98 ba3d e228 073e f05e 8fbd
000000f0: 6079 03bd abfe cd3d c831 8fbc 465f 0b3d
00000100: 5611 e33c 3ffb bbbd ee81 e83d 3113 3ebc
00000110: 9d47 b1bd 3731 c6bd 882e 603d bfe8 38bd
00000120: 5885 af3c 331e 0dbd 6bdb 2abe 9fc7 823d
00000130: cdef 31bd dc19 1fbe 3887 b83c 90a3 b23d
00000140: 1967 d6bd 7266 f33d 303b 82bd 6dac 943c
00000150: fe31 743d 9e36 ea3b 1da8 88bd 6544 14be
00000160: d2b2 3cbd 2512 c0bd d8a5 cdbd 4383 923d
00000170: cae3 e43d 520a ddbc 124a af3d c04d e33d
00000180: ce79 c3bc 503c 8f3c 8867 83bd 9033 3a3c
00000190: 80b6 b63c 0eae 043e 1cd7 863d da1c 21be
000001a0: b379 b0bd 8451 a1bc ad36 20bd de52 d7bd
000001b0: b19f 093e 45a8 3ebc 8294 503e 6cbd f13d
000001c0: 53c9 1f3e 9106 f2bd c65f b7bd 8125 203e
000001d0: 84b9 143e 0721 c9bd 9d88 0dbe 3c7e b2bc
000001e0: f7bd 013e cdde f1bd 0e42 8f3d e633 523d
000001f0: 559a fa3c f140 f93d 331a acbd b360 f73c

weight f4 [128, 127]
0.042510893 0.021130167 -0.052112505 0.04336007 0.035112213 -0.112869255 0.072312735 -0.0038693945
-0.01923298 0.046372302 -0.06419315 -0.015041047 0.08529279 -0.029503655 -0.02005456 0.0144436695
0.09184767 -0.029070666 -0.12702374 0.028175142 -0.026490705 -0.038194116 -0.036392473 0.013584669
-0.081620045 0.012168685 0.06380401 0.01803287 -0.015880816 0.074341096 -0.07830826 0.023687147
0.08368299 0.0280918 -0.036777325 -0.08347153 -0.08270908 0.015787708 -0.13308926 -0.049508583
-0.048343632 -0.074401654 0.020225255 -0.033333126 -0.13256525 0.076748244 -0.02497726 -0.063657
-0.026992591 -0.03168871 -0.12317898 0.026027068 0.035508618 0.048712373 0.048773404 0.0614453
-0.121977545 -0.03594146 -0.080462344 -0.022567116 -0.058551963 -0.025381383 0.01862906 -0.06289077
0.075875394 0.049400765 0.016836822 -0.094309404 0.08842201 0.024876762 -0.050171368 -0.0026981323
-0.030600822 -0.108333796 -0.046196435 0.065052584 0.046552636 0.07598794 0.034715716 0.062888466
0.09483639 -0.038765095 0.01604781 -0.053536776 -0.117598906 -0.013803854 -0.0982322 -0.18918458
-0.021646531 0.011837227 -0.040895663 0.021830281 0.04873889 -0.038089994 -0.009291547 0.075107895
-0.06107455 0.030978015 0.022358716 -0.07500116 0.019450374 -0.024281865 0.082099594 0.023045331
0.03617319 -0.055400327 -0.063556775 -0.039203577 -0.004191985 0.024519846 -0.0134022795 -0.09019094
0.07379809 0.052832022 0.04135199 0.04656901 0.03168163 0.012222977 0.0067694336 0.045158505
0.07970198 -0.05394963 0.02029532 0.047191944 0.066190265 0.014234319 0.05185456 -0.050156005
-0.03694172 -0.11364734 0.10178304 -0.041493732 -0.10396105 -0.09453006 0.02525596 0.017227529
-0.04461718 -0.0362953 0.0291254 0.062978275 0.008537508 -0.01660358 -0.081155255 0.031598534
-0.08466848 -0.101789445 0.0005391902 0.041120704 0.040535685 0.040336866 -0.03457689 0.036371596
0.05454701 -0.10972382 -0.13636374 -0.026898816 0.061566252 0.036407884 -0.0035224373 -0.052830145
-0.03077707 -0.03391373 -0.0054587135 -0.051532898 -0.06862164 -0.061313238 -0.13295752 0.036501903
0.08336483 -0.024235923 -0.019082196 -0.0882505 -0.10773453 0.017488979 0.026746344 -0.052355472
-0.03175863 -0.056816813 0.054714527 -0.0055673355 -0.08245769 0.059152946 0.083582126 -0.03336016
0.011747898 -0.051934816 0.04959376 0.081940025 -0.044274747 0.020106785 0.074847005 0.02935946
0.06116625 -0.020701677 -0.090609275 -0.002958597 0.022851905 -0.03811422 0.13052702 -0.14038415
0.08826997 0.041224126 -0.03281366 -0.18678066 -0.091539755 -0.049964547 0.023021298 0.03560854
0.017701874 -0.018315122 -0.039505832 -0.009472207 0.051571615 -0.045949824 -0.07684229 -0.022741614
-0.043496955 -0.08209331 -0.038368396 0.031125607 -0.053301275 0.045186445 0.00850535 0.08626927
0.06534812 0.0518541 -0.039139155 0.011047819 0.042043824 -0.087978125 -0.056635763 -0.0051960875
-0.00127304 0.07863398 0.06969304 0.03646495 0.07624582 -0.035400897 0.011390457 -0.0047624554
0.020339726 0.043776993 0.021709936 -0.099000745 -0.07279457 0.07024952 0.060245614 0.006436693
-0.0762087 -0.048569936 0.041742694 -0.020087823 -0.1677694 -0.019178828 -0.00015731361 0.0019397266
00000000: e71f 2e3d 2c19 ad3c ec73 55bd 549a 313d
00000010: d3d1 0f3d ff27 e7bd b318 943d ab95 7dbb
00000020: 7c8e 9dbc e2f0 3d3d b377 83bd b96e 76bc
00000030: fcad ae3d a6b1 f1bc 7649 a4bc 24a5 6c3c
00000040: a21a bc3d 9b25 eebc 8312 02be 8ecf e63c
00000050: 0903 d9bc 6f71 1cbd 4610 15bd 3b92 5e3c
00000060: 6928 a7bd 2a5f 473c adab 823d abb9 933c
00000070: 7c18 82bc 2540 983d 1560 a0bd 8c0b c23c
00000080: fd61 ab3d c620 e63c d2a3 16bd 1ff3 aabd
00000090: 6163 a9bd 3955 813c 8d48 08be 83c9 4abd
000000a0: f903 46bd e55f 98bd 6faf a53c 5188 08bd
000000b0: 2fbf 07be 2f2e 9d3d 1c9d ccbc 9a5e 82bd
000000c0: 911f ddbc 05cc 01bd 4345 fcbd b836 d53c
000000d0: 7c71 113d a086 473d 9fc6 473d 11ae 7b3d
000000e0: 5dcf f9bd 5a37 13bd 71c9 a4bd acde b8bc
000000f0: 2fd4 6fbd 9eec cfbc f89b 983c e0cc 80bd
00000100: 8f64 9b3d 7558 4a3d 60ed 893c 4a25 c1bd
00000110: 9916 b53d 5aca cb3c 7e80 4dbd 26d3 30bb
00000120: 93ae fabc 1cde ddbd 7938 3dbd 4a3a 853d
00000130: faad 3e3d 919f 9b3d 1132 0e3d abcb 803d
00000140: 9539 c23d 26c8 1ebd b276 833c 6149 5bbd
00000150: b2d7 f0bd 8f29 62bc f72d c9bd 9ab9 41be
00000160: 1154 b1bc eef0 413c 3682 27bd 6bd5 b23c
00000170: 6ea2 473d 4104 1cbd 933b 18bc 2bd2 993d
00000180: 4f29 7abd 9bc5 fd3c a029 b73c 359a 99bd
00000190: 6456 9f3c c3ea c6bc d523 a83d 90c9 bc3c
000001a0: 572a 143d 74eb 62bd 0e2a 82bd ee93 20bd
000001b0: eb5c 89bb d8dd c83c 3c95 5bbc 07b6 b8bd
000001c0: 7423 973d 6466 583d b460 293d 25bf 3e3d
000001d0: 99c4 013d e242 483c 20d2 dd3b 20f8 383d
000001e0: cb3a a33d 4afa 5cbd 5f42 a63c 574c 413d
000001f0: c38e 873d 1037 693c 7265 543d 6270 4dbd
00000200: 3350 17bd f0bf e8bd a073 d03d 55f5 29bd
00000210: 88e9 d4bd fa98 c1bd 96e5 ce3c bf20 8d3c
00000220: 81c0 36bd 61aa 14bd 6498 ee3c c1fa 803d
00000230: e7e0 0b3c 3b04 88bc ba34 a6bd 776d 013d
00000240: ab66 adbd fc76 d0bd 7158 0d3a 2f6e 283d
00000250: bf08 263d 4538 253d 7fa0 0dbd 62fa 143d
00000260: b06c 5f3d e2b6 e0bd f0a2 0bbe e85a dcbc
00000270: e52c 7c3d 6f20 153d b1d8 66bb 6c64 58bd
00000280: 3220 fcbc 20e9 0abd 02df b2bb 2914 53bd
00000290: 8189 8cbd 9723 7bbd 0426 08be 0583 153d
000002a0: 2ebb aa3d 6a8a c6bc 4452 9cbc aebc b4bd
000002b0: eca3 dcbd 0c45 8f3c 261b db3c b172 56bd
000002c0: 5615 02bd bfb8 68bd 571c 603d 326e b6bb
000002d0: 94df a8bd 5c4a 723d 1b2d ab3d aaa4 08bd
000002e0: 417a 403c 9ab9 54bd d422 4b3d 2cd0 a73d
000002f0: 7059 35bd fcb6 a43c 6349 993d 4083 f03c
00000300: 7689 7a3d 9096 a9bc 5b91 b9bd 05e5 41bb
00000310: eb33 bb3c a81d 1cbd e0a8 053e ddc0 0fbe
00000320: e3c6 b43d a1da 283d 9e67 06bd 6e43 3fbe
00000330: 3279 bbbd a0a7 4cbd 2997 bc3c 43da 113d
00000340: 8503 913c 9809 96bc ded0 21bd 5131 1bbc
00000350: c23c 533d e235 3cbd 7e5f 9dbd 9f4c babc
00000360: dd29 32bd 8a20 a8bd 2e28 1dbd 21fb fe3c
00000370: 7052 5abd 6c15 393d 065a 0b3c f1ad b03d
00000380: 3cd5 853d f764 543d 6150 20bd e901 353c
00000390: 2536 2c3d e02d b4bd e7fa 67bd f143 aabb
000003a0: 22dc a6ba da0a a13d 39bb 8e3d 455c 153d
000003b0: c526 9c3d 8800 11bd 0a9f 3a3c 5f0e 9cbb
000003c0: 7f9f a63c 814f 333d 09d9 b13c e7c0 cabd
000003d0: 5215 95bd fbde 8f3d 1bc4 763d e5ea d23b
000003e0: 4f13 9cbd 45f1 46bd 63fa 2a3d 388f a4bc
000003f0: becb 2bbe eb1c 9dbc 8df4 24b9 6d3e fe3a
