nn/checkpoints/main_objs_different_2023_04_23-11_06_41/4/model_30.pt (torch, 518706 bytes, 98 tensors)

weight f4 [8, 5, 3]
00000000: bf7a 80be 613f 493e 943a d43c 27ad f8bd
00000010: d01e 7c3e 911f 913e 1af3 d3bd 74fb be3d
00000020: 29c2 883e 7e53 02bd f92a 903d 0192 bf3d
00000030: e9d5 86bd 07f2 28bd d812 c53e a98d e93d
00000040: f31b 743d 52ff 80be 6221 ebba eaeb 473e
00000050: 1ecd 683e 1ef7 e03d 1786 4f3e 9d41 39be
00000060: 8ced 213e 7e42 443e 040f efbd 22f4 04be
00000070: f3a9 0b3e 2442 a5bc 8491 9d3e 4393 12be
00000080: 00f8 253e 3103 cbbd 52a4 b6bd 361a d5bd
00000090: 325d 87bd dfec 043e 6b8b b5bd ffde 863e
000000a0: 5639 c53c d610 a6be c138 a0bd bf75 1e3e
000000b0: 32cc a5bc 3598 873e b75a 623e 50f5 32be
000000c0: b868 103e 6a58 c0bd 7735 433d 8ae1 2f3e
000000d0: b01f 2abe dacd 9cbd 8473 10bd 4436 40bd
000000e0: 3fa2 b63c e8bd 0a3f bdef 48be 4c71 a73d
000000f0: 5907 91be 8947 c5be b8e8 a03e 95f9 b5bc
00000100: 2a98 56be 72f3 8b3e f973 a03c b769 d43d
00000110: ba6b b33d 1a91 abbd de77 933d 8149 4dbd
00000120: e9e1 4a3e 8f15 b33d aaa8 123e 8d5b c03d
00000130: d1ef 963d 2da1 c9be 1a4c df3d cf85 e63d
00000140: 8429 97be 1db9 273e 9b29 c63d c674 78be
00000150: cdb9 0dbd d972 d33d 99e0 a7be 0060 163e
00000160: 0ced 783e 2260 b9be e8a8 9cbd be66 083d
00000170: ee93 b23e 0842 f53d 9450 8b3d 94a2 c53b
00000180: 34e1 2bbe 0822 88bd a73a fb3d f329 83be
00000190: c018 83be 6ac3 463e 9aa9 04be a692 0e3e
000001a0: b166 f23e 3a49 00be 411b 8ebe fc3a 703e
000001b0: 9a7a 67be 0f30 19be b386 013e f6d0 5ebd
000001c0: 22bc 41bd cdf1 333e 5007 bcbd 163f 25bd
000001d0: a516 7a3c 3020 1dbe ffd1 88be e4f3 7a3e
-0.25093648 0.19653083 0.025906838 -0.12142401 0.24621129 0.28344396 -0.10349102 0.093253046
0.26710632 -0.031817906 0.070394464 0.0935402 -0.06583769 -0.04124644 0.3849094 0.11403973
0.059596967 -0.25194794 -0.0017939026 0.19523588 0.22734496 0.10984634 0.20265995 -0.18091436
0.15813273 0.1916599 -0.11672786 -0.12983754 0.13639049 -0.02017314 0.30775082 -0.14313988
0.16207886 -0.09912718 -0.0891806 -0.1040539 -0.066095725 0.12980984 -0.088644825 0.26342008
0.024075191 -0.3243472 -0.07823325 0.15474604 -0.02023897 0.26483312 0.22104917 -0.17476392
0.14102447 -0.09391864 0.04765841 0.1717588 -0.1661365 -0.076564506 -0.035266414 -0.04692675
0.022294162 0.54196024 -0.19622703 0.081759065 -0.28325918 -0.3853114 0.3142755 -0.022213737
-0.20956483 0.27334172 0.01958655 0.10371726 0.087607816 -0.08377285 0.07200597 -0.050118927
0.1981274 0.08744346 0.14322153 0.09392462 0.0736996 -0.3938078 0.10903187 0.11255991
-0.2952386 0.16379209 0.09675904 -0.24263296 -0.03460102 0.1032464 -0.32788542 0.14685059
0.24309176 -0.36206156 -0.07649404 0.033301108 0.34878486 0.11975485 0.068024784 0.0060313437
-0.16785127 -0.06647116 0.122670464 -0.25617942 -0.2560482 0.19410482 -0.12955323 0.1392313
0.47343972 -0.12527934 -0.27755168 0.23460001 -0.22605363 -0.14959739 0.1264904 -0.0543985
-0.047298558 0.17572708 -0.09181082 -0.040343367 0.015264188 -0.1534431 -0.26722714 0.245071

bias f4 [8]
00000000: ebe6 313d 8190 dc3d 3ff9 bebd 9dfa 2d3c
00000010: db26 e8bc 5968 353e ccfa d73c 87ba 81be
0.04343311 0.107697494 -0.09324884 0.010618833 -0.02833884 0.17715587 0.026364706 -0.25337622

weight f4 [8]
00000000: 8ccc 743f 81d9 503f cf63 4b3f 2261 853f
00000010: 1862 4f3f 2d2a 9a3f 2589 583f c306 bb3f
0.95624614 0.81581885 0.7944917 1.0420268 0.81009054 1.2044121 0.84584266 1.4611439

bias f4 [8]
00000000: 6b08 8e3d 1a37 173e 9d38 d13d 8202 1a3e
00000010: b88d 023e b716 513e 13a4 813e 008d 57bd
0.06935199 0.14767113 0.10215876 0.15040019 0.12749374 0.20418821 0.2532049 -0.052624702

running_mean f4 [8]
00000000: 0577 123f e8f8 ec3e ac7c 99bd 68c7 b53e
00000010: ad8a d93d 3c47 abbd 46a3 8f3e 624e 12bf
0.5721286 0.4628365 -0.074944824 0.35503697 0.106221534 -0.08363196 0.28054255 -0.5715085

running_var f4 [8]
00000000: 4c2a 1f40 cb7c 963f ca32 613e fbb6 b03f
00000010: b2c7 0d3f ceb7 e33f c304 a53f e4c9 a33f
2.4869566 1.1756834 0.2199203 1.3805841 0.55382836 1.7790468 1.2892078 1.2795987

weight f4 [8, 8, 3]
00000000: 7b42 86bc 520d 92bd 749b 643e 8291 e1bd
00000010: ada9 b23d 2ac5 843c 13fb e93d 7b9a ec3d
00000020: f229 39be 2a9b 853d 5c17 5ebd 0589 823d
00000030: dfd5 bbbd 2256 07bc db74 bc3e 0149 0d3d
00000040: 0230 c83c 1fde 8dbe 5469 d5bd f797 44be
00000050: 3c54 a73e 27b2 f53d 5980 8dbe d326 5e3d
00000060: bd80 d83d 82de 423d da5c 8fbe 6bc1 803e
00000070: bd10 443d 9550 a13b 6c1b 883d 7ff1 0e3e
00000080: 18a1 9cbc 915d a93e 06d9 513e f615 22be
00000090: 4f9b 663d a199 d2bd e3e3 1abd 8c0b 823e
000000a0: 6ff7 a1be a975 e4ba 144f d43d 87ff 1dbd
000000b0: 0d3e 7fbd 4ca5 49be a010 e9bd 279f 463e
000000c0: f4f0 7a3d dcc2 6a3d 3150 0cbd 09b2 383d
000000d0: 627a 683d 811b fbbd fa80 a93d 52ce 3ebe
000000e0: ea83 4cbe 6f20 45be 7004 413c 3e16 34be
000000f0: 4b63 a93d 38da f4bd 14c8 81be 311d da3c
00000100: 2da0 df3e e715 0dbd 1d9d 023e 3f3b cebd
00000110: 7af7 babd 6cf2 8b3d 4770 05bf b494 f53c
00000120: 2a86 0d3e dd2a 82be ba14 62be 7085 383d
00000130: b527 0c3e 61da ad3d 3c1f 08be bd9a 273e
00000140: 916f 71bd e900 653e d247 02bd 80d6 513e
00000150: 9435 e1bd 2ae9 91bd e0f9 e0bd 2468 c2bd
00000160: 8eb9 9dbd 8642 03be 7e88 513e 61b0 debd
00000170: b207 7abe 4481 b83e 695b ef3e b8e5 8cbd
00000180: 79f6 d93d 7dac 98bc c241 90bd 5011 e03d
00000190: f9f1 e7bc d7fe 2abe ac29 0cbd 1b9f b73d
000001a0: 3bd1 3fbd f40f e83d 31b0 fd3d 5daf 78be
000001b0: 07ac 9abd aa68 003d 0716 70be 4fe4 bb3d
000001c0: e0e3 b23d a5cf 973e 474e b93d 1c96 12be
000001d0: f391 78be 6e73 f1be 97cf 2cbd 80d3 d83d
000001e0: 3da6 58be 4421 ccbc 25a8 c1bd 6628 1fbd
000001f0: 9ea3 3e3e b588 9a3c 1346 3bbe 4ec1 0abe
00000200: 5896 023e 5a66 a43d 04e7 3dbe 0815 68be
00000210: 5414 473d 854f f83b e1b3 393e 9595 03be
00000220: 3cb8 4e3e b7e0 c8be a8c1 103e 7dbc 16be
00000230: 03ae 643e 8238 0cbe b999 08be 282b 3e3e
00000240: ae4a 66be b5b3 c23c 2dc5 1fbe 1408 7dbe
00000250: 760e c53d 86a9 5b3e 2b93 8cbe 0d1b 33bd
00000260: 145a 9dba 86e6 d23d 5afb 1dbe c699 47be
00000270: 6845 8e3d 9538 abbd d282 1b3c c25f f83d
00000280: 3e36 87be d55d 3abd 2a73 ecbd 4c89 863d
00000290: a5c7 143e 20ad 403e 8660 0d3e 819d ae3e
000002a0: 56bc f7bd 3672 903d a33f 243e 92db 41be
000002b0: 5ed9 e0bd 224b 133e 0755 38be 62b9 30bd
000002c0: 040d f93c 54bf 23be c982 43be 0343 e53d
000002d0: 371f 83bd c094 213c ce74 8d3d 2888 94be
000002e0: f254 0cbd 1a33 613d 4603 ed3d d903 4abd
000002f0: b0be 623e 00e4 0f3f a32c cebc 781c a6bc
-0.016389122 -0.07131447 0.22324926 -0.110140815 0.08723769 0.016207296 0.11424842 0.11552902
-0.18082407 0.06523736 -0.054221496 0.06373791 -0.09171652 -0.008260282 0.36807904 0.03449345
0.024436954 -0.27708527 -0.1042048 -0.19198595 0.32681453 0.119968705 -0.27636984 0.054236244
0.1057143 0.04757548 -0.28000528 0.25147566 0.047867525 0.004922936 0.06645855 0.13959311
-0.019119784 0.33079198 0.20492944 -0.1582869 0.056300458 -0.10283209 -0.037814986 0.25399435
-0.3163409 -0.0017430085 0.103666455 -0.038573768 -0.062315036 -0.19691962 -0.11380124 0.1939665
0.061264947 0.05731474 -0.034256164 0.045091663 0.05675734 -0.12261105 0.082765535 -0.18633392
-0.19972196 -0.19250654 0.011780843 -0.1758661 0.08270892 -0.119556844 -0.2534796 0.026625248
0.43676892 -0.034444716 0.12755246 -0.10069894 -0.09129234 0.06833348 -0.52124447 0.029978134
0.13820711 -0.25423327 -0.22078219 0.04504913 0.13687022 0.08488918 -0.13293165 0.16367622
-0.05894429 0.22363628 -0.031806774 0.20491982 -0.10996547 -0.07124551 -0.1098516 -0.094925195
-0.077014074 -0.12818345 0.20462224 -0.10873485 -0.24416998 0.36036122 0.46749428 -0.06879753
0.10642714 -0.018636936 -0.07043792 0.10940802 -0.028313624 -0.16698776 -0.03421943 0.08965894
-0.046830397 0.11331168 0.123871215 -0.24285646 -0.07552343 0.031349815 -0.23445903 0.09174406
0.0873487 0.29650608 0.09048133 -0.14315075 -0.24274425 -0.47158378 -0.04219016 0.105872154
-0.21157165 -0.024918206 -0.09455899 -0.038856886 0.18617103 0.018864015 -0.1828845 -0.13550302
0.12752664 0.080273345 -0.18545157 -0.22664273 0.04860337 0.007577839 0.18135025 -0.1285003
0.20187467 -0.39233944 0.14136374 -0.1472034 0.22332005 -0.13693431 -0.1333989 0.1857115
-0.22489426 0.023767332 -0.1560256 -0.24710113 0.09621899 0.21451387 -0.2745603 -0.04372697
-0.0012004995 0.10297875 -0.15427914 -0.19492254 0.06946832 -0.083604015 0.009491639 0.12127639
-0.2640857 -0.04549964 -0.11545403 0.06569156 0.14529283 0.18816042 0.13806352 0.3410454
-0.12096469 0.07053034 0.160399 -0.18931416 -0.109789595 0.1438413 -0.18001185 -0.043145545
0.030401714 -0.15990955 -0.1909286 0.11194422 -0.06402438 0.009862125 0.06907044 -0.2901013
-0.034260698 0.054980375 0.1157289 -0.049320076 0.22143054 0.56207275 -0.025167769 -0.020277247

bias f4 [8]
00000000: 8012 3abe 6a79 a9bd 035c 00be 8a13 0dbe
00000010: 232e 103d 45ff 233e a915 c2bd 2bf3 b1bd
-0.1817112 -0.08275111 -0.125351 -0.13776985 0.03520025 0.16015346 -0.094767876 -0.08688959

weight f4 [8]
00000000: 21f4 803f e73c 473f 6139 9d3f 15f2 763f
00000010: 62b1 803f 941a 5d3f 95c7 843f 9522 8d3f
1.0074502 0.77827305 1.2283136 0.9646314 1.0054133 0.8636868 1.0373408 1.1026179

bias f4 [8]
00000000: 64e8 563e f347 f73c 821f 3c3e 483f 3f3d
00000010: 5428 7a3d bed3 973e 8bee 353e 8a90 da3c
0.20987087 0.030185675 0.18371394 0.04669121 0.061073616 0.29653734 0.17766778 0.02668025

running_mean f4 [8]
00000000: deb4 2cbe e2e1 253d 4325 b3be 0c04 97bc
00000010: c217 9fbd 6a18 cbbd c4a5 21be 57ae 80bd
-0.1686587 0.04049862 -0.34989366 -0.018434547 -0.07768203 -0.09916766 -0.15785891 -0.06283253

running_var f4 [8]
00000000: c886 0c3f ea6f 983e d44c d63e 1263 b93e
00000010: 9445 663e 4768 853e 9034 ad3e 5125 903e
0.5489316 0.29772884 0.4185549 0.36208397 0.2248748 0.2605612 0.33829165 0.2815347

weight f4 [8, 8, 3]
00000000: 23ec 20be a97e 91be 8ca0 3cbe a0dd 653e
00000010: 8564 cbbc b450 183e 586d a9be 0966 9abd
00000020: 32fb 813d 6b0a 3f3e d202 d0bd e0c3 5ebe
00000030: ee47 1b3e 0d98 9d3b 4bf5 afbd 8d70 ee3d
00000040: 7160 b43c 92a0 0ebe 416b 083c 14c0 58bd
00000050: 1faf 243b c45d c0be ec9f eebc a26e 3ebe
00000060: 0a52 4e3e c8a7 eebd 8783 a63c b78f 6dbe
00000070: f0fc 11be 4118 153c 663a c1bc 6363 6f3d
00000080: 4b41 a6bb 2672 6b3d 8e97 bf3d 3afa 973d
00000090: 4ac2 87be d6a8 b9bd 2cad 823d 6d59 03bd
000000a0: 3986 e5bd fada 0abc 0e30 763e 629a 0f3e
000000b0: bfa0 843e 80d2 e43e 8169 133d 49a8 983d
000000c0: b088 95bd 8304 103e 81c1 8abe a57a 1f3e
000000d0: bb98 b03d 3cde ccbc b802 b13e f2ec cf3d
000000e0: d0e7 7ebe db54 0cbe 9e52 d9bc 361c 193d
000000f0: ba8f 39bb bb2b 383e bba3 92bd a5c4 31bc
00000100: 9580 a8bd 0396 f1bd fb6d 33be 6c4a a73e
00000110: cdc8 c23d 63f0 0ebe 66f8 83be 7eb8 91be
00000120: 4bbe 2d3e e79f 2fbe 3d5d 4dbd c11e 7b3d
00000130: 8268 cfbb d9cd ebbd 4379 72be 00ae 853e
00000140: ec62 973e de27 1d3e c6c5 b33d 3a6d 66be
00000150: 870d 1cbe a595 bc3c e4ab 3e3e ac79 de3d
00000160: 3a43 d3bd 1686 8d3d e069 563e 7886 65be
00000170: 7c61 8bbe bb56 023e 2532 8d3c e072 273d
00000180: 215c 33bd 4104 103d 32f8 073e 8bf8 86bc
00000190: d198 13bd a07e 20be 867d 9c3e 5497 7bbc
000001a0: 4cbe 133e 791f 41be b8be 6cbe e838 1f3c
000001b0: b7ca 62be 31f0 243e eca4 24be 044f 2dbd
000001c0: bdf8 eabb e82a d03e c3b9 5dbe 6b90 14be
000001d0: b043 ef3d 5abc adbd 6541 473e f13e 0c3e
000001e0: 1ac6 013e 5e1a 31bd e5d6 18be 25bc b3bd
000001f0: 3708 8e3b 6d1d 733d a482 b6be edf8 983e
00000200: 78d4 d83d 230f 013d fffd 4dbd 211b b1be
00000210: fb00 dd3d b4e0 b13d ce05 813e d31a 9cbe
00000220: 3983 df3d 5699 66be 3af4 c73b b0ed 71be
00000230: e2b6 0dbe 4055 7c3b 9f33 b33d c054 abbe
00000240: 8881 d63e 6651 ce3d 2cc2 cbbd fed7 d8bd
00000250: 5b4f 323e ae60 a23c 9326 243d f0fa 8ebe
00000260: 518c fe3d acd6 973d 38ac 2cbe c4c0 063e
00000270: 48f5 eb3c a0b6 0a3e 08b0 533e afae 86bd
00000280: 4dd2 5abe 206f 5cbe 72be 5abe e7ba 22be
00000290: 8393 f93d 9ee5 703d 5ab9 123e 8926 4b3e
000002a0: 15a2 f93c 4851 ae3e 1de6 f2bc 3058 8e3e
000002b0: 3d12 a33d 8a07 e23d 2445 f9bd 0fcc 8cbd
000002c0: dc33 45be 8a89 273e 44ba 05be 5981 aebe
000002d0: 51ba e3bd 8f4b a13d ff2b cabd 5ebe 373d
000002e0: 454f 053e b6d0 a53e 9ed5 ac3d 2543 d5bd
000002f0: a0c4 0d3d a15f a9bd e3a8 0b3e 5167 1dbd
-0.15715079 -0.28416947 -0.18420619 0.22447824 -0.024828205 0.14874536 -0.33091235 -0.07538993
0.0634674 0.18656318 -0.10156788 -0.21754408 0.15164158 0.0048093856 -0.08591708 0.11642561
0.022018643 -0.1392844 0.008326353 -0.052917555 0.0025128794 -0.37571537 -0.029128991 -0.1859689
0.20148483 -0.116530955 0.020326389 -0.23199354 -0.14256644 0.009100021 -0.023587417 0.058444392
-0.0050737015 0.057481907 0.09355079 0.07420774 -0.26515418 -0.09065406 0.06380686 -0.032067705
-0.112072416 -0.00847506 0.24041769 0.14023736 0.2590389 0.4469185 0.03598929 0.07453973
-0.07301462 0.14064221 -0.27100757 0.15574129 0.08622881 -0.025008313 0.34572387 0.101526156
-0.24893117 -0.13704245 -0.026528653 0.03738042 -0.0028314427 0.17985432 -0.07160135 -0.010850106
-0.0822765 -0.117961906 -0.17522423 0.32673967 0.09510956 -0.13958888 -0.2577545 -0.2846107
0.16967122 -0.17150842 -0.050137747 0.061308626 -0.006329597 -0.11513872 -0.2367907 0.26109314
0.2956766 0.1534724 0.08777957 -0.22502604 -0.15239535 0.023020575 0.18620259 0.10863051
-0.10315557 0.069103405 0.20938826 -0.22414577 -0.27222812 0.12728398 0.017235825 0.040881038
-0.043789033 0.035160307 0.13278273 -0.016475936 -0.03603441 -0.15673304 0.30564517 -0.015355904
0.14428061 -0.18859662 -0.23119628 0.009718157 -0.22147642 0.16107251 -0.16078538 -0.042311683
-0.007170765 0.40657735 -0.21652894 -0.14508216 0.11682832 -0.08483191 0.1945854 0.13695885
0.12673226 -0.043238036 -0.14925726 -0.0877612 0.0043344754 0.059354234 -0.35646546 0.29877415
0.105874 0.031508576 -0.050291058 -0.3459101 0.10791203 0.08685437 0.2519974 -0.30489215
0.109137006 -0.2251943 0.006102112 -0.23625827 -0.13839296 0.0038502961 0.0875008 -0.33463097
0.418957 0.10074119 -0.09949145 -0.10588072 0.17413084 0.019821491 0.04007585 -0.27925825
0.12429107 0.07413992 -0.16862571 0.13159472 0.028803483 0.13546228 0.2067262 -0.06576287
-0.21369286 -0.21526766 -0.21361712 -0.1589161 0.12186339 0.05881273 0.14328519 0.19838919
0.030472795 0.34046388 -0.029650742 0.27801657 0.07962463 0.11036594 -0.12171391 -0.068748586
-0.19258064 0.1636106 -0.13059336 -0.3408306 -0.111195214 0.0787574 -0.09871673 0.044859283
0.1301852 0.32385796 0.08439182 -0.104131974 0.034611344 -0.08270193 0.13638644 -0.03842861

bias f4 [8]
00000000: 733a 92bc e055 073e 7588 0f3e 287a 663d
00000010: 7dd7 1a3c 3c10 d5bd 4511 8c3e 38d5 a73d
-0.017850136 0.13216352 0.14016898 0.05626884 0.0094507905 -0.10403487 0.27356926 0.08194965

weight f4 [8]
00000000: 9461 8d3f e508 7c3f 33a3 8a3f 4bdc 473f
00000010: 65a9 6f3f 9dc7 933f 7fdc 743f 176c 763f
1.1045403 0.9845107 1.0831054 0.78070515 0.9361785 1.1545292 0.9564895 0.9625868

bias f4 [8]
00000000: 5cb8 843e 15a9 583e 51e1 263e f71a 263e
00000010: cf5c 6b3e 5a6d c93d db01 663e 3bba a43d
0.25921905 0.2115825 0.16296889 0.16221224 0.22984622 0.0983531 0.22461645 0.08043333

running_mean f4 [8]
00000000: 6be8 08bf 433d e83e 0e38 813c 3099 2d3e
00000010: 7fa7 2b3e 8579 fabe 7b90 993e 059d 6e3e
-0.5347964 0.4535924 0.0157738 0.16952968 0.16763113 -0.48920837 0.29993042 0.23302086

running_var f4 [8]
00000000: 5a93 8c3e 6645 833e da4a 943e 9d02 fd3d
00000010: 71d7 3d3e da71 d13e 192e fa3e c1e8 c03e
0.2745617 0.25638884 0.28963357 0.12354014 0.18539216 0.40907174 0.48863295 0.37677577

weight f4 [8, 8, 3]
00000000: 9cd7 29be 0396 b83d 09de c2bd 040b 5b3d
00000010: a940 ccbb 9749 d6bd 59dc 523e f7a7 e83d
00000020: a301 853c 492b 8e3d 3754 92be 465e 69be
00000030: 7b51 eb3a 1d15 c3bd c370 683e 5227 87bd
00000040: 633d 20be 249e 8bbd 146a 86bd d9aa 9dbe
00000050: 7e85 94be 6b47 99be 952c c5bd 0469 a1be
00000060: e0e4 01bd cda1 6ebd b4a1 21be 764b a83e
00000070: 3adf 2cbc 2b18 5c3e 3a97 babd d159 fcbd
00000080: 5614 933a 0a04 1d3d 2af0 babd f772 aabd
00000090: 89a4 8ebe d611 46be 40d8 993a d854 e6bd
000000a0: dc40 123e 8af0 383d c0fe 6fbe 69fc 32be
000000b0: 9307 003e ad19 84be d97e 82be ec0e 883c
000000c0: 1ebf 0fbe 7015 cc3d 799a b33e 0a9c 8e3d
000000d0: 922f 32be f3c8 13be 52c6 343e 6c96 9f3d
000000e0: 0a53 86be fcea 6abe 40f8 61bc 67c0 e23d
000000f0: a69c 4d3d aa6e 5dbd c0a6 74bc b197 ebbd
00000100: 2b07 b9be 9f18 8e3e 5996 cb3d 6648 9ebc
00000110: 9fbb 8bbe ccb0 f83d c522 2fbd 4953 bf3d
00000120: bf03 ea3d 949e ac3d d101 c33e 9768 90be
00000130: d714 59be fdd6 ddbc 9dd7 923e 1833 b43d
00000140: eda1 a83b f9f1 c23d bf66 313e 9bf0 1fbe
00000150: f920 aebd f816 1f3e b6b4 d5bd 4028 0d3e
00000160: 2715 61be 4137 293e 67a3 c53c 8b55 493d
00000170: 0e44 ddbc 0639 9e3e 546e ddbd 8d5f 923b
00000180: 5d6b dfbd 75cb 713c 80c0 b93d a586 3cbd
00000190: a307 3dbe c61d 52bc 68e6 183e 4928 a3be
000001a0: 33f7 7f3b 025e 92be 453a 44be f8ac f3bd
000001b0: a2ec 023e b5bd ddbd a694 32be a3e1 abbe
000001c0: 9858 79bd ea46 453e 66f0 49be 0a9c e2bd
000001d0: ac90 68be 5871 0cbe d04f f1bb d241 013e
000001e0: 9d46 8d3e 0869 04be 6676 493e 32d2 2f3e
000001f0: b817 423e 957c 6ebe 2af8 a7be 52a1 4e3e
00000200: 91d6 f53d cc42 013d 93ae 60bd 3e7e 4d3c
00000210: fac0 d3bd 2936 a43d 3ead 6dbe c130 8f3d
00000220: 01ba ddbd 31f0 a03e 13e0 313e 03bb d0bc
00000230: 5350 e33c 59e1 b8bd ef58 033d 654e cabc
00000240: 2792 52be d35c f43d 0f9e 9cbe 3c72 8dbd
00000250: b295 61bd 41c4 243e f759 f93b 207f b33d
00000260: 3f6e 5abe b9e1 b1bd c7fd dabd 2d98 133d
00000270: 4912 fa3d 0a83 d4be 8075 6a3e 744e acbe
00000280: 529d d3bd 7acb 0ebe c0a7 acbd 5bec 21be
00000290: d126 e93c 723b d43d 3ca1 9cbd 57b8 5bbe
000002a0: d316 b8bd cde2 b5be 94a2 e83b 1191 033d
000002b0: 9926 183d 85e2 d1bc 37ca 23be 1539 803d
000002c0: 3736 31be 7499 cc3d 4d74 2e3e ffd8 88bc
000002d0: 9bf3 193e f4b5 6dbb 12a5 62be 5cd6 883e
000002e0: b165 a93c 8f50 133e 306a 8fbe fe75 5a3e
000002f0: 8224 f73d 712b 513d 4f84 1abe b5db c5be
-0.16586155 0.090129875 -0.09515006 0.053477302 -0.006233294 -0.10463255 0.20591868 0.11360162
0.016236132 0.0694185 -0.28579876 -0.22789869 0.001795336 -0.095255114 0.22699265 -0.06599297
-0.15648417 -0.06817272 -0.065632015 -0.3079441 -0.29008096 -0.299373 -0.09627644 -0.31525433
-0.031712413 -0.058259774 -0.15784341 0.32870072 -0.010551268 0.21493594 -0.091108754 -0.123218186
0.001122127 0.03833393 -0.09127839 -0.08322709 -0.27859905 -0.19342741 0.0011737421 -0.112466514
0.14282554 0.04515127 -0.23437023 -0.174791 0.1250289 -0.2580084 -0.25487402 0.016608678
-0.14037749 0.099650264 0.3507879 0.06963356 -0.17400959 -0.14432125 0.17653778 0.077923626
-0.2623523 -0.22941202 -0.013792098 0.11071854 0.05019822 -0.054060616 -0.014932334 -0.11503542
-0.3613828 0.2775316 0.09940786 -0.019321632 -0.2729158 0.12143096 -0.04275777 0.09342057
0.11426496 0.08428684 0.38087323 -0.28204796 -0.21199356 -0.027080053 0.28680125 0.08798808
0.005146256 0.09518809 0.17324351 -0.15619127 -0.08502383 0.15536106 -0.104348585 0.13784885
-0.21980725 0.16524984 0.024125768 0.049153846 -0.02700999 0.3090288 -0.10812059 0.004466957
-0.1090915 0.014757981 0.090699196 -0.046026845 -0.18459944 -0.012824481 0.14931643 -0.31866673
0.0039057254 -0.28587347 -0.19162853 -0.118982255 0.12785581 -0.10827199 -0.17439517 -0.33570585
-0.060875505 0.19265333 -0.19720611 -0.11064918 -0.22711438 -0.13715112 -0.0073642507 0.12622765
0.27592936 -0.12930691 0.19674072 0.17170027 0.1895436 -0.23289712 -0.32806522 0.20178726
0.12003816 0.031557843 -0.054853987 0.0125423055 -0.10339542 0.08018143 -0.23210618 0.06991721
-0.10826493 0.31433252 0.17370634 -0.0254798 0.027748263 -0.09027357 0.032067236 -0.024695585
-0.20563565 0.11931767 -0.3058934 -0.06906554 -0.0550744 0.1609049 0.0076096016 0.087644815
-0.21331118 -0.08685631 -0.106929354 0.036033798 0.12210519 -0.41506225 0.22896385 -0.33653605
-0.10332741 -0.13944808 -0.08430433 -0.15812819 0.028460892 0.10362901 -0.076479405 -0.21457039
-0.089887284 -0.35524598 0.007099459 0.032120768 0.037146185 -0.025620708 -0.15995108 0.062608875
-0.17305838 0.09990206 0.17036553 -0.016705034 0.15034334 -0.0036271783 -0.22133282 0.26726043
0.020678373 0.143862 -0.28010702 0.21334073 0.1206751 0.05106682 -0.15089534 -0.38644186

bias f4 [8]
00000000: 072d 69be d72b 37bc d349 8cbd a7f8 30be
00000010: ec19 8d3e df59 f8bd d955 a6bc 2712 94bd
-0.22771083 -0.011179886 -0.06850018 -0.17282353 0.2755884 -0.121265166 -0.020304607 -0.07230025

weight f4 [8]
00000000: 3d53 763f 1df6 803f c9eb 7c3f 15c2 8a3f
00000010: 98da 7f3f 9e56 513f da15 963f ca09 723f
0.9622076 1.0075108 0.9879728 1.0840479 0.9994292 0.8177279 1.1725419 0.94546187

bias f4 [8]
00000000: 3c24 643e 1865 ee3d 970f 2abc becb 693e
00000010: eca0 6e3e 2b42 bdbd f59d 813e f050 f33d
0.22279447 0.11640376 -0.0103796935 0.22831628 0.23303574 -0.09241136 0.25315824 0.11880672

running_mean f4 [8]
00000000: 01e9 5cbf 6a4f efbe 0c5b 35be c42d 4d3e
00000010: 8fcd e7be 5033 143e 7086 36bf fada 8fbe
-0.86293036 -0.46740276 -0.17710513 0.2003699 -0.45274016 0.14472699 -0.71298885 -0.28096753

running_var f4 [8]
00000000: 54a7 6d3f 15d9 c83e 5cf6 073f 9484 f23e
00000010: d70e 143f 8e1e 723e 9a51 0e3f c69b bd3e
0.9283345 0.3922812 0.5311029 0.47366774 0.57835144 0.23644468 0.55593264 0.37032908

weight f4 [8, 8, 3]
00000000: 5d46 85bc 8419 743d 1557 8b3e 2f2a 4cbe
00000010: ddd9 db3c 874c dbbd 318f d63c 4200 323e
00000020: a89a 983d cc2d 053e 39b7 803e fe49 b9be
00000030: 258f 8bbd c0ca 04be 7090 393e fb97 c23c
00000040: bcd0 193e 47ec 6fbd 648b a0be 8576 df3c
00000050: 1833 043e 6a24 1d3e 59d1 053e a125 f13d
00000060: e4d7 6c3d adea f13c 4be2 ab3e 2a47 1d3e
00000070: 8d84 b2bd 13dc a73d f304 81be b4ce d4bd
00000080: 8df8 2cbd 3790 b3be e4cf ffbb f2ee 90bd
00000090: 2f2a e73c afd3 b43d a4ff 163e 9b49 8b3d
000000a0: f8b4 d6bd a9a8 e5bd 0187 1cbe 5ce1 eebd
000000b0: 248b 923e c1ac 943d 93a0 5abd c1b3 a9be
000000c0: d48d a8bd 0462 713d 4175 56bd b9cf bfbd
000000d0: 0f7b 053e f011 9c3d 1408 ecbc 7ef2 25be
000000e0: 0b07 0cbe 5236 88be b0da 043e c9b9 f0bd
000000f0: d41b 513e d269 81be b0b1 383e c8ad 8cbe
00000100: 1c82 7cbe 3a3c b0bd bae7 a53d da30 84be
00000110: d8a0 b2be c5fc 38be f359 0f3e 0570 dabc
00000120: 64c4 b2bc 0a4e e63d c184 683e 98a5 833e
00000130: 0605 6e3e 74ef 0f3e 164c d3bd cfc2 3d3c
00000140: bc5f 51be 068f 323d 24a9 983b 896f e2bd
00000150: 739c f53d 52ff 293e dd82 39be 83b0 57bd
00000160: 21e4 9c3c 58a6 a9bc 952a eebd 2b7a ff3d
00000170: deba f73e d247 c6bd 6949 2fbe 42e5 7c3d
00000180: e060 63be 5bb9 0e3e ba8e e03d 1b17 9c3d
00000190: e674 0b3e 03ed 88be 10d6 d53c 79d7 fcbe
000001a0: 9382 abbd fda6 84bd c807 8cbe eb7a 2f3d
000001b0: 3e42 663d d23e 80be 3f61 9a3b f666 cabd
000001c0: f629 4cbe 7529 79be bfd9 a4bd 35f4 ee3d
000001d0: 2c32 f03c 365e 58be baac c8bd ff7d 033d
000001e0: f6dc 2bbd 1384 5ebe cf8a 75be f26b 57be
000001f0: fb26 963e b84d 963e 9140 80bd 534a 5c3e
00000200: e54a acbc f91d 4ebe 1e1e 703c b132 d0bc
00000210: c0aa 21bd 11b4 01be c382 bcbe f73c eebc
00000220: 5290 853d 3899 0abb 7e48 083e 703c 85bd
00000230: 181e 70be 04bd 213e 17a8 92bd 74e2 c23b
00000240: b13f 2abe 1e9b cebc 94d1 adbd 056b 443d
00000250: 37ba e83d aca2 fd3d a58b 093e 1c8c c73c
00000260: 75d9 073e 09ca 81be 73bb 8bbe b25e 3c3e
00000270: 2211 223e f77e 75bd 0768 cdbe efe6 bdbd
00000280: d527 31be acb4 103e 4e61 2f3e 967f 2bbe
00000290: 2917 69be b01f 203e a272 01be 30d0 223e
000002a0: 76ce 393d e3d8 36be 83be 34be b796 5dbe
000002b0: 7b0b 2cbe d0ae e23c 6c9d c9bd 8967 97bd
000002c0: 5c54 3ebd 8a51 00bc d5d5 aabe dd8c 913d
000002d0: 6b88 4d3e e923 9a3d a4d0 7a3d f492 babe
000002e0: 3875 1f3e 1553 5ebd 0c3c 78be 61ea a03d
000002f0: 5b2d 89be a820 733e 4c5c 73be 1311 1fbe
-0.016268903 0.059594646 0.27214876 -0.19937967 0.026837284 -0.10707956 0.026191326 0.17382911
0.07451373 0.13005751 0.25139788 -0.36189264 -0.06814412 -0.12967968 0.18121505 0.02375411
0.15021032 -0.05857494 -0.31356347 0.027278194 0.12910116 0.15345922 0.13068141 0.11774755
0.057823077 0.029530847 0.33571085 0.15359178 -0.08716688 0.08196273 -0.25199088 -0.10390988
-0.042229224 -0.35070965 -0.007806765 -0.07076825 0.028218357 0.08829438 0.14745957 0.068011485
-0.10483736 -0.1121381 -0.15285875 -0.11664078 0.2862178 0.07259513 -0.05337579 -0.33144954
-0.082301766 0.058931366 -0.052357916 -0.09365792 0.13035224 0.07620609 -0.028812446 -0.16205785
-0.13674562 -0.26603943 0.12974048 -0.11754186 0.20420772 -0.25276047 0.18036532 -0.27476335
-0.24659008 -0.08605237 0.08100839 -0.2581852 -0.3488834 -0.18065174 0.13999157 -0.026664743
-0.021822162 0.112453535 0.22706892 0.25712276 0.23244104 0.14056188 -0.103172466 0.0115820905
-0.20446676 0.04359343 0.004658835 -0.1105643 0.11992731 0.16601303 -0.18116327 -0.05265857
0.01915175 -0.020709202 -0.11629216 0.124744736 0.48384756 -0.096816674 -0.17117848 0.061742075
-0.22204924 0.13937895 0.10964723 0.076215945 0.13618812 -0.26743326 0.02610305 -0.49383143
-0.083745144 -0.06477163 -0.27349687 0.042841833 0.056215517 -0.25047928 0.0047112997 -0.098829195
-0.19937882 -0.24332221 -0.08049344 0.116676725 0.029320799 -0.21129689 -0.0979857 0.03210258
-0.04195877 -0.2173007 -0.23978733 -0.21037272 0.29326615 0.2935617 -0.06262315 0.21512727
-0.021031806 -0.20128621 0.014655618 -0.025414797 -0.03946948 -0.12666346 -0.36818513 -0.029081805
0.065216675 -0.0021148454 0.13308904 -0.06505668 -0.2344898 0.1579476 -0.07160967 0.0059474055
-0.16625859 -0.02522045 -0.084872395 0.047953624 0.11363643 0.12384543 0.13432176 0.024358802
0.13266547 -0.25349453 -0.2729145 0.18395498 0.15826848 -0.059935536 -0.4011843 -0.09272563
-0.17300351 0.14131421 0.17126963 -0.16747889 -0.22762741 0.15637088 -0.12641385 0.1589973
0.045362912 -0.17856173 -0.176508 -0.21639524 -0.16801254 0.027671248 -0.09844479 -0.07392795
-0.04646717 -0.00783194 -0.33366266 0.07106946 0.2007157 0.075263806 0.06123413 -0.3644024
0.15572059 -0.054278452 -0.24241656 0.07857204 -0.26792416 0.23742926 -0.23765677 -0.15533857

bias f4 [8]
00000000: ed20 d63b 8a0c 20be ff89 2f3d a67d bc3d
00000010: b7da 643d 5cee 173e 63fb 863e 225e cebd
0.006534687 -0.15629783 0.042856213 0.09203653 0.055872645 0.1483702 0.26363668 -0.10076548

weight f4 [8]
00000000: 099b 703f 7857 8c3f ce5a 853f f2d2 7e3f
00000010: 5227 9b3f 5040 6e3f f7c0 743f ab7e 5f3f
0.93986565 1.0964193 1.0418336 0.99540627 1.2121375 0.93066883 0.9560694 0.87302655

bias f4 [8]
00000000: 0b36 8a3d 7621 ad3d 84d4 6d3e 390b 193d
00000010: c738 2e3e 4119 91bd dba6 e83d 636e e83d
0.06748589 0.08453648 0.232256 0.03736422 0.17013846 -0.07084895 0.1135995 0.113491796

running_mean f4 [8]
00000000: 049f 573e 4d3a 80be 6d26 17bf f2ba 1d3f
00000010: c500 12bf 7257 9fbe 1392 7cbd 0147 4bbf
0.21056753 -0.2504448 -0.5904301 0.6161338 -0.57032424 -0.31121403 -0.061662745 -0.7940522

running_var f4 [8]
00000000: 960e 743e 62ab 0a3f 5a64 bd3e 6674 d13e
00000010: 83d8 003f f4e7 3a3e 0864 883e e333 593e
0.23833689 0.5416776 0.36990625 0.40909117 0.5033037 0.18252546 0.26638818 0.212112

weight f4 [8, 8, 3]
00000000: 0b04 a7be 0d4e df3d 24a8 c2bb d4de 7dbd
00000010: 4ae1 84be fe95 4ebe 97c2 f2bd 1b9e 65bc
00000020: 2ad1 d13c 8b78 8b3e 7db0 afbe 84e8 1cbe
00000030: 5f05 a63e f5f7 df3d 92bd 693d 485b 17be
00000040: cc0b e73d 58f0 143e 29ea 943d 2d20 38be
00000050: fa81 c43d 540d 23bd 0d24 203e 7869 083e
00000060: f835 46bc 8610 223c 7961 99bd 9b76 f6bd
00000070: d78d dfbe f954 92be 6350 0fbe f511 bcbd
00000080: ce76 53be ff7f 1b3e b8bf cdbe 8841 233d
00000090: e438 163e c8ad 2fbe 9a31 debe 3126 be3c
000000a0: 97b8 df3d 868d 35be 0fc3 4dbc 4f34 663d
000000b0: da73 e03d d549 14be 89f3 12bd 6d0a 10be
000000c0: 76db 08be d118 f1bd de76 ec3d 53d6 903d
000000d0: 35ea 12be 5498 c1bd 48f7 b1be 54e3 443e
000000e0: dfcf 9d3d bd56 4b3e 7a6f 1fbd 9b3c 69be
000000f0: dd56 003e 8016 933d 77b3 9cbe df95 0dbe
00000100: 5dc9 8b3d 0e29 55be e1bd a6bd f6ad 9d3c
00000110: ce8f b93c fd8f b2be b67b 233d 2f18 40be
00000120: f983 b1bd 8d04 42bb 9cde f3bc f857 ac3d
00000130: d9fe 58be cfe7 85be fde9 063e 3c64 0e3e
00000140: d80f 12bf e9f7 48bd b27d 11be 1fe4 2a3c
00000150: 96cc 8f3d eb8e 073d 2466 29be 602a bfbd
00000160: ff84 193e a48e 00be 7cce 2b3e 2ea0 dc3d
00000170: 1955 64bc 748d ae3d 5672 c83d 2637 46bd
00000180: 5929 483b 3a65 c83d 749f 053d 9485 99bd
00000190: 2506 abbe f86f 29be 6ae5 6abe f077 d1bc
000001a0: b88d 01be 31f0 7cbd 9760 80bd caa3 8abd
000001b0: 423e c3be 7f81 3dbc c086 c6be be85 a73d
000001c0: 837a 8c3e b2d7 69be 6db5 3bbd 929c 103d
000001d0: cb92 e23c 09c1 e43d 809e 743e d834 0f3d
000001e0: e146 e43b ead5 f33d 4723 3a3e 3893 093e
000001f0: 608e 48be 7557 f3bd b0ed c3bd 4b25 45bd
00000200: 49c8 8ebe 0d10 e23d 5af9 c53d 67de 83be
00000210: 9fa2 133c 4b64 053d 0c84 aebe ac55 053e
00000220: 8ff7 533e d5b1 3bbe 20ef b13d ad3b e33c
00000230: 854e 9e3e b625 1fbd 1a85 703d 7016 59bd
00000240: f3a9 aabe 6494 e0bd 1fd0 cebd ff41 b9bc
00000250: 865d 3cbe 90e0 14be 2502 07be 9f0b 573e
00000260: 56d2 b3bd 9a65 973d 8715 973c ab44 b1be
00000270: b94c 363e a234 0f3e 6858 7cbe 8800 323e
00000280: 1b19 cfbc e830 ffbc bc1f 633e e4e4 3a3d
00000290: d3df 7a3e d74b 9cbd 0d10 e7bd 6922 243e
000002a0: b6d7 58be 43c4 d1bc 7cdf dfbd ade5 b83d
000002b0: fdeb 03be 8063 38be abc5 9cbb fbca 51be
000002c0: 8f4d 16bc 5fb2 b03d f045 2bbe e44c 30bd
000002d0: 7700 373e 71c9 863e 364f e5be 35ca d33d
000002e0: 9d66 ee3d f9e5 c0bd 9bbe 8dbc 6b32 7e3c
000002f0: cb48 793e ab56 80be 89bf 873d 082b 03be
-0.32620272 0.10903559 -0.005940454 -0.061980084 -0.25953132 -0.20174405 -0.11853521 -0.014014746
0.025612433 0.27240404 -0.34314337 -0.15323073 0.32425973 0.10935966 0.057065554 -0.14780915
0.11281547 0.14544809 0.07271225 -0.17981024 0.095951036 -0.039807633 0.15638752 0.13321483
-0.012097828 0.009891635 -0.074892946 -0.12034341 -0.43662903 -0.28580454 -0.13995509 -0.091831125
-0.20650789 0.15185545 -0.40185332 0.039857417 0.1467014 -0.17156136 -0.43397218 0.02321157
0.109238796 -0.17729768 -0.012558713 0.05620223 0.10959597 -0.1448129 -0.035876784 -0.14066477
-0.13364968 -0.117723115 0.115461096 0.07072129 -0.14347155 -0.094528824 -0.34758973 0.19227344
0.07705664 0.19857307 -0.03892467 -0.22777025 0.12533136 0.07182026 -0.3060567 -0.13826703
0.068255164 -0.20816442 -0.08141685 0.01924799 0.02265158 -0.3487548 0.0399129 -0.18759225
-0.0866775 -0.0029604763 -0.029769234 0.08415216 -0.21190967 -0.26153418 0.13175197 0.13905424
-0.57055426 -0.04906455 -0.14208105 0.010430365 0.070214435 0.03309528 -0.1654287 -0.09334254
0.1499214 -0.12554413 0.16777986 0.10772739 -0.0139363045 0.08523074 0.09787433 -0.048392437
0.0030542223 0.097849324 0.03262277 -0.07496181 -0.33403125 -0.16546619 -0.22939077 -0.025569886
-0.12651718 -0.061752502 -0.06268423 -0.067695215 -0.38133436 -0.011566519 -0.3877468 0.08179806
0.2743722 -0.22836187 -0.045827318 0.035305567 0.027657887 0.11169631 0.23888588 0.034962505
0.0069664572 0.11906035 0.1817752 0.13435066 -0.19585562 -0.118819155 -0.0956682 -0.04813127
-0.2788718 0.11038218 0.09666701 -0.25755617 0.00901094 0.03256635 -0.3408512 0.13020962
0.20699905 -0.18329556 0.086881876 0.027738417 0.3091928 -0.038854323 0.058720686 -0.052999914
-0.33332786 -0.10965803 -0.1009829 -0.022614477 -0.18395051 -0.14538789 -0.13184412 0.21000527
-0.08780353 0.07392426 0.018442882 -0.34622702 0.17802705 0.13984922 -0.246431 0.17383015
-0.025280526 -0.03115125 0.22180074 0.045628443 0.24499445 -0.07631653 -0.11282358 0.16028751
-0.21176037 -0.02560628 -0.10931298 0.09028182 -0.12882991 -0.18006706 -0.004784306 -0.20487587
-0.009173765 0.086277716 -0.16725898 -0.04304208 0.17871271 0.26325563 -0.44786996 0.10341302
0.11640666 -0.09418864 -0.017302802 0.01551495 0.24344175 -0.25066122 0.06628329 -0.12809384

bias f4 [8]
00000000: c513 ccbc 57a9 033e 5769 0f3e 9495 a1bd
00000010: f460 81be a844 57be c2fc 203d fe3c 033e
-0.02491177 0.12857567 0.14005028 -0.07889858 -0.25269282 -0.21022284 0.03930355 0.12816235

weight f4 [8]
00000000: ddc4 253f ec86 ff3e 6314 0d3f d58c e43e
00000010: cabb 0c3f f5db 303f 8384 313f 1e17 263f
0.64753515 0.49907625 0.5510923 0.44638696 0.54974043 0.6908563 0.6934282 0.64879024

bias f4 [8]
00000000: b8d0 96be 579d a5be 9e2a 3fbe 26cd b9be
00000010: d490 74be a98b 1ebf 55a9 f4bd 12de a5be
-0.29456115 -0.32346603 -0.18668601 -0.36289328 -0.23883373 -0.61931854 -0.1194636 -0.3239599

running_mean f4 [8]
00000000: 1002 e0bd 2c77 71bf a752 d0be 2961 e0be
00000010: cc22 80bf d316 c1be 9181 2abe 3cbd 82be
-0.109378934 -0.94322467 -0.4068806 -0.43824127 -1.0010619 -0.37712726 -0.16650988 -0.25535

running_var f4 [8]
00000000: 58c6 723e abdd 983e 52c7 7c3e 791f 893e
00000010: c181 c93e 0e73 563e 0300 4a3e b2ff 293e
0.23708475 0.2985662 0.2468541 0.26781824 0.39356807 0.20942327 0.19726567 0.16601446

weight f4 [128, 25]
00000000: b23b f03d de75 65be 4578 823e 90f0 303e
00000010: 1a0f 43be 8494 15be eccb 72be c7e7 863b
00000020: c47e bcbd 4dae 6e3e 7f99 b23d 3416 8cbd
00000030: a4ff 82be ae00 ec3c a8c5 833e 0be5 89be
00000040: 1b17 93be 5e74 903e 80d3 03bd 686e 2d3e
00000050: cf60 8a3c 4b0e 9cbd 2b02 dfbe a13c 7d3d
00000060: 31de f23d e85f 50be eaee 543d 509e 493e
00000070: 3164 90be 1551 58bf ed1c debd 2a55 0abf
00000080: b4eb 11bf 31d6 dcbe b294 acbe 6ec4 683d
00000090: 6387 ac3d 8845 133e 80f4 9a3d a15d 7abe
000000a0: c50a 563e 5bc9 083e a8e3 babd 9b5a 59be
000000b0: 9800 14be a46b ed3c 2f94 4abd a943 7dbe
000000c0: 9e0c 083d 70c3 a4bc 1dee cb3e f19f 1bbe
000000d0: 5695 323d c9c9 a23e 63d1 59be 636c 8c3e
000000e0: 6ba9 093e 90e7 9d3d 67fe 953e 5865 81bd
000000f0: 3d5b eb3d fcf4 93bc 189c 8f3d 3025 2e3e
00000100: 3de1 d03c c607 f23d f78f 0fbe 304e 183c
00000110: 9d65 823c a2b2 2fbe 1486 5ebe aaf5 e3be
00000120: 91a2 7ebd d7f9 a5bd da6e 5d3d 7032 8c3d
00000130: 4be7 383e ff21 bebc 5c41 55be 7800 c8bd
00000140: 2a23 28bd 60ce 673b 77d2 acbe 23b0 21be
00000150: df59 bd3e 6bb2 4d3e 1afa ecbd efd9 e43d
00000160: 96b4 5bbd 5af9 183e f5b3 5abe 6f37 bf3c
00000170: 4868 61be 81d5 18be 1afd 59be e6a0 273d
00000180: 223f 8f3e afba 913d 333f 223c d3fa 65be
00000190: c79f 78be 4274 c3bd 78b6 8ebd d26d 993d
000001a0: 9866 0fbd 9ab5 bcbd b36d 11be 4bf7 5ebc
000001b0: 002d 3c3e 793b 2cbe 2abc d3bd 6a2a ebbd
000001c0: 8f0d 58bd 4c6c 81ba 489c f03d db55 6dbe
000001d0: b725 203d 7d9d 0a3e 4e3c 543e 471a 57be
000001e0: 19e2 3bbd 97b6 d1bd ef1b b03e 71b4 d4bd
000001f0: 7f9c 25be 5085 e9bb a6be 77bd 4c21 e63e
00000200: 74d7 813d e7b5 c73d 52b5 a63e de58 463e
00000210: 6766 81be 9448 e3be 19b4 f33d eba8 703e
00000220: c06a 5dbe 8b7c 55be a9fc 05bc 567e 943d
00000230: 2c3c 403e f03e 7ebe dc64 14be 1edb 0c3d
00000240: b683 9dbe 6101 2ebe c13f 703d 03d1 883d
00000250: 6e36 f2bd a63a 173e 4731 6dbe 25d5 9e3e
00000260: 5351 923e 7cc6 80bd 7f07 153d 1338 fabd
00000270: 6aad 7bbe 6382 d1be 415a 35bd e8be a2be
00000280: f44a 133d a2ee 5cbe d163 a2bd 0043 423d
00000290: 172f ab3e e594 3d3c f24b c4be fc16 823d
000002a0: 50e3 82bd 2f8e 98be 8962 33bc b7c0 233e
000002b0: 09d2 763e 4deb ad3b 0683 a23d af56 40be
000002c0: 15f2 cd3d da43 38be 13d3 e0be c33d 1cbf
000002d0: 56a0 3e3c 606b f7be e51c 90be f3dc 58be
000002e0: 96ba f0be 8178 6cbe 24e0 6abe 9039 aa3d
000002f0: 815b b3bc ecd9 0d3d 0595 0f3e 8504 823e
00000300: c68e 80be 87f0 203e 7a27 083e b99d ebbc
00000310: 77e9 193e e276 d13d ffbf 82bd e410 45bd
00000320: 28d1 f73d 07da 92be d675 21be 9d4e 8fbd
00000330: fc69 07be 24ff 9cbd 4ebd 66be 79d8 8abe
00000340: 57cc 54be aa30 cfbe 1077 edbe a963 ccbe
00000350: 01f6 d23d ba06 4dbe 03f6 9ebe 7d13 7c3d
00000360: 0abe cc3d b946 383e 9539 8c3e bc3d 9cbe
00000370: 6971 29bd 09b8 573e 1ba9 dc3d fc7e 243e
00000380: 995d 76bd 8592 94bd 2ec9 92be 844b efbe
00000390: 60b2 06be ab97 11bd 4af6 3abe e470 acbd
000003a0: b9f9 77bd 269c f63d 669c f5be f714 813d
000003b0: 4e4a 5ebe eca5 5f3e 5a93 cdbe 045d 06be
000003c0: da9c 3c3e b153 053e 5090 a23d 69f0 cc3d
000003d0: 26dd 4cbe 09a5 2b3d 4f59 043e 48a8 923d
000003e0: f92b 2d3e 1771 21be 92ec 873d 7f45 3fbe
000003f0: eaed f9be de86 82be 11ec 67be a242 a43c
0.11730136 -0.22408244 0.25482383 0.17279267 -0.1904873 -0.14607435 -0.23710603 0.0041169855
-0.09203866 0.23308678 0.08720683 -0.068401724 -0.25585663 0.028808918 0.25736737 -0.26932558
-0.28728566 0.2821378 -0.032184124 0.16936648 0.016891865 -0.07619914 -0.43556342 0.0618254
0.11858786 -0.20349085 0.05198566 0.19689298 -0.2820144 -0.8449872 -0.10845361 -0.540362
-0.5700028 -0.43132165 -0.33707196 0.056827955 0.084242605 0.14381993 0.07566166 -0.24449779
0.20902546 0.13358061 -0.09125453 -0.2122597 -0.14453351 0.028981991 -0.049457725 -0.24732842
0.033215158 -0.020112723 0.39830104 -0.15197732 0.04359945 0.31794575 -0.21271281 0.27426443
0.13443534 0.07710183 0.29295656 -0.06318158 0.11492012 -0.018061154 0.070121944 0.17006373
0.025498027 0.11817889 -0.14019762 0.009295985 0.015917594 -0.17157987 -0.21730834 -0.44523364
-0.062166754 -0.08104294 0.054060794 0.06845558 0.18056981 -0.02320957 -0.20825714 -0.097657144
-0.04104916 0.0035370812 -0.33754322 -0.15789847 0.3698263 0.20087592 -0.115711406 0.1117438
-0.053639017 0.1493887 -0.2135771 0.023341862 -0.22012436 -0.14925195 -0.21287957 0.04092493
0.27977854 0.07115685 0.009902763 -0.22458963 -0.242797 -0.09543659 -0.06968397 0.0749165
-0.03500995 -0.09214325 -0.14202003 -0.013608764 0.18376541 -0.16819562 -0.10338624 -0.11482699
-0.052747305 -0.0009874194 0.11748558 -0.23177283 0.039098468 0.1353664 0.2072613 -0.21006118
-0.04586992 -0.102399044 0.34396312 -0.10385979 -0.1617298 -0.007126488 -0.06048455 0.44947278
0.063399225 0.09751492 0.3256021 0.19369838 -0.2527344 -0.4439131 0.11899585 0.23501937
-0.21622753 -0.2084829 -0.008177915 0.07250659 0.18772954 -0.24828696 -0.144916 0.034388654
-0.3076455 -0.16992714 0.05865455 0.06680491 -0.11826788 0.14768466 -0.23163329 0.3102199
0.2857767 -0.06287858 0.036384102 -0.122177266 -0.24577871 -0.4091979 -0.044275526 -0.31786275
0.035960153 -0.21575406 -0.07929195 0.047427177 0.33434364 0.011571144 -0.38339192 0.0635204
-0.06391013 -0.29795977 -0.010948786 0.15991484 0.2410356 0.005307591 0.07935147 -0.18783067
0.10055939 -0.17994633 -0.43911037 -0.6103174 0.011634907 -0.48324108 -0.28147045 -0.21178035
-0.47017354 -0.23092844 -0.22937065 0.083117604 -0.021894218 0.034631655 0.1402169 0.25394073
-0.25108927 0.15716754 0.13296309 -0.028761731 0.15030466 0.10227753 -0.063842766 -0.04811181
0.1210044 -0.28681967 -0.15767607 -0.06997416 -0.13224024 -0.07665852 -0.22533152 -0.2711828
-0.20781074 -0.40466815 -0.463799 -0.39919785 0.10300828 -0.20022097 -0.31047067 0.061542023
0.099971846 0.17995729 0.27387682 -0.3051585 -0.041367922 0.21066298 0.10774442 0.16064066
-0.060147855 -0.07254509 -0.28669113 -0.467373 -0.13153982 -0.035545032 -0.18258014 -0.0841997
-0.06054089 0.12041502 -0.47970885 0.06302827 -0.21708032 0.21840638 -0.40151483 -0.1312142
0.18419209 0.13020207 0.07937682 0.10006792 -0.20006236 0.041905437 0.12924694 0.07161003
0.16911305 -0.15765797 0.06636919 -0.18678854 -0.48814327 -0.2549352 -0.22648646 0.020051304

bias f4 [128]
00000000: f357 ab3d d767 303d e1c1 23be e5cf 66bd
00000010: 1d87 843d e39f ca3c d33a d33d f64e f43c
00000020: 337b c53d c056 82bd f77f d43c 9a70 35bd
00000030: cbf4 2a3e 2906 1e3d 865f 6b3d 1031 f13d
00000040: 15cb 38be a40d 2a3e 8ee2 7a3e e11b 613e
00000050: 5199 943d 4e75 15be 6e2a 2d3e 65ac b43d
00000060: 0ce9 08be 53ee cabd 9dfc e93d 443a 623d
00000070: 195a a2bd 8bbf 0c3e 0cc7 283e c049 633e
00000080: 3e44 f6bd 7806 2abe 0e10 293e 6483 91bd
00000090: f1a0 763d 3632 c7bb 56aa 903d 6ed7 fcbe
000000a0: 6ca4 c1bd 72c7 6a3d 9b82 253d 2863 0e3b
000000b0: 193c 3e3d bcfe 333e 3305 e8bd 71be 6a3e
000000c0: 4ddb 4a3e 879b 22bd ce67 89bc 0416 a2bd
000000d0: c8d5 d43d 490e c3bc ade5 59be 3678 ee3d
000000e0: 2af0 9abc 9926 993d 430a 243e 1701 bd3d
000000f0: 6aec c53d 8fbd b23c 3119 b13d d90c bf3d
00000100: bf0c d63b 58ea 023e 6a36 d83d 6c24 333b
00000110: 55c5 c73d be21 e53d 0bf5 db3d d41d 6a3b
00000120: ecdb 8b3e d251 553e cf62 ccbd fe5e 233d
00000130: 04be eebc fca9 b83d 904d 4ebd e343 043e
00000140: 5b10 09bc 651f 703d 4142 e8bc 3051 2b3e
00000150: 6180 203e f94a 883d 8737 c33d 03f4 e43d
00000160: 9615 893d 3132 94bd ee8e 1e3e 6034 9a3e
00000170: 3554 46bd 33f7 323e 157c 953d 8ced 4b3e
00000180: e212 943d 0f55 d83c 68e5 863d 918c 993d
00000190: 11dc 0ebe 2325 debc 3917 90bd 1bd8 913d
000001a0: 15b1 8e3d 2148 d63d 96d1 6ebc 1ee9 81bd
000001b0: 8a29 53be 1eda 173e 9441 1ebc 6fb1 29be
000001c0: dff3 843e 8ae0 39be 334a 53bd e216 c5bc
000001d0: 6b89 6f3e 2b29 033e 98fb 343d 46f9 8b3d
000001e0: b859 273d 6505 1f3e 6ee8 b2bd 6835 de3c
000001f0: e15b 823d a588 29bc 20b4 fa3b dd4e eb3d
0.08366384 0.04306778 -0.15991928 -0.056350607 0.06471083 0.024734443 0.10313954 0.029822808
0.09642639 -0.063642025 0.025939925 -0.04429684 0.16694944 0.038580094 0.057464145 0.11776936
-0.1804622 0.16606766 0.24500486 0.21983291 0.07255805 -0.1459553 0.16910717 0.08821944
-0.1337015 -0.09908738 0.11425135 0.055231348 -0.07927341 0.13744943 0.1648218 0.22196102
-0.12024735 -0.1660403 0.1651003 -0.07105139 0.06021208 -0.0060789837 0.07063739 -0.4938311
-0.09455189 0.057319112 0.04040776 0.0021726582 0.046444032 0.17577642 -0.11329117 0.2292421
0.19810219 -0.039699104 -0.01677313 -0.079143554 0.10392338 -0.023810523 -0.2127902 0.11644022
-0.018913347 0.07478065 0.1601954 0.092287235 0.09664233 0.021818904 0.08647383 0.09328622
0.006532281 0.12784708 0.10557254 0.0027334942 0.09754435 0.111880764 0.107400976 0.0035723345
0.27316225 0.20831993 -0.09979784 0.039885513 -0.02914334 0.09016797 -0.050366938 0.12916522
-0.008365716 0.05862369 -0.028351905 0.1673019 0.15673973 0.06654925 0.095320754 0.11179354
0.0669357 -0.07236136 0.15484211 0.30118084 -0.04842015 0.17477112 0.072990574 0.19914836
0.07230164 0.026407747 0.065867245 0.07497514 -0.13951136 -0.027117318 -0.07035679 0.07121297
0.069673695 0.10462976 -0.014576336 -0.06343292 -0.20621315 0.14829299 -0.00965919 -0.16571592
0.2596731 -0.18152061 -0.051584434 -0.024058763 0.23392265 0.12808673 0.04418525 0.068346545
0.040857047 0.15529402 -0.08735739 0.027125075 0.06365181 -0.01034752 0.007650867 0.11489651

weight f4 [128, 127]
00000000: 5ccb b1bd ee24 6e3b 5d8f 23be e13b 85bd
00000010: 73ea 1abe aed2 d5be d424 053e 1ff2 693e
00000020: 6da2 58be 014c 6ebe a256 4cbe 8fc3 af3d
00000030: b232 5b3e a305 313d 1268 afbd a4eb c7be
00000040: ba29 61be a78e f13d 4eee 8c3d 283c 11bd
00000050: 53e7 f3bd 34cc b7be d1e7 bb3d 2715 1f3e
00000060: 1fb9 133e ea6e 48bd 04d8 a2be 3fb2 70be
00000070: 2d3f 1f3e 736f ab3d 68c0 843d ba76 c63d
00000080: 2494 673d 9c23 803e 694c ed3d a055 6a3d
00000090: c43c b13c 7cc1 1cbe 69a8 68be ee48 19be
000000a0: af30 d1bc 6818 f3bd 8b03 a2bd 8f23 133c
000000b0: 818c 603d 6155 823c 8c0c cfbd e7e2 913d
000000c0: cd83 63bd 2ba3 9dbc 1893 3fbc 357b 083e
000000d0: be51 4f3e 8e73 dbbc 52bc a5bd 1030 a9bd
000000e0: b6ab 83be 4ad1 11be 1c64 59be 462c 2abc
000000f0: 3873 40bd f3fd d2bd 21ea 11bd 9fc3 3b3d
00000100: b677 b2bc a0ef 1c3e 8f66 4c3e 3d70 9a3d
00000110: bbcd 0bbe 119b 9f3c 14f6 a93d b13e 02bd
00000120: 2948 503d 7748 c0be e4bd f9bd 4711 1c3e
00000130: bc66 19be fa7e b4be 1821 5a3e bf30 88bc
00000140: ad85 77be c6eb 55be b6b0 2ebd 3aa7 86bd
00000150: 6510 cf3a 3c21 73be 6a88 abbd 534a f6bd
00000160: 01b7 9abe df8e 84be fb70 eebd 85fe a9be
00000170: ffc8 27be d804 97bb 14c3 cbbd d16a ff3d
00000180: 666b 883d 22ae d83d 9795 e93d 52b9 3abd
00000190: 9fe0 9bbd 3c0b 313e 98ea 0dbe b9d2 c9be
000001a0: 6c69 b2bc 3c47 d63d edc9 a23d be8b 35be
000001b0: 704f e4bc 949d 64bd d170 bebe 4b1c 943d
000001c0: 740f d53d ee15 c9bd 9ad3 9abd a46e 7bbe
000001d0: 40d0 80be 379f 5abd c0a5 f53d 85de 173e
000001e0: d7c7 56be 2869 01bf bb83 c4be 3cc9 993d
000001f0: f26d adbd 966a 493c 294a 053d 7d00 bcbd
00000200: e7bb 2bbd 1301 b53d a446 11be 21a5 90bd
00000210: 666c 1cbe 2a34 32bc 0988 41bd 3087 b6be
00000220: 39cc 68be 01a1 8cbe e866 98ba c73c dd3d
00000230: 4299 b2bd e858 40be 1edc 14be 0d15 77be
00000240: 1cfb 263d 087d 4a3d 3fdf 49bd 0e8b 9a3c
00000250: 4977 8ebe 3a25 af3d 732f 573d 374d f43d
00000260: 85a0 833d 4aaf 0bbe 71f7 6cbd 33bf 183e
00000270: b667 a73d ca8f 223c f61b ab3d f0e9 f1bd
00000280: 4eeb e43d e050 583e dfee 8c3d b77f 20bd
00000290: 602f 67be ce72 08be e984 10bc e887 93bd
000002a0: d23a 0abe a5d3 efbd 55b8 923c b218 fc3b
000002b0: 4b8f 89bd 44a0 72bc d114 46bd 95c1 36be
000002c0: 1cd7 4c3d 4abd b63c 913d f63d ba73 8e3e
000002d0: 7305 e23d 9eee b4bd 5bdd fcbd 66cc 51be
000002e0: be63 9dbd 5187 12be 08c1 41bc 04c9 2a3c
000002f0: d6c5 b0bb 995a 0c3e deb7 f23c 4075 04bd
00000300: 63ef 163e cfc5 223e ba52 203e 5c84 153e
00000310: 0c47 e5bd 1ec0 3ebd 443d 893d c323 333e
00000320: a52e acbe 1e01 eb3b 675b 023d f355 1cbe
00000330: cc91 0bbf 6f13 013e 9b78 1c3e 0747 edbd
00000340: 51b4 91be 3fdc fabb b2f4 e63d 666d b7b9
00000350: caf1 14be 2ee0 f5bd a934 37be c113 c1be
00000360: fd0e 8bbe 1e11 36be 404a 4abe ee3b 10be
00000370: 3aad 5bbc 8af4 ddbb 25eb 02be ac78 38be
00000380: 9e6e fc3d a1eb 663e 4ee0 e2bc 5f5d 73be
00000390: 73a6 5bbd 5bae 39be 9486 a0be 6edc 06bd
000003a0: 4724 fe3b d5aa e93c b470 7cbe f10c 883d
000003b0: 5e95 903d bde6 a1bd 9dc7 12be 1862 ac3d
000003c0: 23a8 83be b8ef 27be 406e 2bbe 0db6 83be
000003d0: d9b8 84be 9b36 613c 8170 d73d 8cff a5be
000003e0: 43e0 f5be 0df3 44be e72c 993d 1fec aa3c
000003f0: 817c ef3b 4975 19ba cb7a 183e 9237 aa3b
-0.08681366 0.003633793 -0.15972658 -0.065055616 -0.15128498 -0.41762298 0.1300233 0.22846268
-0.2115571 -0.2327118 -0.19954923 0.08582222 0.21406057 0.043218266 -0.08564772 -0.39046967
-0.21988574 0.11794787 0.068813905 -0.03545776 -0.11909356 -0.35897982 0.09175075 0.15535413
0.14426087 -0.0489339 -0.31805432 -0.23505495 0.15551443 0.083708666 0.06482011 0.09690614
0.056537762 0.25027168 0.1158684 0.057210565 0.02163542 -0.15308183 -0.22720493 -0.14969227
-0.02553591 -0.118698895 -0.07910832 0.008980646 0.054821495 0.015909852 -0.10109815 0.07123356
-0.055545617 -0.019242844 -0.011692785 0.1332825 0.20246026 -0.0267885 -0.0809256 -0.0826112
-0.25716943 -0.14239994 -0.21229595 -0.010386532 -0.04698488 -0.10302343 -0.035623673 0.045840856
-0.021785598 0.15325785 0.19960998 0.07540939 -0.13652699 0.019483121 0.08298889 -0.03179807
0.050850067 -0.37555286 -0.12194422 0.15240966 -0.14980596 -0.35253125 0.21301687 -0.016624806
-0.24172087 -0.20890722 -0.042648993 -0.06574865 0.0015797733 -0.23743147 -0.08375628 -0.12025895
-0.30217746 -0.25890252 -0.11642643 -0.33201995 -0.16385268 -0.0046087317 -0.099493176 0.124715455
0.066611096 0.10580088 0.11405485 -0.04558689 -0.076112024 0.17289442 -0.13859022 -0.3941858
-0.021778785 0.10462806 0.079486705 -0.17729089 -0.02786991 -0.05581434 -0.37195447 0.07231959
0.10403338 -0.09818636 -0.07559891 -0.24553925 -0.25158882 -0.053374495 0.11994505 0.14830978
-0.2097467 -0.5055108 -0.38381752 0.075090855 -0.08468236 0.0122934785 0.032541428 -0.09179781
-0.041927245 0.088380955 -0.14187104 -0.07062746 -0.15275726 -0.010876695 -0.047248874 -0.35650015
-0.22734155 -0.27466586 -0.0011627348 0.10802608 -0.08720638 -0.18783915 -0.14537093 -0.24129124
0.04076682 0.049435645 -0.04928517 0.018865135 -0.27825382 0.08552022 0.052535485 0.1192879
0.06427101 -0.13641086 -0.057853166 0.14916687 0.08174078 0.009921977 0.083549425 -0.11812198
0.11177693 0.21124601 0.068814985 -0.0391843 -0.22576666 -0.13325045 -0.008820751 -0.072036564
-0.13499 -0.1171029 0.017910162 0.0076933736 -0.06716784 -0.014808718 -0.048359696 -0.17847283
0.05000983 0.022307057 0.120234616 0.27822667 0.110361956 -0.08834575 -0.12346908 -0.20488128
-0.0768504 -0.14309432 -0.011825807 0.010423902 -0.0053946776 0.13706435 0.02962869 -0.03233838
0.14739756 0.1589577 0.15656558 0.14601272 -0.11195192 -0.046569936 0.067011386 0.17494111
-0.33629337 0.007171764 0.03182545 -0.15267162 -0.54519343 0.1260507 0.15280382 -0.11585813
-0.28457883 -0.00765565 0.11277141 -0.00034985988 -0.1454536 -0.120056495 -0.17891182 -0.37710384
-0.27159873 -0.17779967 -0.19754887 -0.14085361 -0.013408 -0.006773536 -0.12785013 -0.18014783
0.12325786 0.22550823 -0.027694847 -0.23766087 -0.053625535 -0.18132918 -0.31352675 -0.032925062
0.0077557894 0.028523842 -0.24652368 0.066430934 0.070597395 -0.07905338 -0.14333959 0.084171474
-0.25714216 -0.16400039 -0.16741276 -0.2572483 -0.25922278 0.013745929 0.10519505 -0.3242153
-0.4802266 -0.19233342 0.074792676 0.020864544 0.007308543 -0.00058539637 0.14890592 0.005194613
