nn/checkpoints/main_material_different/6/model_30.pt (torch, 451442 bytes, 98 tensors)

weight f4 [8, 5, 3]
0	0x3d967e3f	0.07348298
1	0xbe39ff30	-0.18163753
2	0x3d17f542	0.03709913
3	0x3cf1dce5	0.029524276
4	0x3e197f11	0.14989878
5	0x3da0dd7a	0.07854743
6	0xbe789112	-0.2427409
7	0xbe9bfdc3	-0.30467042
8	0xbe1dd754	-0.15414172
9	0xbdd7e152	-0.10541023
10	0xbe539af7	-0.20664583
11	0x3d0f5f57	0.035003033
12	0xbeb4aa9b	-0.35286412
13	0xbe441767	-0.19149552
14	0x3d95b6d7	0.073102646
15	0x3d96ae7f	0.07357501
16	0x3e56968d	0.20955868
17	0xbdcfda2b	-0.10149034
18	0xbd9ca859	-0.07649297
19	0xbdbca075	-0.09210292
20	0xbd85c6bc	-0.06532046
21	0xbe8b7287	-0.27235815
22	0x3e8dff20	0.27733707
23	0xbe8b3297	-0.27187034
24	0x3dbbabf4	0.09163657
25	0x3d1190ae	0.035538368
26	0x3dcd0345	0.10010389
27	0xbdb5a3db	-0.088691436
28	0x3e9ba1d3	0.303969
29	0xbd8c6ad3	-0.068563126
30	0xbda50667	-0.08057862
31	0xbd5369a7	-0.05161443
32	0x3e12a36f	0.14320157
33	0xbe8999f2	-0.26875263
34	0x3e1d5759	0.15365352
35	0x3dcd9f25	0.1004012
36	0xbcc8dd93	-0.024519717
37	0x3e0dcb2e	0.13847038
38	0x3daa892c	0.08326945
39	0xbe8464b5	-0.25858083
40	0x3d8a8e52	0.06765427
41	0xbe5d90be	-0.21637246
42	0xbe5b32a3	-0.21406035
43	0x3e9a56bf	0.30144307
44	0x3d96db9f	0.07366108
45	0x3e535ece	0.20641634
46	0x3e1b8c7f	0.15190314
47	0x3d5001b2	0.050782867
48	0x3dec7751	0.11546195
49	0xbcb80ffa	-0.022468556
50	0xbcc12541	-0.023577334
51	0x3e826403	0.25466928
52	0xbe29659c	-0.16542667
53	0x3e881f12	0.26586205
54	0x3ea1d9d4	0.31611502
55	0x3dd387fc	0.10328671
56	0x3e918679	0.28422907
57	0x3d9ee447	0.07758384
58	0xbd757c83	-0.059933197
59	0x3d37857f	0.044805046
60	0xbe89e24f	-0.26930472
61	0xbe111123	-0.14166693
62	0x3e3e4f42	0.18584922
63	0xbda4ca7a	-0.08046432
64	0xbd4a2c4a	-0.049358644
65	0xbd9f0274	-0.0776414
66	0x3d1536fe	0.036429398
67	0xbe95c925	-0.29255024
68	0x3e80eaf7	0.25179264
69	0x3c1a4798	0.009416483
70	0xbe1c5850	-0.15268064
71	0x3e741a7d	0.2383823
72	0x3b92022b	0.004455825
73	0x3dea2316	0.11432473
74	0x3d9c885b	0.07643195
75	0x3befb906	0.0073157577
76	0x3d07775c	0.033072814
77	0xbd4c1348	-0.049823076
78	0xbd64919a	-0.05580292
79	0x3e881f5d	0.26586428
80	0x3df328e3	0.11873033
81	0xbdd782fa	-0.10523029
82	0x3e424d45	0.18974788
83	0xbe023f0b	-0.12719361
84	0x3e6881e5	0.22705801
85	0xbdb49a21	-0.0881846
86	0xbe9c6865	-0.30548397
87	0xbea3f230	-0.32020712
88	0x3dc8ef7a	0.098113015
89	0xbe5a3a6c	-0.21311349
90	0xbe89c4b7	-0.26907894
91	0xbe83bf61	-0.25731948
92	0x3b8984af	0.0041967253
93	0x3b255319	0.0025226532
94	0xbd277273	-0.04088063
95	0xbd9347fc	-0.07191464
96	0x3dd10e9a	0.10207863
97	0x3e7c3d9b	0.24632876
98	0x3e181abf	0.14853953
99	0xbe44cdf6	-0.19219193
100	0xbd341886	-0.0439687
101	0x3d94139e	0.07230304
102	0x3e5b1fbb	0.21398823
103	0x3d9751b6	0.07388632
104	0x3d1b3019	0.037887666
105	0xbe02d281	-0.12775613
106	0x3de60206	0.11230855
107	0xbd2116f7	-0.03932854
108	0xbe8859af	-0.26630923
109	0xbecce238	-0.4001634
110	0x3df895b2	0.12137927
111	0xbe021a7f	-0.1270542
112	0xbe827ad4	-0.25484335
113	0x3e911b06	0.2834093
114	0x3d32f849	0.043693814
115	0x3d13b320	0.0360595
116	0x3aa3151e	0.0012442206
117	0x3d3e1c8a	0.046413936
118	0xbe9c6b66	-0.30550689
119	0x3de68b0d	0.112569906

bias f4 [8]
0	0x3da487f5	0.08033744
1	0x3e5c04f5	0.21486266
2	0xbdfb0652	-0.12257065
3	0x3d5c3d28	0.05376926
4	0x3e83f98a	0.2577632
5	0xbe0c9f90	-0.13732743
6	0xbdb6e0b5	-0.08929578
7	0x3daeb49c	0.08530542

weight f4 [8]
0	0x3f658b2e	0.89665496
1	0x3f8d49e7	1.1038178
2	0x3f8116d2	1.0085089
3	0x3f684761	0.90733916
4	0x3f8607cf	1.0471133
5	0x3f7df7b5	0.99206096
6	0x3f539736	0.82652605
7	0x3fa1f733	1.2653564

bias f4 [8]
0	0xbd5f976c	-0.054587767
1	0x3ddb51c0	0.10708952
2	0x3dc71164	0.09720114
3	0xbdeba1cb	-0.11505469
4	0x3da51e35	0.08062402
5	0x3ddde398	0.10834426
6	0x3de881b3	0.11352863
7	0xb980634d	-0.00024488047

running_mean f4 [8]
0	0xbf18dc6f	-0.59711355
1	0x3e8051ea	0.25062495
2	0xbe223b89	-0.15843023
3	0x3f687362	0.9080106
4	0x3e3c663f	0.18398379
5	0xbe9f69ab	-0.31135306
6	0xbd986416	-0.07440965
7	0xbe9955d7	-0.29948303

running_var f4 [8]
0	0x3fd30abb	1.648765
1	0x3e7e1939	0.24814309
2	0x3eb3189b	0.3497971
3	0x40288354	2.6330156
4	0x3e80ea7a	0.2517889
5	0x3eb62a4d	0.35579148
6	0x3d9679f4	0.073474795
7	0x3f20e5f9	0.6285091

weight f4 [8, 8, 3]
0	0xbb96bef1	-0.0046003987
1	0x3e0fb65d	0.1403441
2	0x3cfb2ae2	0.030660097
3	0xbc2cb231	-0.010540531
4	0x3eb89f1b	0.36058888
5	0x3e1a018b	0.15039651
6	0xbd60b6ef	-0.05486196
7	0xbca64924	-0.020298548
8	0xbb36e509	-0.0027907512
9	0x3d4a1290	0.04933411
10	0x3d08a7eb	0.033363264
11	0x3e1e5a0e	0.1546404
12	0x3e0561a6	0.13025531
13	0x3e285bd1	0.16441275
14	0x3d2891cd	0.04115467
15	0x3dbb29ca	0.0913883
16	0x3e20c113	0.15698652
17	0xbe4db72c	-0.20089406
18	0xbdda745f	-0.10666727
19	0xbda7374d	-0.08164845
20	0xbc9af19d	-0.018914038
21	0x3e90fa5b	0.28316006
22	0x3e372860	0.17886496
23	0xbdc7129a	-0.09720345
24	0x3e810179	0.25196436
25	0x3dd86b36	0.10567324
26	0x3e6618c7	0.2247039
27	0x3e45214c	0.19250983
28	0xbcb694d5	-0.022287766
29	0xbe2349d6	-0.15946135
30	0x3de1f7b8	0.11033577
31	0xbdc88ad2	-0.09792103
32	0xbd77cd8e	-0.060498767
33	0xbe34f991	-0.17673327
34	0xbde25b29	-0.11052544
35	0xbe4456c9	-0.19173731
36	0xbda894ae	-0.082314834
37	0x3dc7df56	0.09759395
38	0xbe49add2	-0.19695213
39	0x3e90c808	0.28277612
40	0x3e294b30	0.16532588
41	0xbe14bc4f	-0.14524959
42	0xbd6a1e08	-0.057157546
43	0xbdb3228a	-0.08746822
44	0x3e0d77cd	0.13815232
45	0x3d363c58	0.044491142
46	0x3e92aca7	0.28647348
47	0x3d309954	0.043114975
48	0x3b556a4c	0.0032564579
49	0xbc0a980a	-0.0084591005
50	0xbb7f3abd	-0.0038944923
51	0x3d5e5c6a	0.05428735
52	0x3bdc1ff9	0.0067176786
53	0x3c360be7	0.011111236
54	0x3df74379	0.12073416
55	0xbc4a461c	-0.012345817
56	0xbeb1ec92	-0.347508
57	0xbe165a06	-0.14682779
58	0xbd7916dc	-0.060812816
59	0x3d8eed6f	0.069788806
60	0x3dcff1b7	0.10153525
61	0xbd808f57	-0.0627734
62	0xbd0fd95b	-0.035119396
63	0xbe379f0d	-0.17931767
64	0x3db66e50	0.08907759
65	0xbe9f0519	-0.31058577
66	0x3e8342da	0.2563694
67	0xbe11caf0	-0.14237571
68	0xbd5da84a	-0.05411557
69	0x3d11fccc	0.035641477
70	0xbea8bc94	-0.32956374
71	0x3dce549b	0.10074731
72	0x3e1873f7	0.14887987
73	0xbd75d341	-0.06001592
74	0x3d81c5e8	0.06336576
75	0xbc05cfdf	-0.008167236
76	0xbdc3fea0	-0.0957005
77	0xbe5448dd	-0.2073092
78	0x3cf0b5f5	0.029383639
79	0xbc1fb967	-0.009748793
80	0xbe260a2a	-0.16214815
81	0xbda0974e	-0.07841359
82	0xbe52c2f8	-0.20582187
83	0x3ce6a2f0	0.028153867
84	0x3de8b24f	0.11362135
85	0x3dc75897	0.09733694
86	0xbd267513	-0.040638994
87	0xbde819a9	-0.11333019
88	0xbd02db3c	-0.03194736
89	0x3d5b7fd5	0.053588707
90	0x3c73da0d	0.01488353
91	0x3e0bd6aa	0.13656107
92	0xbda8e352	-0.08246483
93	0x3edd8c8b	0.43271288
94	0x3e70e23d	0.23523803
95	0xbe0527cf	-0.13003467
96	0xbe68806f	-0.22705244
97	0xbe49acd2	-0.19694832
98	0x3ddd78ad	0.10814033
99	0x3dbb83b3	0.09155979
100	0xbd87a572	-0.06623353
101	0x3c3ab692	0.011396067
102	0xbded0149	-0.11572511
103	0x3da9b18f	0.0828582
104	0x3e2c640f	0.16835044
105	0x3e0cbb9a	0.1374344
106	0xba7418b2	-0.0009311541
107	0x3df53088	0.11972147
108	0x3e04790b	0.12936799
109	0x3e87c379	0.2651632
110	0xbe19a5ab	-0.15004604
111	0x3d1b51d9	0.037919853
112	0xbd839f96	-0.06426923
113	0xbe3a6c08	-0.18205273
114	0xbd7a7af0	-0.0611524
115	0x3e66223f	0.22474001
116	0x3db7f768	0.08982736
117	0xbdcbb6e0	-0.0994699
118	0xbe7f3800	-0.24923706
119	0xbc57f5cf	-0.013181164
120	0x3ca32709	0.019916074
121	0xbe353845	-0.17697246
122	0x3e385b97	0.18003689
123	0x3ea32aaf	0.31868502
124	0x3d7ebe73	0.062193345
125	0xbbdc5d90	-0.0067250207
126	0x3e7ac187	0.24487887
127	0x3d13681d	0.035987962
128	0xbc3f4d4c	-0.011676144
129	0x3e38277c	0.17983812
130	0x3dc4d24a	0.09610422
131	0xbdfa3872	-0.12217797
132	0xbd0514c0	-0.032490492
133	0xbe2b2437	-0.16713034
134	0xbdedba4f	-0.11607801
135	0xbd4da5de	-0.05020701
136	0xbdf6a22b	-0.1204265
137	0x3da0a42e	0.07843815
138	0xbc472e5e	-0.012157051
139	0x3e465d47	0.1937152
140	0xbe0df213	-0.13861875
141	0xbc880461	-0.01660365
142	0x3dc92f74	0.09823504
143	0x3e1c67b2	0.15273932
144	0x3e39e41c	0.18153423
145	0xbd96772e	-0.073469505
146	0xbe049228	-0.12946379
147	0xbe0dfcec	-0.13866013
148	0xbc72c36b	-0.014817099
149	0xbe5adc04	-0.21372992
150	0xbd855f71	-0.06512345
151	0xbe058898	-0.13040388
152	0xbe8de7f0	-0.27716017
153	0xbd853e96	-0.06506078
154	0xbe3fd658	-0.1873411
155	0xbddbdfe2	-0.10736062
156	0x3e70c64e	0.23513147
157	0xbc56f2bd	-0.013119397
158	0x3dafb7be	0.08579968
159	0xbd377ff3	-0.044799756
160	0xbdd1f4c1	-0.10251761
161	0x3d3043b8	0.04303333
162	0x3c210594	0.00982799
163	0x3e102b71	0.14079072
164	0x3e10e49a	0.14149705
165	0x3bb61a34	0.005557323
166	0xbdda8f20	-0.1067183
167	0x3ed7522b	0.42054877
168	0x3c835bd6	0.016035002
169	0x3c475837	0.012167028
170	0xbcd2aa7f	-0.025716064
171	0xbe632679	-0.22182645
172	0x3b48bfe9	0.0030631965
173	0x3e441710	0.19149423
174	0x3d00b66a	0.031423964
175	0x3e4d5bff	0.20054625
176	0x3d1b6d2d	0.037945915
177	0x3c8d7d35	0.017271617
178	0xbd919884	-0.07109168
179	0xbe00c1b2	-0.12573889
180	0xbda56619	-0.08076114
181	0x3e602a89	0.21891226
182	0xbe113ed3	-0.14184122
183	0x3c8a1b51	0.016858729
184	0x3cbfa193	0.023392474
185	0x3eb93016	0.361695
186	0xbe24d48f	-0.1609671
187	0xbda70dcb	-0.08156928
188	0x3e33dd68	0.17564929
189	0x3ad206a0	0.0016023703
190	0x3da771c5	0.08175997
191	0xbe94be9d	-0.29051676

bias f4 [8]
0	0x3cd13959	0.02554004
1	0xbdcd6f45	-0.100309886
2	0xbdb86b27	-0.09004813
3	0x3ccba71b	0.024859956
4	0x3e05be49	0.1306087
5	0x3de08d0c	0.109644026
6	0x3d7e7fa8	0.06213346
7	0xbdb660d4	-0.08905187

weight f4 [8]
0	0x3f6e7fa7	0.9316353
1	0x3f88a566	1.0675476
2	0x3f893f0a	1.0722363
3	0x3f76094b	0.9610793
4	0x3f6ad224	0.917269
5	0x3f7d198d	0.9886711
6	0x3f795c9b	0.9740693
7	0x3f8fc85a	1.1233017

bias f4 [8]
0	0xbe2953a5	-0.16535814
1	0x3cbcba8b	0.02303817
2	0x3db4a906	0.08821301
3	0xbc8fd345	-0.017556796
4	0x3d9abc5f	0.0755546
5	0x3e420872	0.18948534
6	0xbd3753cc	-0.04475765
7	0x3d99d6d3	0.075116776

running_mean f4 [8]
0	0x3ef319c7	0.47480604
1	0x3dcf4378	0.101202905
2	0xbebfd07b	-0.37463745
3	0x3dd2937d	0.102820374
4	0x3ddc45c9	0.10755498
5	0x3ea83673	0.3285404
6	0xbd0d6822	-0.034523137
7	0xbcae793e	-0.021298047

running_var f4 [8]
0	0x3e8911c4	0.26771367
1	0x3eb49d0d	0.3527607
2	0x3eae78fc	0.3407668
3	0x3e53fd47	0.20702086
4	0x3e7e7148	0.24847901
5	0x3e16e3c4	0.14735323
6	0x3eaac3cb	0.33352503
7	0x3ea250fd	0.31702414

weight f4 [8, 8, 3]
0	0x3d507544	0.050893083
1	0x3e38b836	0.18039021
2	0xbd7798b8	-0.06044838
3	0x3cfea10a	0.031082649
4	0x3dc5fb8b	0.09667119
5	0xbc9c7a9a	-0.01910143
6	0xbd5be5aa	-0.05368582
7	0x3e468dc5	0.19390018
8	0xbd25d2f7	-0.040484395
9	0xbd1f852f	-0.038945373
10	0xbd39f974	-0.045403913
11	0x3e8b43b7	0.272001
12	0x3e99b00e	0.30017132
13	0x3e03929f	0.128489
14	0x3d6989a6	0.057016037
15	0x3deb769c	0.11497232
16	0x3daf31b1	0.085544
17	0xbe0b97d1	-0.13632132
18	0x3e22ff39	0.15917672
19	0x3e2adb4d	0.16685219
20	0x3df97890	0.121811986
21	0x3e9016a5	0.28142276
22	0x3df17289	0.11789424
23	0x3dde1398	0.10843581
24	0xbdfb8e20	-0.122829676
25	0xbd17786a	-0.03698007
26	0xbce9af41	-0.02852595
27	0xbd9e955d	-0.077433325
28	0x3c22d05d	0.009937373
29	0x3e00477f	0.12527274
30	0xbddbf683	-0.10740378
31	0xbe267cf9	-0.16258611
32	0xbdaa33ea	-0.08310683
33	0xbe016f81	-0.12640192
34	0x3c1f6cc3	0.009730521
35	0xbe30df9b	-0.17272799
36	0x3d1b274b	0.03787927
37	0xbe50f59e	-0.20406196
38	0xbd98c78b	-0.07459935
39	0xbc49be84	-0.012313489
40	0xbe96dbed	-0.29464665
41	0x3dea1f1f	0.11431717
42	0x3dd11c42	0.10210468
43	0xbc113165	-0.008861874
44	0xbe05e693	-0.13076238
45	0xbd435f8c	-0.047698542
46	0x3e57fb50	0.21091962
47	0x3e26bc8f	0.16282867
48	0x3d02c69d	0.031927694
49	0x3ba8e2b1	0.005153977
50	0x3e419603	0.18904881
51	0x3d785f9a	0.060638048
52	0xbe084efe	-0.13311383
53	0x3e91f8ec	0.28510225
54	0x3e34dac9	0.17661585
55	0xbd23ec78	-0.040020436
56	0x3de5834a	0.11206682
57	0xbdcacf31	-0.099028
58	0x3e28289b	0.1642174
59	0x3afb9606	0.0019194491
60	0xbe09f71b	-0.1347317
61	0xbc5d9941	-0.013525308
62	0xbe19d4d4	-0.15022594
63	0xbe8b218c	-0.27174032
64	0xbe833d6a	-0.25632793
65	0x3d8b7751	0.06809867
66	0xbe5d56bf	-0.21615122
67	0xbdc9143c	-0.098183125
68	0x3d93785d	0.07200692
69	0x3e0036be	0.12520882
70	0x3dc2fc30	0.09520757
71	0xbec60d84	-0.38682187
72	0xbd7bdc36	-0.061489306
73	0xbd1cbcf8	-0.038266152
74	0xbda01c91	-0.078179486
75	0x3df1f822	0.11814906
76	0xbe8ac301	-0.271019
77	0xbe404e9d	-0.18779989
78	0x3e95f03a	0.2928484
79	0xbd1531c0	-0.0364244
80	0xbc8f8f3c	-0.017524354
81	0x3e1249fd	0.14286037
82	0x3da09aa3	0.078419946
83	0xbe2e6332	-0.17030028
84	0x3d95cb97	0.07314222
85	0x3e1e01a6	0.15430316
86	0x3de3ceb4	0.1112341
87	0x3db155c6	0.08658938
88	0x3e220fbf	0.15826319
89	0x3de10588	0.10987383
90	0xbdb553a5	-0.088538446
91	0x3da1b973	0.078967
92	0xbe88e647	-0.26738188
93	0xbda04c57	-0.07827061
94	0x3db0d142	0.08633663
95	0x3e8f9338	0.28042006
96	0xbdc9bd88	-0.09850603
97	0xbe668b7a	-0.22514144
98	0xbe021d5a	-0.12706509
99	0x3e60086d	0.21878214
100	0xbe103a19	-0.14084662
101	0x3d7e2a0f	0.06205183
102	0xbdf574c6	-0.119851634
103	0x3e361410	0.1778109
104	0xbe16e0a9	-0.14734139
105	0xbe7e07ab	-0.24807613
106	0xbe0b1ada	-0.13584462
107	0xbe004900	-0.12527847
108	0x3d1e05e5	0.03857984
109	0xbdc86c85	-0.097863235
110	0x3e218f92	0.15777424
111	0x3e633b3c	0.22190565
112	0x3d6d7c7d	0.05798005
113	0x3e30d3d6	0.17268309
114	0x3d35815a	0.044312812
115	0x3dfafd50	0.12255347
116	0xbe2b80b3	-0.16748314
117	0x3db25dff	0.087093346
118	0xbdd753e4	-0.10514048
119	0x3db1f581	0.08689404
120	0x3e35adcf	0.17742084
121	0x3e0a7b54	0.13523608
122	0xbdf5eb92	-0.12007822
123	0x3e80a879	0.25128534
124	0x3d9a1637	0.075237684
125	0xbe53cc58	-0.2068342
126	0xbe11c67d	-0.14235874
127	0xbe5dee3c	-0.2167291
128	0x3e40de62	0.18834832
129	0xbd4a3831	-0.049369995
130	0x3e225305	0.15851982
131	0x3d11447a	0.035465695
132	0xbdb27b85	-0.08714966
133	0x3e331016	0.17486605
134	0xbdfc620e	-0.1232339
135	0x3e901522	0.28141123
136	0x3dba91a0	0.09109807
137	0xbde9b42d	-0.11411319
138	0x3e059735	0.13045962
139	0x3df1f8b0	0.118150115
140	0x3e15ad2a	0.14616838
141	0xbc7a52e7	-0.0152785545
142	0x3dc10d77	0.09426396
143	0xbe456fc4	-0.19280916
144	0x3cc049ca	0.023472685
145	0x3bc69e6c	0.006061366
146	0x3da3b066	0.0799263
147	0x3e40a686	0.18813524
148	0xbd3cd435	-0.046100814
149	0xbc09e5db	-0.008416618
150	0xbe8615b9	-0.26188448
151	0xbd4e2d81	-0.050336365
152	0xbe897d18	-0.2685325
153	0x3e865773	0.26238593
154	0xbd8e8dbf	-0.0696063
155	0x3d5a6928	0.05332294
156	0xbc9917a2	-0.018688027
157	0x3cd54049	0.02603163
158	0xbd7b8b65	-0.061412234
159	0xbddb67ab	-0.107131325
160	0xbe030811	-0.12796046
161	0xbcd761e8	-0.026291803
162	0x3da36b8b	0.079794966
163	0x3e546243	0.20740609
164	0xbe665b1d	-0.22495694
165	0x3d8ae516	0.06781976
166	0xbe169abb	-0.14707462
167	0x3e34639d	0.17616124
168	0xbdab50c4	-0.08365014
169	0x3d23a94d	0.03995638
170	0xbdf8c3cc	-0.1214672
171	0x3ded9e6d	0.11602483
172	0x3a68ab3d	0.0008875614
173	0x3da8370d	0.08213625
174	0x3dcf698e	0.10127555
175	0xbd456c9d	-0.048199285
176	0xbe54edf5	-0.20793898
177	0x3e79a3a3	0.24378829
178	0xbc5bdd4f	-0.013419463
179	0x3da048b9	0.07826371
180	0x3c6d06a4	0.014466915
181	0x3e2410d8	0.1602205
182	0xbb8782b5	-0.0041354545
183	0x3db0fc7b	0.08641907
184	0xbe0ae24b	-0.13562886
185	0xbe07812d	-0.1323287
186	0x3dd5d23b	0.10440489
187	0x3e89ab89	0.26888683
188	0x3d67535d	0.056475986
189	0xbdcd4e9d	-0.1002476
190	0xbe1cf9db	-0.15329687
191	0xbe9054db	-0.2818974

bias f4 [8]
0	0xbc303941	-0.010755838
1	0xbe7f9259	-0.24958171
2	0x3da3fa0e	0.080066785
3	0x3cc168da	0.023609567
4	0xb9b1272b	-0.00033789253
5	0xbbfa676b	-0.007641723
6	0xbe68f290	-0.2274878
7	0xbdf35ae6	-0.11882572

weight f4 [8]
0	0x3f7d14ce	0.9885987
1	0x3f530c28	0.82440424
2	0x3f8789b2	1.0588896
3	0x3f82d0ca	1.0219967
4	0x3f85bf52	1.0449011
5	0x3f78346c	0.9695499
6	0x3f87d182	1.0610812
7	0x3f82f759	1.0231735

bias f4 [8]
0	0xbe04f707	-0.12984858
1	0xbde621e2	-0.112369314
2	0x3dbe14c6	0.09281306
3	0x3df641d7	0.12024277
4	0x3dc92bb5	0.098227896
5	0xbdd01fe9	-0.101623364
6	0xbde48340	-0.111578465
7	0xbc4632e9	-0.012097099

running_mean f4 [8]
0	0x3f1f5012	0.6223155
1	0xbf03cc16	-0.51483285
2	0xbd5ad874	-0.053429082
3	0x3e5227dd	0.20523019
4	0xbcd4e295	-0.025986949
5	0x3e4c6412	0.19960049
6	0xbea81140	-0.3282566
7	0xbdd08b53	-0.10182824

running_var f4 [8]
0	0x3ed0fcb3	0.40817794
1	0x3e417bfc	0.18894953
2	0x3ee60d10	0.4493184
3	0x3ec11a51	0.3771539
4	0x3e70db1f	0.23521088
5	0x3e9b64d3	0.3035036
6	0x3e4b28b4	0.19839746
7	0x3e750e8b	0.23931329

weight f4 [8, 8, 3]
0	0x3e5a69ea	0.21329466
1	0xbe319eda	-0.17345753
2	0x3d897eb8	0.06713623
3	0xbc66a336	-0.014076998
4	0xbe03ef26	-0.12884197
5	0x3bc5f60f	0.0060412954
6	0xbe0a2dd5	-0.13494046
7	0xbdb4f7a0	-0.08836293
8	0x3e18aba6	0.14909229
9	0x3c91e7c0	0.017810702
10	0x3df38bfb	0.118919335
11	0x3d6e3d28	0.058163792
12	0x3e16900f	0.14703391
13	0x3dd42cac	0.10360083
14	0x3e46d3c0	0.19416714
15	0xbe49f733	-0.19723205
16	0x3db377e9	0.087631054
17	0x3d72987c	0.05922745
18	0xbe3d31a3	-0.18475966
19	0x3e18ecdc	0.14934105
20	0xbd9a16b7	-0.07523864
21	0x3d886e78	0.06661695
22	0xbecfa58d	-0.40555993
23	0xbe767a21	-0.24070026
24	0x3dd5b620	0.10435128
25	0x3dfdf605	0.1240044
26	0xbd902535	-0.07038347
27	0xbd925c7c	-0.07146546
28	0xbe46bf2c	-0.19408864
29	0xbe06c0b8	-0.13159454
30	0x3e691828	0.22763121
31	0x3e2a8968	0.16653979
32	0x3e42ee41	0.19036199
33	0xbc6b19fe	-0.014349459
34	0xbd9e5a74	-0.07732096
35	0xbd577f59	-0.052611683
36	0x3e25fef0	0.16210532
37	0x3c9c2fed	0.019065822
38	0x3d090a31	0.033456985
39	0x3e8b72c6	0.27236003
40	0x3dabaa77	0.08382123
41	0x3e714404	0.23561102
42	0xbc45ebca	-0.012080142
43	0x3dc2d146	0.09512572
44	0x3aa69749	0.0012709881
45	0x3ce854ab	0.028360685
46	0xbcf2ecb5	-0.029653886
47	0xbc67466f	-0.014115914
48	0xbd57f534	-0.05272408
49	0xbc86b701	-0.016444685
50	0x3dbabcaa	0.09118016
51	0x3cfb8d49	0.030707018
52	0x3dc808ca	0.097673014
53	0x3df3c2b8	0.11902374
54	0xbe0cb534	-0.13740999
55	0xbb9c8955	-0.0047771134
56	0xbe4f60c1	-0.20251752
57	0xbc39411e	-0.011307029
58	0x3bc92e67	0.006139565
59	0xbe1aa037	-0.1510018
60	0x3e43d13e	0.19122788
61	0xbe0c4997	-0.13699947
62	0x3e0d3c6a	0.13792577
63	0xbe416b6e	-0.18888637
64	0xbda03a85	-0.07823662
65	0xbe80d236	-0.25160378
66	0xbe3347e5	-0.17507894
67	0xbe665e4f	-0.22496913
68	0x3e0f37fa	0.13986197
69	0xbd07de23	-0.03317083
70	0xbe1a0ea4	-0.15044647
71	0x3dc3863d	0.09547088
72	0xbe08a0c9	-0.13342585
73	0xbd9f458f	-0.07776939
74	0x3e8d47ff	0.2759399
75	0xbda2cfd3	-0.079497956
76	0xbcba8c32	-0.022771928
77	0x3e0c1934	0.13681489
78	0x3e39497e	0.18094441
79	0x3e994f0f	0.2994313
80	0x3e6215c6	0.22078618
81	0x3d809b39	0.06279606
82	0xbd9ef1dd	-0.077609755
83	0x3e720f36	0.23638615
84	0x3c9d5d7d	0.019209618
85	0xbc808368	-0.01568766
86	0x3e05f161	0.1308036
87	0x3ddb69fd	0.10713575
88	0xbe217f4e	-0.15771219
89	0xbe15312c	-0.14569539
90	0x3e6f9328	0.2339598
91	0xbe351368	-0.17683184
92	0x3d7f2822	0.062294133
93	0x3e4c1166	0.19928512
94	0xbd5e9bca	-0.05434779
95	0xbad220cc	-0.0016031503
96	0xbd7406ab	-0.05957667
97	0xbc76e510	-0.015069261
98	0xbdcc19ba	-0.099658445
99	0xbdddbbeb	-0.10826858
100	0x3dc03f7a	0.09387107
101	0xbdfeb365	-0.124365605
102	0xbdc2eba7	-0.09517603
103	0x3dba2d36	0.090906546
104	0x3df58218	0.11987704
105	0x3e4174f6	0.18892273
106	0xbe4f3775	-0.20235999
107	0xbe225e84	-0.15856367
108	0xbe2e5b56	-0.1702703
109	0x3cff1033	0.031135654
110	0xbce7131d	-0.028207356
111	0xbda2bed9	-0.079465576
112	0x3e13f659	0.14449443
113	0x3e3836c8	0.17989647
114	0x3db1d2a7	0.08682757
115	0xbe82c3dd	-0.25540057
116	0xbe184cf4	-0.14873105
117	0xbe6c7341	-0.23090841
118	0xbdf28150	-0.11841071
119	0x3cad4894	0.021152772
120	0x3ba63b7e	0.00507301
121	0xbdfb655b	-0.122751914
122	0xbc0706c4	-0.008241359
123	0xbe086794	-0.13320762
124	0xbdb5b096	-0.08871572
125	0x3d47c009	0.048767123
126	0x3d625d60	0.05526483
127	0xbe03ed5a	-0.12883511
128	0x3d84abb8	0.06478065
129	0x3e1f12c5	0.15534504
130	0x3e14396a	0.14475027
131	0xbdb9364d	-0.0904356
132	0x3eab9e3a	0.33519155
133	0x3cd68849	0.026188033
134	0xbe4fd912	-0.2029765
135	0x3df67e6c	0.12035832
136	0xbe15c172	-0.14624575
137	0xbe470d09	-0.19438566
138	0xbd25b7af	-0.040458377
139	0x3d551979	0.052026246
140	0x3de05696	0.10954015
141	0x3c906b90	0.017629415
142	0x3d160613	0.036626887
143	0xbe85b8f7	-0.2611768
144	0xbdbbc278	-0.09167951
145	0xbdb98edc	-0.090604514
146	0x3dc5882c	0.09645113
147	0x3e743be8	0.23850977
148	0x3e1306eb	0.14358108
149	0xbd6b93eb	-0.057514112
150	0x3e49c02b	0.19702213
151	0x3dc51a77	0.096241884
152	0x3eb61e90	0.35570192
153	0xbdb1cf2c	-0.08682093
154	0xbdcb2cbc	-0.09920642
155	0xbe7f8ccc	-0.24956053
156	0xbe33b0d6	-0.17547926
157	0x3c221e99	0.00989499
158	0xbc10b04c	-0.008831095
159	0xbca828cb	-0.020527264
160	0xbc31734e	-0.010830713
161	0xbd08a668	-0.033361822
162	0x3debda83	0.11516287
163	0x3db40d0e	0.087915525
164	0x3b6b5988	0.003591152
165	0xbe541d6c	-0.20714349
166	0xbe216f7d	-0.15765186
167	0xbd8ccb62	-0.0687473
168	0x3e70dc48	0.2352153
169	0x3c9af3e9	0.018915134
170	0xbde1b7a6	-0.11021356
171	0xbdabd961	-0.08391071
172	0x3e0842ee	0.13306782
173	0xbdfecf0f	-0.12441837
174	0xbe9aaa06	-0.30207843
175	0x3d8c6f01	0.0685711
176	0x3e272b0b	0.16325013
177	0xbca4f099	-0.020134257
178	0x3e3be593	0.18349294
179	0x3e0f8fb5	0.14019664
180	0xbe29fbb4	-0.16599923
181	0x3def7b42	0.116934314
182	0x3e075d0b	0.13219087
183	0xbe21c70f	-0.15798591
184	0x3e496c67	0.19670258
185	0x3e38bba0	0.18040323
186	0x3e1f09db	0.15531103
187	0x3e33c917	0.17557178
188	0xbe1e2f22	-0.15447667
189	0x3d085cee	0.03329175
190	0xbe784bb4	-0.24247628
191	0xbe39613f	-0.18103503

bias f4 [8]
0	0x3e112d39	0.14177407
1	0x3e00a23a	0.12561885
2	0x3a771ea0	0.0009426866
3	0x3e0d5936	0.13803563
4	0xbd3d127a	-0.0461602
5	0x3d19e528	0.037572056
6	0x3dffcf0e	0.124906644
7	0x3c3f54ed	0.011677963

weight f4 [8]
0	0x3f6eb1e6	0.932402
1	0x3f6d5846	0.9271282
2	0x3f84245d	1.0323597
3	0x3f85f462	1.0465205
4	0x3f892b92	1.0716422
5	0x3f6ad5bb	0.91732377
6	0x3f83c399	1.0294067
7	0x3f6f02d8	0.93363714

bias f4 [8]
0	0x3e70279e	0.23452613
1	0xbe1869ea	-0.14884153
2	0xbd80f1fd	-0.062961556
3	0xbd0b4cfb	-0.03400896
4	0x3ede28f1	0.4339061
5	0x3db0763e	0.08616303
6	0xbd8d7009	-0.06906135
7	0xbd325811	-0.043541018

running_mean f4 [8]
0	0x3df9b7e4	0.121932775
1	0x3f0784d2	0.5293704
2	0xbea72c13	-0.32650813
3	0x3f1a4c52	0.60272706
4	0xbeb1b479	-0.34708002
5	0x3d1d7a6a	0.03844682
6	0x3d829c20	0.06377435
7	0x3e127cbb	0.14305393

running_var f4 [8]
0	0x3ee1b7f8	0.4408567
1	0x3e45c8fb	0.19314949
2	0x3e576913	0.21036176
3	0x3e204383	0.15650754
4	0x3dcf05e1	0.10108543
5	0x3e0944db	0.13405173
6	0x3e9042e9	0.28176048
7	0x3ea8fad1	0.33003858

weight f4 [8, 8, 3]
0	0xbdbe24cd	-0.09284363
1	0xbe5da583	-0.21645169
2	0xbd79f59b	-0.061025243
3	0xbd02c6c1	-0.031927828
4	0x3d3e810b	0.046509784
5	0x3c01364b	0.00788648
6	0x3e33b1e9	0.17548336
7	0x3e7f4eca	0.249324
8	0xbe709eaa	-0.23498026
9	0x3dbfa7de	0.0935819
10	0x3dd0983d	0.10185287
11	0xbd980511	-0.07422841
12	0xbe1d48dc	-0.15359825
13	0x3e4153b0	0.1887958
14	0x3e999cf5	0.3000256
15	0x3de036cb	0.10947951
16	0xbdb847f1	-0.08998097
17	0xbd7b8069	-0.06140176
18	0xbe106e49	-0.1410457
19	0xbde2d57c	-0.11075875
20	0x3cd4700c	0.025932334
21	0xbe04456f	-0.12917112
22	0x3d5efae3	0.054438483
23	0x3ac90d59	0.0015339061
24	0xbdbafa32	-0.09129752
25	0xbdc7d370	-0.097571254
26	0x3e98cb5a	0.29842645
27	0xbe01d12c	-0.12677449
28	0x3e14ad68	0.14519274
29	0xbd97a535	-0.074045576
30	0xbe72a4c4	-0.23695666
31	0x3e452945	0.19254024
32	0x3e298300	0.16553879
33	0x3e7f1dd6	0.24913725
34	0x3c8ba061	0.017044248
35	0x3e15512c	0.14581746
36	0xbdc7041f	-0.09717583
37	0x3d18d393	0.037311148
38	0x3cccbc08	0.024992004
39	0xbe50f4ce	-0.20405886
40	0x3d01f7a6	0.031730317
41	0x3df2483e	0.11830185
42	0x3e5058e0	0.20346403
43	0xbde4c771	-0.11170853
44	0xbe5e7bdb	-0.21726935
45	0xbe0e574b	-0.13900487
46	0xbe42db4c	-0.19028968
47	0x3e5a4cc7	0.2131835
48	0xbe0cfceb	-0.13768356
49	0xbda95e56	-0.08269946
50	0xbdeb72f2	-0.114965335
51	0xbe0fcf94	-0.14044029
52	0xbd97f238	-0.074192464
53	0xbe355b75	-0.1771067
54	0x3dc7627e	0.09735583
55	0xbd6e491f	-0.058175202
56	0x3d1c5cf7	0.038174596
57	0xbe379030	-0.17926097
58	0xbd94ad5b	-0.072596274
59	0xbd1f3a94	-0.038874224
60	0x3e559d91	0.20860888
61	0x3e276e2e	0.16350624
62	0x3e2d1a01	0.16904451
63	0xbdd1fd6f	-0.10253417
64	0x3d32679f	0.043555852
65	0xbda97ca3	-0.08275726
66	0x3dd648d8	0.104631126
67	0x3e0326ff	0.12807845
68	0x3e37a4dd	0.17933984
69	0x3d941ee8	0.072324574
70	0x3bb64cc1	0.005563349
71	0xbce3bb75	-0.027799347
72	0x3dd8314f	0.1055628
73	0xbdb71c33	-0.089409254
74	0x3e8641a5	0.26221958
75	0xbd23201b	-0.03982554
76	0x3e2ef65e	0.17086169
77	0xbe163173	-0.14667301
78	0x3dc9ace5	0.0984743
79	0x3d18ee35	0.037336547
80	0xbd754a35	-0.059885222
81	0xbd1968c1	-0.037453417
82	0x3e0a5aea	0.13511243
83	0xbdec857c	-0.115488976
84	0x3c4320f5	0.011909713
85	0xbe41f094	-0.1893943
86	0x3d92368a	0.07139309
87	0x3cff149a	0.031137753
88	0x3e26b84a	0.16281238
89	0x3e230c4e	0.15922663
90	0x3e0f91ed	0.1402051
91	0xbe1e57d0	-0.15463185
92	0xbcf406a7	-0.029788328
93	0xbdb55a22	-0.08855082
94	0x3c3f2129	0.011665621
95	0x3d9a5b56	0.07536952
96	0xbd0ceffd	-0.03440856
97	0xbd4f53af	-0.050616916
98	0xbeab4dde	-0.33457845
99	0xbd989a84	-0.074513465
100	0x3d53ed9f	0.051740285
101	0x3dc71f5f	0.097227804
102	0xbdbee06a	-0.09320147
103	0x3e4b1692	0.19832829
104	0xbd8c9e15	-0.06866089
105	0xbe3f54d3	-0.18684702
106	0xbded531c	-0.115881175
107	0xbdfe1b50	-0.12407553
108	0x3d554645	0.052068967
109	0xbe379684	-0.17928511
110	0xbe8a0f5d	-0.26964846
111	0xbe1b1970	-0.15146422
112	0xbd039e3d	-0.03213333
113	0xbe207699	-0.15670241
114	0x3e1ca436	0.15297017
115	0xbdbdd83a	-0.092697576
116	0x3dbb5b9c	0.091483325
117	0x3db796a3	0.089642785
118	0xbdea8ed6	-0.11453025
119	0xbe03f3e0	-0.12886
120	0xbd89cfc6	-0.06729083
121	0x3e11d5b5	0.14241679
122	0x3d23bad5	0.0399731
123	0x3e353a30	0.17697978
124	0xbd99f4ed	-0.07517419
125	0xbd958f95	-0.07302777
126	0xbe0e6e6a	-0.13909307
127	0x3e2e5ead	0.17028303
128	0xbe6d8768	-0.23196185
129	0x3c14d9c0	0.009085119
130	0xbdb51f6e	-0.08843885
131	0xbb0a0ca5	-0.0021064666
132	0xbdf61615	-0.120159306
133	0xbd578e39	-0.05262587
134	0x3ea02b6b	0.31283125
135	0x3d264593	0.040593695
136	0xbdcaf5a7	-0.09910136
137	0x3e46a0c4	0.19397265
138	0xbe67a4f5	-0.2262152
139	0x3da39fb2	0.07989444
140	0x3e78f4b3	0.24312095
141	0xbe4cc359	-0.19996394
142	0xbcbc0a7d	-0.02295422
143	0x39e3ef0c	0.00043474918
144	0xbe7082aa	-0.23487344
145	0x3d0e7ae6	0.034785174
146	0x3e420ea5	0.18950899
147	0xbd844600	-0.06458664
148	0x3b76e66c	0.0037673963
149	0xbd8cf9ef	-0.068836085
150	0xbdbab570	-0.09116638
151	0xbcfd568d	-0.03092506
152	0xbd805cbc	-0.06267688
153	0x3cb2b261	0.021813573
154	0x3dbaf327	0.09128409
155	0xbe9b6572	-0.30350834
156	0xbdff172d	-0.12455592
157	0xbde76a3e	-0.11299561
158	0xbc704b66	-0.014666414
159	0xbe372c3e	-0.17887971
160	0x3cdad75b	0.026714018
161	0x3dcd4a81	0.10023976
162	0xbe28670e	-0.16445562
163	0xbce7a082	-0.028274778
164	0x3d1f0d08	0.038830787
165	0x3dbf41a5	0.093386926
166	0xbdf0bb00	-0.117544174
167	0x3e3a3292	0.18183354
168	0xbbe08af6	-0.006852503
169	0xbc92d70d	-0.01792481
170	0xbd55f40a	-0.052234687
171	0x3e39c930	0.18143153
172	0x3e685bc6	0.22691259
173	0x3d97b989	0.07408435
174	0xbe6a0e94	-0.22857124
175	0xbcde7a56	-0.027157944
176	0x3e39c850	0.1814282
177	0x3e98d1d0	0.29847574
178	0x3dd7142f	0.105018966
179	0xbd85af95	-0.0652763
180	0x3e1c817a	0.15283766
181	0xbdadc6e1	-0.08485199
182	0x3e3e4c9d	0.18583913
183	0x3d74acf9	0.059735272
184	0x3e14b9f5	0.14524062
185	0xbda5813f	-0.08081292
186	0x3dfc23ac	0.12311491
187	0xbdc47b12	-0.09593786
188	0xbda76255	-0.08173052
189	0xbc4dd8e9	-0.012563922
190	0x3e611cb6	0.21983609
191	0x3d08c3fa	0.033390023

bias f4 [8]
0	0xbe56ceda	-0.20977345
1	0x3c76a34f	0.015053584
2	0xbe1406be	-0.14455697
3	0x3cf3a6ab	0.02974256
4	0xbe3562f7	-0.17713533
5	0x3e172c05	0.14762886
6	0x3aeefd80	0.0018233508
7	0xbe4df5f2	-0.20113352

weight f4 [8]
0	0x3f747696	0.9549345
1	0x3f83b22a	1.0288746
2	0x3f7acedd	0.979719
3	0x3f81305d	1.0092884
4	0x3f87158d	1.0553452
5	0x3f77cf24	0.96800447
6	0x3f7ae193	0.9800045
7	0x3f81ac25	1.0130659

bias f4 [8]
0	0x3dfbcc6f	0.12294852
1	0xbd206c20	-0.039165616
2	0x3d5d7db2	0.05407495
3	0x3de5d8f6	0.11223023
4	0x3e4a0c7b	0.19731323
5	0x3e31ec96	0.17375407
6	0x3e590c9b	0.21196215
7	0xbe27fee7	-0.16405831

running_mean f4 [8]
0	0xbe22ab54	-0.15885669
1	0x3dca3dff	0.09875106
2	0xbb185cde	-0.0023248713
3	0x3e45e738	0.19326484
4	0xbf4f5b58	-0.80998755
5	0x3e5e0281	0.21680643
6	0xbea009c3	-0.31257448
7	0x3e3e8d2d	0.18608542

running_var f4 [8]
0	0x3e2c550e	0.16829321
1	0x3e80bb08	0.25142694
2	0x3f09296b	0.53578824
3	0x3e548d7b	0.20757096
4	0x3f0b98a8	0.5452981
5	0x3e2170ae	0.1576564
6	0x3e0aa1c5	0.13538273
7	0x3f00c082	0.50293744

weight f4 [8, 8, 3]
0	0x3e09b12a	0.13446489
1	0x3e643978	0.22287548
2	0xbe02187a	-0.1270465
3	0x3bfac7f0	0.007653229
4	0xbe3b283f	-0.18277071
5	0xbdf3c763	-0.119032644
6	0x3d5b4a4d	0.053537656
7	0x3dd8c99c	0.10585329
8	0xbd0183bf	-0.031619783
9	0xbdf626e2	-0.12019135
10	0xbc393f54	-0.0113066025
11	0xbe420921	-0.18948795
12	0xbc2494a2	-0.010045202
13	0xbde997e7	-0.11405926
14	0xbe37d47f	-0.17952155
15	0xbe347f38	-0.17626655
16	0x3e7ea172	0.24866274
17	0x3d4bf4d6	0.04979404
18	0x3ac4c978	0.0015013656
19	0x3e599056	0.21246466
20	0xbe408971	-0.1880243
21	0xbe2332e0	-0.15937376
22	0x3e1a75e1	0.1508403
23	0xbdb4b469	-0.08823473
24	0xbd1966a9	-0.03745142
25	0xbd50d1e3	-0.050981414
26	0x3e9c5eb1	0.30540994
27	0x3dfb5f8d	0.12274084
28	0xbe187748	-0.14889252
29	0x3d9f928c	0.077916235
30	0xbe5657ed	-0.20931979
31	0xbe047b7f	-0.12937735
32	0xbd4e3708	-0.05034545
33	0x3ce7dcb6	0.028303485
34	0x3c8c2d82	0.017111544
35	0xbe2eee68	-0.17083132
36	0xbd81c119	-0.063356586
37	0x3c476759	0.012170636
38	0xbe5da4c2	-0.21644881
39	0xbdcb5471	-0.09928215
40	0x3e5dfaae	0.21677658
41	0x3d9041bc	0.07043788
42	0x3c13ca20	0.009020358
43	0xbca80cf4	-0.020513989
44	0xbe1641d6	-0.14673552
45	0xbd5ca7a6	-0.05387082
46	0xbe3a81ce	-0.18213579
47	0xbe1f55b0	-0.15560031
48	0x3df08a34	0.1174511
49	0xbc75ed73	-0.015010226
50	0xbd39065d	-0.045172084
51	0x3cea4c6d	0.028600896
52	0x3d81a844	0.06330922
53	0xbe9bc038	-0.3042009
54	0xbb8ead50	-0.0043541566
55	0xbe83c1da	-0.25733835
56	0xbe024786	-0.12722597
57	0x3e879025	0.2647716
58	0x3cc024a5	0.023454973
59	0xbcc5da7d	-0.024152035
60	0xbd7a2e67	-0.06107941
61	0xbe37ff68	-0.17968524
62	0xbe5a9eb0	-0.21349597
63	0xbdb399c4	-0.08769563
64	0xbd07eb9b	-0.033183675
65	0xbe1940c5	-0.14966114
66	0x3e5b11a6	0.21393451
67	0xbdf40833	-0.119156264
68	0xbda6c03b	-0.08142134
69	0x3b899ac4	0.0041993577
70	0x3e35a16d	0.1773736
71	0xbbfb8782	-0.007676066
72	0xbe27522b	-0.16339938
73	0xbe3eae61	-0.18621208
74	0x3c028a1f	0.007967501
75	0x3d2599cb	0.04042987
76	0xbe668890	-0.22513032
77	0xbe9bbbd0	-0.30416727
78	0xbe77784e	-0.24166986
79	0x3d25b215	0.040453035
80	0xbe79a676	-0.24379906
81	0x3b87ca80	0.004144013
82	0x3dda2666	0.10651855
83	0xbda926b7	-0.082593374
84	0x3d7ac4a0	0.061222672
85	0x3dd97cee	0.106195316
86	0xbeaab22f	-0.33339068
87	0x3e1acf0a	0.15118042
88	0x3e245953	0.160497
89	0x3e12b94d	0.14328499
90	0x3e806076	0.25073594
91	0xbdcb4da8	-0.09926921
92	0xbe5d6712	-0.2162135
93	0x3e44856e	0.19191524
94	0x3dfabd10	0.12243092
95	0x3c0f1847	0.0087338155
96	0xbd95749a	-0.072976306
97	0x3e4f620b	0.20252244
98	0xbca2fa7f	-0.019894836
99	0x3e235f08	0.1595422
100	0x3d313ff9	0.0432739
101	0x3c53296c	0.012888294
102	0xbe57ab23	-0.21061377
103	0xbd2f07b3	-0.042731952
104	0x3e6b2149	0.22961916
105	0xbe664d70	-0.22490478
106	0xbe081ebf	-0.13292979
107	0xbe1bbdab	-0.15209071
108	0x3df5158b	0.119669996
109	0x3e1ea9df	0.15494488
110	0xbdf9c404	-0.1219559
111	0x3da860b5	0.082215704
112	0x3e3fed2f	0.18742822
113	0x3e03ba6d	0.12864085
114	0xbde284f6	-0.110605165
115	0x3e934e59	0.28770712
116	0xbe3be845	-0.18350323
117	0x3ce6cb2c	0.028173052
118	0xbac82ea0	-0.0015272684
119	0xbe1fb623	-0.15596823
120	0xbd9d76f1	-0.07688702
121	0x3d9cd2cf	0.07657396
122	0x3da851e7	0.08218747
123	0x3e049722	0.12948278
124	0x3cf2f0d6	0.029655855
125	0xbe5c66c0	-0.21523571
126	0x3d5ad948	0.05342987
127	0xbe1d3a05	-0.15354164
128	0x3e0f3788	0.13986027
129	0x3e3aef96	0.18255457
130	0xbddea8e3	-0.10872056
131	0xbe45dc62	-0.1932235
132	0xbe6f7b44	-0.23386866
133	0xbe7646e9	-0.24050488
134	0xbe70a93e	-0.23502061
135	0xbe23c706	-0.1599389
136	0x3d8dcc58	0.06923741
137	0xbd7f1552	-0.062276192
138	0x3e4a8840	0.19778538
139	0xbe0bebaa	-0.13664117
140	0x3e0bc90d	0.13650914
141	0x3c5f4df8	0.013629429
142	0x3db5e6a3	0.08881881
143	0xbe7a375d	-0.24435182
144	0x3da5c79f	0.08094715
145	0x3e177854	0.14791995
146	0x3e2f1285	0.17096908
147	0xbd2a5557	-0.041585293
148	0xbdcbfc4b	-0.099602304
149	0xbe3a3f10	-0.18188119
150	0x3dcac1a1	0.09900213
151	0x3d63896f	0.05555099
152	0x3df5f93d	0.12010429
153	0x3e5aeafb	0.213787
154	0xbe0037f3	-0.12521343
155	0xbea65d1b	-0.3249291
156	0x3d818871	0.06324852
157	0x3e01407c	0.12622255
158	0xbc952b54	-0.018209137
159	0x3b40d1ed	0.0029422
160	0x3e6a7ad2	0.22898415
161	0x3d4c4c04	0.04987718
162	0x3cc55b38	0.024091348
163	0x3cd243d6	0.025667112
164	0xbe4ffdb4	-0.20311624
165	0x3cc09e41	0.023512961
166	0xbe511c56	-0.20420966
167	0xbe90fe85	-0.28319183
168	0xbd6c10dd	-0.05763327
169	0x3dca38d4	0.0987412
170	0xbe2cd2e5	-0.16877325
171	0x3d7e14b3	0.06203146
172	0x3d87e33a	0.06635137
173	0x3b6f45c1	0.0036510082
174	0xbe0b97c0	-0.13632107
175	0xbe156924	-0.14590889
176	0xbdb688a1	-0.08912779
177	0x3e3237ca	0.17404094
178	0xbdd1a75c	-0.102369994
179	0x3e0bb4bf	0.13643168
180	0xbe837593	-0.2567564
181	0x3dbb53e4	0.0914686
182	0xbeac697b	-0.33674225
183	0xbe1488e2	-0.14505342
184	0x3e2f9c2d	0.1714942
185	0xbd7c7403	-0.061634075
186	0x3d836477	0.064156465
187	0xba0f688a	-0.00054705946
188	0xbd92cdc8	-0.07168156
189	0x3b808157	0.0039216685
190	0xbe81fe0b	-0.25389132
191	0xbe5020a5	-0.20324953

bias f4 [8]
0	0x3ada200b	0.001664163
1	0x3dc2a347	0.09503799
2	0x3e25f841	0.16207983
3	0xbca80e6d	-0.020514691
4	0x3e078d13	0.1323741
5	0xbd1ded22	-0.038556226
6	0xbd24aea9	-0.04020563
7	0xbd6a2785	-0.057166595

weight f4 [8]
0	0x3f44c5d7	0.7686438
1	0x3f45f44d	0.773259
2	0x3f529023	0.82251185
3	0x3f54b718	0.8309188
4	0x3f40be7b	0.7529065
5	0x3f5dc1a0	0.86623573
6	0x3f42948b	0.7600791
7	0x3f7f7c59	0.99799114

bias f4 [8]
0	0xbdd4c385	-0.10388855
1	0xbe280e9d	-0.16411825
2	0xbded5753	-0.115889214
3	0xbd8679c6	-0.06566195
4	0xbde73620	-0.112896204
5	0xbd482b4e	-0.048869424
6	0xbe3373f5	-0.17524703
7	0xbdd0ee45	-0.10201696

running_mean f4 [8]
0	0xbe2ce768	-0.1688515
1	0xbe4ff11a	-0.20306817
2	0xbe3dd684	-0.18538862
3	0xbe84c25c	-0.25929534
4	0x3e718621	0.23586322
5	0xbecfac50	-0.40561152
6	0x3d5ec1a4	0.05438389
7	0xbef8f114	-0.48621428

running_var f4 [8]
0	0x3e93c265	0.2885925
1	0x3e5113c7	0.204177
2	0x3ea5f1fd	0.32411185
3	0x3e60fd83	0.21971707
4	0x3e36f9e1	0.17868759
5	0x3ea36bd6	0.3191821
6	0x3f4b86be	0.79502475
7	0x3e5e5d2e	0.21715233

weight f4 [128, 25]
0	0xbd5846fa	-0.052802064
1	0x3e0b476d	0.13601466
2	0x3d1b4a74	0.0379128
3	0xbcc09a59	-0.023511099
4	0xbcb201af	-0.021729318
5	0xbd5c02fe	-0.05371379
6	0xbdfbbffd	-0.12292478
7	0xbd95e749	-0.07319505
8	0x3e2189f9	0.15775289
9	0x3dd9bd99	0.10631866
10	0x3e00f5fb	0.12593834
11	0xbd95bbc3	-0.07311203
12	0xbca6f643	-0.020381099
13	0xbbb2b48c	-0.005453652
14	0x3d4077fe	0.046989433
15	0x3cea87fb	0.028629294
16	0x3c6b634a	0.014366934
17	0x3e63bf29	0.2224089
18	0x3cfae39e	0.030626114
19	0x3db201cb	0.08691748
20	0xbe69f1e3	-0.22846179
21	0xbe503405	-0.20332344
22	0xbde36f07	-0.11105161
23	0xbe58b0c6	-0.21161184
24	0x3e32c2b4	0.17457086
25	0xbc9663f9	-0.018358218
26	0x3e573693	0.21016912
27	0x3d77d39d	0.060504545
28	0x3e4ad568	0.1980797
29	0xbb7adb1c	-0.0038277572
30	0x3d6e50b8	0.05818245
31	0x3dc128d8	0.094316185
32	0xbe0f4fdf	-0.13995312
33	0xbd4c6b1f	-0.049906846
34	0x3d4e5fbc	0.05038427
35	0x3dd1827b	0.10229965
36	0xbe0f4221	-0.1399007
37	0xbe20d060	-0.15704489
38	0xbdf7fd06	-0.12108807
39	0xbde5aaa7	-0.1121419
40	0x3dd22e04	0.10262683
41	0x3da19c1a	0.07891102
42	0xbcebf3c8	-0.028802767
43	0x3cf0640b	0.02934458
44	0x3e42566b	0.18978278
45	0xbe49a411	-0.19691493
46	0xbe306f00	-0.17229843
47	0xbe88f34e	-0.26748127
48	0xbe0850f8	-0.13312137
49	0xbd0bbd1e	-0.034115903
50	0x3dadf337	0.08493655
51	0xbc25c418	-0.010117553
52	0x3df4951a	0.11942501
53	0xbd53d98c	-0.05172114
54	0x3d952f7b	0.07284447
55	0x3db20253	0.086918496
56	0x3e58054e	0.21095774
57	0xbcf949af	-0.030430643
58	0xbdb102c2	-0.08643104
59	0xbe2b0801	-0.16702272
60	0xbcaa08dc	-0.020756178
61	0xbea43672	-0.32072788
62	0xbe30556a	-0.17220083
63	0xbdf47870	-0.11937034
64	0x3d846515	0.06464592
65	0x3e0457a3	0.12924056
66	0x3c8260c7	0.015915288
67	0xbe4d82bf	-0.20069407
68	0x3e118358	0.1421026
69	0x3de30344	0.11084607
70	0xbe83200f	-0.25610396
71	0xbd60a62c	-0.054845974
72	0xbcaa66d0	-0.020800978
73	0x3d7a47e6	0.061103724
74	0xbe81bfaa	-0.2534154
75	0xbd99154e	-0.07474767
76	0xbe470f71	-0.19439484
77	0xbe8d1591	-0.27555516
78	0xbe71495e	-0.23563144
79	0x3e2cc5ca	0.16872326
80	0x3ca6ff05	0.020385275
81	0xbe80d28b	-0.25160632
82	0xbdfef819	-0.124496646
83	0xbe4a64b2	-0.19764975
84	0xbd6d8693	-0.057989668
85	0xbe89c29d	-0.2690629
86	0xbeca58c8	-0.3952086
87	0x3e1fcbb4	0.1560505
88	0xbe871432	-0.26382595
89	0x3d6016df	0.05470931
90	0x3dd31c11	0.103080876
91	0x3d7ef9b6	0.06224986
92	0x3e37b49d	0.17939992
93	0xbc1da968	-0.009622909
94	0xbe21e462	-0.15809777
95	0xbe87a319	-0.2649162
96	0x3e61f5d1	0.22066428
97	0x3d8348ae	0.06410347
98	0xbe716d6d	-0.23576899
99	0x3d8de22e	0.06927906
100	0xbe2050b6	-0.15655789
101	0xbdb0a3af	-0.0862497
102	0xbdfb06fd	-0.12257192
103	0xbe28c2fd	-0.16480632
104	0xbe44620e	-0.1917803
105	0x3d0b5c02	0.034023292
106	0xbe9fd240	-0.31215096
107	0xbd9a4f44	-0.0753465
108	0xbe7c30d4	-0.24628001
109	0x3d09ed72	0.03367371
110	0x3e280c8f	0.1641104
111	0xbe326dd3	-0.17424707
112	0xbe81a26d	-0.25319234
113	0x3cda187a	0.026623
114	0x3d9133a7	0.0708993
115	0x3e0cdf7a	0.13757125
116	0x3dc6f24b	0.097141825
117	0xbebe5054	-0.3717066
118	0x3da869f1	0.08223332
119	0xbd92b967	-0.07164269
120	0x3e46b64e	0.19405481
121	0x3e643f3e	0.2228975
122	0x3cc38ba1	0.023870291
123	0xbd9b68c0	-0.07588339
124	0x3db5f6d5	0.0888497
125	0xbe29f298	-0.16596448
126	0x3e2dad08	0.16960537
127	0x3e19dbfa	0.1502532
128	0xbceb6687	-0.028735412
129	0x3e6c10b6	0.2305325
130	0xbe3314eb	-0.17488448
131	0xbc6d0ba7	-0.01446811
132	0x39dc366c	0.00042002217
133	0xbc9dfaf3	-0.019284701
134	0x3e7f7f8c	0.24950999
135	0x3e2c9dab	0.1685702
136	0xbe6d5f86	-0.2318097
137	0x3e4221cb	0.18958203
138	0xbdeb41a1	-0.11487127
139	0x3da675e1	0.08127952
140	0xbe6a8866	-0.22903594
141	0x3e3e7c50	0.18602109
142	0xbddbf836	-0.10740702
143	0x3df6965c	0.120403975
144	0x3db088a6	0.086198136
145	0xbc6900aa	-0.01422135
146	0xbd392fbb	-0.045211535
147	0xbdcef68a	-0.10105617
148	0x3e0c115e	0.136785
149	0xbe20bf24	-0.15697914
150	0xbe761b1f	-0.24033783
151	0xbd794a6b	-0.060861986
152	0xbe3732b0	-0.1789043
153	0xbebc0294	-0.36720717
154	0xbcef5a7e	-0.029217955
155	0xbd74ba74	-0.059748128
156	0x3d8aa880	0.0677042
157	0xbd544f58	-0.05183348
158	0xbd449f3b	-0.048003417
159	0x3e17381a	0.14767495
160	0x3e2ae7c1	0.1668997
161	0xbd7169c6	-0.058938764
162	0xbc847541	-0.016169192
163	0xbcbe3894	-0.023220338
164	0x3e2648a2	0.16238645
165	0x3db85078	0.08999723
166	0x3daf0a7e	0.08546923
167	0x3daff62a	0.08591874
168	0xbe340cdd	-0.17583032
169	0x3cd45f27	0.025924278
170	0xbd33a974	-0.043862775
171	0xbd210d3e	-0.03931927
172	0x3e877d51	0.26462796
173	0x3df362fe	0.11884116
174	0xbe41256d	-0.18861933
175	0xbe72622c	-0.23670262
176	0xbd88eba2	-0.066855684
177	0x3e23fc18	0.16014135
178	0x3e4402cf	0.19141696
179	0x3e1569ec	0.14591187
180	0xbcc8cda0	-0.024512112
181	0x3e4c8663	0.1997314
182	0x3e621b03	0.22080617
183	0xbe88dc77	-0.267307
184	0xbd444d6c	-0.047925398
185	0xbd927a19	-0.071521945
186	0xbe7673af	-0.24067567
187	0xbd327e8e	-0.043577723
188	0xbe8b07bc	-0.27154338
189	0xbde680c5	-0.112550296
190	0x3d88c9ca	0.06679113
191	0xbe07ead0	-0.13273168
192	0x3d74c412	0.0597573
193	0xbd958db8	-0.07302421
194	0x3db73015	0.08944718
195	0xbd8ed986	-0.06975083
196	0xbded5db2	-0.115901366
197	0xbe213c4f	-0.15745662
198	0x3e792d66	0.24333724
199	0xbe7f2a78	-0.24918544
200	0x3d3d9809	0.04628757
201	0xbea0cc6b	-0.3140596
202	0xbea28b63	-0.3174697
203	0x3de2d018	0.11074847
204	0xbe86a813	-0.26300105
205	0x3e564ab8	0.2092694
206	0x3dc70273	0.09717264
207	0x3d8a3d40	0.06749964
208	0xbc54c36f	-0.012986048
209	0xbc87313d	-0.01650297
210	0x3e6be973	0.23038273
211	0x3d9fdc03	0.07805636
212	0x3d7298e8	0.059227854
213	0xbe5380e8	-0.20654643
214	0xbcd61fc8	-0.026138201
215	0xbe3cd68d	-0.1844122
216	0xbe479a55	-0.19492467
217	0x3e615a60	0.22007132
218	0xbcd77785	-0.026302109
219	0xbd84e12e	-0.06488262
220	0x3db2fc4f	0.0873953
221	0x3e842f9d	0.25817576
222	0x3cf884a1	0.03033668
223	0xbe6c4cec	-0.23076218
224	0xbe9100b4	-0.2832085
225	0x3ccbe47c	0.024889223
226	0x3dd2e6c0	0.10297918
227	0x3e21d31c	0.15803188
228	0xbef53c52	-0.47897583
229	0xbddadd9c	-0.106868
230	0xbe218cb3	-0.15776329
231	0xbe25b5c2	-0.16182616
232	0x3e4bcdcf	0.19902728
233	0xbd3825ee	-0.044958048
234	0xbd0a0c7c	-0.033703312
235	0xbd8a9133	-0.06765976
236	0xbe3feddc	-0.1874308
237	0x3b437627	0.0029825063
238	0x3d480749	0.048835073
239	0x3e254edb	0.16143362
240	0x3b083a0e	0.0020786556
241	0xbdaa107c	-0.083039254
242	0xbe5f1c1b	-0.21788065
243	0xbd3d5fbf	-0.04623389
244	0x3ec8e349	0.39235905
245	0x3d92dd50	0.07171118
246	0x3d80c483	0.06287482
247	0x3df7a1ea	0.120914295
248	0x3cca5e41	0.024703147
249	0x3d8bb470	0.06821525
250	0x3d886c4a	0.066612795
251	0x3d3a3eaf	0.045469936
252	0x3e13e6d1	0.14443518
253	0xba93c5d5	-0.0011274169
254	0xbd7bfee2	-0.061522372
255	0xbd55c41a	-0.05218897

bias f4 [128]
0	0x3cf393a0	0.029733479
1	0x3e411b09	0.1885797
2	0x3e2ed44d	0.17073174
3	0x3d9fca90	0.078023076
4	0x3c8b94f4	0.0170388
5	0xbde5eb46	-0.112265155
6	0xbdccdb96	-0.1000282
7	0x3e33dd4d	0.17564888
8	0x3d1d89b8	0.038461417
9	0x3d7084b6	0.058720313
10	0x3dee10bb	0.11624285
11	0x3e475d71	0.19469239
12	0x3d2fd784	0.04293014
13	0x3c7c24cb	0.0153896315
14	0x3e017df3	0.12645702
15	0xbe2739b0	-0.163306
16	0xbdfde729	-0.12397606
17	0x3e1586c7	0.14602195
18	0x3e111d86	0.14171419
19	0x3e11960c	0.14217395
20	0xbe012a11	-0.12613703
21	0xbdae3a46	-0.085072085
22	0xbca49bf4	-0.020093895
23	0xbdb1ff33	-0.086912535
24	0xbc26bedc	-0.01017734
25	0x3e60a897	0.21939312
26	0x3d7ebadb	0.062189918
27	0x3d49d93d	0.04927944
28	0x3cb002ca	0.021485705
29	0x3e4447d7	0.1916803
30	0x3d10d966	0.035363577
31	0xbe60f33c	-0.21967787
32	0x3e5e45a2	0.2170625
33	0xbdf64d9d	-0.12026522
34	0xbb755602	-0.0037435298
35	0x3d8f026e	0.06982885
36	0x3dab3104	0.08358958
37	0x3d2aa823	0.041664254
38	0xbd29646e	-0.041355543
39	0xbd89d571	-0.06730164
40	0x3d04e834	0.03244801
41	0x3da808c7	0.08204799
42	0xbe2bc982	-0.16776088
43	0xbd928306	-0.07153897
44	0x3cd4841b	0.025941899
45	0x3da0e617	0.07856386
46	0xbd8bd392	-0.06827463
47	0x3e36ddac	0.17857999
48	0x3e16591f	0.14682434
49	0x3df2de78	0.11858839
50	0xba30d0f8	-0.0006745006
51	0xbe0aee7b	-0.13567536
52	0xbd84a3d9	-0.06476564
53	0x3d9ba5ba	0.07599969
54	0xbdc2830e	-0.09497653
55	0xbb66d2f1	-0.0035220946
56	0x3da319b4	0.07963887
57	0x3da949a5	0.08266
58	0x3b9fbf8a	0.004875128
59	0x3da2b6f4	0.07945052
60	0xbd216c93	-0.039410185
61	0x3d9fe9fc	0.07808301
62	0xbe00ef5c	-0.12591308
63	0x3dc1e536	0.09467547
64	0x3e11e7ae	0.14248535
65	0x3e35c1ac	0.17749661
66	0x3dd652e0	0.10465026
67	0x3e83c214	0.25734007
68	0xbdf5132b	-0.119665466
69	0x3dc472d1	0.09592212
70	0x3db46909	0.08809096
71	0xbd1ad54a	-0.037801065
72	0xbe23d600	-0.15999603
73	0x3cf8191c	0.03028541
74	0xbc84ac7f	-0.016195534
75	0x3e64d7c6	0.22347936
76	0xbe249f58	-0.1607641
77	0xbd178745	-0.036994237
78	0xbcbce94c	-0.023060463
79	0xbce7be6f	-0.028289048
80	0x3d92774a	0.07151659
81	0x3db9df96	0.09075849
82	0x3d6ee66c	0.058325216
83	0x3df2dc84	0.11858466
84	0x3d19ffe7	0.037597563
85	0xbde5d06e	-0.112213954
86	0xbe0cba82	-0.13743022
87	0xbd9b7a12	-0.075916424
88	0x3b9adb6a	0.004725863
89	0x3d19710c	0.037461326
90	0x3c8c0af8	0.017095074
91	0x3d12f45f	0.03587758
92	0x3d9d7320	0.07687974
93	0x3c5375e0	0.012906522
94	0x3d6642f5	0.0562162
95	0xbc3ff5da	-0.01171633
96	0x3e669bea	0.22520414
97	0xbe091d98	-0.13390195
98	0x3e117141	0.14203359
99	0x3e186a34	0.14884263
100	0x3e781650	0.24227262
101	0xbc8f044f	-0.01745811
102	0xbe32c656	-0.17458472
103	0x3d2f178c	0.042747065
104	0xbd758c47	-0.059948232
105	0xbdaff9d2	-0.08592571
106	0x3d346258	0.0440391
107	0x3da8189d	0.082078196
108	0x3d8982ee	0.06714426
109	0x3dbf742e	0.093483314
110	0xbd065839	-0.03279898
111	0x3d5b28c8	0.05350569
112	0x3e48621f	0.1956868
113	0xbbf137e2	-0.007361398
114	0xbd99db67	-0.07512551
115	0x3e205757	0.15658318
116	0x3b7f0306	0.0038911714
117	0x3d93f30c	0.07224092
118	0x3e1ad151	0.1511891
119	0xbcf4b83d	-0.029873008
120	0x3b916497	0.00443704
121	0x3d4f4e13	0.050611567
122	0x3cdbf507	0.026850237
123	0x3d80d368	0.062903225
124	0xbbe356e7	-0.00693785
125	0x3bac19a8	0.005252082
126	0x3da8451a	0.08216305
127	0x3e08f973	0.13376407
