nn/checkpoints/main_material/8/model_30.pt (torch, 451442 bytes, 98 tensors)

weight f4 [8, 5, 3]
00000000: 8413 703e b023 14be 55f2 59be cc70 013d
00000010: 5ffa 1fbe 05f7 1b3d 4102 1abe 1f3b 87be
00000020: 103b 293d ffd6 863e 4812 163d af7d 1abe
00000030: f774 f63d fb59 423e 6f15 583e 4473 36be
00000040: b62d d53d 92e7 fc3d 2ee5 18bc 071f d8bc
00000050: 830e 753d 91c5 b6bd a42a 1a3e 5111 523e
00000060: fb6f 93bc 30ee 67be 4c9b 71bd fc10 08bd
00000070: 10f2 123e f573 8a3e 2f58 683d 09aa fbbd
00000080: c915 353e db59 46bd fd6c aabd c3f0 a53d
00000090: 4ff4 513e faa4 7e3d 72d1 61be ebd1 f2bd
000000a0: 2ea1 35be 9f46 86be 7b48 e0bd d668 343e
000000b0: a268 243d c7ec 53bd 7937 483e 6c05 20be
000000c0: 8351 55be 50b6 ee3d f611 75bd f4b7 4cbd
000000d0: 937c df3d c378 5b3e 3113 4abe a4a4 9e3b
000000e0: ee8b 6ebe 31ec 77bd f839 5bbe f046 33bd
000000f0: 67a4 7b3e 099f 46be c376 1c3e 17eb 06be
00000100: a052 153e b09b 30be 2a91 203e 3ce9 1b3e
00000110: 568d 6d3e 9c55 39be 461a e2bc f4c2 6a3b
00000120: 9907 bb3d c049 1abe e0f0 0ebe 7b3b 97bb
00000130: 71b6 f03d 80e8 453e 42a0 22bd 1b79 ec3d
00000140: 0ac5 74be b8b5 403e e3df 563e f277 32bd
00000150: 7bf7 85ba 4083 0abe f819 da3d bbcf 32bd
00000160: 5944 07be cfe4 debc fea4 2b3d 9281 833e
00000170: 85d8 9bbd f5f9 d2bd 9f79 fb3d f378 15be
00000180: 0228 03be 3f5a 7bbe 171a 613d f503 503e
00000190: 00ee 5bbe 8182 8d3e 6125 46bc 0753 65be
000001a0: d7d1 2dbe e633 8c3e 823b e13d 40f6 1a3e
000001b0: 0580 883e 6862 503e f261 41bd 66b0 e9bd
000001c0: f003 54be 4b1b 06be 2461 0bbe 07cf cf3d
000001d0: 7d19 4f3e 6573 953e 8816 363e 2978 31be
0.23444945 -0.14466739 -0.21283849 0.031601712 -0.15622853 0.038077373 -0.15039922 -0.26412293
0.041316092 0.26335904 0.036638528 -0.15087007 0.12034028 0.18979637 0.21101926 -0.17817408
0.10409109 0.12348856 -0.009331984 -0.026381982 0.059828293 -0.089244016 0.15055329 0.20514418
-0.017997732 -0.22649455 -0.058985993 -0.033219323 0.14350152 0.27041593 0.056724723 -0.12288291
0.17684092 -0.048425537 -0.08321569 0.08102562 0.20503353 0.062169053 -0.22052553 -0.11856445
-0.17737266 -0.26225755 -0.109513246 0.17618117 0.040138848 -0.05173948 0.19552411 -0.15627068
-0.20831876 0.11655867 -0.059831582 -0.04998012 0.109124325 0.21432786 -0.19733883 0.004841404
-0.23295566 -0.060527984 -0.21408832 -0.043768823 0.24574433 -0.19396605 0.15279679 -0.13175617
0.145823 -0.1724689 0.15680376 0.1522569 0.23198447 -0.18099064 -0.027600419 0.0035821768
0.091323085 -0.15067196 -0.13959074 -0.004615245 0.11753548 0.19326973 -0.039703615 0.115465365
-0.2390329 0.1881932 0.20983844 -0.04357142 -0.001022085 -0.1352663 0.106494844 -0.04365514
-0.13209666 -0.027208714 0.041905396 0.25684792 -0.07609657 -0.10301582 0.12279057 -0.1459692
-0.1280823 -0.24546145 0.05495652 0.2031401 -0.21477509 0.2763863 -0.012093873 -0.22394954
-0.16974579 0.27383345 0.10997678 0.15133 0.2666017 0.20350039 -0.04721255 -0.114105985
-0.20704627 -0.13096349 -0.13611275 0.10146909 0.20224567 0.29189602 0.17782032 -0.17330994

bias f4 [8]
00000000: 20f2 413e 4dbe 35be 5141 32be f642 c53d
00000010: c3da 0bbe 1eb0 203e e921 07be 0ec8 0e3e
0.1894002 -0.17748375 -0.17407729 0.096319124 -0.1365767 0.15692183 -0.1319653 0.13943502

weight f4 [8]
00000000: 061f 7d3f 8122 813f c509 7c3f 4af3 803f
00000010: f4ec 7b3f f7c4 763f ee8e 803f 3353 853f
0.98875463 1.0088655 0.9845241 1.0074246 0.98408437 0.96394295 1.0043619 1.0416015

bias f4 [8]
00000000: 206e 443c e033 513d 5062 04bd 66fb 483d
00000010: 1db3 463d fe07 9a3d 312d c63c 4708 e13c
0.0119891465 0.051074862 -0.03232032 0.049067877 0.04851066 0.07521056 0.02419147 0.027469767

running_mean f4 [8]
00000000: 290a 5f3e 1482 0b3d e855 b7be 6e96 55be
00000010: b1a8 2ebd 0c54 943e 98b2 99be f5f9 193f
0.2178122 0.0340596 -0.3580773 -0.20858166 -0.042641345 0.28970373 -0.3001907 0.6014703

running_var f4 [8]
00000000: ed1e 723e 2105 ae3e 4517 813e 4d6b 133f
00000010: 2444 163e 8be1 2f3e 71b7 a53e 7cac 713f
0.2364461 0.33988288 0.25213066 0.57585603 0.14674431 0.17175882 0.32366517 0.94403815

weight f4 [8, 8, 3]
00000000: d420 0bbd e4f6 9abd 605f 53bd 79a9 7c3d
00000010: d839 3b3e ae01 f33d a64b 49be b6f3 9c3d
00000020: 2ef6 acbd 28ef 583d ac96 2d3d f9a6 823d
00000030: fe51 01be 41c4 00be 3fa9 34be 0b3b ba3d
00000040: 662a 0e3e 2c57 ce3d 6526 ee3a 1950 93bc
00000050: a611 3ebe 1185 b03c 0964 a03d 57fc bc3d
00000060: 48b7 953d 27cd d83c b5d8 0b3e b67d 783c
00000070: 72f6 7c3d cf62 163e c2a0 a3bd b892 023d
00000080: 6249 033e 8b79 c93c 6801 32be 4549 80bd
00000090: 8d65 23be a668 d7bd 1595 13be 949b 23be
000000a0: b755 78be ca49 153e 8317 d3bc de5e 663e
000000b0: c63c f6b9 0f5b d4bc 8887 01bc 7256 e1bd
000000c0: 4d58 f9bd d5f1 cdbd cb2e 483e eafc 093e
000000d0: 052f 96bd 4dfe 073e 9179 3abe 36ed 25be
000000e0: 4d6a fb3d 3a1d 63be fa8e 583d 1e57 e2bd
000000f0: 05c5 b6bb cd23 02be 6aa2 ee3d f22c 23be
00000100: 9b9b d0bc 3918 8f3d 9349 10be a130 37be
00000110: 712a b83d ba47 c6bc b33d 11be cf95 e53d
00000120: 243f 763e c8b5 e73c 0cd0 22be 3f9c a13a
00000130: 615c ea3d 61c3 9d3b 0a7c 863d d315 c1bc
00000140: e3b6 95bd cdc2 1d3e 51de 87be 63db afbc
00000150: 3b66 623d 8dfc f13d 0d03 c2bd dbc6 bc3b
00000160: 163c 93bd fc1a 1f3e c2ca 1bbe 7e23 2bbe
00000170: e55e a33d 0248 af3d 8cc3 d4bd 6615 45be
00000180: a2eb c53d 0690 7cbd c080 fabd 9b2a ecbd
00000190: 7c65 a63d 9a6c ddbd 54bc 583e 365d bcbc
000001a0: f437 de3a 1322 3abd 2401 0e3e 0b45 b7bd
000001b0: cf5f 25be 2ef4 20bd bc78 e2bc 3cfd 47be
000001c0: 5e00 783d da39 6e3c dc59 4dbe 413a 0ebe
000001d0: 655f 40be c357 d83d 1ac1 1fbe fbfe 2bbd
000001e0: 5e5c 263e 930d 45be 0a85 443d 9f70 f53d
000001f0: b56f 0dbd fe74 4f3c dff0 f53d 3c23 e93d
00000200: 71ed 823d 3141 2a3e b445 93bc 9e19 353c
00000210: 329d 2c3e dae1 033e ae10 1dbe 3119 34be
00000220: ec72 89bd 3034 d53d 110d 5f3b 7bd9 cfbd
00000230: 8788 08bd b5f5 683e 9355 72bd cfd9 103e
00000240: 4e21 4ebd 7d35 b1bd 5f37 f9bd a857 7ebb
00000250: b282 7cbe a347 66bd bd28 fa3d ae69 1e3e
00000260: f67f 783b 79ff d6bd 1560 153e faaf eebb
00000270: 2d21 9fbd d6e5 f53d ad6b 66bd f471 b23d
00000280: c6f9 b5bd 15ee 8f3d 982f 003d 7834 3ebd
00000290: c51e e9bd c437 143e 5092 32be 89e0 76be
000002a0: f0b1 8e3d 108b 4a3d 5d05 74bd cf7d 45bb
000002b0: 42fb d8bd ff84 db3d 13ee d93d 94f7 20be
000002c0: 2287 c6bd 408c 203c 4349 3a3e 1fb8 c6bd
000002d0: 3001 9c3c 401f 343d 1f5b 41be f246 a33d
000002e0: 8b67 0bbe a5d9 bbbd b58e 4d3d b247 803d
000002f0: 102f 2abe 3e35 96bd c497 9dbb 6bdb 92bc
-0.033966854 -0.07566622 -0.05160463 0.06168506 0.18283784 0.11865555 -0.19657764 0.07663672
-0.084453925 0.052962452 0.04238002 0.06379504 -0.12628934 -0.12574865 -0.17642687 0.09093293
0.13883361 0.100752205 0.0018169401 -0.01798253 -0.1856142 0.021547826 0.0783158 0.092278175
0.07310349 0.026465012 0.13656886 0.015166691 0.061758466 0.1468613 -0.079896465 0.031878203
0.12820962 0.024594089 -0.17383349 -0.06263975 -0.15956707 -0.10518007 -0.14412339 -0.15977317
-0.24251448 0.1457893 -0.025768047 0.22497126 -0.00046966056 -0.025922326 -0.007905848 -0.11002816
-0.12175045 -0.100558914 0.195491 0.13475385 -0.07333187 0.13280602 -0.18210436 -0.1620377
0.12276135 -0.22179118 0.052870728 -0.110517725 -0.005577686 -0.1270897 0.11652072 -0.15935114
-0.025464823 0.06987042 -0.14090566 -0.17889644 0.0899247 -0.024204124 -0.14183693 0.11210214
0.24047524 0.028284922 -0.15899676 0.001232989 0.11443401 0.0048145507 0.06566627 -0.023569977
-0.073102735 0.15406342 -0.265368 -0.021466916 0.055273276 0.11815748 -0.09473238 0.00576101
-0.07189195 0.15537637 -0.15214065 -0.16712758 0.07977084 0.08558656 -0.1038886 -0.19246444
0.09664084 -0.06166079 -0.12231588 -0.11531564 0.08124825 -0.1081173 0.21165591 -0.022993665
0.0016953931 -0.045442652 0.13867623 -0.08948716 -0.1614983 -0.039295368 -0.027645461 -0.19530195
0.060547225 0.01454016 -0.2005381 -0.1388941 -0.1878639 0.10563614 -0.15601006 -0.041991215
0.16246173 -0.1924346 0.04797844 0.119843714 -0.03453036 0.01266217 0.12008833 0.113836735
0.063929446 0.16626431 -0.017977573 0.011053471 0.1685684 0.12879124 -0.15338394 -0.17587735
-0.06711373 0.104103446 0.0034034888 -0.10148903 -0.033333328 0.2274998 -0.05916364 0.14145587
-0.05032473 -0.0865278 -0.12168764 -0.0038809571 -0.24659231 -0.05622066 0.122148015 0.15470001
0.0037918068 -0.10497946 0.14587434 -0.0072841616 -0.0777 0.12006728 -0.05625503 0.08713141
-0.08885531 0.070278324 0.03129539 -0.046436757 -0.11382822 0.14474398 -0.17438626 -0.24109091
0.06967533 0.049449027 -0.059575427 -0.0030134802 -0.105947986 0.10718726 0.10641112 -0.15719444
-0.09693743 0.009799063 0.1819201 -0.09703087 0.019043535 0.043975115 -0.18882416 0.07972516
-0.13613717 -0.09172372 0.050184924 0.06263675 -0.16619515 -0.07334374 -0.0048093516 -0.017926892

bias f4 [8]
00000000: 5ee9 ffbd e1da 05be 900c afbd f0ab 9a3c
00000010: 43d5 143d 5b4c 453e 00b3 003d db09 e1bc
-0.12495683 -0.13071777 -0.08547318 0.018880814 0.036336195 0.19267409 0.031420708 -0.02747052

weight f4 [8]
00000000: c6d4 7a3f b8e8 7d3f 1ebb 853f a130 7a3f
00000010: 8cf2 873f f2c7 7e3f 44c6 803f f91e 7c3f
0.97980917 0.99183226 1.0447729 0.9773045 1.0620894 0.9952384 1.0060506 0.9848476

bias f4 [8]
00000000: 8987 e53c 47b9 debc 3f4d 2b3d ff59 fd3b
00000010: 00d0 f63c 3239 53bc 4f19 1c3d 2fe0 aa3b
0.02801873 -0.027187956 0.041821714 0.0077316756 0.030128479 -0.012892054 0.038110074 0.005214713

running_mean f4 [8]
00000000: b25a a1bd b86f 66be 3a76 88be 1b26 55bd
00000010: be38 58be 9660 c53e a3e3 f8bd 2874 06be
-0.07878627 -0.22503555 -0.266527 -0.052038293 -0.21115395 0.38550252 -0.12152793 -0.13130248

running_var f4 [8]
00000000: cf76 083e a020 563e 1d71 e13d d501 f53d
00000010: 6a17 9c3e f744 413e 45f0 bf3e 5b44 ec3d
0.13326572 0.20910883 0.11007903 0.1196324 0.30486614 0.18873964 0.37488 0.11536475

weight f4 [8, 8, 3]
00000000: 1a9b 0dbe ad58 6ebd 030f ae3b b576 453d
00000010: d718 0f3e 4a0c 603d f1e2 34bd 9e47 c6bc
00000020: 4488 c93d c2f8 af3d 81b5 da3d ae84 bebd
00000030: c36c c4bc fd73 bb3c de45 08be 5514 433e
00000040: f975 98bd 34af 31bd e0fb e8bd ea07 dfbd
00000050: 93a3 8d3d 18a0 d53d e6e9 15bd 6668 84bd
00000060: 0de5 2d3e bf0e 1cbe 1ee7 54be 1146 babc
00000070: 888d 6e3e 9376 8739 6ff8 443e 0cd2 9c3d
00000080: 17d1 16be b26d 183e f69f dcbd 873c 2c3d
00000090: 6923 07be 4296 51bc 790f cc3d a73e eebd
000000a0: e0a1 173e e762 223e 3ff5 5c3d 095a 18be
000000b0: 13b1 cebc 2f10 31be b41a abbd 98c7 17bd
000000c0: f8cb 4a3e 6849 3e3e 1898 f7bd c586 8b3d
000000d0: edfd adbd 112d 31bd 6300 943c 5bf4 f73c
000000e0: e851 783d b3eb 05be ab32 a7bc 4346 01bd
000000f0: 78c2 d5bd 517d 0bbe 0d95 63be 6cae 12be
00000100: dac0 04be d1a3 c5bd db4c c8bd e753 69be
00000110: b3fa 20be 74e6 083e b926 45be dbf6 27be
00000120: 8b9f 94bd defa 5d3a 15ef a93c 2d50 99bd
00000130: f438 4abe 7c18 743d cd96 56be 621b 8dbd
00000140: 3da1 b63c a7ee a23d 8ed5 1dbc 8011 d43c
00000150: 91e7 5abe d6d4 0b3d 6152 a53d 4385 f1bd
00000160: ece6 a83d 3391 bcbd dc2a 173e 4a96 c63c
00000170: df20 adbd fb26 803c 9512 2c3e bbed f8bd
00000180: 384c 6ebd 0df0 34bd b33f 17be d95d fd3d
00000190: 91d9 af3d 1464 00be 4a0c d93d d13d 68bd
000001a0: a39d 10bd 57d2 04bd b6d4 e63d f2f9 c9bd
000001b0: 7f85 633e 4c2c a03d ae2b 02be 002d 8bbd
000001c0: 67fe de3a 3c7c d0bd 9810 2b3e 0db7 a23d
000001d0: 99bc dbbd f249 e6bd 077a d13d fac4 3e3e
000001e0: 38d6 f5bd 37ec ca3d 70f2 d1bd 93b2 0fbd
000001f0: a5c1 23be ed9f e338 ba7e 6a3d 98dd 923c
00000200: c5a0 173e 1f2d 8abd 3289 803d 44f6 b5bd
00000210: df6d 863d 8226 18be 0089 dbbc 2905 2abe
00000220: 167b 09be 61ac 643e b5db 03be daed 5cbd
00000230: 5cd1 033d f19e 2bbe 1657 43be 49f5 c3bd
00000240: 1b42 21be 418c 073d 37f1 cdbb 597b 043e
00000250: f018 67bd f732 fb3b 100f 153e cedd 51be
00000260: 7675 b83c 9536 1bbe ff98 10be 78d8 1a3e
00000270: 1f59 0a3e c8d7 05be d95a 97bd b6a6 38be
00000280: 4b3d f3bd ccf0 06be 2e51 443e ac71 40be
00000290: 8713 3e3e 4ea0 c93d 4598 eb3d 0e66 043e
000002a0: 0fa0 d73d 10ab 0d3e 60cd a43d 0c0c 663e
000002b0: 1087 bcbd ced2 87bd 7c38 133e e4dd 0c3e
000002c0: 4274 483e bdc1 69bd 7d0f 163e 0ecc 19be
000002d0: 0606 6e3d 2c8b f7ba 76f6 113e 26c1 9e3d
000002e0: ab9b 1fbd 36ee f1bd a657 e83d 7c2c 343d
000002f0: 5892 423e 26eb abbd 6256 953d cc9e 7e3c
-0.13828698 -0.058190037 0.005311848 0.04820891 0.1397432 0.05469922 -0.04416174 -0.024204072
0.09840444 0.08592369 0.106791504 -0.093026504 -0.023977643 0.022882456 -0.13307902 0.19050725
-0.074443765 -0.043379977 -0.11376166 -0.10890181 0.06915965 0.10430926 -0.036600016 -0.06465225
0.16981907 -0.1524 -0.20791289 -0.022738488 0.23296177 0.0002583755 0.19235395 0.07657251
-0.14728199 0.14885595 -0.10772698 0.04204991 -0.13197102 -0.012792172 0.09963889 -0.11633044
0.14807844 0.15858041 0.053944822 -0.14878096 -0.02523092 -0.1729133 -0.083547026 -0.03705558
0.1980437 0.1858269 -0.120895565 0.068128146 -0.08495698 -0.04325587 0.01806659 0.030267885
0.060624987 -0.13078193 -0.020409903 -0.031561147 -0.104374826 -0.13622023 -0.22224827 -0.14324349
-0.12964192 -0.09650386 -0.09780284 -0.22785912 -0.15720634 0.13369161 -0.19253053 -0.16402762
-0.07256993 0.0008467863 0.020743886 -0.074859954 -0.19748288 0.059593663 -0.20955963 -0.068899885
0.022293681 0.079556756 -0.009633435 0.02588725 -0.21377398 0.034138523 0.08072353 -0.11792996
0.0824717 -0.09207382 0.14762443 0.024241585 -0.08453535 0.015643587 0.16803963 -0.121547185
-0.058178157 -0.044174243 -0.14770393 0.12371416 0.085864194 -0.12538177 0.10598047 -0.056699578
-0.035306584 -0.03242716 0.1127104 -0.098621264 0.22218893 0.07820949 -0.12711975 -0.067956924
0.0017013074 -0.10179946 0.16705549 0.079450704 -0.107293315 -0.11244573 0.10228353 0.18629828
-0.120037496 0.09908336 -0.102513194 -0.03508241 -0.15991838 0.00010853992 0.057249762 0.01792793
0.14807422 -0.067468874 0.06276168 -0.08884862 0.06563925 -0.1485844 -0.026798725 -0.16603531
-0.1342586 0.22331382 -0.1287678 -0.05393777 0.032182083 -0.1675985 -0.1907619 -0.09568269
-0.15747873 0.03309274 -0.0062848586 0.12937678 -0.056420267 0.0076659876 0.14556527 -0.20494768
0.022516947 -0.1515754 -0.14120863 0.15121639 0.1351056 -0.13070595 -0.07390375 -0.18032345
-0.11876925 -0.13177794 0.19171593 -0.18793362 0.18562137 0.09845029 0.115036525 0.12929556
0.10528576 0.13834786 0.08046985 0.22465533 -0.09205449 -0.06632005 0.14377016 0.1375652
0.19575599 -0.05706953 0.14654346 -0.15019247 0.058111213 -0.0018886081 0.14254174 0.07751684
-0.038966816 -0.11813013 0.113448426 0.043987736 0.19001138 -0.083944604 0.07291867 0.01554079

bias f4 [8]
00000000: 71df b8bd 08ed 263e 5f44 d63c e335 d63d
00000010: aa69 273e 4930 8f3d 2e07 c9bd c058 753d
-0.09026993 0.16301358 0.026155649 0.10459497 0.16348901 0.069916315 -0.098158225 0.05989909

weight f4 [8]
00000000: 845a 7b3f e702 7b3f af84 863f 16d6 7e3f
00000010: 22b3 833f 148c 833f e6ab 7f3f 07d6 773f
0.9818499 0.98051304 1.0509242 0.9954542 1.0289042 1.0277123 0.9987167 0.96810955

bias f4 [8]
00000000: 62a4 753d 3c2c 183d 497b c93c a84a f93c
00000010: ba10 f1bc 9820 8bbc ec0e 413d 8996 343d
0.05997122 0.03715156 0.02459492 0.030431107 -0.029426921 -0.016983315 0.04713337 0.044088874

running_mean f4 [8]
00000000: 697c f6bd fbe6 0d3e c26f 9bbe 83b1 cfbb
00000010: ae30 4f3e e101 0abe 5081 04be 44da c03e
-0.12035448 0.13857643 -0.30358702 -0.0063382997 0.20233414 -0.13477279 -0.12939954 0.37666523

running_var f4 [8]
00000000: 0694 0d3d caac 9e3d 4e69 873d 7ce4 b23d
00000010: 8dca 2d3e ed5c ce3d 4d77 b63e 6742 253e
0.034564994 0.07747801 0.06611882 0.08734986 0.16971798 0.10076318 0.35637894 0.16138612

weight f4 [8, 8, 3]
00000000: 8742 433e ec42 45be 144a efbd cb2c eabd
00000010: c795 043e 681b 4e3e 1f61 f93d e37b 063e
00000020: 7d75 273c 27d3 d2bd 81f9 843d 5b3d 0c3e
00000030: 40a3 723c 52c4 053d 21db 233e 2a9c 3c3e
00000040: 920f abbb 4b85 d73d 3cde a7bd d03a e2bd
00000050: b76d 223d 47c6 9bbd e0ad 1f3e 39f4 453d
00000060: 59bc a0bd 5a60 98bd 3ead d7bd a5e6 23be
00000070: 9f20 cf3d 7392 50be b422 babd 3987 383e
00000080: 48a2 c53d 2f04 b73d f0c9 893d 0018 323e
00000090: 88ca 7fbd 541a 1f3d 2f2f f8bd 9ab2 b6bc
000000a0: 266a a83c 7c6b 9abc 3fdb 883c e39d 55bd
000000b0: 0549 d33d 047a 34be 12e0 dbbc 4a88 f2b9
000000c0: 6a2a 70bd bbd8 f73d 4537 993d 5b56 26bd
000000d0: 0a36 193c 9448 5cbe cef1 cebd 0656 393e
000000e0: 4dc9 db3d a9e8 e5bd 0225 933d 24f9 f73c
000000f0: d0d7 22be 7c62 32be d134 f5bc 92c8 cebb
00000100: 8559 4c3e 0526 1d3e 8a38 9cbd f640 953d
00000110: 0148 a23d 857b 47be 3c87 39be 4b41 4dbe
00000120: acba 143e d0e3 033e 5000 4fbe a422 febd
00000130: 550a a43d 18ab 36be f9cc ea3d 1394 21be
00000140: c8cf f03d 63df ec3c 9908 013e d12e 593e
00000150: e182 84be 3fc4 253e ff74 183e 2264 dfbc
00000160: 35f4 3a3e 3b62 ef3b 0023 8bbe dab2 28be
00000170: 0b3d 36be 472c d03d 9e7e 0a3e 045a 383d
00000180: c875 31be 2afe e93c 204e 053e 4dcb 773d
00000190: 3fb4 8d3d 3ccc 86bd d2ec 723d 91e6 cdbd
000001a0: 1c99 863c de1b 6ebd ba6b 843d d598 3c3e
000001b0: 315f 3b3d ff05 1b3c 06ec 10be 6f85 fcbd
000001c0: c67d 983d f6d7 cc3d f4ff 7dbd e2e7 1c3e
000001d0: 718a 3e3e d4df 1fbe 57d5 6fbc 82ee e43d
000001e0: 9dec 0ebe 2d67 16be c647 423e 3dc3 cdbd
000001f0: 6e32 803d 35fe 403e d0cd 28be ba2d eabc
00000200: 344d 5f3e 06f0 ef3d aa18 24bc 2898 d53d
00000210: c844 cbbc 59a0 25bd b3ce 753e f01b c3bd
00000220: 414d 5c3e 391b 23be 370e ca3d f003 b1bd
00000230: 5ce7 53bc 8afc 64bd b256 0d3e f1de f8bd
00000240: e09a ed3d ef63 21bc 9f0a 10be 025c c23d
00000250: 03dd 703d f028 f63d 393a 44bd 7d34 303e
00000260: 675e 813e 7383 b23d 05ac 6cbe 03e8 d73c
00000270: 6df1 80bd b938 aa3d b5bc 0abe ed92 38bd
00000280: a72c 823c df7e c3bc 7373 9bbd 3cf9 5abe
00000290: 2f8f 20bc b4ca 98bd c855 dd3d 47aa 4e3d
000002a0: 0ff6 e23d 41f5 b9bd 490e c83d 6b6e 02be
000002b0: 6cd9 56bd 16e2 063c 7672 613e b75e b0bd
000002c0: 5046 a33c c7ff 48be ad75 153e 5458 c8bd
000002d0: 2f3f 3e3e a2be bf3c bd34 41be 3d06 e23d
000002e0: c1aa e83d ceeb 833d 945d 40bc 3f1a 04be
000002f0: 0269 1dbe 2cfc 2e3e abd1 2ebe 2a52 febd
0.19068347 -0.1926381 -0.11684051 -0.11434325 0.1294776 0.20127642 0.121767275 0.13133197
0.0102208825 -0.1029418 0.064929016 0.1369528 0.01480943 0.03265793 0.1600156 0.18418947
-0.005220362 0.105234705 -0.08196685 -0.11046374 0.039655413 -0.07606178 0.15593672 0.048328612
-0.078484245 -0.074402526 -0.1053109 -0.16005953 0.10113644 -0.20368366 -0.0908865 0.18020333
0.09650093 0.08936345 0.0672797 0.17391968 -0.06244901 0.038843468 -0.121183746 -0.02230196
0.020558428 -0.01885008 0.016706107 -0.052152526 0.10316662 -0.1762467 -0.026840243 -0.0004625938
-0.0586342 0.12101885 0.07481245 -0.0406097 0.009351263 -0.21512061 -0.10104714 0.18099222
0.107317545 -0.11226017 0.07184793 0.030270167 -0.15902638 -0.17420381 -0.029932411 -0.006310531
0.19956024 0.15346535 -0.076279715 0.07287781 0.0792389 -0.19480713 -0.18117994 -0.20044439
0.14524335 0.12879872 -0.20214963 -0.12408951 0.08009783 -0.17838705 0.11464877 -0.15779142
0.11758381 0.028915113 0.12600936 0.21209265 -0.25881103 0.16188143 0.1488838 -0.027269427
0.1825722 0.007305411 -0.2717514 -0.16474476 -0.17796724 0.10164695 0.13524863 0.04500772
-0.17330086 0.028563578 0.13018084 0.060496617 0.06919145 -0.06581923 0.05930788 -0.10053743
0.01643043 -0.058132045 0.0646586 0.18417676 0.04574508 0.009461879 -0.14152536 -0.12330138
0.074458644 0.10002129 -0.062011674 0.15322831 0.18607499 -0.15612727 -0.0146382665 0.11178304
-0.13957448 -0.14687796 0.18972692 -0.10047004 0.06259619 0.18846972 -0.16484761 -0.028586257
0.21806794 0.11715703 -0.010015646 0.10429412 -0.02481307 -0.040436123 0.2400463 -0.09526813
0.21513845 -0.15928353 0.098659925 -0.08643329 -0.012933578 -0.055904903 0.13802603 -0.12151898
0.11601806 -0.009850486 -0.14066552 0.09490205 0.058804523 0.12019527 -0.047907088 0.17207523
0.25267336 0.08716478 -0.23112495 0.026355749 -0.06296048 0.083116 -0.13548549 -0.045061994
0.015890433 -0.023864208 -0.075903796 -0.21384138 -0.009799763 -0.074605376 0.10807377 0.050455358
0.11082088 -0.090799816 0.0976835 -0.12737434 -0.052453443 0.008232614 0.2201632 -0.086118154
0.019930989 -0.19628821 0.14595671 -0.09782472 0.1857879 0.02340633 -0.18867774 0.11036346
0.11360694 0.064414605 -0.011741061 -0.12900637 -0.15372089 0.17088383 -0.1707217 -0.12418015

bias f4 [8]
00000000: 3bbf 3fbd 321d 7c3d 7c94 3cbe 0caf cc3c
00000010: 4bc8 b83d 1413 0c3e af97 79bd 8bcd e13d
-0.04681323 0.06155128 -0.18416017 0.024985813 0.09022578 0.13679153 -0.060935672 0.11025532

weight f4 [8]
00000000: d545 803f 0e03 873f a077 853f 8a81 763f
00000010: 95c9 7b3f a360 843f 062c 823f ff54 773f
1.0021311 1.0547807 1.0427132 0.9629141 0.98354465 1.0341991 1.0169685 0.9661407

bias f4 [8]
00000000: 5e9b 5dbc 5791 a13d 8699 313d a6eb 003d
00000010: 51eb 90bc ef84 9d3c 073e 153d 8e01 01bc
-0.013525812 0.078890495 0.043359302 0.03147473 -0.017690333 0.019228427 0.036436107 -0.007873906

running_mean f4 [8]
00000000: 8a41 233e 0536 453c 5524 92be 9127 2c3d
00000010: df8b 4a3e cd38 6f3e 4bed dabc 764b 503d
0.1594297 0.012036805 -0.28543344 0.04202992 0.19779919 0.23361512 -0.026724478 0.050853215

running_var f4 [8]
00000000: 67b0 823e e94e 0a3e 9c13 6c3e a050 dd3d
00000010: 6a61 ae3d c674 ca3d 23d3 443e 3c7f b33d
0.2552521 0.13506664 0.23054355 0.108063936 0.08514674 0.09885554 0.19221167 0.087645024

weight f4 [8, 8, 3]
00000000: bd38 27be 2557 d1bc 81c9 bf3d 2d21 b6bd
00000010: 4f28 0dbe a2e1 493e 873a a63d d0be eabc
00000020: 9e28 b9bd caca 48bd 8df2 63be 9e11 013c
00000030: b28f fcbc 58ef 15be 3d9c 4a3d 6f9a f63d
00000040: e8fa 45be 2094 88be e6f2 7a3d c854 75bd
00000050: ac8a 6cb8 8d66 d1bc 03f3 103e 688c 7dbd
00000060: 98ab 95bd eba0 16be 790b e4bd 965a 1abe
00000070: 9e55 8dbd 304d 573e 2684 5bbd 3c48 853d
00000080: 698b 0f3e d2d8 c03d d94e bd3d e622 3abd
00000090: db5b 423e 9b6d 38be fe8a 0ebe 404f d53d
000000a0: f249 0dbb 6834 ecbd b8be bb3c bdb1 1bbe
000000b0: 82a8 abbd 11ca c7bd cda1 e23d f4c2 c1bc
000000c0: 9713 343d 1250 0a3e 677a 72be 366a a5bd
000000d0: 3acf 01be e703 25bd ffba 74be 1645 ed3d
000000e0: 92cf 80be 3bc2 ac3d c027 db3d de05 873c
000000f0: 6033 2a3e b4bd bbbd cb2e 9d3d 4046 8b3d
00000100: ec4d c4bb c148 88be 8772 113e 073a 40be
00000110: 910a a33d af1c 2fbe cdb9 1939 4cc1 333e
00000120: ce0b 053e c4d9 0c3e 4dd9 fbbd 3c97 71bc
00000130: e5b6 ebbd d323 bf3d 455b 74bc 9169 0ebe
00000140: b551 113e 0fb6 b6bc 8711 243c a38f b5bd
00000150: e0c8 0ebe 9e95 f5bc a14d efbc 5aa0 6e3e
00000160: b0d1 893b ea39 2bbe 116e 093c f045 1fbd
00000170: 71eb dcbc 9971 2ebe d65f 933d 7a02 e4bd
00000180: bc00 2d3d 035b 5b3e 18f7 05be 82a6 003c
00000190: d9ff 8fbd 2588 2a3e 93c1 5a3e 6fb6 66be
000001a0: 165b 5e3e dd63 5dbd 99e2 283d 20aa 803d
000001b0: 3036 43be ce8f d63d 5a0f 09be b32d 61bd
000001c0: aff1 0fbd c90b d9bd d915 f8bd dbe3 e83c
000001d0: 284e 9ebd ae0e d0bd d3e1 fdbd 0a8e 94bb
000001e0: 6c0a 2e3e 21ac e93d c49e 1a3e c06d 61be
000001f0: 618f 2d3d 94d6 49bd 3b61 433d 326c 253e
00000200: e5ee 42be 217a 2fbe 4497 ad3b 2a69 64be
00000210: fcbf c0bd e84a df3c 0f4c 97bd 9f1d 3dbd
00000220: d845 b73d 53cf 5ebd f470 2b3d e24f 16be
00000230: 438b e9bd d756 fa3d 76c7 61bd 3764 e1bc
00000240: 7ec5 6abe 1593 09be 4f6d ffbd 4801 bebd
00000250: 2c01 323e 6ed9 623e 61f0 7abc e9b3 56bc
00000260: a030 53bc 767d 733c b758 d43d ac55 19be
00000270: cf3b 11be 2290 26be c2c5 2fbe 1b4d 413d
00000280: 9212 c5bd 63cc ff3d 9c3b d73d 71b0 053e
00000290: ce0d d53c 3fb4 11be ce58 55bd 6487 a6bd
000002a0: 901c 90bd 6563 d4bd 039c ac3d e160 cabc
000002b0: 0419 88be e0b4 2ebe 9d99 603d ca6a cebd
000002c0: b649 a83d 1718 e63d 90c6 01be a87b 72bd
000002d0: 6424 82bb c523 0e3e ea63 a3bd 96d3 b53d
000002e0: 3a98 87bc 8c23 38be 3cf5 f93d 3da3 debb
000002f0: b448 25be 86b1 323d b352 903d ddb4 163e
-0.16330238 -0.025554249 0.09364606 -0.088930465 -0.13784908 0.19714978 0.08116632 -0.02865544
-0.0904095 -0.04902152 -0.22260495 0.007877735 -0.030830238 -0.14642084 0.049465407 0.120411746
-0.19333994 -0.2667551 0.061266802 -0.059895307 -5.6395933e-05 -0.025561595 0.14155202 -0.06190148
-0.073081195 -0.14709823 -0.11135001 -0.15073618 -0.06901096 0.21025538 -0.053592823 0.06507918
0.14018025 0.09416355 0.092435546 -0.045443438 0.18980353 -0.18010561 -0.13920209 0.10415506
-0.0021558967 -0.11533433 0.02291809 -0.1520452 -0.0838175 -0.09755338 0.11066017 -0.023652531
0.043963995 0.13507107 -0.23679505 -0.08076899 -0.12676707 -0.040286925 -0.23899458 0.11585443
-0.25158364 0.08435484 0.10700941 0.01648229 0.1662116 -0.091670424 0.07674941 0.068005085
-0.0059907343 -0.26618007 0.14203845 -0.18772136 0.07961 -0.17100786 0.00014660433 0.17554206
0.12992784 0.13754946 -0.12297306 -0.01474553 -0.11509494 0.09333005 -0.0149143385 -0.13907458
0.14191325 -0.02230361 0.0100139445 -0.08865287 -0.13943815 -0.02997857 -0.029211821 0.23303357
0.004205905 -0.16721311 0.008388058 -0.038885057 -0.026967736 -0.17035522 0.07196014 -0.11133285
0.04223703 0.21421437 -0.1308254 0.007852199 -0.07031221 0.16653498 0.21362905 -0.2253053
0.21714434 -0.054050315 0.041231725 0.06282449 -0.1906364 0.10476647 -0.13384762 -0.054975223
-0.035142597 -0.10597951 -0.12113542 0.028428962 -0.07729751 -0.1015905 -0.12396588 -0.004533534
0.16996163 0.11409784 0.15099627 -0.22014523 0.042373065 -0.049276903 0.047700148 0.16154554
-0.19036444 -0.17136432 0.0052975733 -0.22305742 -0.09411618 0.027257398 -0.07387554 -0.046170827
0.089488685 -0.05439694 0.041855767 -0.1467891 -0.11403515 0.12223595 -0.05512186 -0.027513606
-0.229269 -0.13435014 -0.12472021 -0.09277588 0.1738326 0.22153255 -0.0153161 -0.013104417
-0.012890011 0.014861455 0.103684835 -0.14974087 -0.14182971 -0.1626592 -0.17165282 0.047192674
-0.09622683 0.124901555 0.105094165 0.13055588 0.02600756 -0.14228915 -0.052086644 -0.081312925
-0.07036698 -0.103705205 0.084281944 -0.024704399 -0.26581585 -0.17061186 0.054833997 -0.10078962
0.08217184 0.112350635 -0.12673402 -0.05919996 -0.0039716233 0.13880832 -0.079780415 0.088782474
-0.01655208 -0.1798231 0.12204978 -0.006794362 -0.16141015 0.04362633 0.070470236 0.14717431

bias f4 [8]
00000000: 2a2d a53d c1f6 c33d d438 38be e1fe 0ebc
00000010: 7ea5 d9bd f1aa 0fba b7d6 9cbc cd57 dcbd
0.08065255 0.09568549 -0.17990428 -0.00872776 -0.10627268 -0.00054804893 -0.019145353 -0.10758934

weight f4 [8]
00000000: ab0e 803f 7018 883f c790 793f c835 823f
00000010: 19bc 873f 036e 783f 9e88 783f 4680 7e3f
1.0004476 1.0632458 0.9748654 1.0172663 1.0604278 0.97042865 0.9708346 0.9941448

bias f4 [8]
00000000: fd8c 223d 687f 853d d3a2 033e f9cc b03c
00000010: 456a 893d 00ab 9d3b 22c5 593c 4e00 963d
0.03968524 0.065184414 0.12855081 0.021582114 0.067097224 0.0048116446 0.013291629 0.07324277

running_mean f4 [8]
00000000: 01af 01be 9160 14bd 69b5 99be 9331 e4bd
00000010: fc63 4fbe 9c45 11be 433d 16be 6828 7ebe
-0.12664415 -0.036224905 -0.30021217 -0.11142268 -0.20252985 -0.1418671 -0.14671807 -0.24820101

running_var f4 [8]
00000000: 756c 853e dd3d 2b3e 5dba 333e 7574 403e
00000010: d2d5 ad3d cdf2 d73d a7f9 7e3e 91a8 c13d
0.2605931 0.16722818 0.1755156 0.18794425 0.084880486 0.105443574 0.24899922 0.094559796

weight f4 [8, 8, 3]
00000000: 556b 1b3d aa78 0e3e 9756 89bc e25d d3bd
00000010: 195a b13d 70ad 4fbe 3758 2c3e 1b46 7fbc
00000020: 4904 24be 8558 9c3d 73ea ccbd 5ee9 32be
00000030: 0f41 4cbe ef07 20be a918 95bd 4223 42bd
00000040: d6fd 78bd a529 97bd 9b50 d83d d029 42be
00000050: bfea ba3d 0fd3 03b9 f087 1bbe a3a7 0b3d
00000060: b84b 61be d699 d7bd 8148 e13c f13b fcbc
00000070: eb07 1dbe 723c e43d bb84 103e 3da5 dfba
00000080: 42d6 733a 8664 f8bd 2edb 77bd fc92 5dbe
00000090: 8928 28be 1149 f13d dd91 2c3c e474 fabb
000000a0: af49 373d 28c1 c23d f3c4 803d 93bd 09bd
000000b0: c163 3e3e f9a9 053e 898f 3ebe e559 1c3e
000000c0: 768d 54be 3a8f 373e 734e 2fbd 995b 6fbe
000000d0: a3b3 12be 78d5 8dbd 5f71 1d3e 14fb debd
000000e0: 9c7e 55be 9a13 1dbe cee4 3abe 642d 4a3e
000000f0: 87b0 813d 42ae 7dbd c455 d3bd 4fcc 58be
00000100: 9455 9f3d a2b7 18be 9823 a5bb 70d1 1d3e
00000110: dabe 39be 7de6 a1bd 39b7 173e 4645 233e
00000120: 1390 24bd eb08 363e 4b58 0c3e af9e 1a3e
00000130: 0c5d 7fbd b98a 413d a144 c9bd 7f28 41bc
00000140: d10c 1a3e 4c79 50be 2af3 40be a074 3b3e
00000150: 6604 0cbe 0f8e a93d db42 4bbd 5352 5ebe
00000160: 7381 71bd ee76 143e ce48 51bd ddf9 2abd
00000170: 36c8 fcbd 07f3 1a3d 9e0f cebb 1462 f33b
00000180: d65f 343d b55e be3d 88ea 09be 8576 23be
00000190: c5b6 bfbd 3c98 c33d 1f49 243e 5e7e 36be
000001a0: 49aa 59bc ee31 24bd 82f4 fabd 7310 14bd
000001b0: dc87 85be 71b1 713d 47ae a23d 43b5 333e
000001c0: 0b1d 273e 0eda 123e e2cf 863d 57eb 32bd
000001d0: 9e99 47be cfa5 edbd 5be6 1fbe ac0a ec3d
000001e0: 423e 163e 7d23 12be f35d 423d acd5 47be
000001f0: 0447 c53d eaaa 25be 90d5 bcbd dec4 903c
00000200: 1921 67bd 6507 a53d 5ce5 1abe 1f81 6dbc
00000210: 9d9c 18be 572a f93d beee 6f3d d665 fc3b
00000220: c3a2 553d 6e12 6b3e 92f7 f5bd 9024 b13d
00000230: c130 7d3d 9098 59be b220 523d 28a5 163e
00000240: f2b9 11be 7348 1cbe b96b bcbd 3aeb f8bd
00000250: 528f 60be 895c 33be 4b16 003d bf38 b5bd
00000260: efeb b03d 2e7a fdbd a68d 33be 2c36 9bbd
00000270: 5a03 d0bd b725 1c3e 7b13 64be d7c7 643d
00000280: eb91 03bd 2858 c9bd cc71 d53d 74d8 d4bc
00000290: 911f 6cbe 51a4 983c 3e07 b1bb 1c18 893b
000002a0: 962e 59be 858a 2dbe 7e84 873d c452 54be
000002b0: 0148 1ebe ac08 01be f0db 323d 239a 1ebe
000002c0: 89b2 00bd dc07 19be dc4f 09be f3c7 cc3d
000002d0: 07cb d1bd b43f 35be be71 32be b181 0dbe
000002e0: 7938 1abd 8fdc 253e ca7a d6bc 425d debd
000002f0: 8e79 73bd 72f5 cc3d ec72 adbc f894 15bc
0.037944157 0.13913217 -0.016764922 -0.10320641 0.08659763 -0.20281005 0.16830526 -0.015580679
-0.1601726 0.07634071 -0.10005655 -0.17471835 -0.19946693 -0.15628026 -0.07280094 -0.047396906
-0.06078895 -0.0738099 0.10562249 -0.18961263 0.091268055 -0.00012571759 -0.15188575 0.034095418
-0.2200154 -0.10527389 0.027500393 -0.030790301 -0.15335052 0.111443415 0.14113133 -0.0017062795
0.0009301641 -0.12128548 -0.06051176 -0.21638101 -0.16421713 0.117815144 0.010532823 -0.007643329
0.044748005 0.09509498 0.06287565 -0.033628058 0.1859274 0.1305312 -0.18609442 0.15268667
-0.20757088 0.1792573 -0.042799424 -0.23374785 -0.14326338 -0.069254816 0.15375279 -0.10887733
-0.20849079 -0.15339509 -0.18251345 0.19743878 0.06332498 -0.061933763 -0.10319093 -0.21171688
0.077799946 -0.149138 -0.0050396435 0.15411925 -0.1813921 -0.0790529 0.14815988 0.15944394
-0.040176462 0.1777684 0.13705556 0.15099595 -0.062344596 0.047251437 -0.09827543 -0.01178944
0.15043952 -0.20358771 -0.1884276 0.18306208 -0.13673553 0.08279049 -0.049624305 -0.21711092
-0.058961343 0.14498493 -0.051094823 -0.041742194 -0.12342875 0.037829425 -0.006288483 0.0074274633
0.04403671 0.09295408 -0.13468373 -0.1596318 -0.093610324 0.09550521 0.16043518 -0.17821643
-0.013285228 -0.04008668 -0.122536674 -0.0361485 -0.26080215 0.059007112 0.07943397 0.17549615
0.16319673 0.14340994 0.06582619 -0.04368147 -0.19492194 -0.11603891 -0.15615217 0.11525473
0.14672187 -0.1427135 0.04745288 -0.19515103 0.09632686 -0.1617848 -0.09220421 0.017671999
-0.05642805 0.08058051 -0.15126556 -0.014496117 -0.14903493 0.12166279 0.05857729 0.0077025695
0.052157175 0.22956249 -0.12010111 0.08649552 0.061814073 -0.21249604 0.051300712 0.1471144
-0.14231089 -0.15262012 -0.09200234 -0.12154241 -0.21929672 -0.17515768 0.03127126 -0.08848714
0.08638751 -0.123768196 -0.17534503 -0.07578692 -0.10156889 0.15248762 -0.22273056 0.055854645
-0.03212158 -0.098312676 0.10422096 -0.02598212 -0.23058917 0.01863304 -0.0054024747 0.0041837823
-0.21209177 -0.16947372 0.06617068 -0.20734698 -0.15457155 -0.12600964 0.04366678 -0.15488486
-0.031420264 -0.14944404 -0.1340937 0.09999075 -0.102438025 -0.17700082 -0.17426202 -0.13819005
-0.037651513 0.16197418 -0.026181597 -0.10857631 -0.059442095 0.100077525 -0.021172963 -0.009129755

bias f4 [8]
00000000: f74e ca3d a269 623d c56d c0bd 5f3a 64b5
00000010: 1faf 333e 5f34 40be 1536 163e 579b 56bd
0.098783426 0.05527652 -0.09395937 -8.502156e-07 0.17547272 -0.18769978 0.14669068 -0.052394237

weight f4 [8]
00000000: 222a 6d3f 0bbe 6f3f 0137 813f ef67 7a3f
00000010: e849 7e3f 7756 813f 208b 783f 2a6e 803f
0.92642415 0.9364936 1.0094911 0.9781484 0.9933152 1.0104512 0.9708729 1.0033619

bias f4 [8]
00000000: 02ce a8bd 65a0 e73c 6d43 e7bc e6ea dc3c
00000010: ba40 cd3b a0ba 9e3c d1ec e03a 4ffe c5bc
-0.08242418 0.028274724 -0.028230393 0.026967477 0.0062638195 0.0193761 0.001716042 -0.024169115

running_mean f4 [8]
00000000: 81ea 5bbe d910 81bb 009a c3be acc0 46bd
00000010: 7f9a 0d3d 6e38 6cbe 69b8 afbe 8aef 18bf
-0.21476175 -0.003938776 -0.3820343 -0.04852359 0.034571167 -0.23068401 -0.3432038 -0.5974051

running_var f4 [8]
00000000: 867f c33d 00bf 933d cd77 a63d 7740 ea3d
00000010: 8488 953d f638 fc3c a3d2 673d 0fce 973d
0.095458075 0.07214165 0.08128319 0.11438077 0.07301429 0.03078888 0.056597363 0.074123494

weight f4 [128, 25]
00000000: cc36 a53d b62e 903d bfef 523d 44b0 793d
00000010: 3bcb 39be 537f 34be 3479 1bbd cbf9 0f3e
00000020: cc09 473e 136e ccbd 13a1 333e 6cfd bbbd
00000030: 945c c9bd 9edd 0ebd 000f 3d3e e3c8 26be
00000040: 6bbd 16be 2477 8cbd be92 243e 965e d43d
00000050: c9b6 51bd 4f55 c93c cb2a 02be 7e56 d3bd
00000060: 5157 bbbd e1a7 1b3e 3b82 2ebd acbb e4bc
00000070: e4fc 2ebe d89b 04be 7e7a c5bb cefb eebd
00000080: 8fe8 9e3c 9820 60be f907 b2bc 5bf1 38be
00000090: eb76 4dbe 1015 fb3d 7d47 2b3e 8f04 96bd
000000a0: d1dc 903d bd7b 2d3e 7ce1 2f3d b33d babd
000000b0: 70f3 a4bc c266 b13d 3dc2 133e 9467 e83d
000000c0: ddb2 a93d 3f68 083e d947 c6bb ba53 6a3e
000000d0: 288f 3e3d a04b e2bd 9fa3 d2bc d578 5cbe
000000e0: 3813 10be 536d 013e f844 953d 9447 37be
000000f0: d3a0 1abe 7092 d03d bb6b cb3d 9552 113d
00000100: e3e8 4abe 03a3 b03c 2c88 abbc 31bb 143e
00000110: e64b ecbb 3609 173e 85c0 6ebb 63d5 0b3e
00000120: edf1 e8bd 03d3 24be 5b20 56be 179e aabc
00000130: 391b 1e3e 7171 a53d 940a 31bd e8a1 153e
00000140: 7c28 2fbe 517d e03c 9505 babc acc5 c0bc
00000150: 53f4 933a b2b3 b5bd 4da6 3ebb fbe7 0d3e
00000160: 8149 49be 8e1c 4abe 2539 083d b925 39be
00000170: 9acb 6a3e 77f8 28bd c217 19be ae33 29be
00000180: adab d0bd 10f9 30be 49c7 f23d 3f95 0a3e
00000190: 9fc7 adbc ac32 dc3d 7c3a 4c3e 499e c0bc
000001a0: 49b3 1b3e 87a2 c9bd 5634 b33c addd 3f3e
000001b0: be04 24bd eb27 86bd 0dbc 213e 1594 603d
000001c0: e1d5 703d 948d a8bd a7ef f73d 9497 f83d
000001d0: 450e 383e c584 d5bd a32d f6bd 774f 3a3e
000001e0: ddeb 113e 83f4 d43d 86e5 243e 10cb 7d3e
000001f0: 7493 2ebd 4f16 993d 254c b33c 0165 83bd
00000200: 85d7 973d a48a 043c 164b 553e 8bad 713c
00000210: c334 293e c3a7 383e fa7a 98bd 4a4e 133e
00000220: 041e e9bb 9b21 233e 1104 9dbd fffb d03c
00000230: b132 343c 4c38 e5bd 1528 4d3e a4b7 263d
00000240: 7077 c5bc 7ff0 3b3e 684c b9bc 1ff5 74bc
00000250: 4283 e9bd d861 90bd 506e 17bd 033f 103e
00000260: 8b03 0ebd 51fc 25be a032 91bd a2ce d83d
00000270: ea22 0abe 389f dd3c c6b0 9abd 0503 f43d
00000280: 9948 dabd 0807 7ebd 736c bbbd 0b76 8cbd
00000290: 8003 303d d40a 093e 8114 f53d d6d7 87bd
000002a0: 1ce6 f2bd aade 103c 489b 2e3e 898b 363e
000002b0: 3e81 4bbe aae3 cdbd 9340 c0bd d0fd 213e
000002c0: 4a3f a63e 95b2 a83e a723 8fbe 0a6f 133e
000002d0: a721 603e 49c3 18be 424b 4e3c 2a3c c43d
000002e0: 3325 923d 5a2d 833d e19d 94bd d5e9 3a3e
000002f0: b183 ad3d 5b48 a63d 6e17 833d fa0d 163e
00000300: f2e4 063e 5404 cbbd d7ac ddbd 667c 283d
00000310: 8c6e 103c 4800 c6bd 2d58 18bb cd07 9cbd
00000320: 2519 69be 937c 293c 2dc7 6fbd 7846 253d
00000330: 4a26 aa3d b6d9 d7bd 5eb9 a93d 55b7 95bb
00000340: 33f3 133e 36ac ef3d fd7b 933c effc 6bbd
00000350: 5e86 d23d 73b9 ba3d 7e38 853c f338 45be
00000360: c981 db3c 0ea4 1dbe 05a5 283e 82dd eebc
00000370: 9855 2f3e 0458 14be fd4e 483e cce2 783c
00000380: aa0b ca3d f239 5e3d c149 d23d 17e4 5a3e
00000390: a187 a9ba 9bc6 453e a833 4a3d 6db3 183e
000003a0: b9ea 413d c96a 08be 6609 423e f164 71be
000003b0: c404 363d 9570 fd3c db2f d33d ad10 1abe
000003c0: 8590 5ebe 585f 1f3d 5c39 30be bbf9 06bd
000003d0: c846 b73d 9a82 0e3d 0ebc 61be 126f a63d
000003e0: daa4 3cbd b1f5 c4bd 637d 0ebd a9d3 793e
000003f0: ee2b 573e 8d48 073e 405e 713d 7bd5 243d
0.08067092 0.070401594 0.05149817 0.060959116 -0.18143933 -0.17626695 -0.037957385 0.14060132
0.19437331 -0.099819325 0.17541914 -0.09179196 -0.09832111 -0.03487932 0.18462753 -0.1628757
-0.14720695 -0.06858662 0.16071603 0.10369603 -0.051199708 0.024576811 -0.12711637 -0.103192315
-0.09147514 0.1520076 -0.042604666 -0.02792152 -0.17088658 -0.12950075 -0.006026565 -0.11669122
0.019398002 -0.21887434 -0.021732317 -0.1806082 -0.20064895 0.12259877 0.1672649 -0.07325088
0.070733674 0.16941734 0.042939648 -0.090937994 -0.020135611 0.086621776 0.14429565 0.11347881
0.082860686 0.13321017 -0.0060510454 0.22883502 0.046523243 -0.110495806 -0.025712786 -0.21530469
-0.14069831 0.1263936 0.07288545 -0.17898399 -0.15100412 0.10184181 0.09932657 0.035479147
-0.19815402 0.021562105 -0.020938955 0.14524533 -0.0072111962 0.14749607 -0.0036430669 0.1365562
-0.11374269 -0.1609612 -0.2091078 -0.020827336 0.15440072 0.08078278 -0.04322298 0.14612544
-0.17105287 0.027403506 -0.02270774 -0.023531757 0.0011288024 -0.08872165 -0.0029090822 0.13858025
-0.19656946 -0.19737455 0.033257622 -0.18080796 0.2292923 -0.04125258 -0.14950469 -0.1652362
-0.101889946 -0.1728251 0.11854417 0.13533495 -0.02121335 0.107518524 0.19944185 -0.023512976
0.1520511 -0.09845453 0.021875542 0.18736906 -0.040043585 -0.065505825 0.15794392 0.054828722
0.05879772 -0.08230129 0.12106257 0.12138286 0.17974193 -0.104257144 -0.12020423 0.18194376
0.14250131 0.103981994 0.16103181 0.24784493 -0.04262109 0.07474958 0.021886894 -0.06415749
0.07414154 0.008089695 0.20829424 0.0147508485 0.16524033 0.18032746 -0.07445331 0.14385334
-0.007114174 0.15930788 -0.07666791 0.025510786 0.010998414 -0.111923784 0.20034821 0.040702477
-0.024104804 0.1835346 -0.022619441 -0.01495102 -0.114019886 -0.07049912 -0.036970437 0.14086537
-0.034671348 -0.16209532 -0.07089734 0.10586287 -0.13489881 0.02705346 -0.07553248 0.119146384
-0.10658378 -0.062018424 -0.091515444 -0.068584524 0.042972088 0.13383037 0.119668014 -0.06632964
-0.11860296 0.00884215 0.17051423 0.17826666 -0.1987352 -0.10053189 -0.093873166 0.15819478
0.3247016 0.32948747 -0.27956888 0.14397827 0.21887837 -0.14918245 0.012591185 0.09581788
0.071360014 0.064051345 -0.072566755 0.18253262 0.08472384 0.081192695 0.06400953 0.14653769
0.13173273 -0.09912935 -0.10823982 0.04113426 0.008815419 -0.096680224 -0.0023245916 -0.076186754
-0.22763498 0.010344642 -0.05853956 0.040350407 0.08308084 -0.10539572 0.08287309 -0.004568974
0.14448242 0.117027685 0.018003458 -0.057614263 0.10279535 0.09117403 0.01626229 -0.19260006
0.026795285 -0.15394613 0.164692 -0.029158358 0.17122495 -0.144867 0.19561382 0.015190791
0.09865506 0.05425448 0.10267974 0.21376072 -0.0012934097 0.19314043 0.04936567 0.14912196
0.04734299 -0.13321985 0.18948898 -0.23573662 0.04443814 0.030937472 0.10311862 -0.15045424
-0.21734817 0.038909286 -0.17209381 -0.032953005 0.08949047 0.03479252 -0.22044393 0.08126654
-0.046055652 -0.096171744 -0.034787547 0.24397148 0.21012852 0.1321127 0.058927774 0.040242653

bias f4 [128]
00000000: 3375 d13d c04e debd 67a3 e23d 1a2d 183e
00000010: 866e 0bbe fbac 35bd 65ba 9abd 74ab 2cbe
00000020: a40b acbc a8e1 103e b575 723d ce03 b03d
00000030: d7a2 ccbd 179f 91bd 2152 553e 33bc 2a3e
00000040: 6fd4 d7bd 408f fe3d 8512 2fbd 4182 1abc
00000050: 462f 9b3d ebfa 2bbd 1ddd a0bd 92c3 283e
00000060: 6fa2 8fbd c258 413e 552a 19bc 6d11 f23d
00000070: 4b99 d9bd a38e 5d3d 8066 b53d 3246 f43d
00000080: cc2d 82bd e16a 55bd 5a48 673c d5ef 1abc
00000090: 3488 b83d 2a37 b9bc 7233 893d fcbf e8bd
000000a0: 4d9b 29bd 0f0e 2ebb 19a7 bc3d b5ed 843d
000000b0: a0f0 233d 95f5 fbbc f79d 03bd 0bdd 643d
000000c0: 0f82 223e 4112 373c 98d6 d7bc 4605 0d3e
000000d0: 5f03 153e bdf9 9f3c beb5 bc3d 2a30 f3ba
000000e0: ebda 4f3c 4ef6 7ebb 3a2a 8f3c 31f8 31bd
000000f0: 5d45 6e3d dd46 40bd fe1c cebd 306c dbbc
00000100: 494e 173e bb65 fd3c ff34 cabd 6eda 0cbe
00000110: 2745 483e 6531 213e 0974 b73c b0dc a1bd
00000120: d5c9 70bd 2efd aa3c e07f 23be 881e 43bd
00000130: a1dd 3d3d 8e40 2c3e 4c13 343e e901 a63d
00000140: e2f8 dbbd bb3e 0b3e 9107 1d3e 91b6 5c3e
00000150: 3c8f 4c3d c6dc 9cbd f838 35bc bc63 2ebe
00000160: cc7d 853c e4f6 20bd a836 a13d 066e 07be
00000170: 7a2c 323d 1026 e5bc 716c 9bbb dda1 1e3e
00000180: eac3 8d3c a078 cd3d bcbd da3d c9a3 603d
00000190: 65b8 94bd 5521 83bd ef40 4cbe b150 95bd
000001a0: 3d71 e93d 2800 8e3d e403 853d a644 0e3e
000001b0: dc6b 663e f669 c9bd 393d d93c d96b 8bbd
000001c0: 331d 053e 9bbe c93c 58ba f7bd 029f 25bc
000001d0: dcf5 8a3d 5591 cf3d e01f 853d a0b4 6dbd
000001e0: 5722 b23d 2045 823d 5af4 873d 4128 553c
000001f0: ffea a2bc 80c9 573e 68ba 943d d4c2 713d
0.10227432 -0.10854864 0.11066323 0.14860955 -0.1361638 -0.04435442 -0.07555083 -0.16862279
-0.021001644 0.14148581 0.059194285 0.08594476 -0.09991997 -0.07110422 0.20832111 0.16673355
-0.10538565 0.124296665 -0.04274227 -0.009430469 0.07577376 -0.04198734 -0.07854674 0.16480854
-0.070134036 0.18881515 -0.009348472 0.1181973 -0.106249414 0.054091107 0.08857441 0.11927451
-0.06356391 -0.05210388 0.014116371 -0.0094565945 0.09010354 -0.022609312 0.066992655 -0.11364743
-0.041407872 -0.0026558673 0.09211559 0.064906515 0.0400244 -0.030756751 -0.03213307 0.055874866
0.15869926 0.011173786 -0.026347443 0.13771543 0.14552067 0.019528264 0.09214352 -0.0018553783
0.012686471 -0.0038904133 0.01747619 -0.043449584 0.05817162 -0.04694258 -0.100641236 -0.026784986
0.14775957 0.030932298 -0.098733895 -0.137552 0.1955763 0.15741499 0.022394197 -0.07903421
-0.058786232 0.020872679 -0.15966749 -0.04763654 0.04635394 0.168215 0.17585486 0.08105833
-0.1074083 0.13598149 0.15334918 0.21554019 0.049941286 -0.07659297 -0.011060946 -0.17030233
0.016295336 -0.039297953 0.07871753 -0.13225564 0.043499447 -0.027972251 -0.004743152 0.15491433
0.017305333 0.10032773 0.1068072 0.054843698 -0.07261733 -0.06402842 -0.19946645 -0.07290781
0.113985516 0.069336236 0.06494883 0.13893375 0.22502083 -0.098346636 0.026518451 -0.0680768
0.1299942 0.02462702 -0.12096089 -0.010108711 0.06785175 0.10135142 0.0650022 -0.058033586
0.08697956 0.06360841 0.06638403 0.013010086 -0.019887445 0.2107296 0.07262117 0.059023693

weight f4 [128, 127]
00000000: a990 343d 4480 d5bd 7fcf d5bd 23c0 acbd
00000010: 8d73 a93d 04e8 2a3d 0749 85bd c1ca efbc
00000020: fad9 e2bd e628 753d e104 89bd 824b e0bd
00000030: 50a5 043d 26a6 afbc e151 8e3d fb4f 6ebc
00000040: cf1a 9abd cf5b 0cbd 6b32 f5bd 3a9c 4b3c
00000050: 233f b7bd 2a06 d3bd be97 9f3c 3a1b 973c
00000060: f4b2 213b 1ddd 99bc 7923 9b3d 1d49 973d
00000070: 99ff 183d ac76 14bd 64bb e33d 7874 b63d
00000080: ac5c 5a3d 2c29 c23c 3829 3bbc ede7 de3c
00000090: 18e3 3fbd 0b92 3dbd 874b 833c 4707 fb3d
000000a0: 6a50 85bc 7b9c 333d bf40 6f3c 92ee bdbb
000000b0: 3604 7fbd 7021 cabd 136d dabd 1d04 14bd
000000c0: 0c0e 47bd 4067 ed3c c499 5f3d a2be ee3c
000000d0: 4c27 833c 25b4 00be 7fd8 dab8 7250 37bd
000000e0: c588 a3bd fb2f b9bd d279 993c 7ab2 623d
000000f0: 3308 07be 2ce8 083d a35e 1e3d bee8 17bd
00000100: b23e 09bd bed9 07bd c23f 30bd fa18 be3d
00000110: a470 033d 9183 a73d 83da 57bc 4bab 16bc
00000120: 3bf2 953c 4714 153d 9b64 56bd d824 433d
00000130: 7d2d ba3c 2b17 5fbb cfcf 80bd 9df9 d6bb
00000140: 8924 cb3c 0af9 17bd da65 4cbd 61cc a43c
00000150: 2e91 09bd 0d81 ec3b 7d6c 023c d40b 233d
00000160: e0aa 3fbb 7f44 49bd fb95 a93c fdb7 9d3c
00000170: 8487 3abd 4be4 b73d 0cc2 8e3d f270 223d
00000180: e5c2 803d 9a3e 963c 2461 c33c 5f88 bfbb
00000190: f726 463d 98e8 333b 4b3c 2ebd 47b2 a63d
000001a0: febb cebc 53aa acbc 3db5 1a3d 6530 e73d
000001b0: 5df4 ac3d abea bd3c 2ebd 2c3c 275e 00bc
000001c0: 10ce 843d f2f8 a33a b81d 99bd b34c 443c
000001d0: 5e5d be3c 3ce3 f03b cad5 953d b622 5f3c
000001e0: b2c0 cbbb 6ccf bf3b 71cb 2cbd 63f6 e73c
000001f0: fe9a 3ebd e883 9b3d c45f 3cbd 8ce9 b0bd
00000200: 9248 ebba 5628 99bc dbe7 d5bb 3646 5f3d
00000210: 9cd7 8abd 4fe3 303c 8097 543c 24cf 5a3d
00000220: bef2 5e3d b615 bebc 5d4a 093d 458d 2bbd
00000230: a3db ecbd f6e4 71bc 50ab 873c 8faf 09bd
00000240: bd54 bdbd d774 c6bd 0754 b5bd c81d 05be
00000250: 2e84 383d 24dc 333d 2108 8f3a 03d4 debd
00000260: edac 2ebe 1c28 7c38 97bb 1d3d 4a48 cbbd
00000270: 429c ee3c 0245 9fbd 090b 923d 4cae ddbc
00000280: 5e68 523d 4809 97bc ea8b 423c 1b02 42ba
00000290: 1d2c dfbc b58e de3d 07f6 283d 1591 833d
000002a0: 1bc3 b3bd 56c5 d3bd 70a4 c93b 234e 46bd
000002b0: 4543 9dbd 93cd 02be 1fb0 4e3d a173 b238
000002c0: 211e b2bd 00b4 61bd c775 a73d 7c30 3fbd
000002d0: 3537 a53c 58e6 8fbc 9cb9 b7bd 4dca a53d
000002e0: 11de 7fbd d15d 7d3d 0484 4abd 721e 32be
000002f0: 3d41 173c 40e6 17bd 1e71 6a3d 7f15 bcbb
00000300: 54f1 9b3b c54a c73d 77c1 b5bd 5aef 3d3d
00000310: 7fa3 54bc 2a40 cebd 6bd3 d1bb e2d8 0cbe
00000320: 2196 20be ea44 b63d 48fc 88ba 95db 503c
00000330: 21a7 1f3d 33a6 dbbc bd83 67bd 7ad8 4bbd
00000340: cef1 62bd 3c2a 3d3d 5be8 02bd 80ee 603d
00000350: 4e78 9f3d 15f8 2c3d 97f0 7c3c d3c4 fd3b
00000360: 3ad4 533d d8e0 663d 7c66 3dbc 1801 9f3c
00000370: d557 3a3d 05f7 61bc af53 7c3d 6335 4bbd
00000380: eb04 b5bd 76aa 613d 9210 63bd 6a38 f83c
00000390: cfc7 833d 6d71 a8bd 0b41 3f3d 85be 54bd
000003a0: 96a3 2f3c cf3d dc3c 458f 6dbc f4f1 61bd
000003b0: cc48 d83c e3fe 023c 0cf0 a03b f7af bb3d
000003c0: 6dce 27bd 6ade bcbd 46cd 99bd 99ce dcbd
000003d0: 415d 8abd fe51 15bd bc3d ae3d e541 c53d
000003e0: d9b7 76bd 00ba adbd 03b7 9cbd 096b 283d
000003f0: ec15 3f3c a570 73bd e248 55bd 0315 5f3d
0.04408327 -0.10424855 -0.10439967 -0.08435085 0.08273993 0.041725174 -0.065080695 -0.029271485
-0.11076732 0.059853457 -0.06690384 -0.10951902 0.032384217 -0.02144153 0.06949211 -0.014545436
-0.075246446 -0.034267243 -0.11972507 0.012427384 -0.08947589 -0.1030391 0.019481536 0.0184456
0.0024673315 -0.018782193 0.07575125 0.07386992 0.037353132 -0.036245987 0.11119726 0.089089334
0.053311035 0.023701273 -0.011423402 0.0272102 -0.046847433 -0.046281856 0.016027225 0.122572474
-0.016273696 0.043850403 0.014602839 -0.005796262 -0.062259875 -0.09869659 -0.106653355 -0.036136735
-0.04859738 0.028979897 0.05459 0.029143635 0.01600995 -0.1256872 -0.000104353756 -0.044754453
-0.07985071 -0.09042355 0.018734846 0.05534599 -0.13186722 0.03342454 0.03866447 -0.037087195
-0.033507057 -0.03316664 -0.043029554 0.09282108 0.032089844 0.08179391 -0.013174656 -0.009196113
0.018303981 0.03639629 -0.05234204 0.04764256 0.022726769 -0.0034040909 -0.06289636 -0.006560518
0.024797695 -0.037102737 -0.04990182 0.020116987 -0.03358572 0.0072175325 0.007960436 0.039806202
-0.0029246137 -0.04913759 0.0207014 0.019252772 -0.045539394 0.0897909 0.06970605 0.039658494
0.06287173 0.018340398 0.023850031 -0.005845114 0.048377004 0.002745187 -0.04253797 0.081394725
-0.025236126 -0.02107731 0.0377705 0.112885274 0.08445046 0.023183187 0.010543151 -0.007834948
0.06484616 0.0012510105 -0.074763715 0.011981177 0.02323788 0.007351307 0.07316168 0.013619116
-0.0062180394 0.005853584 -0.042186204 0.028315729 -0.04653453 0.075935185 -0.045989767 -0.086382955
-0.0017950705 -0.018695991 -0.0065278835 0.054510318 -0.067794055 0.010796382 0.012975574 0.0534202
0.054430716 -0.023203712 0.033518184 -0.041882772 -0.1156533 -0.014764061 0.01656118 -0.03361469
-0.09244678 -0.09690254 -0.088539176 -0.12999642 0.04504793 0.043911114 0.0010912457 -0.10880282
-0.17058153 6.0118837e-05 0.038508978 -0.099258974 0.029127244 -0.07776834 0.07131011 -0.02706065
0.051369064 -0.018437043 0.011874178 -0.00074008264 -0.027242715 0.10867063 0.041250255 0.064241566
-0.08777448 -0.10340373 0.0061536357 -0.04841436 -0.07678846 -0.12773733 0.05046093 8.509239e-05
-0.08697153 -0.055103302 0.08176761 -0.046677098 0.020167926 -0.017565891 -0.08970949 0.080952264
-0.06246764 0.06185705 -0.049442306 -0.17394426 0.009231863 -0.037084818 0.057236783 -0.005739867
0.004758993 0.09731058 -0.08874791 0.04637084 -0.012978434 -0.10070832 -0.006403377 -0.13754609
-0.1568227 0.08899863 -0.0010451162 0.012747665 0.038977746 -0.026812648 -0.05652212 -0.049766995
-0.055406384 0.046182856 -0.031959873 0.05491495 0.07786618 0.042228777 0.01543822 0.0077444105
0.051716067 0.05636677 -0.011560079 0.019409701 0.04549392 -0.013791804 0.061603244 -0.04961146
-0.08838829 0.055094205 -0.055435725 0.030300338 0.06434595 -0.08224759 0.04669289 -0.051939506
0.010720154 0.026884941 -0.01449949 -0.055162385 0.0264019 0.00799534 0.0049114283 0.09164422
-0.040968347 -0.092221096 -0.07509856 -0.10781593 -0.06756068 -0.036455147 0.08507869 0.09631709
-0.060233925 -0.08482742 -0.07652094 0.0411177 0.011662941 -0.059433598 -0.05207146 0.054463398
