nn/checkpoints/main_objs_different/0/model_30.pt (torch, 518706 bytes, 98 tensors)

weight f4 [8, 5, 3]
00000000: 2fb7 7f3d fe3e 73bd 766d 77bc 6d34 9b3e
00000010: f852 f5bd 632e 20be 0fcf 813d e31f 21ba
00000020: 01b3 0cbe 4c78 7bbc 52d2 b9bc 201b bbbd
00000030: 2b31 973e acc0 043c 86fc 60be 14c5 08be
00000040: 4a73 893e 49c4 42bc 52fd 883e 832a efbc
00000050: 6d6e ce3a bb76 043e 0db6 333e 1e71 63be
00000060: 8b70 c2bd c1f4 823e 4f7d 14bc 9dc2 893d
00000070: 9516 b1bc 04ef aebe 732e 883d 3b68 a93e
00000080: 0b96 9f3c ab7c 51bc 66df 0bbe 448a 35be
00000090: 0328 823d ba0e 0c3c 3e69 363e e8b2 6e3e
000000a0: 0d25 1cbe 5f3d 7f3e 650b 9f3e e31c 68be
000000b0: 6f53 563e 6085 b8bd 39b7 fa3d d5b6 3a3e
000000c0: 600e 73be 9366 933e ceee 0b3e f0ae 14be
000000d0: 606b 893d 873a 50be ea1c 9cbe 8189 0abe
000000e0: 153e 7ebe 5d21 273e 608f 063e 3b3d a3be
000000f0: ac99 523e 448f cdbd 4745 56be e577 003e
00000100: 168b 973e 958f 94be cc10 663e 7b9d f6bc
00000110: 49f9 9dbc 8e23 be3d e01d 2f3d 7f53 b3bd
00000120: e2f2 e3bd d3be ef3e 3328 183d 7be8 db3e
00000130: 3537 a3be 2194 fd3c 1394 773e 38e8 493e
00000140: f325 d93d ebfe 2abe 24bd 423e 9970 38be
00000150: 7659 03be cb96 813b fb37 7cbe 503d 7d3e
00000160: b548 1abd 7971 b83d 498a a6be 31ab 50be
00000170: cb2c 48bd f31a 0e3e fd6f c0bd 694b 5dbe
00000180: 5de5 25be bf22 1fbd 57d9 503e a947 29be
00000190: 8b2f 523d 7c03 313e c196 a6be e21f 2dbd
000001a0: 374e a2be e1db 05be ebb9 78be 3914 633e
000001b0: 606d febd 9a38 85bd daec db3d 4a82 6ebe
000001c0: cc05 15be 6735 483e 40a4 24be d72e 673c
000001d0: 5ae0 7d3e 1f9c c8bd df8e e6bd 810a 113e
0.062430557 -0.059386246 -0.015101781 0.30313435 -0.11978716 -0.15642695 0.063383214 -0.0006146414
-0.1374016 -0.015348505 -0.022683296 -0.09136033 0.295297 0.008102577 -0.2197133 -0.1335643
0.2684577 -0.011887618 0.26755768 -0.029195076 0.0015749462 0.12935917 0.17549916 -0.2221112
-0.09494122 0.25577357 -0.009063079 0.06726573 -0.021617213 -0.3416673 0.066494845 0.33087334
0.019480726 -0.012786071 -0.13659438 -0.17728525 0.06355288 0.008548433 0.17813584 0.23310435
-0.15248509 0.24925755 0.3106338 -0.2266727 0.20930265 -0.09009814 0.12241978 0.18233807
-0.23735952 0.28789195 0.13665316 -0.14519858 0.06709933 -0.20334826 -0.3049081 -0.13529016
-0.2482837 0.16321321 0.1314063 -0.31882653 0.20566434 -0.100370914 -0.20924865 0.12545736
0.29598302 -0.29015794 0.22467345 -0.03010439 -0.019283907 0.09284125 0.0427531 -0.0875616
-0.111303106 0.46825275 0.037147712 0.42950806 -0.31878057 0.030954422 0.2417758 0.1971749
0.10602941 -0.16698806 0.19017464 -0.18011703 -0.12827095 0.0039547435 -0.2463073 0.2473042
-0.037666995 0.09006018 -0.32527378 -0.20377804 -0.048870843 0.13877468 -0.0939636 -0.21610798
-0.16200776 -0.038851496 0.20395409 -0.16531242 0.05131487 0.17286485 -0.3253689 -0.042266734
-0.31700298 -0.13072158 -0.24289672 0.22175683 -0.124232054 -0.065049365 0.10738535 -0.23291889
-0.14552993 0.19551621 -0.16078281 0.014110289 0.24792615 -0.09795403 -0.11257719 0.14164163

bias f4 [8]
00000000: 02e8 04be ee89 293e 6637 9d3c 1aac 8e3d
00000010: fd75 5ebe 95f8 92bd 66d6 b23e 20fb 05be
-0.12979129 0.16556522 0.019191455 0.069664195 -0.21724696 -0.071763195 0.34929198 -0.13084078

weight f4 [8]
00000000: e907 743f f848 813f f003 6b3f 240a 753f
00000010: c6ad 4a3f f787 453f b0c2 963f 1b7f 9f3f
0.9532457 1.0100393 0.91802883 0.957186 0.7917141 0.7716059 1.1778164 1.2460665

bias f4 [8]
00000000: 1424 2c3e 7a32 e73d 4328 923d 89c9 1e3e
00000010: cc80 a63e da23 533e bee6 33bd c360 663d
0.16810638 0.112889245 0.071365856 0.15506567 0.3252014 0.20619145 -0.043921225 0.056244623

running_mean f4 [8]
00000000: 1ba7 30be 4819 9b3e aa33 cb3e e504 12be
00000010: a646 cb3c 7c1d ee3d 7b1a 45be bca1 96be
-0.17251246 0.30292726 0.39687854 -0.1425968 0.024813961 0.116267174 -0.19248383 -0.2942027

running_var f4 [8]
00000000: f0c7 533e e3cc ce3e 61c2 893f b554 f33e
00000010: 0b4a 0e3f c628 df3e 2be6 0640 0744 093f
0.20681739 0.4039069 1.0762445 0.47525564 0.5558173 0.43585795 2.1077983 0.53619426

weight f4 [8, 8, 3]
00000000: 725f 03bd 9479 41be 588d 723c 8d28 4abc
00000010: e3d7 a7bc fc5b 2a3e 4779 7abe 825d 383e
00000020: 0047 9fbe b8c6 2f3e 41d6 dfbb 030e a83d
00000030: eb8d b1bd 6294 3fbb f47d c13d 8f6b d2bb
00000040: 1ff0 63be 107e 29bd f715 5f3e 3b00 623e
00000050: f747 cd3e 730e e33d 4b01 50bc 03c7 42be
00000060: 2249 12be 1303 b53c 6a97 c2ba d18f 8abe
00000070: 5bd4 be3d 0665 afbe bd1e 53be c470 063e
00000080: 6e4c d0bd e4e6 93bd dc31 193e b055 9abe
00000090: 5477 eabd b4a6 c73d 1162 87bd 437b bf3d
000000a0: 9da4 85be 96f6 093e e9dc 0d3c f43c ba3c
000000b0: 44d0 37be d4b6 613e d11a 8bbe 76c6 0a3e
000000c0: 4aee c53b f96d 8fbe 463d e1bd e7d8 e3bc
000000d0: 25d6 16be 256e 433d 1a03 2dbd ae7d 273d
000000e0: 0f85 12bd 2942 89bd 48cf 43be 17c5 8d3e
000000f0: dc45 3fbe 74fa 79be 12b6 943d 2ea0 5dbe
00000100: d958 b8bd 4b6b d539 3cff c53d ccfc b6bd
00000110: 5cdd 17be eca2 8a3d 3101 333e 2da8 503e
00000120: f8f7 603d 2a40 3d3e f546 5dbd 9f9a 0b3e
00000130: dfb6 2b3e ea59 d9bc d82d a1bd 6dae 26bd
00000140: a97f 1f3e ca3c 6fbc 4819 833d 428f b3bd
00000150: ce23 e43d 7bc0 023e 9a6b 6dbe 0364 c4bb
00000160: cc44 d63d 1fa9 31bd 8639 83be af16 c1be
00000170: 35c8 96be aaad a83d 3c91 db3a 8a5f d93e
00000180: 7a2b ab3e e86c 1dbd d4ca 873e e490 dd3d
00000190: aa1c 3cbe d3f2 923e c917 6d3e aeac 9f3d
000001a0: bf1b 63be f2c0 4abe f193 1abe 7f81 1e3e
000001b0: 280e 0f3e d4bd 8f3d 79be b73c bd67 11bc
000001c0: 9b6d 783d 00f8 26bd f07d fb3c 8556 0d3b
000001d0: 6b52 42bd a6a9 04be 35ac 473e f411 f73d
000001e0: ef57 b3be b7f5 02be 5ac4 263d 35b3 343d
000001f0: a01f 2e3e 9eb4 52be a69f 95be 1e0f c03b
00000200: 0848 b9bd 7229 71be dafd 3bbd 80a6 86bc
00000210: 3288 b9bd 1cf8 2dbe e954 98be cb1d d1bd
00000220: 3c74 ffbd 8936 78be 9855 5b3e 0594 113e
00000230: 4ab8 34bd cff0 b93d 4706 72be d5ac 49be
00000240: ab1e adbd 7f0f 8e3d 0d2e 92bd 2601 59be
00000250: 9439 2d3e aa12 503d 8591 003e e23d a03d
00000260: 3f9c 1dbd 1e13 bd3d c479 b4bc 9386 acbd
00000270: bf92 94bc 28ee ae3b c328 f9bd 8403 8ebb
00000280: 860b 8dbd d185 97bd a254 b73e 175f 953e
00000290: 4be4 f7bd 382a 1c3e 4280 e4bd d233 db3e
000002a0: a0ba b53c 6f53 423d bf1d f13d 10c5 2bbe
000002b0: 035b b43d af4d bebd dd93 c03c 415a 94be
000002c0: 314d 1f3e db04 12be 8482 11be be9c f5bd
000002d0: ff2b 13bd bdc2 89bd 373d 7ebe 6d60 98bd
000002e0: 67c6 133e 0b35 98be 73ec 76be 36ae 43be
000002f0: 75bd 473d 9c93 98be 5e54 debd c527 8f3d
-0.032073446 -0.18894035 0.014804207 -0.01233877 -0.020488685 0.16636652 -0.24460326 0.1800442
-0.31108856 0.17165649 -0.006830961 0.082057975 -0.08669647 -0.002923273 0.09447852 -0.0064215134
-0.22259568 -0.04137999 0.21785723 0.220704 0.40093967 0.1108674 -0.012695621 -0.1902123
-0.1428571 0.022096192 -0.001484615 -0.27062848 0.09317847 -0.34256762 -0.20617194 0.13128954
-0.10170828 -0.07221773 0.14960426 -0.301435 -0.11448541 0.09748593 -0.066105016 0.09349682
-0.26102152 0.13472971 0.008658626 0.022734143 -0.17950541 0.220424 -0.27168897 0.1355227
0.006040369 -0.2801359 -0.10998015 -0.027813388 -0.14730127 0.047712464 -0.042239286 0.040891342
-0.035771426 -0.06702072 -0.1912204 0.2768943 -0.18678993 -0.24411947 0.0726129 -0.21643135
-0.09001321 0.00040706465 0.09667823 -0.08934936 -0.14830536 0.06769356 0.17480923 0.20376654
0.05492398 0.18481508 -0.054022748 0.13633202 0.16768979 -0.026532132 -0.07870072 -0.04069369
0.15576042 -0.014601896 0.064013064 -0.08767559 0.11139642 0.12768738 -0.23185578 -0.0059933676
0.10462341 -0.043374177 -0.25629824 -0.3771262 -0.2944962 0.08236249 0.0016751657 0.42455703
0.33431607 -0.03843394 0.26521933 0.10818651 -0.1837031 0.28700885 0.23153605 0.07796608
-0.22178553 -0.19800165 -0.15095498 0.15479086 0.13970244 0.07018629 0.022429692 -0.008874831
0.060651403 -0.040763855 0.0306997 0.0021566462 -0.04744188 -0.1295534 0.19499286 0.12063971
-0.35028026 -0.12789045 0.0407146 0.044116218 0.17004251 -0.20576712 -0.29223365 0.005861177
-0.09046942 -0.23550966 -0.04589639 -0.016436815 -0.0905918 -0.16989177 -0.2975228 -0.10210761
-0.12473342 -0.24239554 0.2141937 0.14216621 -0.044121064 0.09079134 -0.23635207 -0.19694836
-0.08453115 0.069365494 -0.0713769 -0.21191844 0.16916496 0.05079905 0.12555511 0.07824303
-0.038479086 0.09232162 -0.022030719 -0.084241055 -0.01813638 0.005338449 -0.12165978 -0.004333915
-0.068869635 -0.0739857 0.35806757 0.2917411 -0.1210409 0.1525048 -0.11157276 0.42812973
0.022183716 0.04744285 0.11773252 -0.16774392 0.088064216 -0.09292161 0.023508007 -0.28975108
0.1555679 -0.14259665 -0.14209944 -0.11992787 -0.03593063 -0.067265965 -0.24828039 -0.07440267
0.14431153 -0.2972797 -0.24113636 -0.19109425 0.048764665 -0.29800117 -0.108559355 0.06990007

bias f4 [8]
00000000: f0c4 383e 4b8c 54bc f1bb 6f3e e349 6dbe
00000010: c994 15be 51da b33c aa78 c6bd a538 c7bd
0.18043876 -0.012972902 0.23411538 -0.23172717 -0.14607538 0.021954687 -0.096909836 -0.09727601

weight f4 [8]
00000000: 51e8 853f 57d3 8b3f 109e 8b3f 2bf7 6f3f
00000010: 6d8b 713f b765 713f a35c 7e3f cfad 6c3f
1.0461522 1.0923871 1.0907612 0.93736523 0.9435337 0.9429583 0.993601 0.9245271

bias f4 [8]
00000000: 36ef 5f3e 0221 5d3d dccd bb3d 5f66 28be
00000010: 4d14 753e 8a8c 963e af7a b23d 99d9 9a3e
0.21868595 0.053986557 0.09170124 -0.16445301 0.23933525 0.29404098 0.08714806 0.3024414

running_mean f4 [8]
00000000: af1b 983e c547 cabe 6d8e 31bd f58a 44be
00000010: 945a 553e 20bd 33bf a432 2a3e 616a 34bf
0.2970862 -0.3950788 -0.04334872 -0.19193633 0.20835334 -0.70210457 0.1662088 -0.7047482

running_var f4 [8]
00000000: b208 de3e 4b0e 2a3f 810a d83e 3f0b 0e3f
00000010: 08ea 2b3f 9a28 9d3f 7acc 3f3e f55f ce3e
0.4336601 0.6642806 0.42195514 0.5548591 0.6715398 1.2278016 0.18730345 0.40307584

weight f4 [8, 8, 3]
00000000: c95c fe3d d074 babc 26d7 9ebe 9572 afbd
00000010: 90ce 053e 2e6f 9d3d 5a7c e53e c50b f33d
00000020: deef e63d 40bb c4bd ca4f c5bd 12d7 233d
00000030: d053 b1bd 2c40 0ebe 5359 8c3d fab7 a7bd
00000040: bf49 0abe 8efc 80be bd03 15be 5c06 d5bd
00000050: a670 953c aabe 49bd 27d1 a8bd 5c95 c83c
00000060: f092 133e 19ed 83bd 5b03 633d e66a 033b
00000070: f2c2 1abe 59bc 6a3e 2c2c 233e f190 9f3d
00000080: 5d50 3d3d dabc 68be 757f 01be df6c d5bd
00000090: 0993 123e bdae 08be 8b26 763d 1be9 1e3e
000000a0: 2286 74bd 2e29 b53d 504a 683e a400 0cbe
000000b0: 9660 643d 761d e5bd 48a3 a3be ed37 1bbe
000000c0: 277a 7f3e 6d4b 7d3e e947 063e 4577 a0be
000000d0: 5226 043e 1357 c83d a0db 4c3e 5b93 223e
000000e0: 9f9a 25be c209 31bc 2c5a 133d fe3b 07be
000000f0: 68d8 a53c f9a3 423e a385 b23d 312b 99bd
00000100: f432 6a3e cedb 6e3d 920b 1a3d 93e1 5ebe
00000110: 00fa 7c3d baf5 193d 1437 bbbd 6098 1dbe
00000120: 2bc2 26be 53ae 08be 8b9e a93e b2c9 443d
00000130: 2f3b 213e 6c63 ffbd 7a04 94bc 90a5 983d
00000140: 9fdb 9f3d 17e9 ddbd 1a53 1bbd 62f1 42be
00000150: 671a 76bd f40b 903d 7752 453e 62d3 db3d
00000160: 9fa1 98bc d099 263e ec61 26be 3a70 52bd
00000170: 1b65 1cbe 572c 8e3e 3fbc c83d e5f1 f2bd
00000180: 0b81 d7bd fda6 1fbd 60fe 7bbe 6ef1 a5bc
00000190: de70 08be bc39 513e 6c0c b63d fd2d df3d
000001a0: e07e a53e e966 9bbd 0042 193e 8ac2 383e
000001b0: 3282 b53d a544 4dbe ac14 463e f7f0 6b3e
000001c0: cf84 583e 7bdd 963b f447 6fbe cbbc 9c3d
000001d0: 0599 b7bc bfb8 febd 1483 cc39 6874 76be
000001e0: a611 b7bd 5781 3a3d 3dc5 04be 25b7 033e
000001f0: 832e 58be 6cad bc3e 6ae0 bbbd 9f6e ce3d
00000200: bab4 b93d 9318 48be a583 5d3d 8e92 7a3d
00000210: 8493 8ebe a33a 20bd 71bc 49be 8b05 5ebd
00000220: 6edd c1bd ff21 2abe 1635 c73d c761 2cbe
00000230: 775a 793d 37c0 39ba a373 6bbe 0dad 64be
00000240: bd8e d0bd e591 42bd 946b d8bd d3dd 35be
00000250: f624 a8bb 55e6 f83c b748 213e 38e7 f4bd
00000260: 2457 abbd 6407 ec3d 8dbf 25be add5 9ebd
00000270: 8ea8 983d 95d6 843e dedc a53e db47 89be
00000280: 579c 93be 8fbd 15be cf99 dcbd f42d 673c
00000290: ea9f 8cbe 6ae6 01be 8599 3fbe 152a af3d
000002a0: c0d6 36be 0a9e 103e d668 7ebd 931d a4be
000002b0: 3c64 133e edbd a93b b919 48bd d02c e9bd
000002c0: 53bb b03d 3057 b73d 11a4 adbe 775d 1c3d
000002d0: d5ec 3d3e 9d82 783e 96cb 7cbe fcde 10be
000002e0: c697 a7bd 5956 a8bc feca b039 54f3 c53c
000002f0: da83 89be 9d92 183e a5ed 683e 0b87 203d
0.12420041 -0.022760779 -0.3102352 -0.08566777 0.13067079 0.076872215 0.44821435 0.11867479
0.1127622 -0.096060276 -0.09634359 0.04000003 -0.08658564 -0.13891667 0.06852975 -0.081893876
-0.13504694 -0.25192684 -0.14552207 -0.104016036 0.018242192 -0.049254097 -0.08243018 0.024485283
0.14411521 -0.06441707 0.055423122 0.002005273 -0.15113428 0.22923411 0.15934819 0.07791317
0.04621922 -0.22728291 -0.12646277 -0.10421156 0.14313902 -0.13347907 0.06009535 0.1551861
-0.05969823 0.08845745 0.22684598 -0.1367212 0.055756174 -0.1118726 -0.3196051 -0.15158053
0.24948941 0.24735804 0.13113369 -0.31340995 0.12905243 0.09782233 0.20005655 0.15876524
-0.16172265 -0.010805549 0.035974666 -0.13206479 0.020244792 0.19007863 0.087168954 -0.07478941
0.22871 0.05831509 0.03760869 -0.21765737 0.061761856 0.03758786 -0.09141365 -0.15390158
-0.16285007 -0.1334775 0.3312877 0.048043914 0.15745233 -0.12470135 -0.01806854 0.074534535
0.07805561 -0.10835474 -0.03792105 -0.19037393 -0.060083773 0.0703353 0.19269739 0.107336774
-0.018631754 0.16269612 -0.16248292 -0.05137656 -0.15272944 0.27768204 0.0980153 -0.11862544
-0.1052266 -0.03897761 -0.24608755 -0.020256724 -0.13324305 0.2043218 0.08889088 0.108974434
0.3232336 -0.07587988 0.14966583 0.18042961 0.088627234 -0.20045717 0.19343823 0.2304114
0.21144412 0.0046040392 -0.23367292 0.07653197 -0.022411833 -0.12437581 0.00039007573 -0.24067843
-0.08938913 0.045533504 -0.12965865 0.12862833 -0.21111493 0.3685106 -0.09173663 0.10079693
0.09067674 -0.19540624 0.054080624 0.06117492 -0.2784692 -0.03911842 -0.19700791 -0.054204505
-0.094660625 -0.16614531 0.09726922 -0.16834174 0.06087729 -0.0007085832 -0.2299333 -0.22331639
-0.10183475 -0.047502417 -0.10567394 -0.177604 -0.005131359 0.030383268 0.15750395 -0.11958164
-0.0836623 0.11524847 -0.16186352 -0.07755599 0.07454024 0.25944963 0.3239507 -0.26812634
-0.28830215 -0.14623092 -0.10771524 0.014110077 -0.27465755 -0.12685552 -0.18710907 0.085529484
-0.17855358 0.14122787 -0.062111698 -0.32053813 0.14393705 0.0051801116 -0.048852656 -0.113855004
0.08629479 0.089521766 -0.33914235 0.038175073 0.18547376 0.24268575 -0.24687037 -0.14147562
-0.08183245 -0.020548986 0.00033720577 0.02416388 -0.26858407 0.14899679 0.22746904 0.039191287

bias f4 [8]
00000000: d3b7 2dbc d71d b8bd bbc4 81bc 3eb0 c33d
00000010: 88e9 653c 9797 03be f55b 16bd 7684 fa3d
-0.010602909 -0.089900665 -0.015840879 0.095551 0.014032729 -0.12850796 -0.03670879 0.12232296

weight f4 [8]
00000000: 7a42 8a3f bb13 813f d0d6 523f a625 7e3f
00000010: 462d 613f f9f0 883f eb62 7a3f fb9a 813f
1.0801537 1.0084146 0.8235903 0.99276197 0.87959707 1.0698539 0.97807187 1.0125421

bias f4 [8]
00000000: 0dac 8fbc 0959 90bd f962 d0bd 89e2 a73e
00000010: 4fb6 e6bb 2df5 b43d aaed 093f e9e7 583e
-0.017538095 -0.07048232 -0.101751275 0.3279002 -0.007040776 0.08835826 0.5387827 0.21182217

running_mean f4 [8]
00000000: f23a 8bbe 1ab9 cabd 7fa1 bf3e 5112 923e
00000010: c8c5 cc3d c3fc 23bf f557 23bf ce52 81bc
-0.2719341 -0.098985866 0.374279 0.285296 0.09998661 -0.6405756 -0.63806087 -0.015786555

running_var f4 [8]
00000000: 3538 ce3d 9d16 f43d 50e6 013e af76 313e
00000010: 3a8e 5f3e f194 5d3e 2cb6 b73e b6e3 703e
0.100693144 0.11918376 0.12685513 0.1733043 0.21831599 0.21638848 0.35881174 0.23524365

weight f4 [8, 8, 3]
00000000: 5c38 bd3c 5077 8dbd 5ed4 51be dc6d 37bd
00000010: e11e 103e cb53 6d3d e258 8a3d 0cdd 6ebd
00000020: 4ae8 34be 0886 c53c 9359 53bd a963 903e
00000030: d3d2 d5bd 199e 373e 9c20 01bd 0c1a 853b
00000040: 6a83 593e 5b80 44be 47c2 d33d 1956 edbd
00000050: 82fc 433e 6f9f b13e aa07 fc3d 2415 69be
00000060: e2a3 c1be 668c d4bd 1c0e 0bbe 8d09 b03d
00000070: 2ea6 d13c dda1 123e 02f8 123e 1a7a babc
00000080: b2f9 323e e893 b43d ce20 7f3d 02d8 8dbd
00000090: ab40 8a3d 2371 c43d a192 723e 7b9b 2b3e
000000a0: c66a c0be 1f87 423e 9240 f13d 0165 dbbd
000000b0: 9a18 50be ba78 d93d 874e 0b3e a695 d3bd
000000c0: a2d3 813b df00 293c 71c2 c8bd f1c4 bd3d
000000d0: 413f bfbb dad9 313e 39eb 64be 4526 24be
000000e0: 3e35 6d3d e211 99be ebda 033e fccc e8bd
000000f0: 29ee ebbc bc83 053e b30c 583e e72a f6bc
00000100: 43df 823d 1ffa 163e 5387 6cbe 816b 6e3d
00000110: 90d5 d6bd 7460 67be 5a05 abbe d84d d1bc
00000120: a30f 953c d4b7 5d3e 16e3 193c 676e 393d
00000130: 69da 0dbe 5690 0ebe 911c 38bd a97d efbd
00000140: 94a5 f2bd bdb9 88be 86d5 953e a8b7 e83d
00000150: 102a ae3d 9efe 723e 7a01 593e 8412 493e
00000160: b465 3ebd 2b12 9ebd 2ff6 22be ad3a 3dbe
00000170: 16ae 963e ba92 4abd 1236 303c b789 56be
00000180: 64b9 0abe 003a 76bd e332 a43d 69f1 b03e
00000190: 849e 173e cdf8 6a3d 67e7 96bd ddd8 ff3d
000001a0: 169e c4bb 2b65 dabe dc45 74be 9940 473d
000001b0: 04e9 3ebe 0122 86bd bd68 8f3d efd7 06bd
000001c0: 3c66 23bd dd6e d93d 3a10 58be 82bb 12bd
000001d0: 6af4 a1bd 7d48 f1bc f888 04bb 615d 15bc
000001e0: f941 84bd a8d4 93bb 7aaa 97be 5602 1f3e
000001f0: 8112 adbd 2c3d 5c3e e485 2b3e ed0f 2ebe
00000200: d9d9 2e3e 924b 583c dd72 5b3e f94a 653d
00000210: 08e3 41bc 4716 4bbe 61a7 553e 34e0 1e3d
00000220: 0a7d ff3c 8472 07bd 0017 ae3e 740f 953e
00000230: 3a93 163e 7ffc a2bd 4beb 34be 0a1d 0b3d
00000240: 61b1 043e 6b1b 2bbd 1e87 1a3e 1125 243e
00000250: 323c 2a3e bb28 303e 8c60 5e3e 9f52 ec3d
00000260: 12e9 e93d ee37 2d3e 3bce 22be cb06 e93d
00000270: 8fd1 84bd 37a3 06be 522d ffbd 942d 0abd
00000280: 3a09 843d 837c a0bd 9b0f 823e 00f3 493e
00000290: e2e4 ba3e 1938 0e3e ffe5 fa3d 9a82 29be
000002a0: e30f ae3e 34e8 6abe 3dea 4abd 5a33 abbd
000002b0: 818d 03be 299a 853e 251e f73d 1892 f7bd
000002c0: f0ad 16bd 72e8 d03b 75a9 2f3e 67de 46be
000002d0: 643a 7ebc a7ce 66be 8ddf b73d 1663 7f3d
000002e0: cea4 84be 8d54 bd3e d3a7 fcbd 9a5a d0bd
000002f0: 9e19 2a3e c487 0abd 79fc 0dbd 5897 813d
0.023098163 -0.06907523 -0.20491168 -0.044782504 0.1407428 0.05794124 0.06755234 -0.058316275
-0.17666736 0.024111763 -0.051599097 0.28201035 -0.10440602 0.17931403 -0.03152524 0.004061943
0.21241537 -0.19189589 0.1033979 -0.115886874 0.19139293 0.3469195 0.12306149 -0.22761971
-0.37820345 -0.103783414 -0.13579601 0.08595572 0.025591936 0.14319558 0.1435242 -0.0227633
0.17478064 0.088172734 0.062287144 -0.06925966 0.06750616 0.095918916 0.23688747 0.1675853
-0.37581462 0.18996857 0.11779894 -0.10712624 -0.20321885 0.1061873 0.13604175 -0.103312775
0.003961996 0.010315149 -0.09802712 0.09266079 -0.005836398 0.1736826 -0.22355355 -0.16030224
0.057912104 -0.29896456 0.1287648 -0.11367223 -0.028800087 0.13038534 0.21098594 -0.030049754
0.0639024 0.14743851 -0.23098497 0.058207992 -0.104899526 -0.22595388 -0.3340252 -0.025549814
0.018195933 0.21652156 0.00939252 0.045271304 -0.13852848 -0.13922247 -0.044949118 -0.1169389
-0.11847988 -0.26704207 0.29264468 0.11363155 0.085041165 0.23729941 0.2119197 0.1963597
-0.04648371 -0.07718309 -0.15914224 -0.18479414 0.29429692 -0.049456336 0.010755079 -0.20950972
-0.13547283 -0.060113907 0.08017518 0.3455918 0.14806563 0.05736618 -0.07368355 0.12492535
-0.0060002906 -0.4265531 -0.23854774 0.04864559 -0.18643576 -0.065494545 0.07002399 -0.032920774
-0.03989242 0.106168486 -0.2109994 -0.035823353 -0.079079464 -0.02945351 -0.0020223241 -0.009116502
-0.06457896 -0.0045114346 -0.2962225 0.15528235 -0.08450795 0.2150771 0.16750294 -0.16998263
0.1707529 0.013201611 0.21430536 0.055979703 -0.011833914 -0.19832717 0.20864631 0.038788036
0.031187553 -0.033068195 0.34001923 0.29113352 0.147046 -0.07958316 -0.17667882 0.03396324
0.1295829 -0.041774195 0.15090606 0.16029765 0.16624525 0.17203037 0.21716517 0.11539196
0.11421408 0.16915867 -0.15898983 0.11378249 -0.06485283 -0.13148199 -0.12459816 -0.033734873
0.06447072 -0.07836249 0.2540253 0.19721603 0.3650275 0.13888587 0.122508995 -0.16553727
0.33996496 -0.22940141 -0.049539793 -0.08359404 -0.12846948 0.26094177 0.120662965 -0.12088412
-0.036786973 0.006375366 0.17154486 -0.19420777 -0.015516851 -0.22539769 0.08978186 0.062350355
-0.25906986 0.3697857 -0.123366974 -0.10173531 0.16611335 -0.033820882 -0.034664605 0.06327695

bias f4 [8]
00000000: 9e3c 9bbd bb33 afbd b9a2 33bd 74c1 f1bd
00000010: 60a5 893c 3e5e fabd 741b 5a3e 9341 003e
-0.07579921 -0.08554789 -0.043856356 -0.118044764 0.01680249 -0.122250065 0.21299535 0.12525015

weight f4 [8]
00000000: cd50 763f 8a19 833f c847 953f 799b 7f3f
00000010: 343d 813f 88c6 503f 9b5b 713f 975d 833f
0.9621704 1.0242169 1.1662531 0.9984661 1.0096803 0.81552935 0.94280404 1.0262936

bias f4 [8]
00000000: 5abb 9ebd c641 883d 0061 a23e 6f0c 243d
00000010: 93de 9d3d a2e3 debd 3338 a73e 9063 f0bd
-0.07750578 0.0665317 0.3171463 0.04005092 0.07708468 -0.10883261 0.32660064 -0.1173774

running_mean f4 [8]
00000000: b06c 5b3e 011a 79bd 1ae4 fabe dc17 e4bd
00000010: 433a c8be 7ffe ee3e 8ec2 8c3f 190a 073e
0.2142818 -0.060815815 -0.49002153 -0.11137363 -0.3910695 0.4667854 1.0996873 0.13187446

running_var f4 [8]
00000000: 13c2 613e c75d 863e fd83 ad3e 5377 783e
00000010: 6200 a73e 3a9f a73e 06d7 db3e 6e85 8f3e
0.2204669 0.2624342 0.33889762 0.24264269 0.3261748 0.32738668 0.42937487 0.28031486

weight f4 [8, 8, 3]
00000000: c1cc 45bd 67a6 813e baf2 2abe 3f56 4b3e
00000010: f731 f33d 1703 043e 7d56 febc b711 0fbc
00000020: 6ca4 4abd 440a 59bd 0226 cbbd 646f f33d
00000030: 6c30 e03d b5a7 b0bd 8a1a c0bc d8f8 c73e
00000040: 98cf 103e 15c4 323e 7239 853e 16f2 053e
00000050: c15e acbc d3ab 9cbd 17f9 093e 4e6b 33bd
00000060: 8d11 4a3d 939d 6b3c c7a7 4d3e bdd7 33be
00000070: 5b95 65be 2696 fd3d 54c1 a93d 5fa0 d13d
00000080: 9561 363e 04cf 433e 4745 173d 25ed 893e
00000090: 1e62 193e 25f1 6a3e 3e4e 75bd d097 57bb
000000a0: 14bc 32bc 5d07 a53c 09ec 59be a8b1 3abe
000000b0: 99f1 273e ec35 81bd accb dbbc ee6f 893e
000000c0: ecde a4bd 0f05 0cbe bccc d8bd 839c 063e
000000d0: 6962 e8bd dcfc 0cbd 0702 903e fec5 4abe
000000e0: 6024 febd 324a cebd a347 7f3c e0c1 8f3c
000000f0: ac86 843e 520d 373e ee8f 1e3e 158d c9bd
00000100: 5f2e b23d 9733 4f3c aec1 d5bc da0f 553d
00000110: b313 5bbc 36e7 86bd 82ba b3be 3663 0bbe
00000120: 1ad1 c3bd bc65 fb3d 5b29 453e 0a60 873d
00000130: 9548 bd3d 6c5c 2abe 60d5 573d 0974 06be
00000140: 50db 05be ba73 733c d73e b9bb 51dd 783e
00000150: 94ef a93d 367b 2abe f8cc 33be 215a 08bd
00000160: 68b2 063e d97c 02bc 9e06 4a3e e0eb b73e
00000170: 5519 833c 78e2 7a3e 32ca dbbc c4ed e23d
00000180: 7bdb 033e f8ff 60bd 20d1 743c bad9 8ebe
00000190: bb12 f7bd 409a 25be 3455 a63e 5939 6e3e
000001a0: 06b6 29be 15ba bdbd 8f66 f5bd 0e14 2a3e
000001b0: ff3c 49bc 0b65 17bd f806 87bc bd57 f7bd
000001c0: 2cd7 943c 74bd 9ebc f7c5 f4bd ac28 a53d
000001d0: bcfd 543e a330 4b3e 1eb5 35bd e471 6dbe
000001e0: 69a7 0cbe 61ba ba3d c834 89bc 860d 45be
000001f0: c509 723c 9ec2 bcbe 38fb 7abe ee06 46bd
00000200: 0cd6 cabe a63d dbbd 0c41 29be 8dd3 4ebe
00000210: d278 0d3e dded 2f3e 382f 843e 03d3 e63d
00000220: 6edd 403d d42b 4b3e 1ed7 05be 2ca4 ba3d
00000230: 436d 4c3d c1af 04be 7bb4 2ebe 0bc7 8f3c
00000240: d2b5 73be 0f1c 1ebd 7953 ff3d 70a2 e03d
00000250: dfb1 20bd 6ed4 84be eb44 8c3e fd84 edbc
00000260: 2c6e 86be bdec 483d 0db2 033d 501c 243e
00000270: 4ac5 0f3e d330 943e 1528 293d 9ce2 17be
00000280: db35 8f3d 0192 923d 80bf b03d b176 cfbd
00000290: 3ce5 483e af6f a23e db00 123e 0f87 2dbb
000002a0: cf52 803d 4f65 29be 85b7 903d 94a2 02be
000002b0: e676 1d3e 71fd 0f3e be86 84be 4ef7 233e
000002c0: 3e62 51bd 17da 14be 6ada c1be 2e9e a5be
000002d0: 016c 74be cadb 19be d2fa 103c b39a a43d
000002e0: 44bf 37be fb68 68bd 06c3 8bbd 8bd6 0f3d
000002f0: 2022 9e3d 3089 073e 30ea 57bc 2e79 63be
-0.04829097 0.25322267 -0.16694155 0.19857119 0.118747644 0.12891804 -0.0310471 -0.008732251
-0.04947321 -0.052988306 -0.09919359 0.118864805 0.10946736 -0.086257376 -0.023450155 0.3905704
0.1414169 0.17457612 0.2602039 0.1308063 -0.021041276 -0.0764996 0.13473926 -0.043803506
0.049333144 0.01438083 0.20083533 -0.17562766 -0.22420256 0.12382154 0.082888275 0.102356665
0.17810662 0.19121939 0.036931302 0.2693874 0.14978835 0.22943552 -0.05988907 -0.0032896884
-0.010909099 0.020145113 -0.21281447 -0.18231833 0.16400756 -0.06309113 -0.026830517 0.26843208
-0.080503315 -0.13673805 -0.10585925 0.13145642 -0.11346895 -0.034420833 0.28126547 -0.1980209
-0.12409282 -0.100727454 0.015581044 0.017548501 0.25883996 0.17876175 0.15484592 -0.098413624
0.08700251 0.012646577 -0.02609333 0.05201707 -0.013371396 -0.06587069 -0.35103232 -0.13612065
-0.09561367 0.12275264 0.19254057 0.06610115 0.092423595 -0.16636819 0.052693725 -0.13130201
-0.13071942 0.014859134 -0.005653243 0.24303176 0.08297649 -0.16648564 -0.17558658 -0.03328908
0.13153994 -0.007964336 0.19729087 0.35922146 0.01600329 0.24500453 -0.026829813 0.110805064
0.12876694 -0.05493161 0.014942437 -0.27900487 -0.120641194 -0.16172123 0.3248688 0.23264064
-0.16573343 -0.09264008 -0.11982452 0.16609213 -0.012282609 -0.036961596 -0.016482815 -0.120772816
0.018169008 -0.019377448 -0.11951821 0.08064398 0.20799917 0.19842772 -0.04436218 -0.23187977
-0.13735737 0.0911758 -0.0167488 -0.1924344 0.014772837 -0.3686723 -0.24509895 -0.048346452
-0.3961643 -0.10705118 -0.1652872 -0.20197888 0.1381562 0.17180581 0.25817275 0.11270716
0.04708617 0.19840938 -0.13070342 0.091133446 0.049908888 -0.1295767 -0.17061035 0.017550966
-0.23799828 -0.038600978 0.12467093 0.109684825 -0.03923213 -0.2594332 0.2739633 -0.028994078
-0.2625593 0.049053896 0.032152224 0.16026425 0.14040104 0.289435 0.04129799 -0.14832538
0.06992694 0.07156754 0.08630276 -0.101300605 0.19618696 0.31725833 0.14258139 -0.0026478206
0.062657945 -0.16542552 0.070662536 -0.12757331 0.15377387 0.14061524 -0.2588405 0.16012308
-0.05111908 -0.1453632 -0.3786195 -0.32347244 -0.23869325 -0.15025249 0.008848863 0.08037319
-0.17944056 -0.056740742 -0.06824307 0.035116713 0.077213526 0.13235927 -0.013178393 -0.22214195

bias f4 [8]
00000000: dd6f f93d c948 c6bd 0ca3 19be 5e3b 1bbd
00000010: f0c9 0cbe 9d8e aa3c 7f30 57be 00e7 e53d
0.12179539 -0.096818514 -0.15003604 -0.037898414 -0.13748908 0.020819956 -0.21014594 0.112257004

weight f4 [8]
00000000: 9ac1 853f b698 763f 38a0 863f f9ee 823f
00000010: 0346 793f ac9e 763f eed8 833f 900c 5f3f
1.0449708 0.9632677 1.0517645 1.0229179 0.97372454 0.96335864 1.0300577 0.87128544

bias f4 [8]
00000000: 0d8d 17bd 754e a9be d89f 053d 5c53 873e
00000010: df21 383e bca8 303d e1c5 27be 97d0 903e
-0.03699975 -0.3306767 0.032623142 0.26430786 0.17981671 0.043129668 -0.16384079 0.2828414

running_mean f4 [8]
00000000: 544c 183f dd38 b43e 7624 56be c574 823e
00000010: b609 0cbe d94d 14bf 7753 433e af9a e2be
0.5949147 0.35199633 -0.20912346 0.25479713 -0.1367558 -0.57931286 0.19074808 -0.4425864

running_var f4 [8]
00000000: 7059 2d3f c88d 8b3e 8731 a33e b036 4b3f
00000010: 2d08 883e f5dd 8c3e b8aa 5a3e 682d a63e
0.67714596 0.27256608 0.31873724 0.7938032 0.26568738 0.2751309 0.21354187 0.32456517

weight f4 [8, 8, 3]
00000000: 3879 27be 7a51 6ebe 0c9b d83d bdf2 6a3d
00000010: c323 ad3d 93f6 f1bd 0e2b 92bd 0a84 1dbd
00000020: b095 f8bc 3de4 3bbe 9658 103e d6ab 0a3e
00000030: 6024 67bc 989e 933e 0788 d13d 39d1 edbd
00000040: 53dc ae3c b261 6b3e 2f86 753e c0ca 4e3e
00000050: 671c e1bd 92ef 0cbe ec3e c03d 9258 8bbd
00000060: 6b6f dbbd d8b3 6fbe eda3 56be ed9c 2d3e
00000070: 5518 33be 48d1 2fbd 4128 753d 64d5 38be
00000080: bd90 0f3e dd90 8ebe b37e d0bd d498 cebc
00000090: b88e 20be e83b 343e 1b6d 1c3e 2b9b 8fbe
000000a0: 0dd2 8d3c db46 b0bd 4248 a43d 907c c63d
000000b0: 6a1b 13bd 424a 38bd 25db 06be d380 25be
000000c0: 136e 0ebe 1a6e 3bbe a72b 55be baed fd3d
000000d0: a47f 55be 13a9 0bbe 7863 913e 3018 3a3e
000000e0: 5046 973d be94 12be 175d a1be 55b8 c43d
000000f0: 5fe7 373d 48de ab3c f7a2 323d e92c 0fbe
00000100: 13c5 fe3d c611 1ebd 0ec0 85be fa7b 33be
00000110: 7327 f7bd dd7f 96be 8d50 92bd 9823 4fbe
00000120: 6274 bd3a 4ba6 b9be 7ef3 c93d 4c62 8abe
00000130: f908 59bd e6c8 b0bc d91a e73d 408b b8bb
00000140: 2c55 1abe 3148 82be c7fc cfbd 222f f13d
00000150: 71e2 d1bc 660c 113d 4a7d 163e f162 be3d
00000160: a7bd ae3d 505e 343d 5d70 f9be c36c 8cbe
00000170: 9963 f8bc 5217 d2bc e8f7 8abc 5e18 a9bd
00000180: d2c2 5abe b653 9a3d fc89 3c3e 367f d6bc
00000190: 9eb0 8ebc 73a9 a9bc a224 37be 3482 37be
000001a0: 0637 793e e8ff 33be d343 b4bd 540b 713e
000001b0: 6e84 b6bd 315a 803e 22f5 0b3e 2ae0 e7bc
000001c0: ee84 ffbd e00f b23e bbf2 c4bd fbfc dcbd
000001d0: 4a47 6bbe 490c 6fbd 2258 4e3d 7464 1fbe
000001e0: d029 133c 671d 463d e207 663c 423a ad3e
000001f0: 4f19 483e b1fc 8cbd 60b1 ba3d b9b1 05be
00000200: 0ac7 953e c826 0dbd 64c6 d93d 8745 de3d
00000210: 478d a33c d657 c33e b4b9 703d b42b 0e3e
00000220: 6471 363c 70a2 153e bb84 8b3e 96e8 c03e
00000230: 19ee 7fbd accc 37bd 5af9 053e 0a69 3dbe
00000240: 3d78 e53d 28e9 8cbc e918 d1bd 3a87 7e3d
00000250: 3fd3 23be a82f 20be 4bd9 933e 5cfa d5bd
00000260: eab3 d73e 1eba babd 614f b03d f2bb ed3c
00000270: eb00 4bbe a1a0 40bc 61dd 3fbd 4d4e 87be
00000280: 34c0 e33d fcfa f43d 77af 453c a060 48bd
00000290: 1f08 ea3d 5e2e abbe 60f0 a7bd 68a9 50be
000002a0: ed58 bbbe 7001 80be e430 a83b c838 46bd
000002b0: 6b28 9bbd 1858 0cbe 82d6 0b3e bd33 c5bd
000002c0: 007e 083e 3aa8 abbe aee1 2c3e 4e5e 6d3d
000002d0: b536 d83d 3880 bd3d 3d76 223e 8b40 c7bd
000002e0: b6a4 30bb cb21 3a3d 7e38 553e 3472 5a3e
000002f0: d202 96bc a182 6cbd 1221 c7bd afa9 43be
-0.16354835 -0.23273268 0.10576448 0.0573604 0.08454087 -0.118146084 -0.07137118 -0.038456
-0.030344814 -0.18348785 0.14096293 0.13542113 -0.014107794 0.28831935 0.10231023 -0.11612172
0.021345293 0.22986487 0.23976968 0.2019453 -0.109917454 -0.13763264 0.093870014 -0.06804003
-0.10714611 -0.23408449 -0.2096097 0.16954394 -0.1748975 -0.042924196 0.059852842 -0.18050152
0.14020057 -0.27844897 -0.10180416 -0.025219359 -0.15679443 0.17600977 0.15275995 -0.2804807
0.017312074 -0.086072646 0.080215946 0.09691727 -0.035914816 -0.044992693 -0.13169535 -0.16162424
-0.13909177 -0.18303719 -0.20817433 0.12398858 -0.20849472 -0.13638715 0.283962 0.1817329
0.07386458 -0.14314553 -0.31516334 0.09605471 0.044898387 0.020980015 0.043612447 -0.13981976
0.12439933 -0.03859117 -0.2612309 -0.17527762 -0.12068071 -0.29394427 -0.0714427 -0.20228422
0.001445424 -0.36259684 0.098608956 -0.2702812 -0.052987073 -0.02158017 0.11284418 -0.0056318343
-0.15071553 -0.25445703 -0.10155635 0.11776568 -0.025620671 0.035412215 0.14696231 0.09296215
0.08532267 0.044035256 -0.4871854 -0.2742673 -0.03032093 -0.025645886 -0.016963914 -0.08256601
-0.2136338 0.07535498 0.18412012 -0.026183706 -0.017418202 -0.020710682 -0.17885068 -0.17920762
0.24337396 -0.17578089 -0.08801999 0.23539478 -0.08911978 0.2506881 0.1366773 -0.028305132
-0.12476526 0.34777737 -0.0961661 -0.1079044 -0.22976413 -0.058361325 0.05037702 -0.15565664
0.008982137 0.048367884 0.014039965 0.3383351 0.19540904 -0.068841346 0.09115863 -0.13056077
0.29253417 -0.034460813 0.10633543 0.10853105 0.019964827 0.3815295 0.05877085 0.13883859
0.011135433 0.14612746 0.27249703 0.3767745 -0.062482927 -0.044872925 0.13083401 -0.184971
0.11204574 -0.017201021 -0.10209829 0.06214068 -0.15998553 -0.1564318 0.2887672 -0.10448143
0.4212945 -0.0911753 0.0860889 0.029020283 -0.19824569 -0.011757047 -0.046841983 -0.26426926
0.11120644 0.11961934 0.01206576 -0.048920274 0.1142733 -0.33433813 -0.08200145 -0.20377123
-0.36591282 -0.25001097 0.0051327813 -0.048393995 -0.075760685 -0.1370548 0.13656047 -0.09629009
0.13329315 -0.33526784 0.16882965 0.057951264 0.105573095 0.092529714 0.15865417 -0.097291075
-0.0026953644 0.045442384 0.20822331 0.21332628 -0.018311892 -0.057741765 -0.097231045 -0.19107698

bias f4 [8]
00000000: fc2a 1c3e ef00 053e de79 b0ba bdb4 0ebe
00000010: 5640 0b3e 8ca0 233e 3857 603e 28e8 223e
0.15250772 0.12988637 -0.0013464054 -0.13936134 0.13598761 0.15979213 0.21908271 0.15908873

weight f4 [8]
00000000: 7296 4c3f e20c 243f d28d 543f 58f1 173f
00000010: f215 183f fd0c 3a3f fd4d 2f3f 85a5 0d3f
0.7991706 0.6408216 0.830289 0.59352636 0.59408486 0.7267607 0.68478376 0.5533069

bias f4 [8]
00000000: 0e2e b0be 2719 91be 2cbc 89bd f306 78be
00000010: 791a d2bd 3fc3 c4be 30aa a0be fcbf 0cbf
-0.34410137 -0.28339502 -0.06725344 -0.24221401 -0.102589555 -0.3843021 -0.31379843 -0.54980445

running_mean f4 [8]
00000000: c79f 9f3e 2207 c5be be2a 0bbf 674d 11bf
00000010: 52c8 703d 51ec 623f d5fe 5a3d 52ef 473d
0.31176588 -0.38482004 -0.54362094 -0.5675873 0.05878479 0.8864184 0.053465683 0.048812218

running_var f4 [8]
00000000: 1208 bb3e 89ac 443f 9c74 6e3f 1250 143f
00000010: b050 4a3e 29a7 233f 85b2 9c3e b552 1b3f
0.36529595 0.7682577 0.9314668 0.5793468 0.19757342 0.6392694 0.3060495 0.60673076

weight f4 [128, 25]
00000000: 03ac 603d f3b4 943e 0436 a73e c500 51be
00000010: 1fd8 eaba 360d a7bd 1127 16be 714d 5f3c
00000020: a284 423d f2ca 20be f890 8ebc f921 803c
00000030: f6b3 7cbe 9c8b 4e3e a2e6 123e 72a5 103e
00000040: 69fa b6be e4a6 8f3e 5dc7 a83c 5f51 67bd
00000050: 8373 88bd 3e70 4ebe 2381 d3be 3637 ea3d
00000060: 65ab 4bbe 4a63 753e 5c5b fc3d 455a 7d3e
00000070: d249 9ebe a8ba cabc bb95 51be b9b7 24bd
00000080: 95cb d2bc cebb c2bd 7603 98bd a3a8 a1be
00000090: 5be2 37bd 58d7 b93d e72e 0e3e f731 64bc
000000a0: 55c8 053e 5870 053e e3bc 303d 07d8 a53d
000000b0: b6bf 7abd aca3 22be b3f7 cabc 7ee1 24be
000000c0: 7033 053e 7cc9 6b3c ed36 183e 25dd ba3e
000000d0: 5873 343e c3d5 52be d346 55be 32da bc3c
000000e0: 6ba5 4fbc 87be 29bc 546a 643e d499 3ebc
000000f0: 5b18 8c3d 6d91 bb3d a09c ad3d c50a 4f3d
00000100: ae78 6b3d 4f51 25bd 2047 0c3e 2335 323d
00000110: 6a0c 83be dd09 4dbe 950c fcbd 2735 9cbe
00000120: ba6e ddbd 094f 23be 0a33 79be 5a06 72be
00000130: 09d2 e33e 61d4 3f3e f22d 49be 177a e8be
00000140: c5e6 a0be e488 11be c3ad 09bd 5a7b 05be
00000150: f4db 123e bef6 f13d 75a5 103e 3431 1dbc
00000160: 91db 983c 9a0b 193d d8ba 2bbe c01c 543c
00000170: 5783 03be 3007 db3c feef 8cbe c75e 71bd
00000180: c885 61be 94ab c43d 28c7 a8be bb51 cd3d
00000190: c4d5 7e3e 3983 7d3d 07a5 07bd 2d6a 3ebe
000001a0: 504a e43a df64 19be 04c0 b93d a77b 2e3e
000001b0: 0267 62be 4ea1 23bf 1d8a 3dbe 9f47 023e
000001c0: 2ce3 71bd f203 4b3d e3b5 9e3c 8249 c83c
000001d0: d7ae 913c 8a49 13be ea3f 253e 4fa0 373d
000001e0: df10 84be 0b69 45be 3df8 c8bc 12ec ad3d
000001f0: 7165 90be a58d 9e3d 683c aebe b3e8 a83d
00000200: 84dd 933d 40ea d4bd 5f5b 863e fb97 aa3d
00000210: 68c2 aa3d 7a79 6fbe eb4c 8abe 6e64 05bd
00000220: 1747 1b3e 5b38 403d 08fd 8b3d bef5 493d
00000230: 4e48 debd 5dca ddbe 8f80 3b3d c3cc 393e
00000240: 06d1 b33d 134e f5bd 01b9 54bd 508d f23d
00000250: a24c 19be cceb 773c 9754 49be 4da1 a93d
00000260: 2a7e aa3d a83d 98be 61a0 0dbc 4fab 893d
00000270: 5249 a83c 4df9 a23e aeec 083e 5a4e 083e
00000280: e24f bfbd 05ed e73c f2e0 b83c dc27 593d
00000290: 8d0f a8bc 3db4 6cbe 3835 a9bd d8fe 60be
000002a0: 4e58 803d f3d5 7f3e ca80 06bd 03b9 ff3d
000002b0: e271 033d bd6e 31be a125 003e af86 a3be
000002c0: 45ed 53be 01eb 80be 24b5 b1be 63b0 0dbe
000002d0: 8cae 113e 282a 7c3e 3f9a 883d e845 353e
000002e0: 2763 443e fcc3 a8bd 1f01 77bd 5f74 863c
000002f0: 9489 dd3b 4290 ba3d 1b60 8abe 9468 163e
00000300: 86af acbd 6df0 43be 8e28 8fbd 34b8 dbbd
00000310: 5260 103e 5a05 0b3e 6a92 6e3d 343a a0be
00000320: 8035 27be 3308 913e ca8a 9b3e 0e51 32be
00000330: 2c0a d0be 9d9d 20bd c465 88bd 5590 87bd
00000340: f868 743e 10e8 373e ec75 f0bd 9696 9dbe
00000350: bccf a53d 0524 133e 594b 483e 9dc4 33be
00000360: 7514 81bc 38c9 1cbe 20d1 bcbd 043b f3bd
00000370: 1b8c 143e ed08 b0be 4e79 b83e 3676 cabd
00000380: 699e b4bc 17d4 d6bd 06a8 05be 3653 bf3d
00000390: 8e91 223e 1e8a 17bc 02b7 c6bd 014f 8fbe
000003a0: 9cb5 31bd 3cf6 c4bc 2146 19be ec27 86bd
000003b0: 7150 97be 1350 cf3d ae5d 133e 257f 13be
000003c0: ed77 0abe 58b8 a0be 55f3 b53d bbcd a9be
000003d0: 6a03 aebe 7955 de3d 796a 2e3d 672d 673e
000003e0: bfa7 e7bd 90e4 6ebd 2440 2bbe 53ee b3bd
000003f0: f72a d33d 4f32 7abe 9cfe 17be 6fb0 4cbe
0.054851543 0.29044303 0.32658398 -0.2041045 -0.0017917192 -0.08156817 -0.1466334 0.013629303
0.04748977 -0.15702417 -0.01740311 0.0156412 -0.24678025 0.20170444 0.14345792 0.14125612
-0.35737923 0.28057015 0.020602876 -0.056474086 -0.06662657 -0.20160004 -0.4130946 0.11436312
-0.198896 0.23963657 0.12322113 0.24741466 -0.30915695 -0.024747208 -0.20467274 -0.040214274
-0.025731841 -0.09508477 -0.07422535 -0.31573972 -0.044893604 0.09074277 0.1388508 -0.013927928
0.13064702 0.13031137 0.043148886 0.080978446 -0.061217986 -0.15882748 -0.024776315 -0.16101643
0.13007903 0.014391299 0.14864703 0.36496845 0.17622125 -0.20589356 -0.20827799 0.023053262
-0.012673716 -0.010360367 0.22306186 -0.011633355 0.06840583 0.09158597 0.084771395 0.05054738
0.057488136 -0.040360745 0.13699007 0.043507706 -0.2559541 -0.20023294 -0.12307087 -0.30509302
-0.10812135 -0.15948118 -0.24335876 -0.23635235 0.44496182 0.1873336 -0.19646433 -0.45405647
-0.31426063 -0.14212376 -0.033612978 -0.13035336 0.14341718 0.118146405 0.14125617 -0.0095942505
0.018659385 0.03736458 -0.16770494 0.012946308 -0.12843071 0.026736826 -0.2752685 -0.058928277
-0.2202369 0.096030384 -0.32964444 0.100253545 0.24886233 0.06189272 -0.033116367 -0.1859519
0.0017417166 -0.14979886 0.09069827 0.17039357 -0.22109607 -0.63918006 -0.18509717 0.12722634
-0.05905454 0.04956431 0.01937384 0.024449114 0.017783565 -0.14383522 0.16137663 0.044830617
-0.25794122 -0.19278352 -0.024532432 0.084922925 -0.28202394 0.0774186 -0.3403046 0.08247509
0.07219985 -0.10396242 0.26241586 0.08329769 0.08337861 -0.23386183 -0.2701181 -0.03256648
0.15163837 0.046928745 0.06835371 0.049306624 -0.10853635 -0.43318453 0.0457769 0.18144517
0.087801024 -0.11977782 -0.051934246 0.118433595 -0.1497064 0.015131902 -0.19661175 0.08282719
0.08324845 -0.2973454 -0.008644194 0.06722128 0.020542774 0.31830826 0.13371536 0.13311139
-0.09341408 0.028311262 0.0225682 0.05301653 -0.020515228 -0.2311563 -0.08262104 -0.21972215
0.06266843 0.24983959 -0.032837667 0.1248646 0.03209103 -0.173274 0.12514354 -0.31938693
-0.2069598 -0.25179294 -0.34708512 -0.13836817 0.1422674 0.24625456 0.06670045 0.17702448
0.19178449 -0.08240506 -0.060303804 0.016412912 0.0067607854 0.09109546 -0.27026448 0.14688331
-0.08431916 -0.19134684 -0.06990157 -0.10728493 0.14099243 0.1357626 0.0582451 -0.31294405
-0.16329002 0.28326568 0.30379325 -0.17413732 -0.4063276 -0.03921281 -0.06660035 -0.06619326
0.23868167 0.17959619 -0.11741242 -0.3077895 0.08096263 0.14369209 0.19559993 -0.17555471
-0.015756825 -0.15311134 -0.09219575 -0.11876491 0.14506571 -0.3438181 0.36030048 -0.09885828
-0.022048192 -0.10489672 -0.13052377 0.09342043 0.15875837 -0.009249238 -0.09702875 -0.27989963
-0.043386087 -0.024043195 -0.14968158 -0.06550583 -0.2955356 0.10122695 0.14391205 -0.1440397
-0.1352231 -0.31390643 0.088843025 -0.33164772 -0.3398698 0.10856146 0.04258201 0.22575913
-0.11311292 -0.058323443 -0.16723686 -0.08785691 0.10310929 -0.24433254 -0.1484322 -0.19989179

bias f4 [128]
00000000: ff7c 9f3d ee1b 47bd a95b 813d 6b22 a43d
00000010: dc42 0e3e 6e15 843d 9fef 6f3d 8b64 143e
00000020: a484 3b3d eb47 283e e76b 123e 0ce5 2ebd
00000030: 27ac b9bc b56b 2d3d 79ff 913d 7a3a 0abd
00000040: 2062 0a3d c4ee c43d 4a0e 863d 1f5b 1d3e
00000050: 4a6e 2c3d b49d 8e3c c0c3 fa3d 9f31 4e3c
00000060: 3892 38be 438b 0c3e 127c 923e 1b74 d83c
00000070: de0f 3ebe 6dbf 283e 30fb efbd f059 2dbe
00000080: b305 143e 44a7 0fbe 5e4c 8e3d 171a 893d
00000090: 8802 093e be1a 2a3e effb 18be 1aba a5ba
000000a0: 1a21 dc3d 27e0 763e 521e 8c3d 771a 04be
000000b0: 392c 67bd f220 3f3e e995 f83d 2a73 a23d
000000c0: 984f 51bd d93f 0a3e 2285 193e b564 51bd
000000d0: 3a97 e3bc 8087 13be 7a10 093d 3a91 1d3e
000000e0: bcfc bebd b9cd dcbd 2163 053d e5f9 edbc
000000f0: adb0 8d3d 695d 2c3d b5eb 803d 42ce ea3c
00000100: 85b8 d53d dbb2 c83b 907b bebd d1e8 2e3d
00000110: d2c0 5b3d 7b23 d63d 3091 1f3e 0683 463e
00000120: 9a0a 51bb 092c 353d 4d2d bc3d 542c c63c
00000130: 2033 813d 4506 373d 61f6 aa3d 41c1 32be
00000140: 2721 013e 0aae bdbd 4527 ed3c ee5e ddbd
00000150: e7f7 073d b531 34be 6302 0e3e c241 bcbd
00000160: 0c03 d33d cf6c 833d c3d0 753d 6e5f a8bd
00000170: 3c3c f9bd 3332 ae3d f65d 13be 0b34 b8bd
00000180: 9bef 25be a54f e63d ebea e13d b935 c73d
00000190: e0db 763d d0bc a53d be9e b43d 521d 67bc
000001a0: 50f4 a1bd 5574 043e 9fd1 7cbd 0221 b23d
000001b0: d84f ca3c b874 4cbc 7aa5 1d3d 25c1 47bc
000001c0: 8a41 c53d 7903 893c 11d5 c1bb 72e2 a53c
000001d0: 8e38 883d bf6d df3d 70cc b83d 6ca1 753d
000001e0: ed7b f2bc 9603 2a3d e800 583e a10d d53d
000001f0: 08b7 093e ef4f 00be 725e 5c3e 3372 173e
0.07787513 -0.04861062 0.06316311 0.08014377 0.13892692 0.064494 0.05857813 0.14491479
0.045780793 0.16433685 0.14298974 -0.042698905 -0.022665096 0.042339046 0.07128806 -0.033747174
0.033784986 0.096158534 0.06545694 0.15366791 0.042097367 0.017409183 0.122443676 0.012585073
-0.18024528 0.13724999 0.28610283 0.02642255 -0.1856074 0.16479273 -0.11717832 -0.1692884
0.14455299 -0.1402865 0.0694816 0.06694429 0.13379872 0.16611764 -0.14939855 -0.0012643964
0.10748501 0.24108945 0.06841721 -0.1290072 -0.05643866 0.18664911 0.12137968 0.07932122
-0.051101297 0.13500918 0.14992192 -0.051121432 -0.027782071 -0.14407158 0.03346298 0.15387431
-0.09325549 -0.10781426 0.03256524 -0.029049823 0.06918464 0.04208127 0.062949575 0.028662805
0.10435585 0.006124837 -0.093009114 0.0427025 0.053650685 0.10455986 0.15582728 0.19385919
-0.0031897188 0.04423145 0.09188328 0.02419106 0.063085794 0.044683713 0.08347774 -0.17456533
0.12610303 -0.09261711 0.02894939 -0.10809122 0.033195402 -0.17597087 0.13868098 -0.0919223
0.103033155 0.06417238 0.060013544 -0.08221327 -0.12169692 0.085056685 -0.14391312 -0.089943014
-0.16204683 0.1124566 0.11031135 0.09727044 0.060268283 0.08092654 0.0881934 -0.014106112
-0.07907927 0.12935002 -0.061723348 0.08697702 0.024696276 -0.012479 0.03848789 -0.012192045
0.09631641 0.016725289 -0.005915292 0.02024958 0.06651412 0.10909604 0.09023368 0.059968397
-0.029600108 0.041507326 0.21094096 0.1040299 0.13448727 -0.12530492 0.21520403 0.14789657

weight f4 [128, 127]
00000000: cdbe dbbd 18c9 c3bd 6794 893d dce8 253e
00000010: 2b7f 293b ec84 90bd 5183 1ebe 4b32 24be
00000020: 1afc d53c 117a 003d a9a1 863e 0ac3 29bd
00000030: 7b84 833d 4aff 883d d265 5abe 7b2f 883d
00000040: 0b7f 5e3d 829b 73be 0073 343d 4001 253e
00000050: 761e 403e 6929 a0be 9212 bcbc 8177 383e
00000060: 1b5f fe3c 03bf cf3d cd3d 503e f7e3 f93d
00000070: 75c4 66be a630 0cbd ca55 9d3d 9537 4fbd
00000080: 9304 553e c888 5bbd df5d 0ebd 8ac0 69bd
00000090: 68d2 923d 5906 113e 923a ddbd 0957 0bbd
000000a0: 9549 e4bd 0523 0abd 01e4 73be 1b27 69be
000000b0: 3cb4 11be 2c1a 82be d6c8 0bbd 53f6 27be
000000c0: 00a8 e0bd cd07 72bd 3b27 67be 796a 0abe
000000d0: 8f45 3a3d cf24 2cbe 409e 243e 64ec c93d
000000e0: 938a 12bd 40ea b2bd 8d7a a3be 9887 843d
000000f0: 0c34 52bd 65c1 c93d 3a84 213e 24cb 1d3e
00000100: 8699 a53d b46d 2d3e 271f 9e3e 83b4 c2bd
00000110: ab55 28bc 72a6 6d3e 0c16 333e 94bd 963d
00000120: 78ff 1abe 79e1 02bf 6325 88be 9b79 8dbd
00000130: e229 a83c 1760 2d3e 218e cc3c a4c0 17bd
00000140: be1b 25be 2114 53be 627c 46be 39ab d1be
00000150: 8a23 1dbe 53f7 0b3e 757c 383e dc0e 8abe
00000160: a8cb 39be 6611 57be 5fa4 71be 54a5 63be
00000170: cf31 21be 20e0 1bbe a26b bcbc a730 343d
00000180: 2c17 5cbe 77ec 0fbc 4f7a 9abd 7b4f 19be
00000190: 233a 0a3e 96b2 113d 018f 11be d210 9ebe
000001a0: 9f00 dabd 3c71 f2bb bbe0 5ebd 7b84 b6b9
000001b0: 0581 1dbe 301b 32be a24d a03d 5c5f 3b3c
000001c0: d0b4 afbd 2466 4c3d 6201 ad3c 28eb 9fbd
000001d0: f6df 09be 4a56 7abd ea14 5bbd 1836 d83d
000001e0: b4f2 30be 7e22 033e 3696 b33d 4ea0 343d
000001f0: 1c5c e03d 5db0 6f3e 7f68 663e d9a9 90bc
00000200: 62db 24be b72b b6bd 199b a5be 0c0f ecbc
00000210: 9d93 31bd 7fa0 933d 1d37 853d 54ee 353e
00000220: e660 8ebe cfe8 52be 168d 62bd 4edb e1bc
00000230: d38b ecbd 7065 0d3e f520 1f3e 62a0 773b
00000240: 2f84 393d 608b 59be 7521 10be a063 13bb
00000250: 7b45 4fbe 5f9c 023d 8e56 af3b df54 ef3d
00000260: 85ff 97bd 3c5b 35be c5aa 493c bab4 2f3e
00000270: 0d47 313d 54c3 03be 8fa4 91be 6219 68be
00000280: 8a08 6bbe adc8 fd3d 921b 323d 6565 84bd
00000290: 6e5a b73d 3f33 31be 637a 693d da5d 8e3d
000002a0: a3d1 223e 480c 0cbd 0654 9dbd e531 8ebe
000002b0: 8366 20be e6a3 93bc 8438 c43c cf3f b5bd
000002c0: 338a f53d 084b ca3d 65c3 b33d 3e25 00bc
000002d0: 676a 353c eaeb 5b3e 86d8 ba3d fd08 323d
000002e0: 4b29 5abd a318 c5bb 955d 013d 7e2d a83d
000002f0: 1f76 c1bd ce62 60bd bada 20bd c655 69be
00000300: 264e a43c 930b 4c3c 6713 31be 9211 aebd
00000310: 53be 113e 1f2b 453e 5ce5 a5bd a7b6 d1bd
00000320: b50c 9f3d 99dc ef3d 8b40 703d 6228 4cbe
00000330: f53e bebc 873d 913d bdac aabe a3d6 4fbe
00000340: c30b cdbc 373a 49bd 6893 57be c538 44be
00000350: 87b1 bb3d c7dd b23c 6d69 93bc 28d1 b7bb
00000360: 13e0 673d 9669 2fbe 8641 cd3d ef73 3e3d
00000370: 6911 a33d 50e1 b43d b26b 4dbd b707 17bb
00000380: 582a 29be 9ac4 01be ac0c da3d f55c 0a3e
00000390: ebb9 13be 827e e2bd 409a e2bd 90b6 56be
000003a0: b7f6 923e 8115 603e 1411 923d 63c2 cb3b
000003b0: 38ba 0f3d 5105 193d cac3 17be f589 ddbd
000003c0: 6460 af3d f40f 08bd 04aa 3dbe e957 143e
000003d0: 7ded dabd 31a8 31be 9eed 863d dc12 d93d
000003e0: e606 11bd c7b6 80be 27c1 11be d58d 00bd
000003f0: a31c 6a3e 251b 93bd 775d c33b aa02 f53d
-0.10729752 -0.0955984 0.067177586 0.1620211 0.0025863152 -0.07056603 -0.1547978 -0.1603481
0.026121188 0.03136641 0.26295212 -0.04144577 0.06421753 0.066893175 -0.21327904 0.06649681
0.054320376 -0.2378979 0.044054985 0.16113758 0.1876162 -0.31281593 -0.022958074 0.18014337
0.03105121 0.101438545 0.20336075 0.12201684 -0.2253588 -0.034226082 0.076823786 -0.050590117
0.20802526 -0.05359724 -0.03475749 -0.057068385 0.07169038 0.14162578 -0.10802187 -0.03401855
-0.11146847 -0.033724803 -0.23817445 -0.22768824 -0.1422891 -0.25410593 -0.03412708 -0.16402559
-0.109695435 -0.05908947 -0.22573559 -0.13517179 0.045476492 -0.16810916 0.16075993 0.09859541
-0.035776686 -0.08736086 -0.31929436 0.06471175 -0.051319167 0.0985134 0.15773097 0.15409523
0.08085923 0.1693638 0.30883142 -0.09507086 -0.010274331 0.23208025 0.17488879 0.07360378
-0.15136516 -0.51125294 -0.26591024 -0.0690796 0.020527784 0.16931187 0.024970116 -0.03704895
-0.16123864 -0.20613147 -0.19383386 -0.40950945 -0.15345588 0.13668565 0.18016227 -0.26964462
-0.18144095 -0.2100273 -0.23597859 -0.22231036 -0.15741657 -0.15222216 -0.023000542 0.04399171
-0.21493214 -0.008784405 -0.0754286 -0.14971726 0.1349874 0.035570703 -0.14214708 -0.30872208
-0.1064465 -0.0073987525 -0.05441354 -0.0003481245 -0.15381248 -0.17393184 0.07827307 0.01143631
-0.08579409 0.049902096 0.021118823 -0.07808524 -0.1346434 -0.061117448 -0.053486742 0.105571926
-0.17280084 0.12806126 0.08768885 0.04409819 0.109550685 0.23407121 0.225008 -0.017659115
-0.16099313 -0.08895057 -0.32344893 -0.028815769 -0.043353666 0.072083466 0.06504653 0.17766696
-0.27808303 -0.20596622 -0.05531033 -0.027570393 -0.11550107 0.13808227 0.15539916 0.0037784805
0.045292076 -0.21244574 -0.14075263 -0.00224898 -0.20241348 0.03188741 0.0053508943 0.1168611
-0.07421783 -0.17710584 0.012308781 0.17158785 0.04328065 -0.1286748 -0.2844586 -0.22665933
-0.22952476 0.123917915 0.043483324 -0.06464652 0.08952795 -0.17304705 0.057001483 0.069514945
0.15900283 -0.0341914 -0.07682042 -0.27772442 -0.15664105 -0.018022489 0.02395273 -0.08850061
0.1198925 0.09877592 0.08777503 -0.007821379 0.011072732 0.21476713 0.0912333 0.043465603
-0.053262036 -0.0060149 0.031583387 0.08211802 -0.09446358 -0.054781727 -0.039271094 -0.22786626
0.020056795 0.012453931 -0.17292558 -0.08499445 0.14232759 0.1925473 -0.081003875 -0.10239916
0.077660955 0.117119975 0.058655303 -0.1993728 -0.02322338 0.070918135 -0.33334914 -0.20296721
-0.025030022 -0.049127784 -0.21052325 -0.19162281 0.0916472 0.021834267 -0.017994607 -0.00560965
0.05661018 -0.17130122 0.10022263 0.04649728 0.07962305 0.088320374 -0.050151534 -0.002304537
-0.16520059 -0.12672654 0.10646948 0.13512023 -0.14426391 -0.11059286 -0.11064577 -0.2096808
0.28703853 0.21883203 0.07132164 0.006218241 0.0350897 0.037358586 -0.14820781 -0.10817329
0.08563307 -0.03321834 -0.18521887 0.1448666 -0.106898285 -0.17349316 0.06588291 0.105993
-0.03540697 -0.25139448 -0.14233838 -0.03138526 0.22862487 -0.07182912 0.0059620696 0.11963399
