nn/checkpoints/main_material_different/3/model_30.pt (torch, 451442 bytes, 98 tensors)

weight f4 [8, 5, 3]
-0.1990627 -0.0701156 0.29264745 -0.17820172 0.1793787 0.08235656 -0.042590406 -0.12072393
0.088453405 -0.27616155 -0.14610732 0.2095782 -0.1986917 0.19143534 0.08629737 -0.19402231
0.06356083 0.08040764 -0.005428575 -0.09599786 -0.07367085 -0.100675486 0.1995369 -0.15080586
-0.3038502 0.036333714 0.0075954585 -0.19715379 -0.2888346 -0.15015359 -0.08451907 -0.22681919
0.056116868 -0.058855362 -0.06503746 0.22609332 -0.105238296 -0.08322915 0.40865645 -0.30338278
0.09035885 0.13902225 0.053387936 0.1160633 0.31591165 0.09280676 -0.28150138 0.19457202
0.029637402 0.10018119 0.12468435 0.040854786 0.1584998 0.20101456 0.056913424 0.07825503
0.119424246 -0.04265388 0.034009248 0.28988087 0.08692366 0.10511968 -0.022662386 0.05254807
0.09512359 -0.20317677 0.15423238 0.14332315 -0.29860145 -0.059913043 0.21157096 -0.35587454
0.19516842 0.02525704 -0.058509205 -0.07896692 -0.009265374 0.16685544 0.36774066 0.20714049
-0.054241057 0.11479468 0.15136652 -0.15897517 0.14520021 -0.045502808 0.05091049 0.06348435
0.07367636 -0.11415921 0.01659168 0.08663304 -0.007894168 0.06612983 0.06941542 -0.24302435
0.13738547 0.03098914 -0.21692295 -0.20084102 -0.029096546 0.0010093325 0.24398369 -0.42587477
-0.1483815 0.109249756 -0.1833251 0.29301405 -0.11867993 0.1609291 0.30533046 -0.1290278
-0.2178516 0.08934533 0.16373095 0.104891874 -0.23357165 -0.26342258 -0.1618887 0.10670988
00000000: 18d7 4bbe c598 8fbd e3d5 953e 837a 36be
00000010: 0daf 373e 8eaa a83d 4773 2ebd 1c3e f7bd
00000020: 0f27 b53d 0c65 8dbe 289d 15be ab9b 563e
00000030: d675 4bbe a007 443e adbc b03d c9ad 46be
00000040: 2e2c 823d c3ac a43d 30e2 b1bb 879a c4bd
00000050: bee0 96bd f32e cebd 6753 4c3e da6c 1abe
00000060: 4192 9bbe a9d2 143d 53e3 f83b afe2 49be
00000070: 21e2 93be ddc1 19be 5618 adbd 4a43 68be
00000080: cdda 653d 5212 71bd 5c32 85bd 0285 673e
00000090: 2d87 d7bd 0b74 aabd 6b3b d13e fd54 9bbe
000000a0: 100e b93d d95b 0e3e 4fad 5a3d 98b2 ed3d
000000b0: 2cbf a13e 7811 be3d f320 90be e33d 473e
000000c0: 23ca f23c cc2b cd3d 825a ff3d 5957 273d
000000d0: c64d 223e c3d6 4d3e 0d1e 693d 2c44 a03d
000000e0: b394 f43d d6b5 2ebd 484d 0b3d 446b 943e
000000f0: 0805 b23d fd48 d73d 78a6 b9bc a53c 573d
00000100: 28d0 c23d 920d 50be 18ef 1d3e 4ec3 123e
00000110: 4ae2 98be 6167 75bd 0fa6 583e 3035 b6be
00000120: 3bda 473e dae7 ce3c 59a7 6fbd 69b9 a1bd
00000130: cccd 17bc 27dc 2a3e 8148 bc3e a31c 543e
00000140: df2b 5ebd 7919 eb3d d3ff 1a3e 63ca 22be
00000150: 5daf 143e 2761 3abd 8587 503d 1504 823d
00000160: a2e3 963d 4ecc e9bd 46eb 873c aa6c b13d
00000170: 8a56 01bc 146f 873d ac29 8e3d 60db 78be
00000180: c7ae 0c3e f0dc fd3c 0d21 5ebe 45a9 4dbe
00000190: e15b eebc 944b 843a dcd6 793e 420c dabe
000001a0: 52f1 17be 56be df3d 93b9 3bbe f005 963e
000001b0: 770e f3bd 99ca 243e 4654 9c3e dd1f 04be
000001c0: 7d14 5fbe affa b63d 16a9 273e 8dd1 d63d
000001d0: 682d 6fbe 53df 86be 27c6 25be b68a da3d

bias f4 [8]
-0.20266633 -0.194494 -0.2304592 -0.17289403 0.122680455 -0.2673532 0.34347454 -0.08501123
00000000: c387 4fbe 6f29 47be 7ffd 6bbe 220b 31be
00000010: e43f fb3d 85e2 88be e5db af3e 5e1a aebd

weight f4 [8]
1.1582496 1.0300819 0.9741566 0.9517507 0.9564442 0.95761615 1.033979 0.95728374
00000000: 8641 943f b9d9 833f 5462 793f efa5 733f
00000010: 87d9 743f 5526 753f 6d59 843f 8c10 753f

bias f4 [8]
0.013444294 -0.07248856 0.24265106 0.15859756 -0.14395417 0.21200767 -0.107132256 0.18520091
00000000: 7545 5c3c e274 94bd 8579 783e 6667 223e
00000010: b968 13be 8a18 593e 2868 dbbd 4fa5 3d3e

running_mean f4 [8]
-0.27909958 -0.88759756 0.06116609 0.5175421 0.15929879 0.20131275 -0.03144147 -0.12351346
00000000: 24e6 8ebe 9839 63bf 4b89 7a3d a47d 043f
00000010: 391f 233e ee24 4e3e c5c8 00bd a0f4 fcbd

running_var f4 [8]
0.4551346 2.4442704 0.84564334 2.4600573 0.4791499 1.0008984 0.9348263 0.3221174
00000000: 6707 e93e ed6e 1c40 157c 583f 9471 1d40
00000010: 2353 f53e 701d 803f c750 6f3f 92ec a43e

weight f4 [8, 8, 3]
0.23697464 -0.15443063 0.108015575 0.110962875 0.01806308 -0.036417782 0.023532394 0.06709015
-0.21503939 0.094769366 -0.032361414 -0.14046492 -0.22037524 0.16408141 0.19109608 0.04458313
-0.1344988 0.17515138 -0.1039845 0.017002609 -0.13140151 -0.08328575 -0.17828025 -0.035695173
0.13709277 -0.395315 -0.070784025 -0.10173175 -0.099391095 -0.15586554 -0.05283071 -0.00090111035
-0.10762817 -0.07173726 0.06659643 0.13750014 0.15718523 0.2031564 -0.15050341 0.21495274
-0.03748039 0.18536927 -0.17070203 0.14087808 -0.23533349 0.108151756 -0.14354348 0.15965255
0.01131252 -0.12680067 -0.2790699 0.13910067 0.16523816 0.2061684 0.03501315 0.010882999
0.022480175 0.19421256 -0.15191454 0.041331742 -0.031533293 0.012667864 0.16700745 -0.06259119
-0.092263855 -0.19856429 0.21266869 0.099769086 0.07371416 -0.30424374 0.028931301 -0.13397114
-0.052862436 -0.09056192 0.31096104 0.25024742 -0.14917804 0.29409406 -0.015704831 -0.13947493
-0.07458336 -0.08883236 0.04076742 -0.118884794 0.17023641 -0.064971894 -0.08145799 -0.06488511
0.19901612 0.028189534 0.13182731 0.00088451605 0.24576043 0.032588236 0.25433892 0.12463375
-0.124539174 -0.08731814 0.34753984 0.0077608605 -0.21111158 -0.012846742 -0.22896618 0.042083416
0.01788265 -0.082613245 0.13892677 0.1808841 0.04531884 -0.025868807 -0.10003084 -0.23143516
-0.14057563 0.0072535914 -0.046510544 -0.088820085 -0.15438098 -0.042065192 -0.16663438 -0.019478675
0.0065804007 -0.03730987 -0.17124316 -0.020770269 -0.16384135 -0.091555655 0.27778164 0.14900883
0.20533098 0.13353877 0.0022141328 0.22527193 -0.20632143 -0.04174154 -0.048102092 -0.22622052
-0.19998401 0.05079979 -0.19007008 -0.15963538 -0.15500787 0.15278055 0.0913259 0.029968854
-0.143298 -0.06953226 -0.19415508 -0.14311138 -0.05920468 -0.008973313 0.19147953 -0.015856683
-0.17128028 0.06617115 -0.07108736 -0.09727409 0.2708154 0.092098095 -0.08902775 0.23304017
0.1774329 -0.13238269 -0.13624474 -0.18243745 -0.27216867 -0.13005775 -0.06720458 -0.03209816
0.18155932 0.06998679 -0.10174407 0.029724296 0.16925085 -0.18214929 -0.01672634 0.15091392
-0.240927 -0.15107697 0.1332306 -0.01656634 0.025172774 0.19986315 -0.029406626 -0.21043292
-0.07049073 0.1303678 0.008742695 0.074433625 -0.320782 -0.15350136 0.24905202 0.2703608
00000000: 7ba9 723e 1023 1ebe 4537 dd3d 8140 e33d
00000010: 06f9 933c d02a 15bd 02c7 c03c 9066 893d
00000020: 4933 5cbe 7116 c23d 678d 04bd 09d6 0fbe
00000030: 0caa 61be f504 283e b1ae 433e cd9c 363d
00000040: 0eba 09be e25a 333e d3f5 d4bd 0e49 8b3c
00000050: 1e8e 06be b891 aabd 198f 36be 1a35 12bd
00000060: 0c62 0c3e ba66 cabe 37f7 90bd bc58 d0bd
00000070: 8f8d cbbd 379b 1fbe 0465 58bd 7e38 6cba
00000080: 286c dcbd fcea 92bd b663 883d d6cc 0c3e
00000090: 2af5 203e 3b08 503e 911d 1abe 921c 5c3e
000000a0: 0a85 19bd 71d1 3d3e 83cc 2ebe 5842 103e
000000b0: 43fb 70be ab7e dd3d 10fd 12be f57b 233e
000000c0: 2658 393c 09d8 01be 40e2 8ebe 6870 0e3e
000000d0: 3134 293e cf1d 533e f369 0f3d 9b4e 323c
000000e0: 5828 b83c a8df 463e 7c8f 1bbe 794b 293d
000000f0: 0e29 01bd df8c 4f3c 0004 2b3e cf2f 80bd
00000100: d5f4 bcbd 7054 4bbe d2c5 593e bc53 cc3d
00000110: 73f7 963d d6c5 9bbe 5601 ed3c bb2f 09be
00000120: 4886 58bd 8778 b9bd 4936 9f3e 6e20 803e
00000130: 21c2 18be 7f93 963e 6ba7 80bc 84d2 0ebe
00000140: 29bf 98bd beed b5bd bdfb 263d df79 f3bd
00000150: 7452 2e3e fc0f 85bd 72d3 a6bd 7ce2 84bd
00000160: e2ca 4b3e bded e63c bdfd 063e dede 673a
00000170: 9fa8 7b3e 3e7b 053d b638 823e fb3f ff3d
00000180: 650e ffbd dad3 b2bd bef0 b13e d14e fe3b
00000190: a22d 58be 247b 52bc 1c76 6abe a95f 2c3d
000001a0: a37e 923c 2231 a9bd d242 0e3e ae39 393e
000001b0: 3fa0 393d d2ea d3bc f8dc ccbd 57fd 6cbe
000001c0: 0ff3 0fbe 89af ed3b d781 3ebd 4ee7 b5bd
000001d0: 0c16 1ebe 8d4c 2cbd 34a2 2abe be91 9fbc
000001e0: 67a0 d73b 3cd2 18bd 5e5a 2fbe 6926 aabc
000001f0: 07c6 27be 8881 bbbd 6539 8e3e c595 183e
00000200: 4942 523e 63be 083e fc1a 113b afad 663e
00000210: ed45 53be 2df9 2abd b306 45bd 5aa6 67be
00000220: 9cc8 4cbe 7113 503d bba1 42be 7577 23be
00000230: 62ba 1ebe 8172 1c3e 1309 bb3d 3e81 f53c
00000240: b6bc 12be ee66 8ebd 97d0 46be ca8b 12be
00000250: 9b80 72bd cd04 13bc 3613 443e e0e5 81bc
00000260: 1964 2fbe bd84 873d 4096 91bd a337 c7bd
00000270: 51a8 8a3e ed9d bc3d 2e54 b6bd 15a2 6e3e
00000280: f8b0 353e 548f 07be be83 0bbe e2d0 3abe
00000290: b159 8bbe dc2d 05be 8ea2 89bd 5c79 03bd
000002a0: b0ea 393e 3c55 8f3d 325f d0bd 5e80 f33c
000002b0: 1850 2d3e 5885 3abe ad05 89bc 2e89 1a3e
000002c0: 91b5 76be ecb3 1abe 9a6d 083e 22b6 87bc
000002d0: 2237 ce3c eda8 4c3e 2ae6 f0bc ba7b 57be
000002e0: 725d 90bd 237f 053e 853d 0f3c a870 983d
000002f0: 8a3d a4be 762f 1dbe 7e07 7f3e bb6c 8a3e

bias f4 [8]
-0.16650729 0.089575075 0.09648709 0.03398216 -0.11612431 -0.17828824 -0.0446186 -0.0089598475
00000000: e380 2abe 2373 b73d 069b c53d e130 0b3d
00000010: 95d2 edbd 3191 36be fec1 36bd 53cc 12bc

weight f4 [8]
0.9244118 0.8997707 1.0538118 0.96462756 1.187561 1.0204804 0.9600163 0.99208736
00000000: 40a6 6c3f 5f57 663f 4ee3 863f d5f1 763f
00000010: 0002 983f 1a9f 823f a1c3 753f 70f9 7d3f

bias f4 [8]
0.08664493 0.07927578 0.042341083 7.301279e-06 0.23644383 0.24158655 0.020573067 0.07720209
00000000: e672 b13d 575b a23d d86d 2d3d 82fd f436
00000010: 551e 723e 7762 773e d988 a83c 211c 9e3d

running_mean f4 [8]
-0.26047254 0.03736574 0.018118478 0.3624781 -0.42601934 -0.1845286 -0.33308285 0.044763908
00000000: a85c 85be d10c 193d 346d 943c bb96 b93e
00000010: 351f dabe 11f5 3cbe d689 aabe 5c5a 373d

running_var f4 [8]
0.14146519 0.33204386 0.25969416 0.16330433 0.23813309 0.34773713 0.119968675 0.14917159
00000000: 40dc 103e a701 aa3e a2f6 843e 4039 273e
00000010: 29d9 733e 9a0a b23e 23b2 f53d 70c0 183e

weight f4 [8, 8, 3]
-0.00044360865 -0.18083508 0.22407924 0.06223381 -0.11545341 0.19148584 -0.1891223 -0.05945325
0.015973113 -0.10452517 0.0637737 0.061437484 0.027435735 0.04719168 0.042398594 -0.1108068
-0.0393163 0.22308844 0.23178755 0.035646886 0.13880947 0.22906646 0.27538255 0.033201557
-0.06272704 0.2267734 0.12718698 -0.23063011 0.094267175 -0.011823231 0.03470295 0.09046835
0.18274008 -0.0073146014 -0.065175936 -0.0626634 -0.13715406 0.08598206 -0.1211573 0.00016078663
0.17790836 -0.21835802 0.0076356176 -0.0076779746 0.13053977 0.086689055 -0.044955924 0.19888155
0.099948555 0.09622176 0.08472254 0.099920265 0.11511369 -0.25669503 -0.12833369 -0.15685907
0.014373407 0.086310424 -0.15488069 0.1138731 0.2849278 0.2278864 -0.044167798 0.15686023
-0.24701217 -0.1721218 0.21709315 -0.08651959 0.24096616 0.044976406 -0.040912963 -0.20905198
-0.0385524 -0.008219243 -0.1316833 -0.098468825 -0.004723793 0.0142228585 -0.22057857 0.0050560823
0.02925877 -0.105944626 -0.28659806 -0.16174538 -0.017877987 -0.3503839 -0.013236194 0.012142867
0.19912307 -0.25815564 0.027407972 -0.041838326 0.041028857 -0.0024062905 -0.13964626 0.08264097
0.010796287 0.07136839 -0.12351963 0.09898198 0.059066363 0.005404393 0.04849619 0.077427655
0.25369707 -0.11158009 0.15627237 -0.08969927 -0.1589781 0.25783473 -0.15883757 0.12355807
-0.114169426 -0.10030766 0.15939827 -0.07742792 0.10348352 0.003209646 -0.17126477 -0.3083064
-0.1597634 0.06466738 0.21269186 0.15184139 -0.078093655 0.11630981 -0.06933452 0.115238965
0.033042543 0.12000125 -0.20358022 -0.10515927 -0.22910073 0.05614745 -0.09785004 0.15548128
-0.13272895 0.11438955 -0.11164759 0.04999463 0.29861665 -0.07533571 0.25319386 -0.07579227
-0.031434935 0.22642949 -0.09618068 -0.012393588 -0.11777994 -0.06521247 -0.22096841 -0.27720627
-0.1627731 -0.1567637 -0.082071066 -0.05056634 -0.15350083 0.21741536 0.3132997 0.15314996
0.06057802 -0.168642 -0.11378851 0.06290156 -0.13336827 0.11564008 -0.003762261 -0.015912035
-0.092017576 0.0643571 -0.17590733 0.04753286 -0.20401138 0.15185279 0.17902608 0.06953497
0.09827534 -0.1769406 0.22273415 -0.17223844 0.14334047 0.30713767 -0.05200287 -0.16994229
0.15060307 0.14427544 0.20929785 0.006372251 -0.19981997 -0.21637174 0.04964962 0.058320355
00000000: 2594 e8b9 d52c 39be 0775 653e e1e8 7e3d
00000010: d672 ecbd dd14 443e 47a9 41be 4085 73bd
00000020: 0cda 823c 4b11 d6bd c99b 823d dfa5 7b3d
00000030: e8c0 e03c 104c 413d 26aa 2d3d adee e2bd
00000040: 210a 21bd 4c71 643e b759 6d3e 7802 123d
00000050: 1224 0e3e 6690 6a3e f1fe 8c3e 5bfe 073d
00000060: 0977 80bd 4937 683e 4e3d 023e 4d2a 6cbe
00000070: 260f c13d 3ab6 41bc ae24 0e3d 7847 b93d
00000080: 3720 3b3e 53af efbb f67a 85bd ab55 80bd
00000090: 1d72 0cbe 5d17 b03d 5221 f8bd d598 2839
000000a0: 9c2d 363e 3f99 5fbe 3434 fa3b 8597 fbbb
000000b0: 38ac 053e 088a b13d b423 38bd 9ba7 4b3e
000000c0: d4b1 cc3d ea0f c53d 0383 ad3d ffa2 cc3d
000000d0: bac0 eb3d 886d 83be e869 03be aa9f 20be
000000e0: 707e 6b3c 85c3 b03d 0b99 1ebe 4d36 e93d
000000f0: 0ee2 913e 0d5b 693e 4be9 34bd f89f 203e
00000100: c2f0 7cbe b240 30be ab4d 5e3e 2f31 b1bd
00000110: d5bf 763e 2e39 383d 5a94 27bd b911 56be
00000120: 1fe9 1dbd 01aa 06bc fdd7 06be 06aa c9bd
00000130: 0cca 9abb fe06 693c 59df 61be 7ead a53b
00000140: 17b0 ef3c 7ff9 d8bd fbbc 92be 95a0 25be
00000150: db74 92bc 8565 b3be 9fdc 58bc e0f2 463c
00000160: ebe6 4b3e fa2c 84be af86 e03c aa5e 2bbd
00000170: e00d 283d dbb2 1dbb 6eff 0ebe ab3f a93d
00000180: e9e2 303c 9729 923d dcf7 fcbd 10b7 ca3d
00000190: 92ef 713d 5617 b13b f1a3 463d 6492 9e3d
000001a0: 95e4 813e 1a84 e4bd dd05 203e 40b4 b7bd
000001b0: 28cb 22be ea02 843e 51a6 22be 030c fd3d
000001c0: a9d1 e9bd 1a6e cdbd 4d39 233e 8892 9ebd
000001d0: 2bef d33d ed58 523b 0860 2fbe 56da 9dbe
000001e0: 0499 23be 5570 843d e5cb 593e 4f7c 1b3e
000001f0: 91ef 9fbd d633 ee3d 42ff 8dbd 6802 ec3d
00000200: 9e57 073d 37c3 f53d 5577 50be be5d d7bd
00000210: 6299 6abe defa 653d 9a65 c8bd 7c36 1f3e
00000220: 19ea 07be 1245 ea3d 7ea7 e4bd 2bc7 4c3d
00000230: 48e4 983e 9c49 9abd a0a2 813e fa38 9bbd
00000240: ebc1 00bd 22dd 673e 60fa c4bd 7a0e 4bbc
00000250: 9c36 f1bd 1e8e 85bd 8b45 62be fbed 8dbe
00000260: fead 26be aa86 20be e014 a8bd a71e 4fbd
00000270: 522f 1dbe 22a2 5e3e d168 a03e 58d3 1c3e
00000280: a820 783d 7db0 2cbe f309 e9bd 88d2 803d
00000290: b191 08be b5d4 ec3d 4490 76bb f559 82bc
000002a0: b673 bcbd a8cd 833d 0d21 34be d1b1 423d
000002b0: 5ce8 50be 4c7f 1b3e 9d52 373e 5a68 8e3d
000002c0: 9544 c93d eb2f 35be 6c14 643e 465f 30be
000002d0: d8c7 123e 2641 9d3e f600 55bd 5a05 2ebe
000002e0: b137 1a3e f1bc 133e 2d52 563e 51ce d03b
000002f0: 9b9d 4cbe 8e90 5dbe 665d 4b3d 53e1 6e3d

bias f4 [8]
-0.10860453 -0.18928492 0.19905701 -0.16239299 0.11600138 0.26320657 0.011038332 -0.021429865
00000000: 0d6c debd e8d3 41be 9ad5 4b3e 594a 26be
00000010: 2292 ed3d 03c3 863e 1fda 343c af8d afbc

weight f4 [8]
0.8681082 0.93781465 0.96907276 1.0525872 1.1219186 0.977605 1.0695006 1.0108622
00000000: 573c 5e3f 9f14 703f 2715 783f 2dbb 863f
00000010: 079b 8f3f 5244 7a3f 65e5 883f ef63 813f

bias f4 [8]
0.21447763 -0.07562789 0.11767616 0.105899565 0.0839809 0.05654508 0.21462472 0.14446956
00000000: 06a0 5b3e cce2 9abd 3300 f13d dfe1 d83d
00000010: 2efe ab3d d09b 673d 95c6 5b3e d4ef 133e

running_mean f4 [8]
0.23464006 -0.06548462 0.35087773 -0.696841 0.14282273 0.35892093 -0.19681354 0.23136596
00000000: 7c45 703e cd1c 86bd 3fa6 b33e 2c64 32bf
00000010: 1f40 123e 7cc4 b73e 7d89 49be 33eb 6c3e

running_var f4 [8]
0.45346257 0.22453499 0.16273685 0.29921138 0.30450693 0.38825554 0.2820315 0.22134583
00000000: 3f2c e83e 80ec 653e 7da4 263e 3c32 993e
00000010: 55e8 9b3e 6ec9 c63e 6f66 903e 7ba8 623e

weight f4 [8, 8, 3]
0.1263465 0.17089352 -0.21195117 -0.022888001 -0.054229613 0.049692955 -0.14362772 -0.16275251
0.052549485 0.011606303 0.08787078 -0.060479492 -0.23640582 -0.18945791 0.15476169 0.15342778
-0.124455 -0.0761587 -0.24671675 0.23169947 0.20416252 -0.03683111 -0.0669104 0.12037726
0.3626845 0.12992494 -0.14052904 -0.035194173 0.19957308 0.09888079 0.05645669 0.11643558
-0.008307972 -0.014247183 0.22371125 0.032340404 -0.07574206 0.12121866 0.11363189 0.013500404
-0.063910596 0.033022862 -0.025629858 0.16785914 0.19772841 0.29891813 0.15236346 0.22101596
0.007989137 0.05049444 -0.23268959 -0.2560136 -0.00660545 -0.13664728 0.35676807 -0.14379062
-0.05824494 -0.22324397 0.09500002 0.08296181 0.07471548 -0.19069766 -0.1195856 -0.0038562522
-0.022249961 0.04285889 -0.05815506 0.046011426 0.064022556 0.2468844 0.09329137 -0.03892004
-0.055425216 -0.06812733 0.15380004 0.2466277 -0.16390371 0.2025845 -0.06714732 0.16385493
0.2370411 0.23908883 0.12991048 -0.1587735 -0.11909776 0.012466606 -0.018453525 -0.11400945
0.027191343 0.2638953 -0.080830924 0.20612355 -0.08050806 0.02446405 -0.04561168 -0.27393818
0.045722976 -0.14380668 0.05371621 -0.099955395 -0.050860576 -0.14532232 -0.21868137 -0.0126556475
-0.011438435 -0.03292136 -0.2157998 0.19718795 -0.2192626 -0.036607534 -0.20524216 -0.043970063
0.23622686 -0.01849273 -0.03655009 0.26340044 -0.11552527 -0.14696695 0.1530042 0.15182608
0.2426776 0.029989026 -0.17048234 -0.0021456317 -0.15317154 0.17551656 -0.05763 0.08577753
-0.09855893 -0.29108617 -0.119141586 0.008084176 0.03572281 -0.20857356 0.058101654 0.016255705
0.16864225 -0.2502789 0.1211894 -0.032572247 0.13464679 0.2554698 0.21896532 -0.014735419
-0.18693966 0.09092681 0.018417478 0.16398975 0.081206635 0.16547672 0.12184685 -0.038159236
-0.16800134 0.020390803 -0.24463163 -0.10284307 -0.23419003 0.11236808 -0.0503925 -0.036623493
-0.06735584 -0.06673523 0.16386372 0.16067868 0.27785695 0.02728506 -0.19440854 0.03370545
-0.114856936 0.041170143 -0.019059999 -0.22112222 0.13508941 0.22079416 0.14985758 -0.11808578
-0.05923717 -0.29672647 -0.007975192 0.09411742 0.25580513 -0.2538876 0.16272417 -0.20106146
-0.0006027279 -0.04771162 -0.17293319 -0.14095648 0.028495423 -0.005470494 -0.046442978 0.23760729
00000000: fa60 013e b6fe 2e3e ba09 59be 9e7f bbbc
00000010: df1f 5ebd d78a 4b3d 2513 13be 98a8 26be
00000020: 213e 573d 5d28 3e3c 98f5 b33d 58b9 77bd
00000030: 5e14 72be 4101 42be d979 1e3e 2c1c 1d3e
00000040: 43e2 febd 18f9 9bbd 51a3 7cbe a042 6d3e
00000050: fb0f 513e 38dc 16bd 5208 89bd 5a88 f63d
00000060: c8b1 b93e 0b0b 053e d8e6 0fbe c427 10bd
00000070: e35c 4c3e 0382 ca3d 213f 673d c775 ee3d
00000080: 291e 08bc 046d 69bc 9014 653e 5f77 043d
00000090: a71e 9bbd 7d41 f83d d6b7 e83d cc30 5d3c
000000a0: 8fe3 82bd fb42 073d b5f5 d1bc 44e3 2b3e
000000b0: 5179 4a3e cc0b 993e 2b05 1c3e 0252 623e
000000c0: dfe4 023c 42d3 4e3d 2e46 6ebe 3714 83be
000000d0: 8872 d8bb 44ed 0bbe 4eaa b63e d93d 13be
000000e0: 3f92 6ebd 119a 64be 5f8f c23d e2e7 a93d
000000f0: 6e04 993d 3f46 43be 4ce9 f4bd 2db9 7cbb
00000100: 8d45 b6bc ce8c 2f3d 0034 6ebd 7a76 3c3d
00000110: 421e 833d 44cf 7c3e 8c0f bf3d 9f6a 1fbd
00000120: 8d05 63bd 5786 8bbd c27d 1d3e f98b 7c3e
00000130: 60d6 27be 5072 4f3e 8984 89bd 96c9 273e
00000140: e7ba 723e b4d3 743e 4107 053e 8595 22be
00000150: 87e9 f3bd bc40 4c3c d92b 97bc c97d e9bd
00000160: 61c0 de3c 491d 873e af8a a5bd 0d12 533e
00000170: 69e1 a4bd d568 c83c 50d3 3abd a041 8cbe
00000180: 0448 3b3d 0f42 13be 8705 5c3d 6ab5 ccbd
00000190: 2e53 50bd 60cf 14be 02ee 5fbe a259 4fbc
000001a0: 4668 3bbc 8cd8 06bd 9ffa 5cbe a3eb 493e
000001b0: 6086 60be c8f1 15bd 002b 52be f419 34bd
000001c0: 74e5 713e 117e 97bc 8cb5 15bd 6cdc 863e
000001d0: 8398 ecbd 817e 16be 22ad 1c3e 4c78 1b3e
000001e0: 7a80 783e 8cab f53c ec92 2ebe ba9d 0cbb
000001f0: 00d9 1cbe 9dba 333e 6f0d 6cbd 21ac af3d
00000200: 44d9 c9bd 3f09 95be 8100 f4bd 7e73 043c
00000210: 1552 123d 4f94 55be 00fc 6d3d af2a 853c
00000220: 8eb0 2c3e 8e24 80be 2632 f83d 7a6a 05bd
00000230: d9e0 093e f0cc 823e 7238 603e d46c 71bc
00000240: 1c6d 3fbe d637 ba3d 40e0 963c eeec 273e
00000250: aa4f a63d bb72 293e d78a f93d dc4c 1cbd
00000260: 8b08 2cbe 9d0a a73c b780 7abe 639f d2bd
00000270: 83cf 6fbe 3c21 e63d 5e68 4ebd 8402 16bd
00000280: dcf1 89bd 7bac 88bd e4cb 273e f488 243e
00000290: 4443 8e3e eb84 df3c 0813 47be ba0e 0a3d
000002a0: 1d3a ebbd 06a2 283d b723 9cbc dd6d 62be
000002b0: e154 0a3e dd17 623e 4474 193e f5d6 f1bd
000002c0: ada2 72bd 88ec 97be 61aa 02bc a2c0 c03d
000002d0: e4f8 823e 8efd 81be 2aa1 263e 0ee3 4dbe
000002e0: 6200 1eba 426d 43bd 6615 31be e556 10be
000002f0: 3c6f e93c d441 b3bb fe3a 3ebd 534f 733e

bias f4 [8]
-0.14780799 0.11728368 0.18737333 0.1403333 0.23582119 -0.0075089927 -0.1445042 -0.20246239
00000000: fa5a 17be 6d32 f03d cbde 3f3e 88b3 0f3e
00000010: 1c7b 713e ff0d f6bb e9f8 13be 4d52 4fbe

weight f4 [8]
0.9990788 1.0157576 0.94719 1.0870347 0.99565285 0.93221134 0.934973 1.0426483
00000000: a1c3 7f3f 5804 823f 0b7b 723f f423 8b3f
00000010: 1be3 7e3f 67a5 6e3f 645a 6f3f 8075 853f

bias f4 [8]
0.16120319 -0.020079246 -0.14676766 0.104971446 0.0657979 -0.049871415 -0.05867992 0.14966236
00000000: 7312 253e 3b7d a4bc 434a 16be 45fb d63d
00000010: 0dc1 863d f845 4cbd 5b5a 70bd 1741 193e

running_mean f4 [8]
-0.21961418 0.9070779 0.13036199 0.30473536 0.03834748 0.08334557 -0.12139629 -0.36076254
00000000: 8ae2 60be 4236 683f 9d7d 053e 4606 9c3e
00000010: 3f12 1d3d 15b1 aa3d 9e9e f8bd deb5 b8be

running_var f4 [8]
0.44850066 0.60593486 0.36112317 0.29874885 0.18094078 0.31381616 0.17087318 0.423502
00000000: e1a1 e53e 8c1e 1b3f 23e5 b83e 9cf5 983e
00000010: 8a48 393e 83ac a03e 61f9 2e3e 41d5 d83e

weight f4 [8, 8, 3]
-0.074876554 0.16351818 -0.24530265 -0.10536319 -0.09025197 -0.1015825 -0.35807005 -0.025261998
-0.109005086 -0.12732998 0.06390757 0.072441965 -0.16282804 0.037732594 0.1575696 -0.24794717
-0.15132117 0.118779026 0.015703034 0.11583976 0.027423432 -0.13556299 0.17360094 -0.42144343
-0.35612908 -0.3251763 0.08807838 -0.18235764 -0.0891203 -0.09481128 -0.04632904 0.18399131
-0.0025200066 0.20195581 -0.15026265 -0.05161415 0.14039175 -0.1236208 -0.25993416 0.033197273
-0.10192719 -0.12014029 0.022055881 -0.017742801 -0.26094985 0.10920066 -0.057243425 0.10446567
0.08760116 0.13296084 -0.015320251 -0.10772538 -0.20667481 -0.040377505 0.07963688 0.08638378
0.05399222 -0.2601838 0.2612532 -0.06998024 -0.11549954 -0.1688323 0.14705455 0.021057604
-0.1176305 0.1228697 0.29511267 -0.22350904 0.15053618 -0.05441627 -0.26359892 -0.22836687
-0.061875936 -0.027975462 0.05456637 -0.27521226 0.124022 0.123433635 -0.24145742 0.040781002
0.1170715 -0.15589988 -0.18460622 0.18029106 0.21477616 0.050088834 -0.13879634 -0.16449542
0.22315162 -0.12648913 -0.161945 0.021598184 0.20362817 -0.02176198 -0.1073372 -0.09788806
-0.18231064 0.03144648 0.21434572 -0.28541756 -0.014357637 0.13134086 -0.09146578 -0.22769438
0.0046556694 -0.053931985 0.0030694078 0.27909592 0.12290229 0.030219246 0.052846264 -0.07850732
0.018267933 -0.038148344 0.012413139 0.13253455 -0.03617719 0.046822064 -0.26386952 -0.06768268
-0.08687832 0.10290184 0.24605685 -0.13066913 0.08828369 0.13944206 0.014245023 -0.12367632
-0.14867312 0.14455049 0.15663302 -0.17200486 -0.07045005 -0.10690579 0.25476405 -0.018690545
-0.104606435 -0.016718736 -0.13683116 0.032790378 0.15596296 -0.025924614 -0.35177281 0.13412079
-0.17516647 -0.06589745 0.08993962 -0.16271728 -0.24855186 0.11502703 -0.2664979 -0.04006298
-0.11387306 0.25690237 0.12943645 -0.10711118 0.099380165 -0.14690095 -0.024098905 0.0005081731
-0.27627906 -0.00795742 -0.015331314 -0.12459402 0.030141162 -0.18999623 -0.007048818 -0.21411113
-0.119621366 -0.22638817 -0.25076574 -0.18748116 -0.11021115 -0.26753858 0.19255388 0.13894954
-0.07305074 0.18163854 -0.057766 -0.16577797 0.061832327 -0.00886476 -0.16095744 0.13014415
-0.03582818 -0.10968259 0.10766421 -0.028917188 0.03581882 0.05343123 0.054351337 -0.10284771
00000000: e158 99bd 4f71 273e 9e30 7bbe a8c8 d7bd
00000010: 06d6 b8bd 7c0a d0bd f554 b7be 40f2 cebc
00000020: 0f3e dfbd ca62 02be f9e1 823d 745c 943d
00000030: 65bc 26be 7e8d 1a3d ed59 213e dde5 7dbe
00000040: f0f3 1abe 6b42 f33d a6a3 803c 653d ed3d
00000050: 1ba7 e03c 06d1 0abe 72c4 313e 6fc7 d7be
00000060: 8d56 b6be 827d a6be 7062 b43d f6bb 3abe
00000070: b484 b6bd 6b2c c2bd 85c3 3dbd 3868 3c3e
00000080: b226 25bb 81cd 4e3e 74de 19be 5c69 53bd
00000090: dbc2 0f3e e72c fdbd 1716 85be ddf9 073d
000000a0: 34bf d0bd 1d0c f6bd 89ae b43c 5a59 91bc
000000b0: 389b 85be 98a4 df3d 1578 6abd 19f2 d53d
000000c0: 3d68 b33d e326 083e ca01 7bbc 209f dcbd
000000d0: 90a2 53be e262 25bd a918 a33d fbe9 b03d
000000e0: f226 5d3d d036 85be fbc2 853e cd51 8fbd
000000f0: 068b ecbd 60e2 2cbe 7895 163e ff80 ac3c
00000100: 42e8 f0bd 1ca3 fb3d 0219 973e 8edf 64be
00000110: 2826 1a3e 98e3 5ebd 70f6 86be 01d9 69be
00000120: 9f71 7dbd cc2c e5bc fc80 5f3d 9fe8 8cbe
00000130: 3fff fd3d c6ca fc3d 9d40 77be fb09 273d
00000140: 2fc3 ef3d 38a4 1fbe 6a09 3dbe 389e 383e
00000150: 48ee 5b3e f329 4d3d a120 0ebe 7d71 28be
00000160: dc81 643e 5e86 01be e9d4 25be adee b03c
00000170: e783 503e 2e46 b2bc 9bd3 dbbd 8979 c8bd
00000180: a4af 3abe 06ce 003d 727d 5b3e 4022 92be
00000190: 4b3c 6bbc 387e 063e 6952 bbbd b728 69be
000001a0: 968e 983b c9e7 5cbd 1e28 493b a9e5 8e3e
000001b0: 32b4 fb3d 5a8e f73c 5375 583d 72c8 a0bd
000001c0: a2a6 953c 7041 1cbd 7b60 4b3c 23b7 073e
000001d0: 882e 14bd 7ec8 3f3d e819 87be 389d 8abd
000001e0: 43ed b1bd 33be d23d 54f6 7b3e 21ce 05be
000001f0: 14ce b43d e6c9 0e3e f563 693c 034a fdbd
00000200: c43d 18be 0b05 143e 6864 203e 0b22 30be
00000210: 1e48 90bd 6cf1 dabd 6f70 823e ea1c 99bc
00000220: e63b d6bd bbf5 88bc 781d 0cbe 344f 063d
00000230: c1b4 1f3e db5f d4bc 911b b4be f656 093e
00000240: d75e 33be 3ef5 86bd 4332 b83d 5c9f 26be
00000250: 6184 7ebe 4b93 eb3d 6a72 88be 1419 24bd
00000260: 4736 e9bd b588 833e fd8a 043e 1b5d dbbd
00000270: d487 cb3d 346d 16be 116b c5bc eb36 053a
00000280: 7374 8dbe d75f 02bc 3130 7bbc 262b ffbd
00000290: 99ea f63c 5f8e 42be c5f9 e6bb f33f 5bbe
000002a0: 0cfc f4bd 4dd2 67be 5e64 80be 10fb 3fbe
000002b0: 62b6 e1bd d1fa 88be d82c 453e ca48 0e3e
000002c0: a09b 95bd 74ff 393e 0b9c 6cbd b3c1 29be
000002d0: e543 7d3d 803d 11bc 07d2 24be 8244 053e
000002e0: 92c0 12bd 44a1 e0bd 0e7f dc3d bde3 ecbc
000002f0: c1b6 123d b5da 5a3d 829f 5e3d d2a1 d2bd

bias f4 [8]
0.21567553 0.080035895 -0.16812447 0.12547122 0.1489985 0.031775698 0.121841274 -0.003698886
00000000: 0cda 5c3e dce9 a33d d228 2cbe 877b 003e
00000010: 1093 183e 3c27 023d eb87 f93d 0269 72bb

weight f4 [8]
1.0445988 1.069482 0.8523615 0.9897889 1.0661229 0.9978985 1.0387217 0.9505593
00000000: 6ab5 853f c9e4 883f 5d34 5a3f ce62 7d3f
00000010: b776 883f 4776 7f3f d5f4 843f db57 733f

bias f4 [8]
-0.034307074 0.15329602 -0.12857223 0.027111549 0.010922456 -0.15100098 0.012782895 0.09750452
00000000: 9385 0cbd a2f9 1c3e 70a8 03be 0a19 de3c
00000010: 1af4 323c 00a0 1abe 596f 513c 73b0 c73d

running_mean f4 [8]
-0.20081453 -0.3596815 -0.40199772 -0.0261813 0.10531127 0.059620865 -0.29839933 -0.3701423
00000000: 53a2 4dbe 2c28 b8be a5d2 cdbe 2a7a d6bc
00000010: 6fad d73d 0235 743d ccc7 98be 4b83 bdbe

running_var f4 [8]
0.33139458 0.6358169 0.3512545 0.30666253 0.21927322 0.19625105 0.32737896 0.39007646
00000000: 8dac a93e e5c4 223f a1d7 b33e df02 9d3e
00000010: 2989 603e 09f6 483e 379e a73e 1ab8 c73e

weight f4 [8, 8, 3]
0.29723948 -0.09691936 -0.14698642 -0.28693536 -0.28317794 0.1640025 -0.16315447 0.10548188
-0.29549408 -0.03545693 -0.119975545 0.0959092 -0.003520641 -0.20823926 -0.0513488 -0.019643338
0.09139816 -0.11257054 0.039056115 -0.04188882 0.11494216 0.017957905 -0.11551076 0.15054193
0.22066191 -0.18963368 -0.2629644 0.06306231 -0.12616332 -0.29033995 -0.07184538 -0.025738174
-0.097894214 -0.18599682 0.29615584 0.054167368 -0.21518081 0.13496335 -0.0626626 0.016433712
-0.052743282 -0.20295739 0.19192734 -0.13138728 0.016274137 0.005375812 0.066416554 -0.10814145
-0.10440719 0.13082173 0.07298943 -0.21577714 -0.022461718 0.28119397 0.09405688 -0.05335193
0.052136052 0.0034043605 -0.10228236 -0.15684173 0.254506 0.17228651 -0.17281738 0.10956301
-0.16003215 0.14822835 0.15838979 -0.059694514 0.19549754 -0.046233635 -0.0392551 0.118084155
-0.0488518 0.064412095 -0.03602544 -0.10397486 0.1363267 0.061180193 0.11729011 -0.17760386
-0.09337228 0.09806597 0.1632419 -0.2025783 0.047694083 0.2887735 -0.044610776 0.20343758
-0.25314856 -0.16240844 0.10424372 -0.16449957 0.074858196 -0.13253096 -0.05665052 0.052685305
0.11114752 0.038553424 -0.07934304 -0.27475154 -0.08384146 0.0040771556 -0.0065318192 0.19163138
-0.022632418 -0.13985214 -0.1565139 0.15365121 0.26961595 -0.009160485 0.15513532 0.19254255
-0.13655877 -0.020147193 -0.036960945 -0.061781906 0.28801626 -0.18942802 -0.27344993 -0.119851135
0.33765295 -0.04797636 0.0035842445 -0.035368223 -0.12611173 0.010287309 -0.09364955 -0.14519617
-0.038408577 0.04578925 -0.0065279203 -0.003390738 -0.043892607 -0.15862803 0.08659933 -0.32601053
-0.26426148 0.06641024 -0.08378457 -0.12212198 -0.10502427 -0.06426793 0.15814064 -0.059634544
-0.05904502 -0.015819954 -0.07153437 0.071398735 -0.016278079 0.053132217 -0.006800459 0.16509031
-0.09588245 0.043387335 0.30890188 0.0039794883 -0.10382096 0.2801426 -0.018755574 -0.14247099
-0.15859337 0.033814766 -0.1094586 -0.1419582 0.1287446 -0.041967895 -0.23923641 0.011442455
0.20538369 -0.30963355 -0.012227152 -0.37805995 -0.16472587 0.05752528 0.12280581 -0.010628091
-0.038481515 0.0014270449 0.12595542 0.029093502 -0.1472739 0.11554703 -0.063701116 -0.1880555
-0.11851539 0.119229876 0.0830556 -0.27521685 0.21403122 -0.14172007 -0.18106975 0.097308725
00000000: c62f 983e a87d c6bd 9c83 16be 31e9 92be
00000010: b3fc 90be 45f0 273e f711 27be e206 d83d
00000020: 004b 97be 493b 11bd bdb5 f5bd 0b6c c43d
00000030: 8eba 66bb ac3c 55be 1f53 52bd 11eb a0bc
00000040: f52e bb3d 628b e6bd 4ef9 1f3d 9c93 2bbd
00000050: cc66 eb3d 751c 933c e890 ecbd aa27 1a3e
00000060: 32f5 613e 552f 42be 45a3 86be d026 813d
00000070: f530 01be 70a7 94be ac23 93bd ddd8 d2bc
00000080: c37c c8bd f375 3ebe bda1 973e 9ade 5d3d
00000090: 5c58 5cbe d533 0a3e 4055 80bd fe9f 863c
000000a0: 5709 58bd 10d4 4fbe 9a88 443e 638a 06be
000000b0: 5751 853c 9427 b03b 6705 883d 4479 ddbd
000000c0: 70d3 d5bd 22f6 053e 7b7b 953d aff4 5cbe
000000d0: a301 b8bc a8f8 8f3e e5a0 c03d 8e87 5abd
000000e0: 9d8c 553d b11b 5f3b 6a79 d1bd 1e9b 20be
000000f0: 9c4e 823e e06b 303e 0af7 30be 9262 e03d
00000100: 78df 23be 2cc9 173e ef30 223e 3c82 74bd
00000110: 8230 483e 7b5f 3dbd f5c9 20bd 1bd6 f13d
00000120: d318 48bd 7dea 833d 698f 13bd c5f0 d4bd
00000130: 3a99 0b3e 1598 7a3d cc35 f03d c9dd 35be
00000140: f739 bfbd d0d6 c83d e228 273e b070 4fbe
00000150: df5a 433d 1fda 933e cab9 36bd f151 503e
00000160: b09c 81be 664e 26be bb7d d53d 9372 28be
00000170: 414f 993d 32b6 07be 600a 68bd 8ccc 573d
00000180: 50a1 e33d 32ea 1d3d 9b7e a2bd 3cac 8cbe
00000190: 12b5 abbd a999 853b df08 d6bb 043b 443e
000001a0: 9f67 b9bc 6635 0fbe 2e45 20be be56 1d3e
000001b0: 1a0b 8a3e dc15 16bc cbdb 1e3e e029 453e
000001c0: 10d6 0bbe ba0b a5bc 5c64 17bd 060f 7dbd
000001d0: de76 933e 6bf9 41be a101 8cbe 8374 f5bd
000001e0: d9e0 ac3e dc82 44bd a5e5 6a3b 45de 10bd
000001f0: 6f23 01be 1a8c 283c 56cb bfbd 4eae 14be
00000200: 5052 1dbd 828d 3b3d 2ae8 d5bb 2537 5ebb
00000210: bcc8 33bd 636f 22be fd5a b13d daea a6be
00000220: 484d 87be 1802 883d 3f97 abbd 171b fabd
00000230: f716 d7bd e89e 83bd 9fef 213e 5a43 74bd
00000240: 31d9 71bd d998 81bc 9d80 92bd 8039 923d
00000250: 9b59 85bc 2ba1 593d 63d6 debb 6f0d 293e
00000260: 055e c4bd ebb6 313d 6328 9e3e 5e66 823b
00000270: 15a0 d4bd da6e 8f3e 4aa5 99bc eae3 11be
00000280: 4d66 22be 5a81 0a3d d52b e0bd 7e5d 11be
00000290: a0d5 033e 87e6 2bbd 64fa 74be 2379 3b3c
000002a0: 1a50 523e 4a88 9ebe 6454 48bc 1391 c1be
000002b0: e6ad 28be a19f 6b3d 9d81 fb3d 7221 2ebc
000002c0: cb9e 1dbd ae0b bb3a 75fa 003e 7f55 ee3c
000002d0: f8ce 16be eca3 ec3d bb75 82bd 9f91 40be
000002e0: 32b8 f2bd cb2e f43d 0e19 aa3d 39e9 8cbe
000002f0: 002b 5b3e 111f 11be 596a 39be cc49 c73d

bias f4 [8]
0.1088789 -0.1402165 -0.00839203 -0.018390711 -0.17756622 0.10784878 -0.14034578 0.18841259
00000000: e7fb de3d ea94 0fbe ba7e 09bc 1ea8 96bc
00000010: ebd3 35be d2df dc3d ceb6 0fbe 3bef 403e

weight f4 [8]
0.824321 0.769596 0.7982664 0.7581218 0.70194376 0.6981405 0.7410056 0.74948907
00000000: b306 533f 3e04 453f 305b 4c3f 4514 423f
00000010: 96b2 333f 56b9 323f 8bb2 3d3f 84de 3f3f

bias f4 [8]
-0.051651035 -0.14262944 -0.24704112 -0.26864204 -0.13563535 -0.29977462 -0.19873801 -0.17432754
00000000: 0990 53bd 740d 12be 59f8 7cbe 738b 89be
00000010: fee3 0abe 0f7c 99be fa81 4bbe eb82 32be

running_mean f4 [8]
-0.18846416 -0.46188268 0.19523545 -0.0011781586 -0.33804786 -0.16623132 -0.17218846 -0.16227923
00000000: c0fc 40be e37b ecbe cdeb 473e 716c 9aba
00000010: 9c14 adbe 8b38 2abe 2c52 30be 872c 26be

running_var f4 [8]
0.26969907 0.1286599 0.1212759 0.15303299 0.30162752 0.2257429 0.105121285 0.21192987
00000000: ff15 8a3e 6cbf 033e 805f f83d aeb4 1c3e
00000010: ec6e 9a3e 2629 673e d449 d73d 2504 593e

weight f4 [128, 25]
-0.05794858 0.2831167 0.1693352 -0.015601681 0.31675386 -0.119777635 -0.16127548 -0.22300409
0.0040254276 0.20211579 0.12065626 0.098985784 -0.092185356 -0.06641333 0.021762198 -0.07191051
0.11794657 0.22200353 0.39501756 -0.06782243 -0.20821878 0.08696709 0.14382629 0.0066209165
-0.12847686 0.0038194656 -0.11064828 0.32043266 -0.10534261 -0.14690797 0.08017942 0.0508523
0.13617983 0.2332055 0.17532882 0.110448696 -0.05636827 0.032861322 0.13711259 0.009868933
-0.022216862 -0.20887195 -0.12254104 -0.27663383 0.24009217 -0.13199738 -0.029042285 0.15284398
-0.04873951 -0.15440801 0.15918452 0.029007073 0.259228 0.030893344 0.1237495 -0.25498635
0.035113294 0.07519605 0.22514343 -0.2001739 0.1746771 0.03626657 -0.2637655 0.25842044
0.12996691 -0.09778191 0.017820934 -0.18965676 -0.13552277 0.20760246 0.12659301 0.20088202
0.18784268 -0.013881047 0.09521681 0.17075324 -0.17602412 0.037726074 0.035556912 0.12580666
-0.32434195 0.055995833 0.2932035 -0.07473422 -0.1965222 0.04367642 -0.0014582791 0.029676316
-0.14830436 0.008436925 0.06479123 -0.043211397 0.07229601 0.18793899 0.16916397 -0.26418516
0.13341111 -0.12445077 0.07455475 -0.45164812 -0.08807541 -0.0800545 -0.0593779 0.18899478
0.0010031742 0.15224224 -0.02883671 -0.27237868 0.1136157 0.10719796 -0.08370782 -0.10017739
-0.23986359 0.095516846 -0.1535845 0.01264926 -0.16719691 -0.4059859 -0.4192083 0.040774036
0.24530913 -0.09152237 -0.056554977 -0.27101883 0.07646477 -0.23371969 0.117070526 -0.073470674
0.051791824 0.056988727 0.14231972 0.03219585 0.05998455 0.2230215 -0.2551786 0.17082746
-0.058417603 -0.040705465 -0.12722747 0.06684789 0.011695875 -0.020511106 0.08896198 0.17550407
0.03374299 0.1926308 -0.10192274 -0.017379615 -0.11100273 0.19193257 -0.06833248 0.10467268
-0.17201589 -0.21788673 -0.21015055 -0.36086413 0.13233413 0.1080639 -0.2895531 -0.26872933
0.102930486 -0.38864648 0.1936095 0.22573256 0.14970997 -0.018729893 -0.112908736 -0.043847956
-0.08648555 0.013098484 0.020509657 -0.080439575 -0.13949473 0.018002206 0.058885846 0.22321002
0.24744675 -0.1152497 0.03873647 0.19092637 -0.32070705 -0.078205034 -0.045537695 0.17798449
0.043250248 0.26697737 0.2297081 -0.09690666 -0.092587955 0.019305762 -0.2559455 -0.051625658
-0.21725357 -0.2537269 -0.2758039 0.005752796 -0.18547189 -0.000121289355 0.14219819 -0.07792162
-0.33020493 -0.37662402 -0.465565 -0.16239358 0.017918471 -0.4814801 -0.46632966 -0.22260384
0.04074531 -0.12513942 0.13180622 0.15822251 0.119698964 0.016205054 -0.0016650902 -0.06527417
0.04221417 -0.17100036 -0.1457139 0.1630795 0.072469674 0.116807885 -0.09782013 -0.018589577
-0.32656074 0.2126128 -0.23634484 5.879974e-05 0.31515616 0.041192647 0.11092725 0.1724461
-0.28029874 -0.21547714 -0.19793093 -0.25437227 -0.31339937 0.015354144 0.025988473 -0.025797985
-0.12851697 -0.17975901 0.16409492 -0.10536862 -0.13546593 -0.15443921 0.181529 0.07582889
-0.19077396 -0.07273795 0.10889423 -0.04633457 0.12519608 0.07819153 -0.08877262 -0.12781566
00000000: 7d5b 6dbd acf4 903e 3566 2d3e 319e 7fbc
00000010: 902d a23e fa4d f5bd 6625 25be 2f5b 64be
00000020: bce7 833b 71f7 4e3e a11a f73d 0fb9 ca3d
00000030: adcb bcbd b603 88bd a346 b23c d145 93bd
00000040: f98d f13d e554 633e be3f ca3e 7ce6 8abd
00000050: 4e37 55be cd1b b23d 3347 133e 46f4 d83b
00000060: 708f 03be 0050 7a3b 919b e2bd c00f a43e
00000070: debd d7bd 0b6f 16be 1c35 a43d 804a 503d
00000080: ba72 0b3e 6ccd 6e3e 6689 333e ed32 e23d
00000090: 6ae2 66bd 9899 063d 3e67 0c3e 4eb1 213c
000000a0: 2300 b6bc 87e2 55be ccf6 fabd f3a2 8dbe
000000b0: b9da 753e 522a 07be 16ea edbc 2283 1c3e
000000c0: 15a3 47bd 221d 1ebe 4401 233e 3ea0 ed3c
000000d0: 88b9 843e 0a14 fd3c 6170 fd3d 928d 82be
000000e0: f5d2 0f3d 6300 9a3d 008c 663e 63fa 4cbe
000000f0: 8ede 323e 418c 143d 460c 87be af4f 843e
00000100: 0c16 053e e241 c8bd 35fd 913c 6235 42be
00000110: 7bc6 0abe bd95 543e 99a1 013e 04b4 4d3e
00000120: d559 403e 556d 63bc 0801 c33d f0d9 2e3e
00000130: ab3f 34be a886 1a3d 20a4 113d 76d3 003e
00000140: 2610 a6be e35b 653d c51e 963e 410e 99bd
00000150: 1e3d 49be 0ce6 323d ba23 bfba bf1b f33c
00000160: 19dd 17be 073b 0a3c 44b1 843d 6ffe 30bd
00000170: ee0f 943d 1473 403e 5239 2d3e 4743 87be
00000180: ec9c 083e 0ce0 febd 29b0 983d 6c3e e7be
00000190: e160 b4bd 9df3 a3bd 3e36 73bd d987 413e
000001a0: f17c 833a 64e5 1b3e f73a ecbc 3875 8bbe
000001b0: 59af e83d 9b8a db3d 016f abbd ce29 cdbd
000001c0: cd9e 75be 569e c33d 4145 1dbe d83e 4f3c
000001d0: ab35 2bbe 62dd cfbe 78a2 d6be ad02 273d
000001e0: 5132 7b3e 1570 bbbd 31a6 67bd fbc2 8abe
000001f0: 9099 9c3d 3754 6fbe acc2 ef3d cb77 96bd
00000200: aa23 543d 036d 693d 43bc 113e ccdf 033d
00000210: 5cb2 753d c05f 643e c5a6 82be 65ed 2e3e
00000220: 4c47 6fbd c6ba 26bd eb47 02be 8ce7 883d
00000230: 0ea0 3f3c e806 a8bc b331 b63d 57b7 333e
00000240: 1736 0a3d 0241 453e dfbc d0bd b25f 8ebc
00000250: 6655 e3bd f989 443e e6f1 8bbd a15e d63d
00000260: ef24 30be b31d 5fbe b531 57be 2fc3 b8be
00000270: 9982 073e 9b50 dd3d 4e40 94be e496 89be
00000280: 38cd d23d acfc c6be 9241 463e 7026 673e
00000290: 924d 193e 6f6f 99bc b23c e7bd ea99 33bd
000002a0: 561f b1bd 069b 563c de03 a83c 81bd a4bd
000002b0: b5d7 0ebe 5d79 933c 4932 713d 2b91 643e
000002c0: ae62 7d3e 0908 ecbd 22aa 1e3d 3482 433e
000002d0: b733 a4be f629 a0bd bc85 3abd 9141 363e
000002e0: 2c27 313d 42b1 883e 9a38 6b3e 0077 c6bd
000002f0: c19e bdbd 1e27 9e3c 4a0b 83be 6d75 53bd
00000300: b877 5ebe 7ee8 81be 2b36 8dbe f381 bc3b
00000310: 58ec 3dbe ba5c feb8 679c 113e 5f95 9fbd
00000320: 9f10 a9be ddd4 c0be 895e eebe 814a 26be
00000330: c2c9 923c 8f84 f6be c3c2 eebe 43f2 63be
00000340: 8ee4 263d 8c24 00be 36f8 063e 1505 223e
00000350: bb24 f53d 76c0 843c 283f daba 77ae 85bd
00000360: c4e8 2c3d b81a 2fbe 0636 15be 50fe 263e
00000370: fb6a 943d f938 ef3d ec55 c8bd 2b49 98bc
00000380: f832 a7be 2bb7 593e 6204 72be bd9f 7638
00000390: 265c a13e 9fb9 283d d32d e33d b695 303e
000003a0: 5183 8fbe 0aa6 5cbe 68ae 4abe 153d 82be
000003b0: e275 a0be f38f 7b3c c7e5 d43c 4c56 d3bc
000003c0: f499 03be bf12 38be 8008 283e 81cb d7bd
000003d0: 95b7 0abe 5025 1ebe bde2 393e 2d4c 9b3d
000003e0: 405a 43be a2f7 94bd f003 df3d 51c9 3dbd
000003f0: 6733 003e e222 a03d 6bce b5bd 1ce2 02be

bias f4 [128]
0.010746809 0.02039263 -0.08114519 0.11439686 0.20795527 -0.021009905 -0.029671105 0.025433563
0.015811326 0.20680702 0.12483347 -0.14610477 0.10119213 0.120224304 0.067435645 0.0017750919
0.18653175 0.03449285 0.08727748 -0.01821095 -0.0827104 0.21489264 0.03647563 -0.14633276
-0.002490004 0.07868199 0.08042126 -0.021967353 0.044139814 0.047857113 -0.17255503 -0.043314647
0.09903009 0.16543637 -0.036057178 0.13919063 0.055700675 0.02320392 -0.0705663 0.17358659
0.13431765 -0.08590709 -0.09731153 -0.0691722 -0.092894174 0.16635613 -0.12514286 -0.17054597
0.032038953 0.06251798 0.083654724 -0.032799564 -0.06841199 -0.047926567 -0.099814124 -0.007653326
-0.15541518 0.12022551 -0.048633073 -0.038737066 0.03590836 -0.08838314 0.0031721445 0.03439574
0.09787151 0.09974868 -0.015043115 0.19251437 0.11925402 -0.1456418 -0.046697486 -0.1572577
-0.13531394 0.16410431 -0.008181034 -0.0024015282 0.13929288 -0.2099458 0.00055213016 0.14617108
0.13478196 0.03575288 -0.12595336 -0.04399467 0.18082884 -0.038013987 -0.14078267 0.04850582
0.046342578 -0.0125542935 -0.21843602 0.019962195 -0.021373907 0.09856774 0.11154525 0.0767453
0.071831 0.08375285 0.0720892 0.06477342 0.07044918 0.22486506 0.12657467 0.0094005
-0.016300566 0.11142972 0.23598479 0.19097029 0.07817728 0.19133216 -0.055433076 -0.03275701
-0.16615412 0.013763554 0.10877307 -0.05108359 0.1881528 -0.07185642 0.055214137 0.08125835
0.010149929 0.093245864 0.14383806 0.03899865 -0.019343162 -0.060307544 0.22331281 -0.06832311
00000000: 6213 303c 720e a73c 732f a6bd e748 ea3d
00000010: 3af2 543e f71c acbc d110 f3bc 0c5a d03c
00000020: c186 813c 38c5 533e b1a8 ff3d 7d9c 15be
00000030: d23d cf3d 2938 f63d b31b 8a3d 33aa e83a
00000040: 2e02 3f3e 6048 0d3d 89be b23d 212f 95bc
00000050: 1264 a9bd d10c 5c3e 7867 153d 41d8 15be
00000060: 562f 23bb 0624 a13d e7b3 a43d e1f4 b3bc
00000070: f3cb 343d d205 443d 44b2 30be b36a 31bd
00000080: 4ad0 ca3d 2768 293e b1b0 13bd fd87 0e3e
00000090: 6426 643d 2616 be3c 1085 90bd afc0 313e
000000a0: 918a 093e 0ef0 afbd 444b c7bd 28aa 8dbd
000000b0: 4d3f bebd 4359 2a3e 7325 00be 9aa3 2ebe
000000c0: 473b 033d 6d09 803d 2b53 ab3d d658 06bd
000000d0: 961b 8cbd a64e 44bd 596b ccbd c0c8 fabb
000000e0: 2825 1fbe cb38 f63d 7933 47bd c2aa 1ebd
000000f0: a514 133d 3802 b5bd c1e3 4f3b 8ce2 0c3d
00000100: dc70 c83d 0949 cc3d 6677 76bc 7d22 453e
00000110: 743b f43d 2023 15be dd45 3fbd 2a08 21be
00000120: bd8f 0abe f60a 283e be09 06bc f562 1dbb
00000130: cba2 0e3e 08fc 56be d4bc 103a dfad 153e
00000140: 4804 0a3e 9d71 123d ebf9 00be c133 34bd
00000150: 322b 393e 8eb4 1bbd 5529 10be 0aae 463d
00000160: b7d1 3d3d 86b0 4dbc b1ad 5fbe c287 a33c
00000170: 5518 afbc e2dd c93d d671 e43d a42c 9d3d
00000180: 221c 933d 9d86 ab3d 81a3 933d eda7 843d
00000190: a947 903d 0743 663e ca9c 013e 8e04 1a3c
000001a0: c488 85bc 4435 e43d ffa5 713e b78d 433e
000001b0: 691b a03d 94ec 433e cb0d 63bd 372c 06bd
000001c0: 4e24 2abe 8880 613c 6ac4 de3d 073d 51bd
000001d0: 21ab 403e 7529 93bd 3828 623d c76a a63d
000001e0: e34b 263c b0f7 be3d 494a 133e 0cbd 1f3d
000001f0: 8d75 9ebc 0b05 77bd 1dac 643e fdec 8bbd

weight f4 [128, 127]
0.066246055 0.057029966 0.10006768 0.15134317 0.07655245 -0.06149088 -0.056967847 -0.010342467
-0.17029716 -0.043114778 0.04224695 -0.03635394 0.049792785 0.09262246 0.08069006 -0.24911569
-0.056715842 -0.015757388 0.10717642 0.04993644 0.120598376 0.04781473 -0.04679604 0.032831308
0.032321643 0.21638972 0.13857529 -0.05422611 -0.13924731 -0.06494146 -0.058531743 0.09843478
-0.121866554 -0.1448927 0.101959616 0.121701054 0.032585185 -0.014178689 0.117661744 -0.008301389
-0.06996595 -0.116822116 -0.096927755 -0.14454694 0.06896867 0.12848203 0.009366424 0.018359855
-0.09145967 -0.079320356 -0.09200702 -0.04290779 -0.035880323 -0.15367565 -0.11314814 -0.23392537
-0.0094661135 0.015134219 -0.017266467 -0.058461923 -0.0041820575 -0.024302471 -0.122565545 -0.011186936
-0.049463965 -0.15891127 0.0036163311 0.12844117 -0.25027514 -0.12782666 -0.09134172 -0.1094262
-0.07101556 -0.10822914 -0.14561985 -0.01596733 -0.24686521 0.027229378 -0.07376855 0.00886003
0.18852015 0.1247135 -0.17271408 -0.16582412 -0.13910866 -0.024412094 0.008832676 -0.017828237
0.16071522 -0.09447606 0.2063755 0.07176042 -0.23198813 -0.15756303 0.07695702 -0.057896905
0.04845743 -0.06803825 0.0043934486 -0.06657044 0.029249405 -0.20520651 -0.18387328 -0.032372165
-0.06592177 -0.14999564 -0.12299632 0.124285 -0.09670598 -0.006058385 -0.05441658 -0.070052765
0.0259755 0.017943215 0.062617496 -0.018450603 -0.0999721 0.0827762 0.010578863 -0.121742986
-0.030633869 0.057597376 -0.11020124 0.028228248 -0.11363613 0.058142986 0.06865844 0.014437486
0.0545371 0.037483893 0.12768093 0.082161956 0.005057554 -0.029647011 -0.056543224 -0.12834235
-0.08692944 -0.14604253 -0.044012584 -0.06686149 0.092175566 0.16150047 -0.13751747 -0.019883098
0.03673579 0.060122922 0.035320595 -0.04260622 -0.08685028 -0.33911538 -0.18279499 -0.0039030463
0.18310796 -0.07628978 -0.218881 -0.16810451 -0.15959486 0.052352715 0.025474971 0.080335595
0.1926761 0.050509337 0.03464347 -0.06284634 -0.116827704 0.18092597 0.057590898 -0.15578583
-0.23974632 -0.20539369 -0.023508985 0.07541866 0.06656885 0.004559777 -0.08277286 -0.23566242
-0.019373985 -0.066011 -0.07541822 -0.12478373 0.011922547 -0.12574977 -0.21436207 -0.2874092
-0.1482232 0.15566806 0.13847508 -0.029693654 -0.07752777 -0.053551532 0.16147253 -0.038787298
0.036125086 0.101936735 0.16007012 -0.189685 -0.10889079 -0.07137671 -0.1113657 -0.27600425
-0.094117075 -0.027560737 -0.20571326 -0.2751517 -0.021788046 -0.1249391 -0.120853476 -0.078311495
0.08666652 0.016834883 -0.04202837 -0.103208415 -0.050461233 0.064833686 0.010755747 -0.09882264
-0.08478953 0.15799934 0.17400737 -0.13331534 0.030004866 -0.05498976 -0.021469992 0.07304054
0.053435788 -0.10961506 -0.056969613 -0.07863502 -0.09606133 0.016050735 -0.122851536 -0.11649364
-0.15216786 -0.09711202 -0.09291512 -0.16871127 0.06825216 0.13601342 -0.060435575 -0.06164881
0.11606607 0.16058657 -0.10371833 -0.10984047 -0.036594596 0.049594704 -0.035819255 -0.25405988
-0.11665138 0.03443605 -0.05399177 -0.06473904 -0.1110403 -0.14712547 0.0640453 -0.14889649
00000000: 03ac 873d 4198 693d 49f0 cc3d b4f9 1a3e
00000010: 88c7 9c3d dcdd 7bbd 1e57 69bd 7373 29bc
00000020: 6162 2ebe 1f99 30bd 230b 2d3d dee7 14bd
00000030: 85f3 4b3d d8b0 bd3d d540 a53d 2f18 7fbe
00000040: df4e 68bd a315 81bc 507f db3d 278a 4c3d
00000050: 48fc f63d 61d9 433d 34ad 3fbd 1f7a 063d
00000060: b363 043d 4495 5d3e aee6 0d3e 331c 5ebd
00000070: d996 0ebe 0700 85bd fbbe 6fbd 2d98 c93d
00000080: 2c95 f9bd c05e 14be 34d0 d03d 673e f93d
00000090: 0b78 053d bb4d 68bc a4f8 f03d 8d02 08bc
000000a0: 4f4a 8fbd 6f40 efbd 0f82 c6bd 1d04 14be
000000b0: 723f 8d3d cb90 033e a175 193c 6867 963c
000000c0: 354f bbbd b672 a2bd 2d6e bcbd 14c0 2fbd
000000d0: 3ff7 12bd 265d 1dbe 36ba e7bd 228a 6fbe
000000e0: c217 1bbc 84f5 773c 6872 8dbc c575 6fbd
000000f0: a409 89bb fa15 c7bc a503 fbbd 6949 37bc
00000100: ba9a 4abd a3b9 22be f8ff 6c3b 1586 033e
00000110: 1024 80be fee4 02be 5e11 bbbd d81a e0bd
00000120: 9b70 91bd 3da7 ddbd 5f1d 15be ebcd 82bc
00000130: 3cca 7cbe 2510 df3c f713 97bd a929 113c
00000140: 6d0b 413e cb69 ff3d f6db 30be cccd 29be
00000150: 8072 0ebe dffb c7bc eeb6 103c 860c 92bc
00000160: 8892 243e aa7c c1bd 1954 533e 21f7 923d
00000170: 4c8e 6dbe 3458 21be a49b 9d3d 4e25 6dbd
00000180: 4c7b 463d a357 8bbd ebf6 8f3b 1556 88bd
00000190: 739c ef3c a821 52be 4749 3cbe ad98 04bd
000001a0: fe01 87bd 7598 19be 7fe5 fbbd 2289 fe3d
000001b0: c90d c6bd 6b85 c6bb ebe3 5ebd d377 8fbd
000001c0: 92ca d43c a6fd 923c 9a3d 803d b825 97bc
000001d0: 2cbe ccbd 9186 a93d f852 2d3c 6354 f9bd
000001e0: e1f3 fabc 3aeb 6b3d 30b1 e1bd ed3e e73c
000001f0: 0fba e8bd 5727 6e3d cc9c 8c3d 358b 6c3c
00000200: 4b62 5f3d b688 193d cabe 023e 8744 a83d
00000210: d7b9 a53b 4ade f2bc de99 67bd 2d6c 03be
00000220: 1008 b2bd 2c8c 15be 8a46 34bd adee 88bd
00000230: 8bc6 bc3d 6160 253e 61d1 0cbe e1e1 a2bc
00000240: 4578 163d 7443 763d 54ac 103d dc83 2ebd
00000250: 8fde b1bd 88a0 adbe 9c2e 3bbe 40ca 7fbb
00000260: a780 3b3e d13d 9cbd 5722 60be 9723 2cbe
00000270: d66c 23be cd6f 563d e3b0 d03c fd86 a43d
00000280: e24c 453e e1e2 4e3d 50e6 0d3d 95b5 80bd
00000290: 5d43 efbd a844 393e 6fe4 6b3d 5286 1fbe
000002a0: 0f80 75be b952 52be ea95 c0bc 1975 9a3d
000002b0: 4055 883d 2f6a 953b d184 a9bd 7d51 71be
000002c0: 31b6 9ebc c630 87bd de74 9abd 9d8e ffbd
000002d0: c956 433c 8cc4 00be bb81 5bbe 4c27 93be
000002e0: d3c7 17be 7367 1f3e 69cc 0d3e 1b40 f3bc
000002f0: e1c6 9ebd da58 5bbd 0e59 253e 6edf 1ebd
00000300: e6f7 133d 35c4 d03d 6ce9 233e c93c 42be
00000310: 2202 dfbd f42d 92bd b313 e4bd 6e50 8dbe
00000320: 74c0 c0bd 0ec7 e1bc 7fa6 52be afe0 8cbe
00000330: d87c b2bc 12e0 ffbd 0782 f7bd c761 a0bd
00000340: 377e b13d 4fe9 893c f125 2cbd ef5e d3bd
00000350: 70b0 4ebd 86c7 843d df38 303c 8663 cabd
00000360: 22a6 adbd 94ca 213e fd2e 323e d183 08be
00000370: c4cc f53c f13c 61bd d6e1 afbc 4796 953d
00000380: 7cdf 5a3d dc7d e0bd f858 69bd 660b a1bd
00000390: cdbb c4bd d57c 833c 9699 fbbd 3894 eebd
000003a0: e4d1 1bbe abe2 c6bd 484a bebd a6c2 2cbe
000003b0: cac7 8b3d 1a47 0b3e 4b8b 77bd 7683 7cbd
000003c0: 0cb4 ed3d ce70 243e 476a d4bd 0af4 e0bd
000003d0: 37e4 15bd d123 4b3d 36b7 12bd 2314 82be
000003e0: ebe6 eebd d10c 0d3d 7926 5dbd e795 84bd
000003f0: 1969 e3bd 0fa8 16be 2f2a 833d 5278 18be
