nn/checkpoints/main_objs_2023_04_23-11_04_11/1/model_0.pt (torch, 518495 bytes, 98 tensors)

weight f4 [8, 5, 3]
000000 fa b0 7a 3e 6e f2 24 be 2d e9 39 be 9f 23 63 3e
       0.24481574 -0.16108105 -0.18155356 0.22181557
000010 4e bb 16 be a9 e4 1f 3d 05 93 b4 bd cc ee 47 be
       -0.14719889 0.039036427 -0.08817104 -0.19524688
000020 8e b4 d0 bc 34 e6 9e 3d fe dd 34 3e d6 b7 37 be
       -0.02547672 0.077587515 0.17662808 -0.17941222
000030 55 33 af bc f3 ab 0f be eb e3 cb bd 23 a8 b1 3d
       -0.021386782 -0.14030437 -0.09955581 0.08674648
000040 b9 cb 4f 3e 56 31 72 be ea 06 c1 bd dd fd 3f be
       0.20292558 -0.23651633 -0.09425147 -0.18749185
000050 b9 14 6d 3d e8 0f 39 3e aa 6e e5 3d d6 16 9f be
       0.05788109 0.18072474 0.11202748 -0.3107211
000060 f2 5d 1b 3e 48 20 78 be 98 6f 26 be 66 60 ad 3b
       0.15172556 -0.24231064 -0.16253507 0.0052910326
000070 9e 8e 1e be 55 ed 3d bc 5e 05 b0 3d be 32 94 bd
       -0.15484092 -0.011592229 0.08594774 -0.07236241
000080 56 c7 20 bd 95 c8 1e 3e 21 d7 2c be 00 6d 97 bd
       -0.0392526 0.15506203 -0.1687894 -0.07393837
000090 7e ed 2c 3e b7 53 1e be 7c 88 98 3e 09 c8 36 be
       0.16887471 -0.15461622 0.2979163 -0.17849745
0000a0 05 dd 16 3e ef 84 c4 3e 6f d8 1b be 24 65 fd 3d
       0.1473275 0.3838267 -0.15219282 0.12372807
0000b0 8f 12 90 3d e6 da 17 3e 06 47 17 be ad ae 84 be
       0.0703479 0.14829597 -0.14773187 -0.25914517
0000c0 32 02 05 3e 06 92 88 3b b5 c4 36 3e 72 7a 90 3d
       0.12989119 0.004167798 0.17848475 0.070546046
0000d0 be b3 18 be 44 60 02 3e c5 05 ae 3d 54 03 97 be
       -0.14912316 0.12732035 0.08497194 -0.29494727
0000e0 5a fc 4c 3d c6 b1 a7 bd 06 39 80 be f4 9e 1e 3e
       0.05004535 -0.081882045 -0.25043505 0.15490323
0000f0 cb 61 00 3e b8 a7 dd bd 5d a2 33 3e 59 a8 01 be
       0.12537305 -0.108230054 0.17542405 -0.12661876
000100 2a 3c 56 bd f4 4a 66 bd f0 41 c7 3b 82 61 53 3e
       -0.05230347 -0.056223825 0.0060808584 0.20642665
000110 7e 3f 0a 3e b3 54 77 3e c6 5a 54 bd 73 bc f2 3c
       0.13500783 0.24153404 -0.05184438 0.029630875
000120 af 19 71 3e ae 59 ab bd 18 00 79 3e cf ab b0 3d
       0.23544954 -0.083667144 0.24316442 0.0862652
000130 17 f9 92 3e dd 05 be bd ad d7 73 3e b2 ae b6 bd
       0.28705665 -0.09278462 0.23812743 -0.08920039
000140 3b 82 52 3d ee 99 ff 3c 7c b2 06 3c be 78 ce bc
       0.05139373 0.03120133 0.008221265 -0.025204059
000150 da f0 0c 3e a0 bf ed 3d a4 4f d4 3d 44 6d 16 3e
       0.13763753 0.11608815 0.10366753 0.14690119
000160 9b f6 32 be 1d 51 0a 3e cf b3 06 3d 1d 3b b2 bd
       -0.17476885 0.13507505 0.032886323 -0.08702681
000170 b9 b1 11 3d 4b 2d 59 be f4 3d 1b be ae 45 12 be
       0.03556988 -0.21208684 -0.15160352 -0.14284393
000180 9d c0 0a be 99 40 41 be 53 2b 21 be 32 a0 2b be
       -0.13550039 -0.18872298 -0.15739183 -0.16760328
000190 31 93 44 bd 24 39 83 bd 94 36 8d be d0 3e 84 be
       -0.047991935 -0.06407383 -0.27580702 -0.25829172
0001a0 f8 4c 78 be 24 db 4d bd e6 f6 9c be e3 25 fd 3d
       -0.24248111 -0.050257817 -0.3065712 0.12360742
0001b0 6e 9e 1a 3e 39 21 04 be 2c 18 14 be 83 7b 46 bd
       0.15099499 -0.12903298 -0.14462346 -0.048457634
0001c0 eb 1e 06 3d 17 eb 89 3e 72 3f 6f be 3b 2f cd bd
       0.03274433 0.26937172 -0.23364046 -0.10018774
0001d0 2e c5 92 bc 65 8b 7a be 65 a3 23 be 45 52 82 bd
       -0.017916288 -0.24467237 -0.15980299 -0.06363348

bias f4 [8]
000000 b3 0f 64 3d 43 1f 81 be 52 72 6c be 4e e9 3e be
       0.055679034 -0.25219163 -0.23090485 -0.18643686
000010 2a 31 17 be 96 61 4e be 8a eb ce 3d 6a 87 b5 bc
       -0.14764848 -0.20154414 0.10103519 -0.022159297

weight f4 [8]
000000 e1 1a 8b 3f f2 e1 66 3f e3 92 74 3f 2f 87 82 3f
       1.0867578 0.90188515 0.9553663 1.0197505
000010 b4 2e 7f 3f 8b 22 80 3f 0d a8 83 3f 4c 58 7c 3f
       0.9968064 1.0010542 1.028566 0.9857223

bias f4 [8]
000000 db 4c df 3d c8 78 cf 3b 3d f2 e4 3c 86 62 10 3e
       0.10903331 0.006331537 0.02794754 0.14100084
000010 07 23 8b 3d 73 51 ca 3c 3b 94 bb 3c 36 f4 f9 bc
       0.0679379 0.024697041 0.02289783 -0.030511957

running_mean f4 [8]
000000 21 2f 28 be 25 7b fe be 28 9d e6 3c 61 ec 93 be
       -0.16424228 -0.49703327 0.02815111 -0.2889128
000010 98 24 71 3e c6 6d 53 3e 17 42 3e bf d5 d6 cc be
       0.23549116 0.20647344 -0.74319595 -0.40007654

running_var f4 [8]
000000 9a 73 a7 3e ed f6 d1 3e 17 4c e4 3e d1 21 b5 3e
       0.32705384 0.41008702 0.44589302 0.35377362
000010 16 54 2f 3f 08 91 40 3f a4 da 34 40 28 3c 35 3f
       0.6848768 0.752213 2.8258448 0.70794916

weight f4 [8, 8, 3]
000000 67 22 03 be 31 be 09 bd c4 f9 1c 3e 8e 15 3d 3a
       -0.12806092 -0.033628646 0.15329653 0.000721299
000010 f4 5c 28 bd e9 3f f7 3d 5e 04 c9 3d 63 07 52 bd
       -0.041104272 0.12072737 0.09815286 -0.051276576
000020 07 5b 13 be 91 d2 f4 bd 7c 24 2e 3e f5 30 53 be
       -0.14390193 -0.11954225 0.17006105 -0.20624144
000030 0f c0 73 be 47 2f 33 3e 56 0a 85 3d 77 ea c9 bd
       -0.23803733 0.17498504 0.06496112 -0.09859174
000040 1a ef 1e 3e 8f 9b 25 be b9 f0 d0 bd 67 27 3a be
       0.15520898 -0.16172622 -0.10202164 -0.18179093
000050 62 bb 6c 3e 3d da c5 bd 70 31 f5 bd 24 64 34 bd
       0.23118356 -0.09660766 -0.1197232 -0.044040814
000060 3c dc 11 3d cd 3e 57 be 20 7d 0a 3e 88 1e 8f 3d
       0.035610422 -0.2102005 0.13524294 0.06988245
000070 54 f7 1c 3e 8c f9 52 3e 0e 9f f3 3c 5d 11 0b 3d
       0.15328723 0.20603007 0.02973893 0.033952106
000080 7d c9 57 be 0f 24 06 3e c8 e8 0d be fa 85 b6 bc
       -0.21072955 0.13099693 -0.1385833 -0.022280682
000090 be 3d 03 3e 7b 03 de 3d f6 e5 41 be 32 01 0d 3d
       0.12816522 0.108405076 -0.1893538 0.034424968
0000a0 fe 08 ef bd c5 65 3a 3c 98 1e 7d 3c 30 54 4a be
       -0.11671637 0.011376803 0.015449189 -0.19758677
0000b0 a5 1b 39 3d 5d f7 01 be 12 77 03 be 93 d9 dc bd
       0.04519238 -0.12692018 -0.1283839 -0.107836865
0000c0 bc 5b 15 3e ab cd e3 bd c2 e5 08 bd 2b ca e8 3d
       0.14585775 -0.111232124 -0.03342224 0.113666855
0000d0 92 e5 ae 3b 60 55 2f 3d 2c 57 c5 bc 4e ef d1 3d
       0.0053374255 0.04280603 -0.024089418 0.10250722
0000e0 67 39 28 be ff 8b 55 3e f5 e7 0b 3e 25 5b 27 be
       -0.16428147 0.20854186 0.13662703 -0.16343363
0000f0 95 23 6b 3c 6b c4 9f bd 46 b3 10 be de f9 7e 3d
       0.014351745 -0.07801136 -0.14130887 0.06225001
000100 fb d5 53 be 52 35 49 3d dc 82 84 3d 74 9b 20 be
       -0.20687096 0.049123116 0.06470272 -0.156843
000110 21 eb 14 be 89 a4 2e be e1 af 09 be 52 7e 09 3e
       -0.1454282 -0.17054953 -0.13445999 0.13427094
000120 db 0d b9 3c 8f bb 1f 3e 4c d7 35 3e 82 1c d7 bd
       0.022589615 0.15598892 0.1775791 -0.10503484
000130 bf c1 c2 3d 55 ef 0b be 1a 78 07 bd ea 33 be bd
       0.095096104 -0.13665517 -0.033073522 -0.092872456
000140 22 53 84 3c 0c 6d 60 be 09 d8 22 3e b5 a1 74 bd
       0.016152922 -0.21916598 0.15902723 -0.05972453
000150 a2 f8 30 3e e0 4b b7 bd 85 49 f0 bd a9 1f f8 bd
       0.17282346 -0.08950019 -0.11732773 -0.12115414
000160 51 6f 3e be 24 08 19 3e 12 b4 13 3e d7 55 06 be
       -0.18597151 0.14944512 0.1442416 -0.13118683
000170 cb 6d 97 3e b8 4f 6c bc e4 c9 5e 3e d6 9e 96 3d
       0.29575953 -0.014423303 0.21756703 0.07354514
000180 7b 22 04 3e 54 ec d2 3c 7e cb 2d be 0e 2b 17 be
       0.12903778 0.025747456 -0.16972157 -0.14762518
000190 5b 8f f5 3d b5 ea c4 3d 08 2b 02 3e 5e 5c 37 3e
       0.119902335 0.09615079 0.12711728 0.17906329
0001a0 f8 e4 33 3e a0 53 ed 3a a3 cb 00 be 93 e4 01 bd
       0.17567813 0.0018106587 -0.12577681 -0.031712126
0001b0 d0 e3 27 be 1c 9d 43 3e f8 38 42 3e b7 52 cd ba
       -0.16395497 0.19102901 0.18967044 -0.001566491
0001c0 f6 99 f4 bd 7c 5e da bd bf 0b 84 3d b8 b8 4c be
       -0.11943428 -0.10662553 0.06447553 -0.1999234
0001d0 2a 53 69 be 61 e2 10 be e6 bc 10 3e 6f b6 69 bd
       -0.22785631 -0.14148857 0.14134559 -0.057058748
0001e0 df 7e 56 bd c0 25 ca bd 3a c6 76 be b1 a3 56 3d
       -0.052367087 -0.098704815 -0.24099055 0.052402202
0001f0 0e e5 d5 bd db ae 16 3d 32 7a a0 bc 13 32 8d 3d
       -0.10444079 0.03678785 -0.019589517 0.068943165
000200 24 4a 2d bd f5 da d5 3c 2b e1 bb 3a df af 6e 3d
       -0.042307034 0.026105383 0.0014334073 0.058273192
000210 5b 5f 11 be fb 56 d9 bd 9d 5e a5 bd 91 11 d8 3d
       -0.14196531 -0.10612293 -0.08074687 0.105502255
000220 73 b3 44 be fa db 48 3e 48 88 52 3e 83 f9 ef bd
       -0.1920908 0.19615164 0.205598 -0.117175125
000230 ba 42 ef bd 28 83 e9 3d 61 77 1d 3e e4 55 ff 3d
       -0.11682649 0.11401969 0.1537757 0.12467554
000240 51 1b 40 bd 7a ec f0 bd e4 74 58 be 46 ad 26 be
       -0.04690105 -0.11763854 -0.2113834 -0.16277036
000250 fd 7a b9 bd 35 9e 07 3e 39 f8 a8 3c ab d5 87 3d
       -0.09056661 0.13243945 0.020626174 0.06632551
000260 7a dd 82 be 02 2e af bd 3a 07 1f 3e 5b 84 b2 be
       -0.25559598 -0.08553697 0.155301 -0.34866604
000270 9d 22 24 be 35 11 8e bd 0c 3d 81 bd d5 d5 dd 3d
       -0.16028829 -0.06936876 -0.06310472 0.10831801
000280 b6 d9 41 bd 8d bf 2a be 70 93 6f 3e 83 5a 3e 3e
       -0.047326766 -0.16674633 0.23396087 0.18589215
000290 8b aa c1 bd 15 d5 38 3e 70 27 07 bd ac 22 e4 bc
       -0.094563566 0.18050034 -0.032996595 -0.027848564
0002a0 f9 c6 1c be 1d ad 20 3d a6 f6 14 3b c9 9e a8 bd
       -0.15310277 0.039227594 0.0022730022 -0.08233411
0002b0 94 da 3c be d5 23 4e bd 7d 46 1a 3e a0 01 84 bd
       -0.18442756 -0.05032714 0.15065952 -0.064456224
0002c0 28 88 69 bd 91 c2 a2 3d 4f 07 99 bc e4 0e 09 be
       -0.057014614 0.07947267 -0.018680243 -0.13384587
0002d0 92 ae 39 3e d0 e9 cb 3d d7 c7 d1 bc 52 bf 96 3d
       0.18133 0.099567056 -0.025607986 0.0736071
0002e0 18 ed e2 3d c0 6c 05 3e 22 4d dc 3d a4 ec c9 3d
       0.11080378 0.13029766 0.107568994 0.09859589
0002f0 76 12 2a 3e a2 84 aa bd 22 c8 f6 bd c5 2d 3a 3e
       0.16608605 -0.08326079 -0.12049891 0.18181522

bias f4 [8]
000000 46 12 74 3e 50 d0 01 be 07 a8 94 ba bb 5c e6 bb
       0.23835096 -0.12677121 -0.001134158 -0.0070300973
000010 43 74 3c 3e 91 b4 d7 bc ce 76 9b bd f1 97 37 be
       0.18403725 -0.026331218 -0.075910196 -0.17929055

weight f4 [8]
000000 0a a5 8b 3f c5 69 7d 3f 24 c4 82 3f d6 3d 7e 3f
       1.0909741 0.98989516 1.0216107 0.99313104
000010 61 5d 7f 3f b1 ac 76 3f 4c ce 81 3f 51 fc 79 3f
       0.9975186 0.96357256 1.0141082 0.9765063

bias f4 [8]
000000 c5 90 29 3e 6b 7b 8e bc 86 65 04 3d f7 4d fa bb
       0.16559131 -0.017392835 0.032323383 -0.0076386887
000010 08 46 62 3c 4b 73 91 3b 1d 9d e4 bc 2a 20 49 3c
       0.013810642 0.004438793 -0.027906949 0.012275735

running_mean f4 [8]
000000 99 89 5a 3d c3 ab 6f be 3a 59 13 be e7 88 08 3e
       0.05335388 -0.23405366 -0.14389506 0.13333474
000010 13 0e 0a 3e aa 18 04 be 23 03 c5 be 93 f4 fe bc
       0.13481931 -0.12900034 -0.38478956 -0.031122481

running_var f4 [8]
000000 ee 8e 02 3e b2 a9 e2 3d 5d 7f 2d 3e 03 c7 20 3e
       0.12749836 0.11067523 0.16943116 0.15700917
000010 66 dd 0c 3e 50 56 39 3d 65 1c c7 3e be 65 5e 3e
       0.13756332 0.04524833 0.3888885 0.21718499

weight f4 [8, 8, 3]
000000 29 8d b4 3d 1c 67 e9 bd 17 2a 3c 3d cd 87 dd 3d
       0.08815987 -0.1139662 0.045938578 0.108169176
000010 3a 8a aa bd 11 95 c6 3d 08 b8 04 3e 23 63 2e bd
       -0.08327146 0.09696401 0.12960827 -0.042575013
000020 08 e0 2a 3d 87 e4 be bc 4f 21 53 be f5 54 79 be
       0.04171756 -0.02330233 -0.20618175 -0.24348815
000030 f3 89 46 3e 4a 51 0c 3c 4e 67 1e 3e c9 15 6e bd
       0.19388561 0.008564303 0.15469095 -0.058126245
000040 ed 81 08 3c 24 7e 31 bd 0d c9 21 bd 4b 1a 41 be
       0.008331758 -0.043333188 -0.039498378 -0.18857686
000050 fd c4 3f 3e 96 35 e1 3d 62 6a 52 3c 9a 54 d4 3d
       0.18727489 0.10996549 0.012842746 0.10367699
000060 a6 34 55 be 36 00 84 bd 2b 9c e6 3c 0a 9b 07 3e
       -0.20820865 -0.06445353 0.028150639 0.13242736
000070 ac 23 b1 bd 8a bd 08 be a0 5e 15 be d6 99 d3 3d
       -0.08649382 -0.13353553 -0.14586878 0.10332076
000080 5e 8a 45 be e4 24 4b 3e a2 6e 08 3e 0f 55 21 be
       -0.19291064 0.19838291 0.13323453 -0.15755104
000090 79 c8 32 bd d4 e3 26 bb 29 07 21 be f4 95 29 3e
       -0.043648217 -0.0025465386 -0.15725388 0.16561109
0000a0 b9 a6 a7 3d 3a 0e 9b bc 4f a0 1b bd da fe c3 3d
       0.08186097 -0.018927682 -0.03799468 0.095700935
0000b0 77 15 c4 bb d4 84 26 3e 23 8c 0c be 6d ba 17 3e
       -0.005984004 0.16261607 -0.13725333 0.1481721
0000c0 00 71 3c be e7 a3 60 3d 7e 0e 9c bd 3f b2 a2 bd
       -0.18402481 0.05484381 -0.07619952 -0.07944154
0000d0 8c cb 7d be d4 a1 1f 3e 92 38 d8 3d ba 48 37 be
       -0.24784678 0.15589076 0.10557665 -0.17898837
0000e0 4f 31 21 bd 57 96 32 be 7d 14 80 3e 48 27 df bc
       -0.039353665 -0.17440163 0.2501563 -0.02724041
0000f0 87 85 cf bd f8 9d 35 be 67 7d 02 be f4 9b e3 bd
       -0.1013289 -0.17736042 -0.1274315 -0.1111373
000100 92 7a 5f 3d 58 f0 b0 bc 0f 58 ae bd 52 ad 2f bc
       0.05456025 -0.02159898 -0.085128896 -0.010722475
000110 c5 ec e0 3b b9 04 06 be 7e 7d a6 3d c7 44 3c 3e
       0.0068641626 -0.13087739 0.081294045 0.18385611
000120 03 87 91 bd 81 5e 5d 3c f5 bb 12 be 8b 57 92 be
       -0.071058296 0.013511301 -0.14329512 -0.28582415
000130 ba ca 57 be f3 d7 03 be 46 74 29 3e 99 3d 0d be
       -0.21073428 -0.12875347 0.16548261 -0.13793029
000140 9e 9d b1 bc d2 23 45 3e 13 31 6b 3b 9c 79 94 bd
       -0.021681603 0.19251946 0.0035887405 -0.07249758
000150 72 e3 1f 3d 03 02 50 be 24 22 65 be 0a 2a b0 bc
       0.039035268 -0.20313267 -0.22376305 -0.02150442
000160 86 c9 4b 3e 51 98 b0 bc 46 26 25 be 5e 83 07 3e
       0.19901094 -0.021557005 -0.16127881 0.13233706
000170 23 b2 81 3d 33 78 16 be d0 7e a3 bd f2 b1 9b bd
       0.06332805 -0.1469429 -0.07983172 -0.076023
000180 f4 e7 85 be d1 ed ed 3d 06 0c 7e bc 70 b1 41 be
       -0.2615353 0.116176255 -0.015505796 -0.18915343
000190 69 83 1c bd 1b 1e 8f 3c 3f 85 8b be 7e a0 18 be
       -0.03821126 0.01747041 -0.27250096 -0.14904973
0001a0 7d aa b1 3d 36 08 0c bc 90 1c 13 bd 55 6c 72 be
       0.08675096 -0.0085468795 -0.03591591 -0.23674138
0001b0 16 4c 3d be 83 fb 02 3e 4b 3e 1c bd 55 3f c9 3d
       -0.18486056 0.12791257 -0.038145345 0.09826533
0001c0 e1 b3 1d 3e 18 7e ed 3d 42 61 f4 bc 6a 8b b8 3d
       0.1540065 0.11596316 -0.029831532 0.09010966
0001d0 70 7e 10 3e 2b cd 8e bd 70 91 1c be 5b 58 15 3e
       0.14110732 -0.069727264 -0.15289855 0.14584486
0001e0 f4 08 a9 3d 5a a3 db bd 87 da 46 3e e8 e0 d2 3d
       0.08253661 -0.10724516 0.19419299 0.10296804
0001f0 ef aa 27 3e 39 d9 c6 3d 24 2c 66 3e f0 f1 a3 3d
       0.163738 0.09709401 0.22477776 0.0800513
000200 70 c9 c2 bb 07 4f 4b bd 13 b3 1d 3d c1 21 22 bd
       -0.0059444234 -0.049635913 0.038500857 -0.03958297
000210 65 9c 16 be f9 06 fa 3d ff 77 ba 3d 22 c9 84 bd
       -0.14708097 0.12208361 0.09104919 -0.064836755
000220 e3 79 39 3e ca b2 aa 3d 4f 3f a0 3d 19 5f c9 3c
       0.18112902 0.083348826 0.07824575 0.024581479
000230 5c e9 16 be 16 4b e2 3d 6e 2e 7d 3e 6e a7 5f 3d
       -0.14737457 0.11049478 0.24724743 0.054603033
000240 e2 3e 0a be 0c 57 c2 3d 74 5b d0 3c a7 58 7a 3d
       -0.1350055 0.09489259 0.025434233 0.0611197
000250 88 ab eb bd 06 35 8e 3b cc 09 78 3e 36 3d 51 be
       -0.11507326 0.004339817 0.24222487 -0.20433506
000260 7f 23 8c 3d 74 f4 44 be 8c f3 b8 3d a6 2f 16 3c
       0.06842708 -0.19233876 0.09030828 0.009166634
000270 5d 01 cb bd ba ea aa bd b2 3a 58 be 7c dc eb bd
       -0.099123694 -0.08345552 -0.2111614 -0.115166634
000280 2c 9d 1a bd 2e a9 82 be 7d e3 87 be a8 bd e5 3d
       -0.037747547 -0.255197 -0.26540747 0.11217815
000290 ea ac d0 3d 9d 85 a9 3c 0d 96 f2 bd e5 ac 93 bd
       0.10189231 0.020693595 -0.11845026 -0.072107114
0002a0 f5 f9 05 3d fb 1d ea bd 88 9c 0a 3d 9c b2 40 be
       0.03270908 -0.114314996 0.033840686 -0.18818134
0002b0 7b 86 92 bd 37 ba 49 3e ad 77 35 be 23 44 21 3e
       -0.07154556 0.19699942 -0.17721434 0.15748648
0002c0 6d 09 64 be bb 79 d2 bd 20 4c 44 bd 0a dd 11 3e
       -0.2226922 -0.102771245 -0.04792416 0.14244476
0002d0 6e 9d 88 bc e5 a5 3e be 6e 55 48 be e6 50 59 be
       -0.01667663 -0.18617971 -0.19563839 -0.21222267
0002e0 72 33 26 be f1 ba 1a bd 04 96 35 be da c2 80 bd
       -0.16230562 -0.037775937 -0.17733008 -0.06287165
0002f0 be 09 08 3e 36 6d fc 3d 51 11 8e 3d ad c1 4e be
       0.13284966 0.12325518 0.069368966 -0.20191069

bias f4 [8]
000000 16 75 07 be 8f 4e 46 3e 05 ca d9 bd 42 79 b5 ba
       -0.13228258 0.19365905 -0.10634235 -0.0013845342
000010 13 13 ab 3d 30 7b 96 3d 00 ca d6 bd 0e c9 cc bd
       0.083532475 0.07347715 -0.10487747 -0.09999286

weight f4 [8]
000000 25 67 80 3f 23 5e 73 3f 12 2b 81 3f 35 a6 71 3f
       1.0031477 0.95065516 1.0091269 0.94394237
000010 07 44 8f 3f ed 0a 7f 3f d5 65 84 3f 57 1f 80 3f
       1.1192635 0.99626046 1.0343577 1.0009564

bias f4 [8]
000000 cf 33 7c ba 90 8d 8c bc a2 76 07 bd e0 26 81 bb
       -0.0009620757 -0.017157346 -0.03307212 -0.003941402
000010 b9 be 0c 3e cd c5 89 3d b9 9e a0 3c f1 1b 2b bd
       0.1374463 0.06727181 0.019606935 -0.041774694

running_mean f4 [8]
000000 cf a8 b4 bd 55 4a 00 3e 3c 16 be be ec 6d aa be
       -0.0882126 0.12528355 -0.37126338 -0.3328699
000010 0f 00 00 be e1 37 e5 3e 65 d5 ce be 65 46 e9 be
       -0.12500022 0.44769195 -0.40397182 -0.4556152

running_var f4 [8]
000000 e8 98 b0 3e ea f9 b9 3d ad 07 34 3e 29 f2 0a 3f
       0.34491658 0.090808704 0.17581053 0.5427576
000010 80 2a 35 3e a5 e8 a3 3e 09 f6 8d 3e 75 9e 24 3e
       0.17691994 0.3201343 0.27726772 0.16076072

weight f4 [8, 8, 3]
000000 f9 12 b4 bd 00 56 e9 3c f0 59 f8 bd fa 70 d3 3d
       -0.08792681 0.02848339 -0.12126529 0.10324283
000010 dc 90 f9 3d 3d 90 3d be 3f f9 6a bc 04 01 3d 3d
       0.12185833 -0.18512054 -0.014341651 0.046143547
000020 80 ff 09 3e 96 38 57 be 55 d3 59 be 60 93 39 bc
       0.13476372 -0.2101768 -0.21272023 -0.011326641
000030 57 d4 88 be f6 8f 1b 3e 01 ec 01 be 95 82 83 3d
       -0.26724502 0.15191635 -0.12687685 0.06421391
000040 82 5d 78 3d fe 41 fa 3c bd 8f b8 bd ab ba e3 3d
       0.06063605 0.030549046 -0.09011791 0.111195885
000050 16 aa f5 bd d0 c4 f3 3c 84 2f 0b 3e b3 9e 59 3e
       -0.11995332 0.029756933 0.13592345 0.21251945
000060 57 0f 4f 3e f7 3f db 3c 44 91 0d 3e 0e 87 2b 3d
       0.20220695 0.0267639 0.13824946 0.041876845
000070 fb 08 62 bd 1d 3f 20 bd b3 6b 58 be 2f d5 08 3e
       -0.055184346 -0.03912269 -0.21134834 0.13362573
000080 29 a5 d6 bd a3 87 f3 3d a9 67 0b 3e b8 fa 0f 3e
       -0.104807205 0.11891105 0.13613762 0.14060485
000090 79 1a 5d 3e cd 11 bc 3c a2 ce 2a be ab 18 22 3d
       0.2159213 0.022957707 -0.16680387 0.039574306
0000a0 ce 61 0d be aa 2f 90 3d 82 03 11 be 7e 93 1b be
       -0.13806841 0.07040341 -0.14161494 -0.15192983
0000b0 f8 55 e5 bb dc 8f ec 3d 7c 29 83 3d e2 9d 3d be
       -0.0069987737 0.115508765 0.06404397 -0.18517259
0000c0 75 12 95 3d 8e 37 41 bd 3d bb 24 be d3 85 34 3e
       0.07278911 -0.04717212 -0.1608705 0.17629175
0000d0 73 a1 b2 bd e5 79 9c bd f9 48 d9 3c c6 68 6e 3b
       -0.087222 -0.07640437 0.026524054 0.0036378368
0000e0 c0 96 ed 3d ab 6d 55 be 90 be c5 bc be cc 07 be
       0.11601019 -0.20842616 -0.024138719 -0.13261697
0000f0 1b a2 74 3d 11 28 0d bd 92 8f b7 bd 79 58 e7 3d
       0.05972491 -0.03446204 -0.08962931 0.11296172
000100 f6 88 02 3e cb 26 50 be e4 b2 a5 3d 9e 7e c3 bd
       0.12747559 -0.20327298 0.08090761 -0.09545635
000110 5c 32 3f 3e 05 26 f3 bd 6e 5d 14 3d 31 ee d1 3d
       0.18671554 -0.11872486 0.036221914 0.102505095
000120 87 91 8d 3d b4 9f 32 be 4d 35 ee bc 1b b5 3f bd
       0.06912523 -0.17443734 -0.02907815 -0.046803575
000130 11 e7 d8 3a 9a 41 cd bd cc 78 9a bd b9 a8 39 be
       0.0016548355 -0.10022278 -0.075425714 -0.18130769
000140 a1 3b e3 bc 0f 96 3a 3d 22 3a 04 bb c9 bd 3f bc
       -0.027738394 0.045553263 -0.0020176251 -0.011702963
000150 5f 3c 27 bd 05 d7 60 be cc 9c 9a bd eb 32 c9 3d
       -0.04082906 -0.21957023 -0.07549438 0.09824165
000160 64 c0 02 be 9e 89 4a 3d cd ff 61 3e c2 ee 07 be
       -0.12768704 0.04944765 0.22070237 -0.13274673
000170 7e 9c 9a 3d 14 e1 29 be 22 9b 02 3e e8 1a 9f bd
       0.0754938 -0.16589767 0.12754491 -0.07768804
000180 25 c4 12 3e c3 9d 0f be f5 4e f5 bd a1 53 0c be
       0.14332636 -0.14025025 -0.119779505 -0.13703777
000190 c3 33 28 bd 2e ea 8b be d6 19 20 be 47 98 43 3d
       -0.04106499 -0.27327102 -0.15634856 0.047752645
0001a0 bf 10 35 be 7a bf f0 bc ee f2 ce 3d b2 3e 91 3d
       -0.1768217 -0.029388178 0.10104929 0.07092036
0001b0 70 14 66 3d 19 da b8 3d 32 cc 08 be 66 83 b6 3d
       0.056171834 0.09025974 -0.13359144 0.08911781
0001c0 9d 90 a6 3d 95 ca 47 be 54 2e 82 3e 25 27 ce 3d
       0.081330515 -0.19510873 0.2542597 0.1006606
0001d0 b9 85 13 bd 53 ba 49 be 60 6d 4f 3b de 09 03 3d
       -0.0360162 -0.19699983 0.0031650886 0.031991832
0001e0 2c 26 5c be 01 25 00 3c ab ae 04 be 32 7f 0f 3e
       -0.21498936 0.007821322 -0.12957256 0.14013365
0001f0 31 66 43 bd a5 b7 63 bd a3 28 81 bd b7 48 1d 3e
       -0.04770488 -0.05559506 -0.06306579 0.1535977
000200 2c b9 30 be a8 dd f1 3c 20 50 1e be 2a 08 85 3d
       -0.17258137 0.02952464 -0.15460253 0.06495698
000210 b2 db 08 bd 2c 77 7c bc 0c 85 07 3e 24 81 a8 3b
       -0.033412643 -0.015409272 0.13234347 0.005142348
000220 c8 c5 8f be a1 28 ab be 60 d4 85 3d 2f f0 18 3e
       -0.28080583 -0.33429435 0.06534648 0.14935373
000230 d0 3e f1 bb 02 92 8b bd 67 0c 3a 3e 00 20 4f 3d
       -0.007362224 -0.06814958 0.18168794 0.050567627
000240 15 0a 0b be 10 95 2f be 17 4f 02 3e b6 60 6b bd
       -0.13578065 -0.17146707 0.12725483 -0.057465278
000250 d3 69 9a bd 7e e8 ce bd b4 2a 14 3d c5 69 c6 bd
       -0.075397156 -0.10102938 0.036173537 -0.09688143
000260 6a 31 67 be a6 af 0c be 79 31 17 be 49 37 ca 3d
       -0.22577444 -0.1373888 -0.14764966 0.09873826
000270 28 20 22 3e 86 33 c1 bc 77 cf 6b be 84 3f 20 3e
       0.15832579 -0.023584139 -0.2302836 0.1564923
000280 18 3c 0c 3c 6b 31 98 bd d6 71 e7 bd 04 0f 82 bd
       0.008559249 -0.07431301 -0.11301009 -0.0635052
000290 b2 94 5b bd 20 ef 93 3c 6b 6d 99 3d c5 6f 64 3e
       -0.053608604 0.01805836 0.07491573 0.22308262
0002a0 a5 d7 0f 3d dc d1 0b be 53 06 da bd 9f 1d 4f 3e
       0.035117764 -0.13654274 -0.106457375 0.20226143
0002b0 d8 8c 86 3d a6 a5 17 3e 7b bc 21 3e fa fb 6b 3e
       0.065698326 0.14809284 0.15794556 0.2304534
0002c0 8e 6f 3c 3e 3b 9b a7 bd 82 92 29 be 62 c5 5f 3e
       0.1840193 -0.08183905 -0.16559795 0.2185264
0002d0 fb fd 46 be 90 4e 2b 3e a0 79 af bd a3 e8 23 3e
       -0.19432823 0.16729188 -0.0856812 0.16006713
0002e0 a8 f3 1e 3e 2c 98 fb 3d 54 eb 93 3e 47 ce 1a 3e
       0.15522635 0.12284884 0.2889048 0.15117751
0002f0 a3 31 eb bd 68 93 aa 3d 22 11 ab 3d 96 7a 33 bd
       -0.11484077 0.08328897 0.08352877 -0.04381808

bias f4 [8]
000000 e4 29 20 3e 24 b4 14 be 09 2c ae bc 25 0b 31 be
       0.1564098 -0.14521843 -0.021261232 -0.17289408
000010 d8 b3 85 bd bd cf cd bc ec a8 35 3e 64 14 d9 bd
       -0.06528443 -0.025123471 0.1774022 -0.10599592

weight f4 [8]
000000 ac af 7e 3f 46 9b 76 3f f2 9d 84 3f 2b 9d 7f 3f
       0.99486804 0.9633068 1.0360701 0.99849194
000010 28 15 71 3f a9 2b 85 3f 53 51 7a 3f 3c cc 88 3f
       0.94172907 1.0403949 0.9778034 1.0687327

bias f4 [8]
000000 4f 17 9a 3c 15 67 d4 3d 7b e4 af bc 7a 29 77 3d
       0.018809943 0.10371224 -0.021471253 0.06034229
000010 36 b2 01 3d 7b d7 a6 3d 7e 69 0c 3d 24 f2 bf 3c
       0.031664096 0.081465684 0.034280293 0.023430891

running_mean f4 [8]
000000 ba db 69 3d 48 a8 7c bd af 9a 8f bd ec 57 e7 be
       0.057094313 -0.061683923 -0.070119254 -0.45184267
000010 ec 0e 70 be 90 d3 55 be 07 92 b5 bd 0f 0d ac 3e
       -0.23443192 -0.20881486 -0.08865743 0.33603713

running_var f4 [8]
000000 9e cc b4 3d f4 69 f9 3d 18 a3 14 3d 2d 47 78 3d
       0.0882809 0.12178412 0.03628835 0.060614754
000010 dd d9 c7 3d 8c 06 21 3f 7f 69 5f 3d f5 15 0b 3e
       0.09758351 0.62900615 0.05454397 0.13582595

weight f4 [8, 8, 3]
000000 57 06 81 bd fa 5e 8d 3d 9b dc 23 3d 4c 89 17 be
       -0.06300037 0.06902881 0.040005308 -0.14798468
000010 06 62 51 3e 7e 63 10 3b 3c e9 a0 bc 02 c3 f0 bd
       0.20447549 0.0022031958 -0.019642465 -0.11755945
000020 19 66 16 3d de af 11 be dc f2 5c 3e a7 2d 2a 3e
       0.03671846 -0.14227244 0.21577018 0.16618977
000030 4f cf 9b bd b1 8f 93 bb 9d 1d ed bd 32 d4 18 3e
       -0.076079 -0.0045032133 -0.11577914 0.14924696
000040 f3 7e 75 bc 10 33 0b be 89 68 3f 3e a9 19 cb bc
       -0.01498388 -0.13593698 0.18692221 -0.02479251
000050 8e 74 0a 3b 02 e1 f2 3d 91 29 90 3e a1 22 04 3e
       0.00211266 0.11859323 0.28156713 0.12903835
000060 c1 cf ce 3d cc 0c 10 be 24 41 e3 3d 8c 92 5a be
       0.1009822 -0.14067382 0.11096409 -0.21344966
000070 05 44 3e bd 6e 16 be bd 44 f3 1d 3d 0f 94 d6 bd
       -0.046451587 -0.09281622 0.038562074 -0.10477459
000080 13 78 5f be 4c 15 0e 3e 2b 20 86 3d f7 68 03 be
       -0.21823148 0.13875312 0.06549104 -0.1283301
000090 60 d2 bb 3d bb ed 3a be 0b a2 14 be 26 6c c0 3c
       0.09170985 -0.1825475 -0.1451494 0.02348907
0000a0 5a 5b 7f bd c0 f3 85 3e 87 cc 23 bd 9d c7 ca bd
       -0.06234298 0.2616253 -0.039989974 -0.099013545
0000b0 62 25 70 bc 01 af ca bc f5 c1 de 3c 1c 2d 25 be
       -0.01465735 -0.024741651 0.027192095 -0.16130489
0000c0 f2 dd c9 bd 4c 70 5e 3d bb 85 65 3e 65 36 07 bd
       -0.09856786 0.054306313 0.22414295 -0.03301086
0000d0 94 db 25 be 98 10 f3 3d 9a a6 b3 bd e0 87 26 3c
       -0.16197044 0.118683994 -0.08772011 0.010164231
0000e0 75 30 8d bd c2 ae 08 3e 0e ad 20 3e 97 ed 7d 3d
       -0.06894008 0.13347915 0.15691015 0.06199416
0000f0 51 90 ac 3d b5 53 e8 3d e8 83 49 3e eb 8e 96 be
       0.08425964 0.11344091 0.19679224 -0.29405913
000100 92 4e d1 3d dd b3 4f be 69 e5 05 3e c5 69 8a bd
       0.10220064 -0.20283456 0.13075794 -0.06758455
000110 16 92 bd bd b4 6d 61 bd 99 ad 60 be 89 89 03 3e
       -0.09256379 -0.05503626 -0.21941222 0.12845434
000120 06 c3 df 3c 32 1d 38 3e 54 f4 d3 3c d0 cf d0 3d
       0.027314674 0.17979887 0.02587334 0.10195887
000130 19 44 97 bd e1 06 9a bd df 6a 99 3d d8 eb 00 bd
       -0.073860355 -0.07520843 0.07491087 -0.031474918
000140 87 43 1b bc 14 79 6b 3e 7c 07 2e be c9 7c 3c bd
       -0.009476549 0.22995406 -0.16995043 -0.046017442
000150 bf 8a 3f be 94 e0 2b be 6b 96 82 3e 85 47 48 be
       -0.18705271 -0.16784889 0.25505385 -0.19558533
000160 df fc 93 bd e1 28 95 3d 4b 33 9e bd 91 94 10 3e
       -0.07225966 0.07283188 -0.07724627 0.14119174
000170 7b 95 e3 3c e0 b9 de bd 9b 1c 1f be a8 b9 0d bd
       0.027781239 -0.108752966 -0.15538256 -0.034600884
000180 cc 4d 22 be e0 1b f9 3d 14 54 82 bd 9a 7a c4 3d
       -0.1584999 0.1216352 -0.06363693 0.09593697
000190 41 52 4c 3e cf ad 98 bd 0b c2 c8 bd 3d c3 60 3e
       0.19953252 -0.07455026 -0.09802636 0.21949477
0001a0 53 29 a2 3d 5a 21 03 3d f8 f5 a2 bc fd e5 8d 3d
       0.07918038 0.03201423 -0.019892678 0.069286324
0001b0 2e 8b 79 3d c6 b3 97 3d c7 57 20 3d db 46 35 be
       0.060923748 0.07407336 0.03914621 -0.1770281
0001c0 bb 73 9f 3d 8d 60 7c bd 9e a3 24 3e 95 28 3d bd
       0.07785746 -0.061615516 0.1607804 -0.04618128
0001d0 0a d8 ac bc 77 66 0a be db 0a f2 3d 36 f5 05 3e
       -0.02109911 -0.1351565 0.11818477 0.13081822
0001e0 0e 3a a5 3d 21 f3 24 be 9d df b1 bd e3 36 4e 3d
       0.08067714 -0.16108371 -0.08685229 0.050345313
0001f0 9e 81 e5 bc 80 08 fc 3c 27 b9 89 3d 20 8e ab 3d
       -0.028015908 0.030765772 0.06724768 0.083767176
000200 a0 98 3b 3d 67 30 26 be 89 00 5a 3e 19 67 56 be
       0.04579985 -0.16229402 0.21289267 -0.20937766
000210 22 55 97 3d e0 a3 94 bc 78 b6 a5 3d d5 d8 34 be
       0.07389285 -0.018144548 0.08091444 -0.1766084
000220 db 0a 52 be 0f f2 24 be 13 65 5b 3d 81 3b 55 bc
       -0.20511954 -0.16107963 0.05356319 -0.013014675
000230 6a 03 9c bd 74 2a 9d bd 2c a9 3b 3c 7e 40 81 bd
       -0.07617839 -0.07674113 0.011453908 -0.06311129
000240 33 97 0d 3e 90 69 12 be 30 51 31 3e 7d 24 37 3e
       0.13827209 -0.14298081 0.17316127 0.17885013
000250 ab 88 b2 3d 44 0d 31 be 03 a4 88 3d f7 59 68 3e
       0.087174736 -0.17290217 0.06671908 0.22690569
000260 a9 52 6e 3e 49 18 bd bd f9 24 f1 bd 99 e7 15 3e
       0.2327372 -0.09233148 -0.1177463 0.14639129
000270 b0 ca 03 be fe 95 79 bc 0e 1b 2a bd 16 e8 cd bc
       -0.12870288 -0.015233515 -0.041529708 -0.025135081
000280 44 d2 0c bd 5b 44 18 be 05 78 38 3c ac 43 87 3d
       -0.034380212 -0.14869826 0.011259084 0.06604704
000290 70 f1 64 3d 48 78 60 be 42 05 41 bd 11 f9 20 3e
       0.055894315 -0.21920884 -0.047124155 0.15720011
0002a0 89 47 ce bd bd 05 22 be f4 6c 8b bd 4d 79 13 be
       -0.10072238 -0.15822501 -0.068078905 -0.14401741
0002b0 53 15 8c 3c 2e df 24 3e e5 56 59 3d 1b e2 5a be
       0.017100012 0.16100761 0.053061385 -0.21375315
0002c0 2b 28 b6 3d f6 09 cd bd 33 bc cf 3d c7 db 4b 3d
       0.0889438 -0.100116655 0.10143318 0.049770143
0002d0 c7 5b ee bd 49 f9 73 3d 1e e5 b8 3d f2 aa 17 3e
       -0.11638599 0.05956391 0.09028076 0.14811304
0002e0 a3 6e bd bd 7a 7f 5a bc 53 25 1d be 72 78 4a 3b
       -0.09249618 -0.013336057 -0.1534627 0.0030894545
0002f0 f9 85 a5 3d c2 0f 32 be 66 33 44 be 99 38 23 be
       0.08082194 -0.17388824 -0.19160232 -0.15939559

bias f4 [8]
000000 81 a4 e2 3d 75 2a 24 bd 8c 5e 60 3d 13 68 13 3e
       0.11066533 -0.040079553 0.054777667 0.1439517
000010 55 c7 2c 3d 31 44 d0 3c 9b 88 61 3d 10 c0 aa bd
       0.042182285 0.025423141 0.055061918 -0.08337414

weight f4 [8]
000000 ec 98 70 3f be e1 8f 3f fb 93 7c 3f ae 48 82 3f
       0.9398334 1.1240766 0.986633 1.017843
000010 b6 29 7e 3f 90 c9 78 3f ae bf 80 3f b0 9b 82 3f
       0.99282396 0.9718256 1.0058496 1.0203762

bias f4 [8]
000000 54 9d d5 bd 59 f5 35 3e e3 69 05 3d 5e 13 61 3d
       -0.104303986 0.17769374 0.032571685 0.05495011
000010 dd c1 74 3d 75 cf 84 3b d0 e3 ff 3d 13 3a 85 3d
       0.059755195 0.004053051 0.12494624 0.065052174

running_mean f4 [8]
000000 37 31 c6 3e 3f be 9f be f4 bc dc 3d d8 40 47 3d
       0.38709423 -0.31199834 0.107782274 0.048645824
000010 89 71 80 3e 1f cc 57 be 8e 65 25 3e fd 8d c2 be
       0.2508662 -0.2107396 0.16152021 -0.37998953

running_var f4 [8]
000000 22 14 56 3e f6 06 88 3e 64 1d 59 3e 9c b7 2a 3e
       0.20906118 0.2656781 0.21202618 0.16671604
000010 4d f1 e1 3d ff ad d2 3d c9 74 c9 3d d1 13 6c 3e
       0.110323526 0.10287093 0.09836728 0.23054434

weight f4 [8, 8, 3]
000000 f0 09 5e be cb f0 20 3c 72 67 3a 3e 0c 7e ac be
       -0.21683478 0.0098230345 0.18203524 -0.33689916
000010 a9 53 0f 3d 0d b7 1f bd e5 89 2f be 19 2f 56 bc
       0.034991894 -0.03899293 -0.17142446 -0.013072752
000020 d9 70 e2 3d ec 4c 96 3c 8f 25 e0 3d 10 96 15 bc
       0.1105668 0.018347226 0.10944664 -0.009130016
000030 3f 60 67 3c 11 01 8c ba 74 02 52 3d 5a f3 40 bd
       0.014122068 -0.001068147 0.05127187 -0.047107078
000040 44 15 20 be e7 55 4f 3e f7 c5 ac bc 90 17 a3 3c
       -0.15633112 0.20247613 -0.02109049 0.019908696
000050 c4 39 8e ba ed d2 6d 3d 7a 17 a6 bd fc bf 9e bd
       -0.0010850956 0.058062483 -0.081099465 -0.07751462
000060 47 f9 da 3d bf 08 1d 3e 66 0f 23 be ce a3 06 be
       0.10692077 0.15335368 -0.15923843 -0.13148424
000070 68 28 a6 bd 84 63 59 be bc 30 52 3e 55 6a eb bd
       -0.08113176 -0.21229368 0.20526403 -0.114948906
000080 77 4a 8e 3d be 85 52 be 3d 0b 4e 3d d6 bb c6 3d
       0.06947797 -0.20558831 0.050303686 0.097037956
000090 df b8 07 be f5 6c 10 3e 82 0d 34 3e c3 35 50 be
       -0.13254116 0.14104064 0.17583278 -0.20333008
0000a0 eb c9 e6 bd 44 71 ff bc 77 66 a6 bd 53 30 3a 3b
       -0.112689815 -0.031181939 -0.08125012 0.002841015
0000b0 5e e3 59 3e 4e ef 2c 3d 63 fd 44 bd 72 b9 b7 bc
       0.2127814 0.042220406 -0.04809321 -0.022427294
0000c0 6c a0 47 be 85 21 26 bc b1 7d ba 3d 79 89 9b be
       -0.1949479 -0.010139828 0.09106005 -0.3037832
0000d0 67 7d 1d bd d0 89 ab 3d aa 2f a5 bd 6f 22 32 be
       -0.03844967 0.08375895 -0.08065732 -0.17395948
0000e0 cc a1 61 3e f9 06 4d be a1 f4 c5 3d 50 a4 32 3e
       0.22034377 -0.20022191 0.096658 0.17445493
0000f0 94 4e 5c bd 6b fe 3c bd 95 35 22 3d 45 a5 2f be
       -0.053785875 -0.04614107 0.03960188 -0.17152889
000100 29 69 4a 3e 83 c8 a5 bd d1 1a 26 be b3 6e ef bd
       0.19766678 -0.08094885 -0.16221167 -0.11691036
000110 d1 62 08 3e 11 0b 35 3d ae fc 0d 3e 64 d0 a9 3c
       0.13318945 0.044200007 0.13865921 0.020729251
000120 14 5e d6 bc d0 e0 47 be 91 1b 50 be 14 76 1b 3d
       -0.026167907 -0.19519353 -0.20323016 0.037954405
000130 ec f2 1a be 63 90 2b bd 5a 41 22 bd e1 8f 31 3e
       -0.1513173 -0.041885745 -0.039613105 0.17340042
000140 46 73 31 be 8f d2 d3 bd db 33 48 be 5a 28 72 3e
       -0.1732913 -0.10342895 -0.19551031 0.23648205
000150 57 48 1a 3d 55 db 20 3e c3 f0 2b be b1 76 e2 3d
       0.037666645 0.15708669 -0.16791062 0.11057795
000160 5e 4c 6a bc 6f 49 0f be 10 72 5a 3e 8b 36 02 bd
       -0.014300434 -0.13992856 0.21332574 -0.031790297
000170 ee ca 86 3d ef da 4f 3e 86 b6 27 be bc 12 83 3e
       0.065816745 0.2029836 -0.16378221 0.2560023
000180 5d 07 0b be fa 4b c9 bd db 99 35 be f2 36 b0 3d
       -0.13577028 -0.098289445 -0.17734472 0.0860423
000190 bd d2 83 bd fb 2c 4f be a0 67 df bd 8c 9f 0b 3e
       -0.064366795 -0.20232002 -0.10908437 0.13635081
0001a0 8f 41 01 3e e5 75 6e be cb dc 1d be 24 24 6b 3e
       0.12622665 -0.2328716 -0.15416257 0.22963005
0001b0 03 ab 86 3b 8a c4 7d 3d 12 e0 b8 bd db c9 28 bc
       0.0041097417 0.061955012 -0.09027113 -0.010302032
0001c0 5e 13 1c 3e 29 34 d3 bd 2d 56 98 3c bf da 2e 3e
       0.15241763 -0.10312683 0.01859578 0.17075633
0001d0 74 f5 20 3e 7a a4 4b 3e 51 03 ce bd a7 21 31 3d
       0.15718633 0.19886962 -0.10059226 0.043244984
0001e0 3d a6 2b bd 9f f6 a1 3d 98 fd ce bd aa 02 62 be
       -0.041906584 0.07908367 -0.10106963 -0.22071329
0001f0 70 49 8e bc b3 27 66 be c5 d2 69 bc 82 4e 29 bd
       -0.017369002 -0.22476082 -0.014271443 -0.041334637
000200 f2 bc 07 3d f5 1a d4 bc 8e ce 0f 3e 9f 74 a1 3d
       0.033139177 -0.02589176 0.14043638 0.07883572
000210 a6 65 97 bd 27 a4 93 bd 4f 13 44 bd b3 dd fd 3c
       -0.07392435 -0.07209044 -0.047869977 0.030989503
000220 38 80 1b 3e 53 68 09 3e 93 ff 02 3d fa 18 65 3e
       0.1518563 0.13418703 0.031982016 0.22372809
000230 a9 76 ca 3c 03 40 6a 3e f3 46 c2 bd b2 fa 14 3d
       0.024714785 0.22875981 -0.09486189 0.036371894
000240 03 99 13 be 9e a5 49 3e 92 bc 02 3e 92 be 37 be
       -0.14413838 0.19692084 0.12767246 -0.1794379
000250 42 48 2c bd 27 8f 02 be ba 8c 15 be bf 92 34 be
       -0.042061098 -0.12749921 -0.14604464 -0.17634104
000260 ab b9 c1 3d 48 49 c6 bc 4c 34 ad bd eb 33 e1 3d
       0.094592415 -0.024204865 -0.084572405 0.10996231
000270 61 fd ac bd 0f 0d 37 3e 31 a7 32 be b3 d7 b8 3d
       -0.08446766 0.17876075 -0.17446591 0.09025516
000280 00 cc bc bd a2 79 96 bd 85 30 20 3e 69 9d 7a 3e
       -0.092185974 -0.07347418 0.15643509 0.2447411
000290 94 60 68 3e 0d d4 66 bb 39 8c 08 be 66 1d 4f bd
       0.22693092 -0.0035221607 -0.1333474 -0.050565146
0002a0 9a 3a c0 3d b7 27 98 bd 93 be fd bd 5d 52 24 be
       0.09386177 -0.0742945 -0.12389865 -0.16047044
0002b0 10 07 48 bc 34 2d 02 be 24 ed 09 3e 34 01 81 bd
       -0.012208715 -0.12712556 0.13469368 -0.062990576
0002c0 1e 8f 7e be 83 63 06 be 5f 6a 06 3a d1 9d cd bd
       -0.24859282 -0.13123898 0.0005127545 -0.10039867
0002d0 18 ca a0 3d de db 4e 3e 2f ff b2 3d fd 3d c9 bd
       0.07851046 0.2020106 0.08740079 -0.098262765
0002e0 f0 47 6a 3d 91 9f 01 3e 30 3f 8d 3e d3 45 08 be
       0.05719751 0.12658526 0.2758727 -0.13307886
0002f0 f4 1f e3 bc 49 d2 58 3c ff dc d5 3d ca 58 4a bc
       -0.027725197 0.01323373 0.10442542 -0.0123502705

bias f4 [8]
000000 83 53 79 3d c4 4c 19 bd 89 9f 55 bd 9d 3b 54 be
       0.06087066 -0.037426725 -0.052154098 -0.20725866
000010 51 93 fe 3d 0d 70 1e 3e c6 73 54 3e fe 1a 2f be
       0.12430442 0.15472431 0.20747289 -0.1710014

weight f4 [8]
000000 a1 08 61 3f a1 46 70 3f ba 01 6e 3f 69 93 76 3f
       0.8790379 0.9385777 0.92971385 0.9631868
000010 21 d6 83 3f 79 d5 85 3f 0e c4 7b 3f 71 4e 6b 3f
       1.0299722 1.0455772 0.9834603 0.9191657

bias f4 [8]
000000 6d ff 18 be 1a b4 a7 bd 7e ec 65 bd 45 7d 84 bd
       -0.14941187 -0.081886485 -0.05613374 -0.06469206
000010 0c 58 09 39 3c b2 09 3d 26 03 c0 bc ce 0d be bd
       0.00013098138 0.033617243 -0.023439001 -0.09279977

running_mean f4 [8]
000000 28 36 e8 bd 45 70 63 be 77 86 6b be 1c aa 65 be
       -0.113384545 -0.22210796 -0.23000513 -0.22428173
000010 92 bd 04 3e ae 07 42 3e 28 ac fb 3d 87 a1 85 be
       0.1296294 0.18948242 0.122886956 -0.26099798

running_var f4 [8]
000000 0e d8 79 3d 89 5c 57 3e 09 54 86 3e ab 1a 3c 3e
       0.06099706 0.21031393 0.2623599 0.18369548
000010 0e b0 8c 3e 2c 7f 12 3e b4 e9 82 3e 11 2d 0f 3e
       0.2747807 0.14306325 0.25568926 0.13982035

weight f4 [128, 25]
000000 aa 2c 22 3e 3a 6e e5 bc db 09 b8 3d 01 cc 29 3e
       0.1583735 -0.028006662 0.08986255 0.16581728
000010 49 ad 06 3e 59 3b 49 3e 73 56 cb bc d9 ee 78 3d
       0.1315204 0.19651546 -0.024821496 0.060774658
000020 6f 9c 2c 3e c1 80 54 3d 92 49 70 3e bf 1c 4f bc
       0.1685655 0.0518806 0.23465565 -0.012641131
000030 96 80 ff 3c 66 31 3c bd bc 58 2e 3e fe eb e3 bd
       0.031189244 -0.045945548 0.17026037 -0.11128996
000040 fd bb 04 bd 1a dc bf 3d a4 02 9b 3d 67 06 88 3c
       -0.032405842 0.09368153 0.07568863 0.016604615
000050 df 70 54 bc f9 72 3c 3e dd fd 83 3d bf 78 2b be
       -0.012966364 0.18403234 0.06444905 -0.1674528
000060 1b 25 38 3d 59 4f 21 be 90 a3 59 be 43 e8 f5 3d
       0.04495726 -0.15752925 -0.212538 0.12007191
000070 1d d8 5c bc 88 7d 60 bd 49 2f 4a 3d c2 86 f4 3d
       -0.01347926 -0.054807216 0.0493615 0.119397655
000080 f4 7f 18 3e 30 d0 c5 3d e6 91 3e 3e 74 5e 01 3e
       0.1489256 0.09658849 0.18610343 0.12633687
000090 ae bc 9a bd 9d 21 12 bd c0 64 59 bd 7d f0 06 3b
       -0.07555519 -0.035676587 -0.0530746 0.002059012
0000a0 74 4e 85 3c aa 88 08 bd 12 bc 87 bd 6a 19 19 3e
       0.01627276 -0.033333458 -0.066276684 0.14951101
0000b0 16 2d b6 3d 83 1e d0 bd 2f 55 3c 3e 3e c1 37 bd
       0.08895318 -0.1016207 0.1839187 -0.044862024
0000c0 c3 04 17 be 72 e1 9e 3d 2c 82 9e bd ce c6 78 3a
       -0.1474791 0.07757844 -0.07739672 0.00094900734
0000d0 e9 60 cb bd 94 d2 05 be c9 69 d0 bd cf 8f 46 3e
       -0.099305935 -0.1306861 -0.10176427 0.19390796
0000e0 13 30 79 3c f7 2e a6 bd ec 94 b0 bd 48 6f bb ba
       0.015209216 -0.081144266 -0.086221546 -0.0014300132
0000f0 de 84 9f bd 79 08 72 3b b2 47 1f 3d ad f4 c5 bd
       -0.07789014 0.003693132 0.038886733 -0.09665809
000100 b5 9a fc bc 1d a9 fd 3c 4e 30 d9 bd 86 a7 33 be
       -0.030835489 0.030964429 -0.106049165 -0.17544374
000110 75 5c 30 3d 99 0b f1 3c d8 64 11 be 47 56 01 3d
       0.043056924 0.029424476 -0.14198625 0.03157642
000120 0e 3e f8 3d d8 20 22 be 5f 4d e2 3c 1f c2 88 3d
       0.12121211 -0.15832841 0.027624784 0.06677651
000130 99 3a 01 be 2e df 85 3d 35 35 07 bd 85 31 3d 3d
       -0.1262001 0.06536709 -0.033009727 0.046189804
000140 8c 39 58 be 15 5b 2b be 35 03 6a bc c5 ba 00 3e
       -0.21115702 -0.16733964 -0.014282991 0.12571247
000150 21 fc 26 be 31 05 5b be 85 83 3a 3d 0f 54 8a bc
       -0.16307117 -0.21388699 0.045535583 -0.016885785
000160 e2 da 77 be 5b ea 03 3e 4c a0 01 bd 26 48 31 3d
       -0.24204591 0.12882368 -0.03164701 0.043281697
000170 b9 3d 3e 3e 27 ea 52 3d a5 49 77 bd 52 c1 86 be
       0.18578233 0.051492836 -0.060372967 -0.26319367
000180 45 1c 89 bc 10 a7 31 be 2a f9 53 be 93 74 a3 bd
       -0.016737113 -0.17348886 -0.20700517 -0.07981219
000190 5a 2a 27 3c b1 54 a6 3c ba cc d6 3c d0 e1 90 bd
       0.0102029685 0.020304056 0.026220668 -0.0707432
0001a0 34 59 06 3e ad 24 19 bd 4a 2e 20 3e a2 75 75 bd
       0.13119966 -0.037388492 0.15642658 -0.059926637
0001b0 c1 9f e6 bc 6e 03 01 bd 54 d1 12 3e 32 7e 58 3e
       -0.028152348 -0.03149741 0.14337665 0.2114189
0001c0 f2 1b c6 bd e4 ba 1b bd 02 af c8 3b 7f 03 ba bd
       -0.09673299 -0.03802003 0.006124378 -0.09082698
0001d0 b9 ac 3d bc 90 b6 93 bd ba 12 f2 bd 9c bb f0 3d
       -0.011576825 -0.072125554 -0.11819978 0.11754534
0001e0 aa 51 71 3d ce 29 66 bd 35 f7 c2 3c 6c f5 65 bc
       0.05891577 -0.05619221 0.023799518 -0.014035564
0001f0 9b 76 7e bd e8 9e 99 bd 1a 95 c3 3d 25 fd 25 3e
       -0.06212483 -0.07501012 0.09549923 0.16209848
000200 83 97 d1 3d 0d 6a 5a be 57 67 59 bd b2 64 ec bd
       0.10233977 -0.21329518 -0.05307707 -0.115426436
000210 b9 b8 35 3c 78 90 21 be f6 8f 62 3e 27 40 92 3d
       0.011091405 -0.15777767 0.22125229 0.07141142
000220 de 80 03 3e 0f 1f cd bd 89 0d 84 bd 3d 0f 05 bc
       0.12842128 -0.100156896 -0.06447894 -0.008121309
000230 78 33 2d 3e d0 41 80 bb b4 77 6c 3c b4 30 06 3e
       0.16914165 -0.0039140955 0.014432836 0.13104516
000240 de cc f9 3d cb fb 36 3e 78 2d ec 3d 26 3c d9 bd
       0.121972784 0.17869489 0.1153211 -0.106071755
000250 9d e7 49 be a0 f4 ec 3d a4 88 d8 3d 3a a9 4e 3e
       -0.1971726 0.11570096 0.10572937 0.20181742
000260 17 7b 3c bd 9e 81 84 3e ec 9b 0b 3d 99 27 4a bd
       -0.046015825 0.2588014 0.034084246 -0.04935417
000270 b9 73 e9 3d 1f 5c 2c 3e f5 22 be 3d 78 2f 27 3e
       0.113990255 0.16832016 0.09284011 0.16326702
000280 0e 56 7b 3c f7 6b 3e be bf 2b a6 bd fa 14 b2 bd
       0.015340341 -0.18595873 -0.08113813 -0.08695407
000290 1c 00 f2 3d 0a ff d1 3b 06 0d 5d 3e ef 08 39 3d
       0.11816427 0.006408577 0.21587 0.045174535
0002a0 c5 76 95 3d 9f 2d 28 bd 3f 6e 68 3b 49 54 d9 3d
       0.07298044 -0.041059133 0.0035466102 0.10611779
0002b0 4d d8 02 be f2 d7 09 be a8 b2 a2 bd 0a a7 0b 3e
       -0.12777825 -0.13461283 -0.07944232 0.13637939
0002c0 b6 31 d9 bc ef 4a 1c be 27 10 ba 3d a1 54 5e bc
       -0.026512962 -0.1526296 0.09085112 -0.013569982
0002d0 45 25 fc bd 97 56 52 be ce ce c9 3d 8d fb a0 bd
       -0.12311796 -0.20540844 0.09853898 -0.078604795
0002e0 cc 5c dd b9 3b 01 d6 bd 14 67 29 bd 21 a8 1a 3e
       -0.00042221544 -0.104494534 -0.04135807 0.15103199
0002f0 51 df 8b bd b6 75 af bc 93 cb 18 be 3c 31 a3 bc
       -0.068297036 -0.021418434 -0.14921407 -0.019920938
000300 85 20 4a 3c 54 a5 5b bd 78 f9 59 3d 76 6e 49 3e
       0.012336855 -0.053624466 0.053216428 0.19671044
000310 fc af 2a 3e 9c 08 68 3d 23 29 34 be c1 0a 2b 3e
       0.16668695 0.056648836 -0.17593817 0.16703321
000320 8b bd 5e be 13 e1 52 be bc a0 55 bd e6 bb 9b bd
       -0.21751992 -0.20593672 -0.05215524 -0.07604198
000330 56 44 55 3e 16 b9 80 be 07 63 ba 3a 5f 53 22 be
       0.2082685 -0.2514121 0.0014220186 -0.15852116
000340 ee 84 b4 bc 4f 66 2e be 11 42 44 be 91 d1 f5 3d
       -0.022036042 -0.17031215 -0.19165827 0.12002862
000350 5c c0 b7 3d 76 cf 02 3e ce 99 42 be c1 50 99 bd
       0.089722365 0.12774453 -0.19003984 -0.07486106
000360 25 a9 5e be f8 74 61 3e 97 64 9b be 79 89 64 bc
       -0.21744211 0.22017276 -0.3035018 -0.013948792
000370 59 fe fa 3c 00 c3 3c be 7a 02 9f bd d9 05 ad 3c
       0.03063886 -0.18433762 -0.07764144 0.021120952
000380 ce 52 47 bd 8f 1b 54 3e 02 c7 33 3d cd 1c 06 be
       -0.048662953 0.20713638 0.04389096 -0.13096924
000390 26 ab 05 3e 4b 32 60 3d 76 33 c4 3d 50 d7 17 3e
       0.13053569 0.054735463 0.09580128 0.14828229
0003a0 01 8c 29 bd 14 c1 80 bd 7f 01 6c be 13 4b 0c be
       -0.041393284 -0.06286827 -0.23047446 -0.13700514
0003b0 dd 35 e7 bd e1 25 37 be e4 a0 b4 be 28 0b a7 bd
       -0.112895705 -0.17885543 -0.35279 -0.08156425
0003c0 f5 b0 e4 3d 04 20 8b 3d fb b2 a9 3d 4f 0e 6e bd
       0.111665644 0.06793216 0.08286091 -0.058119114
0003d0 0a d3 fa bd de e8 96 3d 48 8a 2a 3e 14 82 1a be
       -0.12247284 0.07368635 0.16654313 -0.15088683
0003e0 bd be 03 bb fa 5f 23 3c 20 99 51 3e 76 25 5a bd
       -0.0020102703 0.009971613 0.20468569 -0.05325838
0003f0 6f 85 d5 3d 78 7d 05 3e 8d 2f 53 3e 19 be 30 bd
       0.10425841 0.13036144 0.20623608 -0.04315004

bias f4 [128]
000000 29 27 3f 3d 52 08 ac 3d 49 f1 7e 3d 65 54 2d 3e
       0.046668205 0.084000245 0.062241826 0.16926725
000010 6f 98 71 bd 75 9e 45 be ae f8 bf bd ef 2a b3 bd
       -0.058983263 -0.19298728 -0.09373604 -0.08748423
000020 36 a0 e8 3b 99 5a bd 3d 43 eb 20 3e ad 8b 88 bd
       0.0070991768 0.09245796 0.15714745 -0.06667266
000030 4b 93 cd 3d c4 c4 f5 3d 14 74 79 bd 43 58 99 bd
       0.100378595 0.12000421 -0.060901716 -0.07487538
000040 c5 dc 29 3d 31 e4 0b 3d 8c 01 00 bd 48 11 d0 bd
       0.041470308 0.034153167 -0.031251475 -0.10159546
000050 37 19 e1 bd bc 2c 05 3d af 85 48 3c 69 df 0f 3e
       -0.109911375 0.032513365 0.012238904 0.14050068
000060 f7 03 8a 3d af 58 a6 bc 2b 26 04 3e 7c f4 02 3e
       0.067390375 -0.02030596 0.12905185 0.12788576
000070 e7 3e 24 bd a6 c9 33 3e 7a 07 a6 3c 0c db 3a be
       -0.04009905 0.17557392 0.020267237 -0.18247622
000080 fd d1 04 be 7a d0 13 3d 24 88 ab 3c 45 fe 6d 3e
       -0.12970729 0.03608749 0.02093894 0.23241527
000090 88 f6 09 3e c9 a5 90 bd 84 56 26 bb e5 1d a3 3d
       0.1347295 -0.07062871 -0.0025381157 0.07964686
0000a0 6e af f7 bd 2c 6a f7 bd 1d 35 94 bd bb 0b 80 3c
       -0.120940074 -0.120807976 -0.07236693 0.015630594
0000b0 c1 b3 0b 3e 0c 42 b7 bd fd 63 1d be 57 06 cd bc
       0.1364279 -0.08948144 -0.15370174 -0.025027437
0000c0 ed 00 9a 3d 4f d3 e6 3d 64 78 d9 bd 39 1b b2 3d
       0.07519708 0.11270773 -0.10618666 0.086965986
0000d0 6d 62 41 3e c9 6c f9 bd a3 d9 02 3e 25 d6 e2 3d
       0.18885203 -0.12178952 0.12778334 0.11076001
0000e0 40 34 90 3d 37 78 b7 3d 24 26 76 bd 89 08 4d 3c
       0.07041216 0.08958476 -0.060094967 0.012514242
0000f0 c2 d1 a8 3b a0 ad 9f 3c 97 45 84 bd a5 17 ec bd
       0.005151958 0.01949197 -0.06458586 -0.11527947
000100 73 86 3b bc 42 4f fb bd 4e 69 13 3e c5 f7 40 3c
       -0.011445629 -0.122709766 0.1439564 0.011777823
000110 d4 86 13 3e 10 54 9f bb 00 8a 7b bd d3 bb a1 3c
       0.14406902 -0.004862316 -0.061410904 0.019742882
000120 16 e5 bf 3d ca ef ca bc 27 90 9e 3c 2d 55 f1 bc
       0.093698665 -0.024772543 0.019355847 -0.02945956
000130 22 47 37 bd f7 63 c3 bd 45 a6 eb 3d e0 97 f1 3d
       -0.044745572 -0.09540551 0.11506323 0.11796546
000140 dc 79 a8 bd f4 78 a8 bd 7a 84 72 3d fd 1e 68 3c
       -0.08226368 -0.08226195 0.05920837 0.014167544
000150 94 2b 1c 3c 5e d5 66 ba 1c 9f 89 3d 47 1d 5d bd
       0.009531874 -0.0008805598 0.06719801 -0.053983
000160 1d 36 9d bd 93 4b 56 3c 4a 4f 4d bd 75 98 51 3e
       -0.07676337 0.013079542 -0.050124444 0.20468314
000170 3b e5 92 bd 71 82 28 be 34 bc ed 3b c8 2f 55 3e
       -0.071726285 -0.1645601 0.0072551016 0.20819008
000180 92 80 ec 3d 4c f0 0f be 85 e2 77 bd c0 6d 3b 3d
       0.1154796 -0.1405651 -0.06051876 0.045758963
000190 cc 86 3b bb 0a 27 36 3d 26 fe af bd d1 b5 3c 3e
       -0.002861428 0.044470824 -0.08593397 0.18428732
0001a0 32 5d 73 3e d7 dc 12 bd c7 9d 54 bc 41 53 d3 bd
       0.2376602 -0.03585514 -0.01297707 -0.10318614
0001b0 d4 07 ba 3d fd 2d e6 bd 47 44 cd bd 60 79 24 be
       0.09083524 -0.1123924 -0.100227885 -0.16061926
0001c0 df d2 63 be b9 16 b9 3d 0e c8 93 3c 08 a1 61 3c
       -0.2224841 0.09037537 0.01803973 0.013771303
0001d0 9b 07 61 3d fe 8a 27 3d 50 7b ee ba 14 c0 e3 bd
       0.054938894 0.040904038 -0.0018194709 -0.1112062
0001e0 47 9e 00 be c1 58 c9 bd d3 1d ae bd d4 62 b8 3d
       -0.12560378 -0.098313816 -0.08501782 0.09003225
0001f0 6e 3c 6b bd 70 ba 1f bd 7b a5 d1 bc e6 57 b0 3d
       -0.057430677 -0.03899616 -0.025591603 0.08610515
