nn/checkpoints/main_objs_2023_04_23-11_04_11/1/model_30.pt (torch, 518706 bytes, 98 tensors)

weight f4 [8, 5, 3]
0	0x3e81e8ff	0.25373074
1	0xbeabefb3	-0.33581313
2	0xbe8eef10	-0.27916765
3	0x3e69e824	0.22842461
4	0xbe392f0a	-0.1808435
5	0xbe215c27	-0.1575781
6	0x3d5f951a	0.054585554
7	0xbe0d8959	-0.13821925
8	0x3d16d2bd	0.03682207
9	0x3e19e700	0.15029526
10	0x3d98cc0b	0.07460793
11	0xbe1f661c	-0.15566295
12	0x3d7e0e39	0.062025283
13	0xbe7a38a4	-0.24435669
14	0xbe5bfb9a	-0.21482697
15	0x3e3ab6b5	0.1823376
16	0x3e09b2c5	0.13447101
17	0xbe8ed130	-0.27893972
18	0xbcc33bae	-0.023832168
19	0xbdaf3185	-0.08554367
20	0xbd0d33cb	-0.03447322
21	0x3e88bfbd	0.26708785
22	0x3d96bf85	0.07360748
23	0xbeab6304	-0.3347398
24	0x3e689466	0.2271286
25	0xbe9672bc	-0.2938441
26	0xbe9dc131	-0.30811456
27	0x3e290f21	0.16509677
28	0xbd24ce74	-0.04023595
29	0xbe35e788	-0.17764103
30	0xbd9b22c5	-0.07574991
31	0xbd50b8a7	-0.05095735
32	0x3e95d2d9	0.29262426
33	0xbb09786b	-0.0020976316
34	0xbd7551d4	-0.05989249
35	0x3e8c7b01	0.27437595
36	0x3db9be74	0.09069529
37	0xbb8c28f8	-0.004277345
38	0x3ea17b9b	0.31539616
39	0xbe387492	-0.18013218
40	0x3e15c16a	0.14624563
41	0x3eec77a4	0.4618503
42	0xbe379fc0	-0.17932034
43	0x3db34920	0.08754182
44	0x3eca375e	0.39495367
45	0x3e61051f	0.2197461
46	0xbe1e8c90	-0.15483308
47	0xbe73e6b7	-0.2381848
48	0xbc9da18b	-0.019242069
49	0xbc8749bb	-0.01651465
50	0x3e8d363d	0.27580443
51	0xbd261ebe	-0.04055666
52	0xbe6c286f	-0.23062299
53	0x3e58c3ce	0.21168444
54	0x3cf91d43	0.03040946
55	0xbe97e791	-0.2966886
56	0xbd31265b	-0.04324947
57	0xbd22997e	-0.039697163
58	0xbe9305b0	-0.28715277
59	0x3e9d2e3a	0.3069933
60	0x3e3015b1	0.17195775
61	0xbe5efa84	-0.21775252
62	0x3eac05aa	0.3359807
63	0xbd730665	-0.05933227
64	0x3d4e037e	0.0502963
65	0xbb5002b3	-0.003173989
66	0x3c6d9624	0.014501128
67	0x3e1ecbe5	0.15507467
68	0x3cc51ac1	0.024060609
69	0x3e881c74	0.26584208
70	0xbe4a4380	-0.19752312
71	0xbdaef85f	-0.08543467
72	0x3e712497	0.23549114
73	0x3e0c1482	0.13679698
74	0x3e99a52f	0.30008838
75	0x3e20e0a0	0.15710688
76	0x3e9a2e51	0.30113462
77	0xbe693579	-0.22774304
78	0x3ea3926a	0.31947643
79	0xbdce6863	-0.10078504
80	0xbbcbbb85	-0.0062174224
81	0x3e747bc7	0.23875342
82	0xbd8deac4	-0.069295436
83	0xbcbda261	-0.023148717
84	0x3e3a8f60	0.18218756
85	0x3db3fc29	0.0878833
86	0xbcfc1d73	-0.030775761
87	0x3eaeea25	0.34163013
88	0xbe0a4824	-0.13504082
89	0x3ca3154d	0.019907618
90	0xbe6cfddc	-0.23143715
91	0x3c8ceb04	0.017201908
92	0xbe5299ca	-0.20566478
93	0xbe9f4ecd	-0.31114808
94	0xbd755b37	-0.059901442
95	0xbe807fe1	-0.25097564
96	0xbe271e10	-0.16320062
97	0x3ce675d8	0.028132364
98	0xbbd53406	-0.006506446
99	0xbe989553	-0.29801425
100	0x3e573c43	0.21019082
101	0x3d51da97	0.051233854
102	0xbe92b4ba	-0.28653508
103	0xbe9453c0	-0.28970146
104	0xbe24f08f	-0.16107391
105	0xbe2e52e6	-0.1702381
106	0xbe9c0ac2	-0.30476958
107	0x3e922a56	0.28547925
108	0x3d1525f6	0.036413155
109	0xbe013121	-0.12616397
110	0x3cf9676c	0.030444823
111	0xbd8ebf96	-0.06970136
112	0xbdba91f6	-0.09109871
113	0x3ea7ed34	0.3279816
114	0xbe582d10	-0.2111094
115	0xbe389cc6	-0.18028554
116	0x3e647e20	0.22313738
117	0xbe93db8f	-0.28878447
118	0xbe0cd161	-0.13751747
119	0x3ce0dbbd	0.02744853

bias f4 [8]
0	0x3d7d53f2	0.061847635
1	0xbe5d997e	-0.21640584
2	0xbe5e7f0d	-0.21728154
3	0xbdb0d419	-0.086342044
4	0xbe8c370f	-0.27385756
5	0xbea10299	-0.31447294
6	0x3e0031b4	0.1251896
7	0xbd617efa	-0.055052735

weight f4 [8]
0	0x3f90039d	1.1251103
1	0x3f78c7d9	0.97179943
2	0x3f56895b	0.8380334
3	0x3f88d2cc	1.068933
4	0x3f75ba2b	0.95987195
5	0x3f6f5c60	0.9350033
6	0x3f9c508e	1.2212083
7	0x3f816524	1.0108991

bias f4 [8]
0	0x3e006675	0.12539084
1	0x3b9a4f2d	0.0047091455
2	0x3e0a52bb	0.13508122
3	0x3e3de36f	0.1854379
4	0x3dce50f3	0.100740336
5	0x3dd49b7d	0.103812195
6	0x3c624aee	0.01381181
7	0x3c63e395	0.01390924

running_mean f4 [8]
0	0xbe8e81c6	-0.27833384
1	0xbede6a7c	-0.43440616
2	0x3ed0be10	0.40770006
3	0xbe698134	-0.22803193
4	0x3e394a0f	0.18094657
5	0x3df5e9bd	0.12007473
6	0xbf2a016b	-0.66408414
7	0xbea1f55c	-0.31632507

running_var f4 [8]
0	0x3f39b413	0.72540396
1	0x3f15fa53	0.5858509
2	0x4011e803	2.2797859
3	0x3ed07865	0.40716854
4	0x3f7cee2d	0.9880093
5	0x3f8c0d74	1.0941606
6	0x4033d9e8	2.810175
7	0x3f2048ed	0.62611276

weight f4 [8, 8, 3]
0	0xbe23c6c3	-0.1599379
1	0xbd61f1e3	-0.05516232
2	0x3d6b17a5	0.057395596
3	0xbe411697	-0.18856274
4	0x3dbe54df	0.092935316
5	0x3d5efa76	0.054438077
6	0x3da46cee	0.08028589
7	0xbd1a7343	-0.03770758
8	0xbe62a770	-0.22134185
9	0xbea6d437	-0.32583782
10	0x3e55ef0a	0.20891967
11	0xbe3831f6	-0.17987809
12	0xbe7ac43c	-0.2448892
13	0x3e1d1e41	0.15343572
14	0x3cbb2296	0.02284364
15	0xbe625920	-0.22104311
16	0x3e606cee	0.21916553
17	0xbe356b17	-0.17716633
18	0xbdcb2739	-0.099195905
19	0xbe807359	-0.25088003
20	0x3e8b0911	0.27155355
21	0xbd41c9a9	-0.04731146
22	0xbe404c59	-0.18779124
23	0xbe31af1b	-0.17351954
24	0x3d9937e3	0.07481363
25	0xbe79469c	-0.24343342
26	0x3e1f0ea8	0.15532935
27	0x3e4985b9	0.19679917
28	0x3ea14269	0.3149598
29	0x3ec3f2a5	0.3827106
30	0x3c011df0	0.007880673
31	0xbd4526c4	-0.048132673
32	0xbe13b94f	-0.14426158
33	0x3e9cd489	0.306309
34	0xbe88a8b2	-0.26691204
35	0xbe26a5ce	-0.16274187
36	0x3db81e6f	0.0899018
37	0x3e437731	0.19088437
38	0xbe409517	-0.18806873
39	0x3c24580a	0.010030756
40	0xbdb4b8b1	-0.088242896
41	0xbb85ec58	-0.0040870123
42	0xbd8f738a	-0.07004459
43	0xbe71b769	-0.23605122
44	0x3d8e6823	0.06953456
45	0xbdb6ba21	-0.0892222
46	0xbe09965e	-0.13436267
47	0xbe303b82	-0.172102
48	0x3e9b519d	0.30335703
49	0xbde3b468	-0.11118394
50	0x3d6b96e4	0.057516947
51	0x3e3b7106	0.18304834
52	0x3d94ad3f	0.072596066
53	0x3e15d727	0.14632855
54	0xbc01c41e	-0.007920293
55	0x3d88d1f3	0.0668067
56	0xbe47ce55	-0.19512303
57	0x3e882472	0.26590306
58	0x3e112d00	0.14177322
59	0xbea1c187	-0.31592962
60	0x3d80e74d	0.06294117
61	0xbe174da4	-0.14775711
62	0xbe75304a	-0.23944202
63	0x3d88870c	0.06666383
64	0xbe14f318	-0.14545858
65	0x3d307d15	0.043088038
66	0xbd8b95c6	-0.068156764
67	0xbe036a65	-0.12833555
68	0xbe074943	-0.13211541
69	0xbe9426d7	-0.28935882
70	0xbcfd304f	-0.030906824
71	0x3e46defa	0.19420996
72	0xbdaea12c	-0.08526835
73	0x3e962c1a	0.29330522
74	0x3e6a9acb	0.22910611
75	0xbde8f24b	-0.11374339
76	0x3e771988	0.24130833
77	0x3c687349	0.014187642
78	0xbcd9f2d9	-0.026605057
79	0x3bb38b87	0.0054792794
80	0xbc98ac39	-0.01863681
81	0xbe42ffa4	-0.19042832
82	0xbcb08028	-0.021545485
83	0x3c0ff63c	0.008786734
84	0x3e2d7998	0.16940916
85	0xbd885c84	-0.06658271
86	0xbe01bf89	-0.12670721
87	0xbd211ef1	-0.03933615
88	0xbe3e8532	-0.18605497
89	0x3e0a83f1	0.13526894
90	0x3edd5e5c	0.43236053
91	0xbdd7992d	-0.10527263
92	0x3f323c40	0.69623184
93	0x3da6ef06	0.08151059
94	0x3e9585f4	0.2920376
95	0x3d909f95	0.07061688
96	0xbca651b4	-0.020302631
97	0xbaf6cab0	-0.0018828716
98	0xbe532b0d	-0.20621891
99	0xbdee3f7f	-0.11633205
100	0x3d872a43	0.06599858
101	0x3db09a74	0.086232096
102	0xbc6c8034	-0.014434863
103	0x3e4f1ced	0.20225878
104	0x3ea53c52	0.32272583
105	0x3d0ca6a8	0.034338623
106	0x3b6460fe	0.003484785
107	0xbd7e22d5	-0.062044937
108	0xbe87fbe4	-0.26559365
109	0x3e728f80	0.23687553
110	0x3e707775	0.23483069
111	0xbdd147fd	-0.10218809
112	0xbe8487bd	-0.2588481
113	0xbd8f1fe5	-0.06988505
114	0x3d8672ac	0.06564841
115	0xbe934cd8	-0.28769565
116	0xbe84ede6	-0.25962752
117	0xbe5a412f	-0.21313928
118	0x3de6f03d	0.112762906
119	0x3dc6abfc	0.09700772
120	0xbd7462cb	-0.05966453
121	0xbd9cd94c	-0.076586336
122	0xbec1c5a1	-0.3784609
123	0xbc74fe34	-0.014953185
124	0xbde31fff	-0.11090087
125	0xbe1c051f	-0.15236329
126	0xbd8a7b16	-0.06761758
127	0x3d2c207c	0.042023167
128	0xbc1c849b	-0.0095531
129	0x3dcdd199	0.10049743
130	0x3ca5f883	0.020260101
131	0x3dc9d00e	0.098541364
132	0xbe4d8a1b	-0.20072214
133	0xbda3c575	-0.07996646
134	0xbd2425af	-0.040075
135	0x3d0768d0	0.03305894
136	0xbe9f5c58	-0.3112514
137	0x3e763425	0.24043329
138	0x3ea6eec2	0.32604033
139	0xbdd7f5a0	-0.10544896
140	0xbe138364	-0.1440559
141	0x3d958230	0.07300222
142	0x3e2a613a	0.16638651
143	0x3e576a60	0.21036673
144	0xbde2dcc3	-0.11077263
145	0xbe599b6c	-0.21250695
146	0xbe32ba22	-0.17453817
147	0xbe808d5c	-0.2510785
148	0xbe4d064d	-0.20021935
149	0x3d917fd9	0.07104463
150	0xbbda9a9c	-0.006671263
151	0x3e337753	0.17525987
152	0xbe88fe2a	-0.26756412
153	0xbdbd94fe	-0.09256934
154	0x3df74da5	0.120753564
155	0xbedb8d6f	-0.42881343
156	0xbd9b4fe5	-0.07583598
157	0x3cd97a58	0.026547596
158	0xbccc4b5a	-0.024938274
159	0x3d366750	0.04453212
160	0xbdeba00e	-0.115051374
161	0xbdb755a4	-0.089518815
162	0x3eef7011	0.46765187
163	0x3e403a54	0.1877225
164	0xbdb423b3	-0.087958716
165	0x3e929071	0.28625825
166	0x3da4031f	0.08008408
167	0xbe8b9a9b	-0.27266392
168	0xbe3a81e7	-0.18213616
169	0x3dc9654b	0.09833773
170	0x3db9fcd7	0.090814285
171	0xbd23d7fb	-0.040000897
172	0xbe282a39	-0.16422357
173	0x3ceb38a6	0.028713536
174	0x3e1a8452	0.15089539
175	0xbde71edb	-0.11285182
176	0xbe8b6f09	-0.2723315
177	0x3d13cce0	0.036084056
178	0xbd8c0912	-0.068376675
179	0xbe10aca3	-0.14128356
180	0x3ea92085	0.33032623
181	0x3db51d55	0.08843485
182	0xbcf50ae4	-0.02991242
183	0x3e78380a	0.24240127
184	0x3e042d55	0.12907918
185	0x3e28d447	0.16487227
186	0x3d54d5b6	0.051961623
187	0xbd67d22b	-0.056596916
188	0x3da277eb	0.07933029
189	0x3d15467a	0.036444165
190	0xbe3a45df	-0.18190716
191	0x3ca23f05	0.01980544

bias f4 [8]
0	0x3ed6dbd5	0.41964594
1	0xbbbbbb93	-0.0057291477
2	0x3d846770	0.06465042
3	0xbbf63198	-0.0075132363
4	0xbbb0231b	-0.0053752786
5	0xbe065d72	-0.13121584
6	0xbb9ac029	-0.0047226143
7	0xbe2783c0	-0.16358852

weight f4 [8]
0	0x3f8da381	1.1065522
1	0x3f7f3c4c	0.9970138
2	0x3f8519d1	1.0398504
3	0x3f8baee5	1.0912749
4	0x3f729f28	0.94774103
5	0x3f6ca6d6	0.9244207
6	0x3f9aae9d	1.2084538
7	0x3f5860f0	0.84522915

bias f4 [8]
0	0x3ec5fbab	0.3866857
1	0x3df9b2ba	0.121922925
2	0x3e70e479	0.23524655
3	0xbdba73de	-0.09104131
4	0x3e01a14b	0.12659185
5	0x3e404ffb	0.1878051
6	0x3de18fcc	0.11013755
7	0x3e06f4b4	0.13179284

running_mean f4 [8]
0	0xbd8dd7a9	-0.069258995
1	0xbdb43276	-0.08798687
2	0xbc805cf3	-0.015669322
3	0x3f22c4e6	0.63581693
4	0xbe5c6311	-0.21522166
5	0xbe9aaaff	-0.30208585
6	0xbeaac743	-0.3335515
7	0xbd68c3df	-0.056827422

running_var f4 [8]
0	0x3ea7725f	0.32704446
1	0x3e4acf5b	0.19805662
2	0x3eade5a8	0.33964276
3	0x3e985643	0.29753312
4	0x3e71004a	0.23535267
5	0x3e06403b	0.1311044
6	0x3ec02c2b	0.37533697
7	0x3eb9b74a	0.3627265

weight f4 [8, 8, 3]
0	0x3dbb5ffc	0.09149167
1	0xbd6f9906	-0.058495544
2	0x3e3750ef	0.17901967
3	0x3e5ed0f1	0.21759392
4	0xbe02bc5a	-0.12767163
5	0x3e2c85ab	0.16847865
6	0x3df4c36b	0.119513355
7	0xbd4dc925	-0.050240654
8	0x3d95d73f	0.073164456
9	0xbcdd1d5c	-0.026991539
10	0x3d0aa8f7	0.033852544
11	0xbccf4675	-0.025302151
12	0x3e968f8d	0.29406396
13	0x3e25b5f4	0.16182691
14	0x3e84b753	0.25921115
15	0x3cb504b3	0.022096967
16	0x3da180a4	0.078858644
17	0xbd189bea	-0.037258066
18	0xbc6f88e8	-0.014620043
19	0xbcf3e265	-0.02977104
20	0x3e904ef7	0.28185245
21	0xbe0730a8	-0.13202155
22	0xbe4e2f4e	-0.20135233
23	0x3dde0045	0.10839895
24	0xbeca86d6	-0.39555997
25	0xbdadbb3d	-0.084829785
26	0xbd989f73	-0.074522875
27	0xbc8c7d3b	-0.017149558
28	0x3cd6750b	0.026178857
29	0xbe09e06d	-0.13464518
30	0xbe2e6efc	-0.17034525
31	0x3e325ba4	0.1741777
32	0xbe16a3d3	-0.14710931
33	0x3ea2d725	0.31804767
34	0x3e516b67	0.20451127
35	0xbe31fe13	-0.17382078
36	0xbd71bc8e	-0.05901771
37	0xbc138821	-0.009004624
38	0xbe1859a9	-0.14877953
39	0x3e9aeb18	0.30257487
40	0x3e363800	0.177948
41	0x3d02daf9	0.03194711
42	0xbe4c844b	-0.19972341
43	0x3e847164	0.2586776
44	0x3dd47636	0.103741094
45	0x3e50430a	0.20338073
46	0xbdbb7d02	-0.09154703
47	0x3dbeef40	0.09322977
48	0xbeae7b26	-0.3407833
49	0x3e6fc1b4	0.23413736
50	0xbc477fb9	-0.012176448
51	0x3c59f4be	0.01330298
52	0xbe5a43ce	-0.21314928
53	0x3e795f54	0.24352771
54	0x3e4ad0d6	0.19806227
55	0xbe6d2dfe	-0.23162076
56	0x3ca008b0	0.019535393
57	0xbe8397af	-0.25701663
58	0x3e9e7f3c	0.30956447
59	0xbc8b1379	-0.016977059
60	0xbdff1d4a	-0.12456758
61	0xbe64b31e	-0.22333953
62	0xbda33416	-0.07968919
63	0xbe2882a9	-0.16456093
64	0xbb32127d	-0.0027171664
65	0xbd58a552	-0.052892037
66	0xbe016ee4	-0.12639958
67	0x3dd3eb3b	0.10347601
68	0xbd8fac03	-0.070152305
69	0xbe2d4db3	-0.16924171
70	0x3cfdaf07	0.030967249
71	0x3d9df8c5	0.07713465
72	0xbbd5d97e	-0.006526171
73	0x3d05dd7b	0.032681923
74	0xbe184a5a	-0.14872113
75	0xbeded5ee	-0.4352259
76	0xbe8fab81	-0.28060535
77	0xbe778eda	-0.24175587
78	0x3d671e7a	0.05642555
79	0xbe52b3ec	-0.20576447
80	0xbe23be9d	-0.15990682
81	0x3e47bf3d	0.19506545
82	0x3d8decc2	0.069299236
83	0xbd7c4616	-0.061590277
84	0x3c7a33a0	0.015271097
85	0xbe4162fb	-0.18885414
86	0xbe86b62a	-0.26310855
87	0xbe88d48c	-0.2672466
88	0x3d00f48b	0.031483214
89	0xbbd6db50	-0.006556906
90	0xbeab497d	-0.33454505
91	0xbd1bb7a2	-0.038016923
92	0x3d4bddaa	0.049771942
93	0xbde695d3	-0.112590455
94	0xbd62a80c	-0.055336043
95	0xbd07ed0c	-0.03318505
96	0xbe9dc730	-0.3081603
97	0x3d80ce3d	0.06289337
98	0xbd571431	-0.05250949
99	0xbde74f93	-0.112944745
100	0xbe530c51	-0.20610167
101	0x3d0b84b8	0.034062117
102	0xbef9985f	-0.48749062
103	0xbde9289e	-0.113847
104	0x3d54a5d8	0.051915973
105	0xbbed15b7	-0.0072352546
106	0xbca500ae	-0.020141926
107	0xbed5500f	-0.41662642
108	0xbe4500f6	-0.19238648
109	0x3e215aa6	0.15757236
110	0xbc9f6aa7	-0.019460035
111	0x3d38430a	0.04498581
112	0x3e11e7a4	0.1424852
113	0x3e43ba1f	0.19113968
114	0xbcfa15c0	-0.03052795
115	0x3dcab95a	0.09898634
116	0x3ebc8590	0.3682065
117	0xbdffc6f1	-0.12489117
118	0xbe0ff286	-0.14057359
119	0x3e05a69f	0.13051842
120	0x3d3191a8	0.0433518
121	0xbe0dc934	-0.13846284
122	0x3e837c83	0.25680932
123	0x3e577091	0.21039034
124	0x3e3fca60	0.18729544
125	0x3d862779	0.065504976
126	0x3e56cd91	0.20976855
127	0xbc281db2	-0.010260986
128	0xbe0d8d35	-0.13823397
129	0xbdadd261	-0.08487392
130	0xb98fb0ae	-0.00027406722
131	0xbe441985	-0.1915036
132	0xbe22abef	-0.158859
133	0x3db7337e	0.08945368
134	0x3d9296a3	0.07157638
135	0xbe03b10b	-0.12860505
136	0x3e7f0052	0.24902466
137	0xbc493a8b	-0.012282024
138	0x3d9b94f7	0.07596772
139	0x3d6a8a18	0.057260603
140	0xbd317043	-0.04331995
141	0x3e6567b7	0.22402845
142	0x3ebde9e0	0.37092495
143	0x3df4fe16	0.119625255
144	0xbe93755e	-0.28800482
145	0x3d4d78e4	0.05016412
146	0xbcc20792	-0.02368525
147	0x3c84c9da	0.016209532
148	0xbe3af737	-0.18258367
149	0xbd92e709	-0.07172973
150	0x3eb50903	0.35358438
151	0xbe8b91cb	-0.2725967
152	0x3d94531b	0.072424136
153	0xbe55c5fe	-0.2087631
154	0x3dbc526e	0.0919541
155	0x3dad43e8	0.08460218
156	0xbe1a72cf	-0.15082859
157	0xbdf68859	-0.12037725
158	0xbe549812	-0.20761135
159	0xbe4d891f	-0.20071839
160	0x3d3f8145	0.04675414
161	0xbe272898	-0.16324079
162	0xbf0301bb	-0.51174515
163	0x3ddf3206	0.10898213
164	0x3d2ffebf	0.042967554
165	0x3da7c4f0	0.0819186
166	0xbdbe2283	-0.09283926
167	0xbcccb377	-0.02498792
168	0x3d3aeac6	0.045634054
169	0xbe92981a	-0.2863167
170	0x3da3a9a5	0.079913415
171	0xbe934ab0	-0.2876792
172	0xbdf8436c	-0.12122235
173	0x3e80c2eb	0.2514871
174	0xbe11b2da	-0.14228383
175	0x3e430c5c	0.19047683
176	0xbda31457	-0.07962864
177	0xbe2f05df	-0.17092083
178	0xbd13de5b	-0.036100727
179	0x3e8beb97	0.27328178
180	0xbd756deb	-0.05991928
181	0xbe53e0e8	-0.20691264
182	0xbe653e68	-0.22387087
183	0xbeafee1e	-0.34361356
184	0xbdf91ddb	-0.121638976
185	0xbe25f63f	-0.16207217
186	0xbe4fe92c	-0.20303792
187	0xbe0ebed4	-0.13939983
188	0x3b52daeb	0.0032173942
189	0x3d4c9d4e	0.049954705
190	0x3be44f02	0.0069674263
191	0xbe64a26e	-0.22327587

bias f4 [8]
0	0xbda1ac06	-0.07894139
1	0x3e301ceb	0.17198531
2	0xbdcd412e	-0.10022198
3	0x3de8c61d	0.11365912
4	0x3e36cc75	0.17851432
5	0x3e812d2f	0.25229785
6	0xbe500380	-0.20313835
7	0xbdc92756	-0.09821956

weight f4 [8]
0	0x3f605a95	0.8763822
1	0x3f80da65	1.0066649
2	0x3f889348	1.0669947
3	0x3f6d2c35	0.9264558
4	0x3f94ed1e	1.1634862
5	0x3f5241a2	0.821314
6	0x3f938725	1.1525618
7	0x3f8f1160	1.1177177

bias f4 [8]
0	0x3cf55282	0.02994657
1	0xbe5e5d59	-0.21715297
2	0xbde4be93	-0.11169162
3	0x3d16994a	0.03676728
4	0x3eba66f0	0.3640666
5	0x3e52cc7d	0.20585819
6	0x3e24b915	0.16086228
7	0xbd8ba5af	-0.06818711

running_mean f4 [8]
0	0x3f028ff2	0.51000893
1	0x3e013d1a	0.12620965
2	0xbee22e5a	-0.44175988
3	0xbf4858ac	-0.782603
4	0xbe880da5	-0.2657291
5	0x3f315890	0.6927576
6	0xbf54ba43	-0.8309671
7	0xbf56b8e6	-0.8387588

running_var f4 [8]
0	0x3e83599c	0.25654304
1	0x3e4936cc	0.1964981
2	0x3ebfcac7	0.37459394
3	0x3f0c9946	0.54921377
4	0x3ee4264b	0.44560465
5	0x3eff0e0d	0.49815407
6	0x3edf3093	0.43591747
7	0x3e90910a	0.28235656

weight f4 [8, 8, 3]
0	0xbd86d085	-0.06582741
1	0x3d2e82b9	0.042605136
2	0xbe20a489	-0.15687765
3	0xbe30a463	-0.17250209
4	0xbd6820fb	-0.056672078
5	0xbe949bc3	-0.29025087
6	0x3d973ef2	0.07385053
7	0x3e28069d	0.16408773
8	0x3d9fcd56	0.078028366
9	0xbe8406d4	-0.2578646
10	0xbe68419e	-0.22681281
11	0xbe53d89e	-0.20688102
12	0xbe88e600	-0.26737976
13	0xbd43fdaf	-0.047849353
14	0xbea737d2	-0.32659775
15	0x3d69dc10	0.057094634
16	0x3e049ca3	0.12950377
17	0xbc73be4e	-0.014876915
18	0xbe2da092	-0.16955784
19	0x3e27804e	0.16357538
20	0x3dee5d1e	0.116388544
21	0x3e6dcb00	0.2322197
22	0x3e04acbf	0.12956522
23	0x3ea5a45b	0.32351956
24	0x3e3ce560	0.18446875
25	0x3e298687	0.16555224
26	0x3e1d343c	0.15351957
27	0x3de127f8	0.109939516
28	0xbdc00419	-0.093757816
29	0xbe49d814	-0.19711334
30	0xbeb12b50	-0.34603357
31	0x3e2f3b05	0.17112358
32	0xbd48f695	-0.049063284
33	0xbd44c0e4	-0.048035517
34	0x3dc78304	0.09741786
35	0x3df3743f	0.118874066
36	0x3e7a7ad3	0.24460916
37	0x3d89e937	0.06733935
38	0xbda0c265	-0.07849578
39	0xbc3f1f53	-0.011665183
40	0xbe5e5a1a	-0.21714059
41	0x3e22719a	0.15863648
42	0xbe045ca1	-0.1292596
43	0xbe82d687	-0.25554296
44	0xbda94dc6	-0.08266787
45	0x3d8489c6	0.06471591
46	0x3e2314b2	0.15925863
47	0xbec5213d	-0.3850192
48	0x3d128ecb	0.03578071
49	0xbd35f15f	-0.044419643
50	0xbe88d74a	-0.26726753
51	0x3ea1a3af	0.31570193
52	0xbe12a6a8	-0.14321387
53	0xbe091437	-0.13386618
54	0x3db3966f	0.08768927
55	0xbe0dd4e6	-0.13850746
56	0x3e4ca177	0.19983469
57	0xbe521374	-0.20515233
58	0xbda2cc33	-0.07949104
59	0xbdf4a6ac	-0.11945853
60	0x3d9341a6	0.07190256
61	0xbdad4b0f	-0.08461582
62	0xbe296b70	-0.1654489
63	0x3dd4fb0f	0.10399448
64	0x3e3546cd	0.1770279
65	0xbe4479e0	-0.19187117
66	0x3de098a9	0.109666176
67	0xbe372108	-0.17883694
68	0x3e708b6e	0.23490688
69	0xbd9c4611	-0.076305516
70	0x3d2961da	0.041353084
71	0x3cdbf42b	0.026849827
72	0xbdcc25a5	-0.099681176
73	0xbe50bd96	-0.20384821
74	0xbe068b77	-0.13139139
75	0xbd223b52	-0.039607354
76	0x3e000900	0.12503433
77	0xbdb9797b	-0.09056374
78	0xbdb97ceb	-0.09057029
79	0xbe92da9e	-0.28682417
80	0xbd8dcebb	-0.06924196
81	0x3d5a0302	0.053225525
82	0xbdb1c3c6	-0.08679919
83	0xbe537de8	-0.20653498
84	0xbd4aec4f	-0.049541768
85	0xbe8dc27e	-0.27687448
86	0xbe49cf7b	-0.19708054
87	0xbd3339d5	-0.043756325
88	0xbe02aff2	-0.1276243
89	0x3d3f1a47	0.04665592
90	0x3e8adbb7	0.27120754
91	0xbe8af478	-0.2713964
92	0x3df1221c	0.11774084
93	0xbe052e70	-0.13005996
94	0x3e450a46	0.192422
95	0xbe54551e	-0.20735595
96	0x3de9c9bf	0.11415433
97	0xbe02ff34	-0.12792665
98	0xbe48a99a	-0.19595948
99	0x3c1dbb0a	0.009627113
100	0xbe953c3e	-0.29147524
101	0xbe6b0649	-0.22951616
102	0xbe986715	-0.29766145
103	0x3d831928	0.064012825
104	0xbe85d58e	-0.26139492
105	0x3e90857b	0.28226838
106	0x3d2a4180	0.041566372
107	0xbdfad512	-0.12247671
108	0x3d3bab02	0.045817383
109	0x3d80de4b	0.06292399
110	0xbea71bd9	-0.32638434
111	0x3b42c931	0.002972197
112	0xbd21b672	-0.039480634
113	0xbe34b1af	-0.17645906
114	0x3ea3c38c	0.31985128
115	0xbd23318d	-0.039842177
116	0xbd8e0fc1	-0.069365986
117	0xbe9adbca	-0.3024581
118	0xbb5a27b8	-0.0033287834
119	0xbcce76f3	-0.025203204
120	0xbdcd7664	-0.10032347
121	0xbd51d076	-0.051224194
122	0xbe2d0c1d	-0.16899152
123	0x3e07059a	0.1318573
124	0xbe661ef7	-0.2247275
125	0xbd2e9e51	-0.04263145
126	0xbda676ee	-0.08128153
127	0x3e366254	0.17810947
128	0xbe5e0171	-0.21680237
129	0x3bf5c1ee	0.007499925
130	0xbe17a76e	-0.14809963
131	0x3e3ba335	0.18323977
132	0xbeb7f592	-0.35929543
133	0x3c5f6266	0.0136343
134	0xbbf18eda	-0.0073717656
135	0xbe0ee5bc	-0.13954824
136	0xbeb56d8b	-0.35435137
137	0xbe90275f	-0.28155038
138	0x3d574c9c	0.052563295
139	0x3e2ae56c	0.1668908
140	0xbdf4dd32	-0.11956252
141	0xbe017fff	-0.12646483
142	0x3e496100	0.19665909
143	0x3e13386e	0.14376995
144	0xbe12453a	-0.1428422
145	0xbe05d2bb	-0.13068669
146	0x3d73a1d9	0.05948052
147	0xbe063020	-0.13104296
148	0xbdbe7f3d	-0.093016125
149	0xbe7f5578	-0.24934947
150	0xbcf682e3	-0.030091709
151	0xbd82f7fe	-0.06394957
152	0xbe5991e2	-0.21247056
153	0xbe98866e	-0.29790062
154	0xbe68eafe	-0.22745892
155	0x3d07c94f	0.033150967
156	0x3e676c53	0.22599916
157	0xbdb05849	-0.08610589
158	0xbe716a48	-0.235757
159	0x3e6a2ea2	0.22869352
160	0xbb626e6a	-0.0034550675
161	0x3c5df704	0.013547663
162	0xbe420350	-0.18946576
163	0xbd84f934	-0.06492844
164	0x3cacc556	0.02109019
165	0x3e01b221	0.12665607
166	0x3e673886	0.22580156
167	0x3ebc269c	0.36748207
168	0x3d8027aa	0.06257565
169	0xbdbb0cd0	-0.09133303
170	0xbe1cbc00	-0.15306091
171	0x3e339937	0.17538916
172	0x3ab0e719	0.0013496607
173	0x3d8e796d	0.06956754
174	0x3eb5e4e3	0.3552619
175	0x3dd2833e	0.10278939
176	0x3e5dad4d	0.2164814
177	0x3d95148b	0.07279309
178	0xbcd045f9	-0.02542399
179	0x3e8b05ee	0.27152961
180	0xbeba52cb	-0.3639129
181	0x3e7d63e6	0.2474514
182	0xbd983c49	-0.074333735
183	0x3e2daa53	0.16959505
184	0x3da15f90	0.07879555
185	0x3dcef5d3	0.10105481
186	0x3f0b8ffc	0.5451658
187	0xbcc25b10	-0.023725063
188	0xbe28e89c	-0.16494983
189	0xbc5525e2	-0.01300952
190	0x3e4b1634	0.19832689
191	0xbdd2128d	-0.102574445

bias f4 [8]
0	0x3e915c50	0.2839074
1	0xbd3447be	-0.04401373
2	0xbdfa8634	-0.122326285
3	0xbe6925b7	-0.22768293
4	0xbd782dbb	-0.060590487
5	0xbe0765a9	-0.13222374
6	0x3dc82db0	0.09774339
7	0xbe59198e	-0.21201155

weight f4 [8]
0	0x3f711096	0.94165933
1	0x3f5d3fe7	0.8642563
2	0x3f801972	1.0007765
3	0x3f868df8	1.0512075
4	0x3f800583	1.0001682
5	0x3f887d6f	1.0663279
6	0x3f67c8b1	0.90540606
7	0x3f9541e0	1.1660728

bias f4 [8]
0	0x3eae4eff	0.34044644
1	0x3f05fa0e	0.5233468
2	0x3daf6475	0.085640825
3	0x3e547648	0.20748246
4	0xbb056018	-0.0020351466
5	0x3e3ad46e	0.18245098
6	0x3db9b897	0.09068411
7	0x3be83fcb	0.007087683

running_mean f4 [8]
0	0xbddbb826	-0.10728483
1	0xbde30355	-0.1108462
2	0xbe94a075	-0.2902867
3	0xbf6eded7	-0.93308777
4	0xbf11e259	-0.56986004
5	0xbf29491e	-0.6612719
6	0xbe4fff15	-0.2031215
7	0x3ea25d97	0.31712028

running_var f4 [8]
0	0x3e9eced2	0.31017166
1	0x3e865b93	0.2624174
2	0x3e3c25be	0.18373773
3	0x3eae8951	0.3408914
4	0x3e915da0	0.28391743
5	0x3f3ec305	0.74516326
6	0x3e41c133	0.18921356
7	0x3eaeb9e6	0.34126204

weight f4 [8, 8, 3]
0	0xbd44cc6d	-0.048046518
1	0x3e40b9ad	0.1882083
2	0x3d6de93d	0.05808376
3	0xbdb5176c	-0.08842358
4	0x3e47fa62	0.19529107
5	0x3e01b2bb	0.12665837
6	0x3de9d40c	0.11417398
7	0xbd6d83a4	-0.05798687
8	0x3d641254	0.05568154
9	0xbe3e93df	-0.18611096
10	0x3eb0435a	0.34426385
11	0x3dc6332d	0.0967773
12	0xbdbaf8cd	-0.09129486
13	0xbd1b8a75	-0.03797384
14	0xbd0a135b	-0.033709865
15	0x3ed63d1a	0.41843492
16	0xbdf430b1	-0.1192335
17	0xbe01d483	-0.12678723
18	0x3ea76f55	0.32702127
19	0xba0259f6	-0.00049725117
20	0x3e0c1070	0.13678145
21	0xbd198697	-0.03748187
22	0x3ea518de	0.32245535
23	0x3df8a708	0.12141234
24	0x3d6ff24a	0.058580674
25	0xbe19d63c	-0.1502313
26	0x3c24e9bf	0.010065495
27	0xbe5e481b	-0.21707194
28	0xbe810ad9	-0.2520359
29	0xbddfc4c4	-0.10926202
30	0xbde7ab2c	-0.11311945
31	0xbdea81e3	-0.11450555
32	0xbe647fb4	-0.2231434
33	0x3e02365c	0.12716049
34	0x3e672cdb	0.22575705
35	0xbe3a9d52	-0.18224075
36	0x3c1d24f9	0.0095913345
37	0xbefdc056	-0.49560803
38	0xbd1d9e28	-0.038480908
39	0xbd165edc	-0.03671156
40	0xbd83bd42	-0.064325824
41	0x3eb54a25	0.3540813
42	0xbe0665d1	-0.13124777
43	0xbe4c97d1	-0.19979788
44	0xbe315b2b	-0.17319934
45	0xbd4a9c24	-0.049465314
46	0xbb7ce865	-0.0038590666
47	0xbdd9ce60	-0.10635066
48	0xbe3995de	-0.18123576
49	0x3cc7fb88	0.024411932
50	0x3e511587	0.20418368
51	0xbdcd3961	-0.1002071
52	0xbe17b48f	-0.14814971
53	0x3e7ad0e3	0.24493746
54	0xbe7f3a96	-0.24924693
55	0xbdf0ef4b	-0.117643915
56	0xbde55600	-0.11198044
57	0x3e168174	0.1469782
58	0xbbbd602d	-0.0057792873
59	0x3e0d18b3	0.13778953
60	0x3a8eba2a	0.0010889221
61	0x3e00ddf7	0.12584673
62	0x3e4b9b9e	0.19883582
63	0xbe9c9da8	-0.30589032
64	0xbdf10da5	-0.117701806
65	0xbe537f2f	-0.20653985
66	0x3e59b3bf	0.21259974
67	0xbe01d56f	-0.12679075
68	0x3ccf31ee	0.025292363
69	0xbe4c6cfe	-0.19963452
70	0xbea5a89f	-0.3235521
71	0x3e14f547	0.14546691
72	0x3ce1e3f3	0.027574515
73	0x3e5d9282	0.2163792
74	0x3e590b0d	0.21195622
75	0xbc29b55a	-0.010358179
76	0xbde769ec	-0.112995
77	0xbe59f1a5	-0.21283586
78	0x3d85070b	0.06495484
79	0xbd5a6532	-0.053319164
80	0x3c43160a	0.01190711
81	0x3e282549	0.16420473
82	0xbe3d49ef	-0.18485235
83	0xbd62831e	-0.055300824
84	0xbe869c9d	-0.2629136
85	0xbe91303c	-0.28357112
86	0x3eb63feb	0.3559564
87	0xbde4f29d	-0.11179087
88	0xbde0e471	-0.10981072
89	0x3e7be86c	0.2460038
90	0xbe2e6578	-0.17030895
91	0x3dd6189c	0.104539126
92	0xbdad7c04	-0.0847092
93	0xbe13dafb	-0.14439003
94	0xbe5474a6	-0.20747623
95	0x3de7690e	0.112993345
96	0xbe7b440b	-0.24537675
97	0x3e5a20ef	0.21301626
98	0xbe34fa49	-0.17673601
99	0x3d93337c	0.07187554
100	0x3e58b358	0.21162164
101	0xbe61e7ff	-0.22061156
102	0xbd5edcb3	-0.054409694
103	0x3e7cdadb	0.24692862
104	0x3d50832e	0.050906353
105	0xbe3548c1	-0.17703535
106	0xbe0df405	-0.13862617
107	0xbc648ac3	-0.013949099
108	0x3de14505	0.109994926
109	0x3d282bab	0.04105727
110	0xbcba48ca	-0.022739787
111	0xbe954ccf	-0.29160163
112	0x3e7c26b1	0.24624135
113	0x3d612ec2	0.054976232
114	0x3d02e8c9	0.031960282
115	0xbc9f5f54	-0.019454636
116	0x3db16df0	0.08663547
117	0xbe9577eb	-0.29193053
118	0x3de3e3e0	0.11127448
119	0x3e1db859	0.15402354
120	0x3d4c05d1	0.049810234
121	0x3d06eb37	0.032939162
122	0x3dad0cb2	0.08449687
123	0xbd002b1d	-0.031291116
124	0xbd5789df	-0.05262172
125	0xbc24e09f	-0.0100633195
126	0xbe1bac80	-0.15202522
127	0x3e4ef35d	0.20210023
128	0x3e52cff3	0.20587139
129	0xbe266c36	-0.16252217
130	0x3ede186c	0.43378007
131	0xbd42c263	-0.047548663
132	0xbd1d588d	-0.038414527
133	0xbd86770e	-0.06565677
134	0x3e1228b9	0.14273347
135	0xbdb9acd6	-0.09066169
136	0xbe1f7279	-0.15571012
137	0xbd2bc5ea	-0.041936792
138	0x3d5b032e	0.05346983
139	0x3c2452a4	0.010029469
140	0xbe0aa07e	-0.13537785
141	0xbeb0aec5	-0.3450834
142	0x3c63c529	0.013901987
143	0xbde2eeb3	-0.110806845
144	0x3e0585ae	0.13039276
145	0xbe13e4d7	-0.14442764
146	0x3ec2563f	0.37956426
147	0x3e800b35	0.2500855
148	0x3d64a4cd	0.05582123
149	0xbe6956a3	-0.22786956
150	0x3c32aeef	0.010905965
151	0x3e8993e2	0.26870638
152	0x3e8fb8cf	0.28070685
153	0xbe29761a	-0.16548958
154	0xbe286004	-0.16442877
155	0x3db839de	0.08995412
156	0xbe5f4bf4	-0.21806318
157	0xbdb04435	-0.086067595
158	0xbd38c263	-0.045107257
159	0xbd718426	-0.058963917
160	0xbde2e469	-0.11078722
161	0xbe35ddff	-0.17760466
162	0x3d13eb2c	0.03611295
163	0x3d932181	0.07184125
164	0x3cbd7b63	0.023130124
165	0xbe05c5d1	-0.13063742
166	0x3c3be8ee	0.011469109
167	0x3e68e945	0.22745235
168	0xbe31f6a1	-0.17379238
169	0xbe224450	-0.15846372
170	0xbaf8f455	-0.0018993715
171	0xbe1af2ee	-0.15131733
172	0x3dde8983	0.10866072
173	0x3e4fa39d	0.20277257
174	0x3d9f580a	0.07780464
175	0xbe635439	-0.22200097
176	0x3d482375	0.04886194
177	0xbe7be873	-0.24600391
178	0x3d8d64dc	0.06904003
179	0x3e24ea58	0.1610502
180	0xbe34d13a	-0.17657939
181	0x3d281e71	0.041044656
182	0x3d99c518	0.07508296
183	0x3df9e6cc	0.12202224
184	0xbdec0c54	-0.11525789
185	0xbdb2c393	-0.08728709
186	0xbdb10be4	-0.08644846
187	0x3c370ace	0.01117201
188	0x3db13e41	0.08654452
189	0xbe8ee991	-0.27912572
190	0xbebe8535	-0.37211004
191	0xbe8dcf0a	-0.2769702

bias f4 [8]
0	0x3d4dc477	0.05023619
1	0xbdfcb83c	-0.123398274
2	0x3deb81d5	0.11499373
3	0x3de769bc	0.11299464
4	0x3d8b010c	0.06787309
5	0x3e151969	0.14560474
6	0x3d72d7ff	0.05928802
7	0xbd1f9878	-0.038963765

weight f4 [8]
0	0x3f6848f7	0.90736336
1	0x3f9b7137	1.2143925
2	0x3f8537aa	1.0407612
3	0x3f7e860c	0.9942329
4	0x3f62fb95	0.88665134
5	0x3f8ece59	1.1156722
6	0x3f6a6488	0.9155965
7	0x3f7a2c10	0.97723484

bias f4 [8]
0	0xbe96866b	-0.29399428
1	0x3ea65148	0.32483888
2	0x3ca8e35e	0.02061623
3	0x3dfd4137	0.12365954
4	0xbc33d878	-0.010976903
5	0xbd337349	-0.043811116
6	0x3e11ac93	0.14225988
7	0x3e59d7c1	0.2127371

running_mean f4 [8]
0	0x3f5b7802	0.8572999
1	0xbf6e1094	-0.92994046
2	0xbe6aa49b	-0.22914355
3	0xbda88e7b	-0.08230301
4	0xba92f663	-0.0011212345
5	0x3d72646f	0.059177812
6	0x3e59f65b	0.21285383
7	0xbf1e80d0	-0.619153

running_var f4 [8]
0	0x3ea79027	0.32727167
1	0x3f2704d4	0.6524174
2	0x3ec6d1b1	0.38831857
3	0x3ec53e27	0.3852398
4	0x3e397d16	0.18114123
5	0x3e95ee35	0.292833
6	0x3ea587ba	0.32330114
7	0x3effac23	0.49936017

weight f4 [8, 8, 3]
0	0xbe4baee0	-0.19890928
1	0x3d9e2b9c	0.077231616
2	0x3e0a73ba	0.13520709
3	0xbf052060	-0.52002525
4	0x3dde073e	0.10841225
5	0xbd4e5a88	-0.050379306
6	0xbe049634	-0.12947923
7	0xbe108a69	-0.141153
8	0xbda66a36	-0.08125727
9	0xb9b03fb5	-0.000336168
10	0x3df11ba6	0.11772852
11	0xbd789870	-0.06069225
12	0xbdcadf5f	-0.09905886
13	0xbce685e6	-0.02814002
14	0xbdba18c5	-0.09086756
15	0xbe1b6d1f	-0.15178345
16	0xbd80272c	-0.062574714
17	0x3eaa1793	0.3322111
18	0x3c2e987e	0.010656474
19	0xbd68e2da	-0.056856968
20	0x3c931eb8	0.017958984
21	0x3c94ba72	0.01815531
22	0xbdff1b0f	-0.12456333
23	0xbc2c6371	-0.010521756
24	0x3d389016	0.045059286
25	0x3e3edb9c	0.18638462
26	0xbe1c005e	-0.15234515
27	0xbeb853a2	-0.36001307
28	0xbcd985b7	-0.026553018
29	0xbea845d4	-0.32865775
30	0x3e2279d5	0.15866788
31	0xbea0509d	-0.31311503
32	0x3e085da2	0.13316968
33	0xbe881424	-0.26577866
34	0x3e3237b5	0.17404063
35	0x3d44a75a	0.04801116
36	0xbdf60784	-0.12013152
37	0x3e4e868e	0.20168516
38	0x3da95e1c	0.08269903
39	0xbdbd833c	-0.092535466
40	0xbeb9c83c	-0.3628558
41	0x3dbf17e3	0.09330728
42	0x3da81523	0.082071565
43	0xbcf1a689	-0.029498355
44	0x3e4c0b23	0.19926123
45	0xbd0a710f	-0.033799227
46	0xbe10c68a	-0.14138237
47	0xbe16befa	-0.1472129
48	0xbe5af079	-0.21380796
49	0xbd9e04f2	-0.07715787
50	0xbde1da92	-0.11028017
51	0xbed174a8	-0.40909314
52	0x3c89c479	0.016817318
53	0x3d3d8a15	0.046274263
54	0xbe8aeab3	-0.27132186
55	0xbe3608a7	-0.17776738
56	0x3e2a3bca	0.1662437
57	0xbe88cb1d	-0.26717463
58	0x3e382406	0.17982492
59	0x3e7695bf	0.24080561
60	0xbd954bc3	-0.07289841
61	0x3b93cde5	0.0045106285
62	0x3d84b00a	0.06478889
63	0xbde64f2c	-0.112455696
64	0x3e433725	0.19064005
65	0xbf046c0e	-0.5172738
66	0xbe291434	-0.16511613
67	0xbddd0a61	-0.10792995
68	0x3e08d3d0	0.1336205
69	0x3d8b69b4	0.06807271
70	0x3cbe2b73	0.023214078
71	0xbda9d841	-0.082932
72	0xbe1844c6	-0.14869985
73	0xbe68d813	-0.22738676
74	0xbeb85c67	-0.36007997
75	0xbc53d4f2	-0.012929188
76	0xbd37fa4f	-0.044916447
77	0x3dd74f88	0.10513216
78	0xbe1c6492	-0.1527274
79	0x3b9f3343	0.004858406
80	0xbe65cfef	-0.22442602
81	0xbd6b7d8c	-0.057492778
82	0xbe178bcc	-0.14799422
83	0x3e998ffb	0.2999266
84	0x3ad221d8	0.0016031815
85	0x3e8c9aac	0.27461755
86	0xbe90f067	-0.28308412
87	0x3df4881d	0.11940024
88	0xbd3a1a37	-0.045435157
89	0xbebbc5fa	-0.36674482
90	0x3e526a0f	0.2054827
91	0x3d4d15e2	0.050069697
92	0x3e32050b	0.17384736
93	0x3e944888	0.28961587
94	0xbe36f88c	-0.1786825
95	0x3e4385af	0.19093965
96	0xbe3cd3fd	-0.18440242
97	0xbdc0407c	-0.093872994
98	0xbea9fa28	-0.33198667
99	0x3e7d5f3e	0.24743363
100	0xbdf1dc65	-0.11809615
101	0xbe15fdd7	-0.14647613
102	0xbe709174	-0.23492986
103	0x3e3400ca	0.17578426
104	0x3e7ee1b3	0.24890785
105	0xbe609135	-0.21930392
106	0xbd1e45a0	-0.03864062
107	0x3e7e5249	0.24836077
108	0x3db627e3	0.088943265
109	0x3d190f7f	0.037368294
110	0xbd92f3c3	-0.071754
111	0xbdc0dea6	-0.09417467
112	0x3e46b0c6	0.19403371
113	0xbedaee1e	-0.42759794
114	0xbd0cc68d	-0.03436904
115	0x3e1c98a6	0.15292606
116	0x3de1e7fe	0.11030577
117	0x3de4ada1	0.111659296
118	0xbe3b4e92	-0.18291691
119	0x3a846f9a	0.0010104061
120	0xbe4f35f1	-0.20235421
121	0xbd3eb66e	-0.046560697
122	0xbe3b0a95	-0.18265755
123	0xbeb40917	-0.35163185
124	0xbd84e2d8	-0.064885795
125	0xbe6968d0	-0.22793889
126	0xbd667b45	-0.056269903
127	0xbddc5ca0	-0.10759854
128	0x3e19e543	0.15028863
129	0xbd739110	-0.059464514
130	0x3dfd4de1	0.1236837
131	0x3cbf47a6	0.023349594
132	0xbe03399b	-0.12814943
133	0xbc091ce9	-0.008368709
134	0xbdcada7e	-0.09904955
135	0x3ab87701	0.0014073552
136	0xbb4c7388	-0.0031196792
137	0x3e863730	0.2621398
138	0x3dc48aa2	0.095967546
139	0x3e1ec746	0.15505704
140	0x3e3b10ff	0.18268202
141	0x3ed8d91d	0.42353144
142	0x3d3ff06e	0.04686015
143	0x3d46d4ad	0.048542667
144	0xbe2ebbbc	-0.17063802
145	0x3e865f82	0.26244742
146	0x3da2fe02	0.079586044
147	0xbe2da7c4	-0.16958529
148	0x3e0d3769	0.13790669
149	0xbe9baa34	-0.30403292
150	0xbea9a39a	-0.3313263
151	0xbe8a4570	-0.27006102
152	0x3dcc3c8b	0.09972485
153	0xbe9faf1b	-0.31188282
154	0xbc03b67a	-0.008039111
155	0x3d6e0c3a	0.05811713
156	0xbdbcc57a	-0.09217353
157	0x3e342c3c	0.17594999
158	0xbd6e63ba	-0.058200575
159	0x3dccddb0	0.10003221
160	0xbe3f428d	-0.18677731
161	0xbcb79b12	-0.02241281
162	0x3e53b17b	0.20673172
163	0x3de4835d	0.11157868
164	0x3ea25c2c	0.31710947
165	0xbd8d3a2a	-0.068958595
166	0xbe3c5e1a	-0.18395272
167	0xbd91d42b	-0.07120546
168	0xbd0a1826	-0.033714436
169	0xbdff35ed	-0.124614574
170	0xbe022fd3	-0.12713556
171	0xbe540d29	-0.20708145
172	0xbc927a63	-0.017880624
173	0xbed78be8	-0.42098927
174	0x3d487c21	0.048946504
175	0xbe121ed3	-0.14269571
176	0xbecb487a	-0.39703733
177	0xbe393fef	-0.18090795
178	0x3e1bb5cf	0.15206073
179	0xbcb03457	-0.021509333
180	0xbd7942f4	-0.060854867
181	0x3e280bfb	0.1641082
182	0x3d5283b8	0.051395148
183	0xbdbd35c8	-0.092387736
184	0xbc9c7ed0	-0.019103438
185	0x3e9cff77	0.30663654
186	0x3e880426	0.26565665
187	0xbdd14d08	-0.10219771
188	0x3e10e7b3	0.14150886
189	0x3d733766	0.059379004
190	0x3d5c0237	0.05371305
191	0x3909d8bb	0.00013146077

bias f4 [8]
0	0xbda07920	-0.07835603
1	0xbd7a8679	-0.0611634
2	0xbd75deda	-0.06002698
3	0xbe06a7d5	-0.1314996
4	0x3e784c50	0.24247861
5	0x3e6ae844	0.22940165
6	0x3e6dab0c	0.2320978
7	0xbe843f70	-0.2582965

weight f4 [8]
0	0x3f1e2223	0.6177084
1	0x3f08de92	0.53464615
2	0x3f16bf8a	0.58886015
3	0x3f11c12f	0.569354
4	0x3f2572e0	0.6462841
5	0x3f4801c8	0.7812772
6	0x3f26d7d0	0.65173054
7	0x3f08a5f2	0.5337821

bias f4 [8]
0	0xbf42354a	-0.7586256
1	0xbef96b89	-0.48714855
2	0xbe271201	-0.16315462
3	0xbe586256	-0.21131262
4	0xbe8194f7	-0.25308964
5	0xbe56485b	-0.20926039
6	0xbf057e41	-0.52145773
7	0xbf147c83	-0.5800249

running_mean f4 [8]
0	0xbf18632d	-0.5952633
1	0xbf348b94	-0.7052548
2	0xbf27cb01	-0.65544134
3	0xbe39349c	-0.18086475
4	0x3dd92ace	0.106038675
5	0x3e23e1c3	0.1600409
6	0xbe5a5138	-0.21320045
7	0xbf2e82e1	-0.68168455

running_var f4 [8]
0	0x3e00bea3	0.12572722
1	0x3ec70727	0.38872644
2	0x3f166c25	0.58758765
3	0x3e72d55a	0.237142
4	0x3ed817ad	0.42205563
5	0x3ed3d4a9	0.41373184
6	0x3ee21ae7	0.4416115
7	0x3ec20fb5	0.3790261

weight f4 [128, 25]
0	0x3e424407	0.18971263
1	0xbe0d37e1	-0.13790847
2	0x3d466ead	0.048445392
3	0x3d61a631	0.055090133
4	0xbe3eb87f	-0.18625067
5	0x3eb4c273	0.35304603
6	0x3c2d03b8	0.010559969
7	0x3de4a13b	0.11163565
8	0x3e271439	0.16316308
9	0xbd5b36ab	-0.053518932
10	0x3e194903	0.14969258
11	0xbe398ac5	-0.18119343
12	0xbc934160	-0.01797551
13	0xbd901b65	-0.07036475
14	0x3d3387e2	0.04383076
15	0xbdebcb24	-0.115133554
16	0x3db79e42	0.08965732
17	0x3e174279	0.14771451
18	0x3d3d74ca	0.046253957
19	0x3e5146c8	0.20437157
20	0xbd2d667c	-0.042334065
21	0x3e783b32	0.24241331
22	0x3e1ba699	0.1520027
23	0xbe15da44	-0.14634043
24	0xbe4f068a	-0.20217338
25	0xbeae5db0	-0.34055853
26	0xbf4a1d20	-0.7895069
27	0xbec7afc4	-0.39001286
28	0xbe8aad03	-0.27085122
29	0x3ce0ab55	0.027425447
30	0xbc1a5a2a	-0.009420911
31	0x3d12134f	0.035662945
32	0x3e71f4ad	0.23628493
33	0x3dfc113b	0.12307974
34	0x3de9a1e2	0.1140783
35	0x3d9c02e8	0.07617742
36	0xbdce210f	-0.10064899
37	0xbd52bc65	-0.0514492
38	0xbd4a030f	-0.049319323
39	0xbdab29ed	-0.08357606
40	0x3d03ed4a	0.03220872
41	0xbd646f7f	-0.055770393
42	0x3d4eb353	0.050463986
43	0x3da83e7b	0.08215042
44	0x3d8e928d	0.06961546
45	0xbd75775e	-0.05992829
46	0x3e3824f8	0.17982852
47	0xbd2fcd30	-0.04292029
48	0xbeaa6648	-0.3328116
49	0x3e014fe8	0.12628138
50	0xbe27b642	-0.1637812
51	0xbeec20ce	-0.46118778
52	0xbe5decc0	-0.21672344
53	0xbf069a3e	-0.52579105
54	0xbdb412da	-0.08792658
55	0x3e0096d0	0.1255753
56	0x3e795389	0.24348272
57	0x3dc67c03	0.09691622
58	0xbd4bca59	-0.04975352
59	0xbdb4af77	-0.0882253
60	0x3c496f71	0.012294636
61	0x3cb0f7a9	0.021602469
62	0xbd92ded1	-0.07171405
63	0xbd33985b	-0.04384647
64	0xbd68734c	-0.05675058
65	0xbb20e8de	-0.0024552862
66	0xbd3c2cb1	-0.04594106
67	0x3d1a0ac0	0.03760791
68	0x3e360e98	0.17779005
69	0x3e320468	0.17384493
70	0xbe36abc6	-0.17838964
71	0x3d435c5c	0.047695503
72	0x3d1b518a	0.03791956
73	0xbe773fb1	-0.2414539
74	0xbe061b7d	-0.13096423
75	0x3debddcf	0.11516916
76	0xbe29c20b	-0.16577928
77	0x3bb1b533	0.005423212
78	0xbd883cba	-0.06652208
79	0x3e0bf82e	0.13668892
80	0xbdc9530d	-0.09830294
81	0xbe8b1e9d	-0.27171794
82	0x3ca4377d	0.02004599
83	0x3e105179	0.1409358
84	0xbd886586	-0.06659989
85	0xbde7c622	-0.11317088
86	0x3e0c4484	0.13698012
87	0xbe10a2bd	-0.1412458
88	0xbe6f3955	-0.23361714
89	0x3da62e49	0.08114297
90	0xbc363cdb	-0.0111229075
91	0xbd2af2f9	-0.041735623
92	0x3cc333c7	0.0238284
93	0x3ecaf51f	0.39640138
94	0xbd9597b4	-0.07304326
95	0xbed76456	-0.42068738
96	0xbe857db4	-0.26072466
97	0xbed18b2a	-0.40926486
98	0xbe3d551c	-0.18489498
99	0xbd5584d1	-0.052128617
100	0x3e7a3317	0.24433552
101	0x3e4d6f5b	0.2006201
102	0xbde263a1	-0.11054159
103	0xbe6ca355	-0.23109181
104	0x3d8b15c9	0.067912646
105	0xbe12e4a1	-0.14345028
106	0x3e22de86	0.15905198
107	0xbeb234a1	-0.34805778
108	0xbe801e9f	-0.25023362
109	0xbc879e86	-0.016555082
110	0x3e472192	0.194464
111	0x3e6a0c4b	0.22856252
112	0xbd600e42	-0.054701097
113	0x3bff94c5	0.007799717
114	0xbd93ddf7	-0.07220071
115	0xbe9164f2	-0.28397328
116	0xbe05a720	-0.13052034
117	0xbe96a529	-0.29422882
118	0x3dea9e5a	0.114559844
119	0x3d8d0aba	0.068868116
120	0x3eae9356	0.34096783
121	0xbe735622	-0.23763326
122	0x3e353d8e	0.17699262
123	0xbaa42d34	-0.0012525679
124	0x3d803de5	0.062618054
125	0xbb4f7066	-0.0031652688
126	0x3ed58442	0.41702467
127	0x3e495c65	0.19664152
128	0x3e0bb3a5	0.13642748
129	0xbe273e29	-0.16332306
130	0x3e1d8f30	0.15386653
131	0xbe1bd4fe	-0.15217969
132	0xbd4a357d	-0.049367417
133	0xbe646d71	-0.22307374
134	0x3ea3f255	0.32020822
135	0x3dd55ab4	0.10417691
136	0x3e84bbde	0.2592458
137	0xbe0a0380	-0.13477898
138	0x3dede4c2	0.11615898
139	0xbe1eb5ef	-0.1549909
140	0x3e5c55ec	0.21517152
141	0x3da3a5ab	0.07990583
142	0x3bef272a	0.00729837
143	0x3dc4d76c	0.09611401
144	0x3dbfe447	0.09369712
145	0xbc638144	-0.0138858
146	0xbdace161	-0.08441425
147	0xbe791a50	-0.24326444
148	0xbe7e531b	-0.2483639
149	0xbd05f400	-0.0327034
150	0x3e4a2793	0.19741659
151	0x3e948a8b	0.2901195
152	0xbe4f051a	-0.2021679
153	0x3e03eeae	0.12884018
154	0x3e21021f	0.15723465
155	0xbead258d	-0.3381771
156	0x3d966738	0.07343906
157	0x3d309bab	0.043117207
158	0x3e2ed0eb	0.17071883
159	0x3e8cdbea	0.2751153
160	0x3ced6a11	0.02898124
161	0xbdc2e7e7	-0.09516888
162	0xbe174256	-0.14771399
163	0xbe6e02c4	-0.23243243
164	0xbcf1dbf7	-0.029523833
165	0xbdc7f145	-0.097628154
166	0x3e899e47	0.2687857
167	0x3df4db5d	0.11955903
168	0x3d5580f3	0.05212493
169	0xbb2f1aad	-0.002671878
170	0x3e5ba4ff	0.2144966
171	0x3d70a0d8	0.058747143
172	0xbe4a0ba6	-0.19731006
173	0xbdade60d	-0.08491144
174	0x3e0bf404	0.13667303
175	0x3eafb1b2	0.34315258
176	0x3ab6f14d	0.0013957411
177	0xbde804f2	-0.11329068
178	0x3e579ffb	0.21057121
179	0x3eefc037	0.46826336
180	0x3ddf92e2	0.109166875
181	0xbe670aab	-0.22562663
182	0x3e134046	0.14379987
183	0xbe200522	-0.15626958
184	0xbe292084	-0.1651631
185	0xbf0fe7d4	-0.56213117
186	0xbe090e8b	-0.13384454
187	0x3e6a87d7	0.22903381
188	0xbea4f577	-0.32218525
189	0xbdf0a49e	-0.11750148
190	0xbd412486	-0.047153972
191	0x3c0c7279	0.008572214
192	0xbe1c77c9	-0.1528007
193	0xbc2c9131	-0.010532663
194	0x3e0e1b6c	0.13877648
195	0x3e6d5fa0	0.2318101
196	0x3e67ea4b	0.2264797
197	0x3de78fe3	0.11306741
198	0xbe782ca0	-0.24235773
199	0x3d523bb8	0.051326483
200	0xbe8e9995	-0.2785155
201	0xbefef4fc	-0.49796283
202	0xbf2b4184	-0.66896844
203	0x3b241495	0.0025036682
204	0x3f01b4e9	0.5066667
205	0xbe326c57	-0.17424141
206	0xbeaf2a13	-0.34211788
207	0xbea90d60	-0.33018017
208	0xbdd8d0f8	-0.105867326
209	0xbc9dc18a	-0.019257326
210	0xbe7f6f05	-0.24944694
211	0x3dcdbc8d	0.10045729
212	0x3da78d36	0.08181231
213	0x3e31daed	0.1736867
214	0xbe829c02	-0.2550965
215	0xbe49cee1	-0.19707824
216	0xbeb9ac46	-0.36264247
217	0x3e6ea12a	0.23303667
218	0xbe278f77	-0.16363321
219	0x3c755f91	0.014976398
220	0xbe1118d5	-0.14169629
221	0xbe552846	-0.20816144
222	0xbd0bd888	-0.034142047
223	0x3da1ee06	0.079067275
224	0x3d090695	0.033453543
225	0x3e7a8def	0.24468206
226	0x3cd7eb0a	0.026357193
227	0xbd024421	-0.031803254
228	0x3d6c01a6	0.05761876
229	0x3da015f1	0.07816685
230	0x3e88a4c2	0.266882
231	0x3e77ccdc	0.24199241
232	0x3d4618c3	0.04836346
233	0xbd101ed8	-0.035185665
234	0xbeb583a6	-0.35452002
235	0xbedd2cdd	-0.4319829
236	0xbeba1a6b	-0.3634828
237	0xbe5b72cd	-0.21430512
238	0xbf3dfb01	-0.74211127
239	0xbedcf52c	-0.431558
240	0x3e05b40b	0.13056962
241	0x3df9da55	0.12199847
242	0x3d683b1d	0.056697
243	0x3cee99d9	0.029126095
244	0xbda94d64	-0.08266714
245	0xbd132592	-0.0359245
246	0x3e1f4c31	0.15556408
247	0xbe23a983	-0.15982632
248	0x3d0ae963	0.03391398
249	0xbe20ee2c	-0.15715855
250	0x3e0e3a75	0.13889487
251	0xbdeef41a	-0.116676524
252	0x3e0ea73c	0.13930982
253	0x3d181df2	0.037137933
254	0x3e7133eb	0.23554961
255	0x3c139132	0.009006785

bias f4 [128]
0	0x3d762f06	0.06010344
1	0x3db89115	0.09012047
2	0x3de8a357	0.113592796
3	0x3e1e1c48	0.15440476
4	0x3bea5f19	0.00715245
5	0xbe6e807c	-0.232912
6	0xbdb9fb83	-0.09081175
7	0xbdad96ba	-0.084760144
8	0x3dc5bb01	0.09654809
9	0x3e1cdf05	0.1531945
10	0x3df3b947	0.11900573
11	0xbe1bd88a	-0.15219322
12	0x3d988a9f	0.07448315
13	0x3e06bb6e	0.13157436
14	0xbdcd8fc9	-0.100371905
15	0x3d2736a7	0.040823605
16	0x3d85678f	0.06513893
17	0x3d7e7e2c	0.062132046
18	0x3bcb5aa4	0.0062058736
19	0xbdaff691	-0.08591951
20	0xbdf57741	-0.119856365
21	0x3d22f6c0	0.0397861
22	0x3ba8d4c6	0.0051523177
23	0x3def682e	0.116897926
24	0x3daee090	0.08538926
25	0x3cb4b8d9	0.022060798
26	0x3dffadaa	0.12484296
27	0x3dea01c9	0.11426122
28	0x3dac539b	0.08414384
29	0x3e1233de	0.14277598
30	0x3d4311c5	0.04762437
31	0xbe2bbdb8	-0.1677159
32	0xbe32c9bb	-0.17459767
33	0x3c963655	0.018336454
34	0x3d06e2d9	0.032931183
35	0x3e3a9cdf	0.18223904
36	0x3deaefd2	0.11471523
37	0xbd8b6305	-0.06805996
38	0x3d83b1ae	0.06430374
39	0x3da58872	0.080826655
40	0xbd609b5b	-0.05483566
41	0xbe0da610	-0.13832879
42	0xbe0506c9	-0.1299087
43	0x3d5adf57	0.05343565
44	0x3e1897ab	0.14901607
45	0xbe0344b2	-0.12819174
46	0xbe1d2476	-0.1534594
47	0xbc83095d	-0.015995676
48	0x3e09b0de	0.13446376
49	0x3df9665d	0.12177727
50	0x3db4be8c	0.088254064
51	0x3e53cf21	0.20684482
52	0x3e3e2d81	0.18572046
53	0xbe0f4a72	-0.13993242
54	0x3e2f8dd3	0.17143945
55	0x3e0debf4	0.1385954
56	0x3dbdae1d	0.09261725
57	0x3d41ab22	0.047282346
58	0xbcadb66a	-0.021205146
59	0xbc725548	-0.01479084
60	0xbba48a6c	-0.005021384
61	0x3d0fddcc	0.03512363
62	0xbdac3efb	-0.0841045
63	0xbe1f81af	-0.15576814
64	0x3bfd05f6	0.007721658
65	0xbca6425a	-0.02029531
66	0x3dcef37f	0.10105037
67	0x3d4de6cf	0.050268944
68	0x3d31ea1e	0.043436162
69	0x3d2b5bdb	0.041835647
70	0x3d88068d	0.066418745
71	0x3cba3db5	0.022734502
72	0x3e134bf3	0.14384441
73	0x3c8db73d	0.017299289
74	0x3dbcf623	0.09226634
75	0x3bbae144	0.0057031233
76	0x3c01732f	0.007900997
77	0xbc8bb9b2	-0.01705632
78	0x3e4cbac6	0.19993123
79	0x3e510779	0.20413007
80	0x3d713d55	0.05889638
81	0xbe12af25	-0.14324625
82	0x3d35c3c0	0.044376135
83	0x3d8def5a	0.06930418
84	0x3cd45700	0.025920391
85	0xbc7ff940	-0.015623391
86	0x3e13342e	0.14375374
87	0x3c6f1373	0.014592039
88	0xbd4244d5	-0.047428925
89	0x3ccbd52e	0.024881925
90	0xbc78906c	-0.015171152
91	0x3e403f78	0.18774211
92	0xbd04c6c0	-0.032416105
93	0xbe467df3	-0.19383983
94	0x3d8df0d2	0.069306985
95	0x3e428b9a	0.18998566
96	0x3e3fd629	0.1873404
97	0xbd2c4f02	-0.042067535
98	0xbd8cf3ff	-0.06882476
99	0x3dc4d45c	0.09610817
100	0xbbc70e7c	-0.0060747247
101	0x3dd0562d	0.10172687
102	0xbc7eb55a	-0.015546167
103	0x3e756a14	0.23966247
104	0x3e5d2b85	0.21598633
105	0x3c0f9185	0.008762722
106	0x3cd4a0d0	0.025955588
107	0xbdd13d44	-0.102167636
108	0x3e16ab2d	0.14713736
109	0xbdee8c4a	-0.11647852
110	0xbdb3d5bd	-0.08781002
111	0xbdc73c69	-0.09728319
112	0xbe771a6d	-0.24131174
113	0x3e118eef	0.14214681
114	0x3d429701	0.04750729
115	0xbc594e58	-0.0132633075
116	0x3db39f02	0.08770563
117	0x3d4fe364	0.050753966
118	0x3c37082a	0.01117138
119	0xbe143423	-0.14473014
120	0xbdc4b441	-0.09604693
121	0xbdb14ba7	-0.08657008
122	0xbcbc3af1	-0.022977324
123	0x3d8ac991	0.06776727
124	0x3c6613b8	0.014042787
125	0xbd9cac15	-0.076500095
126	0x3cd72eef	0.026267497
127	0x3e0d0cca	0.1377441
