nn/checkpoints/main_objs_different_2023_04_23-11_06_41/6/model_30.pt (torch, 518706 bytes, 98 tensors)

weight f4 [8, 5, 3]
0.30863318 -0.20171772 0.51546067 -0.042029206 0.06541459 0.33659777 0.14724712 0.27601257
0.21665864 0.05967803 0.17294116 -0.030534616 -0.12774964 -0.043016464 0.48468348 -0.22640723
0.017437002 0.3076755 -0.17243317 -0.12861969 0.1362947 -0.15094246 -0.07692862 0.16440608
-0.17478842 -0.08546729 0.24933985 -0.13259175 -0.11535009 0.4018291 -0.23634137 -0.04015903
-0.5268722 0.017590528 -0.10473376 -0.28966483 -0.03283683 0.17403255 -0.11740594 -0.10812151
0.26310822 -0.12697348 0.071523264 0.22104526 0.03255022 0.009095036 0.04013642 0.22408916
0.31546548 -0.23577735 -0.18213658 0.110512115 -0.20651235 0.0667874 0.17590533 -0.19421217
-0.113951966 0.5171899 -0.18937181 -0.15220279 -0.44939944 0.29753864 -0.07665263 -0.04717654
0.12886043 -0.044608258 -0.16784205 0.30541873 0.04695361 -0.28802317 -0.043887552 -0.49478897
-0.1701643 -0.02725413 -0.07569671 0.22914863 0.12050801 -0.35695168 0.29049185 -0.15353122
-0.07872757 0.19464858 -0.021842754 -0.34686676 0.2395079 0.09321421 -0.14063354 0.30906528
0.01716543 -0.08905768 0.36320317 -0.4615573 -0.053381406 0.0127560515 0.09441238 -0.30945423
-0.0018839951 0.018771324 0.047447372 0.076655544 -0.10270376 -0.11567316 0.2131078 -0.13605873
-0.3187058 0.4717341 -0.065451466 -0.28329715 -0.15921968 -0.031144748 0.17665058 -0.07080323
-0.15444425 0.034181077 0.100991234 -0.11692184 -0.15721196 -0.07865652 -0.24983437 0.16740952
00000000: 2b05 9e3e 178f 4ebe 3bf5 033f d126 2cbd
00000010: 16f8 853d 8b56 ac3e f3c7 163e 8551 8d3e
00000020: c3db 5d3e f370 743d 7d17 313e bb23 fabc
00000030: cdd0 02be 0832 30bd 6f28 f83e 4cd7 67be
00000040: 0bd8 8e3c a587 9d3e 5292 30be e1b4 03be
00000050: d690 0b3e a990 1abe c18c 9dbd 115a 283e
00000060: bcfb 32be 7909 afbd f252 7f3e 22c6 07be
00000070: ab3c ecbd 8bbc cd3e 7903 72be cc7d 24bd
00000080: 19e1 06bf 031a 903c a77e d6bd f34e 94be
00000090: e97f 06bd 9735 323e 8772 f0bd cf6e ddbd
000000a0: 1fb6 863e 5605 02be ca7a 923d b059 623e
000000b0: 6153 053d 5903 153c 1666 243d a177 653e
000000c0: b184 a13e 9e6f 71be 0382 3abe 2d54 e23d
000000d0: f977 53be d5c7 883d 8720 343e 8edf 46be
000000e0: a65f e9bd 8f66 043f afea 41be 0cdb 1bbe
000000f0: af17 e6be fc56 983e 0efc 9cbd 303c 41bd
00000100: fdf3 033e 26b7 36bd c9de 2bbe d85f 9c3e
00000110: 6e52 403d c677 93be 6fc3 33bd fb54 fdbe
00000120: 8d3f 2ebe 0e44 dfbc e006 9bbd f0a5 6a3e
00000130: e7cc f63d 5fc2 b6be 59bb 943e 4a37 1dbe
00000140: ec3b a1bd f551 473e 93ef b2bc 8598 b1be
00000150: 8f41 753e 17e7 be3d 3d02 10be ce3d 9e3e
00000160: 849e 8c3c df63 b6bd c4f5 b93e 3d51 ecbe
00000170: 76a6 5abd c2fe 503c 475b c13d c970 9ebe
00000180: 63f0 f6ba 52c6 993c 2d58 423d 95fd 9c3d
00000190: 5956 d2bd 0de6 ecbd ee38 5a3e fb52 0bbe
000001a0: 682d a3be 2287 f13e 6b0b 86bd 530c 91be
000001b0: 7c0a 23be 4523 ffbc e4e3 343e 4901 91bd
000001c0: a226 1ebe 7501 0c3d 7ed4 ce3d b874 efbd
000001d0: 2cfc 20be ab16 a1bd 95d4 7fbe 676d 2b3e

bias f4 [8]
-0.26067093 0.039880525 -0.2338327 0.12508443 0.2290188 -0.046258856 0.21665488 0.13201708
00000000: a976 85be c359 233d d771 6fbe 2216 003e
00000010: e883 6a3e ed79 3dbd c7da 5d3e 7c2f 073e

weight f4 [8]
0.9612955 1.2312313 0.95940506 0.914836 0.8997603 0.83231133 1.017489 1.1287341
00000000: 7617 763f fd98 9d3f 929b 753f b132 6a3f
00000010: b156 663f 5b12 553f 143d 823f 5c7a 903f

bias f4 [8]
0.23041476 0.21716172 -0.015276769 0.271904 -0.005925366 0.23338506 0.032211196 -0.13655101
00000000: d9f1 6b3e a45f 5e3e 6a4b 7abc 0037 8b3e
00000010: 9329 c2bb 7efc 6e3e e3ef 033d 07d4 0bbe

running_mean f4 [8]
0.47715145 0.043294813 -0.5007626 0.18464631 -0.14957409 0.058028508 -0.012173389 -0.01617068
00000000: 324d f43e e755 313d fa31 00bf ec13 3d3e
00000010: f329 19be 4daf 6d3d e572 47bc 6078 84bc

running_var f4 [8]
1.9099979 0.31498542 0.45592526 0.36306456 0.7801915 0.3674709 0.30612457 0.16495292
00000000: d07a f43f c545 a13e 096f e93e 99e3 b93e
00000010: a1ba 473f 2525 bc3e 5cbc 9c3e 6be9 283e

weight f4 [8, 8, 3]
-0.054123428 0.020316787 0.08248523 -0.089841105 -0.19563404 0.2990529 -0.21708788 -0.090325065
-0.23190063 -0.0647811 -0.0909247 0.28476474 -0.31131968 -0.1611582 -0.071087934 -0.112915166
-0.26022518 -0.12637915 -0.16649811 -0.1776869 -0.056863174 0.44172728 -0.10092558 -0.26838323
-0.23347886 0.14848897 0.40614527 -0.058492485 0.10391753 0.3717954 0.10661812 0.11487319
-0.38527057 -0.026557816 0.059707638 0.08092737 -0.14484888 -0.23556267 -0.150102 0.1681165
0.10152053 0.03203171 0.18582946 0.037607748 -0.24959195 0.07374647 0.1853149 0.20649786
0.115970835 -0.07662915 -0.14063506 -0.24679074 0.099958286 0.26183024 -0.04085014 0.03954079
-0.09163841 0.2936528 0.003762699 -0.17487527 -0.12202525 0.11078079 -0.36690143 0.096635655
-0.24748246 0.29904264 0.22615148 0.390953 -0.19595966 0.06309816 -0.1853556 0.11077361
0.34578738 -0.077350445 -0.27967873 -0.23562936 -0.20129713 0.017679928 -0.29946175 0.019939538
0.0069924546 0.32918486 0.08826677 0.13013831 -0.15101862 -0.15225536 -0.038525593 0.34657404
0.020666953 0.01447472 0.14084397 0.20475407 0.16853803 0.10504867 0.0014129198 -0.09107823
0.013691451 -0.13935585 0.017597547 -0.09495411 -0.24332349 -0.21726204 0.013065193 0.37194872
-0.0034460926 0.23601526 -0.16453263 -0.037692912 -0.30601683 -0.011367847 -0.19570798 -0.0975922
0.21949197 0.07771824 0.32849726 -0.0951117 0.29614267 0.2340067 -0.42504585 0.21662045
-0.1778227 -0.050186165 -0.0887661 -0.3879276 0.06832519 -0.15799293 0.07938287 -0.17545904
0.15003131 0.15721151 -0.19194952 -0.031526707 0.1421101 0.123398416 0.2073522 -0.06863253
-0.19817033 -0.09539343 0.2665188 0.12717833 0.32665297 0.17898656 0.49383402 -0.27507898
-0.30029806 0.3085692 -0.10092943 -0.14120956 0.29190508 -0.22550508 0.144501 -0.13526072
-0.024567874 0.07385848 -0.08352963 -0.24336003 0.08988116 -0.1886066 0.23217593 0.057268612
-0.28179154 -0.17256454 -0.08182219 -0.16181174 -0.13850944 -0.1503916 0.30435854 -0.18857823
-0.113447554 0.012056791 -0.03864874 0.15218787 0.16451271 0.40863916 0.23406321 -0.07240195
-0.34221786 -0.1769999 -0.27912065 0.18682252 0.18926708 0.10020985 -0.03612389 -0.20342475
-0.15125665 -0.01750138 0.21854119 0.12803066 -0.08363299 0.10928292 0.20814219 -0.22266144
00000000: 87b0 5dbd 646f a63c 04ee a83d 9dfe b7bd
00000010: 4a54 48be 761d 993e 494c 5ebe 59fc b8bd
00000020: 5c77 6dbe f4ab 84bd bb36 babd afcc 913e
00000030: 4b65 9fbe a806 25be 8d96 91bd 1140 e7bd
00000040: 3c3c 85be 8969 01be 7b7e 2abe 8ef3 35be
00000050: 5ce9 68bd 142a e23e 12b2 cebd 8769 89be
00000060: 1515 6fbe 7e0d 183e 46f2 cf3e d195 6fbd
00000070: b7d2 d43d f75b be3e 9a5a da3d a342 eb3d
00000080: 2f42 c5be c78f d9bc ff8f 743d 40bd a53d
00000090: 4453 14be 5737 71be 57b4 19be bb26 2c3e
000000a0: ffe9 cf3d af33 033d 144a 3e3e 950a 1a3d
000000b0: 0895 7fbe 6408 973d 30c3 3d3e 2d74 533e
000000c0: 1e82 ed3d beef 9cbd a302 10be b6b6 7cbe
000000d0: eeb6 cc3d 9d0e 863e 7a52 27bd 86f5 213d
000000e0: ebac bbbd a959 963e 9d97 763b 8112 33be
000000f0: 60e8 f9bd 0ae1 e23d 81da bbbe eae8 c53d
00000100: 0b6c 7dbe 1e1c 993e 4194 673e fe2a c83e
00000110: a6a9 48be 9c39 813d dccd 3dbe 46dd e23d
00000120: 0b0b b13e e969 9ebd 0d32 8fbe d348 71be
00000130: d620 4ebe 7fd5 903c 0d53 99be 3e58 a33c
00000140: f620 e53b eb8a a83e 35c5 b43d fa42 053e
00000150: a0a4 1abe d4e8 1bbe 03cd 1dbd 2772 b13e
00000160: be4d a93c 6027 6d3c 6739 103e 0dab 513e
00000170: 3c95 2c3e c223 d73d b931 b93a 3987 babd
00000180: 1c52 603c 4db3 0ebe bb28 903c 4d77 c2bd
00000190: cb29 79be f179 5ebe 640f 563c 1070 be3e
000001a0: d7d7 61bb fcad 713e 3e7b 28be e263 1abd
000001b0: 3dae 9cbe 3540 3abc ac67 48be 6bde c7bd
000001c0: 81c2 603e be2a 9f3d cb30 a83e ecc9 c2bd
000001d0: 03a0 973e 749f 6f3e 9c9f d9be c0d1 5d3e
000001e0: 2717 36be 0290 4dbd 00cb b5bd 729e c6be
000001f0: 14ee 8b3d e6c8 21be 7c93 a23d 89ab 33be
00000200: cfa1 193e 0efc 203e 6a8e 44be 2622 01bd
00000210: 4f85 113e 4fb8 fc3d 2354 543e 368f 8cbd
00000220: 2aed 4abe a15d c3bd 2775 883e 093b 023e
00000230: 0f3f a73e 4148 373e d0d7 fc3e 27d7 8cbe
00000240: abc0 99be c8fc 9d3e 17b4 cebd 3d99 10be
00000250: 9574 953e ceea 66be 12f8 133e c981 0abe
00000260: 9142 c9bc 1d43 973d 9511 abbd 5f33 79be
00000270: 9d13 b83d 1722 41be 87bf 6d3e 7e92 6a3d
00000280: fb46 90be c2b4 30be 6492 a7bd fab1 25be
00000290: 6bd5 0dbe 4100 1abe e2d4 9b3e a71a 41be
000002a0: 3157 e8bd d989 453c 244e 1ebd 23d7 1b3e
000002b0: 0576 283e 2739 d13e 44ae 6f3e 7947 94bd
000002c0: 2e37 afbe 763f 35be e7e8 8ebe 674e 3f3e
000002d0: 3bcf 413e d23a cd3d a5f6 13bd 944e 50be
000002e0: 06e3 1abe 0e5f 8fbc 43c9 5f3e 781a 033e
000002f0: c647 abbd b9cf df3d 3a23 553e 5c01 64be

bias f4 [8]
0.17310147 0.15470466 -0.005065867 -0.12707908 0.4321343 0.090649225 -0.044317164 0.007899406
00000000: 8341 313e e66a 1e3e 93ff a5bb 0521 02be
00000010: b540 dd3e 4da6 b93d ea85 35bd 836c 013c

weight f4 [8]
0.8562957 0.93446064 0.8567159 1.0304859 0.84873974 1.078304 1.2567475 1.0698446
00000000: 3236 5b3f d038 6f3f bc51 5b3f f6e6 833f
00000010: 0247 593f de05 8a3f 1add a03f abf0 883f

bias f4 [8]
0.32610267 -0.08574575 0.090488076 0.29174757 0.006368092 -0.1251224 -0.106766544 -0.005178608
00000000: eef6 a63e 789b afbd d051 b93d f05f 953e
00000010: 6dab d03b 1620 00be 6ba8 dabd 50b1 a9bb

running_mean f4 [8]
-0.3108679 0.5049959 0.10962712 0.03672114 0.3820096 0.08597715 -0.4364891 0.15519087
00000000: 142a 9fbe 6947 013f 2f84 e03d e868 163d
00000010: c396 c33e ca14 b03d 807b dfbe 5bea 1e3e

running_var f4 [8]
0.22136897 0.64174384 0.22048986 0.28017133 0.3371507 0.90830463 0.93848604 0.21034226
00000000: 8cae 623e 5349 243f 18c8 613e 9e72 8f3e
00000010: 049f ac3e a786 683f 9f40 703f f663 573e

weight f4 [8, 8, 3]
0.13287379 -0.09399819 -0.36457273 -0.053593516 -0.18090533 0.17332341 -0.017163377 -0.10242404
-0.32939523 -0.07623581 0.10002527 -0.12903334 -0.2507958 0.41119963 -0.17930041 0.1856664
-0.06654786 0.12036879 0.13031502 -0.57092905 0.058737732 -0.18960354 -0.15834719 -0.22501753
-0.16308187 0.2727577 -0.03525123 -0.20355147 0.05506986 0.18201804 -0.00874389 -0.3137287
0.036219746 -0.03416702 -0.24658105 -0.12626332 -0.2205433 -0.08555575 -0.23233597 0.19455503
-0.078787 -0.012693151 0.034668624 -0.06378908 0.3181731 -0.18087873 0.33527166 0.3493739
0.15303539 -0.035750516 0.033625204 -0.0700685 0.23340076 0.026132528 0.08619847 -0.2796879
0.022060445 0.21462075 -0.1314009 0.36996555 -0.25944358 0.39000556 0.083782494 -0.0696952
-0.048046835 0.20725362 0.17164005 -0.4491381 -0.054387502 -0.2642269 0.15867965 0.3605749
0.10504239 -0.2399685 -0.124564834 -0.21900079 -0.25758988 -0.31880945 -0.02197272 -0.016660627
-0.07032744 0.30519572 0.19796842 0.13875441 0.0951529 0.056297008 0.17176582 -0.028051069
0.19977912 0.4779876 -0.059277005 0.18217301 -0.07968582 -0.23515648 0.0070188064 -0.02098685
0.12861824 -0.042886987 -0.14750041 -0.087041624 -0.21422221 -0.1705379 0.11017274 -0.23919995
-0.12666175 0.48144966 0.026447318 0.059658013 0.119304195 0.015881522 -0.13727401 0.03051841
-0.1935303 -0.026379174 0.31913522 -0.004679927 -0.06951263 0.2434762 -0.13984092 -0.19238591
0.18694867 0.07308217 -0.42152187 -0.11663816 0.042140104 -0.10239242 -0.24736603 -0.054069806
0.19404015 0.03030953 0.14726414 -0.12980957 -0.11011908 -0.13970083 0.11518357 -0.19711855
-0.034172237 -0.08135492 0.25702664 0.16153818 0.3855869 0.24412355 0.055742204 -0.44874236
-0.29964355 0.112916246 0.033405066 -0.14665778 -0.25988683 -0.2608716 -0.23411836 0.059431218
-0.6019227 -0.22984882 0.07672446 -0.3799629 0.038726944 0.18586938 -0.07281274 -0.005211527
0.08798351 -0.0077814874 -0.11502787 0.043414608 0.2745079 0.029172061 0.16680242 0.12612231
0.09131674 -0.085215 -0.13678348 0.015983265 0.0028864043 -0.1796799 -0.062009875 0.00970527
-0.2696555 -0.22827512 0.044059724 -0.11895657 -0.0370672 -0.32658732 -0.16719018 -0.15244117
-0.17163779 0.2914337 -0.26905826 0.1975983 0.5128493 -0.08141077 0.21360846 -0.025965426
00000000: 1110 083e 1f82 c0bd 47a9 babe e084 5bbd
00000010: 3f3f 39be b17b 313e 369a 8cbc b2c3 d1bd
00000020: 7ea6 a8be 8521 9cbd 0cda cc3d 5121 04be
00000030: 4f68 80be c288 d23e 879a 37be 551f 3e3e
00000040: 3f4a 88bd ea83 f63d 4d71 053e 6828 12bf
00000050: fa96 703d 6e27 42be c425 22be ff6a 66be
00000060: effe 26be e6a6 8b3e 9863 10bd cc6f 50be
00000070: ef90 613d f062 3a3e 8842 0fbc 0ca1 a0be
00000080: 285b 143d b8f2 0bbd be7f 7cbe 2c4b 01be
00000090: 1ad6 61be da37 afbd 7be9 6dbe 6f39 473e
000000a0: 145b a1bd eff6 4fbc b000 0e3d d9a3 82bd
000000b0: 96e7 a23e 4638 39be baa8 ab3e 23e1 b23e
000000c0: 4fb5 1c3e 226f 12bd 95ba 093d 1380 8fbd
000000d0: 9c00 6f3e e213 d63c d388 b03d 4133 8fbe
000000e0: 1bb8 b43c 8bc5 5b3e f58d 06be 206c bd3e
000000f0: cad5 84be cfae c73e 2896 ab3d 5bbc 8ebd
00000100: c2cc 44bd 4b3a 543e 69c2 2f3e 6ef5 e5be
00000110: 6ec5 5ebd c048 87be eb7c 223e 469d b83e
00000120: 7720 d73d 4dba 75be d91b ffbd be41 60be
00000130: d2e2 83be fe3a a3be 2200 b4bc de7b 88bc
00000140: d507 90bd 9d42 9c3e 3cb8 4a3e a315 0e3e
00000150: 86df c23d b197 663d 61e3 2f3e 5bcb e5bc
00000160: e692 4c3e caba f43e 72cc 72bd 908b 3a3e
00000170: 5232 a3bd dccc 70be 04fe e53b 9dec abbc
00000180: 80b4 033e 44aa 2fbd 590a 17be e142 b2bd
00000190: 115d 5bbe 7da1 2ebe 3fa2 e13d d5f0 74be
000001a0: 9eb3 01be 9280 f63e 0ca8 d83c f65b 743d
000001b0: c255 f43d f719 823c 8f91 0cbe bf01 fa3c
000001c0: cf2c 46be 2319 d8bc b165 a33e 135a 99bb
000001d0: a35c 8ebd d351 793e 7532 0fbe d000 45be
000001e0: 796f 3f3e 1bac 953d b7d1 d7be fddf eebd
000001f0: 1a9b 2c3d 1eb3 d1bd 854d 7dbe 4d78 5dbd
00000200: 76b2 463e b14b f83c 69cc 163e cdec 04be
00000210: 1d86 e1bd bc0d 0fbe 5de5 eb3d 72d9 49be
00000220: 30f8 0bbd 699d a6bd ff98 833e 446a 253e
00000230: a56b c53e 86fb 793e f051 643d 8fc1 e5be
00000240: e16a 99be a240 e73d c0d3 083d 752d 16be
00000250: e30f 85be f690 85be b9bc 6fbe 266e 733d
00000260: 9b17 1abf 7d5d 6bbe b721 9d3d 7f8a c2be
00000270: 25a0 1e3d 8b54 3e3e d91e 95bd 75c5 aabb
00000280: b330 b43d d9fb febb bb93 ebbd 84d3 313d
00000290: 4d8c 8c3e 3ffa ee3c 41ce 2a3e 3526 013e
000002a0: 4504 bb3d 3485 aebd f810 0cbe 56ef 823c
000002b0: d429 3d3b 02fe 37be 11fe 7dbd da02 1f3c
000002c0: 4910 8abe f4c0 69be f877 343d 819f f3bd
000002d0: c7d3 17bd 7436 a7be e733 2bbe 8a19 1cbe
000002e0: d1c1 2fbe cc36 953e 01c2 89be 3557 4a3e
000002f0: 174a 033f b1ba a6bd 2dbc 5a3e 72b5 d4bc

bias f4 [8]
0.084544055 -0.07414015 0.11690781 -0.0791739 0.12167788 0.19534534 -0.10039823 0.06362023
00000000: 6f25 ad3d cad6 97bd 5d6d ef3d ed25 a2bd
00000010: 4132 f93d 9c08 483e 969d cdbd 534b 823d

weight f4 [8]
1.2093385 0.9325106 0.8074508 1.0606657 1.1012534 0.87350136 1.0054642 1.1552794
00000000: 9bcb 9a3f 04b9 6e3f 18b5 4e3f e5c3 873f
00000010: dff5 8c3f c99d 5f3f 0db3 803f 32e0 933f

bias f4 [8]
0.1596917 0.15471523 0.036505252 0.10753615 0.1490861 0.19108385 0.40709305 0.057799168
00000000: 3986 233e ab6d 1e3e 8886 153d ea3b dc3d
00000010: 07aa 183e 7cab 433e 806e d03e d2be 6c3d

running_mean f4 [8]
-0.446077 -0.15597549 0.43330872 0.025757244 0.123866 0.12558271 -0.5381959 -0.23691118
00000000: 3464 e4be 0ab8 1fbe a4da dd3e db00 d33c
00000010: 75ad fd3d c198 003e 35c7 09bf d898 72be

running_var f4 [8]
0.82242 0.7628725 0.56964713 0.4069586 0.45064038 0.38970312 1.1521807 0.40428263
00000000: 1e8a 523f 9d4b 433f 65d4 113f e15c d03e
00000010: 56ba e63e 2b87 c73e a87a 933f 22fe ce3e

weight f4 [8, 8, 3]
-0.18900225 0.1459079 0.077362835 0.10481769 -0.1334319 -0.15638557 -0.00429852 -0.25059158
-0.29131317 -0.15931028 0.025253832 0.32369488 -0.17558864 0.2156015 0.18399753 -0.02510247
0.070596606 0.07135113 0.4054916 0.09874194 -0.26203603 0.31168205 0.17111006 -0.34777737
-0.5965302 0.2168232 0.20156857 -0.29522285 0.06853325 0.015357238 -0.01892177 0.09783469
-0.073496245 0.15015584 -0.18806492 0.056313388 -0.24059677 -0.12780024 0.043280616 -0.11269409
0.06526018 -0.22789823 -0.568422 0.015153828 -0.04447553 0.004830305 -0.285735 0.21985346
-0.5464396 0.10941283 0.08987319 0.134023 0.1619501 -0.1190076 -0.04880742 -0.15114008
0.102021515 0.23756328 -0.023366017 0.017188204 0.27691847 0.15955418 0.2443003 -0.023860551
0.30297223 -0.20012344 -0.23056704 0.13759717 -0.09248809 0.028035281 -0.047228366 -0.39228725
-0.29657352 0.13804974 0.14810075 0.09073635 0.04868098 -0.23318066 -0.11275295 -0.30708575
0.037860062 -0.030432647 -0.2108542 -0.111315325 -0.09037589 0.040225044 0.13226461 -0.3445364
0.16515543 0.2852814 0.36015016 0.14121206 -0.21711485 -0.09620102 0.21202816 0.23607187
0.016133767 0.1622615 -0.10588832 0.15792246 0.00442484 0.26010174 -0.2217702 -0.17998953
0.0029043325 -0.35698184 -0.040720213 0.03746314 -0.26509503 -0.16844276 -0.24229981 0.20235954
-0.11618083 -0.016068233 0.07831815 -0.22415961 -0.22792937 0.29505724 -0.045477364 -0.2379098
-0.054131806 -0.119893834 -0.14844136 -0.30952105 0.31528485 -0.22211775 -0.28765962 0.22725691
-0.029857762 -0.25947317 -0.17336936 -0.08817927 0.015376088 0.11161311 -0.41104558 -0.07408111
0.22470777 0.060381204 -0.0777455 -0.08247777 0.16912591 -0.18499708 -0.008896972 0.413874
0.033301443 -0.07056973 0.3667641 -0.0076509356 -0.13056742 -0.2912163 -0.07742462 0.075345635
0.029982187 -0.07776905 0.22622594 0.24165052 -0.24862382 0.3411457 0.014785662 0.03895798
0.045242753 0.08325223 0.028780853 -0.26137432 -0.07617697 0.21987651 -0.22158189 -0.23061468
0.02026895 0.041890245 -0.19004618 0.1929408 -0.018814582 -0.102901004 0.2209949 0.2842157
0.04342046 0.12746495 0.22777706 0.35411358 -0.0087092575 0.45109582 -0.12164762 0.29459602
0.30191094 0.06624818 0.005334697 0.055664107 0.27720678 0.0535677 -0.0798161 0.19590335
00000000: ce89 41be e168 153e 6870 9e3d a8aa d63d
00000010: 5fa2 08be 8a23 20be 99da 8cbb 8a4d 80be
00000020: 0027 95be 3c22 23be 20e1 ce3c 56bb a53e
00000030: 82cd 33be a4c6 5c3e d969 3c3e b2a3 cdbc
00000040: f494 903d 8b20 923d 989c cf3e 3739 ca3d
00000050: 9629 86be ca94 9f3e 7a37 2f3e e00f b2be
00000060: 34b6 18bf e706 5e3e fe67 4e3e 7327 97be
00000070: 295b 8c3d ed9c 7b3c d401 9bbc 8e5d c83d
00000080: 3385 96bd 74c2 193e 1794 40be dea8 663d
00000090: 005f 76be 11de 02be 0447 313d 29cc e6bd
000000a0: 21a7 853d 275e 69be 1b84 11bf c347 783c
000000b0: f92b 36bd 8947 9e3b dc4b 92be 4421 613e
000000c0: 77e3 0bbf d513 e03d 6f0f b83d 533d 093e
000000d0: 3fd6 253e 42ba f3bd 4aea 47bd 77c4 1abe
000000e0: a8f0 d03d ca43 733e 176a bfbc 47ce 8c3c
000000f0: 42c8 8d3e 2c62 233e dc29 7a3e 3477 c3bc
00000100: 2d1f 9b3e 29ed 4cbe c419 6cbe 46e6 0c3e
00000110: 656a bdbd 3faa e53c 8872 41bd e0d9 c8be
00000120: 7cd8 97be e95c 0d3e b9a7 173e fbd3 b93d
00000130: b565 473d e9c6 6ebe 05eb e6bd 583a 9dbe
00000140: 2713 1b3d e34d f9bc 2aea 57be 4af9 e3bd
00000150: ff16 b9bd 04c3 243d 6070 073e 1367 b0be
00000160: 811e 293e 6710 923e 9a65 b83e e599 103e
00000170: 5b53 5ebe 0a05 c5bd e91d 593e d3bc 713e
00000180: f62a 843c e127 263e fadb d8bd 6db6 213e
00000190: 40fe 903b 0e2c 853e ba17 63be 2d4f 38be
000001a0: 9d56 3e3b 53c6 b6be 3dca 26bd f372 193d
000001b0: 89ba 87be 427c 2cbe 711d 78be 5737 4f3e
000001c0: 37f0 edbd 87a1 83bc 4465 a03d 198a 65be
000001d0: 5166 69be be11 973e 7946 3abd a09e 73be
000001e0: 50b9 5dbd e68a f5bd 0301 18be 8b79 9ebe
000001f0: 046d a13e d672 63be 1f48 93be 09b6 683e
00000200: 4498 f4bc abd9 84be bd87 31be 5597 b4bd
00000210: fdeb 7b3c 6a95 e43d 9174 d2be d6b7 97bd
00000220: cb19 663e 4852 773d 0839 9fbd 1bea a8bd
00000230: 582f 2d3e e06f 3dbe 9bc4 11bc 4be7 d33e
00000240: 1867 083d dd86 90bd 81c8 bb3e b3b4 fabb
00000250: 77b3 05be 4e1a 95be cd90 9ebd d04e 9a3d
00000260: 349d f53c 6145 9fbd c6a7 673e 3c73 773e
00000270: 3e97 7ebe a6aa ae3e 903f 723c 6792 1f3d
00000280: 7750 393d 2580 aa3d d3c5 eb3c dbd2 85be
00000290: ac02 9cbd 4f27 613e 5de6 62be 4126 6cbe
000002a0: 120b a63c 1b95 2b3d 779b 42be 4692 453e
000002b0: 0a21 9abc c3bd d2bd 7d4c 623e b884 913e
000002c0: a7d9 313d 2c86 023e 643e 693e 604e b53e
000002d0: 46b1 0ebc 08f6 e63e 6322 f9bd 4ad5 963e
000002e0: 1294 9a3e 20ad 873d afce ae3b 0c00 643d
000002f0: 0cee 8d3e ce69 5b3d a076 a3bd e39a 483e

bias f4 [8]
-0.05889603 -0.028737735 0.054245394 -0.010401487 -0.052090146 0.041100744 0.1568801 -0.11105557
00000000: f73c 71bd 666b ebbc 6b30 5e3d 006b 2abc
00000010: 7a5c 55bd 4159 283d 2da5 203e 1a71 e3bd

weight f4 [8]
0.93984 1.203001 1.0242563 1.0936419 1.109024 1.1320826 0.88111395 0.6827951
00000000: 5b99 703f f0fb 993f d51a 833f 75fc 8b3f
00000010: 80f4 8d3f 15e8 903f af90 613f a9cb 2e3f

bias f4 [8]
-0.077489614 0.01476201 0.36732042 -0.11234979 -0.06444527 0.15622136 0.097302325 0.09699441
00000000: e0b2 9ebd 5cdc 713c 6c11 bc3e a617 e6bd
00000010: e2fb 83bd 7ef8 1f3e 7146 c73d 01a5 c63d

running_mean f4 [8]
0.15230395 -0.77129614 0.030593224 0.088259086 -0.5394154 -0.35663664 0.14984077 0.8768414
00000000: 91f5 1b3e aa73 45bf a49e fa3c 2ec1 b43d
00000010: 2117 0abf 1499 b6be dc6f 193e ae78 603f

running_var f4 [8]
0.3713335 0.4390947 0.4308275 0.32323086 0.35479364 0.77947515 0.3683976 0.49049252
00000000: 6d1f be3e 05d1 e03e 6c95 dc3e 847e a53e
00000010: 83a7 b53e af8b 473f 9c9e bc3e d621 fb3e

weight f4 [8, 8, 3]
0.1927098 0.25406647 -0.19809817 0.08781864 -0.17712507 0.046294432 -0.31640723 -0.011415265
-0.3056791 0.26280504 -0.22624867 0.036066562 0.09961016 -0.062423818 0.028597176 0.002302806
-0.28167394 -0.3003178 0.10889966 -0.250954 -0.3513339 0.03781316 -0.14592756 -0.30191535
0.15147303 0.08562503 0.19806194 0.222074 0.012535091 0.040400263 -0.11127148 -0.17389391
0.10973773 -0.24669701 0.30717584 0.27746 0.23176794 0.15405616 0.123388276 0.21443634
0.31048578 0.47672108 -0.05978318 -0.06607414 0.2992179 -0.021839838 0.061157115 -0.027358672
-0.36955503 0.010668506 0.11346059 -0.40248728 0.08418901 -0.036998067 -0.055974104 -0.40319648
-0.20613724 -0.54532295 0.09316469 -0.026609752 -0.06611092 -0.14917743 -0.010613389 -0.29390097
-0.3273707 -0.16902973 0.011203248 -0.30170414 -0.056465942 -0.115047805 -0.25276217 -0.025644448
0.21177442 0.1759453 0.17666769 -0.1407541 0.16513282 -0.09355464 -0.32024986 -0.14448789
-0.19172435 0.18839037 0.3278105 0.042892836 0.41929772 0.13915364 -0.2985591 0.08152465
-0.04133996 0.1650946 0.18736538 0.04423852 0.18600823 -0.21013042 -0.1618887 -0.071536236
-0.062686995 -0.2353261 -0.14941373 -0.117592074 0.07097269 0.22024061 0.23923372 -0.13387275
-0.29927808 -0.0945135 0.06514785 0.26340407 -0.08737656 -0.361432 -0.14961368 -0.035923958
-0.11052636 0.39208168 -0.07766271 -0.007911053 -0.2782402 0.16867135 0.0075108116 -0.13346626
-0.066996716 -0.010475747 0.23255959 -0.6490651 -0.12981123 -0.2557127 -0.30306002 -0.098155655
-0.113373764 -0.06890716 -0.23603328 -0.15351672 -0.18119007 0.03287907 0.027611332 -0.23683639
-0.2148903 -0.07619336 0.08152603 -0.0048334314 -0.24315827 0.040348265 -0.18321942 -0.05420343
-0.019210728 -0.030665658 -0.11928082 0.5260645 0.03955765 0.07242678 0.273337 0.094542645
0.11032585 0.27456325 -0.2729177 0.10026892 0.12486303 -0.13788126 -0.14495671 -0.18573369
0.099314585 -0.09304299 0.18770327 0.15893216 -0.10095167 0.09805542 0.3439213 -0.25658467
0.37168837 -0.019834077 0.3470534 -0.2065662 0.082136504 0.27081951 0.069730744 0.2225816
0.05686054 -0.05255966 -0.19050008 -0.118236355 0.39917412 0.18120843 -0.25051832 0.11664499
0.042292695 -0.03730327 -0.034380287 -0.12459432 0.3691281 0.16044085 0.04095707 0.32295647
00000000: b855 453e 0015 823e 3fda 4abe 42da b33d
00000010: 4660 35be 3b9f 3d3d 2100 a2be 1707 3bbc
00000020: f981 9cbe 628e 863e bbad 67be 88ba 133d
00000030: 6900 cc3d 1eb0 7fbd a044 ea3c acea 163b
00000040: 9137 90be 41c3 99be c906 df3d 0b7d 80be
00000050: 09e2 b3be f9e1 1a3d 096e 15be a694 9abe
00000060: bf1b 1b3e 2d5c af3d c0d0 4a3e 5e67 633e
00000070: fb5f 4d3c bf7a 253d 4de2 e3bd 3f11 32be
00000080: 2dbe e03d 249e 7cbe 2746 9d3e 3d0f 8e3e
00000090: 9354 6d3e e6c0 1d3e feb2 fc3d 3395 5b3e
000000a0: fef7 9e3e c914 f43e 35df 74bd e151 87bd
000000b0: 1733 993e 76e9 b2bc e27f 7a3d 4b1f e0bc
000000c0: 5136 bdbe f5ca 2e3c 075e e83d d012 cebe
000000d0: 4a6b ac3d 498b 17bd 1a45 65bd c56f cebe
000000e0: a415 53be 499a 0bbf 21cd be3d b2fc d9bc
000000f0: 2965 87bd f8c1 18be c8e3 2dbc 307a 96be
00000100: 229d a7be 2116 2dbe d48d 373c f778 9abe
00000110: d548 67bd 2f9e ebbd 0b6a 81be 4e14 d2bc
00000120: 65db 583e 012b 343e 60e8 343e d821 10be
00000130: 9418 293e 9399 bfbd caf7 a3be a2f4 13be
00000140: 6353 44be 68e9 403e c7d6 a73e 66b0 2f3d
00000150: 31ae d63e 4b7e 0e3e bddc 98be 65f6 a63d
00000160: 1754 29bd 8f0e 293e b6dc 3f3e 7333 353d
00000170: f178 3e3e 6e2c 57be 27c6 25be 9781 92bd
00000180: 0a62 80bd 53f9 70be eaff 18be 1dd4 f0bd
00000190: 215a 913d c186 613e aff9 743e f015 09be
000001a0: fa3a 99be 4b90 c1bd 3c6c 853d e6dc 863e
000001b0: 7bf2 b2bd 9d0d b9be 5434 19be 0025 13bd
000001c0: a55b e2bd eebe c83e a00d 9fbd 5c9d 01bc
000001d0: 8075 8ebe 2fb8 2c3e 411d f63b 61ab 08be
000001e0: 9335 89bd 78a2 2bbc 1a24 6e3e 2129 26bf
000001f0: 3ced 04be c6ec 82be af2a 9bbe d505 c9bd
00000200: 8130 e8bd 321f 8dbd b5b2 71be 7d33 1dbe
00000210: e489 39be 34ac 063d 2931 e23c 3d85 72be
00000220: 340c 5cbe 440b 9cbd 1ff7 a63d c361 9ebb
00000230: 7bfe 78be 3944 253d df9d 3bbe 6a04 5ebd
00000240: d15f 9dbc 8c36 fbbc 8149 f4bd 2aac 063f
00000250: 3407 223d 7e54 943d d4f2 8b3e 939f c13d
00000260: 85f2 e13d 8e93 8c3e debb 8bbe cb59 cd3d
00000270: 30b8 ff3d bf30 0dbe 886f 14be f930 3ebe
00000280: 7265 cb3d 538d bebd 4935 403e 1dbf 223e
00000290: c0bf cebd 48d1 c83d 7416 b03e 115f 83be
000002a0: f04d be3e 137b a2bc fcb0 b13e 1786 53be
000002b0: 2f37 a83d dba8 8a3e fece 8e3d 6eec 633e
000002c0: 99e6 683d cc48 57bd 7412 43be e725 f2bd
000002d0: 8d60 cc3e b48e 393e f043 80be 92e3 ee3d
000002e0: 1b3b 2d3d 50cb 18bd 58d2 0cbd 4f2b ffbd
000002f0: 5cfe bc3e 9b4a 243e 9ac2 273d 8d5a a53e

bias f4 [8]
-0.048096128 -0.04269566 0.24498509 -0.14496309 0.025856143 0.3344531 0.13989024 0.24844155
00000000: 7200 45bd a5e1 2ebd 5fdd 7a3e 3471 14be
00000010: 43d0 d33c 703d ab3e 633f 0f3e 7667 7e3e

weight f4 [8]
0.994667 0.96267074 1.0947924 1.0274354 0.93115556 1.2684815 0.8951747 0.8787041
00000000: 7fa2 7e3f 9771 763f 2822 8c3f 0183 833f
00000010: 3660 6e3f 9a5d a23f 2b2a 653f c0f2 603f

bias f4 [8]
0.21987058 0.094410196 0.31985053 0.22305913 0.28034312 0.011385518 0.3596527 0.08202123
00000000: c125 613e 225a c13d 73c3 a33e 9d69 643e
00000010: 2289 8f3e 538a 3a3c 6624 b83e bffa a73d

running_mean f4 [8]
-0.8115432 0.83474475 -1.1011477 -0.015934782 -0.1947855 -0.89957464 0.692932 0.8928652
00000000: 4cc1 4fbf d5b1 553f 68f2 8cbf a989 82bc
00000010: da75 47be 864a 66bf fe63 313f d092 643f

running_var f4 [8]
0.81771666 0.519088 1.2891608 0.3887422 0.469827 0.66582143 0.6683954 0.69294727
00000000: e155 513f f3e2 043f 3903 a53f 3809 c73e
00000010: 2a8d f03e 4673 2a3f f61b 2b3f fe64 313f

weight f4 [8, 8, 3]
-0.14107186 -0.061670203 -0.37436098 0.1423398 -0.2332532 0.040743575 -0.4519766 0.12162631
-0.15053253 0.22242428 -0.108509466 -0.27090213 0.05618517 -0.061000314 -0.17767759 -0.6556551
-0.30434492 -0.34254846 -0.29259115 0.0053205453 0.003211626 0.05844888 -0.019948289 0.0250266
-0.34078875 0.051532775 -0.10302762 0.10497095 -0.035002593 -0.12188731 -0.09256161 -0.15709974
-0.10658936 0.45819816 -0.14465284 0.028942274 -0.318214 -0.29391423 -0.15785497 -0.33058676
-0.036589615 0.044765383 -0.04064324 -0.010926889 -0.16491432 0.06298699 -0.18885769 0.20306568
-0.21641278 -0.41167545 -0.2233866 -0.05383379 -0.010077858 -0.29993972 -0.33497962 -0.06946006
-0.0234362 -0.04957883 -0.12692231 0.16954477 -0.11907584 -0.12817734 -0.1588106 -0.3817176
0.24641718 -0.27618998 -0.39125857 0.047916085 0.12754281 0.18736295 -0.029427525 0.20669559
0.20209195 0.030724479 -0.2998867 0.2352977 -0.3354065 -0.37151736 -0.3014756 0.15595433
0.1098377 -0.2318625 0.02305583 0.13417096 0.013794523 0.058409292 -0.06220389 -0.097272694
-0.071262 -0.20699522 -0.23958193 0.062054075 0.2530003 0.22754537 0.010960295 -0.011011516
-0.2057254 -0.1865101 -0.12508485 0.08489691 -0.1169684 -0.29997283 -0.39665622 0.07743011
0.115764104 0.43199018 0.14005461 -0.19998641 -0.12909365 -0.055312537 -0.27395126 -0.17797032
0.09926002 -0.21381421 -0.23791607 -0.044905208 -0.045690965 -0.027043454 -0.094524056 0.1942121
0.19387747 -0.22045584 -0.028153509 0.06649045 -0.24699473 -0.11756859 -0.23885103 0.2928944
0.030016178 0.15914889 0.09132077 -0.23752621 -0.13237977 0.17063141 -0.48477003 -0.039142087
0.008836568 -0.3008372 -0.35375717 -0.22099404 -0.031241557 0.0042300965 -0.0007710653 0.26758826
-0.10509729 -0.102789916 -0.22599074 0.13748199 -0.05422751 -0.34373623 -0.4600623 0.060811307
-0.008663389 0.21709642 0.091926366 0.01777309 0.0046255197 -0.00063741114 -0.007910928 -0.4927757
-0.22520538 -0.43999755 -0.107585035 0.093788296 -0.03571211 0.18316412 0.019659003 -0.070408925
-0.2779308 0.011602306 -0.0790157 0.1496878 0.02284647 -0.16539972 -0.1527003 0.2716815
-0.19952111 0.23858108 -0.15412411 0.19506647 -0.12334532 -0.027486743 -0.2579896 -0.013132746
0.09325512 -0.41128442 -0.18016292 0.12288532 0.0974878 0.17184612 -0.39482635 0.24690253
00000000: 2475 10be e599 7cbd 3eac bfbe 86c1 113e
00000010: edd9 6ebe bce2 263d 7a69 e7be 3717 f93d
00000020: 3325 1abe 31c3 633e 363a debd afb3 8abe
00000030: 6c22 663d 77db 79bd 1df1 35be 03d9 27bf
00000040: 19d3 9bbe 8362 afbe 82ce 95be f857 ae3b
00000050: 257a 523b 1868 6f3d 986a a3bc 9604 cd3c
00000060: dd7b aebe 0814 533d 2500 d3bd 02fb d63d
00000070: e15e 0fbd 0ea0 f9bd f190 bdbd c1de 20be
00000080: 864b dabd f398 ea3e e01f 14be 5918 ed3c
00000090: f2ec a2be ed7b 96be bca4 21be ab42 a9be
000000a0: fede 15bd e85b 373d 8779 26bd b206 33bc
000000b0: 4ddf 28be 53ff 803d e963 41be 73f0 4f3e
000000c0: 509b 5dbe 20c7 d2be 75bf 64be d280 5cbd
000000d0: 9a1d 25bc b391 99be 7382 abbe 1341 8ebd
000000e0: 46fd bfbc 2c13 4bbd ecf7 01be 259d 2d3e
000000f0: 09de f3bd ec40 03be 3f9f 22be 7d70 c3be
00000100: c954 7c3e c668 8dbe 0b53 c8be a843 443d
00000110: 959a 023e 13dc 3f3e fe11 f1bc 02a8 533e
00000120: 31f1 4e3e e7b1 fb3c c08a 99be e1f1 703e
00000130: 67ba abbe 8637 bebe 035b 9abe 7eb2 1f3e
00000140: 97f2 e03d 5d6d 6dbe 94df bc3c 1d64 093e
00000150: 6c02 623c 953e 6f3d 82c9 7ebd e836 c7bd
00000160: d0f1 91bd 8ef6 53be f754 75be 6a2c 7e3d
00000170: 4189 813e a701 693e cf92 333c a569 34bc
00000180: aea9 52be 81fc 3ebe 3e16 00be 6ede ad3d
00000190: 218d efbd 0a96 99be 8616 cbbe ad93 9e3d
000001a0: bb15 ed3d d12d dd3e 7a6a 0f3e 3dc9 4cbe
000001b0: 2031 04be 668f 62bd 5743 8cbe da3d 36be
000001c0: d648 cb3d 1df2 5abe 45a0 73be 86ee 37bd
000001d0: 7326 3bbd 3c8a ddbc d495 c1bd 89df 463e
000001e0: d187 463e 2dbf 61be 30a2 e6bc 252c 883d
000001f0: 30ec 7cbe cdc7 f0bd 5d95 74be 41f6 953e
00000200: 7de4 f53c edf7 223e 6206 bb3d 123a 73be
00000210: 908e 07be 00ba 2e3e c733 f8be 7453 20bd
00000220: 41c7 103c 5507 9abe a91f b5be 434c 62be
00000230: 4bee ffbc 9f9c 8a3b 5121 4aba 5401 893e
00000240: 3f3d d7bd 8583 d2bd 1e6a 67be 14c8 0c3e
00000250: aa1d 5ebd 32fe afbe 498d ebbe 4715 793d
00000260: e3f0 0dbc 864e 5e3e e443 bc3d df98 913c
00000270: ac91 973b f017 27ba d69c 01bc 194d fcbe
00000280: 3d9c 66be 5c47 e1be 8b55 dcbd 1414 c03d
00000290: dd46 12bd 608f 3b3e eb0b a13c 8e32 90bd
000002a0: f24c 8ebe 9917 3e3c fcd2 a1bd c247 193e
000002b0: 8528 bb3c 8b5e 29be 785d 1cbe d619 8b3e
000002c0: 434f 4cbe 994e 743e b6d2 1dbe 81bf 473e
000002d0: 799c fcbd e12b e1bc 3617 84be bb2a 57bc
000002e0: 8afc be3d df93 d2be a17c 38be 4cab fb3d
000002f0: afa7 c73d 6ef8 2f3e ae26 cabe 04d4 7c3e

bias f4 [8]
0.1582392 -0.12524097 0.27858636 -0.017987205 -0.13987228 -0.27909574 0.06945717 0.06426181
00000000: 7509 223e 2b3f 00be dfa2 8e3e e759 93bc
00000010: ae3a 0fbe a3e5 8ebe 903f 8e3d b29b 833d

weight f4 [8]
0.5276782 0.44265002 0.43683535 0.44907358 0.3057635 0.34801552 0.27505895 0.46925256
00000000: eb15 073f 06a3 e23e e2a8 df3e f9ec e53e
00000010: 098d 9c3e 172f b23e 87d4 8c3e df41 f03e

bias f4 [8]
-0.1570002 -0.3892892 -0.34116074 -0.35463953 0.098658 -0.1299689 -0.22611544 -0.47362804
00000000: a9c4 20be ea50 c7be 9fac aebe 5093 b5be
00000010: 350d ca3d 9116 05be ce8a 67be 607f f2be

running_mean f4 [8]
-1.3309128 -0.9880796 -0.8987702 -0.34952813 -0.94610566 -0.94859296 -0.8609612 -0.34230068
00000000: 5a5b aabf c9f2 7cbf ce15 66bf 5af5 b2be
00000010: fb33 72bf fdd6 72bf f467 5cbf 0942 afbe

running_var f4 [8]
0.8222623 0.49553576 0.5160116 0.34611484 0.3145348 0.3836238 0.68950623 0.37598017
00000000: c87f 523f ddb6 fd3e 5619 043f f735 b13e
00000010: b50a a13e 576a c43e 7b83 303f 7980 c03e

weight f4 [128, 25]
0.18405737 -0.09927874 0.4902942 -0.05299117 -0.3895172 -0.10658544 0.43543217 0.1743775
-0.012861538 0.06525232 0.09216082 0.23815992 0.094779156 0.2421265 0.013509712 -0.024198128
-0.44210532 -0.22255035 -0.17497407 -0.56347734 -0.0580802 -0.3105011 0.22099464 -0.08122659
-0.24497886 -0.13546702 -0.08914028 0.037583902 0.24630716 -0.18248224 0.37410706 0.08036051
0.37365544 0.008329537 0.12618366 0.12094274 -0.1090395 -0.049254134 0.34523457 -0.024135236
-0.28484327 0.0068669086 0.3554077 0.16978563 -0.06494543 -0.16927324 -0.4607646 -0.14633454
-0.13926749 -0.10416467 0.20679422 -0.00014248291 0.15558283 0.5598548 0.114332095 -0.1355525
0.1982774 -0.057161085 0.33108163 -0.19900946 0.23651841 -0.0180453 -0.31730798 -0.17164338
-0.052485336 0.18386969 -0.14878888 -0.09332071 -0.18941948 0.39857212 0.16565572 0.17282483
0.20828158 0.023278339 -0.17154717 -0.4937656 -0.28831038 -0.9436099 -0.30077302 0.03507731
-0.4569851 -0.44967878 -0.3462454 0.27044415 0.08552247 0.14500941 -0.4740698 0.037325896
0.17318302 -0.13171434 -0.024124198 -0.14035384 -0.12639177 -0.036361467 0.32687783 0.01792157
0.08550162 0.015149885 0.10816862 -0.035048105 -0.16685516 -0.37364456 -0.2604776 -0.08457911
0.07206169 -0.18954498 -0.26285842 0.6250825 0.19211149 -0.34231934 0.2777163 0.22770083
-0.25098616 -0.06918801 0.11176021 -0.20285393 -0.11947466 0.03752974 0.0867622 -0.1477778
0.19047353 0.40135333 0.15718389 -0.12482866 -0.23784955 -0.5108587 -0.41412058 -0.3448089
-0.39780873 -0.2032261 0.20679614 0.33701116 0.17573577 0.08967695 -0.40764654 -0.121759064
0.0424715 0.14844008 -0.06755079 -0.11636206 -0.39632964 -0.09598222 0.1301284 0.070965506
0.23974784 -0.47198203 0.2655596 -0.078134015 -0.020249136 -0.07579522 0.3306747 -0.16087267
0.1610085 0.044656236 0.039268766 -0.3667153 -0.18089795 -0.6076398 -0.014623911 -0.45372072
0.08365591 0.13395539 -0.39422005 0.12301202 -0.34273043 -0.17680503 0.22625513 -0.08266075
0.041512888 -0.01733248 -0.2417641 -0.12149267 0.2981774 -0.040350515 0.07355275 -0.2536923
0.46109316 0.11782286 -0.2195289 0.10911534 -0.15405366 -0.47043613 -0.24304846 -0.76447254
-0.4135699 -0.46664506 0.07343825 0.069000445 0.111656435 0.037957814 0.12870896 -0.2791774
-0.42447165 0.11934967 -0.08538209 0.010913136 0.16859962 0.14009966 -0.08917338 -0.08123431
-0.21500494 -0.4723599 -0.94537055 -1.0134687 -0.46492562 0.16164988 0.2042082 0.45654845
-0.1999288 0.08251802 -0.118377395 0.11388402 0.0457737 0.07987584 -0.018497614 0.0777462
0.07173787 -0.017682508 -0.48759386 -0.17844953 -0.1348009 0.011506858 -0.17924345 0.040035065
-0.5035475 0.064281195 -0.018122632 -0.6068403 0.07438704 -0.020705188 0.16233431 0.13796675
0.38007364 0.08197366 -0.29077458 0.03863548 0.08229165 0.025725245 0.0035921668 0.021321699
0.007468005 0.074149325 0.06268605 -0.11679939 -0.2158509 -0.2378925 -0.25141525 -0.19566618
-0.19916825 -0.4091257 -0.4347665 0.013773618 -0.555774 -0.18457244 -0.14872415 -0.43577236
00000000: 8979 3c3e a752 cbbd d707 fb3e 450d 59bd
00000010: cc6e c7be 7849 dabd f7f0 de3e 0490 323e
00000020: 33b9 52bc 02a3 853d d0be bc3d 32e0 733e
00000030: 931b c23d 02f0 773e d757 5d3c 273b c6bc
00000040: a15b e2be 3de4 63be 672c 33be 0d40 10bf
00000050: 81e5 6dbd 00fa 9ebe 6b4c 623e 205a a6bd
00000060: bddb 7abe deb7 0abe 2e8f b6bd 94f1 193d
00000070: f237 7c3e a0dc 3abe f68a bf3e 0d94 a43d
00000080: c44f bf3e 9c78 083c 4a36 013e d4b0 f73d
00000090: 1a50 dfbd b4be 49bd 96c2 b03e 42b7 c5bc
000000a0: fad6 91be ce03 e13b 00f8 b53e 49dc 2d3e
000000b0: 1c02 85bd f755 2dbe 56e9 ebbe b9d8 15be
000000c0: 239c 0ebe 4954 d5bd ddc1 533e 7767 15b9
000000d0: 1b51 1f3e a552 0f3f f226 ea3d 46ce 0abe
000000e0: 3b09 4b3e be21 6abd 8883 a93e 23c9 4bbe
000000f0: e231 723e bdd3 93bc 3176 a2be 48c3 2fbe
00000100: ddfa 56bd 5648 3c3e 1d5c 18be ee1e bfbd
00000110: 2ef7 41be a511 cc3e a7a1 293e fef8 303e
00000120: c447 553e 37b2 be3c 10aa 2fbe d8ce fcbe
00000130: 6b9d 93be 6b90 71bf ecfe 99be 3aad 0f3d
00000140: f3f9 e9be 4c3c e6be 1447 b1be a877 8a3e
00000150: 6826 af3d 597d 143e 47b9 f2be 0ae3 183d
00000160: e456 313e 20e0 06be 1ca0 c5bc ebb8 0fbe
00000170: d86c 01be c3ef 14bd 885c a73e 42d0 923c
00000180: 791b af3d 3937 783c 8287 dd3d 9a8e 0fbd
00000190: 14dc 2abe 574e bfbe 525d 85be d037 adbd
000001a0: 1495 933d 1418 42be 6195 86be 6805 203f
000001b0: e0b8 443e 7b44 afbe d530 8e3e 682a 693e
000001c0: 4281 80be 72b2 8dbd 89e2 e43d f1b8 4fbe
000001d0: 21af f4bd c9b8 193d 61b0 b13d 1053 17be
000001e0: 7e0b 433e 2f7e cd3e d0f4 203e 2ba6 ffbd
000001f0: d58e 73be a3c7 02bf 9d07 d4be cb8a b0be
00000200: 96ad cbbe 811a 50be 5ec2 533e ba8c ac3e
00000210: 14f4 333e 8ca8 b73d 0cb7 d0be d15c f9bd
00000220: 98f6 2d3d ad00 183e 1258 8abd 3b4f eebd
00000230: b8eb cabe 5392 c4bd 6140 053e 5d56 913d
00000240: 7580 753e a1a7 f1be 6ef7 873e ba04 a0bd
00000250: 84e1 a5bc 863a 9bbd 324e a93e cebb 24be
00000260: 6adf 243e 75e9 363d 49d8 203d 1cc2 bbbe
00000270: 503d 39be 488e 1bbf 2199 6fbc 154e e8be
00000280: ca53 ab3d 9a2b 093e 36d7 c9be baed fb3d
00000290: 5d7a afbe 610c 35be 6daf 673e 0a4a a9bd
000002a0: 6b09 2a3d d8fc 8dbc 0291 77be 26d1 f8bd
000002b0: b5aa 983e 9546 25bd d3a2 963d f5e3 81be
000002c0: 6714 ec3e 1d4d f13d 2fcc 60be dd77 df3d
000002d0: 3ec0 1dbe 01dd f0be b2e1 78be 79b4 43bf
000002e0: 6fbf d3be 1aec eebe cb66 963d 1b50 8d3d
000002f0: 21ac e43d a779 1b3d 48cc 033e 57f0 8ebe
00000300: 5954 d9be 9a6d f43d cedc aebd 03cd 323c
00000310: 61a5 2c3e 4976 0f3e 88a0 b6bd 2d5e a6bd
00000320: 412a 5cbe 28d9 f1be ce03 72bf 58b9 81bf
00000330: bb0a eebe 8c87 253e f41b 513e b8c0 e93e
00000340: 23ba 4cbe 35ff a83d d96f f2bd 063c e93d
00000350: 347d 3b3d f295 a33d 4f88 97bc 6639 9f3d
00000360: 4eeb 923d e8da 90bc e7a5 f9be 79bb 36be
00000370: 3f09 0abe 4387 3c3c 988b 37be cffb 233d
00000380: 7de8 00bf dca5 833d ea75 94bc e359 1bbf
00000390: 3c58 983d ed9d a9bc f73a 263e 2847 0d3e
000003a0: 0399 c23e cee1 a73d 68e0 94be 3d40 1e3d
000003b0: 8688 a83d c0bd d23c 8f6a 6b3b d8aa ae3c
000003c0: 2bb6 f43b 9adb 973d 8b61 803d 8534 efbd
000003d0: 0508 5dbe 179a 73be 80b9 80be b75c 48be
000003e0: c3f2 4bbe ec78 d1be b799 debe beaa 613c
000003f0: 3447 0ebf 8f00 3dbe 254b 18be 8e1d dfbe

bias f4 [128]
0.01297839 -0.07178779 -0.12852637 0.104651555 -0.068511434 0.16613427 0.16331124 0.17323214
0.13044886 0.1423419 -0.18361562 0.2643839 0.08726209 -0.060864292 0.07098753 0.2343281
0.07642076 0.09018636 -0.05541635 0.073153965 -0.009533515 0.035135213 -0.10971574 0.028996198
-0.11950196 -0.012739003 -0.06820895 -0.03667055 0.074009575 0.094160184 -0.23017962 -0.026951913
0.028074302 0.0874221 0.061632525 0.00086206984 0.15126467 -0.040556557 0.14302391 0.047692604
0.14328837 0.28168625 0.0035147402 -0.038968846 -0.06562382 0.24791843 -0.24541225 0.05856139
0.13660346 0.06690181 0.08114148 0.0902655 0.09219781 -0.14038558 0.10550857 0.0322975
-0.03196758 -0.038647696 0.051186457 0.29730478 -0.043155693 0.067853875 0.14403434 0.0825443
-0.033323728 -0.052646752 0.064024575 0.11448907 -0.12953953 0.07685137 0.20022392 -0.26014885
0.10000181 0.07610526 -0.03434547 -0.2082818 0.016567057 0.10126673 -0.0294002 0.24656935
0.17729099 0.15721513 0.15161306 0.17742775 -0.1584367 0.03732138 -0.0018841637 -0.054538213
0.115577444 0.108152814 -0.0039753863 0.051814683 -0.100564785 0.1596458 -0.0033173745 0.05916625
0.078955196 -0.04456038 0.07957737 -0.28501734 -0.13915245 0.13478749 0.11785155 0.0003248564
0.09341906 0.022385253 0.023006378 -0.048826464 -0.043369 0.085352734 0.16296886 0.36786684
0.24775535 0.14410333 0.065423906 0.074801475 0.058296338 0.057227764 0.01188158 0.051993083
0.028839268 0.08336649 0.059073277 0.07802041 0.10820847 0.034628313 0.12287623 0.08180741
00000000: 50a3 543c 7a05 93bd 6b9c 03be 8e53 d63d
00000010: b94f 8cbd 1a1f 2a3e 103b 273e c463 313e
00000020: 6394 053e 13c2 113e bc05 3cbe 545d 873e
00000030: 77b6 b23d d64c 79bd e961 913d b5f3 6f3e
00000040: 7d82 9c3d a0b3 b83d 41fc 62bd bfd1 953d
00000050: 7632 1cbc f1e9 0f3d a5b2 e0bd 6f89 ed3c
00000060: 72bd f4bd 40b7 50bc 22b1 8bbd dc33 16bd
00000070: 5592 973d 0ed7 c03d 35b4 6bbe 42ca dcbc
00000080: 14fc e53c 5c0a b33d 6372 7c3d 87fc 613a
00000090: 20e5 1a3e a21e 26bd dc74 123e 5259 433d
000000a0: 30ba 123e 2e39 903e 8e57 663b cc9d 1fbd
000000b0: c865 86bd 54de 7d3e 594d 7bbe 11de 6f3d
000000c0: c7e1 0b3e d103 893d 812d a63d 1edd b83d
000000d0: 35d2 bc3d 3dc1 0fbe e114 d83d 624a 043d
000000e0: 70f0 02bd 0c4d 1ebd e4a8 513d 5538 983e
000000f0: 06c4 30bd f9f6 8a3d bd7d 133e fc0c a93d
00000100: 767e 08bd 1fa4 57bd 511f 833d 3f79 ea3d
00000110: 03a6 04be 4064 9d3d 8007 4d3e 3b32 85be
00000120: c0cd cc3d 13dd 9b3d d6ad 0cbd d347 55be
00000130: a3b7 873c ee64 cf3d b0d8 f0bc ad7c 7c3e
00000140: c58b 353e 01fd 203e 7440 1b3e 9faf 353e
00000150: 3b3d 22be 4ede 183d 0bf6 f6ba 7663 5fbd
00000160: deb3 ec3d 397f dd3d f543 82bb a23b 543d
00000170: e9f4 cdbd 307a 233e 4f68 59bb 4f58 723d
00000180: 43b3 a13d f284 36bd 76f9 a23d cbed 91be
00000190: fb7d 0ebe bb05 0a3e 275c f13d 7d51 aa39
000001a0: 7e52 bf3d 4761 b73c df77 bc3c 42fe 47bd
000001b0: b1a3 31bd 6acd ae3d 4fe1 263e 0b59 bc3e
000001c0: 94b3 7d3e d38f 133e f8fc 853d 8431 993d
000001d0: 24c8 6e3d a967 6a3d f5aa 423c b3f6 543d
000001e0: 5440 ec3c 0dbc aa3d d2f6 713d 2ac9 9f3d
000001f0: 679c dd3d 6bd6 0d3d 88a6 fb3d a58a a73d

weight f4 [128, 127]
0.053001672 -0.031998195 -0.18135323 -0.572034 -0.44540212 -0.16529143 0.056910437 -0.04360673
0.106505744 0.06999628 0.10421229 0.14500882 -0.23372479 0.12291625 0.35846272 -0.49788117
-0.12995209 0.092748664 -0.0066338843 -0.24815315 0.021003522 -0.004177371 -0.02903285 -0.014428164
0.10339838 0.008655459 -0.09738619 0.013665218 0.047252428 0.04020166 0.35485426 0.027687134
0.21506447 0.0011217991 -0.109802835 -0.23348472 0.06378043 -0.24626295 -0.31629446 0.1111279
0.19058195 -0.1504934 -0.3840595 -0.34322256 -0.16852364 -0.0065667736 -0.24172567 -0.11102362
-0.30904704 -0.14858033 0.11721224 -0.15750757 0.12816018 -0.07935679 -0.11162659 0.12800741
-0.08146446 0.03454968 0.06201174 -0.20624608 -0.14629827 -0.09760113 -0.52902716 -0.25080678
0.060860448 0.12367986 0.038208157 0.11286027 -0.26995376 -0.6213996 -0.33872738 -0.06644048
0.14730936 -0.05380418 -0.15701686 -0.14799756 -0.16230887 -0.010808814 0.1255765 0.07620284
-0.024190601 -0.11979313 -0.12615028 0.14439707 0.16078036 -0.2734257 -0.29724067 0.066787705
-0.102202125 0.14427258 -0.03766819 -0.07083552 0.14098673 -0.0683584 0.011345535 -0.067751914
-0.0109134205 -0.16250369 0.049701817 -0.026571257 -0.09205667 -0.17010045 -0.46035674 -0.062438987
0.24630675 -0.19699568 -0.3211594 -0.06280973 -0.0077998783 0.062192775 0.12570184 0.023376271
0.09426116 0.21391794 0.12415006 0.14265175 0.24234161 0.12667021 -0.00063620385 0.12304632
-0.43907586 -0.1984702 -0.15697467 0.06945224 -0.1893759 -0.05569496 0.062601775 0.08130837
-0.06406769 -0.14108571 -0.310038 -0.08809294 -0.18875588 -0.43146887 -0.11953073 0.061610773
0.058911566 -0.05512348 0.080433644 -0.14522257 -0.04685679 0.043171342 -0.16050105 0.024838643
-0.036543153 0.11291359 0.21408813 -0.14823245 0.057725932 -0.1662838 -0.21861094 0.032666054
-0.10081699 -0.19100957 0.024806023 -0.047992643 -0.07191854 0.2481747 0.037102498 0.15123571
0.08160464 -0.17940131 0.06707725 0.14583693 -0.1790595 -0.18465069 -0.08909747 0.045957044
-0.16187203 -0.22202386 -0.23515764 -0.36910948 -0.3580919 -0.42385095 -0.18618749 -0.32706407
-0.042339355 0.092967674 -0.08729475 -0.018552572 -0.24308048 0.14741428 -0.012382503 -0.0046511916
0.09049372 -0.03592068 -0.27182558 -0.2631742 -0.16169824 -0.2649375 -0.09777046 0.10433864
0.11491661 -0.09309553 -0.41232494 -0.1235185 -0.08956504 -0.3864511 0.012684161 0.13313402
0.030178785 0.12157385 0.049977634 0.0063628573 0.04061433 0.098411575 -0.14188278 -0.059368238
-0.19310954 -0.20379215 -0.23894875 0.25081256 -0.048935298 -0.49437204 -0.12491287 -0.047880217
0.09892525 -0.01737167 0.09675211 -0.028427146 -0.019386629 -0.11674673 -0.3972345 -0.28987008
-0.3538821 0.14851058 0.16024123 -0.104048185 0.1063822 0.005158028 -0.26765835 0.15137929
0.062064942 -0.45222124 -0.5677252 -0.01893603 0.15348187 0.15843037 -0.018040836 0.23669994
0.16234554 0.05814118 -0.013841884 0.09066227 0.103272885 0.065257885 0.067108974 -0.32664394
-0.34171137 -0.3996034 0.14155729 0.0146302385 -0.09118923 0.09077411 0.0037259248 -0.30403817
00000000: 4818 593d 8a10 03bd a9b4 39be d270 12bf
00000010: bf0b e4be 2842 29be eb1a 693d f89c 32bd
00000020: af1f da3d 365a 8f3d 416d d53d 317d 143e
00000030: 8d55 6fbe 84bb fb3d 6d88 b73e 48ea febe
00000040: 2912 05be 03f3 bd3d 0e61 d9bb dc1b 7ebe
00000050: 940f ac3c 54e2 88bb 4dd6 edbc 1b64 6cbc
00000060: 88c2 d33d a0cf 0d3c 6972 c7bd 14e4 5f3c
00000070: c38b 413d 7faa 243d 75af b53e 21d0 e23c
00000080: dc39 5c3e 5509 933a 4fe0 e0bd 9e16 6fbe
00000090: 509f 823d 5b2c 7cbe 59f1 a1be 0697 e33d
000000a0: ea27 433e f11a 1abe 72a3 c4be deba afbe
000000b0: 7691 2cbe 172e d7bb ef86 77be 5a60 e3bd
000000c0: 6a3b 9ebe 7125 18be f90c f03d aa49 21be
000000d0: 6c3c 033e d085 a2bd 7b9c e4bd 6014 033e
000000e0: d7d6 a6bd f783 0d3d 0600 7e3d 2c32 53be
000000f0: 37cf 15be 1ae3 c7bd 536e 07bf bf69 80be
00000100: ce48 793d de4b fd3d 2880 1c3d 4923 e73d
00000110: 6137 8abe 0b14 1fbf ad6d adbe f211 88bd
00000120: 44d8 163e c661 5cbd 07c9 20be ac8c 17be
00000130: 4c34 26be 7417 31bc 2097 003e 3c10 9c3d
00000140: 5e2b c6bc 1a56 f5bd 8a2d 01be d3dc 133e
00000150: 9ba3 243e 74fe 8bbe ee2f 98be fec7 883d
00000160: 594f d1bd 31bc 133e f649 1abd 3712 91bd
00000170: d35e 103e 7dff 8bbd 9fe2 393c 84c1 8abd
00000180: 34ce 32bc 5e67 26be 2294 4b3d f7ab d9bc
00000190: 3588 bcbd d02e 2ebe e1b3 ebbe 06c0 7fbd
000001a0: d637 7c3e 3cb9 49be 016f a4be 63a2 80bd
000001b0: 1f96 ffbb dabd 7e3d fcb7 003e 987f bf3c
000001c0: ff0b c13d 4e0d 5b3e 6342 fe3d 4d13 123e
000001d0: 6628 783e d6b5 013e ebc6 26ba b6ff fb3d
000001e0: 8dce e0be c63b 4bbe f8bd 20be fa3c 8e3d
000001f0: c2eb 41be 6620 64bd 5c35 803d 0185 a63d
00000200: ec35 83bd c678 10be 4dbd 9ebe 126a b4bd
00000210: 3949 41be 7de9 dcbe 87cc f4bd 945b 7c3d
00000220: 414d 713d 28c9 61bd 65ba a43d 3ab5 14be
00000230: e8ec 3fbd 6fd4 303d 635a 24be 697a cb3c
00000240: 46ae 15bd 3e3f e73d eb39 5b3e 3fca 17be
00000250: 0772 6c3d 4d46 2abe 8cdb 5fbe d7cc 053d
00000260: 2379 cebd 0398 43be 0036 cb3c ef93 44bd
00000270: 074a 93bd 8221 7e3e caf8 173d 89dd 1a3e
00000280: 5520 a73d fab4 37be cc5f 893d 4756 153e
00000290: 605b 37be 1215 3dbe bc78 b6bd 743d 3c3d
000002a0: c8c1 25be 395a 63be 2acd 70be ebfb bcbe
000002b0: d257 b7be fe02 d9be efa7 3ebe f174 a7be
000002c0: 086c 2dbd d665 be3d 97c7 b2bd 90fb 97bc
000002d0: 17ea 78be c5f3 163e fbdf 4abc 0669 98bb
000002e0: c554 b93d 9021 13bd b92c 8bbe c5be 86be
000002f0: 3994 25be e3a5 87be e13b c8bd 7faf d53d
00000300: 6659 eb3d dfa8 bebd 411c d3be 44f7 fcbd
00000310: e06d b7bd ebdc c5be 3ad1 4f3c 4954 083e
00000320: 8039 f73c b6fb f83d 59b5 4c3d 847f d03b
00000330: 365b 263d 028c c93d b849 11be 1c2c 73bd
00000340: 82be 45be e4ae 50be fbae 74be 816a 803e
00000350: 6170 48bd 551e fdbe 52d2 ffbd 0c1e 44bd
00000360: 5299 ca3d 084f 8ebc f825 c63d 0ce0 e8bc
00000370: b5d0 9ebc e918 efbd 5262 cbbe da69 94be
00000380: 0930 b5be 2813 183e 4716 243e 3717 d5bd
00000390: e9de d93d ad04 a93b 840a 89be 2c03 1b3e
000003a0: cf37 7e3d 8b89 e7be 7056 11bf bc1f 9bbc
000003b0: 5a2a 1d3e 923b 223e 60ca 93bc 7861 723e
000003c0: e93d 263e 7225 6e3d 12c9 62bc 24ad b93d
000003d0: bc80 d33d eda5 853d 6e70 893d e03d a7be
000003e0: cbf4 aebe d198 ccbe 65f4 103e abb3 6f3c
000003f0: 6bc1 babd c7e7 b93d a52e 743b e4aa 9bbe
