nn/checkpoints/main_material/3/model_0.pt (torch, 451231 bytes, 98 tensors)

weight f4 [8, 5, 3]
0	0xbe179e33	-0.14806442
1	0x3c8c5322	0.017129485
2	0xbe2dd1fb	-0.16974632
3	0x3e2720c8	0.16321099
4	0xbdbbb78a	-0.09165867
5	0xbc69068b	-0.014222751
6	0xbe61ca7b	-0.22049896
7	0xbe37bc57	-0.1794294
8	0xbd9b7117	-0.075899296
9	0xbd8e0eca	-0.069364145
10	0x3e162cae	0.14665481
11	0xbd75edce	-0.06004124
12	0x3d086323	0.03329767
13	0xbd158444	-0.03650309
14	0x3e39da0c	0.18149585
15	0x3e1692bf	0.14704417
16	0xbd8f7da6	-0.070063874
17	0xbe722905	-0.2364846
18	0xbe2c5ce4	-0.1683231
19	0xbcbdbdc4	-0.023161776
20	0x3d27d72b	0.040976685
21	0xbe1b9c03	-0.15196232
22	0x3e2d9673	0.16951923
23	0xbcc110d7	-0.0235676
24	0xbdde588e	-0.10856734
25	0xbe2caed5	-0.16863568
26	0xbe1ed7b9	-0.15511979
27	0x3d7a8a89	0.061167274
28	0xba8a2925	-0.0010540826
29	0xbb049d28	-0.0020235274
30	0xbe7637d9	-0.24044742
31	0x3d31c138	0.04339716
32	0xbe17b4e2	-0.14815095
33	0xbe8174ee	-0.25284523
34	0xbe04d18d	-0.12970562
35	0xbd937286	-0.07199578
36	0x3e223e39	0.15844049
37	0xbe248149	-0.16064943
38	0x3e605aa4	0.21909577
39	0xbcf16407	-0.029466642
40	0xbde0c073	-0.10974207
41	0x3deb4b3b	0.114889584
42	0x3de6f3c2	0.11276962
43	0xbddaba4a	-0.10680063
44	0xbceb0bb4	-0.028692104
45	0xbdab8642	-0.08375217
46	0xbc601d9e	-0.013678936
47	0x3dfe0e31	0.124050505
48	0xbe0cf954	-0.13766986
49	0x3d94be45	0.072628535
50	0xbd67cbd6	-0.056590877
51	0x3e053730	0.13009334
52	0xbe53727f	-0.20649146
53	0xbdf1a330	-0.11798704
54	0x3d86fed9	0.06591577
55	0xbe5fb640	-0.21846867
56	0x3e0272c5	0.12739094
57	0x3d4dc8cb	0.05024032
58	0x3d62b8d8	0.055352062
59	0xbe3e123a	-0.1856164
60	0x3d827bad	0.063712455
61	0x3d0f0f67	0.0349268
62	0xbcb9b8df	-0.022671161
63	0x3da2c9cd	0.07948647
64	0x3e64a221	0.22327472
65	0xbe4f6bfc	-0.20256037
66	0x3d1b0314	0.037844732
67	0xbe25ddc7	-0.16197883
68	0x3cfa9b2b	0.030591568
69	0xbe247855	-0.16061528
70	0x3d98a371	0.07453049
71	0x3e850c66	0.25986022
72	0x3d621035	0.055191237
73	0x3de17cf6	0.110101625
74	0x3e7baed9	0.24578418
75	0x3e6c3833	0.23068313
76	0xbe0292d3	-0.12751321
77	0x3e3629ed	0.17789431
78	0x3c8555ae	0.016276207
79	0xbcc49dec	-0.024001084
80	0xbe0efd7f	-0.13963889
81	0xbd40aa52	-0.04703743
82	0x3e1285d0	0.14308858
83	0xbe1455d8	-0.14485872
84	0x3e3fb4e9	0.18721355
85	0xbe6b7bd1	-0.22996451
86	0xbe2f3fd7	-0.17114197
87	0x3de8d6d7	0.113691024
88	0x3e3d5c7d	0.18492313
89	0x3e11f2ec	0.14252824
90	0xbc22ae80	-0.009929299
91	0xbe029ce3	-0.1275516
92	0x3e6a38cb	0.22873227
93	0xbb81e37b	-0.0039638854
94	0x3e2d0691	0.16897036
95	0x3d121d04	0.035672203
96	0xbe2bd5e5	-0.16780813
97	0x3db5e746	0.088820025
98	0x3e3997bf	0.18124293
99	0x3e4f45e9	0.20241512
100	0x3d07595b	0.0330442
101	0xbe19f0b8	-0.15033233
102	0xbded2e0c	-0.11581048
103	0xbdf76e9f	-0.12081646
104	0xbbe3caab	-0.00695165
105	0x3e65faac	0.22458905
106	0xbdb73932	-0.08946456
107	0xbe577306	-0.21039972
108	0xbe717d5e	-0.2358298
109	0x3e80cbae	0.25155395
110	0xbe5c7cdc	-0.21532005
111	0x3d9d5e8a	0.076840475
112	0x3e2a08b5	0.16604884
113	0x3ca7f388	0.020501867
114	0xbe48dd42	-0.19615653
115	0xbe433fd4	-0.19067317
116	0x3e054a4e	0.13016626
117	0x3e005202	0.12531283
118	0x3d5cb97d	0.053887833
119	0x3ca425f2	0.020037625

bias f4 [8]
0	0x3df42169	0.11920435
1	0x3e27cfde	0.16387889
2	0x3de106ff	0.109876625
3	0x3e0a4a68	0.13504946
4	0xbe55aa4d	-0.20865746
5	0xbe82ebdd	-0.25570574
6	0x3dccbad0	0.09996569
7	0xbe5d522c	-0.21613377

weight f4 [8]
0	0x3f7f567e	0.9974135
1	0x3f7e15fc	0.99252295
2	0x3f7ec05b	0.9951226
3	0x3f804d40	1.0023575
4	0x3f7fec2b	0.9996974
5	0x3f806e5d	1.003368
6	0x3f7fcef8	0.99925184
7	0x3f7fb805	0.99890167

bias f4 [8]
0	0xbb21bd9b	-0.0024679664
1	0xbbce9739	-0.0063046482
2	0x3a1eba26	0.000605496
3	0x3bad9e99	0.0052984473
4	0x3a0b9a78	0.0005325447
5	0xba90641d	-0.0011016164
6	0x3ac8e8b4	0.001532814
7	0xbbf658a1	-0.0075178896

running_mean f4 [8]
0	0xbdabb7bf	-0.08384656
1	0xbde54e59	-0.11196584
2	0xbdfd58cd	-0.12370453
3	0xbd1d5650	-0.038412392
4	0x3d9052a4	0.070470124
5	0xbd9e8db1	-0.07741869
6	0x3e0868cf	0.13321231
7	0xbe2d90d3	-0.16949777

running_var f4 [8]
0	0x3f19a7da	0.60021746
1	0x3f378753	0.71690863
2	0x3f2d4f70	0.67699337
3	0x3f02aec8	0.51047945
4	0x3f2e8c4d	0.6818283
5	0x3eec9c0d	0.46212807
6	0x3edcacfd	0.4310073
7	0x3ed6a070	0.4191928

weight f4 [8, 8, 3]
0	0x3d3dda4b	0.04635076
1	0x3e20d8d6	0.15707716
2	0xbe0ab658	-0.13546121
3	0x3b8c8c91	0.0042892178
4	0xbe50ab49	-0.2037784
5	0x3d8dd457	0.06925266
6	0xbcc05ec9	-0.023482697
7	0xbe469056	-0.19390997
8	0xbe0c33aa	-0.13691583
9	0xbdca4d09	-0.098779745
10	0x3debd41b	0.11515065
11	0xbd7cd6e8	-0.061728388
12	0x3da73f7d	0.08166406
13	0xbe2bbf56	-0.16772208
14	0x3e385c0d	0.18003865
15	0x3df2c5ac	0.11854109
16	0x3d34273a	0.043982722
17	0x3e1f33ce	0.15547106
18	0x3bb9a71a	0.005665672
19	0xbe382ca7	-0.17985784
20	0xbd9ac1a0	-0.07556462
21	0xbe13b666	-0.14425048
22	0xbc66576f	-0.014058932
23	0xbe11de9a	-0.14245072
24	0x3dcf6b97	0.10127943
25	0x3dc7e732	0.09760894
26	0x3db30bb6	0.08742468
27	0xbe2a2e57	-0.1661924
28	0xbdca3021	-0.09872461
29	0x3da092fc	0.07840535
30	0xbdf0551d	-0.11734984
31	0xbd866005	-0.06561283
32	0xbe0b9f87	-0.13635074
33	0xbe1d26ce	-0.15346834
34	0xbcff4c74	-0.031164385
35	0xbdc68e1d	-0.09695075
36	0x3d187fef	0.037231382
37	0x3bbe688a	0.005810802
38	0xbde532ab	-0.11191305
39	0x3e56cc61	0.20976402
40	0x3d9b3af5	0.075796045
41	0xbe2f2c4e	-0.17106745
42	0xbe310391	-0.17286517
43	0x3d68a739	0.0568001
44	0xbe50dbdc	-0.2039637
45	0x3d259dfb	0.040433865
46	0xbdc09e58	-0.09405202
47	0x3e2731d2	0.16327599
48	0xbd91b8fc	-0.07115361
49	0xbd53212d	-0.05154531
50	0xbe4919c8	-0.19638741
51	0x3e19b0d0	0.15008855
52	0x3e005f30	0.12536311
53	0x3cc33190	0.023827344
54	0xbe4c242d	-0.19935675
55	0x3cebd15f	0.02878636
56	0x3e12e74e	0.14346048
57	0xbe40d0a7	-0.18829595
58	0x3da73cbb	0.0816588
59	0x3e1cb248	0.15302384
60	0x3d3b17e5	0.045677084
61	0xbe03aad0	-0.12858129
62	0xbcce32b9	-0.02517067
63	0x3d2208bb	0.039559107
64	0x3e4d6599	0.20058288
65	0xbd5fc4c8	-0.054631025
66	0x3ddbe586	0.107371375
67	0x3d39f412	0.04539878
68	0x3dedda10	0.11613858
69	0xbe11e57f	-0.14247702
70	0x3e23091f	0.15921448
71	0x3e2d385b	0.16916029
72	0xbe0bf82e	-0.13668892
73	0x3e428419	0.18995704
74	0x3d78fc94	0.060787752
75	0x3d35988e	0.04433494
76	0x3e2ae400	0.16688538
77	0xbd666c2a	-0.056255497
78	0x3e10b7bf	0.14132594
79	0xbd80531b	-0.06265851
80	0x3dcaafef	0.09896838
81	0x3e42b71c	0.19015163
82	0x3e1039c4	0.14084536
83	0x3da00ed4	0.07815328
84	0x3d73eddb	0.05955301
85	0x3d9254f2	0.07145108
86	0xbe1fb357	-0.15595756
87	0xbdd58034	-0.104248434
88	0xbd93b256	-0.07211749
89	0xbe256cc7	-0.16154777
90	0xbdeb6def	-0.114955775
91	0x3e4bf5eb	0.19918029
92	0xbbe45530	-0.006968163
93	0x3e1931ba	0.14960375
94	0x3d461331	0.048358146
95	0xbd388552	-0.04504902
96	0x3db7239b	0.08942338
97	0xbd988641	-0.07447482
98	0x3d0cf165	0.0344099
99	0xbd06e903	-0.03293706
100	0xbe342c43	-0.1759501
101	0x3d497476	0.04918333
102	0xbcada300	-0.021195889
103	0xbca63fad	-0.020294035
104	0x3daf55db	0.085612975
105	0x3e0ce9f7	0.13761126
106	0x3e504f53	0.2034276
107	0x3c738d80	0.014865279
108	0xbe45eb8f	-0.1932814
109	0x3e3ecefc	0.18633646
110	0x3e4b3a7c	0.19846529
111	0xbcc82309	-0.024430769
112	0x3e306da0	0.17229319
113	0x3caa873b	0.020816436
114	0xbb519b64	-0.003198349
115	0xbe182fd4	-0.14861995
116	0x3e13daf2	0.1443899
117	0xbdea7f0d	-0.11450014
118	0xbd178f1c	-0.037001714
119	0xbd289fb4	-0.04116793
120	0xbe1ca36d	-0.15296717
121	0xbe0bc591	-0.13649584
122	0x3e3cb06b	0.18426673
123	0x3dcbec9e	0.099572405
124	0x3c61ab87	0.013773805
125	0xbc2cd44c	-0.010548662
126	0x3e286ecc	0.16448516
127	0xbe2f8484	-0.17140394
128	0xbd7c1c8d	-0.061550666
129	0xbd121324	-0.035662785
130	0xbe303c52	-0.1721051
131	0xbe3f385c	-0.18673843
132	0xbb31d881	-0.0027137103
133	0xbc3ab0a6	-0.011394655
134	0x3e1fc861	0.15603782
135	0x3dde6f7e	0.10861109
136	0x3e50fa0b	0.20407884
137	0x3d05b89a	0.032646753
138	0xbcd179ad	-0.025570715
139	0x3dd23beb	0.10265335
140	0xbc36486b	-0.011125664
141	0xbdfadaaa	-0.12248738
142	0x3e178de7	0.14800225
143	0xbdc2b9b3	-0.095080756
144	0xbd563f88	-0.052306682
145	0x3e25b7b6	0.16183361
146	0x3d6e263c	0.058141932
147	0xbe1ea938	-0.1549424
148	0x3e15fcbf	0.14647196
149	0xbcd9d5f2	-0.026591275
150	0xbe238990	-0.15970445
151	0xbe1feae4	-0.15616947
152	0xbddacdeb	-0.10683807
153	0xbcdaa0b2	-0.026687954
154	0xbdf05549	-0.11735017
155	0xbe095516	-0.13411364
156	0x3db2ae8f	0.08724701
157	0xbe2589a1	-0.16165783
158	0xbdb17258	-0.086643875
159	0x3d930ab4	0.07179776
160	0x3e471866	0.19442901
161	0x3d4bc4cf	0.04974824
162	0x3e2a7c49	0.16648974
163	0xbdfc6373	-0.12323656
164	0xbded8db0	-0.1159929
165	0xbe434446	-0.19069013
166	0xbe211dc9	-0.15734018
167	0xbd64c1a3	-0.05584873
168	0xbdc18bca	-0.09450491
169	0xbe4200c4	-0.18945605
170	0xbd30caa2	-0.043161996
171	0xbdc59478	-0.09647459
172	0xbe394217	-0.18091618
173	0xbe2e27e0	-0.17007399
174	0xbdba2386	-0.09088807
175	0xbdb34d08	-0.08754927
176	0xbe1a01a8	-0.15039694
177	0xbddeaa34	-0.108723074
178	0x3ca1ccaa	0.019750912
179	0x3da1f751	0.079085
180	0xbd5ede46	-0.054411195
181	0xbe54dc94	-0.20787269
182	0x3d1560e9	0.036469374
183	0xba53bb7e	-0.000807695
184	0xbd524560	-0.051335692
185	0xbe1bc898	-0.15213239
186	0x3c379ccf	0.01120682
187	0xbe38fdd4	-0.18065578
188	0x3d53b27c	0.051683888
189	0xbe430753	-0.19045763
190	0x3e2f4fec	0.17120332
191	0xbc597a9b	-0.01327386

bias f4 [8]
0	0x3d39c026	0.045349263
1	0xbd58aaa3	-0.052897107
2	0x3e205dc5	0.1566077
3	0x3e4ecbc7	0.20194922
4	0xbcdb99cb	-0.026806733
5	0xbe420559	-0.18947352
6	0x3e18beeb	0.1491658
7	0xbdc05119	-0.09390468

weight f4 [8]
0	0x3f804b11	1.0022908
1	0x3f80370f	1.0016803
2	0x3f80fc2b	1.0076956
3	0x3f7eec29	0.995791
4	0x3f7f6498	0.9976287
5	0x3f7eec0f	0.99578947
6	0x3f80623c	1.0029979
7	0x3f7def62	0.99193394

bias f4 [8]
0	0x3bbf43bf	0.0058369334
1	0xbbc2ede9	-0.0059487713
2	0x3b272ef5	0.0025510166
3	0x3b1bcc73	0.0023772984
4	0xbb5c3c4a	-0.003360527
5	0x3bbe9ee1	0.0058172797
6	0x3b2293ab	0.0024807255
7	0xba760201	-0.0009384454

running_mean f4 [8]
0	0xbd52a627	-0.051427986
1	0xbe0e42eb	-0.13892715
2	0x3e36efc0	0.17864895
3	0x3e7a1120	0.24420595
4	0x3d544115	0.05181988
5	0xbdef9a73	-0.11699381
6	0xbd1d9e17	-0.038480844
7	0xbea7931f	-0.32729432

running_var f4 [8]
0	0x3ec438c9	0.38324574
1	0x3eddce8f	0.43321654
2	0x3ed243c4	0.41067326
3	0x3ed3625a	0.41285974
4	0x3ecf1ab8	0.40450072
5	0x3ef096f2	0.46990162
6	0x3ec7a3fd	0.389923
7	0x3ee55898	0.44794154

weight f4 [8, 8, 3]
0	0xbe4711ff	-0.19440459
1	0x3deed974	0.1166257
2	0x3a3fdb8d	0.00073187874
3	0xbd65d724	-0.056113377
4	0x3e139c3d	0.14415069
5	0xbe107657	-0.14107643
6	0x3e45dc14	0.19322234
7	0x3e53f103	0.20697407
8	0xbd923311	-0.071386464
9	0xbe36b885	-0.17843826
10	0x3e430573	0.19045047
11	0xbda38636	-0.07984583
12	0xbe3425de	-0.1759257
13	0x3c036ded	0.008021814
14	0xbddce330	-0.1078552
15	0xbdacc9bf	-0.084369175
16	0x3e19ce48	0.15020096
17	0x3d944056	0.072388336
18	0x3e05f26b	0.13080756
19	0x3de69062	0.112580076
20	0xbe47b87c	-0.19503969
21	0xbda4008f	-0.08007919
22	0xbe3d3c0d	-0.18479939
23	0x3e21de0a	0.15807357
24	0x3e29e5d4	0.16591579
25	0x3c4d9814	0.012548465
26	0xbd2493c7	-0.040179994
27	0x3df78d9e	0.12087558
28	0xbe4668ca	-0.19375911
29	0xbda1dd16	-0.07903497
30	0x3b81614a	0.0039483653
31	0x3e374fb1	0.17901494
32	0xbd7fe976	-0.062478505
33	0x3e2730d1	0.16327216
34	0x3de2597f	0.11052226
35	0xbd9f9615	-0.07792298
36	0xbe08dc3c	-0.13365263
37	0x3ce0fb6f	0.027463643
38	0x3e3b860f	0.18312858
39	0xbbf230dc	-0.0073910784
40	0x3cfd8a04	0.0309496
41	0xbe374d22	-0.17900518
42	0x3dd4f9a0	0.10399175
43	0x3cdfb48e	0.027307775
44	0xbca00c38	-0.019537076
45	0xbdea261c	-0.1143305
46	0x3e29a730	0.16567683
47	0x3e48f467	0.19624482
48	0x3df5fe3e	0.120113835
49	0xbe12d516	-0.14339098
50	0x3e3fbc0f	0.18724082
51	0x3d0088b4	0.03138037
52	0x3e53283a	0.20620814
53	0x3d3e2071	0.046417657
54	0x3dbaacfd	0.09115026
55	0xbe267209	-0.16254438
56	0xbbf8ca11	-0.0075924476
57	0xbcd8f646	-0.02648462
58	0xbe1d3672	-0.153528
59	0xbe143fcb	-0.1447746
60	0x3d854490	0.06507218
61	0xbd5d413e	-0.054017298
62	0x3d85f82a	0.06541474
63	0x3d2be7c7	0.041969087
64	0x3befd5ec	0.0073192026
65	0xbe0f4584	-0.13991362
66	0xbe2effed	-0.17089815
67	0xbd7ea798	-0.06217155
68	0x3dadb7a2	0.08482291
69	0xbd87efef	-0.066375606
70	0xbe3d3825	-0.18478449
71	0xbe07b8b5	-0.13254054
72	0x3dab722f	0.08371388
73	0x3d7e3a1e	0.062067144
74	0xbe331da2	-0.17491773
75	0xbdd106b5	-0.102063574
76	0x3d84d5d4	0.06486097
77	0xbe270f94	-0.16314536
78	0x3e383f9f	0.1799302
79	0x3d0c4152	0.03424198
80	0xbe12d9f1	-0.1434095
81	0x3e4c0dad	0.19927092
82	0x3dd5ffc0	0.10449171
83	0xbe050c20	-0.12992907
84	0xbdbaecc5	-0.091271915
85	0xbdd10ba3	-0.10207298
86	0xbdc41247	-0.095737986
87	0xbdcf79f3	-0.10130682
88	0x3de6574f	0.112471215
89	0xbdc7c386	-0.0975409
90	0xbe1f2d2a	-0.15544572
91	0xbb0f9ef8	-0.002191482
92	0xbe488e0c	-0.19585437
93	0x3e163c71	0.14671494
94	0xbda6e434	-0.08148995
95	0x3e4be2da	0.19910756
96	0xbc818630	-0.015811056
97	0xbcadbe2c	-0.021208845
98	0x3debcfa4	0.11514214
99	0x3da28c9d	0.07936976
100	0x3e13a2f6	0.14417633
101	0x3dee9ca6	0.11650972
102	0xbe1e262c	-0.15444249
103	0x3a5ec250	0.0008497583
104	0xbdfad1bf	-0.12247037
105	0x3dbc4d27	0.09194403
106	0x3c837ef0	0.01605174
107	0xbd366d9c	-0.044538125
108	0xbd7f71a5	-0.06236424
109	0xbdc32613	-0.095287465
110	0xbe1df6d0	-0.15426183
111	0x3d667e8b	0.056273025
112	0xbd198aaa	-0.037485756
113	0xbe51bb60	-0.20481634
114	0xbc99c1a9	-0.018769102
115	0x3ddd7530	0.10813367
116	0xbd85c9ec	-0.06532654
117	0xbe348282	-0.1762791
118	0x3e3294c2	0.17439559
119	0x3ca60840	0.020267606
120	0x3d8e410d	0.06946001
121	0x3e02892c	0.1274764
122	0x3e1bf476	0.15229973
123	0x3db1dee9	0.08685095
124	0x3e237244	0.15961558
125	0x3d895047	0.06704765
126	0x3e0329e0	0.12808943
127	0xbe0d1b05	-0.13779838
128	0x3e34cb72	0.17655733
129	0xbddbe641	-0.10737277
130	0x3d5f36cc	0.054495618
131	0x3d7e917e	0.06215047
132	0x3c8ee2f6	0.017442208
133	0xbc9ad565	-0.018900583
134	0x3e41b468	0.18916476
135	0xbe259516	-0.16170153
136	0x3db1de53	0.08684983
137	0x3c95cc5f	0.018285928
138	0x3c8b9ef6	0.017043572
139	0x3de610ef	0.112336986
140	0x3e2f24cc	0.1710388
141	0x3e1eef82	0.15521052
142	0xbe273e1b	-0.16332285
143	0xbd49767f	-0.049185272
144	0x3dfd3e77	0.1236543
145	0x3dc3c96d	0.09559903
146	0xbc1df5e5	-0.009641145
147	0xbe40f91a	-0.18845025
148	0xbd015710	-0.03157717
149	0x3d95bb16	0.073110744
150	0xbdb08970	-0.08619964
151	0x3e17827c	0.1479587
152	0xbe1ead0b	-0.15495698
153	0x3d140879	0.036140893
154	0xbd90132d	-0.070349075
155	0x3dd4b704	0.1038647
156	0xbdd50537	-0.10401385
157	0x3db1d681	0.086834915
158	0xbd926888	-0.07148844
159	0x3dff6a43	0.1247144
160	0x3d25bfd0	0.04046613
161	0x3d0f0cfd	0.034924496
162	0xbe4dc2f3	-0.20093898
163	0xbe3d9713	-0.18514661
164	0xbe1c4f76	-0.15264687
165	0x3d8f5481	0.0699854
166	0xbe0b3e95	-0.13598092
167	0x3e4cb4cf	0.19990848
168	0xbe460491	-0.1933768
169	0x3d923ae1	0.071401365
170	0x3df37dfc	0.11889264
171	0x3b8f5ee0	0.0043753237
172	0x3da01dc1	0.07818175
173	0x3dc6d84e	0.097092256
174	0x3e27972b	0.1636626
175	0x3e2c94e2	0.1685367
176	0x3df17ea4	0.11791733
177	0x3e32b1df	0.17450665
178	0x3d4cfa7e	0.050043575
179	0xbe32a30a	-0.17445007
180	0xbd79079f	-0.060798284
181	0xbd8d194c	-0.068895906
182	0x3ccc4cf3	0.024939036
183	0x3b435e3f	0.0029810814
184	0x3e104c6a	0.1409165
185	0xbe135faa	-0.14391962
186	0x3d09ef6a	0.03367559
187	0xbe38fb65	-0.1806465
188	0xbdeb757d	-0.114970185
189	0x3db19c1f	0.08672356
190	0xbe4850c0	-0.19562054
191	0xbe297925	-0.16550119

bias f4 [8]
0	0xbd095dd1	-0.033536736
1	0xbd27abcf	-0.040935334
2	0x3e1a352b	0.15059344
3	0xbd72765b	-0.059194904
4	0x3dbb92a2	0.09158827
5	0xbe1bcdf1	-0.15215279
6	0x3d49767c	0.04918526
7	0x3e240017	0.1601566

weight f4 [8]
0	0x3f80d0e2	1.0063746
1	0x3f80be3a	1.0058053
2	0x3f7f01e3	0.99612254
3	0x3f7fabb8	0.99871397
4	0x3f808e3d	1.0043408
5	0x3f7ee9eb	0.9957568
6	0x3f7ed153	0.99538153
7	0x3f805c7e	1.0028226

bias f4 [8]
0	0xbbaff0eb	-0.005369296
1	0xba2b3157	-0.00065304845
2	0xbbd1380f	-0.0063848565
3	0x3bfe1e80	0.0077551007
4	0x3c0bbcfe	0.008528946
5	0xbb9cf310	-0.0047897175
6	0xbb47e423	-0.003050097
7	0xbc072e63	-0.008250806

running_mean f4 [8]
0	0xbd0206aa	-0.031744637
1	0x3d80d66d	0.062908985
2	0xbb227451	-0.0024788568
3	0xbda9d1cc	-0.08291969
4	0x3cc47e35	0.023985961
5	0x3d94f9bb	0.07274195
6	0x3bfd8958	0.00773732
7	0x3dd737a8	0.105086625

running_var f4 [8]
0	0x3eda8f9e	0.42687696
1	0x3ecf9b50	0.40548182
2	0x3ed7e55d	0.42167178
3	0x3ef16f9f	0.47155473
4	0x3f05c4d1	0.52253443
5	0x3f197667	0.5994629
6	0x3ed1c107	0.4096758
7	0x3ed412e2	0.41420656

weight f4 [8, 8, 3]
0	0x3d671fef	0.05642694
1	0x3df1a6d0	0.11799395
2	0x3c3ae5f3	0.011407363
3	0xbaa12c9e	-0.0012296622
4	0x3da616f4	0.08109847
5	0xbe0ab391	-0.13545062
6	0x3de1f756	0.11033504
7	0xbde823fe	-0.1133499
8	0xbd989cf7	-0.07451814
9	0xbe46495c	-0.19363922
10	0x3d41fb7a	0.047358967
11	0x3cc8f751	0.024531992
12	0xbc929e7b	-0.017897835
13	0xbcd27289	-0.02568938
14	0xbd9868b5	-0.07441846
15	0xbdb3f1e0	-0.08786368
16	0x3e2a7b20	0.16648531
17	0xbd31e08e	-0.043427043
18	0x3ca26d0a	0.019827385
19	0xbccb4e35	-0.024817565
20	0xbdf7151d	-0.12064574
21	0xbdbd479d	-0.09242175
22	0x3e0823f1	0.1329496
23	0x3dfc4442	0.12317707
24	0xbccbbe24	-0.02487094
25	0xbe0200d9	-0.12695636
26	0xbe42eba9	-0.1903521
27	0x3c6fbd82	0.0146325845
28	0x3dd751de	0.10513662
29	0xbe33363f	-0.17501162
30	0x3bb1422c	0.0054094996
31	0xbe416750	-0.18887067
32	0xbcba2084	-0.022720583
33	0x3db9b974	0.090685755
34	0xbe1937ef	-0.14962743
35	0xbd07b65b	-0.033132892
36	0x3bbfc0cc	0.0058518406
37	0x3cbd3f4a	0.023101468
38	0x3d7c1255	0.06154092
39	0xbe199582	-0.14998439
40	0xbe0b9542	-0.13631156
41	0xbc4fe45e	-0.012688724
42	0xbe414e83	-0.18877606
43	0x3d053a1b	0.032526117
44	0xbd1faa0f	-0.03898054
45	0x3cb5a97d	0.022175545
46	0xbc04dff1	-0.008110032
47	0x3d7ae939	0.061257575
48	0xbcba2648	-0.022723332
49	0x3dece39a	0.11566849
50	0x3d621c17	0.05520257
51	0xbe47f22e	-0.19525978
52	0xbc8a4a5f	-0.016881166
53	0xbcb4e190	-0.022080213
54	0x3e527ec6	0.20556173
55	0xbdc6708f	-0.096894376
56	0x3e09948b	0.13435571
57	0x3d04f240	0.03245759
58	0x3e1d82da	0.15381947
59	0x3de1df8a	0.11028965
60	0x3e430d20	0.19047976
61	0x3df5d529	0.12003548
62	0xbd9d45a2	-0.07679297
63	0xbdaa75c5	-0.08323244
64	0xbe08e789	-0.13369574
65	0x3e38736a	0.18012777
66	0x3de307da	0.11085482
67	0xbdb84058	-0.089966476
68	0x3e40da54	0.18833286
69	0xbda83c45	-0.082146205
70	0x3d4d9094	0.05018671
71	0x3e28173f	0.16415118
72	0x3e2cd431	0.1687782
73	0x3de78fee	0.11306749
74	0xbdac40ba	-0.08410783
75	0xbd396e62	-0.045271285
76	0x3e4c24f4	0.19935971
77	0xbdc3b3ed	-0.095558025
78	0x3c9812f6	0.018563729
79	0x3e205fe0	0.15661573
80	0xbddfa554	-0.10920206
81	0xbe298447	-0.16554366
82	0xbe1701ef	-0.14746831
83	0xbe200200	-0.15625763
84	0x3e2641f3	0.16236095
85	0x3e2e9121	0.1704755
86	0xbb667e51	-0.0035170505
87	0x3d35685b	0.044288974
88	0xbd673f8d	-0.05645709
89	0xbe4103ae	-0.1884906
90	0x3dc2bae9	0.095083065
91	0x3dd91569	0.10599787
92	0x3e1d4aab	0.15360515
93	0x3db02678	0.08601087
94	0xbda897ec	-0.08232102
95	0xbda312e0	-0.079625845
96	0xbdaf60e1	-0.085634
97	0xbdfc0f15	-0.12307564
98	0x3bfc52a4	0.007700281
99	0xbe1d3197	-0.15350948
100	0xbe5003eb	-0.20313995
101	0xbd9e45d7	-0.07728165
102	0x3e417cf0	0.18895316
103	0xbdcbd5b7	-0.09952872
104	0xbdd95cf0	-0.106134295
105	0x3de35995	0.11101071
106	0x3d2a66a3	0.04160179
107	0x3da7ee6f	0.081997745
108	0x3df82691	0.12116731
109	0x3dc42215	0.09576813
110	0xbdf77b17	-0.120840244
111	0xbc2cada8	-0.01053945
112	0x3c8382fe	0.016053673
113	0x3e21f916	0.15817675
114	0xbd95a7e8	-0.07307416
115	0x3b379977	0.0028015056
116	0x3dbf12dd	0.0932977
117	0xbd1bb5c2	-0.038015135
118	0xbe3af5cb	-0.18257825
119	0x3e0ea7a7	0.13931142
120	0x3dd9d9a7	0.10637217
121	0x3e07d682	0.13265422
122	0xbe116feb	-0.1420285
123	0xbd86e5a7	-0.065867715
124	0xbdf37b2e	-0.11888729
125	0xbe37199b	-0.17880861
126	0x3dc980df	0.09839033
127	0x3df2bbc1	0.118522175
128	0x3d50ded3	0.05099375
129	0xbdc16ccb	-0.09444579
130	0xbd1b5dd7	-0.03793129
131	0xbd97c1a2	-0.074099794
132	0xbdd59e67	-0.104306035
133	0xbd8d614d	-0.06903324
134	0xbda546b5	-0.08070127
135	0x3d751e18	0.059843153
136	0xbd96a403	-0.073555015
137	0x3c946ee3	0.018119281
138	0xbc387462	-0.011258217
139	0x3e0e7bcf	0.13914417
140	0xbd991cd3	-0.07476201
141	0x3df9f54f	0.12204992
142	0x3db9edf2	0.090785876
143	0x3d8a9957	0.067675285
144	0x3d803f1a	0.06262036
145	0x3c9acef4	0.018897511
146	0x3dda0f54	0.10647455
147	0xbdb38825	-0.08766202
148	0x3ce0d28b	0.027444145
149	0x3db5e940	0.088823795
150	0x3d01690e	0.03159433
151	0xbd9d88a4	-0.07692078
152	0x3e120bec	0.1426236
153	0xbe47bcfe	-0.19505689
154	0x3da1fb8b	0.07909306
155	0xbcbf25a5	-0.02333338
156	0xbe20515b	-0.15656035
157	0xbd9aabf6	-0.0755233
158	0x3b45df19	0.003019279
159	0x3df25e76	0.11834423
160	0xbdb5b746	-0.08872847
161	0xbe434ecb	-0.19073026
162	0xbc5a3969	-0.013319352
163	0x3e117d27	0.14207898
164	0xbdeeba4b	-0.11656626
165	0x3daf2372	0.085516825
166	0x3dfec074	0.12439051
167	0x3e27b41b	0.16377299
168	0xbbc29fee	-0.0059394753
169	0x3e23f797	0.16012417
170	0xbd74545a	-0.059650756
171	0x3dadc2bc	0.08484408
172	0xbd875bfc	-0.066093415
173	0x3e39fe51	0.1816342
174	0xbd863e23	-0.065548204
175	0xbe0bcf1d	-0.13653226
176	0xbd56e7ba	-0.052467085
177	0xbdc80a9b	-0.09767648
178	0x3e42bb3e	0.1901674
179	0x3ce184a8	0.027529076
180	0x3d804a53	0.06264176
181	0xbe0bfae2	-0.13669923
182	0x3e29582b	0.1653754
183	0x3ded413e	0.115847096
184	0x3d829d34	0.0637764
185	0x3d0463e6	0.032321833
186	0xbdab1daf	-0.08355271
187	0x3bfe7d55	0.0077664056
188	0x3cc4314c	0.023949288
189	0xbe42d532	-0.1902664
190	0x3d665ba3	0.056239735
191	0xbe479a5f	-0.19492482

bias f4 [8]
0	0x3e3d3376	0.18476662
1	0xbde9e5fa	-0.11420818
2	0xbd4a662a	-0.049413837
3	0x3e3b1f38	0.18273628
4	0x3cfa614c	0.030563973
5	0x3e114fbf	0.14190577
6	0x3e0221dd	0.1270823
7	0x3e26b76d	0.16280909

weight f4 [8]
0	0x3f807aa1	1.0037423
1	0x3f807563	1.0035824
2	0x3f803e2b	1.0018972
3	0x3f7f8963	0.9981901
4	0x3f7e6779	0.99376637
5	0x3f80ece5	1.0072294
6	0x3f7f3f9f	0.99706453
7	0x3f7ecc06	0.99530065

bias f4 [8]
0	0x387924f2	5.9400634e-05
1	0x3b9dbc6c	0.0048137214
2	0x3c08d1af	0.008350774
3	0xbb18b3a9	-0.0023300445
4	0x3a7afc48	0.0009574336
5	0x3b2257ce	0.0024771574
6	0xbc13a86f	-0.009012326
7	0xbbf0deb7	-0.0073507684

running_mean f4 [8]
0	0x3dc65a5f	0.09685206
1	0xbe5db708	-0.21651852
2	0x3de0ad9b	0.109706126
3	0x3e0cd1f6	0.13751969
4	0x3c0a720a	0.008450041
5	0x3d876d1b	0.06612607
6	0x3dc0e827	0.094192795
7	0x3e01f801	0.12692262

running_var f4 [8]
0	0x3ec6594c	0.38740003
1	0x3f12bd28	0.5731988
2	0x3ed6e722	0.41973215
3	0x3ed14996	0.40876454
4	0x3ee87b6a	0.45406657
5	0x3ee106da	0.4395054
6	0x3ef4957e	0.47770303
7	0x3ec94aa4	0.3931476

weight f4 [8, 8, 3]
0	0xbe4c02e3	-0.19922976
1	0x3e3a5359	0.18195857
2	0x3e55f0f9	0.20892705
3	0xbe2b756f	-0.16744016
4	0xbd8afe79	-0.06786818
5	0x3e0cdf14	0.13756973
6	0x3e1622e8	0.14661753
7	0x3dc8f46f	0.09812247
8	0xbe0624b3	-0.13099937
9	0x3d8ef7c5	0.06980852
10	0x3e2eeba2	0.17082074
11	0x3dd94846	0.10609488
12	0xbe52cca3	-0.20585875
13	0xbdee5efb	-0.1163921
14	0x3e42233e	0.18958756
15	0x3e264609	0.16237654
16	0xbe4a9431	-0.19783093
17	0x3dfd233b	0.12360235
18	0x3d1e34f5	0.038624723
19	0xbe39357e	-0.18086812
20	0x3e51d108	0.20489895
21	0x3ca1d641	0.019755485
22	0x3d8d518c	0.069003195
23	0x3e20e0d3	0.15710764
24	0xbe3bddc1	-0.18346311
25	0xbe4386b3	-0.19094352
26	0x3d275a09	0.04085735
27	0x3d211275	0.039324243
28	0x3bb7c884	0.00560862
29	0x3d9e5189	0.07730395
30	0x3e00ca75	0.12577231
31	0xbe0451c9	-0.12921824
32	0xbde379cc	-0.11107215
33	0x3e34f01b	0.17669718
34	0xbda1b2cd	-0.07895432
35	0xbe36ff1d	-0.17870755
36	0x3d756033	0.059906196
37	0xbd991490	-0.07474625
38	0xbd3f59e8	-0.0467166
39	0xbe2bbc22	-0.16770986
40	0xbd3ddad3	-0.046351265
41	0xbe2d4775	-0.1692179
42	0x3a95cac8	0.0011428231
43	0x3da67f44	0.08129743
44	0xbe49a03e	-0.19690034
45	0xbe2e7a47	-0.17038833
46	0xbdfd07c4	-0.12354997
47	0x3db36fc7	0.08761554
48	0x3c94ea16	0.018178027
49	0xbe43db6c	-0.19126672
50	0xbe35425f	-0.177011
51	0xbda2f0e1	-0.079561
52	0x3da70fa9	0.08157284
53	0xbe22dcb8	-0.1590451
54	0x3daecccd	0.085351564
55	0xbd98e652	-0.07465805
56	0x3d8789ca	0.06618078
57	0xbbbbd9e9	-0.005732764
58	0xbdcf50f5	-0.10122863
59	0xbd4149ba	-0.04718945
60	0x3c33cfd3	0.010974842
61	0xbdb1b82b	-0.086777054
62	0xbe4410e0	-0.19147062
63	0xbe39bcfe	-0.18138501
64	0xbddcc86f	-0.10780417
65	0xbd3e2346	-0.046420358
66	0xbb6c80b4	-0.0036087455
67	0x3e10ecbb	0.14152806
68	0x3e523f5e	0.20531985
69	0x3dd532e2	0.10410096
70	0x3bbc35ba	0.0057437094
71	0xbe3c35a7	-0.18379842
72	0xbe1e2478	-0.15443599
73	0x3db87049	0.09005792
74	0x3dc0a640	0.0940671
75	0x3bbc4911	0.005746015
76	0xbe491181	-0.19635583
77	0xbdb24049	-0.08703668
78	0xbd06e8db	-0.032936912
79	0x3cc40ee3	0.02393288
80	0x3d8c45e9	0.06849272
81	0x3d964f78	0.07339376
82	0xbe1d75a3	-0.15376906
83	0x3e2be1c0	0.16785336
84	0xbdf0e20a	-0.117618635
85	0xbe34a0ef	-0.17639516
86	0xbe2f807d	-0.17138858
87	0x3ccddbc8	0.025129214
88	0x3db53c7a	0.088494256
89	0x3e4a1d88	0.19737828
90	0xbdf4b700	-0.11948967
91	0xbe30b69e	-0.17257163
92	0xbd400ad2	-0.04688532
93	0x3e2682a5	0.16260774
94	0xbd7b0fa9	-0.06129423
95	0xbd09d056	-0.03364595
96	0x3e21e229	0.1580893
97	0xbdcf769b	-0.10130044
98	0x3b3dffc5	0.0028991562
99	0xbd8955fd	-0.06705854
100	0xb900b3f1	-0.00012274065
101	0xbe1b11d1	-0.15143515
102	0xbe2b6f58	-0.16741693
103	0x3e098bfb	0.13432305
104	0xbdcb0f55	-0.09915034
105	0x3d7a2d2f	0.061078247
106	0xbdaef10d	-0.085420705
107	0x3d6d99d7	0.05800804
108	0x3e0afb3b	0.135724
109	0x3ccfe7a1	0.025379004
110	0x3e37530b	0.17902772
111	0x3e2af65b	0.1669554
112	0x3e3c2216	0.18372378
113	0x3e47fcb0	0.19529986
114	0x3def50e8	0.116853535
115	0x3dfa66e0	0.12226653
116	0x3e3c4f47	0.18389617
117	0xbd71e290	-0.059053957
118	0x3d7ac930	0.061227024
119	0x3d4beb22	0.049784787
120	0xbe26dc3f	-0.16294955
121	0x3e0e1450	0.13874936
122	0xbe3630ad	-0.17792006
123	0xbe0c8f59	-0.13726558
124	0xbe197746	-0.14986905
125	0xbd91f2d5	-0.07126395
126	0x3db47de9	0.08813078
127	0x3d6d30bf	0.057907816
128	0xbe256bba	-0.16154376
129	0x3e2b7d67	0.16747056
130	0xbe2509ce	-0.16117021
131	0x3c32afe4	0.010906193
132	0xbe05e9dc	-0.13077492
133	0x3d103802	0.035209663
134	0x3dbd0f02	0.09231378
135	0x3e4b7413	0.19868498
136	0xbe15a90b	-0.14615266
137	0x3da74854	0.08168092
138	0x3d0402f4	0.03222938
139	0x3e2ee784	0.17080504
140	0xbe38313e	-0.17987534
141	0x3e0b43c0	0.13600063
142	0xbe3e710d	-0.18597813
143	0xbe0bc4fd	-0.13649364
144	0x3e179451	0.14802672
145	0xbd93f597	-0.07224577
146	0xbe13d275	-0.14435752
147	0xbd89e97a	-0.06733985
148	0x3e14770d	0.1449854
149	0xbe2de69d	-0.16982503
150	0xbd4bd738	-0.049765795
151	0x3e4be228	0.1991049
152	0xbe1a8daf	-0.1509311
153	0x3dfedf16	0.12444894
154	0x3de16c9a	0.11007042
155	0x3e517fc9	0.20458902
156	0x3c390a40	0.011293948
157	0x3e2fe1d3	0.17175989
158	0xbe195440	-0.14973545
159	0x3d7f4ebf	0.062330958
160	0x3e2e23ef	0.17005895
161	0xbe145fae	-0.14489624
162	0xbe1e6c0d	-0.15470906
163	0xbd5f98ab	-0.054588955
164	0xbe2b66c3	-0.16738419
165	0xbda8ed28	-0.08248359
166	0x3d865b5a	0.06560393
167	0x3e1aa76a	0.15102926
168	0xbd8eb92f	-0.06968915
169	0x3d3b5322	0.04573358
170	0x3de00307	0.109380774
171	0xbe04fa39	-0.12986077
172	0xbe1b176a	-0.1514565
173	0xbe1619e4	-0.14658314
174	0xbdc66fd9	-0.09689302
175	0xbd6fc75c	-0.058539733
176	0x3e4efd4c	0.20213813
177	0x3dd57679	0.104229875
178	0xbcdc8708	-0.026919857
179	0x3d123804	0.035697952
180	0x3e00c2f5	0.1257437
181	0xbdbd6a72	-0.092488185
182	0x3d24ae87	0.040205505
183	0x3dd4a4c0	0.10382986
184	0x3dc7d314	0.09757057
185	0x3e1dcc06	0.1540986
186	0xbe4a40c6	-0.19751272
187	0xbdd4d754	-0.10392633
188	0x3c69eb9c	0.014277365
189	0x3e37e30e	0.17957708
190	0x3e2e9113	0.17047529
191	0x3ded8117	0.115968876

bias f4 [8]
0	0x3d26e136	0.04074212
1	0xbe19462d	-0.14968176
2	0x3d84b768	0.064802945
3	0x3e3056de	0.17220637
4	0x3d313560	0.043263793
5	0x3e13b146	0.14423093
6	0xbd811fac	-0.06304869
7	0xbca14185	-0.019684562

weight f4 [8]
0	0x3f7ec2a9	0.9951578
1	0x3f7f0cff	0.99629205
2	0x3f7de1e1	0.9917279
3	0x3f80e89c	1.0070987
4	0x3f806b84	1.0032811
5	0x3f7e2860	0.9928036
6	0x3f808ec9	1.0043575
7	0x3f7e33ed	0.9929798

bias f4 [8]
0	0xbba71bde	-0.0050997576
1	0x3c1e93ac	0.009678762
2	0xbb88c6d7	-0.004174094
3	0x3ba4b67d	0.005026637
4	0x3bf4aaea	0.0074666636
5	0xbc17e0ec	-0.009269934
6	0xb7fa14eb	-2.9812063e-05
7	0xbbe9fc7e	-0.007140695

running_mean f4 [8]
0	0x3e075531	0.13216092
1	0xbe7c2f05	-0.24627312
2	0xbda6c5b5	-0.081431784
3	0x3d031130	0.031998813
4	0x3e2cfa8b	0.1689245
5	0x3c04d121	0.008106501
6	0xbc9e38da	-0.019314218
7	0x3d2c60c1	0.04208446

running_var f4 [8]
0	0x3f203268	0.62576914
1	0x3f464954	0.7745564
2	0x3edb340e	0.42813152
3	0x3ec56442	0.38553053
4	0x3f316221	0.6929036
5	0x3ecf9460	0.4054289
6	0x3ee2078e	0.4414639
7	0x3ee7e789	0.45293835

weight f4 [8, 8, 3]
0	0xbe1cd53f	-0.15315722
1	0xbdd9e48a	-0.106392935
2	0x3dbb2623	0.091381334
3	0xbe2ebd62	-0.17064431
4	0x3d10a05b	0.035309177
5	0xbcace783	-0.021106487
6	0x3c03240a	0.008004198
7	0x3c972206	0.01844884
8	0x3a809d34	0.0009812475
9	0xbcfd578b	-0.030925533
10	0xbe28b1dc	-0.16474098
11	0x3ddc5642	0.1075864
12	0x3dc9cffe	0.098541245
13	0x3e48eeed	0.19622393
14	0xbde49a6b	-0.111622654
15	0xbd8edd54	-0.06975809
16	0x3e35f775	0.17770179
17	0xbe2ef90a	-0.17087188
18	0x3e0be6cf	0.13662265
19	0x3d927d60	0.0715282
20	0x3e0aab56	0.13541922
21	0x3dd791d6	0.10525863
22	0xbe41e20b	-0.18933885
23	0x3d8c47ce	0.06849633
24	0xbe370340	-0.17872334
25	0x3dc1db4b	0.09465655
26	0x3dc3686e	0.09541403
27	0x3cd54f18	0.026038691
28	0xbdcbb4b4	-0.09946576
29	0x3e3fcef8	0.18731296
30	0xbe1022c9	-0.1407577
31	0xbdcedc38	-0.10100597
32	0x3e2bb9c3	0.16770081
33	0xbdf63f1d	-0.12023757
34	0x3d3954e0	0.04524696
35	0x3d640611	0.055669848
36	0x3cffd108	0.031227604
37	0x3be442cd	0.006965971
38	0x3e13d6eb	0.14437453
39	0x3e169808	0.14706433
40	0xbd8c4e02	-0.06850816
41	0xbdc092d7	-0.094030075
42	0x3cb67eee	0.022277322
43	0x3db31ad8	0.087453544
44	0xba3c8146	-0.0007190894
45	0xbe162228	-0.14661467
46	0x3e42be1b	0.19017832
47	0xbd8fd8da	-0.07023783
48	0xbbaddbce	-0.005305744
49	0xbd2b6190	-0.04184109
50	0xbd8fc685	-0.070202865
51	0xbd4d4cde	-0.050122134
52	0xbb9cc438	-0.0047841333
53	0xbd9eb129	-0.07748634
54	0x3df9c0fe	0.121950135
55	0x3df63ee8	0.12023717
56	0xbd1e9425	-0.0387155
57	0x3d09eb87	0.033671882
58	0x3e3f1b2e	0.18662712
59	0x3e00b306	0.12568292
60	0x3e15de54	0.14635593
61	0xbe43c9b4	-0.19119912
62	0xbe49720e	-0.19672415
63	0x3e2aaee4	0.16668278
64	0xbe23ebaf	-0.16007875
65	0x3cccc37e	0.024995562
66	0xbcd72a3e	-0.02626526
67	0xbd3d7d37	-0.046261992
68	0xbe35aab7	-0.17740904
69	0x3e457a8f	0.19285034
70	0xbcbdc575	-0.023165444
71	0x3dcaf3d3	0.09909787
72	0x3d47052d	0.04858892
73	0x3d806286	0.06268792
74	0xbda80a53	-0.08205094
75	0x3ddeda45	0.10881475
76	0xbc3b78d6	-0.011442384
77	0xbe35f8c5	-0.1777068
78	0x3da6eb17	0.081503086
79	0xbcabc64a	-0.020968575
80	0x3d70c99a	0.058786012
81	0x3d32c56d	0.04364531
82	0x3e3a9ab7	0.18223082
83	0x3e38de6c	0.18053597
84	0xbc1c5558	-0.009541832
85	0xbd809286	-0.06277947
86	0x3d2c1422	0.042011388
87	0x3dc76c6a	0.09737475
88	0xbe320bd2	-0.17387322
89	0x3e48cc27	0.19609128
90	0xbd5ae96e	-0.053445272
91	0xbe1c1ed6	-0.15246138
92	0x3e0249f0	0.12723517
93	0xbe1b6de3	-0.15178637
94	0x3bc1ce38	0.005914476
95	0xbcfb13ab	-0.030649027
96	0x3ddc88fa	0.10768314
97	0x3d884359	0.066534705
98	0xbe0aedc0	-0.13567257
99	0xbe27599b	-0.16342776
100	0xbdb01da0	-0.085994005
101	0xbb192de4	-0.00233733
102	0x3daa0e6a	0.083035305
103	0xbe21c417	-0.15797459
104	0xbd1d8c56	-0.038463913
105	0xbdb5015b	-0.08838149
106	0xbc89ea72	-0.016835425
107	0x3d916bca	0.07100637
108	0x3e0ced03	0.13762288
109	0x3c9b82a1	0.018983187
110	0x3e11196e	0.14169857
111	0xbe136aa6	-0.14396152
112	0x3e31c760	0.17361212
113	0xbe09d0ae	-0.13458511
114	0xbd9004e4	-0.07032183
115	0xbc9bd1a6	-0.019020867
116	0xbe1082e6	-0.14112434
117	0x3e40e1d7	0.18836151
118	0x3da228a8	0.07917911
119	0x3de24fb3	0.11050358
120	0x3e2f3ce6	0.17113075
121	0xbdd6f2ef	-0.10495555
122	0x3e39685f	0.1810622
123	0xbc277700	-0.010221243
124	0x3da2850b	0.07935532
125	0xbe0fed8d	-0.14055462
126	0xbd7e8af6	-0.062144242
127	0xbcac37d3	-0.021022713
128	0xbd95cea2	-0.07314803
129	0xbcb96046	-0.022628915
130	0x3dd623c2	0.10456039
131	0xbdee7e53	-0.11645188
132	0x3d904b71	0.07045639
133	0x3db4b61c	0.08823797
134	0x3e4f24d6	0.20228896
135	0xbda88edc	-0.08230373
136	0x3d3880bf	0.045044657
137	0xbe0f1e51	-0.13976409
138	0x3d9207ea	0.07130416
139	0xbe2fb703	-0.17159657
140	0xbc48293f	-0.012216865
141	0x3e13a301	0.1441765
142	0xbceb9aa7	-0.028760267
143	0xbce9bfc1	-0.028533818
144	0x3e3d9fab	0.1851794
145	0x3e1e5cea	0.15465131
146	0xbe1d24a2	-0.15346006
147	0x3e0d3640	0.13790226
148	0xbdc23be8	-0.094840825
149	0x3e3d63b3	0.18495063
150	0xbe2cbbca	-0.16868511
151	0x3e4580be	0.19287392
152	0x3e4684d5	0.19386609
153	0x3e34b527	0.17647229
154	0x3e3c300d	0.18377705
155	0x3e196ff0	0.14984107
156	0xbe35a72d	-0.17739554
157	0xbe1a3875	-0.15060599
158	0x3dd1f4ba	0.10251756
159	0x3d5c25d7	0.053747024
160	0x3d151c5b	0.036403995
161	0x3d4dadd4	0.050214604
162	0x3e0a5705	0.13509758
163	0x3dea1761	0.114302404
164	0x3b543be1	0.0032384323
165	0xbe1973e8	-0.14985621
166	0xbd1fe351	-0.039035145
167	0xbdec1863	-0.11528089
168	0x3d352a9f	0.0442301
169	0xbc9dc22c	-0.019257627
170	0xbe3a7df0	-0.18212104
171	0x3ddbc47e	0.10730837
172	0xbe22a8a2	-0.15884641
173	0x3e14df82	0.14538386
174	0xbce03e0f	-0.027373342
175	0x3de382df	0.11108946
176	0x3d0245d4	0.031804875
177	0xbe1b9d3d	-0.151967
178	0x3d0b2718	0.03397283
179	0xbce49c59	-0.027906584
180	0xbd4ab312	-0.04948718
181	0x3df13c26	0.117790505
182	0xbe112616	-0.14174685
183	0x3d867b69	0.06566507
184	0x3bd37f22	0.0064543644
185	0xbe24f9bb	-0.1611089
186	0xbd92f5b2	-0.07175769
187	0xbe13662b	-0.14394443
188	0xbda7417d	-0.08166788
189	0x3de9637c	0.11395928
190	0xbe3e13fd	-0.18562312
191	0xbe2dc3be	-0.16969201

bias f4 [8]
0	0xbd8ade3f	-0.06780671
1	0xbe2c9ee9	-0.16857494
2	0x3b054d46	0.0020340248
3	0x3d8a3e68	0.06750184
4	0xbd4bafd8	-0.049728245
5	0x3de8b7f5	0.11363212
6	0x3d3729bf	0.044717547
7	0x3d57bfdd	0.05267321

weight f4 [8]
0	0x3f80abaf	1.0052394
1	0x3f80d8b3	1.0066131
2	0x3f7f7d84	0.99800897
3	0x3f807917	1.0036954
4	0x3f80aa22	1.005192
5	0x3f804528	1.0021105
6	0x3f7fb102	0.9987947
7	0x3f7e639b	0.99370736

bias f4 [8]
0	0xbb254be0	-0.0025222227
1	0xbbb6f122	-0.0055829445
2	0xbba27fe1	-0.004959092
3	0xbb9ff812	-0.004881867
4	0x3bcd2d3f	0.0062614973
5	0x3b8be3d8	0.0042691045
6	0xbb98a6cf	-0.004658557
7	0xbbdc6643	-0.0067260577

running_mean f4 [8]
0	0xbd3305c7	-0.04370668
1	0xbd9ab18a	-0.07553394
2	0x3ce0e4ee	0.027452912
3	0x3da9cd1a	0.08291073
4	0xbcb5e22c	-0.022202574
5	0x3dce3b2c	0.1006988
6	0x3e25d787	0.16195498
7	0xbda3572b	-0.0797561

running_var f4 [8]
0	0x3eccccb0	0.39999914
1	0x3ed59d0c	0.4172138
2	0x3ec8149e	0.3907823
3	0x3ed03d88	0.40671945
4	0x3f04aa73	0.51822585
5	0x3f07afb1	0.5300246
6	0x3eca89e6	0.39558333
7	0x3f10f6f7	0.5662684

weight f4 [128, 25]
0	0xbcb66bf5	-0.022268275
1	0x3da5d3c6	0.08097033
2	0x3cf2f494	0.02965764
3	0x3e4e199e	0.2012696
4	0x3c8d134c	0.017221116
5	0xbd1e634d	-0.03866892
6	0x3c90e92e	0.017689314
7	0x3bc29846	0.0059385626
8	0x3cab3f2e	0.02090415
9	0xbdc677a6	-0.0969079
10	0xbe413a4d	-0.18869896
11	0xbd843b22	-0.06456591
12	0x3e4584eb	0.19288985
13	0xbdb8d799	-0.09025497
14	0xbce2c6de	-0.027682718
15	0x3cdf105e	0.027229484
16	0xbe1661c9	-0.1468574
17	0xbe2c6335	-0.1683472
18	0x3d40e15a	0.047089912
19	0xbd97aa1e	-0.07405494
20	0x3e112dda	0.14177647
21	0x3d9b50c4	0.07583764
22	0x3e4a2ebd	0.19744392
23	0xbd98e26f	-0.07465064
24	0xbe0fa2f8	-0.14027011
25	0x3d81b81b	0.063339435
26	0x3e0625cd	0.13100357
27	0x3e05511e	0.13019225
28	0x3df6671d	0.12031386
29	0xbde77a32	-0.11302604
30	0xbd3c2699	-0.045935247
31	0x3deee56f	0.11664855
32	0xbe33042c	-0.1748206
33	0xbdc204fe	-0.094736084
34	0x3dc93365	0.09824256
35	0x3d604563	0.054753672
36	0x3d3b386f	0.045708116
37	0x3d3d4b94	0.046214655
38	0x3e328c1f	0.17436264
39	0xbda7c970	-0.08192718
40	0x3dfecc95	0.12441365
41	0xbe2c5f39	-0.168332
42	0x3df45cc9	0.1193176
43	0xbd1ca9e4	-0.038247958
44	0x3d252020	0.04031384
45	0xbe2111d5	-0.15729459
46	0x3c0c67e8	0.008569695
47	0xbe48a75a	-0.1959509
48	0xbe3f599e	-0.1868653
49	0xbda301cb	-0.07959326
50	0xbdd4002d	-0.10351596
51	0x3d1cd6b1	0.038290683
52	0x3dba1b15	0.09087197
53	0xbe3bf53c	-0.18355268
54	0x3e40a833	0.18814163
55	0x3d9d2c82	0.07674505
56	0x3e3ff0e9	0.18744244
57	0x3e146cac	0.1449458
58	0xbe2c4ddb	-0.16826575
59	0xbd2aa27f	-0.041658875
60	0xbe40e87a	-0.18838683
61	0xbd5189d6	-0.05115684
62	0xbda6ee1a	-0.08150883
63	0x3dac7202	0.08420183
64	0x3e1a9518	0.15095937
65	0x3de33493	0.11094012
66	0xbd4231c7	-0.047410753
67	0x3dfab3fe	0.12241362
68	0x3e3caac9	0.18424524
69	0xbdb6e356	-0.0893008
70	0x3d4ff43d	0.050770033
71	0xbdd024af	-0.10163247
72	0x3c99dc20	0.018781722
73	0xbd8e5db7	-0.069514684
74	0xbd1a4bb2	-0.037669845
75	0xbe343a46	-0.17600355
76	0x3e21a7a0	0.157866
77	0x3a671ea5	0.0008816517
78	0x3dfa309e	0.12216304
79	0x3de50c0c	0.111839384
80	0xbd2a99eb	-0.041650694
81	0x3d8e69d6	0.0695378
82	0xbe32e997	-0.1747192
83	0xbdc90b3f	-0.09816598
84	0x3dd3f035	0.1034855
85	0xbdedbd03	-0.11608317
86	0x3c43412a	0.011917392
87	0xbd4513d8	-0.048114628
88	0x3d41a8f9	0.047280286
89	0x3d63b02b	0.05558793
90	0x3e17478f	0.14773391
91	0xbe2ce5b1	-0.16884495
92	0x3e09bd8c	0.13451213
93	0xbd50c619	-0.05097017
94	0x3d00d696	0.031454645
95	0x3e34d308	0.17658627
96	0x3d878604	0.06617358
97	0x3d939e47	0.072079234
98	0xbd82a265	-0.063786305
99	0x3e2b1bfe	0.16709897
100	0xbdbd3b86	-0.09239869
101	0x3e4666c9	0.19375147
102	0x3d5596f8	0.05214593
103	0x3e3dda70	0.18540359
104	0x3d6ec316	0.058291517
105	0x3dc71218	0.09720248
106	0xbd147d5b	-0.03625236
107	0xbe15a02c	-0.14611882
108	0xbd36ad7b	-0.044599038
109	0x3d710ecd	0.058852006
110	0x3e449977	0.19199167
111	0xbe1ef103	-0.15521626
112	0xbe3740e5	-0.17895849
113	0x3e360e81	0.1777897
114	0xbdaf52c2	-0.08560707
115	0xbd12c154	-0.035828903
116	0x3dd9e609	0.10639579
117	0x3cccefde	0.025016721
118	0x3e238d91	0.15971972
119	0xbd53befc	-0.05169581
120	0xbe2d6f7d	-0.1693706
121	0xbd7bb272	-0.061449476
122	0xbe2f619f	-0.17127083
123	0x3cb27e21	0.021788659
124	0x3cae76ee	0.021296944
125	0x3dee9edc	0.11651394
126	0xbdf6a968	-0.120440304
127	0x3da8d164	0.08243063
128	0xbd2c2796	-0.04202994
129	0x3e3d5214	0.18488342
130	0xbe0afc1b	-0.13572733
131	0xbe0932de	-0.1339831
132	0xbc5dc520	-0.013535768
133	0xbdf04e0c	-0.11733636
134	0x3e1d2aa3	0.15348296
135	0x3d1ea74d	0.03873377
136	0xbdbda351	-0.09259666
137	0x3d0a2503	0.033726703
138	0x3b40cd17	0.0029419118
139	0x3d1e5b1b	0.038661104
140	0xbd383a6b	-0.044977587
141	0xbd1d7023	-0.03843702
142	0xbb301814	-0.002686982
143	0x3daddfbb	0.08489939
144	0xbda001e0	-0.07812858
145	0x3cee9045	0.029121527
146	0xbe02922c	-0.12751073
147	0x3e363f03	0.17797475
148	0x3dac5700	0.084150314
149	0xbe00c113	-0.12573652
150	0x3d067838	0.032829493
151	0x3dbc90d7	0.092073135
152	0x3e11ac23	0.14225821
153	0x3dee3b39	0.116323896
154	0x3cf0fafc	0.029416554
155	0x3e0346e1	0.12820007
156	0x3d1969c2	0.037454374
157	0x3d2937a5	0.041312832
158	0x3dd50446	0.10401206
159	0xbe3f943e	-0.18708894
160	0x3e14e746	0.14541349
161	0xbe27b128	-0.16376173
162	0xbe25e723	-0.16201453
163	0xbe19bdf3	-0.15013866
164	0xbd22091e	-0.039559476
165	0x3e3111a7	0.1729189
166	0x3db17643	0.08665135
167	0xbe03742a	-0.12837282
168	0xbe2bf258	-0.16791666
169	0x3dc93a7d	0.09825609
170	0xbe2da919	-0.16959037
171	0x3c890fc7	0.016731156
172	0x3da127c5	0.078689136
173	0x3d0b5ea4	0.034025803
174	0x3e1e4a23	0.15457968
175	0x3cbe0c72	0.023199294
176	0x3d909231	0.07059134
177	0x3cf0ccaf	0.029394476
178	0xbe317023	-0.17327933
179	0x3e4ad1e7	0.19806634
180	0xbd65215e	-0.055940025
181	0xbe352681	-0.1769047
182	0xbe2d4809	-0.1692201
183	0xbe3d4c1d	-0.18486066
184	0x3daa2a5d	0.083088614
185	0xbdf78465	-0.12085799
186	0x3d7f79e3	0.0623721
187	0xbcacff01	-0.02111769
188	0xbe13e6d6	-0.14443526
189	0xbdd4706d	-0.10373006
190	0xbdf3dc9d	-0.11907313
191	0x3d2410e0	0.040055156
192	0x3d41ccbd	0.047314394
193	0x3da0d88f	0.07853805
194	0x3de283c0	0.110602856
195	0x3e4536d1	0.19259192
196	0xbe1cff19	-0.15331687
197	0x3d7b2fe9	0.061324988
198	0xbd263ebc	-0.040587172
199	0xbe1ba572	-0.15199831
200	0xbdca3658	-0.098736465
201	0xbd0666ca	-0.03281287
202	0x3c07ebbb	0.008295949
203	0x3d483799	0.048881147
204	0xbdaa3f77	-0.08312886
205	0xbe25c6ce	-0.16189119
206	0xbe3aef39	-0.18255319
207	0x3db4095b	0.08790847
208	0xbd09d1fd	-0.033647526
209	0xbe1a425e	-0.1506438
210	0xbdd8797f	-0.105700485
211	0xbd5a2f07	-0.053267505
212	0xbe4e1ea9	-0.20128883
213	0x3e1ec1d8	0.15503633
214	0xbda318bd	-0.07963703
215	0x3dba0ab7	0.09084075
216	0x3d5fa39b	0.054599386
217	0xbcb35570	-0.021891326
218	0xbc248481	-0.010041357
219	0xbd7ae5df	-0.06125438
220	0x3e3091b5	0.17243083
221	0xbd0ce298	-0.034395784
222	0xbe478916	-0.19485888
223	0x3d94637c	0.07245538
224	0x3dd0c945	0.10194639
225	0x3dab0c99	0.08352012
226	0x3e25bf51	0.16186263
227	0x3d4da599	0.050206754
228	0xbd703ceb	-0.058651846
229	0xbdf68289	-0.12036616
230	0xbe43bc2f	-0.19114755
231	0xbdbc274c	-0.09187183
232	0x3e3b5545	0.18294246
233	0x3e094e6d	0.13408823
234	0x3df61b4f	0.120169275
235	0x3cc3fe0b	0.023924848
236	0xbe3288b0	-0.17434955
237	0x3e00a86e	0.12564251
238	0x3b8c06a1	0.004273251
239	0xbc94f497	-0.018183036
240	0xbe4c6c0b	-0.1996309
241	0x3e4432dd	0.19160028
242	0xbe50ea0b	-0.2040178
243	0x3e02695c	0.12735504
244	0xbda3c935	-0.079973616
245	0xbdabfeaf	-0.083981864
246	0x3da704bd	0.08155201
247	0x3e14ed4c	0.14543647
248	0x3dd05dc2	0.10174133
249	0x3d96d886	0.07365517
250	0xbe2c7abe	-0.16843697
251	0xbdc44711	-0.09583867
252	0x3da420bd	0.08014057
253	0x3e2946bd	0.16530891
254	0xbe1f05df	-0.15529583
255	0x3d9da084	0.076966316

bias f4 [128]
0	0x3c45481f	0.012041121
1	0x3bebdfd8	0.007198315
2	0x3d3593af	0.044330295
3	0x3e4c3cab	0.19945018
4	0xbc329d47	-0.010901756
5	0x3e28e1ff	0.1649246
6	0x3d63d835	0.055626113
7	0xbd8d14fd	-0.06888769
8	0x3e1205af	0.1425998
9	0x3cab7846	0.020931374
10	0xbd9979e6	-0.074939534
11	0x3d65af87	0.0560756
12	0xbd2639ae	-0.04058235
13	0xbe0e7705	-0.1391259
14	0xbdd19f71	-0.10235489
15	0x3e1a95d0	0.15096211
16	0xbe044036	-0.1291512
17	0x3db32973	0.0874814
18	0x3d3887db	0.045051437
19	0x3e021c67	0.12706147
20	0xbd59e3f2	-0.0531959
21	0xbe024880	-0.12722969
22	0x3dbcd160	0.092196226
23	0x3e3d6be9	0.18498196
24	0x3e4a6d00	0.19768143
25	0x3e03c2ea	0.12867323
26	0xbd7af111	-0.061265055
27	0xbdd7eb99	-0.105429836
28	0xbd825457	-0.06363743
29	0xbd7f36fe	-0.062308304
30	0xbe09899f	-0.13431405
31	0xbe15dbbe	-0.14634606
32	0x3e26118c	0.16217631
33	0x3e0e9d41	0.13927175
34	0xbdcd26cf	-0.10017168
35	0xbe219f50	-0.15783429
36	0xbdd4a3a6	-0.10382776
37	0x3cf28416	0.029604
38	0xbe437928	-0.19089186
39	0xbe22b93d	-0.15890975
40	0x3c3fc270	0.011704072
41	0xbd89e0af	-0.06732308
42	0xbe080702	-0.13283923
43	0xbcd4cda6	-0.025976967
44	0x3def289a	0.11677666
45	0x3dbf063e	0.093273625
46	0xbe1b3a8b	-0.15159051
47	0xbe1c8b10	-0.15287423
48	0xbdd80835	-0.1054844
49	0xbd7c04a6	-0.06152787
50	0x3e1aadcc	0.15105361
51	0x3db072db	0.08615657
52	0xbd3908e6	-0.0451745
53	0x3e3d03a9	0.18458427
54	0xbde95d2a	-0.11394723
55	0x3ca2b1d9	0.019860195
56	0xbd4eef21	-0.05052102
57	0x3daf04ad	0.08545814
58	0x3e3a1b33	0.18174438
59	0xbe39d4a4	-0.18147522
60	0x3d634c28	0.05549255
61	0xbdee16f6	-0.11625473
62	0x3da1e8ef	0.07905757
63	0xbd88ede4	-0.06685999
64	0x3e35e72c	0.17763966
65	0xbe2f31e1	-0.17108871
66	0xbe092826	-0.13394222
67	0x3e034896	0.12820658
68	0xbc22e2fa	-0.009941811
69	0xbdcee28d	-0.10101805
70	0x3e427e0c	0.18993396
71	0x3e3cd7a3	0.18441634
72	0xbdd7aeb3	-0.10531368
73	0x3b824bb9	0.003976312
74	0x3d7a4a90	0.061106265
75	0xbe2e5285	-0.17023666
76	0xbdab9e18	-0.08379763
77	0xbc797404	-0.015225414
78	0xbcaae069	-0.02085896
79	0x3d586312	0.052828856
80	0x3e04302f	0.12909006
81	0xbd4ff071	-0.050766412
82	0x3e26164c	0.16219443
83	0x3be5dd80	0.0070149302
84	0x3de793ed	0.113075115
85	0x3e3e407f	0.18579291
86	0x3e458214	0.19287902
87	0x3df293ed	0.11844621
88	0xbe2667db	-0.16250555
89	0x3d7ddc56	0.061977707
90	0xbe1f3bea	-0.15550199
91	0x3d4882c5	0.048952837
92	0x3e2fbdf7	0.1716231
93	0xbd9b3b17	-0.0757963
94	0x3db8c767	0.09022408
95	0xbe00b89b	-0.12570421
96	0xbe2a3bac	-0.16624326
97	0x3da1755f	0.07883715
98	0x3dd0bbcd	0.1019207
99	0x3da5e102	0.080995575
100	0x3ddb2d9a	0.10702057
101	0x3e1301c7	0.14356147
102	0x3d65c7f0	0.05609888
103	0x3dbfe261	0.0936935
104	0x3e3d24fd	0.18471141
105	0xbe1e85d4	-0.15480739
106	0xbd1c6b71	-0.0381884
107	0x3e0a5afd	0.13511272
108	0xbe3b323c	-0.18280882
109	0x3d933d2e	0.071894035
110	0xbe35d47f	-0.17756842
111	0x3dc05e05	0.09392933
112	0x3d74d965	0.059777636
113	0xbd2b37a7	-0.04180112
114	0x3d8ec714	0.06971565
115	0x3ac432db	0.0014968769
116	0xbe1eb633	-0.15499191
117	0xbdfc5007	-0.123199515
118	0xbe1cbef0	-0.15307212
119	0xbe16c087	-0.14721881
120	0xbc319e64	-0.010840986
121	0x3d39d435	0.045368392
122	0xbe0aa045	-0.135377
123	0x3dcf35f6	0.10117714
124	0xbdbc8346	-0.09204726
125	0x3e059bb6	0.1304768
126	0x3e11335f	0.14179753
127	0xbc394171	-0.011307106
