nn/checkpoints/main_material_different_2023_04_23-10_48_37/7/model_30.pt (torch, 451442 bytes, 98 tensors)

weight f4 [8, 5, 3]
0	0x3e383ecc	0.17992705
1	0xbe7ef15a	-0.24896756
2	0x3cf270bf	0.029594777
3	0xbcbf971e	-0.023387488
4	0xbe00a9b2	-0.12564734
5	0x3e0d5bfa	0.13804618
6	0x3d8b50cd	0.06802521
7	0xbe0890ef	-0.13336538
8	0x3b960307	0.0045779976
9	0xbdb40dee	-0.087917194
10	0xbda21dba	-0.07915826
11	0x3e400070	0.18750167
12	0x3d168d74	0.036755994
13	0xbe87a770	-0.26494932
14	0x3e01b214	0.12665588
15	0xbe875993	-0.26435527
16	0xbe15d343	-0.14631371
17	0xbe0a1934	-0.13486177
18	0x3ccdee29	0.025137978
19	0x3e2dc077	0.16967951
20	0x3d6e9070	0.058243215
21	0xbd61b4c7	-0.055104043
22	0x3e714c29	0.23564209
23	0x3ddf9d14	0.10918632
24	0xbd8c3eb1	-0.06847895
25	0x3de6e99f	0.112750284
26	0x3e8604a6	0.2617542
27	0x3de2b4a7	0.11069613
28	0x3e21c401	0.15797426
29	0x3e594043	0.2121592
30	0x3df1a597	0.11799162
31	0x3e894f5a	0.26818353
32	0xbe007a51	-0.1254666
33	0x3e15bd81	0.14623071
34	0xbda11e49	-0.078671046
35	0xbe34e905	-0.17667015
36	0x3e4e318a	0.20136085
37	0xbdd7bca9	-0.10534031
38	0xbe8496b4	-0.25896227
39	0x3e6aae2b	0.22918002
40	0x3d81ac8b	0.06331738
41	0xbd190bcc	-0.037364766
42	0x3e92b3c7	0.28652784
43	0xbc60190a	-0.013677845
44	0x3dccdf1b	0.100034915
45	0xbdd8606e	-0.105652675
46	0x3e31b802	0.1735535
47	0x3db86e41	0.09005404
48	0xbe61804d	-0.22021599
49	0xbe4c5d7d	-0.19957538
50	0x3e3f64cd	0.18690796
51	0x3d78dd5f	0.06075799
52	0x3e03aeb9	0.1285962
53	0xbd0537c0	-0.03252387
54	0xbddc976c	-0.10771069
55	0x3d235159	0.0398725
56	0x3e9678f9	0.2938917
57	0xbe9acca2	-0.30234247
58	0x3e274a6d	0.16336985
59	0x3e573a43	0.21018319
60	0x3e0c951b	0.13728754
61	0xbe1cd36a	-0.15315023
62	0xbe5a4bb5	-0.21317942
63	0x3d6499ee	0.05581086
64	0xbdd97b3a	-0.10619207
65	0x3e054f55	0.13018544
66	0x3e7083e6	0.23487815
67	0xbd82044b	-0.06348475
68	0x3e230550	0.15919995
69	0x3e5a8472	0.21339586
70	0xbe5eb62b	-0.21749179
71	0xbd915a06	-0.07097249
72	0x3e345a99	0.17612685
73	0xbc64a366	-0.013954973
74	0x3d8d29dc	0.0689275
75	0x3e22b405	0.15888985
76	0xbd14aec0	-0.036299467
77	0xbdd0c011	-0.10192884
78	0x3dbbac98	0.09163779
79	0xbeab68ba	-0.33478338
80	0xbe6cb643	-0.23116402
81	0x3dbdee81	0.09274007
82	0xbd81d43d	-0.06339309
83	0xbe2673bc	-0.16255087
84	0xbe3c3232	-0.18378523
85	0x3e668008	0.22509778
86	0xbe29f7f9	-0.165985
87	0xbe2d8401	-0.16944887
88	0x3debc291	0.1151172
89	0x3e6ffaa6	0.23435459
90	0xbe8cfe4d	-0.27537766
91	0xbd937c58	-0.07201451
92	0x3ea97e0b	0.33103976
93	0xbe0ecf98	-0.13946378
94	0x3e4f97be	0.20272729
95	0x3e981817	0.2970588
96	0xbe21d0da	-0.15802327
97	0xbdac175d	-0.08402894
98	0x3e6acf5f	0.22930668
99	0xbdbca436	-0.09211008
100	0x3e096be0	0.13420057
101	0xbe26d1fa	-0.16291037
102	0x3db09c57	0.086235695
103	0xbe3d3a59	-0.18479289
104	0xbd2519e4	-0.040307894
105	0xbd698ccb	-0.057019036
106	0xbdcc01fb	-0.09961315
107	0xbb6c8e06	-0.0036095395
108	0x3c1efbd1	0.009703592
109	0xbc82aa9b	-0.015950492
110	0xbe2b361c	-0.1671986
111	0x3e52f7f4	0.20602399
112	0xbdfaada8	-0.122401536
113	0xbdc61037	-0.096710615
114	0xbd820ba1	-0.06349874
115	0xbd6be3ed	-0.057590414
116	0x3d6e618d	0.0581985
117	0xbe029b93	-0.1275466
118	0xbea45abf	-0.32100484
119	0xbef78bc7	-0.4834883

bias f4 [8]
0	0xbe600df2	-0.2188032
1	0x3d196f59	0.037459705
2	0xbd88e29e	-0.06683849
3	0xbde617a4	-0.11234978
4	0xbe6deea7	-0.2323557
5	0xbe71a998	-0.23599851
6	0xbea9d601	-0.33171085
7	0xbe09ddf6	-0.13463578

weight f4 [8]
0	0x3f8ed6de	1.1159322
1	0x3f6a76be	0.91587436
2	0x3f829468	1.020154
3	0x3f68c120	0.90919685
4	0x3f8c07e5	1.0939909
5	0x3f802f5c	1.0014453
6	0x3f76178f	0.961297
7	0x3f7ebe5e	0.9950923

bias f4 [8]
0	0x3c3f3a15	0.011671563
1	0x3dff7ebf	0.12475347
2	0x3ddfb49d	0.10923121
3	0x3d5de9f4	0.054178193
4	0x3ded9705	0.1160107
5	0xbddbc464	-0.10730818
6	0xbc655ee1	-0.013999672
7	0xbc9f30c7	-0.019432439

running_mean f4 [8]
0	0xbe9f1105	-0.31067672
1	0x3ecfe565	0.40604702
2	0x3e6650c1	0.22491743
3	0x3d92c872	0.07167138
4	0xbd9c6b09	-0.07637603
5	0xbef8a66c	-0.4856447
6	0xbe9b32ad	-0.303121
7	0xbf41cb0a	-0.7570044

running_var f4 [8]
0	0x3e8afde3	0.27146825
1	0x3ef80b07	0.48445913
2	0x3ee8ff23	0.45507154
3	0x3e98a576	0.29813737
4	0x3ea9d9b9	0.33173922
5	0x3e894a4d	0.268145
6	0x3e2981e8	0.16553462
7	0x3f8e416d	1.1113716

weight f4 [8, 8, 3]
0	0xbe3ed2b4	-0.18635064
1	0xbccc1066	-0.024910163
2	0x3e6174ad	0.22017165
3	0x3ba6a7f0	0.0050859377
4	0xbc776102	-0.015098812
5	0xbd137bdd	-0.036006797
6	0xbe26ca34	-0.16288072
7	0x3c6cc04b	0.014450143
8	0xbd821e98	-0.063534915
9	0x3d1a9c32	0.037746616
10	0xbda11370	-0.078650355
11	0x3e481678	0.19539821
12	0xbe5c4ccd	-0.21513672
13	0x3dedcdfe	0.116115555
14	0xbe15433a	-0.14576426
15	0xbe463341	-0.1935549
16	0xbdbf44d8	-0.09339303
17	0x3e0e5e43	0.13903145
18	0xbd326edf	-0.043562766
19	0xbdefa6f3	-0.11701765
20	0xbe437d84	-0.19090849
21	0xbe4facd3	-0.20280771
22	0xbd80623f	-0.06268739
23	0xbe21ab93	-0.15788107
24	0x3e0f03e3	0.13966326
25	0x3e400120	0.18750429
26	0xbdf3fa86	-0.11913018
27	0xbe373c8c	-0.1789419
28	0xbc8f02db	-0.017457416
29	0x3d852c80	0.06502628
30	0x3e2a8a7d	0.16654392
31	0xbe2fbc8c	-0.17161769
32	0xbe338833	-0.17532425
33	0xbc968e0f	-0.018378286
34	0xbe7a8460	-0.2446456
35	0xbdf0951f	-0.117471926
36	0x3db3dd3b	0.08782431
37	0xbe76c73b	-0.24099438
38	0xbc8853fc	-0.01664161
39	0x3bb61f9c	0.0055579673
40	0xbdf6e0f0	-0.12054622
41	0x3df80c99	0.12111778
42	0x3e1b15fc	0.15145105
43	0xbd24e7ed	-0.040260244
44	0xbd3e48d5	-0.046456177
45	0x3d9e02c8	0.07715374
46	0xbcd48ea1	-0.025946917
47	0xbd99419e	-0.074832186
48	0xbdec5c25	-0.11541013
49	0x3dcf8c40	0.101341724
50	0x3e5ba6c5	0.21450336
51	0x3da14bbe	0.07875775
52	0xbccbfb7a	-0.024900187
53	0xbe09b424	-0.13447624
54	0xbdf593f8	-0.119911134
55	0xbe6d0df5	-0.23149855
56	0x3c81261b	0.01576524
57	0x3d4bc01b	0.049743753
58	0x3c0221a7	0.007942594
59	0x3df018fc	0.117235154
60	0x3e1afd1a	0.15135613
61	0xbe706089	-0.23474325
62	0x3e3ac6a5	0.1823984
63	0x3e07a2ef	0.13245748
64	0x3eccfd81	0.40037158
65	0x3e585faa	0.21130243
66	0x3d8cadc9	0.068690844
67	0xbe0643e1	-0.13111831
68	0xbd83afd6	-0.064300224
69	0x3e2bf16d	0.16791315
70	0x3e578854	0.21048099
71	0x3d7ee805	0.06223299
72	0x3dc53314	0.09628883
73	0x3d92221c	0.07135412
74	0x3dabe670	0.08393562
75	0x3e3214a1	0.17390682
76	0x3e094aa8	0.13407385
77	0x3dccf08e	0.1000682
78	0x3e61062e	0.21975014
79	0x3e42f272	0.19037798
80	0xbdb5d54d	-0.088785745
81	0x3d9ef574	0.0776166
82	0xbd286e38	-0.041120738
83	0xbcb98b02	-0.022649292
84	0x3e84d333	0.25942382
85	0x3cc743d5	0.024324337
86	0x3cbbaa75	0.022908429
87	0xbba37ef4	-0.004989499
88	0x3dc4ef48	0.09615952
89	0x3d4785cb	0.04871158
90	0xbe083c54	-0.13304263
91	0x3be96bbe	0.0071234396
92	0x3e3357db	0.17513983
93	0xbe7be437	-0.24598776
94	0x3d89fe99	0.06738014
95	0xbc97d53c	-0.018534295
96	0x3e6ada40	0.22934818
97	0xbdb9d2d9	-0.09073419
98	0xbe45f9ee	-0.19333622
99	0xbe41169f	-0.18856286
100	0xbe4efe4a	-0.20214191
101	0xbdf065ae	-0.11738144
102	0xbd934ade	-0.07192014
103	0x3e2cd8cc	0.16879576
104	0x3d5e6551	0.05429584
105	0xbe27bffd	-0.16381831
106	0xbddd4b11	-0.108053334
107	0xbde0f0db	-0.109834395
108	0xbdcd0e16	-0.10012452
109	0x3dee9715	0.1164991
110	0x3c23f2c1	0.0100066075
111	0xbdd61c59	-0.10454626
112	0x3ce2e814	0.027698554
113	0x3dc7a69a	0.097485736
114	0x3ddcb050	0.107758164
115	0xbe013c9f	-0.12620781
116	0xbda645fb	-0.081188165
117	0xbdb8b49c	-0.090188235
118	0xbd95b57d	-0.07310007
119	0x3e135a60	0.14389944
120	0x3dda77f6	0.10667412
121	0xbcaf5ba8	-0.02140601
122	0x3e165faa	0.1468493
123	0x3e115846	0.1419383
124	0x3e7bdf62	0.24596933
125	0x3cda7caf	0.026670782
126	0xb9ea8ff9	-0.00044739226
127	0xbe3cdb56	-0.18443045
128	0x3e5a476f	0.21316312
129	0xbe10dbf6	-0.14146408
130	0x3e1dcbeb	0.1540982
131	0x3e1e5cc4	0.15465075
132	0x3c151a0c	0.009100448
133	0xbdf6b9e9	-0.12047178
134	0x3dc09ad3	0.094045304
135	0xbdd9f513	-0.10642447
136	0xbe219cd5	-0.15782483
137	0x3e3e71f5	0.18598159
138	0x3e1618e3	0.14657931
139	0x3ddb04fa	0.106943086
140	0x3dda6bd7	0.106651
141	0xbe2fc144	-0.17163569
142	0xbd208a62	-0.039194472
143	0x3e0a3210	0.1349566
144	0xbe3f17c6	-0.18661413
145	0xbe064fe1	-0.13116409
146	0x3e8a478e	0.27007717
147	0xbdda1601	-0.10648728
148	0xbe4fc637	-0.20290457
149	0x3d1fd2cd	0.039019395
150	0x3e970c22	0.29501444
151	0xbd4d25ee	-0.050085
152	0x3e45c3aa	0.19312921
153	0xbd7bda06	-0.06148722
154	0xbd185c7c	-0.037197575
155	0x3e076b14	0.13224441
156	0x3e2b39ac	0.16721219
157	0xbdc41662	-0.09574582
158	0xbe2b77ca	-0.16744915
159	0xbb201df9	-0.0024431928
160	0xbd084781	-0.033271316
161	0xbdea2096	-0.114319965
162	0x3daef9d3	0.08543744
163	0xbe033698	-0.12813795
164	0x3d14dc6b	0.03634302
165	0x3e42c4ec	0.19020432
166	0xbe2a6b71	-0.16642548
167	0xbdae3bbb	-0.085074864
168	0x3e091d00	0.13389969
169	0xbe24cc6f	-0.1609361
170	0x3e30c8b9	0.1726407
171	0xbe4bb56b	-0.19893424
172	0xbe129651	-0.14315154
173	0x3c52e9ef	0.012873157
174	0x3dcfe4ce	0.10151063
175	0x3e06580d	0.13119526
176	0x3e179c74	0.14805776
177	0xbde570d3	-0.1120316
178	0xbdd04fa6	-0.10171442
179	0x3e0f686b	0.14004676
180	0x3e5cbc95	0.21556313
181	0xbe6f7ec2	-0.23388198
182	0x3db9fe3d	0.09081695
183	0xbe676c60	-0.22599936
184	0x3b163c96	0.0022924296
185	0xbd6cdf23	-0.057829987
186	0xbe3890cc	-0.18023986
187	0x3e0ab5b1	0.13545872
188	0xbdcfd612	-0.101482525
189	0xbe31e55c	-0.1737265
190	0x3d27f2af	0.041002925
191	0xbd04ca39	-0.032419417

bias f4 [8]
0	0x3dbc37da	0.0919034
1	0xbd055092	-0.03254754
2	0xbe08785c	-0.13327163
3	0x3e13f8b7	0.14450346
4	0xbd92b24c	-0.07162914
5	0xbe54aeed	-0.20769854
6	0x3df90c20	0.12160516
7	0x3e44a9e6	0.19205436

weight f4 [8]
0	0x3f8a6e31	1.0814878
1	0x3f882750	1.0636997
2	0x3f76e183	0.96437854
3	0x3f6bdc38	0.921329
4	0x3f82535e	1.0181692
5	0x3f842c30	1.0325985
6	0x3f818489	1.0118572
7	0x3f783ae2	0.9696485

bias f4 [8]
0	0x3db737bf	0.089461796
1	0x3dc8640e	0.09784709
2	0xbbe45f87	-0.0069693956
3	0x3d7ce5c3	0.061742555
4	0x3cde697f	0.027149914
5	0x3d0bf9d5	0.034173805
6	0x3d990f3e	0.0747361
7	0x3e30338d	0.17207165

running_mean f4 [8]
0	0xbe8e0e08	-0.2774508
1	0xbe62f335	-0.22163089
2	0x3e1e1dc5	0.15441044
3	0x3f09fc9f	0.53901094
4	0xbea48290	-0.3213086
5	0x3dabfc87	0.08397775
6	0x3da6a1f5	0.081363596
7	0x3dd0edd3	0.10201611

running_var f4 [8]
0	0x3eafd124	0.3433925
1	0x3ea2616e	0.31714958
2	0x3e8ef69d	0.27922526
3	0x3f24a8e3	0.643202
4	0x3e9c4607	0.30522177
5	0x3f0b4bff	0.54412836
6	0x3dc4c824	0.09608486
7	0x3e424b11	0.18973948

weight f4 [8, 8, 3]
0	0xbe9e4f22	-0.3091975
1	0xbe72654a	-0.23671451
2	0xbd54a6a2	-0.051916726
3	0x3c37f2d8	0.011227332
4	0x3e020e09	0.12700666
5	0xbe68f185	-0.22748382
6	0x3d82721d	0.06369422
7	0x3de57b7b	0.11205193
8	0xbd2acff6	-0.041702233
9	0xbc9a21da	-0.01881497
10	0xbb9dcdb4	-0.0048157815
11	0xbd061c20	-0.032741666
12	0x3dc62a06	0.09675984
13	0x3df4e80c	0.11958322
14	0xbe6006a0	-0.21877527
15	0x3e7044a8	0.2346369
16	0x3e519d3c	0.20470136
17	0xbe6275fc	-0.2211532
18	0xbda48caf	-0.08034646
19	0x3cb4b657	0.022059603
20	0xbde0ccd7	-0.1097657
21	0x3ddc982b	0.10771211
22	0xbe612ba7	-0.21989308
23	0xbc9cb85e	-0.019130882
24	0x3d28539b	0.041095357
25	0x3e210ec5	0.1572829
26	0x3bb2d9ea	0.0054581063
27	0xbd98ae3f	-0.0745511
28	0xbe3ebb5a	-0.18626156
29	0x3e80d6ef	0.2516398
30	0xbe484a25	-0.19559534
31	0x3e33aab0	0.17545581
32	0x3c743b30	0.0149066895
33	0xbe156ef3	-0.14593105
34	0xbd203a24	-0.039117947
35	0xbe176a0a	-0.14786544
36	0x3eb33441	0.35000804
37	0xbd478dab	-0.04871909
38	0x3e4219ea	0.18955198
39	0xbe02e066	-0.12780914
40	0xbdea8b43	-0.11452343
41	0x3e13fdf4	0.14452344
42	0xbe3c3f70	-0.18383574
43	0x3da37e90	0.07983124
44	0x3e311e71	0.17296769
45	0x3e0e0b8d	0.13871594
46	0x3e15cb3d	0.1462831
47	0xbd180d92	-0.037122317
48	0x3e134c4e	0.14384577
49	0x3df516ef	0.11967265
50	0xbd81e44e	-0.06342374
51	0x3e08f67f	0.13375281
52	0x3e9ef921	0.31049445
53	0xbd69914c	-0.05702333
54	0xbe0220f9	-0.1270789
55	0xbdf939b4	-0.12169209
56	0xbe3e4bf7	-0.18583666
57	0xbdcc0b3d	-0.09963081
58	0x3de44755	0.11146418
59	0xbe198749	-0.14993013
60	0xbde43e57	-0.11144703
61	0xbe49b269	-0.19696964
62	0x3e397d30	0.18114161
63	0xbd9baab8	-0.076009214
64	0x3af78b10	0.0018886048
65	0xbcac9a37	-0.02106963
66	0xbe522c9c	-0.2052483
67	0x3e4fb878	0.20285213
68	0xbe02a377	-0.1275767
69	0x3ce02b30	0.027364343
70	0xbd384e55	-0.04499658
71	0x3d41ac3d	0.0472834
72	0xbc107c5c	-0.008818712
73	0x3e7bf7de	0.24606273
74	0x3d7fe618	0.062475294
75	0x3d986ac5	0.0744224
76	0xbe4d47b5	-0.20046885
77	0x3dc11dd9	0.09429521
78	0x3de043b8	0.10950416
79	0xbc294ddd	-0.010333505
80	0xbd3c215a	-0.045930244
81	0xbd1c8b07	-0.038218524
82	0xbda065e8	-0.07831937
83	0x3deafd3b	0.11474081
84	0x3d982b70	0.0743016
85	0x3b0eb430	0.002177488
86	0xbe096c49	-0.13420214
87	0xbe2fde2c	-0.17174596
88	0xbe08184d	-0.1329052
89	0x3e47f12d	0.19525595
90	0xbdd3893c	-0.1032891
91	0xbcca2d1f	-0.024679719
92	0xbe11caaa	-0.14237466
93	0xbdce73c8	-0.10080677
94	0xbdd43115	-0.10360924
95	0x3d3f208d	0.046661902
96	0xbd11d2d3	-0.03560145
97	0x3dc6dde3	0.0971029
98	0xbe38ea4f	-0.18058132
99	0xbe6c33ac	-0.23066586
100	0xbe4fcdec	-0.20293397
101	0x3d11f569	0.035634432
102	0xbe2f93d4	-0.17146236
103	0x3babbf6d	0.0052413256
104	0x3ded2d20	0.115808725
105	0x3d07cab9	0.033152316
106	0x3e01dcd4	0.12681895
107	0x3da8dadf	0.08244871
108	0xbe1d06d3	-0.15334634
109	0x3dc40393	0.09570994
110	0xbdd909c0	-0.10597563
111	0x3e3e6fe7	0.18597375
112	0xbe24a1e9	-0.16077389
113	0xbd30e173	-0.043183755
114	0x3e4de61d	0.20107313
115	0x3d4da76f	0.050208505
116	0x3d81c648	0.06336647
117	0x3e073046	0.13202009
118	0x3e41d2ed	0.18928118
119	0x3cc2ff4c	0.023803376
120	0x3d75e7a4	0.060035363
121	0x3d42e6de	0.047583453
122	0xbe3d3c18	-0.18479955
123	0xbe2a6eb0	-0.16643786
124	0x3e112b1b	0.141766
125	0x3dd890fc	0.105745286
126	0xbd9e328d	-0.077244855
127	0x3d3c96cc	0.04604225
128	0xbbfb4432	-0.0076680416
129	0x3e5abe50	0.21361661
130	0x3d072dc7	0.03300264
131	0xbd773366	-0.06035175
132	0x3e1b2e6e	0.1515443
133	0xbe075713	-0.1321681
134	0x3e316f79	0.1732768
135	0xbe185b1a	-0.14878502
136	0xbe55dc16	-0.20884737
137	0xbe09c007	-0.13452159
138	0xbe28680e	-0.16445944
139	0x3ce17de0	0.027525842
140	0xbaac41de	-0.0013142189
141	0x3e2fbcf8	0.1716193
142	0xbe8ed770	-0.2789874
143	0x3d6c51ca	0.057695188
144	0x3e35e21f	0.1776204
145	0xbe604a70	-0.21903396
146	0x3a0079db	0.00049009704
147	0x3e17b7ae	0.14816162
148	0x3dcbb996	0.09947507
149	0x3ce0b9ce	0.027432349
150	0x3df6e0c1	0.12054587
151	0xbe709079	-0.23492612
152	0x3ca9f9a8	0.020748928
153	0x3e05f740	0.130826
154	0x3df5574a	0.1197954
155	0xbdebb97c	-0.11509988
156	0x3c876929	0.016529636
157	0xbe044674	-0.129175
158	0x3e5f92d0	0.21833348
159	0x3dc1b07d	0.094574906
160	0xbd4d3e74	-0.050108388
161	0xbe40e514	-0.18837386
162	0xbe2d67e9	-0.1693417
163	0x3de5e3e6	0.11225109
164	0x3e02d586	0.12776765
165	0x3d6c9040	0.057754755
166	0x3e621671	0.22078873
167	0x3dac27ec	0.08406052
168	0xbe73d9af	-0.23813508
169	0x3e3c6e3d	0.18401428
170	0x3e192c61	0.14958335
171	0xbd9a1ff7	-0.07525628
172	0x3e2720ef	0.16321157
173	0xbc489516	-0.012242576
174	0x3bd57595	0.006514261
175	0xbe46ec1f	-0.1942601
176	0x3e1d5048	0.15362656
177	0x3dd1aec7	0.10238414
178	0xbd95f49f	-0.073220484
179	0x3e1c0665	0.15236814
180	0xbde82a1c	-0.11336157
181	0xbd50b646	-0.05095508
182	0x3d264294	0.040590838
183	0xbe43cb6c	-0.19120568
184	0xbe94c2d5	-0.29054895
185	0xbe5bdf96	-0.2147201
186	0x3db1f46b	0.08689197
187	0xbd436e4a	-0.0477126
188	0xbd6704a8	-0.056400925
189	0xbd9a84f3	-0.07544889
190	0xbe2a1dd4	-0.16612941
191	0xbe66f2e0	-0.22553587

bias f4 [8]
0	0xbe58cd1b	-0.21171992
1	0x3e14e163	0.14539103
2	0x3e1e6c05	0.15470894
3	0x3dad55d2	0.084636346
4	0x3df217fb	0.1182098
5	0x3c8323c8	0.016008273
6	0x3e10d361	0.14143135
7	0x3db20780	0.08692837

weight f4 [8]
0	0x3f6fe562	0.93709385
1	0x3f7f4272	0.9971076
2	0x3f8349a2	1.0256846
3	0x3f5f3cc3	0.8720209
4	0x3f82b941	1.0212785
5	0x3f8df5ff	1.1090697
6	0x3f796caa	0.97431433
7	0x3f858b49	1.0433131

bias f4 [8]
0	0x3e03af31	0.12859799
1	0xbccb7da8	-0.024840191
2	0x3ccf1f2e	0.025283422
3	0x3d853ab9	0.06505341
4	0x3ccc4d65	0.024939248
5	0x3e261102	0.16217425
6	0xbdab38e9	-0.08360464
7	0x3dc11f85	0.0942984

running_mean f4 [8]
0	0xbee43e2a	-0.44578677
1	0x3eac0310	0.33596087
2	0x3dcb2d1d	0.09920714
3	0x3bdea81c	0.0067949425
4	0x3e030bf5	0.1279753
5	0xbd9da70a	-0.07697876
6	0x3ec10a78	0.377033
7	0xbe61a259	-0.22034587

running_var f4 [8]
0	0x3e064236	0.13111195
1	0x3e13fa6b	0.14450996
2	0x3e360bfe	0.17778012
3	0x3dee270b	0.116285406
4	0x3e9ec19f	0.31007096
5	0x3e4d46a5	0.2004648
6	0x3df8bef5	0.12145797
7	0x3ea7bb4b	0.3276008

weight f4 [8, 8, 3]
0	0x3db14f98	0.086577594
1	0x3d74d116	0.059769712
2	0xbc58d3b9	-0.013234072
3	0x3ddb4fd9	0.10708589
4	0x3e34cb16	0.17655596
5	0xbea0a6d3	-0.31377277
6	0xbd8d2690	-0.06892121
7	0xbe4ac84a	-0.19802967
8	0xbe059d0e	-0.13048193
9	0xbca1ccb1	-0.019750925
10	0x3d80cc50	0.062889695
11	0xbd7bda19	-0.06148729
12	0x3c5ef1d1	0.013607458
13	0x3b450e7f	0.0030068455
14	0xbe396030	-0.18103099
15	0xbe0fcb19	-0.1404232
16	0xbd402e47	-0.046919134
17	0xbd13fc54	-0.03612931
18	0xbe344762	-0.17605355
19	0x3d654923	0.05597795
20	0x3e85763d	0.2606677
21	0x3b23d8fd	0.0025001161
22	0xbd3d93cf	-0.04628354
23	0xbc94edb8	-0.01817976
24	0xbdf9da8f	-0.1219989
25	0xbd3a2cae	-0.045452766
26	0xbe1e1feb	-0.15441863
27	0xbd253b1a	-0.040339567
28	0x3e21a7b5	0.15786631
29	0x3e1e4177	0.1545466
30	0xbe82be68	-0.25535893
31	0x3d493007	0.049118068
32	0x3df3fa0c	0.11912927
33	0x3def1777	0.116743974
34	0xbe749f76	-0.23888955
35	0x3d1379d3	0.036004853
36	0x3e56db21	0.20982029
37	0x3e0d1fb2	0.13781622
38	0xbe704d3e	-0.23466966
39	0x3e66febf	0.22558115
40	0x3e5838ef	0.21115468
41	0xbde62b7e	-0.11238764
42	0xbccccbbf	-0.024999497
43	0x3b23b432	0.002497923
44	0xbd8152a5	-0.06314591
45	0x3da303ce	0.0795971
46	0xbe31e4a1	-0.17372371
47	0x3dc66ff2	0.096893206
48	0xbd1e0d78	-0.038587064
49	0x3b96fae9	0.0046075475
50	0x3e157340	0.14594746
51	0x3e17cdd4	0.14824611
52	0xbc2c65d8	-0.010522328
53	0xbdc54bb5	-0.096335806
54	0xbe90fbd3	-0.28317127
55	0xbe03fa18	-0.12888372
56	0xbb8fd336	-0.004389192
57	0x3e1191c4	0.14215761
58	0x3d67f1ed	0.056627203
59	0x3cae5626	0.021281313
60	0xbd757098	-0.05992183
61	0xbd9f2e11	-0.07772458
62	0x3dd572f8	0.10422319
63	0x3dada0f1	0.08477963
64	0x3e8270eb	0.25476775
65	0xbe487b3e	-0.19578263
66	0xbd0fa953	-0.03507359
67	0x3e392a47	0.18082534
68	0x3e557d78	0.20848644
69	0xbde4391d	-0.11143706
70	0x3e167861	0.14694358
71	0x3e40b9aa	0.18820825
72	0x3db834cb	0.089944445
73	0x3dfc06b4	0.12305966
74	0x3c85d069	0.01633473
75	0xbe1b1099	-0.1514305
76	0x3ddbaa85	0.107258834
77	0x3e197639	0.14986505
78	0x3e263d0c	0.16234225
79	0x3dccb765	0.09995917
80	0x3df05f20	0.11736894
81	0xbd834911	-0.06410421
82	0x3d085311	0.033282343
83	0xbd6b7243	-0.057482015
84	0xbe5d17c7	-0.21591102
85	0xbe2aa968	-0.16666186
86	0xbe459bbe	-0.19297692
87	0xbe8cb768	-0.27483678
88	0xbe40b2d6	-0.1881822
89	0xbb41b892	-0.0029559475
90	0xbe0564a4	-0.13026673
91	0xbd4ab5fc	-0.04948996
92	0x3d3eee05	0.046613712
93	0x3d52ad92	0.05143506
94	0x3dbbba2e	0.0916637
95	0xbe8cf761	-0.27532485
96	0x3d38c377	0.045108285
97	0xbe778809	-0.24172987
98	0xbc32caee	-0.01091264
99	0x3e23a5b8	0.15981185
100	0x3e439340	0.1909914
101	0xbdb7fae4	-0.089834005
102	0x3d858fc1	0.065215595
103	0x3e4c0730	0.19924617
104	0x3e1a5233	0.15070419
105	0xbe2db7e4	-0.1696468
106	0x3d684dd6	0.056714855
107	0x3dbdaa64	0.09261015
108	0xbdc5c08a	-0.096558645
109	0x3df5e03a	0.120056584
110	0xbe4974aa	-0.1967341
111	0xbe7cd604	-0.24691015
112	0xbe1e980e	-0.15487692
113	0xbe3cf1bb	-0.18451588
114	0xbc311d80	-0.010810256
115	0xbde40933	-0.11134567
116	0x3e3ffd3a	0.18748942
117	0xbe4aaafc	-0.19791788
118	0xbd00cc1d	-0.031444658
119	0xbe96fdca	-0.294905
120	0xbe0dc9b9	-0.13846482
121	0x3e2385da	0.15969029
122	0x3d74133f	0.059588667
123	0xbdb51452	-0.088417664
124	0xbbfac69d	-0.007653071
125	0x3d40d570	0.04707855
126	0xbe157b40	-0.14597797
127	0xbe44e505	-0.19227989
128	0xbe14a72a	-0.14516893
129	0xbddf498e	-0.10902701
130	0x3ce5f6ac	0.028071724
131	0xbc22099d	-0.009889987
132	0x3e452490	0.19252229
133	0x3e282f6b	0.16424339
134	0x3d52bdf7	0.051450696
135	0xbe4f5dd1	-0.20250632
136	0xbc575fdd	-0.013145414
137	0xbd1b8ec5	-0.037977953
138	0xba4a4912	-0.0007716577
139	0xbe67aa45	-0.22623546
140	0xbe04a6ed	-0.12954302
141	0xbd11d5d0	-0.035604298
142	0xbdbcd680	-0.092206
143	0xbdb20602	-0.08692552
144	0xbe8462f0	-0.25856733
145	0x3c7fab03	0.015604737
146	0x3d9805fc	0.074230164
147	0x3e3af36f	0.18256925
148	0xbe4bfa2f	-0.19919656
149	0xbe12b16c	-0.14325494
150	0x3df0cb25	0.11757497
151	0xbdbd7534	-0.0925087
152	0x3dac7818	0.084213436
153	0x3e559f02	0.20861438
154	0xbdbd64e4	-0.09247759
155	0xbd9647ab	-0.07337888
156	0xbe0bc17c	-0.13648027
157	0x3e1291f6	0.14313492
158	0x3e64f3b6	0.22358593
159	0x3e1d68a3	0.15371947
160	0x3d0728ba	0.032997824
161	0xbe454af6	-0.19266877
162	0xbe683b14	-0.22678787
163	0xbdc2b8df	-0.095079176
164	0xbd8b97fa	-0.068160966
165	0xbdbb25dc	-0.091380805
166	0x3d805e7f	0.06268024
167	0x3d8ba6bf	0.06818914
168	0xbe2f1bb1	-0.17100407
169	0xbe06dd64	-0.13170391
170	0xbdd7afd6	-0.10531585
171	0xbd875883	-0.06608679
172	0xbdb64736	-0.08900301
173	0xbda0c61a	-0.07850285
174	0xbd9eba18	-0.07750338
175	0x3dab10cc	0.08352813
176	0x3e423d6d	0.18968745
177	0xbdaf1f22	-0.0855086
178	0x3cc9a0b5	0.024612764
179	0xbe0c77a7	-0.13717519
180	0x3dc87521	0.097879656
181	0x3deed338	0.116613805
182	0xbe4d73cc	-0.20063704
183	0xbe1b49a7	-0.15164815
184	0x3e8e2b73	0.27767524
185	0x3dbe6dd9	0.092982955
186	0xbe0a816f	-0.13525937
187	0x3e0c3211	0.13690974
188	0x3dae7649	0.08518655
189	0xbc6368e0	-0.013879985
190	0x3e24891f	0.16067933
191	0x3e276edb	0.16350882

bias f4 [8]
0	0xbdcf06ae	-0.10108696
1	0xbcd446cc	-0.025912665
2	0x3dcfe60b	0.10151299
3	0x3cefac51	0.029256972
4	0xbe0cad1d	-0.13737912
5	0x3cc9f9e4	0.02465529
6	0xbdcf9b46	-0.10137038
7	0xbd872fe0	-0.06600928

weight f4 [8]
0	0x3f6a1662	0.91440403
1	0x3f84171d	1.0319554
2	0x3f7af1d1	0.9802523
3	0x3f72b127	0.94801563
4	0x3f89155b	1.0709642
5	0x3f7962c0	0.97416306
6	0x3f8803b5	1.0626131
7	0x3f74ce22	0.95627034

bias f4 [8]
0	0xbc0faaf7	-0.008768789
1	0x3ca4de13	0.020125424
2	0x3d7df7a2	0.06200374
3	0xbd44c176	-0.04803606
4	0x3db08fcf	0.08621179
5	0xbd8a01b4	-0.06738606
6	0x3e607f41	0.21923544
7	0x3d6ce6f5	0.057837445

running_mean f4 [8]
0	0xbeaeacff	-0.3411636
1	0x3d672a5c	0.05643688
2	0x3ea3d9d6	0.32002133
3	0xbe8d2e24	-0.27574265
4	0xbf0d0464	-0.55084825
5	0xbe8d5c3b	-0.2760943
6	0xbe1c5f3d	-0.15270706
7	0xbca8b084	-0.020591982

running_var f4 [8]
0	0x3df48f94	0.11941448
1	0x3d96d043	0.073639415
2	0x3dff507c	0.12466523
3	0x3e4e2eb5	0.20135005
4	0x3e341125	0.17584665
5	0x3e28a61e	0.16469619
6	0x3dcccc0c	0.09999856
7	0x3dd5ccd4	0.104394585

weight f4 [8, 8, 3]
0	0x3e4f5979	0.20248975
1	0x3cb1f827	0.021724774
2	0xbe3a3475	-0.18184073
3	0x3d2b4002	0.04180909
4	0xbd9d7fc9	-0.07690389
5	0xbe1a84c2	-0.15089706
6	0x3e1c0d33	0.1523941
7	0x3d60e4c8	0.054905683
8	0x3dc4e99d	0.09614871
9	0xbbc132c2	-0.0058959434
10	0x3c9cb0d2	0.019127283
11	0xbc993758	-0.018703148
12	0x3c496ce8	0.012294032
13	0xbcdd0548	-0.026980057
14	0xbe734d05	-0.2375985
15	0xbb6fd318	-0.0036594328
16	0xbe46e142	-0.19421867
17	0xbe3b51c5	-0.18292911
18	0x3e89c408	0.26907372
19	0xbc80bb22	-0.015714232
20	0xbe964186	-0.29346865
21	0x3d41795e	0.047234885
22	0xbc212ab9	-0.009836846
23	0xbcaf7b77	-0.021421177
24	0x3d045b35	0.032313544
25	0xbe41f0cd	-0.18939514
26	0x3db7c4cd	0.08973084
27	0x3da6273a	0.081129506
28	0xbdcd4a84	-0.10023978
29	0x3e6a58a9	0.22885384
30	0xbd9dfc4a	-0.07714136
31	0x3d0e161f	0.034689065
32	0xbe79038c	-0.2431776
33	0xbd08a509	-0.033360515
34	0x3d2ef553	0.04271443
35	0xbd2d5374	-0.042315915
36	0x3d717949	0.058953557
37	0xbe3b53c4	-0.18293673
38	0xbd09f685	-0.033682365
39	0xbdab95ba	-0.083781675
40	0xbdd06fa8	-0.10177547
41	0xba90a734	-0.0011036159
42	0xbd2d6be7	-0.04233923
43	0xbce13ec8	-0.027495757
44	0xbe6fdb55	-0.23423512
45	0x3e236a21	0.15958454
46	0xbe54d1f7	-0.2078322
47	0xbaf8175a	-0.0018927858
48	0x3d5b5097	0.053543653
49	0x3dfeab25	0.12434987
50	0x3c674a6e	0.0141168665
51	0x3c85b9df	0.016323982
52	0xbd61c428	-0.05511871
53	0xbe56cf5a	-0.20977536
54	0x3e10de8b	0.14147393
55	0xbdaf83e7	-0.0857008
56	0xbcc38d94	-0.02387122
57	0xbd7f55a2	-0.062337525
58	0x3e2e80bd	0.17041297
59	0x3b64f6af	0.0034937074
60	0x3dda4b9d	0.10658953
61	0x3e8d3574	0.27579844
62	0xbc9d48b0	-0.0191997
63	0x3cc5a196	0.024124902
64	0xbc71331d	-0.014721659
65	0xbcf64d62	-0.030066196
66	0x3da75017	0.08169573
67	0x3baa3fe0	0.005195603
68	0x3e3f0ab9	0.18656434
69	0x3dcd0152	0.100100175
70	0x3da161c1	0.07879973
71	0xbdf66f41	-0.12032939
72	0x3cf35ea8	0.029708222
73	0xbe5b1f18	-0.2139858
74	0x3e01c2fd	0.12672038
75	0xbe5b3bbc	-0.21409506
76	0xbdf9549f	-0.12174343
77	0x3d68310f	0.05668741
78	0xbe388a9f	-0.1802163
79	0xbe39f75d	-0.18160768
80	0xbd861a8d	-0.06548033
81	0xbde52937	-0.11189502
82	0xbdb35bfc	-0.08757779
83	0x3ddc798d	0.107653715
84	0x3dda6756	0.10664241
85	0x3e633ce5	0.22191198
86	0x3e037703	0.12838368
87	0x3b24f89f	0.0025172604
88	0x3e5b56f6	0.21419892
89	0xbdb9a32a	-0.09064324
90	0x3e89ab0d	0.26888314
91	0x3d0a1ae7	0.033717062
92	0xbe39d3f5	-0.18147261
93	0x3cf94084	0.030426271
94	0xbddb1786	-0.10697846
95	0xbb5daa76	-0.0033823526
96	0xbd2cd153	-0.042191815
97	0x3c381d2b	0.011237423
98	0xbdc41110	-0.09573567
99	0xbe41de9d	-0.18932576
100	0xbd8d0948	-0.06886536
101	0x3e12f1f2	0.14350107
102	0x3cff5b55	0.03117148
103	0xbe0eb9fc	-0.13938135
104	0x3cfd2b92	0.030904565
105	0x3e808ee6	0.25109023
106	0xbc1643d0	-0.009171441
107	0x3d3f4ac0	0.046702147
108	0x3e8b6575	0.27225843
109	0x3d60d951	0.05489475
110	0xbe43dcf2	-0.19127253
111	0x3d83cdda	0.064357474
112	0x3db9ff6b	0.0908192
113	0xbe4099b9	-0.1880864
114	0xbe449b6b	-0.19199912
115	0xbe0c836e	-0.13722011
116	0x3e19ef0c	0.15032595
117	0x3d12681e	0.035743825
118	0xbc008ef0	-0.007846579
119	0xbc4a023f	-0.012329637
120	0xbc9faced	-0.019491637
121	0xbd020a80	-0.031748295
122	0xbe529b51	-0.20567061
123	0xbde2869b	-0.1106083
124	0x3e25d62c	0.16194981
125	0x3e34e0a7	0.17663823
126	0x3ce1399d	0.027493292
127	0x3d13f021	0.036117677
128	0x3d70dbbb	0.0588033
129	0xbc9d476f	-0.019199101
130	0xbe13c61a	-0.14431038
131	0xbe38dfcc	-0.18054122
132	0xbc9309fd	-0.017949099
133	0x3e57842a	0.2104651
134	0xbe0de35c	-0.13856262
135	0xbdd662f2	-0.10468091
136	0x3e0a23af	0.13490175
137	0xbd8faf9e	-0.07015918
138	0xbddbf4a1	-0.10740019
139	0xbd0d4f60	-0.034499526
140	0xbe81c2c9	-0.25343922
141	0x3d91dcda	0.07122202
142	0x3e0e524f	0.13898586
143	0x3d5335b7	0.0515649
144	0xbc75adb5	-0.014995028
145	0xbe90b91a	-0.2826622
146	0xbb28c74a	-0.002575355
147	0x3c04dc68	0.00810919
148	0x3dcfcf86	0.10147004
149	0x3e003098	0.12518537
150	0x3dc12e1e	0.09432624
151	0xbe202566	-0.15639266
152	0xbde302d9	-0.110845275
153	0xbe0cd65a	-0.13753644
154	0x3d4e21a3	0.050325047
155	0xbe107eac	-0.14110821
156	0xbdb03559	-0.08603925
157	0xbe3e6105	-0.18591698
158	0x3d882ae2	0.06648804
159	0xbe438288	-0.19092762
160	0x3e0d4d31	0.13798977
161	0xbe29dcab	-0.16588084
162	0x3e8517d1	0.25994733
163	0x3e17d11e	0.14825866
164	0x3cf305d2	0.029665861
165	0xbd4892b1	-0.04896802
166	0xbe5aeebc	-0.21380132
167	0x3e4694c5	0.19392689
168	0xbd580e19	-0.05274782
169	0xbda06e34	-0.078335196
170	0x3dd89608	0.10575491
171	0xbdc1179c	-0.09428331
172	0xbe7eb9e4	-0.24875599
173	0xbd2a6f0b	-0.041609805
174	0xbd958ba7	-0.07302027
175	0xbd84ca62	-0.06483914
176	0x3e0acd55	0.1355489
177	0xbd8efb6a	-0.06981547
178	0xbdec20c2	-0.115296856
179	0x3b60dff5	0.0034313176
180	0xbc9524a5	-0.01820595
181	0x3dad0288	0.084477484
182	0xbe6f6a1b	-0.2338032
183	0xbdd5499d	-0.10414431
184	0xbcd1f2c0	-0.025628448
185	0x3e7790b5	0.24176295
186	0xbd8b06b7	-0.0678839
187	0x38ca3c8c	9.643388e-05
188	0x3da0f298	0.07858771
189	0xbe8355cd	-0.25651398
190	0xbbefea45	-0.0073216283
191	0xbd6c60f0	-0.057709634

bias f4 [8]
0	0x3cf05f76	0.029342394
1	0xbd5a703a	-0.053329684
2	0x3e100668	0.14064944
3	0x3e4f00d5	0.20215161
4	0xbe09f058	-0.1347059
5	0x3e1c2a74	0.1525057
6	0xbe6b3d4f	-0.22972606
7	0x3caf7ace	0.021420863

weight f4 [8]
0	0x3f895604	1.0729375
1	0x3f684ea0	0.9074497
2	0x3f812bbe	1.0091474
3	0x3f893697	1.0719784
4	0x3f79cbea	0.97576773
5	0x3f8204a2	1.0157664
6	0x3f5d5e56	0.8647207
7	0x3f81fcaa	1.0155232

bias f4 [8]
0	0x3e41f9cf	0.1894295
1	0x3dca5deb	0.09881195
2	0xbddb322e	-0.107029304
3	0x3db2dbc5	0.08733324
4	0x3e1bcbef	0.15214513
5	0x3dcf3d48	0.1011911
6	0x3d3891f9	0.045061085
7	0x3cd31843	0.025768405

running_mean f4 [8]
0	0xbe09741f	-0.13423203
1	0xbec54da1	-0.3853579
2	0x3ee3b931	0.44477227
3	0x3e315e4b	0.17321126
4	0xbe45a617	-0.1930164
5	0x3d0d89fc	0.03455542
6	0xbea413f4	-0.32046473
7	0xbe9c0b83	-0.30477533

running_var f4 [8]
0	0x3e656df9	0.22405232
1	0x3ea548f2	0.32282215
2	0x3e0b2b6a	0.1359078
3	0x3e4b970a	0.19881836
4	0x3e0a12f0	0.13483787
5	0x3e217ffd	0.1577148
6	0x3ea0d469	0.31412056
7	0x3e3d0358	0.18458307

weight f4 [8, 8, 3]
0	0xbe40a943	-0.18814568
1	0xbd88d672	-0.06681527
2	0x3df4b862	0.11949231
3	0xbba08efd	-0.004899858
4	0xbdb73177	-0.089449815
5	0xbe42268f	-0.18960021
6	0x3dede173	0.11615267
7	0xbcc39585	-0.023875007
8	0xbd623999	-0.05523071
9	0x3dba06a3	0.09083297
10	0x3dafbf4d	0.085814096
11	0xbcea3d14	-0.028593577
12	0x3df619ec	0.12016663
13	0xbd9ae6ba	-0.07563539
14	0x3e049088	0.1294576
15	0xbdc58873	-0.09645166
16	0xbe01d8e5	-0.12680395
17	0x3e831821	0.25604346
18	0xbc61db6a	-0.013785223
19	0x3dbe28e1	0.09285141
20	0x3bbcd3bb	0.005762545
21	0x3e2be1ff	0.1678543
22	0x3e5b7a74	0.21433431
23	0xbe1ff76c	-0.15621728
24	0xbd021271	-0.03175587
25	0xbd7eb533	-0.062184524
26	0x3d7e9046	0.06214931
27	0x3d3cf4f9	0.04613206
28	0xbe6e3229	-0.23261322
29	0xbe3db782	-0.18527034
30	0x3d2bbaa6	0.04192605
31	0xbe7cfe3b	-0.24706356
32	0x3df0d314	0.1175901
33	0xbd8e3133	-0.06942978
34	0x3e559c03	0.20860295
35	0x3e40b8fa	0.18820563
36	0x3dc932a2	0.098241106
37	0xbd224020	-0.039611936
38	0xbe12b313	-0.14326124
39	0xbe1cf43a	-0.1532754
40	0x3db4bd71	0.088251956
41	0x3e35ec0c	0.17765826
42	0x3b988f8c	0.004655784
43	0xb93fb044	-0.00018280844
44	0xbdd6b1be	-0.104831204
45	0xbd96d3d0	-0.07364619
46	0xbdff2d6a	-0.12459834
47	0x3df743e5	0.12073497
48	0x3be626e2	0.007023678
49	0xbe5ee0d5	-0.21765454
50	0x3e0a1a19	0.13486518
51	0xbd104108	-0.03521827
52	0x3ca0986d	0.019603932
53	0xbe03e884	-0.12881666
54	0xbea404c2	-0.3203488
55	0x3d663b8c	0.056209132
56	0xbd208333	-0.03918762
57	0x3dd4ed48	0.1039682
58	0x3df270f3	0.118379496
59	0x3e2db8c1	0.1696501
60	0xbe9d4222	-0.30714518
61	0xbe19757c	-0.14986223
62	0x3df79875	0.12089626
63	0xbd89d739	-0.067305036
64	0x3df99a3c	0.12187621
65	0xbc1fd838	-0.00975614
66	0x3b8c69de	0.0042850813
67	0xbe424287	-0.1897069
68	0x3d691490	0.056904376
69	0x3d4b9366	0.049701117
70	0x3e525267	0.20539246
71	0xbdb28b11	-0.08717931
72	0xbde74637	-0.11292689
73	0xbe577e48	-0.21044266
74	0x3e487b67	0.19578324
75	0x3c368070	0.01113902
76	0xbea0a2ef	-0.31374308
77	0x3de614d7	0.11234444
78	0x3cbe065a	0.023196388
79	0x3e1911bd	0.14948173
80	0xbd139570	-0.036031187
81	0x3e6c8c24	0.23100334
82	0x3b38fe06	0.0028227582
83	0xbe4864a0	-0.19569635
84	0xbe728fc9	-0.23687662
85	0x3e14e959	0.1454214
86	0x3df34698	0.11878699
87	0xbdc5706f	-0.09640586
88	0xbe8e7d69	-0.27830055
89	0x3e12cf3d	0.14336868
90	0x3e12678d	0.14297314
91	0xbc75239e	-0.014962105
92	0x3e1ed927	0.15512525
93	0x3e51606c	0.20446938
94	0x3e154d0f	0.14580177
95	0xbdb52bcc	-0.08846244
96	0xbd1ccfea	-0.03828422
97	0xbce30e69	-0.027716832
98	0x3e55ab44	0.20866114
99	0xbe26576a	-0.16244283
100	0x3b3b91fb	0.0028620947
101	0x3e60b49b	0.21943896
102	0xbe145c25	-0.14488275
103	0xbe31acbe	-0.17351052
104	0x3e560cd2	0.20903328
105	0x3dd58ad4	0.1042687
106	0x3e94a6b5	0.29033437
107	0xbe648009	-0.22314467
108	0xbe28cf45	-0.16485317
109	0x3cbb6d79	0.022879349
110	0xbd8c179b	-0.0684044
111	0x3dd0c147	0.10193115
112	0xbdac6e05	-0.08419422
113	0xbd45510e	-0.048173003
114	0x3db43e3e	0.08800934
115	0x3e1d186c	0.15341347
116	0xbc8786a1	-0.016543688
117	0x3e649328	0.2232176
118	0xba4f6a77	-0.0007912288
119	0xbdb1f106	-0.0868855
120	0x3dbb3c96	0.09142415
121	0xbe80d064	-0.2515899
122	0x3e328098	0.17431867
123	0x3da11442	0.07865192
124	0xbe19e740	-0.15029621
125	0xbda7c9a4	-0.08192757
126	0x3d44facb	0.048090737
127	0xbe2cf552	-0.16890457
128	0xbe23d6e5	-0.15999945
129	0xbdd7b1bb	-0.10531946
130	0x3ddbfecd	0.10741959
131	0xbda558b0	-0.080735564
132	0x3d091835	0.03347035
133	0x3e24e5cb	0.16103284
134	0x3c3eba9a	0.011641169
135	0xbde9f80c	-0.11424264
136	0x3e09a54f	0.13441966
137	0x3dcfdeb7	0.10149901
138	0x3bf30235	0.0074160346
139	0x3e114df2	0.1418989
140	0xbdb16b52	-0.08663048
141	0x3dec0815	0.11524979
142	0xbd8759f1	-0.06608952
143	0xbe241e7a	-0.16027251
144	0x3d8f7c8c	0.07006177
145	0xbe400021	-0.18750049
146	0xbdc1a57b	-0.09455391
147	0xbdb778dc	-0.08958599
148	0xbddccabb	-0.10780855
149	0x3e44401b	0.1916508
150	0xbd5bdee7	-0.053679373
151	0xbde6c709	-0.11268432
152	0xbe465688	-0.19368947
153	0xbd848be8	-0.064719975
154	0x3d6c862b	0.05774514
155	0xbe46f241	-0.1942835
156	0x3e29eaf3	0.16593532
157	0x3e7f3cb4	0.249255
158	0xbd87d5a2	-0.06632544
159	0xbb5a4454	-0.0033304887
160	0xbc8885ef	-0.016665427
161	0x3de98942	0.11403133
162	0x3e163faa	0.14672723
163	0xbe7a7a63	-0.2446075
164	0x3d615e7f	0.05502176
165	0xbe47aee1	-0.19500305
166	0xbd6a0402	-0.05713273
167	0x3d8552f2	0.06509961
168	0xbe226201	-0.15857698
169	0xbdaaea9a	-0.08345528
170	0xbdb0fe38	-0.086422384
171	0xbc1df82e	-0.00964169
172	0x3d849a13	0.064747
173	0x3e27938a	0.16364875
174	0x3e2b9f6a	0.1676003
175	0x3d9beeca	0.07613905
176	0xbe2bc3aa	-0.16773859
177	0x3e653e8c	0.22387141
178	0xbe38318a	-0.17987648
179	0xbe3bbbab	-0.18333308
180	0xbcd97308	-0.026544109
181	0x3e8b26e1	0.271781
182	0xbd042aea	-0.03226749
183	0xbdc7f314	-0.0976316
184	0x3e0c77b1	0.13717534
185	0xbd952225	-0.07281903
186	0xbd6d36e9	-0.057913695
187	0x3d5ac5a6	0.05341115
188	0xbbcf5349	-0.006327067
189	0xbe26ad8c	-0.1627714
190	0xbe11531d	-0.14191861
191	0xbe85f7b4	-0.26165545

bias f4 [8]
0	0x3e057f01	0.1303673
1	0x3e02b281	0.12763406
2	0x3dd3af66	0.10336189
3	0x3b5731b4	0.0032836022
4	0x3e281862	0.16415551
5	0x3e089159	0.13336696
6	0xbd3dc059	-0.046326015
7	0xbe4ba92c	-0.19888753

weight f4 [8]
0	0x3f4ff691	0.81235605
1	0x3f66fc3a	0.9022862
2	0x3f505a0d	0.81387407
3	0x3f4fb877	0.81140846
4	0x3f58fcba	0.8476063
5	0x3f5944e0	0.8487072
6	0x3f54d056	0.83130395
7	0x3f4e6389	0.8062063

bias f4 [8]
0	0xbe4face1	-0.20280792
1	0xbe4c6809	-0.19961561
2	0xbe182905	-0.14859398
3	0xbcfa0eb5	-0.030524591
4	0xbe898ba2	-0.26864344
5	0xbe4a8482	-0.1977711
6	0xbe1d75b9	-0.15376939
7	0xbdf7631d	-0.12079451

running_mean f4 [8]
0	0x3e6ab935	0.22922213
1	0x3cf99271	0.030465337
2	0xbca1824b	-0.019715449
3	0x3d1e2db3	0.0386178
4	0x3ea03d25	0.3129665
5	0x3d9f65c3	0.077830814
6	0xbe7e8325	-0.24854715
7	0xbeecd446	-0.46255702

running_var f4 [8]
0	0x3e2858a0	0.16440058
1	0x3e3fbde6	0.18724784
2	0x3e4000de	0.18750331
3	0x3e9bc521	0.30423835
4	0x3e6159c7	0.22006904
5	0x3e11c2ad	0.14234419
6	0x3e2f67c9	0.17129435
7	0x3e9b04d2	0.30277115

weight f4 [128, 25]
0	0xbd744b20	-0.059641957
1	0xbd88d422	-0.06681086
2	0x3da49289	0.08035762
3	0xbddeaa08	-0.10872275
4	0xbd96b8a0	-0.07359433
5	0x3df26558	0.11835736
6	0x3e8727d3	0.2639757
7	0x3e6b178c	0.22958201
8	0x3d81f5a0	0.063456774
9	0xbdbaca2d	-0.09120593
10	0x3dd5237e	0.1040716
11	0xbd100604	-0.035161987
12	0xbd18e712	-0.03732974
13	0xbde607fe	-0.11231993
14	0x3e2db48a	0.16963401
15	0xbcc2b05f	-0.02376574
16	0xbe56c7b0	-0.20974612
17	0x3e449713	0.19198255
18	0x3e8244a3	0.2544299
19	0x3d94585c	0.07243416
20	0xbe3970e7	-0.18109475
21	0x3c1181fc	0.008881088
22	0xbe22b682	-0.15889934
23	0xbdecc50e	-0.11561023
24	0xbcd7ece0	-0.026358068
25	0x3d356f98	0.044295877
26	0xbd8d159a	-0.06888886
27	0xbe1cd6ba	-0.15316287
28	0x3e0383a6	0.12843189
29	0x3e04c88c	0.12967128
30	0x3e224ca5	0.1584955
31	0xbe03d9ce	-0.12876055
32	0xbd18c156	-0.037293755
33	0xbe107b5a	-0.14109555
34	0x3cfdbe01	0.03097439
35	0xbd7820bd	-0.060578097
36	0xbe3a52a1	-0.18195583
37	0x3ddc146b	0.10746082
38	0xbe0472ec	-0.12934464
39	0xbe208542	-0.15675834
40	0xbd523534	-0.05132027
41	0x3df166c6	0.117871806
42	0xbd5d0984	-0.053964153
43	0x3d7143e3	0.058902632
44	0x3e41f06a	0.18939367
45	0x3cc1f607	0.023676885
46	0xbdfa628a	-0.12225826
47	0x3bc834a6	0.006109792
48	0xbe1ba987	-0.15201388
49	0x3e4c7c0e	0.19969198
50	0x3e6e3023	0.2326055
51	0xbdefa32a	-0.11701043
52	0x3ca7eaef	0.020497767
53	0x3e67ea57	0.22647987
54	0x3d55c445	0.05218913
55	0x3e49aeaa	0.19695535
56	0x3d559d14	0.052151754
57	0xbdd8a149	-0.10577638
58	0xbe85e1f9	-0.26148966
59	0xbe9e75c9	-0.30949238
60	0xbe3138d7	-0.17306839
61	0xbe3dfdd9	-0.18553866
62	0xbc449bef	-0.012000068
63	0x3da3fc6c	0.0800713
64	0xbcae754d	-0.021296168
65	0xbe5ee2f0	-0.21766257
66	0x3cbcce7f	0.023047684
67	0xbe0f88db	-0.1401705
68	0x3ddb2bc4	0.10701707
69	0xbe89e22a	-0.26930362
70	0xbc411d3c	-0.011786755
71	0x3dbf627b	0.093449555
72	0xbd9ac3ad	-0.075568534
73	0xbab68b4c	-0.0013927012
74	0x3d1b7f77	0.037963357
75	0xbe3aca2d	-0.18241186
76	0x3e6cd89d	0.23129506
77	0xbd2fd70d	-0.042929698
78	0x3d90f1a9	0.07077343
79	0xbcabf552	-0.020991001
80	0x3d905844	0.07048085
81	0x3da4f56a	0.080546215
82	0xbabb22b6	-0.0014277312
83	0x3de92f1f	0.11385941
84	0x3d1b372e	0.03789442
85	0xbe85b56a	-0.2611497
86	0xbe96f12f	-0.29480883
87	0xbe2f2c94	-0.17106849
88	0xbd381849	-0.044945035
89	0xbdade869	-0.08491594
90	0xbbbda1ed	-0.0057871253
91	0xbcaf12c0	-0.021371245
92	0x3d4c89bc	0.04993604
93	0xbd8992de	-0.06717466
94	0xbe2cbe56	-0.16869482
95	0xbdc6c0b0	-0.09704721
96	0x3dc6c050	0.097046494
97	0xbcc3a911	-0.023884328
98	0x3d873f96	0.06603925
99	0xbdf2b9f3	-0.11851873
100	0xbdd213d1	-0.10257686
101	0x3e8be7e9	0.2732537
102	0xbdba4eb3	-0.09097042
103	0x3d0eb845	0.034843702
104	0xbebc9f03	-0.36840066
105	0xbc9a28aa	-0.018818218
106	0xbe281170	-0.16412902
107	0xbe66a17e	-0.22522542
108	0x3e2622c8	0.16224205
109	0xbd8fdaba	-0.07024141
110	0x3cb76a0e	0.022389438
111	0x3d2e785f	0.042595264
112	0x3ca0d715	0.01963381
113	0x3db89a28	0.09013778
114	0xbe181ed7	-0.14855514
115	0x3d14f226	0.036363743
116	0xbd9483f0	-0.072517276
117	0x3ceb986e	0.028759208
118	0x3e719c6a	0.23594823
119	0xbdbd447d	-0.09241579
120	0x3c6248ae	0.0138112735
121	0x3c6540c6	0.013992494
122	0xbe1233f5	-0.14277633
123	0x3ccf5d57	0.025313063
124	0xbe17d852	-0.14828613
125	0x3d28d55d	0.041219104
126	0x3cbb1818	0.022838637
127	0xbdfea485	-0.12433723
128	0xbe64a767	-0.22329484
129	0xbe03cf1a	-0.12871972
130	0x3e0f6003	0.1400147
131	0x3e67c91c	0.22635311
132	0x3cdc9806	0.02692796
133	0x3e30385b	0.17208998
134	0xbe00be00	-0.12572479
135	0x3dc86519	0.09784908
136	0xbe621e9e	-0.22081992
137	0x3c0d7133	0.008632946
138	0xbe1cdc47	-0.15318404
139	0x3cd914ea	0.02649923
140	0xbdbf2f32	-0.09335174
141	0xbe238dd8	-0.15972078
142	0xbb815c89	-0.0039477986
143	0x3e3be35d	0.18348451
144	0x3e8736fc	0.26409137
145	0xbccdc3f7	-0.025117857
146	0xbeb6ce87	-0.35704443
147	0x3c8e33dd	0.017358715
148	0xbd17733b	-0.036975127
149	0xbb5c2b0d	-0.0033594996
150	0x3d80d4cf	0.0629059
151	0xbe75ba76	-0.2399691
152	0xbe7a6110	-0.24451089
153	0xbd196ee9	-0.037459288
154	0x3e1d97c4	0.15389925
155	0x3e680674	0.22658712
156	0x3e0055b7	0.12532698
157	0xbe399150	-0.18121839
158	0xbe1e506b	-0.15460365
159	0x3e60b26e	0.21943066
160	0x3c97b49e	0.018518742
161	0x3d0b5f87	0.03402665
162	0x3df1c013	0.118042134
163	0xbe6c848b	-0.23097436
164	0x3ca64bda	0.02029984
165	0x3d91f629	0.071270294
166	0xbe196a9b	-0.14982073
167	0x3e73c6aa	0.23806253
168	0xbddc042d	-0.10742984
169	0xbdc5a3bf	-0.09650373
170	0x3e84ff21	0.25975898
171	0x3b9ea85b	0.004841847
172	0xbd53a0e5	-0.051667113
173	0xbda8c17d	-0.0824003
174	0x3da39a13	0.07988372
175	0x3dbdf3c5	0.09275011
176	0xbe353f29	-0.17699875
177	0x3de391e6	0.11111812
178	0xbddf01de	-0.10889028
179	0x3e092e76	0.1339663
180	0xba861bab	-0.0010231634
181	0x3e046bf5	0.12931807
182	0x3dbc194e	0.09184514
183	0x3e1f81c9	0.15576853
184	0xbd3e79a6	-0.04650273
185	0x3d1d61f8	0.03842351
186	0xbea0b862	-0.31390673
187	0xbe5d53b5	-0.21613963
188	0xbec51871	-0.3849521
189	0xbd951523	-0.07279422
190	0x3d82dcb7	0.06389754
191	0xbe0acff1	-0.13555886
192	0x3b96d581	0.0046030884
193	0xbd69eec3	-0.057112467
194	0x3db5be03	0.088741325
195	0x3e21bf44	0.15795618
196	0x3dc15655	0.09440295
197	0x3d040d4b	0.03223924
198	0xbe3ca209	-0.18421187
199	0xbe062427	-0.13099729
200	0xbbcc5dd2	-0.00623677
201	0xbc8d3990	-0.017239362
202	0xbf0f1d8a	-0.5590445
203	0xbe36e982	-0.17862514
204	0xbd9ebde2	-0.07751061
205	0xbdca8048	-0.09887749
206	0x3d1146f4	0.035468057
207	0x3e1b5d13	0.15172224
208	0xbe319665	-0.17342527
209	0xbe381c48	-0.17979538
210	0x3e1eac3a	0.15495387
211	0x3e260546	0.16212949
212	0x3d01cbf5	0.03168865
213	0x3e26868d	0.16262265
214	0x3e2dee17	0.16985355
215	0xbe4ef03c	-0.2020883
216	0xbe89af61	-0.26891616
217	0xbd879414	-0.066200405
218	0xbdc94fd2	-0.09829678
219	0xbe394319	-0.18092002
220	0x3e1a8351	0.15089156
221	0x3d04a2db	0.032381874
222	0xbdce20a3	-0.10064819
223	0x3c3a0de1	0.011355848
224	0xbd8137b8	-0.06309456
225	0xbe3e357d	-0.18575092
226	0x3d16fddb	0.03686319
227	0xbe881e37	-0.26585552
228	0x3d3363ab	0.043796223
229	0xbdd24315	-0.10266701
230	0xbc2b1f6f	-0.010444506
231	0x3e4bdce6	0.19908485
232	0x3e6bd458	0.23030221
233	0xbdd1590d	-0.10222063
234	0xbe778c96	-0.24174723
235	0xbda2189e	-0.079148516
236	0x3e6456e7	0.22298776
237	0xbe575011	-0.21026637
238	0x3dda7476	0.106667444
239	0xbd8314f0	-0.06400478
240	0x3e5a3696	0.21309885
241	0x3bee81d0	0.0072786584
242	0x3bac488a	0.005257671
243	0xbd91edbb	-0.071254216
244	0xbe1d7ae1	-0.15378906
245	0xbde131c4	-0.1099582
246	0xbe66be84	-0.22533613
247	0x3bb0df3a	0.0053977044
248	0xbdcd6a18	-0.100300014
249	0xbc97eacd	-0.018544579
250	0xbeaa8521	-0.33304694
251	0x3e072f33	0.13201599
252	0xbd29c6be	-0.0414493
253	0xbe897fc9	-0.26855305
254	0xbd4b4cd5	-0.04963382
255	0xbe8e9780	-0.2784996

bias f4 [128]
0	0x3da62a63	0.081135534
1	0x3d526f42	0.051375635
2	0x3e1b2c61	0.15153648
3	0x3e2ad323	0.16682105
4	0x3d648cce	0.055798344
5	0x3e01c29a	0.12671891
6	0xbe129834	-0.14315873
7	0x3e21b23d	0.15790649
8	0xbaf761c7	-0.0018873744
9	0xbda7e2e8	-0.08197576
10	0x3e1791fe	0.14801785
11	0x3c010c27	0.0078764325
12	0x3cb8cbcd	0.022558117
13	0x3db98e50	0.09060347
14	0x3e47b2f4	0.19501859
15	0x3ddef9a7	0.10887461
16	0xbdff3051	-0.124603875
17	0x3e055076	0.13018975
18	0x3b9c86a4	0.0047767926
19	0xbdcb93b9	-0.09940285
20	0x3e93bd6d	0.28855458
21	0x3cd9f07a	0.026603926
22	0xbd69a0db	-0.05703817
23	0xbd82603e	-0.06366013
24	0x3d7f9bc0	0.062404394
25	0x3da53532	0.08066787
26	0xbdae45df	-0.085094206
27	0xbd76a558	-0.060216278
28	0x3e2dace1	0.1696048
29	0x3cee6c85	0.02910448
30	0x3c8b07c4	0.016971476
31	0xbe26e38b	-0.16297738
32	0x3cd4826e	0.0259411
33	0x3d829369	0.063757725
34	0x3d8775a2	0.066142336
35	0x3df50e65	0.11965636
36	0x3df16816	0.11787431
37	0x3e02aa37	0.12760244
38	0xbd608ebd	-0.054823626
39	0xbe0eaf28	-0.13934004
40	0xbdee147a	-0.11624999
41	0x3d5e80e1	0.054322127
42	0x3dc6dba0	0.09709859
43	0xbe025679	-0.12728299
44	0x3d1b2d77	0.037885156
45	0x3de21c89	0.11040599
46	0x3db50e90	0.08840668
47	0x3e0a2821	0.1349187
48	0xbd73ca57	-0.05951914
49	0x3de39da1	0.1111405
50	0xbcf0ff0f	-0.029418496
51	0x3d81a719	0.063306995
52	0xbde36e95	-0.11105076
53	0xbe435791	-0.19076373
54	0xbd0248b3	-0.031807613
55	0xbe174114	-0.14770919
56	0x3d833fa1	0.064086206
57	0x3d970524	0.07374027
58	0x3db050d2	0.08609165
59	0xbd9312ba	-0.07181306
60	0xbe2ed976	-0.17075142
61	0x3b8ebebd	0.004356234
62	0x3d115393	0.035480093
63	0x3df2bc0e	0.11852275
64	0x3e5f63b2	0.21815374
65	0xbde0ecb3	-0.10982647
66	0x3d929eed	0.07159219
67	0x3d8ce348	0.06879288
68	0xbd09bdcc	-0.03362827
69	0xbc8bc884	-0.017063387
70	0x3c3342ef	0.010941251
71	0xbded3d26	-0.11583929
72	0x3d93e483	0.072213195
73	0x3de8470c	0.11341676
74	0x3de0a014	0.109680325
75	0x3cbd668c	0.023120187
76	0x3b9bc233	0.004753375
77	0x3debb345	0.11508802
78	0x3cce8730	0.025210947
79	0x3de11cb7	0.10991805
80	0x3db4962c	0.088177055
81	0x3e1e1263	0.15436701
82	0xbdb66711	-0.08906377
83	0x3e246e0f	0.16057609
84	0xbd8657ef	-0.06559741
85	0xbdb4248a	-0.08796032
86	0x3e4526ba	0.19253054
87	0x3d7ee2e1	0.062228087
88	0x3b16d4ec	0.0023015095
89	0x3e327d4d	0.17430611
90	0x3d1a9a5c	0.037744865
91	0x3dd6ac3f	0.10482072
92	0x3d8441db	0.064578734
93	0x3d9fefdb	0.07809421
94	0xbe0414e3	-0.12898593
95	0x3daf3927	0.08555823
96	0xbe0139e1	-0.12619735
97	0xbe622cfe	-0.22087476
98	0x3e32079a	0.17385712
99	0xbe486db0	-0.19573092
100	0xbd661727	-0.056174424
101	0xbd00f0f3	-0.031479787
102	0x3e0c7284	0.13715559
103	0xbc109fc5	-0.0088271545
104	0xbc79ec14	-0.015254039
105	0x3cfcaf1a	0.030845214
106	0x3e5089d2	0.20365074
107	0xbbabd8bf	-0.005244344
108	0x3e351604	0.1768418
109	0xbd5ab419	-0.05339441
110	0xbdce02b3	-0.100591086
111	0xbe1b3df1	-0.15160348
112	0x3d78ffa0	0.060790658
113	0xbd6c219e	-0.057649247
114	0xbe0e886f	-0.13919233
115	0x3da87097	0.082246
116	0xbd94a8de	-0.07258771
117	0xbe0d80d7	-0.1381868
118	0x3d040c1d	0.032238115
119	0xbd889ae3	-0.06670167
120	0xbcaf70d2	-0.021416102
121	0x3db6054a	0.088877276
122	0x3dcdf8c5	0.10057215
123	0x3d5aa646	0.053381227
124	0x3d0d34a6	0.034474038
125	0x3e076eef	0.13225912
126	0x3e773b1d	0.24143644
127	0x3dca000b	0.098632894
