nn/checkpoints/main_objs_different_2023_04_23-11_06_41/1/model_30.pt (torch, 518706 bytes, 98 tensors)

weight f4 [8, 5, 3]
000000 9e 6f 7f be f7 83 62 3e c9 e8 8c bd 0c 79 ae bd
       -0.24944922 0.22120653 -0.06880338 -0.085191816
000010 73 e5 1e bb d3 45 37 be 2e f1 2b be 02 5a 9e 3b
       -0.002424565 -0.1789773 -0.16791221 0.004832507
000020 4b 58 ac bc 45 b3 d2 be 85 3e 39 3d 50 18 35 bd
       -0.021038195 -0.41152397 0.04522564 -0.04421264
000030 f8 b5 63 be 37 5a a1 3e 26 ca 02 3d b1 fa 9c 3e
       -0.22237384 0.3151414 0.031931065 0.30660012
000040 21 34 09 3d 83 d9 b7 be 38 8f 97 3e f7 b6 0d 3e
       0.03349698 -0.35908136 0.29601455 0.13839327
000050 fd 64 6f bd a6 70 48 3e b1 ca cb 3d a9 f1 72 3e
       -0.05844592 0.19574222 0.0995077 0.23724999
000060 2c cf 80 3d 17 64 7e bc 5d 04 ca 3d 67 44 66 3e
       0.06289515 -0.015526793 0.098641135 0.22487031
000070 f3 2a f6 bc 3d 3e d1 bc 2d 7f 46 3d 97 8f c9 bd
       -0.030049777 -0.025542373 0.048461128 -0.09841841
000080 8a 97 83 3e 3e 0f 85 be 3e b6 01 3e 90 1a 83 3e
       0.25701553 -0.2598819 0.12667176 0.25606203
000090 4d a7 8c be b5 05 d9 bd f0 fb 09 3e e6 f0 87 be
       -0.2747139 -0.10596792 0.13475013 -0.26550978
0000a0 5c 27 bd bd db d1 9b bd dd f1 f0 bd f9 d2 26 3e
       -0.09236023 -0.07608386 -0.11764882 0.16291417
0000b0 7d 0f a2 3e 51 f5 38 3d 9e 94 34 3c cb 1d a3 3e
       0.31652442 0.045155827 0.011021761 0.31858668
0000c0 ca 53 61 be 36 e5 0b 3d 24 dc 2b 3e fd b1 d5 bd
       -0.22004619 0.03415414 0.16783196 -0.10434339
0000d0 3b aa bf bd 0f 6f 9a bd b7 3c cf bd 39 1f 49 3e
       -0.09358641 -0.07540714 -0.10119002 0.19640817
0000e0 b7 de d9 3d 39 f1 1b be 15 a6 89 be 54 90 01 3f
       0.106381826 -0.15228738 -0.26884523 0.5061085
0000f0 66 00 00 3e cb 53 1b 3e 02 77 25 be b9 3f d8 3d
       0.12500152 0.15168683 -0.16158679 0.10559029
000100 b2 a6 cd bc 01 f5 f4 3c 7a 54 2b 3e e6 8b 91 bd
       -0.0251039 0.029901983 0.16731444 -0.07106762
000110 4f 46 90 be db 70 33 3e 54 81 e6 bd f5 bd af be
       -0.2817864 0.1752352 -0.11255136 -0.34324613
000120 fc 86 ab 3e 51 71 5b 3d 32 96 d9 38 29 78 a2 be
       0.33501422 0.053574864 0.000103753424 -0.317323
000130 6a b1 00 be 3b 98 48 3e 31 37 d4 3d 61 0b aa bc
       -0.12567678 0.19589321 0.103620894 -0.020757379
000140 1b 09 26 3d d5 38 a6 bd 19 15 a6 3b aa 26 55 3e
       0.040536027 -0.081163086 0.005068433 0.2081553
000150 b9 d5 ab be 3d c0 1a be 62 ce 7e 3e 10 f6 af 3d
       -0.33561495 -0.15112396 0.24883416 0.085918546
000160 fe 1d 31 3e eb a7 5e 3e 54 cd e2 bd a2 20 49 bd
       0.17296597 0.21743743 -0.110743195 -0.049103387
000170 23 32 79 3c c7 34 32 3e ab 1a 7d be 64 26 09 bd
       0.015209707 0.17402945 -0.24717204 -0.033483878
000180 f7 b9 51 bd 73 7e c9 be 71 17 36 3d 43 f4 77 bd
       -0.05120274 -0.39354286 0.04445595 -0.06053568
000190 d0 fe c8 bc 42 4b 86 3e b9 1f f3 3d db 1b f3 be
       -0.024535567 0.26229292 0.11871285 -0.4748219
0001a0 fc af 4a 3d 9b 6c e0 be 42 ad fa bd f3 2e 52 be
       0.049484238 -0.4383286 -0.122400776 -0.20525722
0001b0 cd 5a 79 be 4a 41 22 bd 00 64 92 bd b8 e3 61 3c
       -0.24351044 -0.039613046 -0.0714798 0.013787203
0001c0 20 13 09 3d ca 51 a0 3d 76 fb b1 3d ad 81 51 3e
       0.033465505 0.078281 0.086905405 0.20459624
0001d0 d9 e1 40 3b 71 b0 5d bd 44 18 45 be 0e 56 75 be
       0.002943149 -0.054123346 -0.19247538 -0.23958609

bias f4 [8]
000000 8f b8 54 3e 73 10 85 be 49 fc d6 3b 45 7d 1d be
       0.20773529 -0.25989112 0.0065608365 -0.15379818
000010 49 c0 2e 3e 6c e2 54 3e c9 45 6f 3e b3 8c c5 3e
       0.17065538 0.20789498 0.23366465 0.38583907

weight f4 [8]
000000 86 e7 90 3f 25 38 5b 3f 9c d1 80 3f ec e9 52 3f
       1.1320655 0.85632545 1.0063968 0.82388186
000010 f2 1e 78 3f 37 3f 71 3f 1d 6c 84 3f 85 c2 88 3f
       0.9692222 0.94237083 1.0345494 1.0684363

bias f4 [8]
000000 05 be 15 be 92 a0 64 3e 61 6c a9 3e 4b 95 66 3e
       -0.14623268 0.22326878 0.330905 0.22517888
000010 f9 19 a9 3e a8 09 8d 3e 6e 26 24 3d 59 d8 9c 3c
       0.33027628 0.2754643 0.040075712 0.019146131

running_mean f4 [8]
000000 a7 1d 34 be 23 25 99 3e 44 6b a5 39 66 7c d1 3b
       -0.17589436 0.29911146 0.00031551172 0.0063930033
000010 00 e0 6c 3e e9 6d a4 3e fb 6d 03 be d9 3a 10 be
       0.23132324 0.32115105 -0.12834923 -0.14084949

running_var f4 [8]
000000 63 e7 fb 3f 04 57 68 40 0f 4b 7e 3f 6c fb 82 3f
       1.9679989 3.630311 0.9933328 1.0232978
000010 e7 7a 71 3f 65 b8 64 3f 86 5f 07 40 b0 5d 30 40
       0.9432816 0.89343864 2.1152053 2.7557182

weight f4 [8, 8, 3]
000000 f6 33 7a be 35 77 36 be 44 f4 9a 3e 21 d1 b8 bb
       -0.24433884 -0.17818911 0.30264485 -0.0056401645
000010 72 e9 e7 bd f7 e1 83 3d 23 ac 34 bb 6c be 35 3e
       -0.11323823 0.06439584 -0.0027568422 0.17748421
000020 18 e9 17 be 76 e0 33 bd 04 83 85 bc a0 64 d5 3c
       -0.14835012 -0.043915235 -0.016297825 0.026048958
000030 68 1b 4d be c7 2e 9b be b3 07 24 3e 1b 9f 3f be
       -0.20029986 -0.30309126 0.16018562 -0.18713038
000040 df 66 84 3e d7 a2 0f be c4 1d 02 bd 30 ed 38 3e
       0.25859734 -0.14026962 -0.031766668 0.1805923
000050 fd 03 c6 be bd e1 9f 3d 7d 2f db 3b 87 db 3f be
       -0.38674918 0.07806728 0.0066890107 -0.18736087
000060 17 b4 0c 3e c1 bf 97 bd b0 8c 9b be 73 fb 90 bd
       0.13740574 -0.07409621 -0.30380774 -0.0707921
000070 56 04 91 3d 02 4b 84 be 58 5c 0c 3d d9 1f 9a be
       0.07080905 -0.25838476 0.034267753 -0.30102423
000080 2e 11 40 3e 01 45 41 be ea 28 3f be 01 05 12 bb
       0.18756554 -0.18873979 -0.18667951 -0.0022280815
000090 b4 25 d3 bd 1e 0f 51 bd b2 01 9f bd d1 73 5c 3c
       -0.10309926 -0.051039807 -0.07763995 0.013455347
0000a0 8f 96 0c 3e 5a 40 c5 3d 9d 58 fb bc 60 e2 41 3c
       0.13729309 0.09631415 -0.030681903 0.011833757
0000b0 06 84 e6 3d 6d 56 91 bd 98 d1 09 3d d9 de 2d be
       0.1125565 -0.070965625 0.03364715 -0.16979541
0000c0 55 af 3c be 1a f9 84 3e 15 56 1d 3d 48 b3 72 3e
       -0.18426259 0.259713 0.038412172 0.23701203
0000d0 c3 b0 17 3d f0 57 47 be 17 29 18 be fe 9a 3d 3e
       0.037033807 -0.19467139 -0.14859425 0.18516156
0000e0 28 b2 4d 3e 6f 32 6c 3d bb fd 12 3e 28 aa 05 3d
       0.20087492 0.057665285 0.14354603 0.032632977
0000f0 15 89 0f 3e bd d7 33 bd 09 1b 41 3d e4 1c 52 3e
       0.14017136 -0.043906916 0.047144923 0.20518833
000100 54 19 72 3e 3e 19 2d 3e 0e c6 30 bd 1a cc 82 bd
       0.23642474 0.1690416 -0.04315763 -0.063865855
000110 0f 92 89 be a2 dd d6 be 15 f6 2e 3d 98 35 0d 3d
       -0.26869246 -0.41965967 0.04271515 0.03447494
000120 94 b5 e0 bd 5b e3 24 be e7 d4 20 3e bd 55 63 3e
       -0.10972133 -0.16102354 0.15706216 0.22200675
000130 6e 9a 5b be 27 ba ed 3b e6 2b 79 be 86 9c 03 be
       -0.21445629 0.007254857 -0.24333152 -0.12852678
000140 bd 1e 21 be ab 84 16 be 3e ff 8d bd 3a cd 3d be
       -0.15734382 -0.14699046 -0.06933449 -0.18535319
000150 a4 15 a5 3e 22 64 49 3d 8c fc 1c 3e a0 b3 24 bc
       0.32243073 0.04916776 0.15330714 -0.010052592
000160 da d7 b7 bc 18 b5 01 be 9f 24 04 be 2b b4 6b 3e
       -0.022441793 -0.12666738 -0.12904595 0.23017947
000170 c2 a6 3f 3e 50 26 d7 bd ea 5a 03 be 79 40 04 be
       0.18715957 -0.105053544 -0.1282765 -0.1291522
000180 79 83 69 be d0 4b 46 3e 64 b4 45 3e a5 ee 1c be
       -0.22804059 0.19364858 0.19307095 -0.1532541
000190 43 ce 49 bd 0d 31 9a 3d c7 a5 86 be 40 1b 10 3e
       -0.049268972 0.07528887 -0.26298353 0.14072895
0001a0 dd 38 b5 bd ec 53 aa bc 3f 01 f1 bd 6c 46 5d 3d
       -0.088487364 -0.02079197 -0.11767816 0.054022238
0001b0 f8 ce 38 3e ad 74 43 be 58 1b 15 3d 8c 4e c3 bd
       0.18047702 -0.19087477 0.03640303 -0.09536466
0001c0 70 33 08 3e 58 2c 63 3e a4 52 09 3e 27 49 3b 3e
       0.13300872 0.22184885 0.13410431 0.18289624
0001d0 13 a3 8d 3d ba 83 be 3e 97 c3 9b 3e 2d 62 72 3e
       0.069158696 0.37209874 0.3042266 0.23670264
0001e0 59 61 eb bd 87 04 97 3d d2 b0 1b 3d a5 e4 a7 be
       -0.11493177 0.073739104 0.038010426 -0.3279163
0001f0 d4 dd 3f 3d 0a e3 46 bd ab 79 a9 bd 1a ef 41 3e
       0.04684241 -0.048556365 -0.082751594 0.18938866
000200 0e 8d 85 3e 6e 1b 13 be 1a 92 ce 3d 36 26 0d bd
       0.2608418 -0.14365932 0.100864604 -0.03446027
000210 21 14 8b be d4 1c fa bd 28 22 40 be 03 9c 44 3d
       -0.27163795 -0.1221253 -0.1876303 0.048000347
000220 b1 31 56 3e 7f 9c 9b 3d a0 5a f8 3b c0 e6 98 3d
       0.20917393 0.07598209 0.0075791627 0.07465887
000230 3c 90 cc bd 88 7e 6e 3e 54 ae d8 bd 88 7c 33 be
       -0.09988448 0.23290455 -0.105801255 -0.17527974
000240 43 19 92 3e ad 94 9d 3e 5d ed 4d be 5f b3 09 be
       0.28534898 0.30777493 -0.20110078 -0.13447331
000250 1f a2 c5 3b 7f 40 e0 3d cf 73 f3 3d 49 07 31 bd
       0.006031289 0.10949802 0.11887323 -0.04321984
000260 8f 8b 41 3e a1 cf 40 be 03 f7 8b bd 78 00 e7 3d
       0.18900894 -0.18829204 -0.06834223 0.11279386
000270 24 13 8a be 38 ea d7 bd 25 6c 4c be 8d 4f 9d 3b
       -0.26967728 -0.105427206 -0.19963129 0.004800743
000280 fe 2d 12 be 92 fe 13 3d 78 bc 72 3e b4 c9 43 3e
       -0.14275357 0.03613145 0.23704708 0.19119912
000290 dd 89 ac 3d 75 7e 6e bd 1d 06 1d 3e 7f fb 60 be
       0.08424733 -0.058226068 0.15334363 -0.21970938
0002a0 71 b5 f7 bd 14 35 bc be c4 52 27 3b 23 5c a2 3d
       -0.12095154 -0.36759245 0.002553151 0.0792773
0002b0 08 a5 96 bc 04 c9 b1 3e a4 c2 da bd ed c8 9a bd
       -0.01838924 0.34723675 -0.10681656 -0.07557855
0002c0 26 e0 22 3e 4b 64 c6 bd aa 5a de 3d 2f 1e 41 3e
       0.15905818 -0.09687098 0.108571365 0.1885917
0002d0 bf 63 fe 3d 5b ce bb bd 64 2f 91 3e 73 e8 72 3e
       0.12421369 -0.091702186 0.2835647 0.23721485
0002e0 e8 ce 54 bd de 61 ee 3c 2d 65 df bd 65 c9 97 be
       -0.051955134 0.029099401 -0.109079696 -0.2964584
0002f0 85 7a 30 3e d3 fa 15 3e bf 7b 24 be 7e a6 41 be
       0.17234237 0.14646463 -0.1606283 -0.18911168

bias f4 [8]
000000 68 88 4e 3d 7d 6f 9b 3e 1b 7b 18 3d f1 79 8b bd
       0.050423056 0.30358496 0.037226778 -0.06810368
000010 cc 4d b0 bc 3e fb d6 3d e6 12 d8 3d 03 10 c6 3d
       -0.021521471 0.104971394 0.105504796 0.09671023

weight f4 [8]
000000 a1 82 95 3f b6 7a 7e 3f 47 5b 68 3f b4 dd 77 3f
       1.168049 0.9940599 0.9076428 0.9682267
000010 ea 8b 6a 3f 72 c5 8e 3f 0d e0 90 3f 99 d4 60 3f
       0.9161974 1.1154006 1.1318375 0.878244

bias f4 [8]
000000 3f 2d 8f 3d d9 5d 63 3e 3b 46 d7 3d 4f 3a 1e 3c
       0.06991052 0.22203769 0.10511442 0.009657457
000010 38 9b 51 3d ae dd 36 3e 62 43 8a 3d 86 f7 25 3e
       0.05117342 0.17858002 0.067511335 0.16207704

running_mean f4 [8]
000000 bd 61 82 be 0a a0 8b bc 0e 8c a0 3e 60 d1 9d be
       -0.25465193 -0.017044086 0.31356853 -0.30823803
000010 5b cd b2 3e 15 e8 71 bb cb a1 9e 3d 74 30 85 3e
       0.349223 -0.0036912013 0.07745703 0.2601353

running_var f4 [8]
000000 f9 2b e0 3e a7 3f b4 3e 4d e4 18 3f c1 2c ce 3e
       0.43783548 0.35204813 0.5972336 0.4026852
000010 4f 07 80 3e b5 85 90 3e 1a 61 ae 3e 06 f4 fa 3e
       0.25005576 0.2822701 0.34058458 0.490143

weight f4 [8, 8, 3]
000000 96 11 00 3e f2 b7 03 3e 4c 4f 6c 3e ee 2d 23 3d
       0.12506709 0.12863138 0.23077124 0.039838724
000010 21 0d 42 3e 77 68 0f bc 72 cf 26 be 29 d0 b0 3c
       0.18950321 -0.008752934 -0.16290072 0.021583633
000020 2f f1 43 3e e0 d1 8b be 06 a6 e9 3c ef 7d 01 3e
       0.19134973 -0.2730856 0.028521549 0.12645696
000030 97 ca 1b be b8 f8 2d bd 8f 34 e4 3d b3 97 34 bd
       -0.15214 -0.042473525 0.11142837 -0.044089984
000040 a4 1a 82 3e 51 c3 43 3e 16 08 93 bd fb fa 22 bd
       0.2541095 0.19117476 -0.07179277 -0.039790135
000050 99 df 08 3e 04 3f 6f 3d a3 ae 08 bd b9 3f 9f 3e
       0.13366546 0.058409706 -0.03336967 0.31103304
000060 6e 04 72 3c 6d 26 01 3e bd 80 d9 be a4 a6 40 3e
       0.014771564 0.12612315 -0.42481032 0.18813568
000070 be ae 20 3d 77 4c dc bd 8a 88 d0 3d 52 43 3e be
       0.039229147 -0.10756772 0.10182293 -0.18580368
000080 6d cb 0a be 94 a6 1b 3e 2c 7c 15 bc 52 54 86 3d
       -0.13554163 0.15200263 -0.009123843 0.065590516
000090 44 d8 26 3b 37 77 db 3b be ff b4 3d 76 af ab bd
       0.0025458494 0.006697561 0.088378415 -0.08383076
0000a0 98 e7 40 be 57 38 4d be 10 4b 4f be 2c aa 2a be
       -0.18838346 -0.20041023 -0.20243478 -0.16666478
0000b0 e3 8c 9f 3d e6 ce 0d 3e 41 0d 6e be b3 bf b1 bd
       0.07790544 0.13848457 -0.23247243 -0.08679142
0000c0 b6 32 43 3e c8 34 f7 3d 20 5c cb be eb 98 30 3e
       0.19062313 0.12070614 -0.39718723 0.17245834
0000d0 73 de 85 be 19 26 e2 3c 47 4a 5a be a3 55 09 be
       -0.26146278 0.027606057 -0.21317397 -0.13411574
0000e0 bc d8 2d 3b af 34 7d be 04 ef 5f 3d 31 75 1f 3e
       0.0026526889 -0.24727128 0.054671302 0.15572049
0000f0 7c 86 c1 bb 32 c2 4c bc 54 87 7a be b2 7a 77 3e
       -0.0059059244 -0.012497472 -0.24465686 0.24167898
000100 96 41 81 3d 9a f3 6b be 77 fb 05 3e 57 88 92 bd
       0.06311338 -0.23042145 0.13084207 -0.07154911
000110 b3 3b 11 3e 5c f7 cc bd 93 97 65 bc 09 b6 af 3d
       0.1418293 -0.100081176 -0.014013189 0.08579642
000120 f5 b3 ae 3e 5e ba 8b bd 79 ee ab ba e7 7a 42 be
       0.3412167 -0.06822656 -0.0013117335 -0.18992196
000130 98 95 58 be 25 79 19 be 93 dd 97 3e 42 b4 5a 3d
       -0.21150815 -0.14987619 0.29661235 0.053394563
000140 69 cb 19 be e9 aa c6 3b 71 7b 28 3e 66 9b 31 3d
       -0.15019001 0.0060628545 0.16453339 0.04336109
000150 5a 51 c9 bc 8b a0 df 3d 51 a2 46 be b8 ed 10 3e
       -0.024574924 0.10919293 -0.19397856 0.14153183
000160 dd 50 78 be 5a fe 99 bd 0d 86 26 be 3e 94 67 3e
       -0.24249597 -0.07519217 -0.16262074 0.22615144
000170 e0 69 37 be 48 81 48 3d f1 a7 80 3e a2 2c 81 bd
       -0.17911482 0.048951417 0.2512813 -0.06307341
000180 bd d5 53 be f8 ed d6 bd 89 9f ee 3d 5f 3a 98 3e
       -0.20687003 -0.10494608 0.11651523 0.29732034
000190 26 d2 5b be be fb d3 3c d9 ea 93 3d b0 77 c3 3d
       -0.21466884 0.025876876 0.07222528 0.09544313
0001a0 c9 3b 04 be f0 52 3d 3c 0d 1a 9e 3e 5e 71 de bd
       -0.12913431 0.011555418 0.3087925 -0.10861467
0001b0 fe 3f af be b9 0d 32 3e 0f ac 41 3d 68 13 fe bd
       -0.3422851 0.17388047 0.04728323 -0.12406045
0001c0 e0 71 02 be 7d 4a f5 3d ea bb 6f be 44 55 a3 be
       -0.12738752 0.11977098 -0.23411527 -0.3190099
0001d0 fa 01 bb bc da 69 3d be d6 4d 8a 3c 4b 0f 7c 3d
       -0.022828091 -0.1849741 0.016882818 0.061538022
0001e0 9d 45 19 3e 17 b5 27 3d 9e 4c 60 bc 49 4b 8e bd
       0.14967962 0.040944185 -0.013690142 -0.06947953
0001f0 51 ad 81 3e 27 9c 8d be b1 28 4a 3d 5c 02 60 3e
       0.25327542 -0.27658197 0.049355213 0.218759
000200 46 9c 8f bc 30 91 2a 3e 23 0d a5 bd 35 2e 13 3d
       -0.017530572 0.16656947 -0.08059146 0.03593274
000210 64 78 16 3c e2 bd 82 3e 77 fd 85 bd 3c 91 40 3d
       0.009183977 0.25535494 -0.06542485 0.047013506
000220 6d 5e 22 3e 0a 79 df 3e 7e 2d 4f 3e f1 76 0b 3e
       0.15856333 0.43647033 0.20232198 0.13619591
000230 6f 1b ae bd 06 48 55 3e de 0e d6 3d 04 45 10 3e
       -0.08501326 0.20828256 0.104520544 0.14088827
000240 fb a5 3a 3e c5 29 6f be 08 eb cc 3d b9 2d c0 3c
       0.18227379 -0.23355778 0.10005766 0.023459302
000250 0f 79 15 3e 6f 34 62 be f3 16 eb bd aa 8f 0f bd
       0.14596961 -0.22090314 -0.114789866 -0.035049118
000260 1f 80 0e be 30 7d 98 bc 9b 3b 57 3e 08 aa aa bc
       -0.13916062 -0.018614382 0.21018831 -0.02083303
000270 0b 37 55 3e da 49 1d be 5e 65 91 be fc 52 0f bd
       0.20821778 -0.15360203 -0.2839765 -0.03499125
000280 b7 e9 dc 3d b4 87 3c 3d 4d 4f c8 be 00 6e 42 3e
       0.10786765 0.046027854 -0.39123002 0.18987274
000290 ba f1 fa 3c 28 ca 42 3e 25 2e 4d bb c5 a6 15 be
       0.030632842 0.19022429 -0.0031308022 -0.14614399
0002a0 b8 9c d9 3d de 47 ec bd 45 f9 b5 bd 34 5d 89 be
       0.10625595 -0.11537145 -0.08885435 -0.2682892
0002b0 41 c9 07 be 2a 5a 99 bd d8 63 38 3d e7 bc 1f be
       -0.13260366 -0.074879006 0.045017093 -0.15599404
0002c0 29 03 9f 3d ac a0 87 3e f8 d2 39 be d4 69 45 3e
       0.077642746 0.2648977 -0.18146884 0.19278651
0002d0 04 73 ab bd 73 13 80 be c3 7d f9 3c 5d ce 11 be
       -0.08371547 -0.2501484 0.030455476 -0.14238878
0002e0 21 7e 5c be a9 d3 81 be 25 75 4e 3d 7d 42 27 bc
       -0.2153249 -0.25356796 0.050404686 -0.010208723
0002f0 3b 9c 8b 3e 4f 34 7b 3d 44 1e 24 be 6f ed 52 be
       0.27267632 0.061329182 -0.1602717 -0.20598386

bias f4 [8]
000000 38 96 d6 bd 2e d5 3b be 4c 53 35 39 1f 96 6d be
       -0.10477871 -0.1834304 0.00017292536 -0.23201798
000010 12 ce 29 bd e6 a6 2f 3e 85 39 9e be 9a 83 57 bd
       -0.04145629 0.1715351 -0.3090326 -0.05261574

weight f4 [8]
000000 45 e7 73 3f 79 8d 7d 3f e6 e7 94 3f 98 63 56 3f
       0.95274764 0.99043995 1.163327 0.8374572
000010 6d 72 82 3f 8a 40 4d 3f 8b 82 83 3f 6b a7 89 3f
       1.019117 0.80176604 1.0274214 1.0754217

bias f4 [8]
000000 13 7e a3 3e 3c e8 2d 3e 57 a8 03 be 01 bb 89 3e
       0.31932124 0.16983122 -0.12857185 0.26900485
000010 59 12 4f 3e 71 0a ee 3d e0 a5 57 3e 64 cc f5 3e
       0.20221843 0.11623085 0.2105937 0.480075

running_mean f4 [8]
000000 c0 29 be 3e 91 4a 0d bf e3 de 21 be da 1e ad be
       0.37141228 -0.55191904 -0.15807681 -0.338126
000010 d9 e8 a7 be b6 04 57 3f 39 57 e0 be 67 e7 0f bf
       -0.32794836 0.83991563 -0.43816546 -0.56212467

running_var f4 [8]
000000 40 55 d0 3e 2e b9 ae 3e 5e aa cf 3e 5b ef c2 3e
       0.4069004 0.34125656 0.40559667 0.3807324
000010 3e c3 77 3e 4a f0 12 3f 89 98 1e 3e 14 a0 bf 3e
       0.24195573 0.573979 0.15487875 0.37426817

weight f4 [8, 8, 3]
000000 5e 8f 22 be 57 1b a9 3c f3 1c f0 bd 38 95 7f 3e
       -0.15875003 0.02064292 -0.117242716 0.24959266
000010 21 7a 57 bc c0 c9 4f 3e b2 4c 83 3d 77 89 ff bc
       -0.013151676 0.20291805 0.06411113 -0.031193478
000020 f2 78 36 3e ca d8 0f 3d ab 08 83 bd 1d 14 06 3e
       0.17819574 0.035118856 -0.06398138 0.1309361
000030 85 f1 4b 3e 9b 31 b0 3e a8 ba 0e 3e 25 2a c9 3d
       0.19916351 0.34412846 0.13938391 0.098224916
000040 8c 91 e7 3c 89 62 68 3e 64 0f 9e 3d 73 dc 14 3e
       0.028267644 0.22693838 0.07717779 0.1453722
000050 59 b1 9f 3d 44 a3 86 3e 29 de a7 be 20 90 c5 bd
       0.07797498 0.26296437 -0.32786682 -0.0964663
000060 55 e9 4a 3e d9 be 3d 3e 54 a4 d9 bc be 7d 7a be
       0.19815572 0.18529834 -0.026567616 -0.2446203
000070 fe 9e 90 bd b3 c3 3f 3d 79 f7 a9 3e 73 ef 52 3e
       -0.07061575 0.046817493 0.3319662 0.20599155
000080 1a 09 a3 3d 79 5a 57 bd 8a d9 5c 3e d4 47 f7 3d
       0.0796072 -0.052576516 0.2156736 0.12074247
000090 50 b4 b8 be 60 8b e2 bd 40 f2 f0 bd fc e4 e5 3d
       -0.36075068 -0.1106174 -0.117649555 0.11225316
0000a0 56 9f b2 3d ba 41 6b 3d 8c e4 14 bd 2c 77 b3 bd
       0.08721797 0.05743573 -0.03635077 -0.087629646
0000b0 05 b6 e9 bd 73 72 0d 3d 87 d3 1a be 70 c3 a2 3d
       -0.114116706 0.034532975 -0.15119754 0.07947433
0000c0 db 0f bb 3d 3d 68 c7 bd 17 b6 79 be 8c 84 b1 3d
       0.091338836 -0.09736679 -0.24385868 0.086678594
0000d0 35 05 8a 3e 63 c3 18 be fe 5f be 3e 46 fa a1 be
       0.26957098 -0.14918284 0.3718261 -0.31636256
0000e0 ad 9c a3 bc ef 9a 5f 3d fe 42 2d bc 0f 6a a5 3b
       -0.01997217 0.054591116 -0.010575054 0.0050480436
0000f0 18 59 1a 3e 02 e2 c3 bd af ef bd 3c 74 e2 71 bd
       0.15073049 -0.09564592 0.02318558 -0.059053853
000100 1e cc c7 bc a1 d0 0e 3e 91 bb 03 bd 26 fb 2c 3e
       -0.024389323 0.13946773 -0.0321613 0.1689268
000110 03 8c bc bd cb 86 87 bd 6b 0f a6 3e 58 42 16 bd
       -0.092063926 -0.066175066 0.32433638 -0.036684364
000120 b4 3a 41 3d b3 b4 1c be 87 22 95 3e 76 6b 3f be
       0.047175124 -0.15303306 0.29127905 -0.18693337
000130 43 52 be bd ed 4b 88 be 1b ac 76 3e 8d 8f 47 3e
       -0.09293034 -0.26620427 0.2408909 0.19488354
000140 09 27 d8 bc 51 53 c9 ba 76 3c a1 bd 92 b3 f9 bd
       -0.0263858 -0.0015359913 -0.0787286 -0.121924534
000150 86 9a 3e be e2 48 8e bd ad 29 b5 3c 50 4a 16 3d
       -0.18613634 -0.06947495 0.0221146 0.036691964
000160 e4 df 0b be d6 e3 3c 3c eb 51 54 bd 12 3e 96 3d
       -0.13659626 0.01152893 -0.051835936 0.07336058
000170 16 15 b2 3e 89 c9 01 be b7 74 85 be 22 6f a4 bd
       0.34781712 -0.12674536 -0.2606561 -0.080290094
000180 c6 97 8c 3d 6d b1 46 3e b6 b3 5d 3d e2 bb 12 3e
       0.06864886 0.1940362 0.054126464 0.14329484
000190 c6 06 fd bd f1 49 7c be 0d da 25 3d c0 62 9a be
       -0.123548076 -0.24637581 0.040491153 -0.30153465
0001a0 2a f0 c0 be bc f6 12 3e 4d a7 e8 3c 91 1e 79 3d
       -0.3768323 0.14351934 0.028400088 0.060820166
0001b0 37 db a1 3d fc 42 d8 3d 20 fe 39 be 42 c1 fa bd
       0.0790314 0.10559651 -0.18163347 -0.12243892
0001c0 78 47 e4 bd ca 8a 8c 3e e8 34 99 3d 49 0d 6f be
       -0.11146444 0.27449638 0.07480794 -0.23344912
0001d0 ae 47 7e 3e 81 fb 64 3d e0 b2 09 bd ff 25 c1 bd
       0.24832031 0.055903915 -0.033617854 -0.09431075
0001e0 ed 24 4d be 7e 0f 84 3e 82 1d 1d bd 1d a8 4f bd
       -0.20033617 0.2579307 -0.03835822 -0.050697435
0001f0 f3 15 fa 3d 9d 01 9c bd 9b 2f 9f 3e 79 de 85 3d
       0.12211218 -0.07617495 0.31091008 0.06536574
000200 d5 a5 bc 3d 4b 5b d7 3e 2e e7 5b 3e bc 6b fe 3d
       0.092113174 0.42061839 0.21474907 0.124228925
000210 5d 04 90 bd 0a 18 32 3e cd ec c2 3d 49 0e d9 3c
       -0.07032082 0.17391983 0.095178224 0.02649607
000220 dc 85 22 3e 34 ee 82 3d 37 8f 11 3e 7c 62 49 3d
       0.15871376 0.0639309 0.14214788 0.049166188
000230 1e 75 19 bb 6f 8e 92 3d 14 3f f8 3b 56 e4 10 3d
       -0.0023415755 0.07156073 0.007575879 0.035374008
000240 3c 67 7e 3e f6 f7 a7 bd 49 61 60 be 66 d8 90 3a
       0.24844068 -0.08201592 -0.21912111 0.001105082
000250 33 7e 7e 3a fa 58 5a 3e 0c fe 5b bd d4 2b be bc
       0.0009708136 0.21323004 -0.053709075 -0.023214258
000260 72 a1 e3 bd 08 6e 20 bd 7d 8c 82 3e 01 12 df 3d
       -0.111147776 -0.039167434 0.2549781 0.10892106
000270 52 e4 66 be 85 48 cd 3d de 43 2d 3e 52 c8 96 3e
       -0.22548035 0.10023598 0.1692042 0.29449707
000280 fd ed 3a 3e c5 5d a8 bd e3 fe 8c bd eb b9 1e 3e
       0.18254848 -0.0822101 -0.06884553 0.1550061
000290 f6 28 18 bd 4e d2 ed 3d 88 3c a9 3d f2 25 8d 3e
       -0.03714844 0.11612378 0.082634985 0.27568012
0002a0 85 87 3d bd 0c 99 a1 3c 2a df af 3d 6e 15 b8 bc
       -0.04627182 0.019726299 0.08587487 -0.022471156
0002b0 b7 6e 67 be a8 59 45 be 27 ac 62 3d eb 54 c7 bc
       -0.22600828 -0.19272482 0.05533996 -0.024332484
0002c0 32 4f 67 be 0e 3f 8a be 4b d2 9e 3d e1 82 a3 bc
       -0.22588804 -0.27001232 0.07754954 -0.019959869
0002d0 1c 1b f9 bd de 16 9c bd 06 f1 8c be b9 5e 98 bc
       -0.12163374 -0.07621549 -0.27527636 -0.018599855
0002e0 ac 52 ce bd 77 78 bd bd ae 2e f5 be bb fd 07 3d
       -0.10074362 -0.092514925 -0.47887176 0.03320096
0002f0 09 e0 7b bd 5a 29 86 be 37 48 8f 3e 17 4d 45 be
       -0.061492953 -0.26203424 0.27984783 -0.19267689

bias f4 [8]
000000 17 54 c0 bd fb 9d d2 3d c1 aa 30 be 5e fb 57 be
       -0.09391039 0.10284039 -0.17252637 -0.21091983
000010 0e b7 56 be 8b 74 6d 3e dc 7e 17 be b5 2f c8 bd
       -0.20968267 0.23188989 -0.14794487 -0.097747244

weight f4 [8]
000000 76 41 82 3f e0 c5 74 3f aa b7 7f 3f 3d b9 94 3f
       1.0176227 0.95614433 0.99889624 1.161903
000010 37 59 50 3f ce d5 81 3f af 02 3b 3f 7c 61 99 3f
       0.8138613 1.0143373 0.7305097 1.1982875

bias f4 [8]
000000 be 09 68 3d 60 62 5f 3e c9 70 c7 bb f8 78 61 3e
       0.056649916 0.21814871 -0.006086443 0.22018802
000010 e9 8e 28 3e 52 de 87 3e 33 e5 29 bd 96 5d c2 3b
       0.16460766 0.26536804 -0.041478347 0.0059315665

running_mean f4 [8]
000000 94 3c e7 3e 90 da bf 3d 7e 93 24 3d 48 50 11 bf
       0.45163405 0.09367859 0.040179722 -0.56763124
000010 e4 0c 7f be ef a2 6b 3f 80 f8 d3 3e 95 ba 6e bf
       -0.24907261 0.9204549 0.41400528 -0.9325345

running_var f4 [8]
000000 6e 85 80 3e 9b 2b fb 3e b7 e0 88 3e 67 b1 61 3e
       0.251018 0.49056706 0.26733944 0.2204033
000010 aa 4e 7e 3e 58 a7 19 3f a9 01 eb 3e 4b 3e fb 3e
       0.24834695 0.6002097 0.45899704 0.49070963

weight f4 [8, 8, 3]
000000 76 7a 49 bc a6 02 61 bd dd a9 50 bd 17 04 9d bd
       -0.012297263 -0.054934166 -0.050943244 -0.07666796
000010 39 05 9b 3d a7 b1 9a be 99 e7 7d 3e 39 83 40 be
       0.075693555 -0.30213663 0.24795379 -0.18800057
000020 ac 7e 27 bd 23 dc 91 bd 8f 58 7f be f0 d8 51 3d
       -0.040892288 -0.07122066 -0.24936126 0.05123228
000030 4d 7c 59 be 3f 38 2e bd dd d8 37 be 72 9f bf be
       -0.21238823 -0.04253411 -0.1795382 -0.37426335
000040 9c 4b 5b bd f2 51 c8 be 26 43 4f be b9 2f d8 3d
       -0.053538904 -0.3912502 -0.20240459 0.105559774
000050 f8 60 58 3d cf 1c c1 3d e5 b6 1c 3b 1a 06 11 3e
       0.05282685 0.09429323 0.0023912725 0.14162484
000060 8b f9 5e 3e 16 99 00 be 74 1a 10 3e 17 9b 42 3e
       0.2177488 -0.12558398 0.14072591 0.19004475
000070 8f ad 7f 3c 5f 7b 16 be d6 6d 1a bd 7e 8f a2 3e
       0.015605344 -0.146955 -0.037702404 0.317501
000080 49 ce 33 3e 20 43 6b 3d 50 07 b4 bc 50 22 ec 3d
       0.1755916 0.057437062 -0.021976143 0.11529982
000090 e1 19 d0 3d 54 ac 03 bd 7a c0 d1 bd 80 30 93 3e
       0.10161186 -0.032146767 -0.1024179 0.2874794
0000a0 0a 63 f0 3d b2 6d 6e be 14 a0 6a 3e 67 ef 4b 3c
       0.1173764 -0.23284033 0.22912627 0.012447215
0000b0 7e 51 7d bd 45 e5 6c 3e 4e 53 e6 bc 6e be 94 bd
       -0.061845295 0.23134334 -0.028115895 -0.07262884
0000c0 44 52 9b 3c ca 03 01 3e 41 92 90 be 0f 60 37 3e
       0.018960126 0.12599102 -0.28236583 0.17907737
0000d0 8f 2d 12 3e ff 0c 53 bd 95 62 e0 bd 63 29 a0 be
       0.14275192 -0.051526066 -0.10956303 -0.31281576
0000e0 d5 f4 18 be b2 e1 db 3c df ce 13 3e 04 91 1f 3e
       -0.14937146 0.026841018 0.14434384 0.15582663
0000f0 3c 31 ec 3c 1b a0 26 3d 65 95 88 3e c1 e4 4e 3e
       0.02883207 0.040680032 0.2667648 0.2020445
000100 50 2e 10 3d 11 ea 78 bd 26 be e9 bb aa 3c 93 3d
       0.035200417 -0.060770098 -0.007133263 0.07189305
000110 c8 26 33 bc ca f6 4f be af c4 af be 17 07 54 bd
       -0.010934539 -0.20308986 -0.34329745 -0.051764574
000120 55 e2 23 3e 76 1d 2f 3e 2f bb a5 3e 8a 61 9f 3d
       0.16004308 0.17101082 0.32369372 0.07782276
000130 03 55 06 3d 6f 9e 92 3e c2 aa 59 3d 02 e6 89 bc
       0.032795917 0.286365 0.053141363 -0.01683331
000140 55 fa e0 bd c0 37 a4 3d 55 59 7c 3e c2 9f 7e bd
       -0.10985247 0.08018446 0.24643452 -0.062164076
000150 b1 6d e2 3d 91 df 61 3d 83 4e 60 3e 1c c4 86 3d
       0.11056078 0.05514485 0.2190495 0.06580374
000160 59 52 79 be 59 b4 12 3e 9d d6 12 3d 73 79 31 bb
       -0.2434782 0.1432661 0.035849202 -0.0027080446
000170 4c ef dd bd eb b2 9d 3e ec 94 99 3e 75 ad 5d 3e
       -0.10836658 0.30800566 0.2999643 0.216482
000180 00 cb 78 bd a5 33 dc bd fc 27 d0 bd 66 83 81 3e
       -0.06074047 -0.10752038 -0.101638764 0.25295562
000190 b4 ec 96 3d 26 b9 a3 3d 4f 83 3f 3e 8d 48 57 3e
       0.07369366 0.07994299 0.18702434 0.2102377
0001a0 e7 82 57 3d 11 2a 9d 3c 11 13 17 3e 67 4a 82 be
       0.052615073 0.019185098 0.14753367 -0.2544739
0001b0 e5 ad 58 3d 26 a7 fb bd 6f 5a 36 be cf 5c 37 be
       0.052900214 -0.122877404 -0.17807935 -0.17906497
0001c0 44 52 52 3e d2 a8 59 be 27 ba 6e bd 3a 33 9e bd
       0.20539194 -0.21255806 -0.058282997 -0.077246144
0001d0 8e 14 5a bd 09 7c 43 3e 23 18 87 bd 9c 08 a6 be
       -0.05324226 0.19090284 -0.065964006 -0.32428443
0001e0 64 b3 95 3b 87 cc 53 3d 6d 37 43 be fe 06 81 3e
       0.004568504 0.051708724 -0.19064112 0.25200647
0001f0 09 1c b5 bd 10 5f 34 3e b2 f8 a0 bd 20 73 b3 bc
       -0.08843238 0.17614388 -0.07859935 -0.021905482
000200 87 62 e9 bc 03 c9 d8 ba c6 71 7d be 82 4e 8f 3e
       -0.028489364 -0.0016539398 -0.24750432 0.27989584
000210 ef bc 72 bc 18 2f 5c be c0 8d 86 bd 76 6e 04 be
       -0.014815553 -0.2150234 -0.065700054 -0.12932763
000220 35 eb a6 bd ba 4a bb 3d ef 79 da bd 49 05 3a be
       -0.08150331 0.09145112 -0.10667788 -0.18166079
000230 36 c9 04 3e d5 89 33 bd ca 5f b2 3e c8 0d aa be
       0.12967381 -0.04383262 0.34838706 -0.3321364
000240 6f 70 78 be 44 4e 94 be 09 b5 30 bd 7d 5d e2 3d
       -0.2426164 -0.28965962 -0.0431414 0.11052988
000250 4b b8 bc 3c 42 c2 a6 3d 9f 6c 7f be 59 d5 9a bd
       0.023037096 0.081425205 -0.2494378 -0.07560224
000260 08 85 76 bc 61 76 ed bd d2 cf 61 3e 2a 0d 3a be
       -0.015046366 -0.115948446 0.22051933 -0.18169084
000270 67 3e 88 be d1 68 d8 3d 49 56 8e bc 14 48 d7 3d
       -0.2661011 0.10566867 -0.017375128 0.10511795
000280 df 60 88 be ab 20 83 3d 18 14 a4 3d 07 34 51 bd
       -0.26636407 0.06402715 0.08011645 -0.051075008
000290 a7 2f 4d bd 35 f8 47 3e 69 be c7 bd 00 7b 29 3e
       -0.050094273 0.19528277 -0.09753115 0.16550827
0002a0 dd 61 b5 be 3b 71 2a bd 30 ab e1 3c 2c d1 a6 ba
       -0.35426226 -0.04161189 0.027547449 -0.0012727133
0002b0 bf af 31 bd 7f 09 99 3e 73 78 a2 3c 8f 4a c8 3c
       -0.043380495 0.29890057 0.019832825 0.024449615
0002c0 cb 8d 89 bd fa 31 fc 3d 58 1c 16 3e 2e 19 a6 3e
       -0.06716498 0.1231422 0.1465925 0.32441086
0002d0 0a 79 c9 bd 01 ac 0b bd 3b 33 7d bc 99 37 91 be
       -0.098375395 -0.034099583 -0.015454109 -0.2836273
0002e0 a0 56 19 3d 9a 08 78 3e 19 0e 5a 3e 50 a8 93 bc
       0.037436128 0.24222031 0.2129444 -0.018024594
0002f0 35 55 7f bd 88 f3 1b be be eb 25 3e a4 11 0f bc
       -0.06233712 -0.15229619 0.1620321 -0.008732233

bias f4 [8]
000000 25 69 3f be d0 f3 43 be c7 b9 ac 3d 59 02 18 bd
       -0.18692453 -0.19135976 0.08433872 -0.037111614
000010 90 86 33 be c3 d0 24 bd 9c e1 78 bd b1 ec f6 bc
       -0.175318 -0.040238153 -0.060762033 -0.03014216

weight f4 [8]
000000 45 63 8c 3f 3e 06 8a 3f c9 5d 4d 3f 79 56 79 3f
       1.0967795 1.0783155 0.8022123 0.9739757
000010 d8 4f 80 3f 2f 42 7c 3f 65 62 7e 3f ae c0 83 3f
       1.0024366 0.9853849 0.9936889 1.0293176

bias f4 [8]
000000 0a f9 6e 3e 22 45 06 3e e5 6a 80 3d 41 5b c4 be
       0.23337188 0.1311231 0.062703885 -0.3835087
000010 c8 13 4a 3d 2c 09 bb 3d b0 66 95 3e d2 53 83 3e
       0.04933527 0.09132609 0.29179907 0.25649887

running_mean f4 [8]
000000 8d 4a 5a bf 18 b8 99 3e cb e5 87 3c 50 90 6c 3f
       -0.85270005 0.30023265 0.016589066 0.92407703
000010 ab af 98 be c6 07 41 be 15 05 b3 be 35 24 2b 3e
       -0.29821524 -0.18850622 -0.34964815 0.1671303

running_var f4 [8]
000000 4d 15 dd 3f 2d 2c bf 3e e8 26 f9 3e ea 4c 27 3f
       1.7272125 0.3733839 0.48662496 0.65351737
000010 f7 7f 35 3e ae 14 80 3e 4c e0 e8 3e ed 30 cc 3e
       0.17724596 0.25015777 0.45483625 0.39881077

weight f4 [8, 8, 3]
000000 1b 21 a9 bd 2e 05 07 bf cc a5 a3 3c ba 30 91 bd
       -0.082582675 -0.5274228 0.019976519 -0.07089372
000010 03 17 0c 3e f9 de 43 3e b3 95 4c 3e 84 0c fc 3a
       0.13680653 0.19128026 0.1997898 0.0019229804
000020 98 40 c7 bd d2 d4 22 be b0 38 03 be 7f 54 75 bd
       -0.09729117 -0.15901497 -0.12814593 -0.059895035
000030 6a 5b f6 bd 31 30 8f be d0 df 34 bd 92 61 4d be
       -0.120291546 -0.27966455 -0.044158757 -0.20056751
000040 3f 59 83 bd 20 bc c4 bd 98 91 07 be ee 22 81 be
       -0.06413507 -0.096061945 -0.13239133 -0.25221962
000050 2e 30 a5 bd cb 65 f2 3d 69 30 e9 bd b9 24 25 be
       -0.0806583 0.11835822 -0.11386187 -0.1612729
000060 36 e0 7e 3d 48 44 c6 bd ca 06 92 be c9 f0 5b be
       0.062225543 -0.09680992 -0.28520805 -0.21478571
000070 0e f0 40 3d 0c 80 86 3e 67 96 55 be c0 d8 6c 3d
       0.047103934 0.26269567 -0.20858155 0.057823896
000080 2d c1 c4 3d bb be 69 bc d1 df 46 be 76 d0 2b bd
       0.09607158 -0.014266665 -0.19421317 -0.04194685
000090 12 b6 63 3e de 88 7e 3e d9 10 65 3e a4 f0 e1 bd
       0.22237423 0.24856898 0.22369708 -0.11032227
0000a0 2b 9e 8e 3d 7c 1b 84 be f2 41 68 3e 0b 01 bb 3c
       0.06963762 -0.2580222 0.22681406 0.022827646
0000b0 12 28 38 be e2 e5 2c 3e ee 3d c7 3d f5 b0 27 be
       -0.17984036 0.16884568 0.09728609 -0.16376098
0000c0 07 45 42 be b8 f2 94 be 87 9e d6 be 90 8e 87 be
       -0.18971644 -0.2909143 -0.41917822 -0.26475954
0000d0 e1 21 5b be 54 49 9c 3e 34 b4 81 3d 27 22 a1 3d
       -0.21399643 0.30524695 0.06333199 0.07867842
0000e0 db d3 0f 3e 5c 4b 6d 3d 14 bb 85 3d fc 5e 15 be
       0.1404566 0.057933196 0.06529823 -0.14587015
0000f0 37 4c 25 3e 5e e0 b4 3b 11 7c 97 bd f7 02 26 3d
       0.16142355 0.0055199107 -0.07396711 0.04053017
000100 40 20 fe 3d 7e 57 7d be 5d c8 3c 3e d7 30 38 3c
       0.12408495 -0.24740407 0.18435808 0.011242113
000110 99 e8 a6 be d0 e7 0c 3d 22 2c 4a 3e 06 18 44 bc
       -0.32599333 0.03440076 0.19743398 -0.011968618
000120 20 a8 86 3e 1e 08 a0 bd f2 82 15 3e 47 8e 7f 3d
       0.26300144 -0.07814048 0.14600733 0.062391546
000130 cf e1 f1 3d 18 a9 9d 3e 74 5e 9d 3d 15 7a cb bd
       0.11810648 0.3079307 0.07684031 -0.09935395
000140 15 3d 19 be 46 d7 3d be 3f 13 b8 be 26 0a 76 be
       -0.14964707 -0.18539152 -0.35952184 -0.24027309
000150 cf 86 e3 3d 33 77 da 3c 4c 36 0a 3e b2 38 fb bd
       0.11109697 0.026668167 0.13497275 -0.12266673
000160 0f aa cd 3d 05 6f d0 bd dd ce cc 3d e6 71 43 be
       0.10042202 -0.10177425 0.100003935 -0.19086418
000170 26 b0 85 bd a7 58 6e 3e 1a 84 d0 3d 9c 18 a0 bd
       -0.06527738 0.23276006 0.101814464 -0.07817194
000180 c7 bb 20 3d 0f 94 cc bd 9f d5 b3 3d fc 1f 2a be
       0.03924158 -0.099891774 0.08780979 -0.16613764
000190 8f 98 e9 3d 5d e4 4d bc 87 05 be bd e5 6b 67 bd
       0.11406051 -0.012566653 -0.09278398 -0.05649938
0001a0 bb 83 d6 3d 2d 2a 92 bd af 8d 1f bc 02 bb 49 bb
       0.10474344 -0.07136951 -0.00973837 -0.0030781631
0001b0 d7 1f 3a 3e 5a d9 49 3e 78 12 25 3e 5e e8 93 be
       0.18176208 0.1971182 0.16120327 -0.2888822
0001c0 99 3c af 3d 34 32 22 be a3 24 5a 3e 35 1c fa bd
       0.0855648 -0.15839463 0.21303038 -0.12212411
0001d0 db 31 24 be 46 d9 7d 3e 00 d6 38 be 22 ed 9b be
       -0.16034643 0.24789914 -0.18050385 -0.30454355
0001e0 74 87 fe bd 44 82 36 bd 27 b4 b0 3d 56 70 99 be
       -0.124281794 -0.044557825 0.08628111 -0.29968518
0001f0 32 32 ef 3d 7d 8e 0b 3e be 83 0c bd e9 8b dd bd
       0.11679496 0.13628574 -0.034305327 -0.10817701
000200 ae 99 8f bc e5 92 db 3c 8d 64 cc bd 3d 3a 3e be
       -0.017529335 0.026803443 -0.09980116 -0.18576904
000210 f6 d7 85 3e b8 15 04 bd 98 bd 12 3e ce eb 60 be
       0.26141328 -0.032247275 0.14330137 -0.21964952
000220 4f 1b d5 3d 26 3d 2a be 51 da 8a 3e 4d fe 13 bb
       0.10405599 -0.16624889 0.27119687 -0.0022581995
000230 83 df 4c be 3b 5b 02 3e 9e 8e 52 3e 6d 84 15 be
       -0.20007138 0.12730114 0.20562217 -0.14601298
000240 d0 5d ef 3d 5f 3b b4 be a5 df 98 3e 2f df c7 3d
       0.11687815 -0.35201547 0.29858127 0.09759366
000250 69 17 06 3d ef 70 31 3e 54 b2 4b 3e 19 5e 24 3d
       0.03273717 0.17328237 0.19892246 0.0401288
000260 bc aa 1b be 0d ea 04 be 2b 0d 95 bd 42 3d 41 be
       -0.15201849 -0.12979908 -0.07277902 -0.18871024
000270 fa c9 21 bd 7b 67 62 bd 54 f6 3b 3e b1 14 05 be
       -0.03949926 -0.055274468 0.18355685 -0.12996174
000280 2a 3f d9 3c 36 af d2 bd e7 8c 43 be 6b 74 1f bc
       0.026519377 -0.10287325 -0.19096719 -0.009732346
000290 b4 ff 11 3d 2f 3b c0 bd 68 2e 82 be d4 f6 34 be
       0.035644248 -0.093862884 -0.2542603 -0.17672282
0002a0 b6 1b 5e 3c 26 f1 4c be ad 37 14 3e 62 3a e5 be
       0.0135564115 -0.20013866 0.14474364 -0.44771105
0002b0 be 00 6d be b1 d4 9f 3d 81 2f 99 bd ae 9a 1e 3e
       -0.23144814 0.078042395 -0.07479764 0.15488693
0002c0 05 4d 4c bd 02 00 67 be 41 24 1e be 7a fc 25 3e
       -0.04987814 -0.22558597 -0.15443517 0.16209593
0002d0 c6 f6 21 be 16 39 0c bc b5 02 72 bc 68 81 12 3e
       -0.15816793 -0.008558532 -0.014771153 0.14307177
0002e0 9f 9d 00 3e 43 53 cc 3d 51 3e a8 3d ba 52 89 3d
       0.12560128 0.099768184 0.08215011 0.06705232
0002f0 dc 9f 6c bc 33 8a 21 bd 1d c6 73 bd bd ac 47 3e
       -0.01444241 -0.039438438 -0.059515107 0.19499488

bias f4 [8]
000000 81 98 71 be 53 e3 51 3e 68 a2 8c bb ac 76 61 3e
       -0.23593332 0.20496874 -0.0042918213 0.22017926
000010 93 b0 84 3c 9f 9d bc bd 45 48 a3 bd 59 58 06 be
       0.016197478 -0.09209751 -0.07972769 -0.1311964

weight f4 [8]
000000 67 f0 21 3f ce bb 1b 3f ab 36 35 3f 0d 82 1a 3f
       0.6325745 0.6083344 0.7078654 0.6035469
000010 e2 3b 25 3f da 00 1b 3f fe 6f 1a 3f 80 46 1d 3f
       0.645445 0.60548174 0.60327137 0.614357

bias f4 [8]
000000 cc f0 82 be dd 08 7e be e1 7b c7 bd aa e2 ad be
       -0.25574338 -0.24808069 -0.09740425 -0.33961993
000010 19 82 59 bd 57 1b 27 3d 36 dd 9b be db 94 f9 be
       -0.053102586 0.040797558 -0.30442208 -0.4874638

running_mean f4 [8]
000000 27 0a 8c bf c8 2f 68 3e f8 61 d1 be ac 2d e2 3e
       -1.0940598 0.22674477 -0.40895057 0.4417547
000010 4d 07 f4 bd a2 6b ce bd 96 b8 bb be 53 de 46 be
       -0.11915455 -0.10079123 -0.36664265 -0.19420747

running_var f4 [8]
000000 87 2c 7d 3e 99 33 86 3e a1 0e b8 3e cb 2d 7a 3e
       0.24724017 0.2621124 0.3594866 0.24431531
000010 a4 44 84 3e 27 b4 5e 3e d3 78 93 3e 30 6f 04 3f
       0.2583362 0.2174841 0.2880312 0.5173216

weight f4 [128, 25]
000000 d6 be b1 be dc aa 20 bf 78 17 46 bf 22 db a9 3d
       -0.3471591 -0.6276071 -0.7737956 0.082937494
000010 4b cf 0e 3e 09 65 54 be d4 6a 02 bf 3c 60 2b be
       0.13946263 -0.20741667 -0.50944257 -0.16735929
000020 c4 2d d3 3d 0b 33 ae 3d 51 96 44 bd 88 24 08 be
       0.103114635 0.085058294 -0.047994915 -0.13295186
000030 79 02 97 3c c7 a2 14 3e 98 b1 81 bc e3 07 b0 bd
       0.018433796 0.1451522 -0.015831754 -0.08595254
000040 72 56 93 be 1a a7 92 be 12 62 21 be 30 27 a2 3d
       -0.2877689 -0.28643113 -0.15760067 0.07917631
000050 a5 9f 14 3e ec 0d 99 3e 90 b8 62 3e 2d c6 98 be
       0.14514025 0.29893434 0.22140718 -0.29838696
000060 c4 37 7d 3e d9 e5 8d be 35 26 e6 be f5 0b ad be
       0.24728304 -0.27714422 -0.44951025 -0.33798185
000070 28 be 01 bf 57 30 96 be 7b c4 e2 be b8 2c a6 be
       -0.5068078 -0.29333755 -0.44290528 -0.32455993
000080 a8 0a af 3d 33 7a b2 3d aa 3b 0b bf 11 ce a2 3c
       0.085469544 0.08714714 -0.54387915 0.01987365
000090 76 d8 40 3e fd 68 0e 3d dc 2a 13 3c f2 c8 2b 3e
       0.18832573 0.034768093 0.008982386 0.16775873
0000a0 a1 47 98 be 58 21 05 be 25 40 18 be 77 67 4c be
       -0.2974215 -0.13001001 -0.14868219 -0.19961344
0000b0 c3 7f d2 3d b2 cf 20 bd 73 cf 71 3e 2d 56 01 3e
       0.10278275 -0.039260574 0.23614292 0.1263053
0000c0 e5 25 36 3d 78 26 2d be 45 36 62 3d e9 4b 5c be
       0.044469733 -0.16909206 0.055227537 -0.21513332
0000d0 66 3b b5 3e 9f 44 f0 3e 63 c5 c7 bd 8c 63 d1 be
       0.3539688 0.46927354 -0.097544454 -0.4089626
0000e0 5e d8 68 3e 25 4e a3 3c a3 51 6b be f7 d2 9a 3e
       0.22738788 0.019934723 -0.2298036 0.30239078
0000f0 cf a0 b3 bd ad bb 3c 3e b2 6c 44 be eb 79 8b 3d
       -0.08770906 0.18430968 -0.19182089 0.068103634
000100 10 95 95 3e 8d d0 38 be c3 14 01 3e f7 16 e2 3c
       0.29215288 -0.18048306 0.12605576 0.027598841
000110 f3 d5 70 3c 73 6b 46 3d af 64 82 3d ee 62 aa be
       0.014699447 0.048442315 0.0636686 -0.33278602
000120 f4 2e 61 3e 57 60 49 be 64 1c 9a 3d fc e4 c4 3d
       0.21990567 -0.19665657 0.07524946 0.09613988
000130 14 f2 a2 3d 83 f5 b0 3d c9 5c 21 3e bb d5 c7 be
       0.07956329 0.08640578 0.15758051 -0.3903025
000140 2d db 09 be 3c af f9 bd 57 96 df 3e fc 42 0a bd
       -0.13462515 -0.121916264 0.43669388 -0.033755288
000150 f0 f3 cb bc 9d 95 02 be 38 2f 22 be a4 1c 05 3d
       -0.024896592 -0.12752385 -0.15838325 0.032498017
000160 2e ff 89 3e 03 24 6a be 7e 0a 6e be 03 5c 07 be
       0.269525 -0.228653 -0.2324619 -0.13218693
000170 64 9f 19 3e 44 64 24 be e0 a1 a6 3d 78 67 6c 3e
       0.15002209 -0.16053873 0.08136344 0.23086345
000180 53 89 28 3e 28 fc 9d 3c d3 35 d2 3d f0 43 9a be
       0.16458635 0.019285277 0.102641724 -0.30129957
000190 60 7d b0 3e 7d ef 77 be 00 39 ad bd 3c b0 ea bd
       0.34470654 -0.24212451 -0.084581375 -0.11459395
0001a0 7e bb 44 3d ca b2 49 bd 54 ef 0e be f0 e1 a1 3e
       0.04803037 -0.049242772 -0.13958484 0.3161769
0001b0 ff fc 1e be bd 53 ee bd b2 9f 0e be 34 e7 6a 3e
       -0.15526198 -0.116370656 -0.13928106 0.2293976
0001c0 b1 7e dc 3d d5 df d8 be 69 c7 c2 be 4f 29 40 3e
       0.10766352 -0.4235827 -0.38042763 0.18765758
0001d0 c2 29 03 3b f8 95 39 3d af 03 b7 bd ea 26 85 3e
       0.0020013903 0.045309037 -0.089362495 0.26006252
0001e0 b7 23 b2 bd 9d b8 11 bd bf 16 aa be 03 a9 a9 3d
       -0.08698218 -0.03557645 -0.3322048 0.082841896
0001f0 38 75 95 3d 24 b7 19 be 5b 6a 2c bd c2 43 3c 3e
       0.07297748 -0.15011269 -0.042093616 0.18385223
000200 08 e1 96 3e 06 9a 4f 3d 54 f6 d1 bc 96 49 46 be
       0.2946856 0.050683998 -0.025630154 -0.19364008
000210 60 a3 8a be 75 98 17 be 4a 1e d5 be 47 b6 65 be
       -0.2707777 -0.14804251 -0.4162467 -0.22432815
000220 4e c5 c9 be 8a c3 81 bd e0 6d 7c be 7c fa 6d 3e
       -0.39408344 -0.06336124 -0.24651289 0.23240083
000230 48 d7 80 3e ce 32 33 be ac 43 3e 3e f3 4f 1d bc
       0.25164247 -0.17499849 0.18580502 -0.009601581
000240 01 ab 0b be 93 d1 70 bc 76 72 9b 3e 8b 6b fc 3d
       -0.13639452 -0.014698404 0.30360764 0.123252
000250 5d cf 9c bc d2 27 87 be 15 af f0 bd f4 58 50 be
       -0.019141847 -0.26397568 -0.11752144 -0.20346433
000260 a3 bc b4 be 0f 27 da 3d 89 dd f3 3d be 35 da bd
       -0.35300168 0.10651981 0.11907489 -0.10654782
000270 b4 d3 f1 be ab 66 66 be b2 5c 96 3d 6b 58 d6 be
       -0.4723183 -0.22500102 0.07341899 -0.41864333
000280 c0 31 79 be 41 07 07 3d 39 28 38 3e a2 c0 c5 3d
       -0.24335384 0.032965902 0.17984094 0.096558824
000290 88 af 30 be b0 0e 8e bd 38 0c 14 3e 41 05 e8 3d
       -0.1725446 -0.06936395 0.14457786 0.11329127
0002a0 12 e9 37 3d d2 f7 a9 bd ac 66 77 3e 59 36 13 be
       0.044900008 -0.08299221 0.2416026 -0.143762
0002b0 d7 04 40 3e 4c 2e b5 3d 60 9d 1f be e5 0c 72 3e
       0.18751846 0.08846721 -0.15587378 0.23637731
0002c0 4b 6d 55 3d 4c 78 da 3c 50 2a 47 bd 01 c8 28 bc
       0.052106183 0.02666869 -0.048624337 -0.010301591
0002d0 43 73 4a 3d d3 0d 16 3e f1 3f 95 bc b1 7b fa 3c
       0.04942633 0.14653711 -0.018218966 0.030576559
0002e0 ca d5 81 3e 89 f7 4f 3e d9 88 c4 be 52 37 7c 3d
       0.2535842 0.20309271 -0.38385656 0.061576195
0002f0 cc b7 68 3b 4a bb 2c 3b 3d 16 0a bc bd cb 8f bd
       0.0035509942 0.002635675 -0.008428154 -0.07021282
000300 a3 5b 20 be 11 7c ca 3c 20 78 1d 3e 31 a3 e0 bd
       -0.15659957 0.024717363 0.15377855 -0.10968626
000310 44 45 36 3e 31 07 97 bc 14 68 79 3d 2d 49 05 3e
       0.1779986 -0.018436046 0.060890272 0.13016196
000320 30 40 15 3e 2b 95 96 3e 96 bd 63 3e e1 3d 0e be
       0.14575267 0.2941068 0.2224029 -0.13890792
000330 61 8d 99 3b d2 42 d3 3d ee c8 9a 3e fb c1 a8 3e
       0.004686043 0.10315479 0.30231422 0.32960495
000340 8d f3 8a 3e 96 cd 2f be a8 d5 8c 3e 76 c2 60 be
       0.2713894 -0.17168269 0.27506757 -0.21949181
000350 f1 49 29 bd 68 ba ec bc ba 50 27 3c 43 f7 75 bd
       -0.04133028 -0.02889748 0.010212118 -0.06005026
000360 35 f5 32 bd 69 4c b0 bd 80 e6 21 3d 37 68 83 3e
       -0.04369088 -0.08608324 0.039526463 0.25665447
000370 ec db e3 3d 02 ba 10 3d a7 67 8c be 04 cc 41 bd
       0.11125931 0.03533364 -0.2742283 -0.047313705
000380 a8 e5 d6 bd 96 45 9d ba e7 55 15 bf 15 71 c1 3c
       -0.10493022 -0.0011998888 -0.583342 0.023613492
000390 a8 c0 1d 3e f6 38 fb bd 40 c0 4a 3e 86 27 bb 3d
       0.15405524 -0.12266724 0.197999 0.09138398
0003a0 22 bc 00 bc 7d 82 bf 3d 9f 47 3d 3e e0 9e e6 3d
       -0.007857354 0.093510605 0.18484353 0.11260772
0003b0 69 10 70 3d e7 63 9a be 71 2e 1d 3d cf 77 e4 3b
       0.0586094 -0.30154344 0.038374368 0.00697229
0003c0 47 42 b4 3d f8 d7 f9 3d 86 ec 44 be 93 af 92 bd
       0.08801704 0.12199396 -0.19230852 -0.071623944
0003d0 ea 8c a1 3e 86 cc a9 bc f3 d0 f3 bd 52 ba ec bd
       0.3155282 -0.020727407 -0.11905088 -0.11558975
0003e0 e6 05 fe bd fa 14 e3 bc 2d d5 1a 3a e3 1c af be
       -0.12403469 -0.027719963 0.00059063995 -0.34201726
0003f0 cb 43 40 3e 4d b9 98 ba 3b 80 bb 3c 7b 71 b8 be
       0.18775861 -0.0011651904 0.022888293 -0.3602408

bias f4 [128]
000000 95 15 1e 3e e5 71 20 3e cc 4a 90 bd 94 45 bd 3c
       0.1543792 0.15668447 -0.07045516 0.023104466
000010 26 ff af 3c e7 ac bc bd f8 29 07 3d 7a 03 4e 3d
       0.021483969 -0.09212666 0.03299901 0.050296284
000020 ab 1a f8 3b b3 e1 23 3d fb 58 ec 3d 1a 59 00 3e
       0.0075715384 0.040010165 0.11540409 0.1253399
000030 5e c8 ee 3d 21 11 01 3e 95 97 4b bb 8a fe be 3d
       0.11659311 0.1260419 -0.0031065692 0.09325893
000040 ac 37 eb bb a0 86 e3 bd fd e0 f2 3d ee 9d 04 3e
       -0.0071782675 -0.11109662 0.11859319 0.1295087
000050 2c 65 35 bd 54 d3 26 bd 11 e4 e5 3d 1e f1 3e 3e
       -0.04428594 -0.040728882 0.11225141 0.18646666
000060 93 2e 00 be 9d 85 8c 3d 01 78 57 3e ea ee bd 3d
       -0.12517767 0.06861422 0.21041872 0.09274085
000070 42 3b 0c 3e ab 95 1e bd 54 d0 dd bd 02 69 c2 bd
       0.1369448 -0.038716953 -0.10830751 -0.09492685
000080 75 1e 89 3d 55 5a a8 3d 93 80 7d 3d f5 93 7d 3e
       0.06695262 0.082203545 0.061890196 0.24763472
000090 12 a8 fe 3d 2f 47 97 bc 67 e9 80 bd e0 80 3d 3e
       0.124344006 -0.01846656 -0.06294518 0.18506193
0000a0 40 2c f5 3d 2a 8c 4b 3e c4 4c e9 3d 65 51 b7 3d
       0.11971331 0.19877687 0.11391595 0.08951072
0000b0 9d 18 29 bd 54 2b 31 3e 0e cf 4a bd 04 5c c0 bd
       -0.04128324 0.17301685 -0.04951387 -0.093925506
0000c0 d5 b2 44 bd cd 90 e0 3c 56 f4 78 3e 48 b5 da bd
       -0.04802211 0.027412796 0.24311957 -0.10679108
0000d0 2b 7d d3 3a f0 9d 01 bd bd 11 6c 3d c8 0c 32 bd
       0.0016135325 -0.03164476 0.057634104 -0.04346922
0000e0 14 7a 85 bd 6d 4e e5 3d 53 3d d1 3c 14 d5 40 3e
       -0.06517425 0.11196599 0.025541937 0.18831283
0000f0 4f aa 74 bc 47 86 01 3e 85 48 cb 3d d9 cc 54 3e
       -0.014933183 0.12648879 0.099259414 0.20781268
000100 f5 b7 54 3d 3f 48 b4 3d a5 74 ae 3d 4e 8e a8 3d
       0.051933248 0.08802842 0.08518342 0.082302675
000110 99 b4 67 3d a3 a9 98 3b ec 0e c3 3d 22 6f 88 3d
       0.056568716 0.004658894 0.095243305 0.06661822
000120 20 b0 80 bd 87 ff fd 3c 4a ff 06 3e a1 f0 72 3d
       -0.06283593 0.031005634 0.13183323 0.059311513
000130 cc 46 38 3e 7b fe 09 3d 3d 81 3a bc 42 32 bb 3d
       0.17995757 0.033689957 -0.011383352 0.09140445
000140 8f be 39 3e f8 81 98 3e e5 05 53 3e 46 5e f3 bd
       0.18139099 0.29786658 0.20607717 -0.118832156
000150 45 a3 96 be 42 24 96 3e 92 95 0f be 41 7c 91 bd
       -0.2942144 0.29324538 -0.140219 -0.07103778
000160 da 20 8c 3d a9 f4 dd bd 6a b5 85 bc 75 65 cf 3d
       0.068422034 -0.10837681 -0.016321857 0.10126773
000170 c8 e1 06 3c 13 70 f5 3d 9b ee 72 3c c5 9b fd 3d
       0.008232541 0.11984267 0.014827396 0.12383226
000180 28 0d ff 3d 5d 96 98 3d a8 51 97 3d d8 45 ed bc
       0.12453681 0.074505545 0.073886216 -0.028963968
000190 d5 30 cf 3c be 66 3e 3e 7e eb e8 3d 4e 54 90 bd
       0.02529184 0.1859388 0.113730416 -0.0704733
0001a0 24 49 c3 bd 96 03 38 3d 07 76 b6 3b 62 5a f5 3d
       -0.09535435 0.044925295 0.005568269 0.1198013
0001b0 12 87 f6 3d c1 30 e6 bc a6 f1 20 bd 39 3a 37 3d
       0.12037481 -0.02809942 -0.039292954 0.04473326
0001c0 f7 d6 2e be 77 c2 06 3d 73 e8 96 3d 21 80 34 bc
       -0.1707419 0.0329003 0.07368555 -0.011016876
0001d0 2a 0c 02 3d 6d 79 0d be 26 21 24 3e 23 a6 ac 3d
       0.03174988 -0.13815852 0.1602827 0.084301256
0001e0 d2 e3 d8 3d b4 bf c1 3c 28 e4 84 bc 27 97 02 be
       0.10590328 0.023650981 -0.016222075 -0.12752973
0001f0 a2 a3 a0 3c 44 f0 c9 3d 80 ad 89 3d a4 b8 79 3d
       0.019609276 0.0986028 0.067225456 0.060967103
