nn/checkpoints/main_objs_different_2023_04_23-11_06_41/1/model_0.pt (torch, 518495 bytes, 98 tensors)

weight f4 [8, 5, 3]
0	0xbe66687f	-0.225008
1	0x3d92aa03	0.071613334
2	0xbe0d37ee	-0.13790867
3	0xbd2e4e8a	-0.04255537
4	0xbd3f0d39	-0.04664347
5	0xbe587150	-0.21136975
6	0xbde147c4	-0.11000016
7	0x3bc300b0	0.0059510097
8	0x3d1bbdbc	0.03802274
9	0xbea6c777	-0.32574055
10	0x3cec6b97	0.028859897
11	0x3d521a47	0.05129459
12	0x38aff288	8.389825e-05
13	0x3e89df4d	0.26928177
14	0x3e213b26	0.1574522
15	0x3e363d6e	0.17796871
16	0x3d089e44	0.03335406
17	0xbe6c5f76	-0.2308329
18	0x3dbfa203	0.09357073
19	0x3e4c0759	0.19924678
20	0xbd4b18a0	-0.04958403
21	0x3e3e3cce	0.18577883
22	0x3e036c90	0.12834382
23	0x3e5d330e	0.21601507
24	0x3d2f20e0	0.04275596
25	0xbe1eb30a	-0.15497985
26	0x3dd36132	0.10321273
27	0x3dc3dcd5	0.09563605
28	0xbd8a8894	-0.067643315
29	0xbe69e325	-0.22840555
30	0x3e2e2633	0.1700676
31	0x3d12cbfc	0.035839066
32	0x3e7b5fc6	0.24548253
33	0xbe49c853	-0.19705324
34	0x3e4f5b14	0.20249587
35	0x3e8b99dc	0.27265823
36	0xbe5e53e4	-0.21711689
37	0xbe09c07b	-0.13452332
38	0x3d861a19	0.065479465
39	0xbe2b6e6b	-0.1674134
40	0xbcca2493	-0.024675643
41	0xbe2b98e0	-0.16757536
42	0x3d817a46	0.0632215
43	0x3e1028e9	0.14078106
44	0x3e196534	0.14980012
45	0xbbf959b5	-0.007609571
46	0xbd8e7d86	-0.069575354
47	0x3e493e69	0.19652714
48	0xbe63251c	-0.22182125
49	0x3d97212d	0.07379375
50	0x3e1e3be9	0.15452541
51	0xbe21bbf5	-0.15794356
52	0xbd286275	-0.04110952
53	0xbe60e812	-0.21963528
54	0xbe0b9261	-0.13630058
55	0x3e809a92	0.25117928
56	0x3dfc3197	0.12314146
57	0x3e334b39	0.17509164
58	0xbdfd54f7	-0.123697214
59	0x3e934702	0.28765112
60	0xbd4ac8b8	-0.049507827
61	0x3db1883d	0.086685635
62	0xbd8b120d	-0.06790552
63	0xbd970ba5	-0.07375268
64	0x3d67aba5	0.056560177
65	0x3e0998a2	0.13437131
66	0x3e510256	0.20411047
67	0x3d368fe7	0.04457083
68	0xbe28ec83	-0.16496472
69	0x3e6d7aff	0.2319145
70	0xbe11b2a3	-0.14228301
71	0xbe8559c3	-0.26045045
72	0x3e425407	0.18977366
73	0xbc9a26e5	-0.018817374
74	0x3e3646a3	0.17800383
75	0xbe7f9806	-0.24960336
76	0xbe11c378	-0.14234722
77	0x3d56f82c	0.05248277
78	0x3e2896db	0.16463797
79	0x3c28c92e	0.010301871
80	0xbcb9a6be	-0.022662517
81	0xbdb7f8ca	-0.089829996
82	0xbdb82820	-0.08992028
83	0x3e4fa419	0.20277442
84	0xbe75e99c	-0.24014896
85	0xbd7e5d9d	-0.062100995
86	0x3e82f7fb	0.2557982
87	0x3d6d0140	0.05786252
88	0x3e420074	0.18945485
89	0x3e22c95b	0.15897124
90	0xbe203461	-0.15644981
91	0xbdbed6d0	-0.09318316
92	0x3d563048	0.05229214
93	0x3e2a7e9e	0.16649863
94	0xbe5d5925	-0.21616037
95	0x3da31750	0.07963431
96	0xbe02d9a5	-0.12778337
97	0xbe8f5112	-0.2799154
98	0x3c6aa416	0.014321348
99	0xbe116490	-0.14198518
100	0x3e1368af	0.14395402
101	0x3e5a216a	0.21301809
102	0x3e0943df	0.13404797
103	0xbe133f84	-0.14379698
104	0xbbef659f	-0.0073058154
105	0xbeb1d32d	-0.34731427
106	0xbdab552b	-0.08365854
107	0x3b848cb5	0.004045094
108	0xbe3975ab	-0.18111293
109	0xbd363156	-0.044480644
110	0x3d4041eb	0.046937864
111	0x3cd7b5d2	0.026331816
112	0xbcb37e78	-0.021910891
113	0xbda77edf	-0.081784956
114	0x3d9c6951	0.07637275
115	0x3ce80f49	0.028327601
116	0x3daad737	0.0834183
117	0x3e249610	0.1607287
118	0xbe322f35	-0.1740082
119	0xbe512ea4	-0.20427948

bias f4 [8]
0	0x3e78adec	0.24285096
1	0xbe823d93	-0.25437602
2	0xbda00af4	-0.07814589
3	0xbde21af5	-0.11040298
4	0x3e26ee81	0.1630192
5	0x3e7b2b07	0.24528132
6	0x3e13bb91	0.1442702
7	0x3e70e466	0.23524627

weight f4 [8]
0	0x3f83e1f3	1.0303329
1	0x3f8105a4	1.0079846
2	0x3f7ddc30	0.99164104
3	0x3f75b01b	0.9597184
4	0x3f81f3fd	1.0152584
5	0x3f83efbf	1.030754
6	0x3f792fc2	0.973385
7	0x3f7d9ea5	0.990702

bias f4 [8]
0	0xbd243cc7	-0.040097024
1	0x3dc6d2c6	0.097081706
2	0x3dc4a7ce	0.09602319
3	0xbc6812a6	-0.014164602
4	0x3db50b83	0.08840086
5	0x3ded13ff	0.115760796
6	0x3ca804f9	0.020510184
7	0x3d1b8707	0.03797057

running_mean f4 [8]
0	0x3d3d369a	0.04619465
1	0xbcc2a93f	-0.023762343
2	0x3dac4c68	0.08413011
3	0x3c82a913	0.015949761
4	0x3ea23a57	0.31685135
5	0x3e9eda26	0.3102581
6	0xbc7ddaf3	-0.015494096
7	0xbd8bbefe	-0.06823538

running_var f4 [8]
0	0x3f163276	0.5867075
1	0x3f166a08	0.5875554
2	0x3f014246	0.5049175
3	0x3ea997b5	0.33123556
4	0x3ebb9b7b	0.3664206
5	0x3e89a112	0.268807
6	0x3ede0994	0.43366683
7	0x3f497354	0.786916

weight f4 [8, 8, 3]
0	0xbdf84cab	-0.12123998
1	0xbdb8e9ea	-0.090289906
2	0x3e69f359	0.22846736
3	0x3d9694d7	0.07352608
4	0xbe8487b7	-0.25884792
5	0x3d814618	0.063121974
6	0xbb478779	-0.0030445738
7	0x3e06650c	0.13124484
8	0xbe2d3da0	-0.1691804
9	0x3c32e3cf	0.010918572
10	0xbb8d0892	-0.004304
11	0x3da2eb48	0.079550326
12	0xbe141fa8	-0.14465201
13	0xbe3ad884	-0.18246657
14	0x3e00c967	0.12576829
15	0xbe480066	-0.19531402
16	0x3e3e9aab	0.18613689
17	0xbcc1b162	-0.023644153
18	0xbdbc7d55	-0.09203593
19	0x3e365d87	0.17809115
20	0xbe1a3562	-0.15059426
21	0x3bd678d8	0.0065451674
22	0x3c41281e	0.01178935
23	0xbcf5b3fc	-0.02999305
24	0x3e6c0648	0.23049271
25	0xbce9ce34	-0.028540708
26	0xbe08db95	-0.13365014
27	0x3b94e08f	0.004543371
28	0x3dad59fb	0.08464428
29	0xbe68703e	-0.22699067
30	0x3d2455cc	0.040120885
31	0xbe049b56	-0.12949881
32	0x3d97d57e	0.07413767
33	0xbe0596ba	-0.13045779
34	0xbd06499a	-0.032785036
35	0xbd31be98	-0.043394655
36	0xbda93cea	-0.082635716
37	0x3b4d9e7c	0.0031374982
38	0xbd6ed2b8	-0.058306426
39	0xbc7a1711	-0.0152642885
40	0x3d90a79a	0.070632175
41	0x3cff8fbd	0.03119647
42	0xbcd89391	-0.026437553
43	0x3c352606	0.011056429
44	0x3d09516c	0.033524916
45	0xbe2af1bb	-0.16693775
46	0x3c007d47	0.007842368
47	0xbe477037	-0.194764
48	0xbd369833	-0.044578742
49	0x3e20f9e0	0.1572032
50	0xbde92b11	-0.113851674
51	0x3e662695	0.22475655
52	0x3e319d1d	0.1734509
53	0xbe22e4af	-0.15907548
54	0xbe19c590	-0.1501677
55	0x3da8a51c	0.08234617
56	0x3db9c16f	0.09070098
57	0x3d187fcb	0.037231248
58	0xbcab8412	-0.020937
59	0xbc4b1f5f	-0.012397616
60	0x3e4a0142	0.19727042
61	0x3d5c93e7	0.05385199
62	0xbca12086	-0.019668829
63	0x3e43f1dd	0.19135232
64	0x3e590291	0.21192385
65	0x3da76434	0.08173409
66	0xbd87d8c5	-0.066331424
67	0xbd945739	-0.07243199
68	0xbe161559	-0.14656581
69	0xbe2723e4	-0.16322285
70	0x3e32ad2b	0.17448871
71	0x3e2b7a99	0.16745986
72	0x3db0d773	0.08634844
73	0xbe6205e4	-0.2207256
74	0xbbe81b0d	-0.007083303
75	0x3e4ab38b	0.19795053
76	0xbe627756	-0.22115836
77	0xbd6c474e	-0.05768519
78	0xbda900db	-0.08252116
79	0xbdafffbb	-0.085936986
80	0x3c1fe33a	0.009758765
81	0xbe251a2b	-0.16123264
82	0x3d0e1e80	0.034697056
83	0xbdd0c5ff	-0.10194015
84	0x3e22bdf6	0.15892777
85	0xbd99240c	-0.074775785
86	0x3e116c62	0.14201501
87	0x3d61677c	0.05503033
88	0x3dbca257	0.09210651
89	0xbd49a353	-0.049228024
90	0xbe07639e	-0.13221595
91	0x3e32b266	0.17450866
92	0x3e365e84	0.17809492
93	0x3de530bf	0.11190938
94	0xbd823995	-0.06358639
95	0xbe377b0d	-0.17918034
96	0xbdd01f29	-0.10162193
97	0x3d46c9f2	0.048532434
98	0x3b4633b8	0.003024323
99	0xbd822178	-0.0635404
100	0x3b48af40	0.0030622035
101	0x3dc1d7eb	0.09465011
102	0xbe4651aa	-0.1936709
103	0x3d6ea393	0.058261465
104	0xbe063d5b	-0.13109343
105	0xbdb41157	-0.0879237
106	0xbe058572	-0.13039187
107	0x3d69bd37	0.057065215
108	0x3e6ecaca	0.23319545
109	0xbde325f0	-0.110912204
110	0xbd231448	-0.039814264
111	0xbd838cfe	-0.064233765
112	0x3e2e5103	0.17023091
113	0x3e4c36eb	0.19942825
114	0x3daf946d	0.08573232
115	0x3e4083ec	0.18800324
116	0xbb120966	-0.0022283434
117	0x3e468b13	0.1938899
118	0x3e35f66b	0.17769782
119	0x3e39e918	0.18155324
120	0xbd3a8ada	-0.045542575
121	0x3d1bfc2a	0.03808228
122	0x3de7130c	0.1128293
123	0xbe777e9a	-0.24169388
124	0x3d4badf8	0.049726456
125	0x3d0a3129	0.03373829
126	0xbdf339cb	-0.118762575
127	0x3e2280a7	0.1586939
128	0x3e2e47e0	0.17019606
129	0xbd07f7cb	-0.0331953
130	0x3e0e9362	0.1392341
131	0x3ba619c2	0.0050689885
132	0xbe623451	-0.2209027
133	0xbdfa4645	-0.12220434
134	0xbe165d95	-0.14684136
135	0x3e19259c	0.14955753
136	0x3e04ffda	0.12988225
137	0x3d336f48	0.043807298
138	0x3be878fa	0.0070944997
139	0x3dfd77ef	0.12376391
140	0xbd33fef7	-0.043944325
141	0x3e215a08	0.15757
142	0xbdde8eb9	-0.10867066
143	0xbd1017ae	-0.035178833
144	0x3e624cc2	0.22099593
145	0x3e09fd56	0.13475546
146	0xbe13e463	-0.14442591
147	0xbd925784	-0.071455985
148	0x3cb18313	0.021668946
149	0x3e12aaa7	0.14322911
150	0x3e0ff48d	0.14058132
151	0x3be3723e	0.006941109
152	0x3e3a916d	0.18219538
153	0xbe2609b3	-0.16214637
154	0xbdc7d7e8	-0.09757978
155	0x3dacbaac	0.08434042
156	0xbe535962	-0.20639566
157	0xbd5fe0c1	-0.0546577
158	0xbe5505b4	-0.20802957
159	0xbd904f25	-0.070463456
160	0xbdf617b4	-0.1201624
161	0x3c88dd0f	0.016706971
162	0x3d38a44a	0.045078553
163	0x3e0473c6	0.12934789
164	0x3d09ff91	0.033690993
165	0xbd1d88a4	-0.03846039
166	0x3e0826d1	0.13296057
167	0xbd084c3d	-0.03327583
168	0x3e23d225	0.15998133
169	0xbe3b2191	-0.18274523
170	0x3db33e49	0.08752114
171	0x3e17d8d4	0.14828807
172	0xbc053127	-0.008129395
173	0x3e25f407	0.1620637
174	0xbd46781d	-0.048454393
175	0xbcef6356	-0.029222172
176	0x3e26c075	0.16284354
177	0xbe0d9ccc	-0.13829345
178	0x3dd8c30e	0.10584079
179	0x3de63379	0.112402864
180	0x3e1fc675	0.15603049
181	0xbd0de89b	-0.034645658
182	0x3e5647a0	0.2092576
183	0x3e3c054b	0.18361394
184	0xbcd286c5	-0.025699029
185	0x3dc023d1	0.093818314
186	0xbdbfea8d	-0.09370909
187	0xbe20035e	-0.15626284
188	0x3e4d6345	0.200574
189	0x3dac3188	0.08407885
190	0xbe21de4d	-0.15807457
191	0xbde19eda	-0.11016627

bias f4 [8]
0	0x3daaa846	0.08332877
1	0x3df1bb59	0.11803312
2	0xbc83e9aa	-0.01610263
3	0xbd7bf0c2	-0.0615089
4	0xbe232c3d	-0.15934844
5	0x3e334351	0.17506148
6	0xbc487ddb	-0.0122370375
7	0x3ced0a14	0.02893547

weight f4 [8]
0	0x3f81024e	1.0078828
1	0x3f81ab68	1.0130434
2	0x3f81c2cc	1.0137572
3	0x3f781336	0.96904314
4	0x3f6e45ea	0.9307543
5	0x3f888d49	1.0668117
6	0x3f89c1bb	1.0762247
7	0x3f75074f	0.9571428

bias f4 [8]
0	0x3db127f9	0.08650202
1	0x3d36768e	0.044546656
2	0xbc4cef92	-0.01250829
3	0xbda54d1d	-0.08071349
4	0x3ce5d233	0.028054332
5	0x3d36d039	0.04463217
6	0x3d23e990	0.040017664
7	0x3bd363e8	0.0064511187

running_mean f4 [8]
0	0xbce75ac3	-0.02824152
1	0xbdb441d7	-0.088016205
2	0x3e7356bf	0.2376356
3	0xbdd8869f	-0.10572552
4	0x3da081f0	0.078372836
5	0x3e5ecb2c	0.21757191
6	0xbb82a43e	-0.0039868644
7	0x3e8b194f	0.27167746

running_var f4 [8]
0	0x3e9d8d79	0.30771998
1	0x3e2254e9	0.15852703
2	0x3ec00c7e	0.3750953
3	0x3e5cd4f9	0.21565618
4	0x3e3984ee	0.18117115
5	0x3e1a69ef	0.15079473
6	0x3e5c98ec	0.2154271
7	0x3ef6804f	0.48144767

weight f4 [8, 8, 3]
0	0x3cb30928	0.021854952
1	0x3da4e5b0	0.08051622
2	0x3d76b775	0.060233552
3	0x3d9d3315	0.07675759
4	0x3e37d8c1	0.17953779
5	0x3b3ab2fd	0.0028488033
6	0xbe0519b1	-0.12998082
7	0xbc5603a7	-0.013062394
8	0x3e2934a3	0.16523986
9	0xbe0f0614	-0.13967162
10	0x3c55fe3f	0.013061105
11	0x3e485b4c	0.19566077
12	0xbe1050d6	-0.14093336
13	0x3dafc808	0.08583075
14	0x3e075154	0.13214618
15	0xbd5f6d42	-0.054547556
16	0x3e2b06f4	0.16701871
17	0x3d21b984	0.039483562
18	0xbd4f5d9b	-0.05062638
19	0xbd927c2a	-0.07152589
20	0x3d9b17af	0.07572877
21	0x3dbec3da	0.093146995
22	0xbde16d44	-0.11007169
23	0x3e3e09e3	0.18558459
24	0x3d6ec4f4	0.058293298
25	0x3dbc79fc	0.09202954
26	0xbe39c6cd	-0.18142243
27	0x3e50da60	0.20395803
28	0xbe0e0839	-0.13870324
29	0xbd58f7ff	-0.052970883
30	0x3e2022e1	0.15638305
31	0xbe415202	-0.1887894
32	0xbddab8d1	-0.10679782
33	0x3d704026	0.058654927
34	0xbe0d94a0	-0.13826227
35	0xbe135e21	-0.14391376
36	0xbce909a7	-0.028446985
37	0xbe1fcaac	-0.15604657
38	0x3d094422	0.033512242
39	0x3c3331d0	0.010937169
40	0xbdb53f90	-0.08850014
41	0x3d7dad6e	0.061932974
42	0xbe15af23	-0.1461759
43	0xbc1819c7	-0.00928349
44	0x3e0eacbb	0.13933079
45	0x3db36e8b	0.08761319
46	0xbddf22ad	-0.10895286
47	0x3d2fd407	0.042926814
48	0x3e65f131	0.22455288
49	0x3cb2c25d	0.021821195
50	0xbe65d072	-0.22442797
51	0x3e57b8a3	0.21066527
52	0xbd76a8b9	-0.0602195
53	0xbd9d63c4	-0.076850444
54	0xbe1d57d0	-0.15365529
55	0xbe0a5a33	-0.13510971
56	0x3de27d71	0.11059082
57	0xbdfeedfb	-0.12447735
58	0x3cbce017	0.023056073
59	0x3e0052d1	0.12531592
60	0xbbfb3d62	-0.0076672295
61	0x3ca55e04	0.020186432
62	0xbe01983e	-0.12655732
63	0x3e3e4ee0	0.18584776
64	0x3d8d3f9d	0.06896899
65	0xbe33bb03	-0.17551808
66	0x3df92b3d	0.1216645
67	0xbdf09284	-0.11746696
68	0xbd4d0f81	-0.050063614
69	0xbcf49cc5	-0.02985991
70	0xbd679283	-0.05653621
71	0x3de4a606	0.11164479
72	0x3e39a437	0.18129049
73	0xbda17ab7	-0.07884734
74	0x3dadcd69	0.084864445
75	0xbe1fbc30	-0.15599132
76	0xbe1ac18c	-0.15112895
77	0xbe1fec23	-0.15617423
78	0x3e5acb1e	0.21366546
79	0x3d82ab04	0.06380275
80	0xbdd6f6ec	-0.10496315
81	0xbd82e64b	-0.06391581
82	0x3e252bc9	0.16129984
83	0x3dee5c5c	0.1163871
84	0x3cfd0566	0.030886363
85	0x3e1d47e2	0.15359452
86	0xbe353af3	-0.17698269
87	0x3de53287	0.11191278
88	0xbe557c89	-0.20848288
89	0xbd0684b8	-0.032841414
90	0x3bcfb524	0.0063387323
91	0x3e03db97	0.12876736
92	0xbe3992bb	-0.1812238
93	0xbc805bf7	-0.015668852
94	0x3e663e58	0.2248472
95	0xbcf05033	-0.029335117
96	0xbe194843	-0.14968972
97	0xbd820a8b	-0.06349667
98	0x3c25b915	0.010114928
99	0x3dc52db3	0.09627857
100	0xbe3df216	-0.1854938
101	0x3da96d80	0.082728386
102	0x3d938680	0.07203388
103	0x3d122c05	0.03568651
104	0xbdde8913	-0.108659886
105	0x3d6489dd	0.05579554
106	0x3e319164	0.17340618
107	0x3d162f4a	0.036666192
108	0xbe89df57	-0.26928207
109	0x3e1d349f	0.15352105
110	0xbddb1d82	-0.106989875
111	0xbe5033bf	-0.2033224
112	0xbe1dc2a3	-0.1540628
113	0x3c85f5da	0.016352583
114	0xbe201d56	-0.15636191
115	0xbe1a2cd0	-0.15056157
116	0xbd8e645a	-0.06952734
117	0xbe1f3794	-0.15548545
118	0xbdf4892e	-0.119402274
119	0x3e065761	0.1311927
120	0x3e2fee07	0.17180644
121	0x3d1e9c6b	0.03872339
122	0xbd560984	-0.05225517
123	0xbdc95051	-0.09829772
124	0x3e182f79	0.1486186
125	0xbe29a10a	-0.16565338
126	0xbc1fe89c	-0.009760048
127	0x3df9a00a	0.12188728
128	0x3e1b9740	0.15194416
129	0x3e259243	0.16169076
130	0xbe0eaae7	-0.13932382
131	0x3e530667	0.20607911
132	0xbd9794d6	-0.07401435
133	0x3e4a8ffe	0.19781491
134	0x3dc62f2c	0.09676966
135	0xbce5a334	-0.028031923
136	0xbcb77078	-0.022392496
137	0x3e4e3924	0.20138985
138	0x3e74cadc	0.2390551
139	0x3e17a04c	0.14807242
140	0xbd805e5b	-0.06267997
141	0x3de7243b	0.11286207
142	0x3dc7c765	0.09754828
143	0x3dbf376a	0.09336741
144	0x3e2079e4	0.15671498
145	0xbe44c8e0	-0.19217253
146	0x3d9a8dc2	0.075465694
147	0x3ca0dd30	0.01963672
148	0x3e84d8e5	0.25946727
149	0xbe029d52	-0.12755325
150	0xbde93a1a	-0.11388035
151	0xbd18fd7f	-0.037351128
152	0xbd0d164b	-0.03444509
153	0xbc8d5c45	-0.017255912
154	0x3e33a851	0.17544676
155	0x3d884366	0.0665348
156	0x3dd8b24c	0.105808824
157	0xbdf0f45c	-0.11765358
158	0xbe35c884	-0.17752272
159	0xbdf589d4	-0.11989179
160	0xbd24944a	-0.040180482
161	0x3dab49fb	0.0836372
162	0xbe014eaa	-0.12627664
163	0x3e55b047	0.20868026
164	0xbcccc5cd	-0.024996663
165	0x3e36f5cc	0.17867202
166	0xbd36931b	-0.044573884
167	0xbdd1933c	-0.10233161
168	0x3ddc430c	0.10754976
169	0x3cec89b8	0.028874263
170	0x3d085d49	0.03329209
171	0xbda9a689	-0.08283717
172	0xbe558603	-0.20851903
173	0xbd78777f	-0.060660835
174	0x3b508936	0.0031820065
175	0xbda84309	-0.08215911
176	0x3e076212	0.13221005
177	0x3dbc17f4	0.09184256
178	0xbda823b7	-0.08209937
179	0x3e24fbfe	0.16111752
180	0xbd08d322	-0.033404477
181	0xbe5162c5	-0.20447834
182	0xbcba73a9	-0.02276023
183	0xba97ff56	-0.0011596482
184	0xbe0da80f	-0.1383364
185	0xbe4f9f8b	-0.20275705
186	0x3d8a39eb	0.06749328
187	0xbded9df5	-0.116023935
188	0x3e957cf1	0.29196885
189	0x3de04c02	0.10951997
190	0xbe02a412	-0.127579
191	0x3b8e7470	0.0043473765

bias f4 [8]
0	0xbdf374bd	-0.118875004
1	0xbcdc6711	-0.026904615
2	0xbd8d4333	-0.06897583
3	0xbe3341ba	-0.17505541
4	0xbde65ff1	-0.11248768
5	0x3e228eab	0.15874736
6	0xbe33531d	-0.17512174
7	0x3cfce8c8	0.030872717

weight f4 [8]
0	0x3f7d4ce0	0.98945427
1	0x3f7e6fff	0.9938964
2	0x3f81c12d	1.0137078
3	0x3f75d911	0.9603434
4	0x3f871b19	1.0555145
5	0x3f7bc1aa	0.9834238
6	0x3f819e86	1.0126503
7	0x3f816027	1.0107468

bias f4 [8]
0	0x3daa9d42	0.08330776
1	0x3dad1a9e	0.084523425
2	0x3b116968	0.002218807
3	0x3d3fc7de	0.046821468
4	0x3d932b62	0.07186009
5	0xbbd8ba90	-0.006614037
6	0x3de817c4	0.11332658
7	0x3d8ee15a	0.06976576

running_mean f4 [8]
0	0x3ddd2f16	0.107999966
1	0xbe11ffa7	-0.1425768
2	0xbdcdace0	-0.10042739
3	0xbe1c0889	-0.15237631
4	0xbed92321	-0.42409614
5	0x3f1199a3	0.56875056
6	0xbe3608aa	-0.17776743
7	0xbd54daac	-0.051966354

running_var f4 [8]
0	0x3e5092cf	0.20368503
1	0x3e145c00	0.1448822
2	0x3dc75b7a	0.09734245
3	0x3e32c0bd	0.17456336
4	0x3e325c20	0.17417955
5	0x3f000e29	0.50021607
6	0x3da1e4d9	0.07904977
7	0x3dfda8d6	0.123857185

weight f4 [8, 8, 3]
0	0xbe3283cd	-0.1743309
1	0x3d2ffd59	0.04296622
2	0xbe2351b3	-0.15949135
3	0x3e53de3f	0.20690249
4	0x3d84bad9	0.06480951
5	0x3db0fd71	0.0864209
6	0x3dc21422	0.09476496
7	0x3e092006	0.13391122
8	0x3db53b20	0.08849168
9	0x3c6162dc	0.01375648
10	0xbdaabfde	-0.08337377
11	0x3dc255db	0.09489032
12	0x3c0ad8bc	0.008474525
13	0x3e691db7	0.22765242
14	0x3e067088	0.13128865
15	0x3dbdab40	0.09261179
16	0x3d8d689c	0.06904718
17	0x3e613874	0.21994191
18	0xbd7433e1	-0.059619788
19	0x3d743456	0.059620224
20	0xbba87c1a	-0.005141747
21	0x3e7e9e22	0.2486501
22	0xbe2519f9	-0.16123189
23	0xbd3568cd	-0.0442894
24	0x3dc80c4b	0.0976797
25	0x3dae5bf4	0.085136324
26	0x3d225568	0.03963223
27	0xbe8482f2	-0.25881153
28	0xbd3c2689	-0.045935187
29	0x3b95df86	0.004573765
30	0x3e265a36	0.1624535
31	0x3e63b6cf	0.22237705
32	0x3d1d5b03	0.038416874
33	0xbd7871d1	-0.06065542
34	0x3e4f70ee	0.20257923
35	0x3e0ab1c4	0.13544375
36	0xbdbf2cbf	-0.093347065
37	0xbe6d0e86	-0.23150072
38	0xbd68ba15	-0.056818087
39	0x3dc66f7c	0.09689233
40	0x3da0cf54	0.07852045
41	0xbd079a1a	-0.033105947
42	0x3ba6dbb3	0.005092108
43	0xbe1aedba	-0.15129748
44	0xbdaefb03	-0.085439704
45	0xba2143c4	-0.00061517605
46	0x3be8334f	0.0070861946
47	0x3d856395	0.065131344
48	0xbc946f8b	-0.018119594
49	0xbdd321ae	-0.10309158
50	0xbdffbebb	-0.12487551
51	0x3dfafce1	0.12255264
52	0x3e19e0c5	0.15027149
53	0xbe40d971	-0.18832947
54	0x3e9ade83	0.30247888
55	0xbe0618d0	-0.13095403
56	0x3dfb1c67	0.12261277
57	0xbd001d00	-0.031277657
58	0xbdcdd156	-0.10049693
59	0xbc6d0c69	-0.014468291
60	0x3e08c96b	0.13358085
61	0xbd3a6acc	-0.045512006
62	0x3d1fb4ef	0.03899091
63	0xbe522d69	-0.20525135
64	0xbdda62fe	-0.106634125
65	0x3d8a9898	0.06767386
66	0xbbc2eebe	-0.0059488704
67	0x3e1f1e78	0.15538967
68	0x3d81442a	0.063118294
69	0xbdd2149a	-0.10257836
70	0x3e0e83b0	0.13917422
71	0xbe0dac48	-0.13835251
72	0x3d870c27	0.06594115
73	0xbc9f6686	-0.019458067
74	0x3e80eab2	0.25179058
75	0xbe27a6bf	-0.16372202
76	0x3b3da74f	0.0028938835
77	0xbd770422	-0.060306676
78	0x3dc3511e	0.09536956
79	0x3dd4a9ed	0.10383973
80	0xbd8ace9b	-0.06777688
81	0x3dc8f3b8	0.09812111
82	0x3a8a3f03	0.0010547343
83	0xbd73c100	-0.05951023
84	0xbe71e0ce	-0.23620912
85	0xbe53a826	-0.20669612
86	0x3cf4e2a5	0.029893229
87	0x3df5d30b	0.12003144
88	0xbb01185c	-0.0019698357
89	0x3e1ee684	0.15517622
90	0xbd385e1d	-0.04501163
91	0xbcc045a7	-0.023470713
92	0x3e7e1683	0.24813275
93	0xbdacbe83	-0.08434775
94	0xbda50896	-0.08058278
95	0x3cf47835	0.029842475
96	0x3dcfd833	0.101486586
97	0x3e460480	0.19337654
98	0x3d53696c	0.05161421
99	0xbd8e7ca7	-0.06957369
100	0xbe06b310	-0.13154244
101	0xbe3b377c	-0.18282884
102	0x3db810f5	0.08987609
103	0xbd4e5918	-0.050377935
104	0xbe279967	-0.16367112
105	0x3e42f503	0.19038777
106	0x3e56e17d	0.20984454
107	0x3d985e0b	0.07439812
108	0xbab80c5e	-0.0014041772
109	0xbd9549b5	-0.07289449
110	0xbe40285b	-0.18765394
111	0xbd2e9a51	-0.042627636
112	0xbde34e31	-0.11098898
113	0x3db2809d	0.08715937
114	0x3c8786d9	0.016543793
115	0xbe3e47ff	-0.18582152
116	0x3e308267	0.17237245
117	0xbdb69ff0	-0.089172244
118	0xbc3c7cef	-0.011504396
119	0x3d044c6f	0.032299455
120	0xbe3c7652	-0.1840451
121	0x3e324244	0.17408091
122	0xbbdd2105	-0.006748321
123	0x3da41408	0.08011633
124	0x3e04146b	0.12898414
125	0xbd0f37d3	-0.034965347
126	0x3e3e8167	0.1860405
127	0xbc63384d	-0.013868404
128	0x3dc8fc53	0.09813752
129	0x3e57a552	0.21059158
130	0x3e56f4ee	0.20991871
131	0x3db4090d	0.08790789
132	0xb9091ed7	-0.00013076827
133	0x3e088986	0.13333711
134	0x3d637bcd	0.055537988
135	0x3d800d9d	0.062525965
136	0x3e3dc1eb	0.18531005
137	0x3da93ead	0.082639076
138	0x3c987cfb	0.018614283
139	0x3d3b63ea	0.045749582
140	0xbd69a4ce	-0.057041936
141	0x3db9675f	0.090529196
142	0xbcc9218a	-0.024552125
143	0x3dea20c0	0.11432028
144	0x3e3e7a60	0.1860137
145	0xbd567192	-0.052354403
146	0xbe300da6	-0.17192706
147	0xbe0c6f77	-0.13714395
148	0x3bc41fc0	0.00598523
149	0x3e4e8429	0.20167603
150	0xbe4e56eb	-0.20150344
151	0x3b646bde	0.0034854333
152	0xbd12257f	-0.03568029
153	0xbdb31286	-0.087437674
154	0x3e7335cc	0.2375099
155	0x3dcf04d6	0.10108344
156	0xbc17169d	-0.0092217
157	0x3d516d37	0.051129546
158	0x3d74da80	0.05977869
159	0x3e10e68a	0.14150444
160	0x3e3bb085	0.18329056
161	0xbd78b0d1	-0.0607155
162	0xbe0bb58d	-0.13643475
163	0x3dd1c31b	0.102422915
164	0xbd960794	-0.07325664
165	0x3cd3f52f	0.025873749
166	0x3d33b094	0.04386957
167	0x3e500eee	0.20318195
168	0x3cc46bf8	0.023977265
169	0xbd275e22	-0.040861256
170	0x3cf5ad3e	0.029989835
171	0x3d924189	0.07141406
172	0xbe85f0ff	-0.26160428
173	0xbb8a9bc8	-0.0042299964
174	0x3de7e873	0.11323633
175	0x3cda2914	0.026630916
176	0xbd278f0b	-0.0409079
177	0xbe2ff108	-0.1718179
178	0x3dde0abd	0.10841892
179	0xbe1a70ff	-0.15082167
180	0xbe38c5b4	-0.18044168
181	0xbe1842ef	-0.14869283
182	0xbe3caa62	-0.18424371
183	0x3d89fdd8	0.0673787
184	0xbe384c50	-0.17997861
185	0xbe2c9ade	-0.16855952
186	0xbe5e7e21	-0.21727802
187	0x3d894e3d	0.06704376
188	0x3d2ef3de	0.04271304
189	0xbe254491	-0.16139437
190	0x3e294b34	0.16532594
191	0xbe10be5a	-0.14135113

bias f4 [8]
0	0xbd533a95	-0.05156954
1	0x3d4dd49d	0.050251592
2	0xbe168461	-0.14698936
3	0xbe1faabd	-0.15592475
4	0xbe3db94f	-0.18527721
5	0x3e205f24	0.15661293
6	0xbdda32d1	-0.10654224
7	0xbe0b31ff	-0.13593291

weight f4 [8]
0	0x3f8087b4	1.0041413
1	0x3f7f8158	0.9980674
2	0x3f805de3	1.0028652
3	0x3f87779d	1.0583378
4	0x3f7875f8	0.97055006
5	0x3f8035ec	1.0016456
6	0x3f71547f	0.94269556
7	0x3f8900f4	1.0703416

bias f4 [8]
0	0xbce47026	-0.027885508
1	0x3d9c39fd	0.07628248
2	0xbbabb702	-0.005240322
3	0x3d8cae36	0.068691656
4	0x3b3b3843	0.002856747
5	0xbc88d7a1	-0.016704382
6	0xbc8609db	-0.016362121
7	0x3db78082	0.08960058

running_mean f4 [8]
0	0x3e910f6e	0.28332084
1	0x3d5ee83e	0.054420702
2	0xbdf0b9f1	-0.117542155
3	0xbe1217e4	-0.14266926
4	0xbe787b05	-0.24265678
5	0x3f16f416	0.58966196
6	0x3d074d12	0.033032484
7	0xbf021dec	-0.5082691

running_var f4 [8]
0	0x3e543291	0.20722415
1	0x3e92ece7	0.28696367
2	0x3ea98952	0.3311258
3	0x3e8bc4ca	0.27298576
4	0x3e6962bd	0.22791572
5	0x3f204104	0.62599206
6	0x3ecc7790	0.3993497
7	0x3ea2ed72	0.3182178

weight f4 [8, 8, 3]
0	0x3d816ee4	0.06319979
1	0xbd0f063f	-0.034918066
2	0x3cf7da70	0.030255526
3	0x3d1dfad8	0.0385693
4	0x3d98c3bd	0.07459209
5	0xbe3b0c67	-0.1826645
6	0x3e248cd1	0.16069342
7	0xbe5b7756	-0.21432242
8	0x3d58de01	0.052946094
9	0xbcafc646	-0.021456849
10	0xbe6c0432	-0.23048475
11	0x3dae79da	0.08519335
12	0xbe1414a2	-0.14460996
13	0xbd0db516	-0.034596525
14	0xbe0594b9	-0.13045014
15	0xbe7e44ad	-0.24830885
16	0xbddeeabb	-0.10884615
17	0xbe719c91	-0.23594882
18	0xbdcf9bef	-0.10137164
19	0x3df9eef2	0.12203778
20	0xbd5f22cf	-0.054476555
21	0x3e0e8b1d	0.13920255
22	0xbc3c4fb7	-0.011493615
23	0x3dde8cfc	0.108667344
24	0x3e33e1dd	0.17566629
25	0xbe1c1d54	-0.15245563
26	0x3c85a56f	0.016314236
27	0x3e183df2	0.1486738
28	0xbc0608ec	-0.008180838
29	0xbe24d1ff	-0.16095732
30	0xbdfc00d4	-0.123048455
31	0x3e372f8a	0.17889228
32	0x3dbe5eed	0.092954494
33	0x3d337cfe	0.043820374
34	0xbdebd739	-0.1151566
35	0x3cd4b490	0.025965005
36	0x3e2e0cbd	0.16997047
37	0xbdad33dc	-0.08457157
38	0xbdbf0b2f	-0.09328305
39	0x3e2bf40a	0.16792312
40	0xbc74e861	-0.014947982
41	0xbe52d0d1	-0.2058747
42	0x3e37a7ac	0.17935055
43	0x3d89169a	0.06693764
44	0xbd873b7a	-0.06603141
45	0x3d831da3	0.06402137
46	0x3d1e98b0	0.038719833
47	0xbe29f666	-0.165979
48	0xbb9ba0fb	-0.004749415
49	0x3dbf6a43	0.0934644
50	0xbe1b57ef	-0.15170263
51	0x3e2cf966	0.16892013
52	0x3e4eb22f	0.20185159
53	0xbd092428	-0.033481747
54	0xbdf85df0	-0.12127292
55	0xbded8aac	-0.11598715
56	0xbe121c47	-0.142686
57	0xbca397e2	-0.019969884
58	0x3d3ff485	0.04686405
59	0x3d8c151e	0.06839965
60	0xbd9e780a	-0.077377394
61	0xbe122134	-0.14270478
62	0x3e001aec	0.1251027
63	0x3e328a6e	0.17435619
64	0xbdc663bc	-0.096869916
65	0xbd9cfe36	-0.076656744
66	0x3ce7325a	0.028222252
67	0x3ccbf688	0.024897829
68	0xbc85bd81	-0.016325714
69	0xbe4fa214	-0.20276672
70	0xbe64bc0e	-0.22337362
71	0xbe15a2d9	-0.14612903
72	0x3e014b62	0.12626413
73	0xbcabdddc	-0.020979814
74	0x3e8ddaf3	0.27706107
75	0x3dd17e5d	0.1022918
76	0x3ce5a3dd	0.028032238
77	0x3d882f0d	0.06649599
78	0xbd8b2a34	-0.06795159
79	0x3dbc28b5	0.09187452
80	0xbe3c998f	-0.18417953
81	0x3dab6b93	0.083701275
82	0x3e310504	0.1728707
83	0xbe175136	-0.14777073
84	0x3e01895e	0.12650058
85	0xbce05527	-0.027384354
86	0x3e2e445b	0.17018263
87	0x3e07c4ab	0.13258617
88	0xbe169503	-0.14705281
89	0x3d82d526	0.06388311
90	0x3e18415d	0.14868684
91	0xbc529c21	-0.012854607
92	0xbc7678aa	-0.015043417
93	0x3e4a9e64	0.19786984
94	0x3e4b4f85	0.19854553
95	0x3e4ac8be	0.1980314
96	0x3d166cc6	0.03672483
97	0xbca98baf	-0.02069649
98	0xbe0a0277	-0.13477503
99	0x3e50c254	0.2038663
100	0x3c4b9554	0.012425739
101	0x3e1ab3b0	0.15107608
102	0x3de1ba1c	0.11021826
103	0x3e341630	0.17586589
104	0x3d182306	0.037142776
105	0x3d22eb64	0.039775267
106	0x3d9ea292	0.077458516
107	0xbe1e1370	-0.15437102
108	0x3e011496	0.12605509
109	0xbde07991	-0.10960687
110	0xbd8184b4	-0.06324139
111	0xbe3befe9	-0.18353237
112	0x3e3b797b	0.1830806
113	0xbe3ef087	-0.18646441
114	0xbe0d9005	-0.1382447
115	0xbd1775e0	-0.03697765
116	0xbc025eb4	-0.007957149
117	0x3dea76ff	0.11448478
118	0x3c9957ea	0.018718679
119	0xbe3ae996	-0.18253168
120	0x3d444e35	0.047926147
121	0x3dc34ec1	0.095365055
122	0xbe074fc2	-0.13214019
123	0x3e558d7a	0.2085475
124	0xbdfb5982	-0.12272932
125	0x3e112fbf	0.1417837
126	0xbdee1e23	-0.11626842
127	0x3d8fe4b9	0.07026047
128	0xbe09240f	-0.13392662
129	0x3c43891f	0.011934548
130	0xbca5edda	-0.020255018
131	0x3e5e5736	0.21712956
132	0xbd114754	-0.035468414
133	0xbd85f4fe	-0.06540869
134	0xbe115414	-0.1419223
135	0xbe196f98	-0.14983976
136	0xbdb5bf12	-0.088743344
137	0xbbb88f01	-0.005632282
138	0xbe3ff4e2	-0.18745759
139	0xbdea0262	-0.11426236
140	0x3dcd1a77	0.100148134
141	0xbd2b04da	-0.041752674
142	0x3e857d0f	0.26071975
143	0xbe6c2c74	-0.23063833
144	0xbe242418	-0.16029394
145	0xbd7028a9	-0.058632527
146	0xbda74d96	-0.08169095
147	0x3de11f13	0.10992255
148	0xbcf48740	-0.029849648
149	0x3cc62893	0.02418927
150	0xbd3facde	-0.04679572
151	0xbc5043a8	-0.012711443
152	0x3d4bcdd0	0.049756825
153	0xbd58ea1e	-0.052957647
154	0x3dceecf4	0.10103789
155	0xbe57bb04	-0.21067435
156	0xbdd0a7c0	-0.10188246
157	0x3ddbe3dc	0.1073682
158	0xbda11255	-0.07864825
159	0x3e0879bc	0.13327688
160	0xbe4ddba2	-0.20103315
161	0xbd12b21b	-0.035814386
162	0x3e153fb0	0.14575076
163	0xbdcbe752	-0.0995623
164	0x3d8d4ccd	0.06899414
165	0x3e5c7910	0.21530557
166	0x3cb828d1	0.0224804
167	0x3dd7661f	0.10517525
168	0xbe43f94a	-0.19138065
169	0x3e592249	0.21204485
170	0x3d0c068a	0.034185924
171	0xbd85b8fc	-0.065294236
172	0xbde1c380	-0.11023617
173	0x3e4358d3	0.19076853
174	0xbc9bc58e	-0.0190151
175	0xbd1eeef0	-0.038802087
176	0xbd22bcd7	-0.039730873
177	0x3e1531cf	0.14569782
178	0x3d526ebd	0.05137514
179	0x3e643c6d	0.22288676
180	0xbdbe9a06	-0.093067214
181	0x3db03961	0.08604694
182	0xbd592fb2	-0.053024
183	0xbe528154	-0.20557147
184	0x3df94590	0.12171471
185	0x3e194688	0.14968312
186	0x3e0a88b0	0.13528705
187	0x3da4d9d7	0.08049362
188	0x3c92b64d	0.017909193
189	0x3cd012ce	0.025399592
190	0x3db97ae5	0.090566434
191	0xbe00032b	-0.12501208

bias f4 [8]
0	0xbdf840bf	-0.12121724
1	0xbe2e7708	-0.17037594
2	0x3db58689	0.08863551
3	0xbd800e04	-0.06252673
4	0xbe0bd4cf	-0.13655399
5	0xbd4a5da4	-0.04940571
6	0xbd9d915c	-0.07693741
7	0xbd7eb8b1	-0.062187854

weight f4 [8]
0	0x3f8073ae	1.0035303
1	0x3f835963	1.0261654
2	0x3f73d9df	0.9525432
3	0x3f811dcc	1.0087218
4	0x3f81a56d	1.0128609
5	0x3f8623c6	1.0479667
6	0x3f7d14b8	0.9885974
7	0x3f768ecc	0.9631164

bias f4 [8]
0	0x3d3a71a4	0.045518532
1	0x3d6f3512	0.05840022
2	0x3d32ea9e	0.04368078
3	0xbe218ba5	-0.15775926
4	0x3d8def09	0.06930358
5	0x3dda7b77	0.1066808
6	0x3de20da1	0.11037756
7	0x3d813074	0.0630807

running_mean f4 [8]
0	0xbea2481c	-0.3169564
1	0xbe130f0a	-0.14361206
2	0xbe059e97	-0.13048778
3	0x3ecbf2e6	0.39833754
4	0xbdeaaaf9	-0.11458392
5	0xbe12b5d9	-0.14327182
6	0xbd7d214e	-0.06179934
7	0x3dafb34d	0.08579121

running_var f4 [8]
0	0x3f5dd7d3	0.86657447
1	0x3e033122	0.12811711
2	0x3e309d58	0.17247522
3	0x3f2951b9	0.66140324
4	0x3dd9a3fe	0.10626982
5	0x3e1e99d9	0.15488376
6	0x3e464479	0.19362058
7	0x3ec45879	0.3834875

weight f4 [8, 8, 3]
0	0x3d137b82	0.036006458
1	0xbe9561f4	-0.29176295
2	0xbd09b7a7	-0.03362241
3	0x3c5facc3	0.013652029
4	0x3dee595e	0.11638139
5	0x3d789cd8	0.060696453
6	0x3e486402	0.195694
7	0xbbe06024	-0.0068473984
8	0xbe005463	-0.12532191
9	0xbdcac5f0	-0.09901035
10	0xbdf7bfc9	-0.12097127
11	0xbdb2fee6	-0.08740024
12	0x3ba436dd	0.005011423
13	0xbe51edc7	-0.20500861
14	0x3cab6469	0.020921903
15	0xbe777573	-0.24165897
16	0x3d8ff950	0.070299745
17	0xbcfa44a9	-0.030550318
18	0xbe71449f	-0.23561333
19	0xbe62489b	-0.2209801
20	0xbd70b418	-0.0587655
21	0x3d10f274	0.03538747
22	0xbdc94d8d	-0.09829245
23	0xbd6458d5	-0.05574878
24	0x3c73895c	0.014864292
25	0x3d34dcff	0.04415607
26	0xbe1fb268	-0.155954
27	0xbd7b2e51	-0.061323468
28	0x3e183d09	0.14867033
29	0x3e63b019	0.22235145
30	0xbe436d90	-0.19084764
31	0x3dce97ca	0.10087545
32	0x3e0b4029	0.13598694
33	0x3d554f63	0.052077662
34	0xbe04dd11	-0.12974955
35	0x3d3bd80e	0.045860343
36	0x3d84ad0f	0.06478321
37	0x3e67e89c	0.22647327
38	0x3dbbc1f1	0.09167851
39	0xbbfb2f75	-0.0076655694
40	0xbca47829	-0.020076828
41	0xbe718ebc	-0.23589605
42	0x3e4e79fe	0.20163724
43	0x3e03590c	0.12826937
44	0xbd97e609	-0.074169226
45	0x3d87269f	0.06599163
46	0x3d8b5161	0.06802631
47	0xbe4d7465	-0.20063932
48	0xbc07c667	-0.008287049
49	0xbdf813f7	-0.12113183
50	0xbe8eb4ac	-0.27872217
51	0xbe41a3c0	-0.18910122
52	0xbe83ea15	-0.25764528
53	0x3e5feee7	0.21868478
54	0x3c6c4d02	0.014422657
55	0x3d56c736	0.052436076
56	0x3dca1a4f	0.09868299
57	0x3dbabfcf	0.09118616
58	0x3dc15d3d	0.09441612
59	0xbe026514	-0.1273387
60	0x3c7011c0	0.014652669
61	0x3ce56493	0.02800206
62	0xbcfd412f	-0.030914871
63	0xba5b5e8f	-0.00083682773
64	0x3e067549	0.13130678
65	0xbe95b7fa	-0.29241925
66	0x3dd3fb87	0.103507094
67	0x3cb8077e	0.02246451
68	0xbe7c0e6e	-0.2461488
69	0xbd6e8367	-0.058230784
70	0x3e0de0b2	0.13855246
71	0xbbb0e458	-0.0053983144
72	0x3dece2ed	0.1156672
73	0xbd961b07	-0.07329374
74	0x3e037dd5	0.1284097
75	0x3ded85f7	0.115978174
76	0x3dc96701	0.098340996
77	0x3e4b1801	0.19833376
78	0x3dd2d4d3	0.10294499
79	0xbe1582d8	-0.14600694
80	0xbd967d2d	-0.07348094
81	0xbe33a08e	-0.17541716
82	0xbe621c26	-0.2208105
83	0xbe34c32e	-0.1765258
84	0xba9a8e3b	-0.0011791656
85	0x3e1828da	0.14859334
86	0x3d39d1b6	0.04536601
87	0xbd94b16c	-0.07260403
88	0x3e1744d5	0.14772351
89	0xbd9f46e9	-0.07777197
90	0x3da41d3d	0.08013389
91	0xbe5e87f5	-0.21731551
92	0x3d0ea0fb	0.03482149
93	0x3e41b89d	0.1891808
94	0x3dd598f7	0.10429566
95	0xbdae1ead	-0.08501945
96	0xbe1b168d	-0.15145321
97	0xbdc43074	-0.09579554
98	0xbd373f5d	-0.044738162
99	0x3bd088b4	0.0063639525
100	0x3dbffb84	0.09374145
101	0xbcc55bd8	-0.024091646
102	0xbdb37893	-0.08763232
103	0xbe0fd542	-0.14046195
104	0x3d3f0ebf	0.046644922
105	0xbd119869	-0.03554574
106	0xbd327e6a	-0.04357759
107	0x3d2201e9	0.039552603
108	0x3e0dd31d	0.13850065
109	0x3e861b39	0.26192644
110	0x3e3b4bd4	0.18290645
111	0xbe33f91f	-0.17575501
112	0x3e0bde53	0.13659029
113	0xbe11e336	-0.1424683
114	0x3dbdb64c	0.09263286
115	0xbc6d9bf7	-0.014502517
116	0xbda656f5	-0.081220545
117	0x3df3e1c0	0.11908293
118	0xbe139396	-0.14411768
119	0xbe23f136	-0.16009983
120	0xbe524bd5	-0.2053674
121	0xbd7b80a2	-0.06140197
122	0x3dfe0469	0.12403185
123	0xbe1b83bc	-0.15186971
124	0x3dd81148	0.10550171
125	0xbb4d32e5	-0.0031310853
126	0xbc1c04ed	-0.009522659
127	0xbddf00f7	-0.10888856
128	0xbd9083ba	-0.07056375
129	0xbb9277f8	-0.004469868
130	0xbd38cec8	-0.045119077
131	0xbe34b3a7	-0.17646657
132	0x3e5f9e23	0.21837668
133	0x3e1f5249	0.15558733
134	0x3ddaee5c	0.10689995
135	0xbe0d1a18	-0.13779485
136	0x3e3dea79	0.18546475
137	0xbe119820	-0.14218187
138	0x3cf3288d	0.029682422
139	0xbd394c70	-0.045238912
140	0xbdf898d0	-0.12138522
141	0x3b729edb	0.0037020955
142	0x3e2474ae	0.16060135
143	0x3cea9bf3	0.028638816
144	0x3da31687	0.07963281
145	0xbe94a5ee	-0.29032844
146	0x3e01558a	0.12630287
147	0x3df70830	0.120621085
148	0xbdb348bc	-0.08754107
149	0x3e38a1a0	0.18030405
150	0x3e2e0cdd	0.16997094
151	0x3dcfe3c6	0.10150866
152	0x3b26b42e	0.0025436985
153	0xbd0ab2a3	-0.033861768
154	0xbdb24cce	-0.087060556
155	0xbd9977ac	-0.07493529
156	0xbd45478a	-0.048163928
157	0xbce6d027	-0.028175427
158	0x3e2d009a	0.1689476
159	0xbe111789	-0.14169134
160	0x3cad2b85	0.021138916
161	0xbd327b79	-0.043574784
162	0xbe1953a2	-0.1497331
163	0x3d52ec36	0.0514948
164	0x3da90dfc	0.082546204
165	0xbd590658	-0.052984565
166	0xbd916495	-0.070992626
167	0xbe277007	-0.16351329
168	0xbda24fbf	-0.079253666
169	0xbe957ff6	-0.2919919
170	0xbb09bb12	-0.0021016044
171	0xbe5441fb	-0.20728295
172	0xbde73a5a	-0.112904266
173	0xbc8d4e87	-0.017249359
174	0xbd043709	-0.032279048
175	0x3e5e9c54	0.21739322
176	0x3be79f6d	0.0070685656
177	0xbe2e0f9c	-0.16998142
178	0xbe28136a	-0.16413656
179	0x3dceb567	0.100931935
180	0x3cb764b2	0.022386882
181	0x3cf1b6fc	0.029506199
182	0xbdb1a65d	-0.086743094
183	0x3e2a8771	0.1665323
184	0x3d043ae9	0.032282744
185	0x3dbfa038	0.09356731
186	0x3cfb1aab	0.030652365
187	0xbd430e47	-0.047621038
188	0x3c3e0515	0.011597891
189	0xbcdb75cd	-0.02678957
190	0xbe038c9a	-0.12846604
191	0x3e39b4f8	0.1813544

bias f4 [8]
0	0xbde40308	-0.11133391
1	0x3de30ffb	0.110870324
2	0xbdcb74cf	-0.09934389
3	0x3e3730f9	0.17889775
4	0x3cba5e14	0.022749938
5	0xbe2bc3f3	-0.16773967
6	0xbd5753da	-0.0525702
7	0xbe145d41	-0.14488699

weight f4 [8]
0	0x3f65b36b	0.89726895
1	0x3f7b4316	0.9814924
2	0x3f7a9251	0.9787951
3	0x3f8255dc	1.0182452
4	0x3f80e382	1.006943
5	0x3f82a249	1.0205775
6	0x3f74184b	0.9534957
7	0x3f6778aa	0.90418494

bias f4 [8]
0	0xbd9ecc8b	-0.07753857
1	0x3d917bb2	0.07103671
2	0x3d908cb1	0.07058085
3	0xb8955fff	-7.122754e-05
4	0x3c83d418	0.016092345
5	0x3d31a985	0.043374557
6	0xbd54077a	-0.051764943
7	0xbe240799	-0.16018523

running_mean f4 [8]
0	0xbf01a388	-0.50640154
1	0x3e84a772	0.25909
2	0xbe95e15b	-0.29273495
3	0x3e87ed42	0.265482
4	0xbce2b9d9	-0.02767651
5	0xbe522b2b	-0.2052428
6	0xbdc046ce	-0.09388505
7	0xbe6f4623	-0.23366599

running_var f4 [8]
0	0x3e23ff46	0.16015348
1	0x3e825953	0.25458774
2	0x3e298201	0.16553499
3	0x3dd9ce71	0.10635079
4	0x3dd35ed3	0.10320821
5	0x3dbcc9dc	0.09218189
6	0x3d81110e	0.06302081
7	0x3e0c6d38	0.13713539

weight f4 [128, 25]
0	0xbe2a4a2b	-0.16629855
1	0xbeafa3a2	-0.3430453
2	0xbe94a7a9	-0.29034165
3	0xbd3fb207	-0.04680064
4	0x3dcb6ea8	0.099332154
5	0x3d7f9ff5	0.062408406
6	0xbdd54789	-0.10414035
7	0xbd9c56d7	-0.07633751
8	0xbcf6c227	-0.030121876
9	0x3dcb4381	0.09924985
10	0xbd0eb203	-0.034837734
11	0xbce3f3f9	-0.027826296
12	0x3de6806c	0.11254963
13	0xbc982110	-0.018570453
14	0xbdb68de8	-0.08913785
15	0xbd0bf6cf	-0.034170922
16	0xbde700cc	-0.11279449
17	0xbd863896	-0.06553762
18	0x3c92e834	0.017932989
19	0xbca93fab	-0.020660242
20	0x3dfcf08e	0.1235057
21	0x3e0c2ef7	0.1368979
22	0x3d9a3158	0.07528943
23	0xbd9a6cec	-0.075403064
24	0x3e38d636	0.18050465
25	0x3e1cc61b	0.15309946
26	0xbc0eb53e	-0.008710204
27	0xbd973a0c	-0.073841184
28	0xbdb31e21	-0.08745981
29	0xbe415462	-0.18879846
30	0xbe1c2557	-0.15248619
31	0xbe15192e	-0.14560387
32	0x3c5d5b0d	0.013510478
33	0x3e06337a	0.13105574
34	0xbe8c53cf	-0.2740769
35	0xbb814b46	-0.003945741
36	0x3e24a27e	0.16077611
37	0xbd80c1ba	-0.062869504
38	0xbce5e607	-0.028063787
39	0x3de10022	0.109863535
40	0xbe7f2c8e	-0.2491934
41	0xbd6cb6bc	-0.057791457
42	0x3dcd1aa1	0.10014845
43	0xbdd4b069	-0.1038521
44	0x3e30214d	0.17200203
45	0xbc564a71	-0.013079272
46	0x3e139d1c	0.14415401
47	0x3dff5964	0.12468222
48	0x3dd2037a	0.10254569
49	0xbe34a733	-0.17641906
50	0x3e1243f2	0.14283732
51	0xbdad03f2	-0.08448018
52	0x3e96db7f	0.29464337
53	0x3e8440bb	0.25830635
54	0x3d017f6d	0.031615663
55	0xbe163a00	-0.14670563
56	0x3e88bc44	0.26706135
57	0x3d2d2c4e	0.04227858
58	0x3dd2368a	0.10264309
59	0x3e49d10c	0.19708651
60	0xbe0b1e31	-0.13585736
61	0x3df86b5c	0.12129852
62	0xbe074123	-0.13208441
63	0x3e06f48e	0.13179228
64	0x3e389bd7	0.18028198
65	0xbde1f088	-0.11032206
66	0x3d17f98e	0.03710323
67	0x3dada55e	0.08478807
68	0x3dbbe783	0.09175017
69	0x3cf1e22e	0.029526796
70	0x3d85cda4	0.065333635
71	0xbdde3777	-0.10850423
72	0x3e1a7803	0.15084843
73	0xbe752ff7	-0.23944078
74	0x3e0e0f39	0.13872994
75	0xbdc00e5a	-0.09377737
76	0xbca19474	-0.019724108
77	0x3e347212	0.1762164
78	0x3e45590b	0.19272248
79	0xbc7445d2	-0.014909225
80	0x3e56d66b	0.20980231
81	0xbce3a8f0	-0.027790517
82	0x3e319c6c	0.17344826
83	0x3e5d53eb	0.21614043
84	0x3ce0cfcb	0.027442833
85	0xbccf37ef	-0.025295226
86	0x3c687723	0.014188561
87	0x3c8ae572	0.016955111
88	0x3e4adf6e	0.19811794
89	0xbd908bde	-0.070579275
90	0xbdf4db1c	-0.11955854
91	0xbd0fac5c	-0.035076484
92	0x3dcb6b8f	0.099326245
93	0xb919739a	-0.00014634282
94	0x3d4b21cf	0.04959279
95	0x3da0b4a3	0.07846954
96	0x3e14e9ce	0.14542314
97	0xbde6e76c	-0.11274609
98	0x3e0e1133	0.13873748
99	0xbe1de80d	-0.15420552
100	0x3e382231	0.17981793
101	0xbe0f7041	-0.14007665
102	0xbde0ed21	-0.10982729
103	0xbe59ea3c	-0.2128076
104	0x3c919bb4	0.01777444
105	0x3c8bb66c	0.017054759
106	0xbe0958aa	-0.13412729
107	0x3df010de	0.11721967
108	0x3d25ddff	0.040494915
109	0xbded562d	-0.11588702
110	0xbdf4801c	-0.119384974
111	0x3e1c1315	0.15241654
112	0x3dff472f	0.12464749
113	0xbe6123cb	-0.2198631
114	0xbe408cae	-0.18803665
115	0x3e3b9cae	0.18321487
116	0xbd967d8e	-0.073481664
117	0xbdb04768	-0.0860737
118	0x3d2737e0	0.04082477
119	0x3e31c5f9	0.17360677
120	0xbde68817	-0.11256426
121	0xbe17129c	-0.14753193
122	0xbdeff3f6	-0.11716454
123	0xbe161540	-0.14656544
124	0x3e1deaaa	0.15421548
125	0xbd93d421	-0.07218195
126	0x3d0a699b	0.03379212
127	0x3e16f68d	0.14742489
128	0x3deb0ee4	0.114774495
129	0x3de83393	0.11337962
130	0x3adb3335	0.0016723635
131	0x3d40dba4	0.047084466
132	0xbdc8d147	-0.098055415
133	0xbc72a71e	-0.014810352
134	0xbe86ad3c	-0.26304042
135	0xbd0366ce	-0.032080464
136	0xbdfb5299	-0.12271614
137	0x3e0d7763	0.13815074
138	0xbe082c39	-0.1329812
139	0x3e37bd71	0.1794336
140	0x3e67b8df	0.22629116
141	0xbc9f3101	-0.019432547
142	0x3dc26f4b	0.09493884
143	0x3bdc93a7	0.0067314687
144	0xbe3a5001	-0.18194582
145	0xbd9818f1	-0.07426632
146	0x3e3e12cd	0.1856186
147	0x3e189d2f	0.14903711
148	0xbca4da50	-0.02012363
149	0xbe5c6585	-0.21523102
150	0xbdff5133	-0.124666594
151	0xbe4f977e	-0.20272633
152	0xbe4e7e11	-0.20165278
153	0x3a5c8c56	0.00084132457
154	0x3c8ac7c6	0.016940963
155	0x3db866a8	0.09003955
156	0xbe82c429	-0.25540283
157	0x3c405479	0.01173889
158	0x3bbbbf0d	0.005729562
159	0xbe3a2b02	-0.18180469
160	0xbe16028d	-0.1464941
161	0x3dbbae09	0.09164054
162	0x3e382467	0.17982636
163	0x3d6052fa	0.054766633
164	0x3c21c214	0.009872932
165	0xbda07686	-0.078351066
166	0x3e18948d	0.14900418
167	0x3dceee39	0.10104031
168	0x3d30c2a1	0.043154363
169	0x3c7a481d	0.015275982
170	0x3e01fd29	0.12694229
171	0xbcb4c938	-0.022068605
172	0x3dc64c0b	0.09682473
173	0x3cfdb9ed	0.030972445
174	0xbdacd807	-0.084396414
175	0x3e43fa92	0.19138554
176	0xbd8a9e6e	-0.06768499
177	0x3e3cc374	0.18433934
178	0x3b3b357f	0.0028565822
179	0x3e37ee7d	0.1796207
180	0x3dbc198f	0.091845624
181	0x3e43d71a	0.19125023
182	0x3de7578a	0.112959936
183	0x3d4d1b21	0.0500747
184	0x3e6cc4bc	0.23121923
185	0x3dca5476	0.09879391
186	0xbdcc1cac	-0.09966406
187	0x3d15cf60	0.03657472
188	0x3d41f966	0.047356986
189	0xbd52d2bc	-0.051470503
190	0x3d030d12	0.031994887
191	0x3c291323	0.010319504
192	0xbe125ba8	-0.14292777
193	0x3ddebfef	0.10876452
194	0x3e3b6196	0.18298945
195	0xbd60846e	-0.054813795
196	0x3d2ce2e6	0.042208575
197	0x3e35aae2	0.17740968
198	0xbd03ce4d	-0.032179166
199	0x3d9f97f1	0.077926524
200	0x3e647317	0.22309528
201	0x3e098f6d	0.13433619
202	0x3dc66fea	0.09689315
203	0xbd2f69fa	-0.042825677
204	0x3d0fa8c3	0.035073053
205	0x3e4c7e7f	0.1997013
206	0x3e84ea47	0.2595999
207	0x3ea1de89	0.31615093
208	0x3e96f3c4	0.29482853
209	0xbd831c76	-0.06401913
210	0x3e63e98d	0.22257061
211	0xbd5c6940	-0.05381131
212	0xbdb68069	-0.08911211
213	0x3c965035	0.018348793
214	0x3e1c2e88	0.15252125
215	0xbd443a07	-0.0479069
216	0xbdac88e9	-0.08424551
217	0x3c85e306	0.016343605
218	0x3e2dbf84	0.16967589
219	0x3de44833	0.111465834
220	0x3ddc93ab	0.10770353
221	0xbc4c43b5	-0.0124673145
222	0xbd5c878e	-0.053840213
223	0x3d76b7d7	0.060233917
224	0xbd7c1ebd	-0.06155275
225	0x3e3043bd	0.1721334
226	0xbe087318	-0.13325155
227	0xbc4a9974	-0.012365688
228	0x3d47b9ad	0.04876106
229	0xbe0692f6	-0.13141999
230	0x3e456327	0.19276105
231	0x3dd1b33b	0.102392636
232	0xbd926462	-0.07148053
233	0x3e4dcabd	0.2009687
234	0x3e27008c	0.16308802
235	0xbc81c679	-0.01584171
236	0x3df8588a	0.121262625
237	0xbd8c01ef	-0.06836306
238	0xbc64a73e	-0.013955889
239	0x3d32025a	0.043459274
240	0xbbbb2456	-0.0057111187
241	0x3da36b54	0.079794556
242	0xbccd6260	-0.025071323
243	0x3c98b113	0.018639123
244	0x3e2452ff	0.16047285
245	0xbd86dc2b	-0.065849625
246	0x3dd414ad	0.10355506
247	0x3ad3e64d	0.0016166657
248	0xbd193957	-0.0374082
249	0x3dcebe68	0.10094911
250	0x3dd6781d	0.104721285
251	0xbe2e15ae	-0.17000458
252	0x3dec13bf	0.11527204
253	0x3ba417ca	0.0050077187
254	0x3de8ee7d	0.11373613
255	0xbd23230d	-0.03982835

bias f4 [128]
0	0x3e2a767e	0.16646764
1	0x3e29b00f	0.16571067
2	0xbd9f2ad4	-0.07771841
3	0xbd4df8db	-0.050286155
4	0x3d8bcae9	0.068258114
5	0xbe2f9dbc	-0.17150015
6	0xbcc7c75c	-0.024387054
7	0x3c9ce601	0.019152643
8	0xbd7586cb	-0.059943
9	0x3c82a7a3	0.015949076
10	0x3d39a279	0.04532096
11	0x3e14f476	0.1454638
12	0x3d1bd260	0.038042426
13	0x3d54a2a3	0.051912915
14	0xbc5b92a4	-0.013401661
15	0x3e48ab97	0.19596706
16	0xbd1b54cc	-0.037922665
17	0xbe114a02	-0.14188388
18	0x3e189182	0.14899257
19	0x3cc690bb	0.024238935
20	0xbdf0ed26	-0.117639825
21	0xbd80bf91	-0.062865384
22	0x3dfe28e3	0.12410142
23	0x3e252c38	0.1613015
24	0xbe033a35	-0.12815173
25	0xbdb871df	-0.09006094
26	0x3e3815eb	0.17977111
27	0x3bf4f2d8	0.0074752383
28	0x3ddff279	0.1093492
29	0xbc8085ca	-0.015688796
30	0xbd723deb	-0.05914108
31	0xbdd83639	-0.10557217
32	0xbd2e9bf1	-0.042629186
33	0x3dae26c5	0.085034885
34	0xbd5be002	-0.053680427
35	0x3e2f0b2f	0.1709411
36	0x3c76dc24	0.015067134
37	0xbd275f05	-0.040862102
38	0xbdb42602	-0.08796312
39	0x3e20127a	0.15632048
40	0x3df6003b	0.12011763
41	0x3e1616af	0.1465709
42	0x3debd6e9	0.115156
43	0x3dab86bb	0.08375307
44	0xbd92a64e	-0.07160626
45	0x3dfede3e	0.12444733
46	0x3c12c04a	0.008956978
47	0xbdfe5f3a	-0.12420507
48	0xbd3cd091	-0.046097342
49	0xbde616ad	-0.11234794
50	0x3e62ab45	0.22135647
51	0xbe05038e	-0.12989637
52	0xbdaba9e5	-0.08382014
53	0xbdb80cd8	-0.08986825
54	0x3d5ce02d	0.05392473
55	0xbd184190	-0.0371719
56	0xbdb1f52c	-0.08689341
57	0x3ddd2968	0.10798913
58	0x3d15b43f	0.03654885
59	0x3e4a0707	0.19729243
60	0xbd9fa6d1	-0.077954896
61	0x3dd00e07	0.101589255
62	0x3d938bc4	0.072043926
63	0x3e4ce2f1	0.20008446
64	0x3cabcae4	0.02097077
65	0x3df45513	0.11930289
66	0x3d08ae5a	0.0333694
67	0x3d696b6c	0.05698721
68	0x3d0c447f	0.03424501
69	0xb9e04943	-0.00042779194
70	0x3e0a9545	0.13533504
71	0xbd485aee	-0.048914842
72	0xbd1eeec9	-0.038801942
73	0xbd5c2808	-0.053749114
74	0x3db6aa6d	0.08919225
75	0x3b9723fb	0.0046124435
76	0x3e8353c9	0.2564986
77	0xbd510f13	-0.051039767
78	0xbce88cf8	-0.028387532
79	0x3d4446c1	0.04791904
80	0x3e05b5e0	0.13057661
81	0x3e48480e	0.19558737
82	0x3e0dedf5	0.13860305
83	0xbd365338	-0.044512957
84	0xbe5683ab	-0.20948665
85	0x3e7330f9	0.2374915
86	0xbe054f7b	-0.130186
87	0xbda64669	-0.081188984
88	0x3d046bd0	0.03232938
89	0xbe12957d	-0.14314838
90	0xbdc26e14	-0.09493652
91	0x3d97b7f6	0.07408135
92	0x3da05581	0.078288086
93	0x3d5d1247	0.05397251
94	0xbd9830a7	-0.07431155
95	0x3da0dd2b	0.078546844
96	0x3d96ff21	0.07372881
97	0x3cf373d0	0.02971831
98	0x3d142661	0.036169413
99	0x3d7660ae	0.060150795
100	0x3c9ac1e3	0.01889128
101	0x3e2df2e3	0.16987185
102	0x3dab90f5	0.08377258
103	0xbd9767aa	-0.07392819
104	0xbdeca1eb	-0.11554321
105	0x3d87af70	0.06625259
106	0x3bf1e4cc	0.007382011
107	0x3e104899	0.14090194
108	0x3deb9467	0.11502915
109	0xbdf59002	-0.11990358
110	0xbdf65bb1	-0.120292075
111	0x3dfd0688	0.12354761
112	0xbd8550da	-0.06509562
113	0xbd37fcda	-0.044918872
114	0x3df1c877	0.11805814
115	0xbc62a928	-0.013834275
116	0x3c9f2d31	0.019430729
117	0xbdc98502	-0.09839822
118	0x3dd94cf6	0.10610382
119	0x3d965fb7	0.07342475
120	0xbafa5801	-0.0019099714
121	0x3d8a9a0b	0.067676626
122	0xbd08a34c	-0.033358857
123	0xbdb61ad7	-0.08891838
124	0x3dd66c06	0.104698226
125	0x3ceaac6f	0.028646676
126	0x3da61c8f	0.08110916
127	0xbd4a284a	-0.04935483
