nn/checkpoints/main_material_2023_04_23-10_35_57/6/model_0.pt (torch, 451231 bytes, 98 tensors)

weight f4 [8, 5, 3]
00000000: bd08 c63c 3e0c abbd 29be cb3d 6109 29be
00000010: 4ce0 383e 4801 7b3d 182b 0a3d f828 bfbd
00000020: d04a 27be 920f 58be 0e37 10bd f6c5 763e
00000030: 0e94 0c3e 0180 2a3e 2340 7b3e d973 8c3d
00000040: 8dd5 1fbe c661 05be c5ad f53d a027 133e
00000050: 69bc a93d d43f 4b3e 857b 80be 16a9 77be
00000060: e9a1 92bd 4ec6 1cbd d3a8 b33d dba5 0a3e
00000070: cbd6 d03d 454f 0cbe f3f8 5ebd c895 b7bc
00000080: c65c 1dbe 94da 7d3e cda2 e73d d94a 3fbe
00000090: 9809 59bd bcfd 783e 6258 213e 3aad 14be
000000a0: 9d3c bbbd 39d9 163e d234 cc3d 0e4c 7cbe
000000b0: 8de6 663e c49d 98bd 7cfe 80bd 95ba 9d3d
000000c0: 0164 75be cf4a c13c d12a 50be 96e2 1b3e
000000d0: 0cda 45be 37e8 9e3c 31a6 78be 5f5e 073e
000000e0: b189 18bd 2a78 e03c 7727 52be 0d5f 73bd
000000f0: 0f78 26be 071b 4a3e 26d4 7e3d 9a0e 3f3e
00000100: 3a5d 093e 2180 77be c9ac af3d 0d45 bdbd
00000110: c08e 22bd 8267 263c 2bf9 6b3e d43c 653d
00000120: cb67 3bbc 9c89 933c 3716 513e c1d9 453e
00000130: 4236 723e 3ffa e0bb 4718 833e fd95 a33d
00000140: fe48 2abe 07f6 b7bd d1cb 733b 99aa 1fbe
00000150: 0921 4c3e c19a 7c3e 50ff f9bd a0e4 513d
00000160: 084f 97bd a821 3dbe 7b52 65be ca1d 5fbd
00000170: d904 2f3d 0384 373e 2232 6bbe 00e6 5e3e
00000180: 7cab 00be 80e3 473e 4424 88bd 66e3 1a3e
00000190: ce6f 123e 1042 81bd 60c8 88bd d7a8 8fbd
000001a0: 9353 5cbe 20dc 1f3e 13a0 633d a9e0 21bc
000001b0: bba2 24bd ec1e 0abe 782c d63d 62f2 ff3d
000001c0: b83a d6bd f099 1dbe 4b20 343e 868a 15be
000001d0: 96f5 e73d cdf4 27be 4012 71be ae0d 143e
0.024174089 -0.083519444 0.099483795 -0.16507484 0.18054312 0.06128052 0.033732504 -0.09333986
-0.16337132 -0.2109969 -0.035208754 0.24098954 0.13728353 0.16650392 0.24536185 0.06858034
-0.15608807 -0.13025579 0.119960345 0.14370584 0.082878895 0.19848567 -0.25094238 -0.24185595
-0.07159788 -0.038275056 0.08772435 0.13539831 0.101972185 -0.13702114 -0.054436635 -0.022410288
-0.15367422 0.24790412 0.11310349 -0.18680896 -0.052987665 0.24315542 0.15756372 -0.14519206
-0.091424204 0.14731301 0.09971012 -0.24638388 0.22548886 -0.074519664 -0.06298539 0.07701603
-0.2396393 0.023595242 -0.20328833 0.15223154 -0.1932146 0.019397838 -0.24282147 0.13219593
-0.037240688 0.027401049 -0.20522867 -0.05941682 -0.16256736 0.19736873 0.06221404 0.18657914
0.1341447 -0.24169971 0.08577878 -0.09241686 -0.03968692 0.010156514 0.23044269 0.055966213
-0.01143832 0.018009953 0.2041863 0.19321348 0.2365351 -0.006865769 0.2560446 0.07987592
-0.16629407 -0.08982473 0.0037200341 -0.15592422 0.19934477 0.24668409 -0.122069 0.051243424
-0.07388121 -0.1846987 -0.22394745 -0.05447177 0.042729232 0.17921452 -0.22968343 0.21767426
-0.12565416 0.19520378 -0.06647542 0.15125808 0.14300463 -0.063114285 -0.066788435 -0.070146255
-0.21516256 0.15611315 0.05557258 -0.009880223 -0.040194254 -0.13488358 0.104577005 0.12497403
-0.104604185 -0.15390754 0.17590444 -0.14603624 0.11326139 -0.16401978 -0.23542118 0.14458343

bias f4 [8]
00000000: 989d 623e c663 05bd 3571 543e 2791 acbd
00000010: 029c f83a f331 d5bd ecc6 5abc a545 7cbe
0.2213043 -0.032565854 0.2074631 -0.08426123 0.0018967392 -0.10409918 -0.013353091 -0.24635942

weight f4 [8]
00000000: 0fdb 803f 7142 7f3f 5397 7e3f e70c 813f
00000010: b3a9 803f f225 803f 6de8 7d3f 1311 7f3f
1.0066851 0.99710757 0.9944965 1.0082062 1.0051788 1.001158 0.9918278 0.9963543

bias f4 [8]
00000000: 75bb d63b 939b 8c3a a936 c4bb 91a1 063c
00000010: 3d4c 143b 9062 793b eb36 023b 3524 b2bb
0.0065531083 0.0010727517 -0.0059879613 0.008217231 0.002262845 0.0038053133 0.001986916 -0.005436445

running_mean f4 [8]
00000000: a1ed 8e3e d164 79bd 05fb 623e b0bb aebe
00000010: 9d0f 5a3e 3712 bb3d 9d6f 80bd e9b6 4ebe
0.2791567 -0.06088716 0.22166069 -0.3412757 0.21295018 0.091343336 -0.062712885 -0.20186962

running_var f4 [8]
00000000: 0589 0e3f 87fc e83e ff82 003f e671 7d3f
00000010: 52de 3d3f c178 353f 90d9 d13e f458 013f
0.55677825 0.45505163 0.50199884 0.9900192 0.7416736 0.7088738 0.409863 0.50526357

weight f4 [8, 8, 3]
00000000: 4456 2bbe 62ba d43d 9cb2 b8bd 9550 12be
00000010: c5be 48be 8130 303e 2a05 423d 934c 22be
00000020: b643 3cbe 56e7 9b3d 5cf8 873c b1c6 39be
00000030: 4d96 f7bd c00b 29bd 3f0e 22be 35d8 14be
00000040: 0faf 013e cb4b 9f3d c349 a2bd a48d c6bd
00000050: 5757 53bd c1f7 b0bd 6d10 2abe 5f88 adbd
00000060: 6aa5 94bd e3ad 3bbe 29ba 17be ee44 8e3d
00000070: 3965 583d 0048 10be 73b2 2c3e 3d1f 943d
00000080: 531f 39be e54f 593d edfe e43d 44fa 9ebc
00000090: 2275 4fbe ad69 05bd d36a f13d 06fe 8f3d
000000a0: ffc4 193d 862e 0ebd 75b3 a2bd 8018 323e
000000b0: 0dde 23bd 7a59 30be 2bf4 abbd a912 143e
000000c0: 07a5 223e c5fc 173e 4a7f b83d 3b8b 923d
000000d0: 78f5 423d eed9 3dbc db38 963d 312d 273e
000000e0: bdef 1d3e 4f93 273e 5884 bbbd a92d 43be
000000f0: 8b34 863d 129e 173e ba84 403e 4e95 60bd
00000100: 8cc3 2a3e 1b8a 3a3e 1f18 2b3e 4c84 2fbd
00000110: cd55 2d3d f19f be3d da64 2f3d 03a7 17bd
00000120: 46d1 373e d09e f9bb 1415 223d b3b6 56be
00000130: af1b f63d 5715 273e 2761 123e a4f7 2d3c
00000140: d06a 163d 8c33 1fbd eb1b 05be 0219 57be
00000150: 105e 273d 3758 473e d5a4 443d 3d1a 40be
00000160: 8cab ee3d 0c43 2d3e d386 30bd f9f0 debd
00000170: 30b5 b4bd 350b ad3d a469 24be 6907 1fbe
00000180: 8108 333e 9f32 3ebe 3ca3 70bc 8c4f 843c
00000190: 2c04 65bd bb0e f8bb 5d7b 9d3d a37e 68bc
000001a0: 3ddf 55be 37da f93d 9454 a2bc fa52 df3d
000001b0: 9504 8a3c 59d1 7d3d d58f 563c bbad e83d
000001c0: a641 cfbb 62d9 d43d 0584 e53d d0ec 47be
000001d0: e0cc d03d 13c2 283e 65ad 4a3e e728 4b3d
000001e0: 7471 f83d 7f13 d7bd 017e 443e da9d 3ebd
000001f0: d369 353e c8a4 f7bd c688 2bbd b1f1 153e
00000200: 50c9 43be 7722 6ebd 3704 6f3d dc10 153d
00000210: 4df2 7b3d 05a4 b63d 7c1c bdbc f793 c6bd
00000220: 47e1 b93d b129 bcbd a865 263e 1f72 44be
00000230: 36e3 063d 485b ad3d 1380 023e 7b8c 32be
00000240: f7d9 2e3e 6a78 203e ffc7 2cbe f058 78bd
00000250: 6978 edbd 38b8 62bd e274 123e 23cb 3b3d
00000260: a6d6 f53c 51fd 65bd 7aae 6c3d 369d 40be
00000270: e647 90bd e037 413e 168b 0bbe d59c 31be
00000280: a13b a13b 7ba9 1a3e f231 963d 35a2 a93c
00000290: 9a64 33be fca0 34be ec99 39be 8c71 45bc
000002a0: 0467 463e e177 573d 8ad9 8c3d 6a1a 2e3e
000002b0: cf82 413e ba9e fbbd 0459 103d dee8 243e
000002c0: 1721 d4bd 3f0a 91bc 507b d5bd 861a 85bd
000002d0: 0a30 f23d 4f6f aabb a91d 8b3c eb7f 17be
000002e0: 7595 02be 9c5c 54be 56bf fc3b c61e 9cbc
000002f0: e216 353d fc19 2b3e a168 a63d e5f9 3abe
-0.16732126 0.10387112 -0.09018442 -0.14288552 -0.19604023 0.17206003 0.047368206 -0.15849523
-0.18385205 0.07612483 0.01659792 -0.18142201 -0.120892145 -0.04127097 -0.15825747 -0.14535601
0.12664436 0.07778128 -0.07924225 -0.096949846 -0.051596966 -0.08641005 -0.16607828 -0.08473276
-0.07258113 -0.18328051 -0.14817108 0.06946741 0.05283091 -0.14089966 0.16864948 0.07232521
-0.18078355 0.05305471 0.11181436 -0.019406445 -0.20259526 -0.032571483 0.11787953 0.07030873
0.037541386 -0.034712337 -0.07944385 0.17392159 -0.040006686 -0.17221633 -0.08396181 0.14460243
0.15883265 0.14842518 0.090086535 0.07155462 0.04759738 -0.011587603 0.07335063 0.16325833
0.15423484 0.16364788 -0.09156102 -0.19060387 0.065529905 0.14806393 0.18800631 -0.054829888
0.16676158 0.18216746 0.1670842 -0.042850778 0.042318154 0.0930785 0.04282079 -0.03702451
0.17950925 -0.007617809 0.039570883 -0.20968132 0.12016999 0.16316734 0.14294873 0.010618124
0.036722958 -0.03886752 -0.12998931 -0.21005633 0.04086119 0.19467245 0.04800876 -0.18760009
0.11653814 0.16920108 -0.04309733 -0.10885806 -0.08823621 0.08449403 -0.16055924 -0.1553017
0.17483713 -0.18573998 -0.014687356 0.016151212 -0.05591218 -0.0075701154 0.07689545 -0.014190349
-0.2088594 0.12199824 -0.01981572 0.109044984 0.016847888 0.061967228 0.013095816 0.113612615
-0.0063249646 0.10393025 0.11206821 -0.1952393 0.10195327 0.16480283 0.19792707 0.049599554
0.121310145 -0.105017655 0.19188692 -0.046537258 0.1771615 -0.120919764 -0.041878484 0.14642979
-0.19119763 -0.058138337 0.05835363 0.03639303 0.061510373 0.08918003 -0.023084871 -0.09696191
0.09076171 -0.091876395 0.16249716 -0.19184159 0.03293153 0.08464676 0.12744169 -0.17436402
0.17075334 0.15670934 -0.16873167 -0.060631692 -0.11595232 -0.055351466 0.143024 0.045848023
0.030009579 -0.056149784 0.05778358 -0.18809971 -0.070449635 0.18868971 -0.13627276 -0.17344983
0.0049204384 0.15103714 0.07333745 0.02070723 -0.17518845 -0.17639536 -0.18125123 -0.0120509975
0.19375235 0.05260456 0.0687743 0.17002264 0.18897556 -0.12286134 0.035241142 0.16104457
-0.10357874 -0.017705081 -0.104239106 -0.064991996 0.11825569 -0.0052012573 0.016981917 -0.1479489
-0.12752326 -0.20738453 0.0077132387 -0.019057643 0.044211276 0.16709131 0.08125425 -0.1825939

bias f4 [8]
00000000: 5c46 b23d b097 fa3d 8757 4fbe 9218 353d
00000010: 21a2 b33d 844c 34be cdbd 993d af26 0cbe
0.08704826 0.12235963 -0.20248233 0.044212885 0.08771158 -0.17607313 0.07506905 -0.13686632

weight f4 [8]
00000000: addd 7d3f 2eec 7d3f b0f7 803f a522 803f
00000010: 488e 7e3f aef7 803f 72d1 7f3f 2619 7e3f
0.99166375 0.99188507 1.0075588 1.0010573 0.99435854 1.0075586 0.99928963 0.99257123

bias f4 [8]
00000000: a9d5 dfbb 8ef1 acbb 749b e93a fe03 f63b
00000010: d142 d5bb a2cd c0bb 011f cebb 66c9 debb
-0.00683089 -0.005277819 0.0017822818 0.0075078 -0.0065082093 -0.0058838883 -0.006290317 -0.006798911

running_mean f4 [8]
00000000: 1d8b 24be 523a 123d fef6 fa3d 8d12 0e3d
00000010: 8404 2b3e cb81 a2bd 6077 afbc b257 7fbd
-0.16068693 0.03570015 0.12254141 0.03468566 0.16700941 -0.07934912 -0.021419227 -0.062339492

running_var f4 [8]
00000000: 6b4f 2c3f 657d e63e 12b7 9c3f 1a73 2a3f
00000010: f410 d53e 2886 da3e 490b ec3e 4634 d63e
0.6730868 0.45017543 1.2243369 0.6658188 0.41614497 0.42680478 0.4610236 0.41836756

weight f4 [8, 8, 3]
00000000: 9808 683b a4e8 38be d34b 443d b26f 3dbe
00000010: 8f92 df3d ba11 023d a37f e23b fa3d 4ebe
00000020: 814c 4fbe d78b 52be ddbc b6bd a977 8fbd
00000030: 90c6 e03d 5552 13be d320 253e 151f de3c
00000040: 927d 73bd 4924 28be e8ad 87bd baf4 183e
00000050: 32c2 3c3d 7ea0 d0bd b8ee 4d3d c48f 293e
00000060: cc8b 0e3e bcf2 8e3c 1b57 5ebd 1de8 c73d
00000070: 004b 08bc 5169 0abb 6f99 9f3b a3c7 213d
00000080: 6b0c 19be f53c dcbd e162 8fbc f6a5 23be
00000090: 34e2 ea3d 8bd3 0e3e ba1f 2bbe 0e68 37be
000000a0: 9b03 38be 70bc b1bd 3936 473e e956 893d
000000b0: a473 5b3d a16a 233d c303 63bd 496c dfbd
000000c0: 0a9c 16be e2b1 fe3b 0e87 38be 56ef 72bd
000000d0: cd63 003e e10c 343e e38f a8bc 5e21 99bd
000000e0: 74ff 2fbe 7ca2 8fbd d208 963c 9788 c3bb
000000f0: 2a72 30bd 5c23 ef3d 7555 bc3d 17e6 b0bd
00000100: 6708 193e 6caf 53bd a6df e13d 8905 f8bc
00000110: e8bd 233e 548f 95bd bc62 b53d 7a7e eb3d
00000120: e7f6 c23c 337f 23be 240d 363e 4e21 3bbe
00000130: 9bc6 19be 938f 83bd 316e c6bc 04c9 f7bd
00000140: 3601 07be 7c64 a9bd d0ff 383e 6fab 133e
00000150: f441 b5bd 7e51 0e3e 1778 023e 6f90 39be
00000160: 1207 de3d 367d 323e 650b 053e daec dbbd
00000170: 6950 d9bd 07d7 f4bc 90d0 d3bd 4f23 853d
00000180: 2651 043e e41c 11be 07f4 ecbd 0802 47be
00000190: fa44 d8ba 893d c1bd 5c52 31be 615e 91bd
000001a0: fa6f 97bd c3d9 213d eb8b d83d 649c 903d
000001b0: 1b44 ba3d 6973 e33d f55d ca3d b52a 2cbd
000001c0: 05af 2bbe 6d41 6abd bbd8 8bbd 28e4 58bd
000001d0: 2e23 20bc d0f0 b93d 3131 c23c a5bd 9f3b
000001e0: 10af 113a 6746 31be 2004 b4bd c46b 483e
000001f0: 218a 2fbe bd6e ecbd 2de0 91bd 77c5 043e
00000200: a46b 9e3c 4d38 823d 2b5f 7a3d ecaf 08be
00000210: 3223 b03d 12c5 4c3e 4aab 343d 8a67 2a3d
00000220: cafc febd fef3 73bc a241 343c 811b 2a3e
00000230: 5d53 99bd 8bc5 1c3d 7e0e c53d a3e6 17bd
00000240: 26ee bcbd 7bd2 153d b803 2fbe cefb 26be
00000250: b750 9dbb ffcb 00be 3f93 13be 4334 fcbc
00000260: 27c3 1b3e cd8c d6bd 62d4 e1bc d55d 143e
00000270: 5b72 bcbb 5135 373e 7c1c 1fbd 29bc 18be
00000280: 0001 14bd 0d1f 47be 617c 4ebe 888a a2bd
00000290: a061 efbd 00fa cdbd 229a 81bd c437 293e
000002a0: 0f4f 20be e1ba d9bd 6638 c43d 12c1 ea3c
000002b0: 28b7 3abe dbf5 bcbd 3f67 a3bd d341 0fbe
000002c0: 4860 c53b 699f c1bd 6263 43bc 13c5 3bbe
000002d0: c3bc 14be 376e 11be 3748 d93a b3d3 afbd
000002e0: 98ce b4bd aa27 b33d 44bc 103e 38bf 8bbd
000002f0: 4bc0 86bd 0f9b afbc 776d c23d a957 2c3e
0.0035405513 -0.18057495 0.047923874 -0.1849964 0.10916626 0.031755187 0.006912188 -0.2014083
-0.20244028 -0.20561157 -0.089227416 -0.07005245 0.10975373 -0.14386876 0.16125803 0.02711443
-0.059445925 -0.16420092 -0.06624967 0.14937106 0.046083637 -0.101868615 0.050276488 0.16558748
0.13920516 0.01744973 -0.05428229 0.09761069 -0.008318663 -0.0021119902 0.0048705856 0.03949703
-0.14946143 -0.10753814 -0.017503204 -0.15981278 0.11468926 0.13947885 -0.16711321 -0.17910787
-0.17970125 -0.0867852 0.19454278 0.0670603 0.05357708 0.03989661 -0.05542351 -0.10909326
-0.14707962 0.00777267 -0.1802027 -0.05931028 0.12538071 0.17583038 -0.020576423 -0.074770674
-0.17187291 -0.07013413 0.018314753 -0.0059672105 -0.043077625 0.11676666 0.09195987 -0.08637636
0.14944611 -0.051680967 0.11028986 -0.030276077 0.15990412 -0.07302728 0.08856723 0.11498733
0.023799373 -0.15966491 0.1777845 -0.18274423 -0.15017168 -0.06423869 -0.024222465 -0.120988876
-0.13184056 -0.08271119 0.18066335 0.14420865 -0.0885047 0.13898274 0.12741123 -0.18121503
0.10841192 0.17430577 0.12992628 -0.10738535 -0.1061104 -0.02988769 -0.103425145 0.06500875
0.1292158 -0.14171177 -0.11569982 -0.19434369 -0.0016500049 -0.09435565 -0.17316574 -0.070980795
-0.07394405 0.039514314 0.10573562 0.07061079 0.09095021 0.11105997 0.09881202 -0.042032916
-0.16765983 -0.0571913 -0.068284474 -0.05295196 -0.0097740125 0.090791345 0.023705097 0.0048749023
0.00055573974 -0.17312013 -0.08789849 0.1957236 -0.17142536 -0.11544559 -0.07122836 0.12965952
0.019338436 0.06358395 0.061125915 -0.13348359 0.08600463 0.19997051 0.044108666 0.04160265
-0.124505594 -0.014889715 0.011001976 0.16612054 -0.074866034 0.03827433 0.09621905 -0.037085187
-0.09225111 0.036577683 -0.17091262 -0.16306993 -0.0048008817 -0.12577818 -0.14411639 -0.03078664
0.15211163 -0.10476074 -0.027567092 0.14488919 -0.005750937 0.17891432 -0.038845524 -0.14915527
-0.036133766 -0.19445439 -0.20164634 -0.07936579 -0.11688542 -0.10057449 -0.063282266 0.16525179
-0.15655158 -0.106313474 0.0958107 0.028656516 -0.18233931 -0.09226581 -0.07978677 -0.13989954
0.0060234405 -0.09454233 -0.01192555 -0.18336897 -0.14525132 -0.142022 0.0016577308 -0.085853
-0.08828467 0.087478 0.14134318 -0.068235815 -0.06579646 -0.021436242 0.09493535 0.16830315

bias f4 [8]
00000000: e5b6 c23d 2c46 27be 8471 553d a24e 45be
00000010: 6602 1b3d 0704 db3d 0099 d0bd e0a6 033e
0.095075406 -0.16335362 0.05211021 -0.19268277 0.037844084 0.106941275 -0.101854324 0.12856627

weight f4 [8]
00000000: 54eb 7d3f 1755 803f 2fe4 7e3f 74de 803f
00000010: c4cd 7e3f 9ccd 803f d7d3 7e3f 1ce0 7d3f
0.9918721 1.0025967 0.9956693 1.0067887 0.99532723 1.0062747 0.9954199 0.9917009

bias f4 [8]
00000000: 50a1 ccbb 597e 053c 6d9f dabb 9640 933a
00000010: 3ea7 1839 36ee c83b 0442 003c 8302 0ebb
-0.006244816 0.008147799 -0.006671837 0.0011234458 0.00014558152 0.0061319126 0.007828239 -0.0021668978

running_mean f4 [8]
00000000: e984 45bd b919 23be a0fc 453d 4e2a 30be
00000010: d58e 37bd c75c b13d 41a3 60be bd3a 69bd
-0.048222456 -0.15927781 0.048336625 -0.17203638 -0.04481395 0.08660274 -0.21937276 -0.056940783

running_var f4 [8]
00000000: 8cef 063f bfa3 f93e a8da c93e 5f0f d63e
00000010: 1859 bd3e 6335 f03e 01bc df3e 0048 083f
0.5270927 0.4875774 0.39424634 0.41808602 0.36982036 0.4691573 0.43698123 0.53234863

weight f4 [8, 8, 3]
00000000: d64b 833d f92d ab3d 855c c6bd 6ed5 47be
00000010: 42ba 343e 0c79 46be df14 353e f6e9 0fbe
00000020: 8dd0 cfbd 4aba 9a3b 4760 85bd d993 953d
00000030: cfed 9d3d f155 20be b0fc 41be 452f 103e
00000040: 6f59 85bd 8ec8 e03d 346a 6fbd 85ed 3c3b
00000050: 69d2 c93d 828f 003e 04ed 223e d236 443e
00000060: e6b9 bfbd 8b75 0f3e 00b9 bc3c df18 50be
00000070: 2301 47bd 5aec acbc 4df9 d43d c532 c23c
00000080: 2c8f 14bd 2584 1b3e bd6a d73d a86b aebc
00000090: d9ba cf3d ee7f 0cbd de94 263d 7941 14be
000000a0: 1bbb 193e 9a3a 5bbd f0a6 f4bd 63ba 36be
000000b0: e580 adbd e2b3 0bbd d667 133e 1e27 ddbd
000000c0: 06b6 30bd b34a ab3d 4266 0cbd dd0b 023d
000000d0: a265 443e 9bf7 143e 2efb b73c 3a24 1cbe
000000e0: cc0d 663d bd26 b9bd f61c cbbd 5949 82bd
000000f0: 638a 24bd 05ad a5bd 6c9c 4dbe 82fe 273d
00000100: 3286 433d 4557 0dbe d7b4 06be 6dd4 543d
00000110: 9eb2 4bba f52c 453e a4bd 8bbd fb0b 38be
00000120: 8f3d 99bd 42ca d2bc 5b3a ddbc 7bdd 93bd
00000130: 5f5e 293e 2585 43be 92ee 14be 28ac 1dbe
00000140: 0742 783d 996c 223d 1334 fdbc aab6 51bc
00000150: fe10 403d f199 c13d 5f3b 05be d8f8 08bd
00000160: 5955 59bd cc42 7c3d f33b f5bd 6788 3b3d
00000170: 4dd8 4b3d 4a9e b13d 226d dcbc 31ae 98bc
00000180: 0ea2 eebd a0a7 1c3e 4c18 113e 10b2 8d3d
00000190: 63d5 8fbc 6d19 583e 2683 c2bd d719 283e
000001a0: 6971 3cbe d356 c43c 7708 b23d eebe 173e
000001b0: b63f 08be 82ab ba3d e998 953d 1c19 e4bd
000001c0: 0742 ec3d 66da 843d 0ebe c43d 8427 fc3d
000001d0: b810 333e 1af3 03bd fc61 b83d 32de 5d3c
000001e0: f200 b23d 81db 493b d511 123e 3a1f c73d
000001f0: 692a 50bd cc36 a0bd 7c72 9fbc 4d86 4d3b
00000200: af4e d7bd e496 2ebe 9dfe 8ebd 5dfd d93c
00000210: 553d 803d 28e9 33bc 2b3d 73bd 398c e1bc
00000220: 61a1 73bd 67a6 09be ba61 84bc b4d9 af3d
00000230: 420d 903c 858f 3cbe 1ce6 a23d c90c 0dbe
00000240: b9ec 22be c585 38be 105a 933d 4f73 213e
00000250: fd47 4dbd c5df 15be 3e6c 133e a0aa 023e
00000260: f229 33be cdb9 e3bd 3af4 b93d ee72 9dbd
00000270: e57e edbd 56d1 fe3d ffac 8d3d 523f fe3c
00000280: 2447 29be f67b 0e3e e76a 27be 4035 3fbe
00000290: e63d fb3d 74c0 853d 6cc7 c3bd afe9 403e
000002a0: 3852 a4bc 343c 3a3e b4ef 38be 0c04 00bc
000002b0: 8b2c 1d3e 5c6b d1bd 5405 debc b702 60bc
000002c0: 2a61 43be af5a 053e e000 973d 1243 c1bc
000002d0: 9abd e0bd 90d7 d33d 61b8 f139 87da 393e
000002e0: cfbd 1abe 68c7 0f3e f6c9 b93c 20b3 40be
000002f0: ab58 773c ef8c 203d 012f fe3d 106f 12be
0.06410949 0.08358378 -0.096856155 -0.1951501 0.17649177 -0.19382113 0.17683743 -0.14054093
-0.101472 0.0047219144 -0.06512504 0.0730359 0.07711374 -0.15657784 -0.18944049 0.14080532
-0.06511199 0.10975753 -0.058450893 0.0028828096 0.09854586 0.12554744 0.15910727 0.19161537
-0.09361629 0.14009683 0.023037434 -0.20321988 -0.04858507 -0.021108795 0.10399113 0.02370585
-0.03626935 0.15187128 0.105184056 -0.021291569 0.1014306 -0.03430169 0.040669315 -0.14478101
0.15012781 -0.053522684 -0.11945903 -0.17844538 -0.0847185 -0.034107096 0.14395079 -0.10798477
-0.04314234 0.08363857 -0.03427721 0.031749595 0.19179395 0.14547579 0.022458639 -0.15248194
0.0561655 -0.09040592 -0.09917633 -0.06361646 -0.04017104 -0.080896415 -0.20079201 0.041014202
0.0477354 -0.13802822 -0.13154922 0.051960398 -0.00077704515 0.19255431 -0.068232805 -0.1797332
-0.074824445 -0.02573121 -0.027005365 -0.072199784 0.16539906 -0.1909376 -0.14544132 -0.15397704
0.060609844 0.039654348 -0.03090862 -0.012799898 0.046891205 0.0945319 -0.1301093 -0.03344044
-0.05305991 0.06158714 -0.11974325 0.04578438 0.049766827 0.08672769 -0.026907507 -0.018637748
-0.11652003 0.15298319 0.14169425 0.06918728 -0.017557805 0.21103449 -0.09497671 0.16416107
-0.18402638 0.023967182 0.08693021 0.14818928 -0.13305554 0.09114744 0.07304556 -0.11137602
0.11536031 0.06486969 0.096065626 0.123122245 0.17486846 -0.03221426 0.09003064 0.013541745
0.086915866 0.0030801 0.14264615 0.09722753 -0.050821695 -0.07822952 -0.01946377 0.0031360567
-0.105130546 -0.17049748 -0.069821574 0.02661007 0.06261698 -0.010980882 -0.059384506 -0.027532684
-0.059480075 -0.13442384 -0.01615988 0.085864455 0.017584447 -0.18414123 0.07954046 -0.13774408
-0.15910615 -0.18019779 0.071949124 0.15766643 -0.05011748 -0.14636143 0.1439676 0.12760401
-0.1749647 -0.11119423 0.09079786 -0.07687937 -0.11596469 0.124422714 0.06917762 0.031036053
-0.16531044 0.13914475 -0.16349374 -0.18672657 0.122676656 0.06530848 -0.09559521 0.18839143
-0.020058736 0.18187028 -0.1806019 -0.007813465 0.15349023 -0.10225555 -0.02710215 -0.013672522
-0.19080034 0.13022874 0.07373214 -0.023591552 -0.10973664 0.1034385 0.00046104475 0.18149768
-0.15111469 0.14040911 0.02267931 -0.18818331 0.015096824 0.039196905 0.12411309 -0.1430018

bias f4 [8]
00000000: b8d0 18be f55d e03d 756b 38bd f2c1 323e
00000010: 6bc2 1fbe 691c 453e b3ee a2bd 9f8a 17be
-0.1492337 0.10955421 -0.045024354 0.17456797 -0.15601508 0.19249119 -0.079556845 -0.14798974

weight f4 [8]
00000000: 2f9b 7e3f db3a 813f aeb1 803f 5be3 7e3f
00000010: 6d8c 7e3f f40e 7e3f e5ef 7f3f 439c 7f3f
0.9945554 1.0096086 1.0054224 0.99565667 0.9943302 0.99241567 0.99975425 0.9984781

bias f4 [8]
00000000: 561e 11bc ae6e 193c 6e3f fc3b a8ac 92bb
00000010: a561 17bc defa ecbb 6564 85ba 3a23 edbb
-0.00885733 0.009364767 0.007697991 -0.0044761486 -0.009239589 -0.007232054 -0.0010177015 -0.0072368653

running_mean f4 [8]
00000000: a81a 95bd 42b1 273d adb1 a2bd 1da7 643d
00000010: 9e62 453d cf1c 7e3d cfc9 bbbd f8e8 babd
-0.07280475 0.04094053 -0.07944045 0.055823434 0.04818975 0.062039193 -0.09169351 -0.091264665

running_var f4 [8]
00000000: 2ca0 c13e f68d c73e 71f4 e23e 7e83 bf3e
00000010: a462 ca3e 3554 dd3e 3f65 c73e 8128 c93e
0.37817514 0.38975495 0.4432712 0.37405008 0.39528382 0.43228307 0.38944432 0.39288715

weight f4 [8, 8, 3]
00000000: 8426 993d 7764 973d b7f7 30be 0481 b6bc
00000010: 9603 5ebd cbf8 1ebc 066c 30be 3e5f 173e
00000020: b19b 713d 7e9a 3c3e 4f24 35bd fbfd 30be
00000030: ed6f a63c fc00 943d 5318 d43d db65 c83d
00000040: 21af e0bd 140b e4bd 193d 293c 00ad da3b
00000050: b3e9 13be e75f a63c 3f24 7a3d d14c 41be
00000060: f59a 133e 7670 c13d f400 203e 93ee 0b3e
00000070: c480 aa3d e888 993d 3528 9f3d deff 08be
00000080: 2ec7 183e 49b6 f0bd 46b9 353e 3ed6 16be
00000090: df58 68bc b662 403e 7203 4ebe b905 3cbe
000000a0: 95ef 86bd 95e9 083c cfd6 2f3e 9a74 01be
000000b0: 4e1c 42be bd7c 7bbd fb80 5b3d c65c 11bd
000000c0: 40d6 323e 1245 b8bd e49b 593d 7a47 57bd
000000d0: 2980 47be feba 32bd 4ae3 053e b76d 553e
000000e0: 3bcc 063e e491 5abd ad6c 18bd f46a afbd
000000f0: 5d28 e1bd 6c07 2e3e 8ef9 20be 1acf 32be
00000100: 7c42 42bd 2973 3d3e c03b 2d3e 5632 9ebb
00000110: e468 f1bd 2ccd 233e 9bef bc3d e298 0f3e
00000120: 94ed 393e 8c04 70bd 4656 e2bd 5e6d 053e
00000130: 8db4 eabc d6db e3bd 607b b23d 06fa c5bc
00000140: e473 50bd 0da9 49be ce00 0cbc 7d92 ccbd
00000150: 8e12 3b3e c32f 033d 5602 ef3d f7e1 edbd
00000160: 67ef 9e3c 34d7 85bc 16af 3dbe 56d0 db3c
00000170: cced 0fbe 38d3 a23b 6637 6fbd 83b2 353e
00000180: 46ae 4d3c f6bf c33c 207a 82bd aa7f 113e
00000190: 25cf 7bbd 48c1 c4bd 375a 103d 4134 07be
000001a0: bd33 823d ab8d 6fbc 7beb 13bd d851 23bd
000001b0: c2d4 47be 89ed 163e 0ee6 47be dd55 45be
000001c0: 55da 9bbd e950 b4bd 9b91 19bd 5ddf cabd
000001d0: a374 ca3d f9a4 573e a842 f13d 6b9d ad3d
000001e0: 5871 19be e75e 1cbd 8de5 cf3d 8ab9 a03d
000001f0: d5c4 30be 5865 4abe 0eb4 3f3e c5d2 a83d
00000200: 99c0 18be e583 343c 0afd f73c d51f 593d
00000210: f9ff 433e 4a59 373e b7d8 5bbd ab7b 1abd
00000220: e7c4 f63c fabd c9bd bf08 ee3d 0fb3 d3bd
00000230: b141 833d 7a90 3ebe 14b9 55bd f600 35be
00000240: f773 153e 27fd 203e 7e54 b03d 796c 2b3c
00000250: 357b 223e b5ab 613d 7537 503d 40a5 99bc
00000260: df3c 223e 3463 7e3c 9e1c 85bb 7d94 19be
00000270: 4eba f1bd c2ce 04be edb8 fd3d 17b7 2c3c
00000280: f701 8bbc d5a6 463e 5733 293d 2f16 5ebb
00000290: cdd0 393e 9f50 043e 075c 223e 351b 22be
000002a0: 45b2 793c 42f0 993c 421e d5bc 9f57 1e3d
000002b0: 9c25 30be 0de5 6bbc be05 33bd a30c 1e3e
000002c0: e0fd 96bb 5107 22bd 91fb 39be fb96 dcbd
000002d0: f1bf d93d 3168 18bc abef b7bd 2b1a 013e
000002e0: 5243 dbbb f5eb 363e adbc 5abb 6164 49be
000002f0: 2b74 d2bd 848b ef3d 0552 91bd a5b5 29be
0.074780494 0.07392209 -0.17281996 -0.022278316 -0.05420264 -0.009702872 -0.17228708 0.14782426
0.05898637 0.18418309 -0.04422408 -0.17284386 0.020317042 0.0722675 0.10356202 0.097850524
-0.10970903 -0.111349255 0.010329508 0.0066734552 -0.14444618 0.020309402 0.061069723 -0.1887696
0.1441458 0.09445278 0.15625364 0.13665228 0.08325341 0.07496816 0.07771341 -0.13378856
0.14919731 -0.11753518 0.17746457 -0.14730164 -0.014181345 0.18787655 -0.20118502 -0.18361558
-0.065886654 0.008356472 0.17171787 -0.12642136 -0.1895611 -0.061398257 0.053589802 -0.035488866
0.17464542 -0.08997549 0.053127185 -0.0525584 -0.19482483 -0.04363536 0.13074985 0.20842634
0.13163845 -0.05336179 -0.037213016 -0.085653216 -0.10994027 0.16995019 -0.15720198 -0.17461815
-0.047426686 0.18500961 0.16917324 -0.004827778 -0.117875844 0.15996236 0.092253886 0.14023164
0.18157035 -0.058598086 -0.110516116 0.13030002 -0.028650546 -0.11125915 0.08714938 -0.024167072
-0.050891772 -0.19693394 -0.008545114 -0.09988878 0.18268797 0.03202797 0.116703674 -0.11615365
0.019401265 -0.016337968 -0.18523821 0.02683274 -0.14055556 0.004969027 -0.05840244 0.17743878
0.012553757 0.023895245 -0.0637095 0.14208856 -0.061476845 -0.09607178 0.035242286 -0.13203527
0.063575245 -0.014621179 -0.036113244 -0.039872974 -0.19514754 0.1473905 -0.19521353 -0.19271035
-0.07610003 -0.08804495 -0.037492376 -0.099058844 0.09885528 0.21059026 0.11780292 0.08477291
-0.14984643 -0.038176443 0.10151205 0.07847889 -0.17262585 -0.19765222 0.18721029 0.08243326
-0.1491722 0.011017774 0.030272026 0.053008873 0.19140615 0.17905155 -0.053673472 -0.037715595
0.030123187 -0.09850688 0.11622762 -0.10336887 0.06409014 -0.18609801 -0.052178457 -0.17676148
0.14595018 0.1572157 0.086098656 0.010462874 0.15867312 0.055095393 0.050834138 -0.018755555
0.15843533 0.015526582 -0.0040622493 -0.1499805 -0.11803113 -0.12969497 0.123887874 0.010541699
-0.01696871 0.19399579 0.041308727 -0.0033887734 0.18146057 0.1292138 0.15855418 -0.15830691
0.015240257 0.018791322 -0.026015405 0.03865778 -0.17201847 -0.014397872 -0.043706648 0.15434508
-0.004607901 -0.03955776 -0.18162371 -0.10770985 0.10632313 -0.009302185 -0.0898126 0.12607639
-0.006691375 0.17863448 -0.003337662 -0.19667198 -0.102760635 0.11696532 -0.07095722 -0.16573198

bias f4 [8]
00000000: 3dde 10be a76c 283e 47ce d33c b1aa 043e
00000010: 5064 6abd 0aca 2abe 4b0c 03be a109 45bd
-0.14147277 0.16447698 0.025855197 0.12955739 -0.05722457 -0.16678634 -0.12797658 -0.048104886

weight f4 [8]
00000000: 8037 7e3f 5c69 7e3f 7f16 7e3f 2613 7f3f
00000010: 8012 813f 82c1 7e3f 5906 813f 46c2 803f
0.99303436 0.99379516 0.99253076 0.99638593 1.0083771 0.9951402 1.0080062 1.0059288

bias f4 [8]
00000000: eae5 37bb aa98 0dbc 84fe 043c bbcd dabb
00000010: e7e3 f43b 033e 153c 3e27 e13b a08f da3b
-0.0028060623 -0.008642355 0.008117322 -0.006677357 0.007473457 0.009109023 0.006871133 0.0066699535

running_mean f4 [8]
00000000: b523 08be 4437 163e 3b3b 9c3d a50a 2c3d
00000010: d990 cbbd 4a36 20be a2d7 9b3d 56ab b6bd
-0.13294871 0.1466952 0.07628485 0.04200234 -0.09939737 -0.1564571 0.07609488 -0.089193985

running_var f4 [8]
00000000: 7cbf c33e 5247 e73e e9c0 c93e ada3 ce3e
00000010: 49ed c53e 6775 d73e 68bd ec3e 1574 ec3e
0.38232028 0.451716 0.3940499 0.4035925 0.38657597 0.42081758 0.46238256 0.46182314

weight f4 [8, 8, 3]
00000000: 0953 e2bd a3be 13be 63eb bdbd 1302 07bd
00000010: 9244 8e3c cb35 babb 2f5e 35be 93b9 8d3d
00000020: 963f 133d b624 a13d 51c7 443e 1cd8 12be
00000030: f2f0 5dbd bef7 1ebd 72dd 16be c143 a7bd
00000040: e3a0 cf3b 43b8 97bd 0481 0ebe d313 94bd
00000050: 3394 b1bc 6224 bbbd 3fc9 193d 7e7b d13d
00000060: 51ea 41bd 87a2 a43d 3b35 bdbd 219c 16bc
00000070: 9469 7dbd 530b 4e3e 03ae 413e 9b6b 023e
00000080: 1a2a fa3d 0a2a e3bc a3db 67bd 454f 133e
00000090: c012 f73b d92c 153d fe4d 24bd 2c71 cdbc
000000a0: 654d 2d3e 2c91 bcbd 23c4 ae3d a351 353e
000000b0: 7ac7 63bd 3dcd debd 3e86 9a3d 9e93 82bd
000000c0: 8e69 2fbe 94d1 063d ea61 213d efda acbd
000000d0: 89f4 e93d 1118 2c3d b15a 24be 5db2 11be
000000e0: 6f2e d4bc 8e80 ab3d c591 d83d 1eb2 83bd
000000f0: 30c4 12be 29e8 ff3d 9f3f 03be 2b15 8b3d
00000100: aec4 bdbd 7b70 86bd f9fb 98bd 5348 e1bd
00000110: 6bb7 453e 3955 45be 7fb2 21be 6b2a 043e
00000120: bf88 a63d 97f2 443e 16c6 103e ac63 413e
00000130: 30d8 eabc ee98 87bd 20ee da3d b1bc 593d
00000140: 750e c83d 0b74 2dbe aab5 893d 7043 ef3d
00000150: 606f 1fbd 581a 33be 7128 8cbd 839c 11be
00000160: 351d 383d c143 dcbd 8747 bb3b c7aa c3bc
00000170: be18 9fbd fbc5 4fbe 1d0a f6bd 7347 a93d
00000180: 9489 943d 6f4c 1b3e 3029 53bd e094 ed3d
00000190: bb3b 573e da3c 90bd 505a c8bd c6c7 3ebd
000001a0: 452c 2dbe b65f c2bd 6777 40be 4b3b 343e
000001b0: 8541 aabd dc68 b0bc a100 4c3e ef6e fc3d
000001c0: 3b87 303e b008 053e 71ea 0cbe 3ffc 3d3d
000001d0: acb5 f83d 4c2d b63d 98e2 bd3d b5b5 2f3e
000001e0: 267f b2bc a256 25be fd93 2f3d 88b7 febd
000001f0: 9c7c 87bd 87c7 0fbe 8fb1 af3d 2b48 45be
00000200: b65b 253e c573 47be 3a66 8dbd d8d2 d23d
00000210: 516a e23d 0124 573d a05f d63d 8e12 b9bd
00000220: 50bd dfbd 86bc cbbd 6880 4a3d e630 863d
00000230: 8317 51bc c505 23be 0c8a 1ebd adf7 f4bb
00000240: c789 31be b5af 01bd 9aae 19be 595d 193d
00000250: 4eaa 64bd 5fc2 99bb e1d0 453d 4679 c23d
00000260: 51fa 25be 8239 95bd 5744 923d 135b 1ebe
00000270: a093 fb3d 0754 d03d 014d b2bc 565b 87bc
00000280: a1f2 353e a4d8 44be d53d 533e 2427 c03d
00000290: 8bc0 e6bd 9542 eabc dfd0 8ebd 2f00 d23a
000002a0: 8863 01be 02af 053e a054 533d ff9d 9fbc
000002b0: 8875 d03c d6f7 1dbe 6bec 40be 0439 04bc
000002c0: c90e af3d b136 273e 730b 36be 8e16 e7bc
000002d0: e8e4 503d e810 f43d 930e c13b a483 27be
000002e0: cd74 c6bd cdf5 3cbe e19d bbbc b259 40be
000002f0: 3ae7 1d3e b8c2 043e 313f f2bd 32e0 05be
-0.11050994 -0.14428191 -0.09273412 -0.032960963 0.017366681 -0.005682682 -0.1771171 0.06920161
0.035949312 0.0786833 0.19216658 -0.14340252 -0.05418486 -0.038810484 -0.14732912 -0.0816722
0.006336318 -0.07408192 -0.13916403 -0.07230344 -0.021677112 -0.09137799 0.03754544 0.102286324
-0.047342602 0.08038812 -0.092386685 -0.0091924975 -0.061868265 0.20121507 0.18914036 0.1273636
0.122150615 -0.027730007 -0.056605946 0.14385708 0.007540077 0.036419723 -0.04011344 -0.025078379
0.16924055 -0.09207377 0.08533504 0.17706923 -0.055610158 -0.1087899 0.07545136 -0.06375812
-0.1713011 0.032914713 0.03940002 -0.08440196 0.114235945 0.04201514 -0.16050221 -0.14228196
-0.025901048 0.08374129 0.10574678 -0.064304575 -0.14332652 0.12495453 -0.12817238 0.06791147
-0.09266029 -0.06564423 -0.07469935 -0.11000123 0.1930825 -0.19270791 -0.15790747 0.12906806
0.08131551 0.19233166 0.14138064 0.18885678 -0.02866754 -0.06620966 0.1068995 0.053158466
0.097683825 -0.16938798 0.06724103 0.116827846 -0.038924575 -0.17490518 -0.06843651 -0.1421986
0.04494973 -0.107551105 0.005715314 -0.023885144 -0.07768391 -0.20290367 -0.12013648 0.08265581
0.072528034 0.15165876 -0.05155295 0.11600661 0.21018879 -0.070428565 -0.09782851 -0.046577238
-0.16911419 -0.09490912 -0.18795548 0.17600743 -0.08313278 -0.021534376 0.19922115 0.123258464
0.17239086 0.12991595 -0.13761307 0.04638314 0.12144026 0.088953584 0.09271735 0.1715916
-0.021789145 -0.16146329 0.042865742 -0.124373496 -0.06615564 -0.14040957 0.085787885 -0.19265811
0.16148266 -0.19477756 -0.06904264 0.102941215 0.110554345 0.05252457 0.10467458 -0.09036742
-0.1092478 -0.09948067 0.049438864 0.065522954 -0.012761953 -0.1592017 -0.03870587 -0.0074758143
-0.17337714 -0.031661708 -0.15008011 0.03744254 -0.055826478 -0.0046923603 0.048294906 0.09495787
-0.1620877 -0.07286359 0.07141941 -0.1546443 0.122840166 0.10172277 -0.021765234 -0.016523045
0.17768337 -0.19223267 0.20629056 0.093824655 -0.112671934 -0.028596202 -0.06973433 0.0016021783
-0.12635624 0.13055041 0.051594377 -0.019484518 0.025446668 -0.15426573 -0.18840186 -0.008070234
0.08547742 0.16329457 -0.17777805 -0.028208997 0.050999552 0.11917287 0.00589163 -0.1635881
-0.09690247 -0.1845314 -0.022902431 -0.18784216 0.15420237 0.12964904 -0.11828459 -0.13073805

bias f4 [8]
00000000: 488d 0f3c e670 e73d 1a14 2dbd 08bc 2abe
00000010: 3817 ebbc 10f9 49be 5d54 4ebd 60a9 013e
0.008761711 0.113008305 -0.0422555 -0.1667329 -0.028697595 -0.19723916 -0.050373424 0.12662268

weight f4 [8]
00000000: c7af 7d3f 00d6 803f 94b7 7e3f ba1b 803f
00000010: 1153 7f3f f01f 7f3f 6236 803f aa2f 7f3f
0.9909634 1.0065308 0.9949887 1.0008461 0.99736124 0.9965811 1.0016596 0.99682105

bias f4 [8]
00000000: 9795 17bc c579 773b 5bdd e5bb 17c9 a4bb
00000010: 729d 16bc 2f33 f5bb fcd8 c5bb 7d96 dfbb
-0.009251974 0.003776179 -0.007014913 -0.0050288546 -0.009192811 -0.007482908 -0.0060378294 -0.0068233595

running_mean f4 [8]
00000000: 0410 f6bd 8140 353e d128 0cbe 738e 04be
00000010: 8f4b f33d 4c86 72be fa54 8fbd 3e81 f2bc
-0.120147735 0.17700388 -0.13687445 -0.12944965 0.11879646 -0.23684043 -0.0699863 -0.029602643

running_var f4 [8]
00000000: 49b8 f73e 93f9 073f 512a d63e ecd5 cf3e
00000010: 8f71 e53e fb63 d43e 085c cb3e 4f1a dc3e
0.48382786 0.53115195 0.4182916 0.40592897 0.448132 0.4148253 0.39718652 0.42988822

weight f4 [128, 25]
00000000: 3e98 013e 9d78 0b3e 76b0 3f3d 2bdb 23be
00000010: a9e6 9f3d 08a1 3cbe 39f2 063d 62e6 833c
00000020: 573f ab3c f717 de3d fa02 aebd 6a90 fb3c
00000030: aee5 303e 5bfd 21bc 743c 25bd c8dd 063d
00000040: d705 293e 5227 033e 0dd5 27be 6748 4b3e
00000050: 6f19 1f3e f502 45be 5c04 af3d c37b 2cbd
00000060: 8f07 303e d2eb c13d 4059 0abe 8023 debb
00000070: 1fa6 1b3e 5042 b4bd 91ab 10be 2a6d 1bbd
00000080: 836d 2e3e ae77 363e b9de 303e 6903 f23d
00000090: eeb1 2d3e a826 3b3e 91da 3a3e 93d6 bbba
000000a0: d549 2ebe ccd6 29be 9f5c f93c cb59 39bd
000000b0: 39a8 173e d687 1abe c4c0 4c3e 5bd9 513c
000000c0: b8b7 2dbc 285f eebd 2765 35be 37e6 2fbd
000000d0: c5f7 4fbd 2946 0abe c251 72bd ef50 d03c
000000e0: 28b0 62bd 753a d23d ff7b a13d 1c4c ce3d
000000f0: aa10 b7bb f1a6 be3d c69e 48be 5440 c43c
00000100: a712 9cbd cb68 bfbd d107 15bc 1d0c fa3d
00000110: 511b 203e 3fe9 dd3c c74d 41be bcaa d2bd
00000120: 2bed 46bd 4584 27be 73eb e43d cb7b 9d3c
00000130: 09ab e03d 4be9 393d c387 593d f728 d4bd
00000140: 4277 26be 72a7 033d 498e a03d cfe2 8a3d
00000150: a4ad 86bc f010 ab3a 1dbf 2bbd d7c9 2b3e
00000160: 825e bbbd 6006 5e3c ff8e 113e dea6 213e
00000170: 6826 823d 7e84 33be 0898 14be 7aa0 1d3d
00000180: 3378 1e3e e668 a83d dc67 4cbe 0797 43be
00000190: fd01 29bd 2e9e 113e af02 b4bd c52b 96bc
000001a0: d29f 4b3e 2510 4abd 9fce e8bd 2af2 1cbc
000001b0: 5c65 a7bd c375 1fbe cde6 efbd f24c dfbd
000001c0: de49 ab3c 425e 3e3e e72a dd3c a894 a8bd
000001d0: f16c 8d3d 7854 063d 9545 05be 6654 cdbd
000001e0: b5d8 d83d 94f0 b5bd 7e14 29be a771 203d
000001f0: 55da 6abd 4917 b2bc b78b 373e 9532 9f3d
00000200: b353 cebd 7628 d93c 3f3d abbd 753f e63d
00000210: 9dbd eb3d a166 3fbe c019 3dbe d5f1 12be
00000220: f076 aa3d e8b0 1f3e 5a3f 4a3e 9029 05bd
00000230: f09d 0cbc d852 483e 0e5b 133e a296 32bd
00000240: 69d9 043d cb09 b33d 8b19 78bd 3a85 6bbd
00000250: 7a17 25bd 6021 d4bc 98ee 3d3d 4e9f 20be
00000260: d4f6 1bbd 1abe aebd 99f2 323c b229 26be
00000270: ff40 eb3c 361c 1ebe 1256 bd3d eeba 673d
00000280: 1c42 013d f737 05bc 1c1c 15be fd85 b13d
00000290: 508e 003d badc 60bc 1ff6 abbd 6fa0 f5bd
000002a0: a1ac 8cbd 1865 1e3e 2a20 61bd e1a2 353e
000002b0: b6d7 9cbb aa57 f93d 03b5 833d 6fc5 083e
000002c0: 43a9 dbbc 79d0 abbc 236c 45bd 0773 3d3d
000002d0: 5954 36be ef91 853d 17af 96bd 5ed5 143e
000002e0: a890 983d 1d0d 203b 4194 243e fc49 22be
000002f0: d77f 873c d39e 20bb 335a 39bc d946 ccbd
00000300: f931 823d 2693 38be 9f8e 8bbd a7b0 f03d
00000310: 2583 6dbd 4bbf be3a edc8 c93d 1e9d e13c
00000320: d5b8 943c 1a86 8dbd 5f9c 34be 697a 293e
00000330: e166 5abd 36d8 09bd b769 4cbc 7bc4 d03d
00000340: 6385 2ebc 6562 3e3e ea79 9f3a 83d7 1c3e
00000350: e225 23bd 6808 6a3c 2556 55bd c69a 4abe
00000360: 95ba 04bd b43f fd3d c97e 96bc 966d 2abd
00000370: 2e1c e63d fd7b 74bd 4813 ea3d 86fb 87bd
00000380: 614c cd3d f63b 903d f3f8 dbbd 4639 543c
00000390: 20a4 2fbd 599a c23d f5c8 903d bd01 24be
000003a0: b31e 1d3e d56c 84bd 1505 2abe 8d49 163e
000003b0: 12c0 1d3e 2e79 3f3e 207a b7bc db1a ad3c
000003c0: f2d9 f7bd b358 093e 0b44 ac3d d0a5 13be
000003d0: 301f 0a3e 76b6 083e 4286 bb3b 289b 42be
000003e0: 2c56 f0ba 9477 e7bd 3632 99bc ae70 0dbd
000003f0: 5f47 6abd 3b67 03be 071b 453d 9561 a8bd
0.12655732 0.13620229 0.046799146 -0.16001575 0.07807667 -0.18420804 0.032945845 0.016101066
0.020904226 0.10844415 -0.084966615 0.03070851 0.17275116 -0.009887065 -0.040340856 0.03292635
0.16506134 0.12807968 -0.16389866 0.19851838 0.15537046 -0.1923941 0.08545753 -0.042110216
0.17190383 0.09468807 -0.13510609 -0.0067791343 0.15200089 -0.088017106 -0.14127947 -0.037945904
0.17033963 0.17819092 0.17272462 0.11817057 0.16962406 0.18276465 0.18247439 -0.0014330916
-0.17020352 -0.16585845 0.030439673 -0.04525165 0.14810266 -0.1509088 0.19995409 0.012808169
-0.010602884 -0.11639243 -0.17714368 -0.04294416 -0.0507734 -0.13503326 -0.05916 0.025429217
-0.055343777 0.10265056 0.078849785 0.100731105 -0.0055867033 0.09309185 -0.19591817 0.023956455
-0.07620745 -0.093461595 -0.009096102 0.12209342 0.1563542 0.02708876 -0.18877326 -0.10286471
-0.048566025 -0.1635905 0.11177721 0.019224068 0.10970122 0.0453885 0.053107988 -0.10359376
-0.16256431 0.03214211 0.07839639 0.067815416 -0.01644022 0.0013051312 -0.041930307 0.16776215
-0.09148885 0.013551325 0.14214705 0.15786311 0.06354982 -0.1753101 -0.1451112 0.03848312
0.1547554 0.08223133 -0.19961494 -0.19100581 -0.04126166 0.14220497 -0.08789574 -0.018331418
0.19885185 -0.049331803 -0.11367535 -0.009579221 -0.0817363 -0.15572266 -0.11713944 -0.10903348
0.020909246 0.18590644 0.026997996 -0.08231479 0.069055445 0.0327954 -0.13014825 -0.10025863
0.105882086 -0.08883777 -0.16511723 0.039170887 -0.057337124 -0.021739619 0.1792439 0.0777332
-0.10074558 0.026508551 -0.08361291 0.11242572 0.11510775 -0.18691494 -0.18466854 -0.14350064
0.08323467 0.15594828 0.19750729 -0.03251034 -0.008582577 0.19562852 0.14390203 -0.043600686
0.0324339 0.08742102 -0.060571235 -0.0575001 -0.040305592 -0.02589482 0.04637012 -0.1568577
-0.03807719 -0.08532353 0.010922098 -0.16226843 0.028717516 -0.15440449 0.09244932 0.056574754
0.031557187 -0.008131019 -0.14561504 0.08668134 0.03138572 -0.0137245 -0.08396553 -0.11993491
-0.06868864 0.15468252 -0.054962315 0.17737915 -0.004786457 0.12174924 0.064310096 0.13356565
-0.026814109 -0.020973431 -0.04819883 0.046252277 -0.17805614 0.06521975 -0.073576145 0.14534518
0.07449466 0.0024421879 0.1607218 -0.15848535 0.016540451 -0.002450873 -0.011313009 -0.099744506
0.06357188 -0.18024883 -0.06814312 0.11752444 -0.057986397 0.0014552859 0.09852777 0.02754074
0.018154541 -0.069103435 -0.17637776 0.16550602 -0.05332077 -0.03365346 -0.012476376 0.10193726
-0.010651919 0.18592222 0.001216707 0.15316586 -0.03983105 0.014284231 -0.052084107 -0.19785604
-0.0324045 0.12365666 -0.018371003 -0.041608416 0.112358436 -0.059688557 0.11429459 -0.06639771
0.10024334 0.07042687 -0.10740843 0.012953108 -0.04288113 0.09502096 0.070695795 -0.16016288
0.15343742 -0.064660706 -0.16603501 0.14676495 0.154053 0.1869857 -0.0223971 0.02113097
-0.12102117 0.13412742 0.08411416 -0.14418721 0.1348846 0.13350853 0.005722792 -0.190045
-0.0018336228 -0.113021046 -0.0187007 -0.034531288 -0.05719697 -0.12832348 0.04812148 -0.08221737

bias f4 [128]
00000000: 9e30 35be 3d67 503d 5a6e 22be a24e fe3b
00000010: e16e d63d ce2f 1b3e d4ae c13d 15ba 3b3e
00000020: 7e9f 40bc c0b1 c5bc 1722 033e 1857 c6bd
00000030: dd62 383e 3f86 133d 49fa 1b3d e25d 7f3d
00000040: 6974 073e cf9a 643c d911 393e 688c 643d
00000050: 57e8 2abe 0071 083e d804 f83d e989 3dbd
00000060: a5ca 463d 7e71 ea3d 02e9 4ebd ddc6 303e
00000070: e0ef 1cbe 6d99 1ebd 74f2 33be f014 d0bd
00000080: 7eff 0f3e 8780 d23c 4823 83bd 385c eebd
00000090: 5302 003e 3c2b dcbd 4f10 ce3c ab54 f63d
000000a0: 0028 9c3c a6c6 493e 6adc 7bbc 8b02 073e
000000b0: 3853 3d3e e418 f13c e051 113e b014 78bd
000000c0: a475 ae3d 84c3 1a3e e7ac 053c 37dc 273c
000000d0: 9f2b 303e de66 873c a98a 8a3d 78bb ddbd
000000e0: abf0 14be 3113 25be a385 02be 1b61 34be
000000f0: 8785 b23d 95ca 3a3e a938 e53d 72d4 133e
00000100: 0d39 ad3d d7af 4c3d 8c29 d03c 82b8 f2bd
00000110: 9e32 e43c c2cc e6bd 960b 1a3e d78f 163e
00000120: 79b7 92bd c12e 1f3e 0379 ddbd 51ab f33a
00000130: d004 28be da01 bfbd 5ac1 f6bd f7b1 50bc
00000140: bf44 263d 9a25 073e ef16 243e 163b 39bd
00000150: b447 28bd 150f 2f3e 27bc 80bd 6f8a 1dbe
00000160: e9e6 55bd 52e9 9c3d 4840 4e3e 6087 503e
00000170: 2771 e4bd f76a 123e b60f a03c 0eb3 013e
00000180: 3d2f 1bbe 9034 2a3e f468 ab3d b001 4f3e
00000190: 6297 3c3d 5984 1abe e647 9f3d 0f83 483e
000001a0: dc7a 0c3e 1853 29be d6c4 2e3e 06c3 883d
000001b0: d0cc 213e ef3d 0cbe 1bf0 b0bd 73f7 813d
000001c0: 0d8d d1bd 7cfd 103e d6e9 063e 7abc 253d
000001d0: a1ce 4c3a 1b9c 213e 306d 46be 00c2 ab3d
000001e0: 0e79 3f3d 2ab6 d73c 1a08 243e 75ea 143e
000001f0: 0782 7abc 1c5e 30be ec48 053d 853d 14be
-0.17694327 0.050879706 -0.15862408 0.0077608386 0.10470367 0.15154955 0.09457174 0.18332703
-0.011756776 -0.02413261 0.12805973 -0.096845806 0.18006463 0.0360167 0.038080487 0.062345393
0.13228 0.013952925 0.18073215 0.055797964 -0.16690193 0.13324356 0.12110299 -0.0462741
0.0485331 0.11447428 -0.050515182 0.1726336 -0.1532588 -0.038720537 -0.17572957 -0.101602435
0.14062306 0.025696052 -0.06403214 -0.11638683 0.12500887 -0.10750434 0.02515426 0.12027868
0.019062042 0.19704685 -0.015372375 0.13184564 0.18488777 0.029430814 0.14191389 -0.060566604
0.08518532 0.15113646 0.008158899 0.010245374 0.1720414 0.016528543 0.067647286 -0.108267725
-0.14544933 -0.16120602 -0.12746291 -0.17615168 0.087168746 0.18241341 0.11192448 0.1443651
0.08458147 0.04997238 0.025410436 -0.11851598 0.027856167 -0.11269523 0.15043482 0.14703308
-0.07163901 0.15545179 -0.10814097 0.0018590485 -0.16408086 -0.09326525 -0.12048598 -0.012737743
0.040592905 0.13197938 0.16024373 -0.045222364 -0.041084006 0.17095597 -0.06285887 -0.1538484
-0.052222166 0.0766169 0.20141709 0.20364141 -0.111543946 0.14298616 0.019538742 0.1266596
-0.15154739 0.16621614 0.083696276 0.20215487 0.046042807 -0.15089549 0.077773854 0.19581245
0.13718742 -0.16535604 0.17067274 0.06677823 0.15800786 -0.13695501 -0.086395465 0.06346025
-0.102319814 0.14159197 0.13175139 0.04046295 0.00078127725 0.15782206 -0.19377589 0.08386612
0.046746306 0.02633198 0.16018716 0.14542563 -0.01528979 -0.172234 0.032540247 -0.14476593

weight f4 [128, 127]
00000000: 7de8 2bbd e148 a6bd 79ad dc3c bb0f 143d
00000010: ece7 c3bc 2be8 cd3c c279 0c3d 5aad 87bd
00000020: fe97 c3bb 179c 093d 2fb5 9b3d 19c1 c2bc
00000030: 92e4 863d 814a 823d 404e 9cbd de07 a73d
00000040: 2f6c 08bd fd0b 7fbd bcef afbc c0fd 4f3d
00000050: bf54 1b3c ad1c 623d cba1 253d e69d 34bd
00000060: cf41 93bd 4b73 90bd e143 5cbd 755f 23bb
00000070: 7f1f 6dbd 1a9a 073d 7ff7 553d 7bae 93bd
00000080: 1c71 7a3d 0b94 aebd 1844 023d a1a5 5a3d
00000090: 8c32 4cbd df59 f2bc 6a60 0ebd 7ac6 8abd
000000a0: 11da 8abd 1e7c 543d fe62 1dbd 543b 10bd
000000b0: d3e7 3e3c 1b6e 543d ceff 5cbd dc77 393c
000000c0: 37d1 07bc 109b af3c ed06 a8bd 706e b23d
000000d0: 87c6 c33c 1b6d f13c 9b8d df3b f202 7d3d
000000e0: 5d98 99bd 6ecb 3b3d 1320 bebb 2c72 e33c
000000f0: 1f89 4ebd eed1 0e3c 6529 92bd 26de aa3d
00000100: feed 3f3c f480 89b8 af33 283d 5140 8bbd
00000110: 3db2 64bd 1152 6ebd 3426 39bd 82a0 65bc
00000120: b8dd faba 41af b2b9 1e23 8dba d218 2e3b
00000130: 4404 113d 42b9 833c 0770 a63d 339e 1339
00000140: ccfd 913c c1fd 003d dd22 94bd e270 333d
00000150: 4039 5fbc a526 4dbd b2b4 fbbb deca 8fbd
00000160: a278 39bc 4015 b23d 91d9 a8bd 0c98 543c
00000170: de1e a3bd cb5f 14bd 5823 a43d 0b21 16bd
00000180: faa4 00bd 70a6 9bbc fa34 763b 4172 933d
00000190: c95f a43d 7d16 003d 81b2 9abd 6525 213d
000001a0: 3419 143d b07c 9a3d d950 cdbc 6ec7 e9bc
000001b0: 4ec2 3d3d 743c f0bc 160c 243d 3403 a4bc
000001c0: d9b4 b2bd f0e7 953d 6a7e 003c a1d8 33bc
000001d0: 9ae3 a93d b028 0cbd 321b a53d db58 a6bd
000001e0: 12e8 8ab9 34cc 983d 28aa 2a3c e5a0 2bbd
000001f0: 6fda 00bd 4f2b bdbd 12ba 863b a8bb 8dbd
00000200: 28af a6bd 5b35 893d 7ff2 9a3c 2620 87bd
00000210: 16ec 44bd 7cc9 633d c7c2 95bd 700a 833d
00000220: fe11 12bd 9ba2 a43d 48d1 893d 4a7a c2bc
00000230: 475f 8d3c 5243 143d 8ef2 9e3d 6a11 583d
00000240: 14f1 67bd ca76 3d3d 7829 74bd 675d afbd
00000250: b2f2 babd d0ca bdbd fbf0 81bd 6f5c 7cbd
00000260: 5c44 9dbd 9b35 26bd 8646 883a fb75 2b3c
00000270: d5f0 2a3d c715 abbc b487 1e3d de23 ed3c
00000280: 6440 773d 5dc3 43bc 25ba a4bd 2ab6 023d
00000290: 3074 9ebd 0b47 5c3d ea85 b3bd 346b 9dbd
000002a0: 391e 523d 858b 8a3d 759c a4bd 9931 1b3b
000002b0: 84d3 7a3d f8ba 653d 3dc2 13bd 0a26 803d
000002c0: bddf 9b3c c7dc c33a c52f 9d3d 0395 cebc
000002d0: 20a4 53bd b5bd 2e3d 1027 4dbd 97ea 43bd
000002e0: 5e08 9e3d e2a3 9f3b c789 9fbd 0f59 9abd
000002f0: 6af6 68bd ea97 a3bc 0459 84bd 1f6f 543d
00000300: cfd3 873d ef5a 2e3c e38a 2fbd a9a9 f93c
00000310: 9511 47bd 6eb5 86bd 44cc 813d c625 223d
00000320: aaaf 94bd 4e93 da3c aabf 023d 735b 59bc
00000330: 71e6 213b e166 b13c b02a 62bd 862b aa3d
00000340: 6535 6c3d 081e 9fbd 6df1 b63c d027 5dbd
00000350: f0fa ac3d 9977 83bc e477 9ebd 022a a5bd
00000360: 95ee 783d f7c4 83bd 68aa 0abd b9d6 efbc
00000370: c56e 0cbd 6064 213d 5401 9fbd ff33 afbd
00000380: 626d c83b 72ff 29bd b26b 97bd 5494 5ebd
00000390: 91fa 673d 2924 56bd 4011 b1bd c179 f6bc
000003a0: cfb1 643d 2c29 91bb 5300 733c f1db 3f3d
000003b0: 6e37 a8bd 10b0 1c3d 03f1 333b e028 41bd
000003c0: 1ced 073b 5aa3 453d 784a 91b9 61b0 ceba
000003d0: 101f 963d 5ed7 673d 3bf0 b6bd 8a4d 1e3d
000003e0: 5697 853d 0d32 843d be64 fcbc 84b3 c0bc
000003f0: 2ab6 83bd 8fa7 88bd 7f34 a9bc 773b 03bd
-0.041969765 -0.08119369 0.026938187 0.036147814 -0.0239143 0.02513512 0.034295805 -0.06624861
-0.0059690466 0.033596125 0.076029174 -0.023773717 0.06586565 0.06361867 -0.076321125 0.081557974
-0.033306297 -0.062267292 -0.021476619 0.050779104 0.009480654 0.05520313 0.0404375 -0.044095896
-0.07190286 -0.070532404 -0.053775672 -0.0024928723 -0.057891365 0.033105947 0.052237984 -0.07211014
0.061143026 -0.08524331 0.03180322 0.053380612 -0.049852893 -0.02958387 -0.034759916 -0.06776138
-0.06779874 0.05187618 -0.038424484 -0.03521283 0.011651951 0.051862817 -0.05395489 0.011320081
-0.008289627 0.021436244 -0.08204446 0.087124705 0.023898376 0.02947097 0.0068223006 0.061770387
-0.07499764 0.045848303 -0.0058021634 0.027764402 -0.050423738 0.008717043 -0.07136802 0.08343153
0.011714457 -6.5566885e-05 0.041064914 -0.06799377 -0.055834044 -0.058183733 -0.04520245 -0.014015319
-0.0019139564 -0.0003408138 -0.0010767912 0.0026565087 0.03540446 0.016079549 0.08126836 0.00014077946
0.017821215 0.031492 -0.07233212 0.043808825 -0.013624489 -0.050085682 -0.0076814527 -0.07021116
-0.011320265 0.08695459 -0.082446225 0.012975704 -0.07964872 -0.036224168 0.08014554 -0.036652606
-0.031407334 -0.019000262 0.0037568198 0.071995266 0.08026082 0.031271446 -0.07553578 0.039342303
0.036156848 0.075433135 -0.025062965 -0.028537478 0.04632788 -0.029325701 0.04005059 -0.020021059
-0.087259 0.07319629 0.007842639 -0.010976941 0.08295365 -0.03421849 0.08061828 -0.081224166
-0.00026494317 0.07460824 0.010416545 -0.041901488 -0.031458315 -0.09236776 0.004111537 -0.06920558
-0.08138877 0.0669963 0.01891446 -0.06597929 -0.04807671 0.055612072 -0.073125415 0.06398475
-0.03566169 0.08038827 0.0672937 -0.023739953 0.017257346 0.036197014 0.077611074 0.052750982
-0.056626394 0.046255864 -0.05960986 -0.08562737 -0.09128322 -0.09267199 -0.063447915 -0.06161159
-0.07679054 -0.040578466 0.0010396994 0.01046514 0.04173358 -0.020884408 0.038703635 0.028947767
0.060364142 -0.011948434 -0.08043317 0.031912006 -0.07737005 0.05377869 -0.087657765 -0.07686463
0.051298354 0.067648925 -0.08037654 0.0023680686 0.061236873 0.05608651 -0.036073912 0.062572554
0.019027585 0.0014943116 0.07675127 -0.025217539 -0.051670194 0.042661387 -0.05008608 -0.047831144
0.0771644 0.0048718313 -0.07789951 -0.07536518 -0.056875624 -0.0199699 -0.06462291 0.051863786
0.06632196 0.010641797 -0.042857062 0.030476408 -0.048600752 -0.06577574 0.06337789 0.039586805
-0.07260068 0.026681568 0.031921066 -0.013266432 0.0024704004 0.021655502 -0.05521649 0.08309083
0.05766811 -0.077694 0.022331918 -0.053993046 0.084463 -0.01604824 -0.07737711 -0.08064653
0.060774405 -0.064340524 -0.03385392 -0.029277192 -0.034285326 0.039402366 -0.07763925 -0.08554839
0.006116555 -0.041503377 -0.07393588 -0.054340675 0.056635443 -0.05228058 -0.08645868 -0.030087354
0.055833634 -0.004429957 0.01483162 0.04684061 -0.082136974 0.038253844 0.0027456887 -0.047158122
0.0020740693 0.048251487 -0.0002771204 -0.0015769118 0.073301435 0.056601875 -0.08932539 0.038648166
0.06523006 0.06454859 -0.030809756 -0.0235231 -0.064312294 -0.06672584 -0.020654915 -0.032039132
