nn/checkpoints/main_objs_different_2023_04_23-11_06_41/3/model_30.pt (torch, 518706 bytes, 98 tensors)

weight f4 [8, 5, 3]
000000 6d 58 cc bc 2b 5a 44 3d 05 f0 0f 3e 13 7b c4 3e
       -0.024944508 0.047937553 0.14056404 0.38375148
000010 6d e2 94 be 57 92 db bd ec df 55 3e 1d 57 e7 bd
       -0.29079 -0.107212715 0.208862 -0.112959124
000020 09 be 79 be 92 18 7b 3e 02 54 5c be 54 53 48 bd
       -0.24388899 0.24521092 -0.21516421 -0.048907593
000030 a7 3f 75 3d 90 cf 0c be cf 14 2b be ca e6 ac be
       0.059875157 -0.13751054 -0.16707157 -0.33769828
000040 e2 8e a0 be 2d 77 56 bd 70 c8 75 be 04 28 9c bc
       -0.3135901 -0.05235975 -0.24002242 -0.01906205
000050 6f 8b 71 3e 3f 91 4e be 07 f2 4d 3d 77 e1 f2 3d
       0.23588346 -0.20172594 0.050279643 0.1185941
000060 78 f8 a1 be bf fd d7 3d 06 55 e5 3d 9e 55 fe bc
       -0.3163488 0.10546445 0.111978576 -0.031046685
000070 24 9d 6e 3e ea 60 0e 3d 97 73 86 be ec 89 fe 3a
       0.23302132 0.034760393 -0.26260063 0.0019419766
000080 1a 15 fd 3c 5d 27 d7 3c e8 90 d0 3d e8 e1 20 be
       0.030893851 0.026263887 0.10183889 -0.15711176
000090 93 4d 1e be 63 28 4d 3e b8 3b ca bc f6 fb 2c be
       -0.1545928 0.20034938 -0.02468668 -0.1689299
0000a0 31 56 73 3e 32 a3 0e be e9 8b ba be a9 9d ea bd
       0.23763348 -0.13929442 -0.36434868 -0.114558525
0000b0 3a 2e b8 be cf 09 a1 3e e4 b4 96 bd a6 e1 43 be
       -0.35972768 0.31452796 -0.07358721 -0.19129047
0000c0 09 55 6b 3c 5b dc 92 bd c2 81 30 3e d7 7a 5f 3e
       0.014363536 -0.07170936 0.17236999 0.21824203
0000d0 35 08 76 be 6b ba b4 bd a5 a8 b1 3d 88 ea 7c bc
       -0.24026568 -0.08824619 0.086747445 -0.015436776
0000e0 39 65 32 3e ee 0c af 3e 93 9a 1e bb 1e 1f 92 3d
       0.17421426 0.34189552 -0.002420102 0.071348414
0000f0 b4 e2 2a be 35 76 8b 3e b4 7c 36 3d f1 09 e5 3d
       -0.16688043 0.27238622 0.04455252 0.11183537
000100 8c a2 1e bd d1 ef ef 3d 87 b7 0b be 8b fc 38 3e
       -0.038729236 0.11715663 -0.13644229 0.18065087
000110 00 f7 ae bd 52 19 b6 be 30 62 76 bd 57 45 8a 3e
       -0.08543205 -0.35566193 -0.060152233 0.27006027
000120 a8 4c 8a be 99 92 85 3e 24 c3 1e 3e 04 52 90 3e
       -0.2701161 0.26088408 0.15504128 0.28187573
000130 9d c3 15 be 93 a4 89 3e d3 9a 17 3c ad dd 3f 3e
       -0.14625402 0.26883373 0.009253222 0.18736906
000140 5e f3 13 3e 50 0b 5d 3e ad e8 7e 3d 47 d8 b1 3d
       0.14448306 0.21586347 0.062233616 0.0868383
000150 b6 77 8a bc d9 83 20 be 3d 8b 39 bd f4 80 2f 3e
       -0.016902786 -0.15675296 -0.045298804 0.17139035
000160 aa ba dd bc 93 d0 c5 3e 4e 5a 4c be 6c a8 73 be
       -0.027066547 0.38635692 -0.19956324 -0.23794717
000170 a0 18 b2 3e 6f 67 59 bd fb 47 71 bd 85 3b 23 3e
       0.34784412 -0.053077158 -0.058906537 0.15940674
000180 f3 74 ff bd 05 00 8b bd a8 d5 c1 3d ff b5 46 be
       -0.12473478 -0.06787113 0.0946458 -0.19405364
000190 2e 86 0b 3d 14 f6 2a 3e ef 04 13 be e3 28 eb bd
       0.03406351 0.16695434 -0.14357351 -0.11482408
0001a0 cd 4c bb 3e b4 3a 9b be 3f 3f e3 3d 09 19 be 3e
       0.36582032 -0.30318224 0.110960476 0.37128475
0001b0 44 89 52 be 72 e5 c5 3d ef a7 9b 3d 25 b2 0d be
       -0.20560175 0.09662904 0.0760039 -0.13837488
0001c0 9a c2 19 be 8f 5a 7a 3e a9 0a 78 3d 70 81 39 bd
       -0.15015641 0.24448608 0.06055704 -0.045289457
0001d0 94 67 83 bd 48 ac 93 be 64 9d 75 3e 95 d9 b0 ba
       -0.0641624 -0.28842378 0.23985821 -0.0013492579

bias f4 [8]
000000 91 1b 90 be 49 dd 5e 3e 57 ed 35 3b 6b b9 bc bb
       -0.28146031 0.21764101 0.0027759874 -0.005759408
000010 9f fb 47 bd 48 92 34 bd 72 52 f6 bd 1d c8 c0 3d
       -0.04882395 -0.044084817 -0.12027444 0.094131686

weight f4 [8]
000000 df 0b 7c 3f 92 19 87 3f f5 7f 92 3f 45 a9 72 3f
       0.98455614 1.0554678 1.1445299 0.94789535
000010 39 16 53 3f a3 59 79 3f 15 22 90 3f f9 a5 67 3f
       0.82455784 0.974024 1.1260401 0.9048763

bias f4 [8]
000000 71 e3 83 3e 28 41 87 3c 0c 8c b1 bd df 5f fc 3d
       0.25759462 0.016510561 -0.0866929 0.123229735
000010 cb 06 dc 3d 10 ca d8 3d 80 c4 1b 3d 97 86 85 3e
       0.10743483 0.10585415 0.038029194 0.26079246

running_mean f4 [8]
000000 dd 03 ca be a7 01 8a bd 96 f8 f7 be ed aa 96 3e
       -0.39456072 -0.067385964 -0.48431844 0.2942728
000010 01 24 a1 3d 79 a4 14 3f a7 6c 0f be ac 70 c4 3d
       0.07868195 0.58063465 -0.14006291 0.09591803

running_var f4 [8]
000000 4d 9f 54 3f 19 26 e7 3f 50 34 2d 40 33 ca a5 3f
       0.83055574 1.8058501 2.706318 1.2952331
000010 f5 15 52 3f 64 3b 84 40 9b bf 5e 3f e7 ea 15 3f
       0.82064754 4.13225 0.87011117 0.5856156

weight f4 [8, 8, 3]
000000 c1 65 83 3d cc a1 65 3d eb de 03 3d a9 7d a4 be
       0.064158924 0.056062505 0.032195013 -0.3212712
000010 83 83 9f 3d 68 07 8d be 89 b5 8b 3d 8d 4f 96 3e
       0.07788756 -0.27544713 0.068217345 0.29357567
000020 15 04 d9 3d 74 d1 b4 bd 71 68 93 be f7 f4 ff 3d
       0.10596482 -0.088290125 -0.2879062 0.12497895
000030 69 1d 53 3c 9f 0b aa bd 27 16 d1 3d 36 b3 28 bc
       0.01288543 -0.08302998 0.10209303 -0.0102966335
000040 8c dd 10 3e 5c f3 ab bd 4c ed 36 be e8 66 62 be
       0.14147013 -0.083960265 -0.17863959 -0.22109568
000050 59 96 b7 be bd 3d 89 be dc 0a 93 3c 2c 84 1b 3e
       -0.35856894 -0.26804915 0.017949514 0.15187138
000060 2d 68 67 3d f9 4a 82 3e 82 eb 9c be 44 a8 c5 bd
       0.056495834 0.25447825 -0.30648428 -0.09651235
000070 47 44 62 be 28 ca 43 be 15 e9 3c bd 10 ec ca bd
       -0.22096358 -0.19120085 -0.04612072 -0.099083066
000080 f5 81 65 bd 66 a1 86 be 04 a9 dc bc 5b b9 48 be
       -0.05603214 -0.26295012 -0.026936062 -0.19601957
000090 f0 6c df bd 84 6a 93 3c db c6 76 be d5 9b 1b be
       -0.1090945 0.017995127 -0.24099295 -0.15196164
0000a0 b7 c1 72 3c 39 65 25 3c e1 97 85 bd 5f 64 36 bd
       0.014816693 0.010094934 -0.06523109 -0.044529315
0000b0 8a 08 07 be f1 0b df 3d fc 7c 06 be 30 fa 67 bd
       -0.13186851 0.108909495 -0.13133615 -0.05663508
0000c0 a9 1b 12 be a4 4e 88 bd 1a d4 f3 bc 2b 8e 26 3e
       -0.14268364 -0.066556245 -0.029764224 0.1626517
0000d0 54 53 68 3e 35 c4 32 3e 7b 3d 6a 3c d1 a1 13 3e
       0.22688037 0.1745766 0.014296885 0.14417197
0000e0 2e d7 79 3e b3 65 d3 bd 6b 92 e2 3d e2 9c 0e be
       0.24398491 -0.10322132 0.11063083 -0.13927034
0000f0 e8 01 e5 bd 5c 1a cb bd 07 3f c3 bd 67 d0 17 3e
       -0.11182004 -0.09917137 -0.09533506 0.14825593
000100 46 fc ce 3d 0f 4c d1 bd 3b c4 50 3e c7 02 b4 bd
       0.10106711 -0.10219585 0.20387356 -0.08789592
000110 8f b1 97 be 89 74 7b be 7f db 63 be b0 35 7a be
       -0.29627654 -0.24556173 -0.222517 -0.24434543
000120 e1 01 d7 bc e1 d2 cc 3d e3 24 88 be fb 7b 8c bd
       -0.026246013 0.100011595 -0.26590642 -0.06859585
000130 94 75 93 3d 9c 70 3d 3e 4b a3 82 3e db b6 44 3e
       0.072001606 0.18499988 0.25515208 0.19210379
000140 b2 fc 8e be 40 b1 83 be d9 4c 25 be 70 72 8c bc
       -0.27927166 -0.2572117 -0.16142596 -0.017144412
000150 a2 68 13 3e ff d1 88 bb f7 c3 e7 3d ef a9 09 be
       0.14395383 -0.004175424 0.11316674 -0.13443731
000160 a4 c2 14 be f6 0a 2a 3e d3 a6 d3 bd e1 dc 70 be
       -0.14527375 0.16605744 -0.103345536 -0.23521759
000170 56 53 de 3d aa 4e 8a 3d d5 24 d8 bc 3f b0 3d 3d
       0.10855739 0.06753285 -0.02638475 0.04631066
000180 fb e6 92 be b5 92 7b 3e e3 16 74 3d 5d 11 b0 3d
       -0.2869185 0.24567683 0.05959214 0.08597062
000190 7f 59 40 bd c7 d6 25 be db b8 24 be f2 fa d1 bc
       -0.04696035 -0.16195212 -0.16086142 -0.025632355
0001a0 e9 48 87 bd 84 1c 34 3e f7 c3 51 bc 3b 18 17 be
       -0.066057034 0.17589003 -0.012803069 -0.14755337
0001b0 36 24 98 3e 0c 5f 69 be a2 4b 0b be 17 d0 d5 bd
       0.29715127 -0.22790164 -0.1360307 -0.104400806
0001c0 62 a2 1f 3e 66 41 1a be 8d 03 32 be 0e ba 06 bd
       0.15589288 -0.1506401 -0.17384167 -0.03289228
0001d0 3a 17 a6 bd 57 06 d1 3d 9a 45 b7 be e5 a9 05 bd
       -0.08109899 0.10206287 -0.3579529 -0.032632727
0001e0 bf 80 d4 bc ee d8 77 bd 53 63 f5 3c 94 33 58 be
       -0.025940297 -0.060509615 0.029954588 -0.21113425
0001f0 2b c4 41 bd 7c 90 2b be 42 3f 33 be b5 82 a5 bd
       -0.04730622 -0.16754335 -0.175046 -0.08081571
000200 dd 57 47 3e d6 28 a3 3e b6 7d 7e be b1 9b 93 3c
       0.19467111 0.31867093 -0.24852642 0.018018575
000210 4b 91 9d bb 86 e9 15 3d 49 9d 26 be 23 0a 5e 3e
       -0.00480858 0.03659966 -0.16270937 0.21683554
000220 ce ab 69 bd ff 23 49 be 6b 2b fc bd 47 df 26 3e
       -0.05704861 -0.19642638 -0.12312969 0.16296111
000230 68 e1 de bd 21 99 14 be 85 24 75 bd d3 4a 2d 3e
       -0.108828366 -0.14511539 -0.05984928 0.16923074
000240 a5 c0 00 3c 4e f9 31 be 81 c5 5c be a4 13 d7 3d
       0.00785843 -0.17380258 -0.21559717 0.10501793
000250 b8 02 42 bb ff bb b4 bd 68 41 31 3e aa 75 94 3e
       -0.0029603671 -0.0882492 0.17310107 0.2899602
000260 bc bd ea bd 24 08 1e be 1e cc 10 be 6f 6d 94 bb
       -0.1146197 -0.15432793 -0.14140365 -0.004529647
000270 a2 b2 89 be b4 15 26 3a 6b 57 08 bd bb 2d 8c 3d
       -0.268941 0.00063356315 -0.033286493 0.0684466
000280 58 47 29 be c1 17 1f bc 31 23 fe 3d b4 3a 05 be
       -0.16531122 -0.009710253 0.12409056 -0.13010675
000290 ff 12 68 3e 83 12 c5 bd 8a e4 15 3e 4a dd 1b 3e
       0.22663496 -0.096226715 0.14637962 0.15221134
0002a0 a5 92 d0 3d d4 a2 60 be 3d 08 6b bd ce 21 ce 3c
       0.1018422 -0.21937114 -0.057380904 0.025162604
0002b0 c4 2d b2 3c c0 8e 49 3e eb 30 13 bd 3e d5 72 3e
       0.021750338 0.19683361 -0.035935324 0.23714158
0002c0 f6 6f 18 be 85 e1 28 3e e6 8a ed bd 39 25 a9 3c
       -0.1488646 0.16492279 -0.115987584 0.020647632
0002d0 e9 0b ca 3d 89 74 84 bc e3 7f 27 be 19 25 64 be
       0.09865553 -0.01616885 -0.16357379 -0.22279777
0002e0 ab 3e d2 bd 11 65 83 3e dd 59 71 bd 35 d7 4e be
       -0.10265859 0.25663045 -0.05892359 -0.20199282
0002f0 cf 07 71 3e a5 34 da bd ed 77 57 be c2 f3 64 3e
       0.23538135 -0.106545724 -0.21041842 0.22358611

bias f4 [8]
000000 4f 90 de 3d d2 45 f5 bd 83 3f 4d bd 35 97 37 3e
       0.108673684 -0.11976208 -0.050109398 0.17928775
000010 bc 94 a0 bc 83 31 8b 3d c3 91 d7 3d 84 77 98 3d
       -0.019602172 0.06796553 0.10525849 0.07444671

weight f4 [8]
000000 9f 42 68 3f df d3 81 3f 8b 35 7f 3f 97 34 8b 3f
       0.90726656 1.0142783 0.99691075 1.0875424
000010 0c ad 86 3f d1 f4 84 3f f0 d7 82 3f e6 3c 7c 3f
       1.052156 1.0387212 1.0222149 0.98530424

bias f4 [8]
000000 bf 2b 94 bd 27 4b 12 3d 42 58 f7 3d 1c 93 10 3e
       -0.072349064 0.035716202 0.12077381 0.14118618
000010 bd 0f 41 3d f8 c3 1b 3d 58 e2 17 bd a5 82 25 3e
       0.04713415 0.038028687 -0.037081093 0.16163118

running_mean f4 [8]
000000 e8 47 fc bd 71 54 1f bf 92 a7 8e be a1 c1 90 3d
       -0.123184025 -0.6223822 -0.2786222 0.07068182
000010 a8 a4 a2 be 80 b5 01 be 8e aa 9f bc bf 0e 63 3c
       -0.31766248 -0.12666893 -0.019490507 0.013858496

running_var f4 [8]
000000 5c 63 9e 3e 85 57 1a 3f a9 65 97 3e 77 13 db 3e
       0.3093518 0.60289794 0.29569748 0.42788288
000010 a9 9e b0 3e a7 23 b9 3e dc e4 53 3e f7 40 4f 3e
       0.34496048 0.36160013 0.20692772 0.20239626

weight f4 [8, 8, 3]
000000 20 d3 80 be 65 93 85 be 38 cb c5 38 cd 35 4f bd
       -0.25161076 -0.26089016 9.4315445e-05 -0.050588418
000010 cf b9 e3 bd 26 1a 6c 3d 44 db e4 bd 06 f1 17 be
       -0.111194246 0.057642125 -0.11174634 -0.14838037
000020 1d cb 58 be 93 be 0e 3e 1e e5 18 be 7e 4d ab 3e
       -0.21171232 0.13939886 -0.14931151 0.3345756
000030 4c af 15 be 84 54 97 bd 08 2e 40 3b aa e4 89 3c
       -0.14617652 -0.07389167 0.0029324312 0.016832668
000040 2b 8d 18 be 30 16 ec bd b7 6d 78 3e 97 a7 80 3c
       -0.14897601 -0.115276694 0.24260603 0.015704913
000050 d4 cd 47 3e bf de 2f bd 4e 40 a8 bd 52 78 4d bd
       0.19512111 -0.042937037 -0.0821539 -0.050163575
000060 4c 6e dd bd ec fe 2b bd 53 11 32 be 35 84 12 bd
       -0.10812053 -0.04199116 -0.17389421 -0.035770614
000070 a4 c7 a8 3d be 66 0c 3e 0b 43 e3 3d aa aa 82 3d
       0.082412034 0.13711068 0.11096772 0.06380208
000080 85 67 94 be 0a 2c d4 3d 19 dd c9 3d b7 9b db 3c
       -0.2898523 0.10359962 0.09856624 0.026807649
000090 4f b3 29 be 17 9e 4f 3e 9f e1 5d be 85 c2 c0 be
       -0.16572307 0.2027515 -0.21668099 -0.37648407
0000a0 8e f7 f0 bd 7f f7 4e 3e 40 73 bb 3d da 29 56 3e
       -0.11765967 0.202116 0.091528416 0.20914403
0000b0 4d 03 b6 3c e6 39 8f 3d 39 a4 ea bd 8c 86 13 3e
       0.02221837 0.06993465 -0.11457104 0.14406794
0000c0 78 7a b5 3c a1 44 74 be 8e 7d 45 3e 79 2a 00 bc
       0.022153124 -0.23854305 0.19286177 -0.007822626
0000d0 d4 00 45 bd 1e 73 24 3e 94 28 87 3d 9b f8 98 bd
       -0.048096493 0.16059539 0.065995365 -0.07469293
0000e0 a4 9b 00 3e 72 92 c3 3d ea 86 61 be bf b0 4d be
       0.12559372 0.095494166 -0.22024122 -0.20086955
0000f0 cb 0d e4 bd 52 2f aa bd c7 13 68 3d d3 9d d9 bd
       -0.11135443 -0.08309807 0.056659486 -0.10625806
000100 04 d1 3f 3e e3 9a ef bd f8 2c 58 3e 06 cc 05 3e
       0.18732077 -0.11699464 0.21110904 0.1306611
000110 48 e5 20 3d 28 cb 4e 3d 8a d5 50 be b0 3e ee be
       0.03928116 0.050486714 -0.20393959 -0.46532202
000120 92 df 70 bd 09 ae 69 be dd a8 05 3e 29 7e f6 bc
       -0.058806963 -0.22820295 0.13052697 -0.030089455
000130 64 75 0b be b5 ec 17 bb f6 69 99 bd e0 81 fc bc
       -0.13619 -0.002318186 -0.074909136 -0.030823648
000140 df e4 f5 bd c7 79 80 be 3d 05 9d bd aa eb 08 be
       -0.12006544 -0.2509291 -0.07667015 -0.13371149
000150 05 63 9e 3d af b0 1e be 66 6e 80 3d 89 b5 7e bd
       0.0773373 -0.15497087 0.06271057 -0.062184844
000160 df 32 71 3e 42 46 03 3e 77 a0 09 3d c0 90 e6 bd
       0.23554562 0.1281977 0.033600297 -0.112580776
000170 89 33 a1 bd 42 d4 00 3e 3f 22 03 3d ad 72 98 be
       -0.07871158 0.1258097 0.03201508 -0.2977499
000180 3e 85 3d be ee 0f e3 bb 38 34 03 bd ca f9 b5 3d
       -0.18507859 -0.006929389 -0.03203222 0.08885534
000190 a1 14 70 be 7b 30 a5 be 85 b5 f0 bb d4 20 2e 3e
       -0.2344537 -0.3226355 -0.0073458576 0.1700471
0001a0 ea 44 b6 bd 9b dd 59 3e bf 54 7b bc 7e e1 38 3e
       -0.08899863 0.21275942 -0.015340029 0.18054768
0001b0 10 d7 00 3e f1 23 f2 bd 4c da 17 be a5 78 01 be
       0.1258204 -0.118232615 -0.14829367 -0.12643678
0001c0 9d cc 27 be 3b 66 09 be 14 e3 8b bd 83 35 dd bd
       -0.16386648 -0.13417904 -0.06830421 -0.10801222
0001d0 a4 54 ac 3e 5c ba ce 3d 48 a6 7d bd 8a 11 15 3e
       0.33658326 0.10094139 -0.061926156 0.14557472
0001e0 bc 8c 4a be a9 ae dd 3c e7 43 a7 3d a4 46 04 be
       -0.19780248 0.027060824 0.08167248 -0.12917572
0001f0 43 e9 fa bd e4 85 85 be d3 f1 b5 be 29 ea b8 bd
       -0.122515224 -0.26078713 -0.3553606 -0.090290375
000200 2a 9b 98 be 39 23 a4 bb 70 a9 aa bd d3 02 61 3e
       -0.2980588 -0.0050090817 -0.08333099 0.21973734
000210 20 06 34 be 01 88 df bd 57 5f 1d be 9a ea b8 3d
       -0.17580462 -0.109146126 -0.153684 0.09029122
000220 fb f7 bf 3d a6 3e 01 3e 35 d1 02 3d d6 7d 3d bd
       0.093734704 0.12621555 0.031937797 -0.046262585
000230 17 0e 0c be 28 ad 08 3e 68 89 8c bd 24 a3 24 3e
       -0.1367725 0.13347304 -0.06862146 0.16077858
000240 4e 3d 80 bd f2 f2 7f bc 77 40 a8 3d 85 95 17 be
       -0.06261693 -0.0156218875 0.08215421 -0.14803131
000250 46 4c 5e be c6 a2 5d bd 06 97 5f 3e 85 3d fd 3c
       -0.21708784 -0.05411031 0.21834955 0.030913124
000260 21 ea 19 3e c3 06 87 3e fc c3 80 3d 97 d1 17 bd
       0.1503072 0.26372346 0.06287381 -0.037065115
000270 9b 46 0f 3e 34 3a 69 be b7 40 b7 3e e5 23 4c bd
       0.13991778 -0.22776109 0.3579156 -0.04983892
000280 7a f3 b9 bc e9 64 ca bd d0 c0 29 be 1f 59 14 be
       -0.022699106 -0.09882528 -0.16577458 -0.14487122
000290 b7 a7 1d be 3a 29 0e be e6 41 88 3d 5c 6c 25 be
       -0.1539601 -0.13882914 0.06653194 -0.16154617
0002a0 07 3f 4c be 34 f6 35 3e eb 4d 10 be 0f a6 09 3e
       -0.19945918 0.177697 -0.14092223 0.13442253
0002b0 55 59 85 3e 3b c1 00 3e 3c da e0 3d bd c9 3f 3e
       0.26044717 0.12573712 0.10979125 0.18729301
0002c0 3f 21 84 3d 5d b1 b5 be 45 fd fb bc 43 e2 be 3d
       0.06451654 -0.3548688 -0.030760417 0.093205
0002d0 ca 85 38 bc 37 ca 30 3e 9e 36 4c 3e 6e 0f 39 3e
       -0.011262367 0.17264639 0.1994271 0.18072292
0002e0 e3 4d 96 3d 15 ec 6c be 22 92 cd be c9 7b 20 bd
       0.073390745 -0.23136933 -0.40150553 -0.03918055
0002f0 56 cc f0 bd 06 12 13 be 42 54 f7 bb b7 b5 31 3e
       -0.11757724 -0.14362344 -0.007547886 0.17354475

bias f4 [8]
000000 f9 10 76 bd 9f d0 82 3d 04 02 06 be 5b 75 37 be
       -0.06007478 0.063874476 -0.13086706 -0.17915861
000010 71 8f 8c 3d f0 f8 53 3e be c0 93 be 41 87 02 3e
       0.06863297 0.20700431 -0.28857988 0.12746908

weight f4 [8]
000000 f0 a2 83 3f d8 76 6e 3f 43 2b 8a 3f e9 7d 5b 3f
       1.02841 0.9315009 1.0794452 0.85739
000010 72 3e 85 3f 45 43 69 3f a4 e9 72 3f 69 9a 8d 3f
       1.0409682 0.9111827 0.9488776 1.1062747

bias f4 [8]
000000 4e 0b 29 3d 89 f6 88 3e 89 10 8c 3e 10 f8 bf 3e
       0.041270547 0.2675059 0.27356365 0.37493944
000010 69 ee 31 3e b6 e4 0b 3d f7 21 6d 3d db 72 5c 3e
       0.17376103 0.034153663 0.05789372 0.21528189

running_mean f4 [8]
000000 fe f2 95 be 86 c8 b6 3d 02 85 af be 08 b9 03 bf
       -0.2928695 0.089249656 -0.34281164 -0.5145421
000010 2e 01 bc 3c 6d 58 2b be 95 48 9c be c0 b8 78 3e
       0.022949781 -0.1673295 -0.30524126 0.24289227

running_var f4 [8]
000000 e1 c8 92 3d de da 1d 3e 6d ff 3d 3e 7d 7b b6 3d
       0.07167221 0.15415522 0.18554468 0.08910272
000010 a9 17 09 3e 1c 5a 02 3e f4 d9 a8 3d fe b3 2c 3e
       0.13387932 0.12729686 0.08244696 0.16865537

weight f4 [8, 8, 3]
000000 21 dd 3e 3e 47 1d 1b bd 9b a8 a2 be 85 32 ad bc
       0.18639041 -0.037869718 -0.3176926 -0.021142254
000010 bd f9 69 bd 4e b6 e5 3d 9a e6 f0 3d ee 73 d5 3d
       -0.057122935 0.112164125 0.11762734 0.104225025
000020 a9 66 a6 3e 60 a2 dd bd e9 c5 52 3c a0 e5 91 3e
       0.32500198 -0.10821986 0.012864568 0.28495502
000030 1b 73 17 be 08 78 1d 3e 8b 9d f6 bd 02 48 07 3e
       -0.14790003 0.1537782 -0.12041768 0.13211063
000040 19 cb 9d 3d bf bc 8c bd dc 1a d9 3c 5a 0f 3f 3e
       0.077047534 -0.06871938 0.026502065 0.186582
000050 c4 f0 ba 3e 76 82 0d 3e 60 98 ac bd 59 fe 5e 3e
       0.36511815 0.13819298 -0.08427501 0.21776713
000060 ee 08 5a be c6 9c 8a 3d d0 8e 7c bc 76 40 d2 be
       -0.21292469 0.067681834 -0.0154149085 -0.41064805
000070 f5 bc 00 3e 13 86 87 be 97 92 32 be 94 23 38 be
       0.12572081 -0.26469478 -0.17438732 -0.17982322
000080 0c 85 89 bd 81 65 3e 3d 58 88 fb 3d f5 76 e3 3d
       -0.0671483 0.04648352 0.12281865 0.11106674
000090 8c 68 13 3c 04 81 d1 3d 1a 48 d3 bc f4 a8 2b be
       0.008997094 0.10229686 -0.025791217 -0.16763669
0000a0 d2 e1 62 3e 3f 7a 81 be 24 7a 47 bd 2e 3b ae be
       0.22156456 -0.2528858 -0.048700467 -0.34029526
0000b0 6a 99 04 3d 52 f0 8f 3d 6a 3e b5 bd d6 87 01 3e
       0.03237287 0.07028259 -0.08849795 0.12649474
0000c0 47 bd 16 bd ac 90 26 3e ac 04 52 3e a1 4c 35 3d
       -0.036801603 0.16266125 0.20509595 0.044262532
0000d0 5d e6 1b bb b7 74 8d 3d 09 1a 0b 3e aa a5 1d 3e
       -0.002378843 0.06907027 0.1358415 0.15395227
0000e0 59 8b 85 be 55 e5 73 bd b1 24 3c be 36 f7 07 be
       -0.26082876 -0.05954488 -0.18373372 -0.13277897
0000f0 81 40 a9 bc 29 7c d3 3d 70 b7 a2 3e cf 4e 13 be
       -0.02066064 0.10326416 0.31780577 -0.14385532
000100 83 63 11 3e d7 07 49 bc 82 8f a6 bc c5 1a 2f bc
       0.14198117 -0.012269936 -0.020332102 -0.010687535
000110 9e 1d 3e be c2 ab 80 be bb 28 79 be 39 b8 7c bd
       -0.18565986 -0.2513104 -0.24331944 -0.061699126
000120 b8 61 5c 3e 89 94 44 bd de 28 87 3e fa 2c ff 3d
       0.21521652 -0.047993217 0.26398367 0.124597505
000130 92 2a cb 3a 04 99 40 bd da 92 bb 3e e2 cf a4 3e
       0.0015500358 -0.047020927 0.36635476 0.32189852
000140 c8 0e 81 3d 7d aa dd 3d 0c cc 6d 3d 0e 03 5b be
       0.063016474 0.10823534 0.058055922 -0.21387884
000150 5e 00 de bb c6 39 b8 3d d3 cd 17 be f6 8a 9e 3d
       -0.006774946 0.089953944 -0.1482461 0.077413484
000160 7c d2 2d bd e8 3e f0 bd e3 ee 97 bd 39 bb d1 3d
       -0.04243706 -0.117307484 -0.07418611 0.10240788
000170 fa 14 23 3e 1d 80 14 be 12 5e 49 3e 40 ab 2b 3c
       0.1592597 -0.14501996 0.19664791 0.010477841
000180 dc 6b 54 3e 28 a1 af 3d 7c 19 18 3d 57 2c 6d 3d
       0.2074427 0.0857566 0.03713368 0.057903614
000190 a9 b9 f5 bc 15 c4 58 3d 50 4c ac 3e 85 9f 7e bd
       -0.029995756 0.052921373 0.33651972 -0.06216385
0001a0 ca 12 62 3e 90 d9 74 bc d7 b0 35 3e b8 25 57 3e
       0.2207748 -0.014944449 0.1774324 0.21010482
0001b0 a8 06 41 3e c6 1a e3 3c 7c 90 69 3e e0 0d a0 3e
       0.18850195 0.027722728 0.22809023 0.31260586
0001c0 5f 41 4f 3d 82 46 20 3e cc 87 3f 3e 7f 4a bf bd
       0.050599452 0.15651897 0.18704146 -0.09340381
0001d0 53 45 cf 3d 67 3d 83 3e bb 25 1b 3d 46 10 e6 3d
       0.101206444 0.25632784 0.03787778 0.11233573
0001e0 c1 78 7e bd 80 78 88 be f4 5e fc 3c 0a 75 46 be
       -0.06212688 -0.26654434 0.030806996 -0.19380584
0001f0 c4 72 97 be ff 0f ad bb 9b e7 a2 3d ac 6c cf 3d
       -0.29579747 -0.005281448 0.079543315 0.101281494
000200 db 28 b7 bd 8b 83 56 3d 34 95 66 be 8d 7b 95 be
       -0.089433394 0.052371543 -0.22517854 -0.29195824
000210 cb c2 49 3e 3e f9 46 3e 78 06 0b 3e d9 1a 66 bc
       0.19703214 0.19431016 0.13576686 -0.014044487
000220 9d 8d 03 be 81 57 30 3d f9 76 0c ba 40 65 54 3c
       -0.1284699 0.0430522 -0.00053583045 0.012963593
000230 e7 cf 3f 3e 04 ac f6 3d 25 21 2d be d2 54 90 3e
       0.18731652 0.12044528 -0.16907175 0.28189713
000240 bc 9a 70 3e 2a 3b 3d be 27 25 f9 3d 60 56 07 3c
       0.23496526 -0.184796 0.12165289 0.0082603395
000250 ba d2 72 3d c1 7b 13 3e 67 f1 d3 3d b1 3c 86 bd
       0.059282996 0.14402677 0.10348778 -0.06554545
000260 16 ae 0d 3d ea 79 9a bc 86 35 0a be 9b 74 32 bd
       0.03458985 -0.018856961 -0.1349698 -0.043568235
000270 46 81 cf 3d 89 6f 00 bf 1a 00 58 be 88 de 11 3e
       0.10132079 -0.5017019 -0.21093789 0.14245045
000280 88 99 2d be 7f 9f ca bd 90 ab 59 bd 59 02 25 be
       -0.16953099 -0.09893703 -0.05314213 -0.16114177
000290 c5 1d b9 3d 4b ee 07 bd c9 6f 08 3b 08 9e 82 3c
       0.09038881 -0.03318624 0.0020818582 0.015944496
0002a0 d4 e0 91 3e f6 20 0d 3d 48 6e 0c be 87 0c 19 be
       0.28491843 0.034455262 -0.13713944 -0.14946185
0002b0 5b d1 2f 3d 4b 15 a4 be 76 dd 83 bd f9 3e 8a 3d
       0.042924266 -0.32047495 -0.06438725 0.06750292
0002c0 6f e5 57 3c 50 bf d2 bc 64 3d a7 bc e2 7c e3 bd
       0.01317726 -0.02572599 -0.020415016 -0.11107804
0002d0 5c 32 bc bd 58 bc 83 bd 40 a5 09 3e 0e 0c 28 3d
       -0.09189293 -0.06432408 0.13441944 0.04102712
0002e0 24 bb b3 bc 5b 12 64 be 70 a3 51 be af 1d 79 3c
       -0.021939822 -0.22272627 -0.20472503 0.015204831
0002f0 05 ca 09 3d da f0 0d 3e 6e e9 8c be e3 e5 1f be
       0.033639926 0.13861409 -0.27521843 -0.15615039

bias f4 [8]
000000 64 8d dc bd 79 c5 46 bd cd 5c bb 3c fa be dc 3d
       -0.107691556 -0.04852817 0.0228714 0.107786134
000010 19 f9 34 be b2 dd f4 bd 8e 1c 15 3e aa cb 9c bc
       -0.17673148 -0.119563475 0.14561674 -0.019140083

weight f4 [8]
000000 fb dd 6b 3f af 7b 7b 3f e1 33 88 3f 56 cf 5c 3f
       0.9213559 0.982356 1.0640832 0.8625387
000010 42 c4 88 3f bb 13 79 3f a8 6f 6f 3f 8a dd 90 3f
       1.0684893 0.9729573 0.9352975 1.1317608

bias f4 [8]
000000 2b 77 3c 3e bb 65 1a 3e 5a 6f b8 3e 99 e7 d9 3d
       0.18404834 0.1507787 0.36022455 0.10639877
000010 e4 93 46 3e 80 b0 4e 3e 25 ee 15 3e 93 d5 4c 3d
       0.19392353 0.20184517 0.14641626 0.050008368

running_mean f4 [8]
000000 0e 83 00 3f 6f 01 fd be ee 75 06 be a8 d5 24 3f
       0.50199974 -0.49415156 -0.13130924 0.64388514
000010 90 47 7d 3f 93 f7 74 be b3 bd 05 be db d5 ef be
       0.9893732 -0.23922567 -0.13060646 -0.46842846

running_var f4 [8]
000000 f5 66 aa 3e fe 2a db 3e f5 ec a6 3e 98 ef 7e 3e
       0.33281675 0.42806238 0.3260266 0.24896085
000010 a5 3e 5e 3f 0e cc 81 3e fa d4 98 3e a7 06 96 3e
       0.8681434 0.25350994 0.29849988 0.2930195

weight f4 [8, 8, 3]
000000 40 ab 90 bd 52 57 72 be bf de c4 bd cc f2 26 3b
       -0.07063913 -0.23666123 -0.09612798 0.0025474308
000010 5a 85 21 3d 43 94 26 bd 12 47 0c 3e 92 09 d8 bd
       0.039433815 -0.040668737 0.13698986 -0.105487004
000020 47 59 61 be 8a 7e a8 bd d8 27 00 be ae 08 04 be
       -0.22006713 -0.082272604 -0.12515199 -0.12893936
000030 76 f9 22 bd fb 29 a7 be 4e 89 52 3e d8 be e3 3b
       -0.039788686 -0.32649216 0.2056019 0.0069502406
000040 18 4f c1 be c1 d1 15 be 1d 2e 8d 3d 6f 8a 29 3e
       -0.37755656 -0.14630796 0.06893561 0.16556714
000050 13 f5 00 bd 6f 05 71 be ea 17 0f be a6 2a f4 bd
       -0.03148372 -0.23537229 -0.13973966 -0.11922197
000060 4f c9 91 3e 57 0b 70 bd 6a 0a 5c 3e 34 55 08 3e
       0.284739 -0.058604565 0.21488348 0.13313752
000070 44 1d 01 be 63 35 dc 3e bd 2b a6 3d 86 b8 91 3d
       -0.1260882 0.4300948 0.08113811 0.07115273
000080 dc 02 58 be a7 a9 e1 bd 5c ed 24 3e 0a 23 52 3d
       -0.21094841 -0.11018687 0.1610617 0.051302947
000090 28 98 53 bd b0 81 2e be fe dc 0e bd c3 aa 78 bd
       -0.05165878 -0.1704166 -0.034878723 -0.060709726
0000a0 24 75 02 3e 86 53 05 be fe e5 58 3d 01 84 1c 3d
       0.12739998 -0.13020143 0.052953713 0.038211826
0000b0 6c 03 87 3d 14 e3 7a bd 10 aa ec 3c 93 1a 44 be
       0.065924495 -0.061251715 0.028889686 -0.19150762
0000c0 6d 70 9a bb 6a 90 01 3d da 3f a7 bd 6f c4 42 be
       -0.004713109 0.031631865 -0.081664756 -0.19020246
0000d0 05 ae ea bd 5d f8 34 3d 70 3c 73 3e 10 57 3e 3e
       -0.11458973 0.04418217 0.23753524 0.18587899
0000e0 f8 5a a5 bd fd d5 25 bd 7f 33 c8 bc 7f 05 40 be
       -0.080739915 -0.04048728 -0.024438618 -0.18752097
0000f0 d2 de 48 be 6f 43 64 bc 11 10 5f 3e 2b e0 48 be
       -0.19616249 -0.013932093 0.21783473 -0.19616763
000100 fd d9 84 3d a1 b4 8d be 99 80 7b 3d 0c 50 a7 be
       0.064868905 -0.2767687 0.061401937 -0.32678258
000110 3d 89 5d 3c a3 db 72 bd 3f 13 d3 bd 2a c7 8c be
       0.01352149 -0.059291493 -0.10306405 -0.274957
000120 b9 a3 90 3c bf 53 e2 bd a2 93 0d 3c ed 27 c9 bd
       0.017656194 -0.110511295 0.008641155 -0.09822068
000130 5c c5 e5 be 23 e6 a0 bc 69 e3 04 3d fd 01 35 be
       -0.44877136 -0.019640988 0.032443438 -0.1767654
000140 f8 e5 25 bc cd 5e 0c bc 95 17 64 be 5f ff bf be
       -0.01012563 -0.008567524 -0.22274621 -0.3749952
000150 b9 d7 0f 3d 63 08 ae be 8b 20 0a 3e 0c 4e 58 3d
       0.03511784 -0.33990774 0.13488977 0.052808806
000160 0a 66 14 3e 08 b8 e6 bd af 26 93 bd 21 50 74 be
       0.1449205 -0.1126557 -0.07185113 -0.23858692
000170 08 e1 35 be 92 e7 76 3e ec 5e 8c bd a0 5d 8c 3e
       -0.17761624 0.24111775 -0.068540424 0.2741518
000180 b8 d0 4d bd 6c 31 ab bd ad 6a 51 3d 22 4d 47 bd
       -0.050247878 -0.08359036 0.051127125 -0.048657544
000190 04 30 ff bd 0d 87 7b be 31 c9 87 3d ed 95 b6 bd
       -0.1246033 -0.24563237 0.06630171 -0.08915315
0001a0 32 99 22 3d 0c 50 4f be 73 95 04 be b8 a9 b5 bd
       0.03969688 -0.20245379 -0.12947635 -0.08870262
0001b0 29 4c 3e be 57 ed aa be 8e 7c 36 3e e3 28 a7 bd
       -0.1858374 -0.333842 0.17820951 -0.081620954
0001c0 e6 b1 fb bd a5 ca ac bd 17 a6 76 3d a3 ae 98 be
       -0.12289791 -0.08437089 0.06021699 -0.29820737
0001d0 cf 9b dd 3d 74 2b 3e be cf 52 22 be 11 ef 16 3e
       0.10820734 -0.18571264 -0.15851901 0.14739634
0001e0 3e 7c 1a 3e 1f 20 86 3d 0a c4 26 3e e3 95 2e 3d
       0.15086457 0.06549095 0.1628572 0.042623412
0001f0 5d ce e4 bd fa bf 44 3d bb b7 e7 3d e5 c4 a2 3d
       -0.11172173 0.048034646 0.11314341 0.07947711
000200 38 f8 b8 be 8e 80 7c 3d 0c 1d 19 3e 42 bd 2f be
       -0.36126876 0.061646037 0.14952487 -0.1716204
000210 a0 70 6a 3d e5 49 94 be 5e 67 1f be ad 56 91 be
       0.057236314 -0.28962627 -0.15566775 -0.2838644
000220 fd 93 42 be 6f d1 06 3e 0d 04 29 3d 39 42 8a 3d
       -0.19001766 0.1316583 0.04126363 0.06750912
000230 72 f6 06 3e ce 6e 80 3e f9 14 16 be c1 99 e4 3c
       0.13179949 0.25084537 -0.14656438 0.027905347
000240 ef 13 18 3e 2c a8 52 3e 25 5a 7e be 76 fe 1e be
       0.14851354 0.20571965 -0.24839075 -0.15526757
000250 21 d4 fa 3d 58 02 d3 bd c6 d9 50 be 11 55 8e be
       0.12247492 -0.103031814 -0.20395574 -0.27799276
000260 8f 71 1e be 94 58 2c be 29 80 ec 3c 9e a3 c2 bd
       -0.15473007 -0.16830665 0.028869705 -0.09503864
000270 e6 2f 43 3c 55 2b 1e be 8e fc ea 3c d4 bc 74 be
       0.011913275 -0.15446217 0.02868488 -0.23900157
000280 fb 14 01 3e 0b 92 4b be b1 5b 8f 3e 80 e7 2f be
       0.1260566 -0.1987993 0.27999642 -0.17178154
000290 65 a4 98 bd 61 2a 61 3e 08 2c d9 bd 39 ed 41 bd
       -0.07453231 0.21988823 -0.106041014 -0.047345374
0002a0 91 b6 8d 3d 33 f5 be bb 70 07 45 be 47 73 c0 3d
       0.069195874 -0.00582757 -0.19241118 0.093969874
0002b0 0c 65 63 3e 7e a9 f3 bd ed 33 9b 3e 6b b7 2f be
       0.22206515 -0.118975624 0.30313054 -0.17159812
0002c0 7e d1 29 be 5a 7c 0b be 11 3c 1d 3e 00 43 36 3e
       -0.16583821 -0.13621655 0.15354945 0.17798996
0002d0 12 d8 f0 3d 71 5f 4f 3d 29 ce 14 bd 37 36 53 be
       0.11759962 0.05062813 -0.036329422 -0.2062615
0002e0 d4 6f 66 be bd 8f d6 be 09 f4 c2 bb cf 03 00 be
       -0.22503597 -0.4190654 -0.0059495014 -0.12501453
0002f0 a3 c5 9c bd d7 5d 75 be 68 7d 62 bd 9a 15 71 bd
       -0.07654884 -0.23961578 -0.055295378 -0.05885849

bias f4 [8]
000000 8e b9 5e be c0 74 9c 3d bb d3 da 3d 1c 9f d0 bd
       -0.21750471 0.07639456 0.10684916 -0.10186598
000010 77 67 79 bd df 7a 36 3e 4d a1 94 3b 95 57 e3 bd
       -0.060889687 0.17820309 0.00453583 -0.11100689

weight f4 [8]
000000 5d 34 83 3f 98 2b 5c 3f 79 39 86 3f b1 68 8c 3f
       1.0250355 0.8600402 1.0486289 1.0969449
000010 a1 5b 72 3f d2 12 84 3f 5e a8 83 3f a3 61 64 3f
       0.94671065 1.0318244 1.0285757 0.8921148

bias f4 [8]
000000 77 b4 59 3e 33 36 f1 3c 48 eb 26 3e 8d 60 49 3e
       0.21260248 0.02944479 0.1630069 0.19665737
000010 6d 30 26 3e 0f 33 83 bb 99 2b ee bc 55 23 b2 3d
       0.1622941 -0.0040038894 -0.029073523 0.08698145

running_mean f4 [8]
000000 84 df 7c bf 0b 96 60 3e 20 65 a9 be 2f 07 26 bf
       -0.9877856 0.21932237 -0.33084965 -0.6485471
000010 c0 5b 40 bf 4b 34 1d 3d 7e 6b 1a bf 0e 6c 19 bf
       -0.7514 0.03837995 -0.6032027 -0.59930503

running_var f4 [8]
000000 e9 a5 db 3e b3 a4 79 3e 98 96 3b 3e eb 51 20 3f
       0.42900017 0.24379234 0.18319166 0.62624997
000010 d0 71 00 3f 74 42 86 3e 9c 6e 05 3f 99 95 84 3e
       0.50173664 0.26222575 0.521219 0.25895384

weight f4 [8, 8, 3]
000000 28 df f7 bc d3 78 bb 3e 0a 2b f4 bd cf 87 3f be
       -0.030257776 0.3661562 -0.119222715 -0.1870415
000010 09 79 a6 3d 1a 42 45 be 36 fa 97 3d 57 4c 4b 3e
       0.081285544 -0.19263497 0.07420771 0.1985334
000020 4c a5 0a 3d d5 7b 82 be 65 4c 0a be d6 65 58 be
       0.033849046 -0.254851 -0.13505705 -0.21132597
000030 a6 da 52 3d 6c 83 f1 3d 4f 58 7a bd 7c 46 60 bd
       0.05147805 0.11792645 -0.061119374 -0.05475472
000040 ee 0c 3a be aa ea a7 be 7c 8b 58 3e ec db 35 be
       -0.18168995 -0.32796222 0.21146959 -0.17759675
000050 ca 79 50 3e 8b b9 29 be b0 3a 7b 3c b3 81 46 3e
       0.20358959 -0.16574685 0.015333816 0.19385414
000060 81 82 90 3c 79 fd 5b bd 9c e0 60 be fc 99 31 be
       0.017640354 -0.053708527 -0.21960682 -0.17343897
000070 55 ac 1f bd 11 1e 14 3c 57 0c 38 3d 40 95 dc 3d
       -0.038982708 0.0090403715 0.044933643 0.10770655
000080 9b dc 4f be a6 b2 86 bd a5 cb 49 3d a9 9d 71 be
       -0.20298998 -0.06577043 0.049266476 -0.23595299
000090 ba 5b 38 be eb ef dc bd 3e 48 dd bc 96 80 0b 3d
       -0.18003741 -0.10787948 -0.027011987 0.034058176
0000a0 40 da 2c be cb ac d5 3d fb 86 1d 3e 82 31 f2 3a
       -0.16880131 0.10433348 0.15383522 0.0018477889
0000b0 65 b7 54 3e aa 80 5e bc fc 0b e1 3c 7a 53 ee 3e
       0.20773084 -0.013580481 0.027471535 0.46548063
0000c0 10 8c 19 3e 62 72 e7 3c 12 1d 71 be 4c d4 38 3d
       0.14994836 0.028252784 -0.23546246 0.045124337
0000d0 6c 5b 56 bd 4d 85 16 3e 27 17 e1 bc 12 44 90 bc
       -0.05233328 0.14699288 -0.02747686 -0.017610583
0000e0 9d 6c b7 be 64 b2 be bd b7 03 30 3e cb cf 0c be
       -0.35825053 -0.09311369 0.17188917 -0.13751142
0000f0 0e bf 63 be ff b3 18 3e a3 51 8f bd a4 04 11 3e
       -0.2224085 0.14912413 -0.06997993 0.14161927
000100 02 f3 04 3d 9d 6b 9a 3e c7 d1 38 bd 60 52 b0 3d
       0.032458313 0.30160227 -0.045121934 0.08609462
000110 b2 8c 8d 3e 09 84 96 bd 0b 64 b5 3c 90 3c 0e 3e
       0.27646405 -0.073494025 0.02214243 0.1389029
000120 4c 95 c7 bd b5 c4 bf 3e fa e7 2e 3e 03 d7 23 bd
       -0.09745273 0.37454763 0.1708068 -0.039999973
000130 8c e7 38 bb 95 97 5c bd 9d 71 f2 3c dd c7 ad 3d
       -0.0028214185 -0.053855497 0.02959519 0.084853865
000140 de 52 3f 3d a7 cb 48 be 05 17 3c 3e 28 97 c0 be
       0.046709888 -0.19608937 0.18368156 -0.37615323
000150 ab 2c bd bd b4 3d 93 3d b2 58 fa bb cd 15 12 be
       -0.09237035 0.07189503 -0.007639968 -0.14266129
000160 34 4d 66 bd 9a 31 91 3d fd e3 9b bd d5 47 2a be
       -0.05622597 0.07089539 -0.07611845 -0.16628964
000170 2d 73 34 be 96 6f 15 3d 55 60 56 3c c3 90 01 3c
       -0.17622061 0.03648337 0.013084491 0.007908049
000180 ed 92 07 be e3 71 4b 3e 1e e3 1a bb 56 21 51 3e
       -0.13239641 0.19867663 -0.0023633908 0.20422873
000190 6e f6 92 be 7b 10 e6 3d f7 25 bc 3d bc 00 a5 3e
       -0.28703636 0.11233612 0.09186929 0.32227123
0001a0 b8 a0 5b bd c5 36 ff bb 0e 78 3b be f1 36 a1 be
       -0.05362007 -0.0077885115 -0.18307516 -0.3148723
0001b0 ef ce ca 3c ca ba 06 be 4d 0a ea bd 75 37 fc 3c
       0.024756877 -0.13157192 -0.11427746 0.030788163
0001c0 f7 da 38 be 9f 0a e3 bc ba 94 1a 3d dc c6 ab 3b
       -0.18052278 -0.027715025 0.037739493 0.0052422117
0001d0 50 6a 56 3e 0b a6 07 be a4 c9 e8 bc e0 b3 4c 3d
       0.20938993 -0.13246934 -0.028416462 0.04997623
0001e0 42 31 06 be 22 e7 6e bd 8d 9d d8 3d 68 2e d7 3d
       -0.13104728 -0.058325894 0.105769254 0.10506898
0001f0 34 58 09 bd 0b 7b 9d bb 22 7b 16 3e 4d a6 99 3e
       -0.033531383 -0.0048059276 0.14695409 0.3000969
000200 88 b6 1a 3e 64 fc 36 be af 7f 83 3c e8 71 69 be
       0.15108693 -0.17869717 0.016052095 -0.22797358
000210 4a 6f 0e 3d c9 e6 cf 3c dc 6c 31 be 75 3a d7 bc
       0.034774102 0.025378602 -0.17326683 -0.026272992
000220 a8 c9 d2 3b 2c 52 27 3e dd 1d 1a 3d 56 a5 12 be
       0.0064327307 0.1633994 0.037626136 -0.14320883
000230 27 96 a8 3e 12 b3 2c be d2 eb d6 bd 90 ee 79 3e
       0.32927057 -0.16865185 -0.10494198 0.2440741
000240 75 54 13 be 43 d0 56 3e 02 aa 71 be 93 cf f8 bd
       -0.14387687 0.20977883 -0.23600009 -0.12148967
000250 bd 85 d7 3c 91 19 32 bd 1c 50 aa 3e 08 e6 56 3e
       0.026308889 -0.043481413 0.33264244 0.20986187
000260 31 ba 82 be 55 33 e6 3c 9d 53 d7 bd de 7d 88 be
       -0.25532678 0.028100649 -0.10513995 -0.2665853
000270 83 74 e6 bd d4 b5 2b 3e 63 d1 5d be 8e e0 02 3e
       -0.112526916 0.1676858 -0.21661906 0.12780973
000280 8a d7 bf bd 2b 71 86 3e 51 13 6c 3d f9 5e e7 bc
       -0.09367283 0.26258215 0.05763561 -0.028243529
000290 cc 14 1e 3e 09 ef 33 be ce 26 df bd 39 e4 00 be
       0.15437621 -0.17571653 -0.10896073 -0.1258706
0002a0 21 9c 0e 3d 35 e3 3c bd 1b 26 09 be 89 c1 e3 bb
       0.034816865 -0.04611512 -0.13393442 -0.0069505614
0002b0 52 e8 7a be bd df 37 3e 18 d0 f6 bc 33 f3 da 3b
       -0.24502686 0.17956443 -0.030128524 0.0066818236
0002c0 6b 84 7f be 03 4c 70 be 0e 80 7d bd 81 e8 8c bd
       -0.24952857 -0.23466496 -0.0618897 -0.06880284
0002d0 18 17 be 3d a3 36 8a 3e ea bd 3f be ce a8 14 be
       0.092817485 0.2699481 -0.1872479 -0.14517519
0002e0 d5 0c 11 be 4e 47 7a 3e 44 af 88 be 80 ff 1d be
       -0.14165051 0.24441263 -0.26696217 -0.15429497
0002f0 5b 31 9a bd 32 04 c9 3d 41 79 cb 3d f1 e3 19 bd
       -0.07528945 0.09815253 0.09935237 -0.037570897

bias f4 [8]
000000 d2 d0 d9 3d 4b e7 00 be 4d 56 b9 b9 10 d9 48 3d
       0.106355324 -0.12588231 -0.0003535025 0.049035132
000010 d0 37 95 3a 41 ca d0 bd 2e 1b 58 be 9c ef 43 3e
       0.0011384431 -0.10194827 -0.21104118 0.19134372

weight f4 [8]
000000 e4 d4 22 3f a3 d1 2d 3f 68 9e 2c 3f 32 98 35 3f
       0.63606095 0.67898005 0.6742921 0.70935357
000010 1d d0 fc 3e 4a 90 12 3f 00 6c 2f 3f c8 cf 17 3f
       0.49377528 0.5725142 0.6852417 0.59301424

bias f4 [8]
000000 e7 37 9f bc 7f c6 8f be 05 82 93 be bf be 98 bd
       -0.019435836 -0.28081128 -0.28810135 -0.07458257
000010 cf 99 9c be dc 0a 83 be eb 91 37 be 44 af 64 be
       -0.30586097 -0.25594223 -0.17926757 -0.22332484

running_mean f4 [8]
000000 db 9f c2 bd d9 ec 87 be 51 47 76 3d de 6d 8e bd
       -0.09503146 -0.26547888 0.060126606 -0.06954549
000010 6f 99 12 be 37 1f 03 3d 1b 1d cb be 54 f9 69 be
       -0.14316343 0.03201219 -0.39670643 -0.22849017

running_var f4 [8]
000000 12 25 a5 3e 04 ae 42 3e 68 49 99 3e d3 35 3f 3e
       0.32254845 0.19011694 0.29938817 0.18672876
000010 c9 a0 53 3e a4 e4 48 3e 1d 18 54 3e bf a4 5d 3e
       0.20666803 0.1961847 0.20712323 0.21644877

weight f4 [128, 25]
000000 ea 30 85 be 39 c2 88 bd 60 ee a6 3e 4e 4c 5a 3e
       -0.2601388 -0.0667767 0.3260374 0.2131817
000010 82 b4 00 bf 1f bc 0b be 75 99 04 be c0 ae 18 3e
       -0.50275433 -0.13645981 -0.12949164 0.14910412
000020 56 73 89 3e 83 f9 d3 3c b6 b2 93 3e 1d a1 37 be
       0.26845807 0.025875812 0.28847283 -0.17932554
000030 18 31 ab be 33 2d 76 3e 3a 35 d8 39 15 9e 92 3d
       -0.33435893 0.2404068 0.00041238387 0.07159058
000040 a5 0c 85 be 9e a7 c0 bc 91 4b 22 3e 36 1f 9a bc
       -0.2598621 -0.023517426 0.15849139 -0.01881371
000050 f4 bc 8d 3c 9d 92 7f bd c9 1e c7 be 04 e0 fd 3d
       0.017302014 -0.06239568 -0.38890675 0.12396243
000060 5b 3e 24 be 68 e7 78 3c 8e 72 1d be e8 7d 63 3e
       -0.16039412 0.01519189 -0.1537573 0.22215998
000070 0d d9 22 3e 97 89 1d 3e c7 66 07 3d a2 8e 26 3e
       0.15903111 0.15384518 0.033057 0.16265348
000080 25 0d 45 3e 1e 15 52 be f2 ea 9e 3d f4 d0 e3 bd
       0.19243295 -0.20515868 0.07759656 -0.11123839
000090 36 50 cf bd 71 19 15 3e 56 5d 15 3e 4d 4d 9c 3d
       -0.10122721 0.14560486 0.14586386 0.076319315
0000a0 ce 00 1b be b7 05 47 be 82 30 b3 3e 3d 8e 43 3a
       -0.15137026 -0.19435774 0.34997946 0.0007459855
0000b0 6b b0 99 3d 16 b8 0d 3d 31 2a 82 3a 6c b0 b9 3d
       0.07504352 0.034599386 0.0009930787 0.09066853
0000c0 5a 8c 94 be 75 1b 39 3d 72 e4 28 3e af 27 1b bd
       -0.2901333 0.0451922 0.16493395 -0.037879642
0000d0 2d 9a 71 bc 6f 41 fb bd 9c 92 9a ba 7f 54 ae be
       -0.014746231 -0.1226834 -0.001179296 -0.3404884
0000e0 71 a0 bf bc a9 99 97 3e d5 ea 37 3e 1e b6 a6 bc
       -0.023391934 0.2960942 0.17960675 -0.020350512
0000f0 6c 3c 96 be a8 b6 a5 bd 93 91 d2 bd 45 b3 b8 bd
       -0.29342973 -0.080914795 -0.10281672 -0.09018568
000100 a4 b3 89 3d 46 39 eb 3d 47 e4 5a 3e b9 3c e1 3c
       0.06723717 0.114855334 0.21376143 0.027494775
000110 5c 3f 9f be 16 4d 29 bd 20 4a 97 be b8 eb 01 bf
       -0.31103027 -0.04133328 -0.2954874 -0.50750303
000120 2d 94 5d be b3 16 bd 3d c9 f8 7a 3d c9 27 2e 3e
       -0.21638556 0.09232845 0.061272416 0.17007364
000130 ab 5d 2d 3e 2d 6a ac 3d cd d3 0f 3e ff 58 b1 bd
       0.16930263 0.08418689 0.1404564 -0.08659553
000140 0e 5d f9 3d 9e 17 87 3e f0 2a 2d be e3 d0 93 3d
       0.12175952 0.26385206 -0.1691091 0.07217576
000150 b6 31 8d be 76 04 8e 3e 7b 79 05 3c d1 5e 95 3c
       -0.2757699 0.27737778 0.008146639 0.018233689
000160 9b 5d 74 3e 7d b8 0e 3d 4e c6 ad 3d 34 08 0e bf
       0.23863833 0.03484391 0.08485089 -0.55481267
000170 fb fa 82 bd 06 28 40 3c 09 31 33 be e3 7c b0 3d
       -0.06395527 0.011728292 -0.17499174 0.0861757
000180 c5 d5 a9 be cd 69 83 bc 1e aa 39 3e 83 23 93 be
       -0.33170906 -0.01604166 0.18131301 -0.2873803
000190 18 a6 2d 3e 25 54 d1 3e 1b 63 88 bd 29 ea f0 bd
       0.16957891 0.4088451 -0.06659528 -0.117634125
0001a0 b1 38 9a be be 0a 8d bd ae d6 4b bd 5f 4b 13 be
       -0.30121377 -0.068868145 -0.04976528 -0.1438422
0001b0 cd c6 36 bd 1e 33 a7 3d eb 27 5b 3d 26 8c 61 3e
       -0.044623185 0.08164047 0.053504866 0.22026119
0001c0 f0 0e eb 3c 2d 1e ba 3d 0f 4b ca 3d 9c f7 4b be
       0.028693646 0.09087787 0.098775975 -0.19918674
0001d0 44 47 e5 3d ce 60 e7 3d c2 0c a3 bd da 4b 2e bd
       0.111952335 0.11297761 -0.07961418 -0.042552806
0001e0 d1 14 4d 3e 63 6c f4 bc 40 e6 15 bd f4 58 a9 3d
       0.20027472 -0.029836839 -0.036596537 0.082689196
0001f0 53 bc 14 3e 76 56 aa be 19 c4 96 3d 87 81 5f be
       0.14524965 -0.3326909 0.073616214 -0.21826755
000200 a4 6d fe be 4c 37 e0 bd 09 44 0b be 67 18 aa 3d
       -0.49693024 -0.10948047 -0.13600172 0.08305436
000210 97 54 54 3e cd dd 46 be 14 86 6a 3e c0 c4 46 3e
       0.20735393 -0.19420548 0.22902709 0.19410992
000220 d0 e1 82 bd 6d d6 74 bb a0 59 2f bd 93 b4 e8 3d
       -0.063907266 -0.0037359253 -0.042810082 0.11362567
000230 b1 d1 ec bd f8 a8 83 3d 72 90 0c 3d d2 ed f2 bd
       -0.11563433 0.064287126 0.03431744 -0.11861767
000240 89 d3 64 3e 7d 6e 3f 3c a2 16 1f 3d f0 95 f7 bd
       0.2234632 0.011684057 0.038839944 -0.12089145
000250 f6 6a 44 bc ba d1 11 be b5 67 7c 3d 61 db ec 3d
       -0.011988392 -0.1424016 0.06162234 0.11565281
000260 53 4a 9a be 68 bd 5e 3e 97 7d 71 3d 8f 49 d6 be
       -0.3013483 0.2175194 0.058957662 -0.41852996
000270 b3 47 c4 3d af 5d 43 bb 39 62 43 3d 54 5f ac 3c
       0.09583988 -0.0029810478 0.047701094 0.02104155
000280 32 99 9a 3e 2e d2 09 be c5 fe 47 bd 52 54 fc 3d
       0.30195004 -0.13459083 -0.04882695 0.1232077
000290 4a 02 91 bd 43 a1 8b 3b 4d 61 e5 3d bf 4f 0d 3e
       -0.07080515 0.0042611673 0.11200199 0.13799952
0002a0 73 e0 8c be 40 85 2b bd dd 43 ca 3d 8d 21 55 be
       -0.2751499 -0.041875124 0.09876225 -0.2081358
0002b0 e8 0e c4 3c e5 01 89 bd 99 21 c0 3d 51 01 94 3d
       0.02393289 -0.066898145 0.09381408 0.072268136
0002c0 e9 5f da 3d 67 20 17 3e c8 b9 85 3e 93 0a d8 3d
       0.10662825 0.14758454 0.26118302 0.10548892
0002d0 9e 22 40 3e 50 11 b7 bc 4e b9 d6 be 6e e1 8c 3e
       0.18763205 -0.022347122 -0.4193825 0.2751574
0002e0 32 e9 f7 3c 59 a6 2a 3e 67 23 76 be 56 60 a9 3d
       0.030262563 0.16665019 -0.24036942 0.08270328
0002f0 d3 3b 80 bb 8b 5c 39 bd 48 dc c7 3d 14 20 b6 bd
       -0.0039133816 -0.04525427 0.09758812 -0.08892837
000300 cb a3 3e 3e db fb 8d be 32 ce d3 bd f9 ac a4 bd
       0.1861717 -0.27731213 -0.10342063 -0.080408044
000310 17 b7 f7 3b 3d 67 13 bd ac 8c 1a be 1b 44 dd 3d
       0.007559668 -0.035987128 -0.15092725 0.10804006
000320 80 44 95 bd 74 be c8 3d 3c 8f 3f 3e e2 d8 3e 3e
       -0.07288456 0.09801951 0.18706983 0.18637422
000330 e7 ee ef bd 9e 04 0c 3e 31 2d 9e 3e a2 2f 7e be
       -0.11715489 0.13673636 0.30893853 -0.24822858
000340 97 03 b9 bd a9 ea b7 bd 75 7f c9 3d cf 7e 83 be
       -0.09033888 -0.08980305 0.098387636 -0.25682685
000350 78 67 14 3d cd cd 4c be 2f 4f a7 be f7 13 b4 3d
       0.036231488 -0.20000382 -0.326776 0.087928705
000360 8d 78 5b bd f9 b2 00 be e3 e2 88 3d 95 35 4e 3e
       -0.053581763 -0.12568273 0.066839 0.20137627
000370 4c bf b6 be a2 6f 53 3e 00 d0 d8 bd 07 b0 2d 3e
       -0.35692823 0.20648053 -0.10586548 0.1696168
000380 b9 28 07 be 66 fa a7 3e e7 5d e1 3d 1b 81 72 be
       -0.13199128 0.32808226 0.110042386 -0.23682062
000390 a8 2f 67 3d b1 d0 bc bd e0 f4 c7 bc fb af 34 3e
       0.056441933 -0.09219492 -0.024408758 0.17645256
0003a0 55 9d 36 be d9 99 bc be f0 5c 3e 3a 34 74 97 bd
       -0.17833455 -0.36836126 0.00072617736 -0.07395211
0003b0 e0 41 4a 3e 6d 33 ba 3d 24 66 98 be 40 b0 b0 bc
       0.19751692 0.0909184 -0.29765427 -0.021568418
0003c0 17 2b 58 3d 76 85 42 3e 55 c0 ac bb ae 42 b5 bc
       0.05277547 0.18996224 -0.005271951 -0.022126522
0003d0 6d c9 e0 3b 9f 3b d9 bc c4 17 12 3c b4 9b 2d be
       0.0068599493 -0.026517687 0.008916799 -0.16953927
0003e0 af ac 80 3e 9f 4b f7 3c d4 8f 8c bd 38 ea 8b bd
       0.25131747 0.030187426 -0.068633705 -0.06831783
0003f0 52 64 55 3d 16 c7 99 3e ee 7f 6a 3e 79 7d a6 3c
       0.052097626 0.30034703 0.22900364 0.020323502

bias f4 [128]
000000 a9 d0 8e bd 14 e5 02 be 1a 22 fb 3c 35 95 51 bd
       -0.069733925 -0.12782699 0.03065591 -0.051167686
000010 4e d6 ee bd 4a a0 88 3d 46 c5 a3 3a b2 c7 a8 bb
       -0.11661969 0.06671198 0.0012494705 -0.0051507587
000020 2d 46 2b 3e fa 99 36 bd da 06 cc bd 65 3e 1b 3d
       0.16725989 -0.044580437 -0.09962244 0.0379013
000030 4d 92 41 3d 08 de f7 3d e4 14 7d bd 76 63 9e bd
       0.047258664 0.12102896 -0.0617875 -0.077338144
000040 8a b6 bb bd 68 bf e7 3d 34 69 a7 3c 79 38 2e 3d
       -0.09165676 0.11315805 0.020435907 0.042534325
000050 dd 8f b4 3c ad 7a d7 bd a9 91 1c 3c fb dd d5 3b
       0.022041256 -0.105214454 0.009556212 0.0065267063
000060 ed 1d 11 3c 46 20 12 bd e7 07 49 3d e9 7f 5c 3e
       0.0088572325 -0.03567531 0.049079802 0.21533169
000070 53 07 aa bd 08 b6 85 3d 5e a4 eb bd 3d 51 13 be
       -0.08302178 0.0652886 -0.1150596 -0.14386459
000080 e2 86 1f bd 58 fb 09 3e c0 90 cf 3d 95 6c 7a 3e
       -0.038946994 0.13474786 0.10135031 0.24455483
000090 db 33 62 3e 2e a0 18 3d 8e 98 ed bd 75 f6 3a 3c
       0.22090094 0.037262134 -0.11601363 0.011411299
0000a0 88 75 64 3d b7 49 a7 3d 92 36 3b 3e f9 7c 13 bc
       0.05577615 0.08168357 0.18282536 -0.009001964
0000b0 1d c7 0c 3e 98 ff dd 3c a8 da 26 3e 6f ae 71 3d
       0.1374783 0.027099416 0.16294348 0.059004243
0000c0 46 2e c5 3d 53 70 d2 3d 02 26 a1 3d 33 13 ee 3d
       0.096279666 0.102753304 0.078685775 0.11624756
0000d0 36 aa 12 3e 6d cc 1e 3e c1 43 15 3e 62 2c 17 bd
       0.14322743 0.1550767 0.14576627 -0.03690756
0000e0 69 ab fd bd e9 c0 24 be d8 f4 50 3d 31 2c 09 bd
       -0.123862095 -0.16089214 0.05101475 -0.03348941
0000f0 f4 b1 a6 3d dd fa 51 3c 54 59 52 bc a1 b1 d5 bd
       0.081394106 0.012816158 -0.01283868 -0.10434271
000100 be ab dd 3d 88 75 22 3d c2 fd e3 3d 97 4c a9 bd
       0.10823773 0.039662868 0.11132385 -0.082665615
000110 d2 51 bc bd d0 08 e4 bd 55 67 0b 3e 8d 8a bd 3d
       -0.091952935 -0.11134493 0.13613637 0.09254942
000120 d5 53 3b be b1 26 b0 3d a3 ec f1 3c 9b 70 e2 3d
       -0.18293698 0.0860113 0.029531782 0.11056634
000130 96 7a f4 3c 97 06 d7 bc 0e ba 02 3d 6c 8d be 3d
       0.02984361 -0.02624826 0.031915717 0.09304318
000140 a0 bd b5 bd 24 8b af bd 9c 46 74 bd 69 0d 5c bd
       -0.08874059 -0.08571461 -0.05963765 -0.053723726
000150 d0 41 c4 3d 19 26 06 3e 0d f6 0a 3d cc a2 44 3d
       0.09582865 0.1310047 0.03392606 0.048006818
000160 4b 9c 05 be d7 f7 a8 3d d4 75 a5 bc 01 3b 41 3c
       -0.13047902 0.08250397 -0.020197786 0.011793853
000170 08 98 8d 3d ed d2 2e be dd c8 27 bd f9 6a b3 3d
       0.06913763 -0.1707265 -0.040963043 0.08760638
000180 e3 07 98 3d 71 1f 1e be e5 d7 88 bd 42 34 a9 3d
       0.07423379 -0.15441681 -0.066818036 0.082619205
000190 d8 4a ee bb 1e 28 5c 3e d2 f3 93 3d ee de a2 3d
       -0.0072721057 0.21499678 0.072242394 0.07952677
0001a0 5c e5 ec 3d 74 2f 1b 3e e3 d8 15 3d 39 d7 6d 3d
       0.11567184 0.1515482 0.036583792 0.05806658
0001b0 11 46 41 be f6 d6 03 3e 9c eb 46 3e 7a f2 80 be
       -0.18874384 0.1287497 0.19425815 -0.25184995
0001c0 00 ab 69 3d 4a 8d 29 3e cc 95 62 3e 48 b2 10 3e
       0.057047844 0.16557804 0.22127455 0.14130509
0001d0 37 8a f2 3d 2f 48 5a bd dc 64 a8 3c 79 0a a0 3d
       0.11842769 -0.053291496 0.020555906 0.078144975
0001e0 7b 16 06 3d 73 f2 31 3c 17 1a 1d bd 57 a5 c5 3d
       0.032736283 0.010861027 -0.03835496 0.09650677
0001f0 ad 6e dc 3d 5b d6 a8 3d b8 a3 8b bd 74 40 94 3d
       0.10763297 0.0824401 -0.06818336 0.07238856
