nn/checkpoints/main_material_different_2023_04_23-10_48_37/2/model_0.pt (torch, 451231 bytes, 98 tensors)

weight f4 [8, 5, 3]
000000 83 1b 03 bc e8 a2 9e 3d 32 72 a6 bd e8 99 0e bd
       -0.008002165 0.07745916 -0.0812725 -0.034814745
000010 13 9f 4c be f7 30 2b be 9e 4b 33 3e b9 96 34 3e
       -0.19982557 -0.16717897 0.17509314 0.17635621
000020 7c a6 84 3e 3f 80 8d be 81 72 8b bd 2d 44 05 be
       0.25908267 -0.27636907 -0.06808949 -0.13014288
000030 22 34 25 be 2d 61 e9 3d 21 60 48 3d ba 2e 77 3c
       -0.16133168 0.11395488 0.0489198 0.015086824
000040 29 6d e6 3d 7b d4 1c 3c 2a c9 da 3c 0b 11 90 3d
       0.112512894 0.009572144 0.02670725 0.07034501
000050 a4 f1 72 be a2 5f 3e 3e 81 8a 3c be 75 ca 17 be
       -0.23724991 0.18591169 -0.1841221 -0.14823325
000060 a1 38 3c 3e 3f e5 50 be ff 84 18 be a6 b7 19 3d
       0.18380977 -0.2039995 -0.14894484 0.037528656
000070 ca c6 e3 3b f7 7a 52 3e 5a 89 ba 3c 61 eb 93 bd
       0.0069511877 0.2055472 0.022770572 -0.07222629
000080 04 21 75 3d d2 20 d3 bc c5 c8 04 be 44 c1 37 3e
       0.05984594 -0.025772486 -0.12967212 0.17944819
000090 d6 fe 59 3e d7 48 0c 3d 66 0d 31 3e ab b3 28 be
       0.21288618 0.034249153 0.17290267 -0.16474788
0000a0 36 19 e5 3d 9a ef 59 3e 5b 68 49 3e 7f 38 65 3e
       0.11186449 0.21282807 0.19668715 0.22384833
0000b0 3e 3b a2 3d a4 68 c0 bd 8c a8 18 be 42 c3 80 be
       0.07921456 -0.093949586 -0.14908046 -0.2514897
0000c0 dc 45 76 3e e3 42 7c bc 19 5b be bc fc 6b f9 bd
       0.24050087 -0.015396806 -0.023236798 -0.121787995
0000d0 e1 24 67 bb 97 24 ff bd fc 5f 2b be 63 e7 d1 bd
       -0.0035269784 -0.12458151 -0.16735834 -0.10249212
0000e0 2f bb 78 be 2a e0 4b bd a3 6d 4a be 97 c0 4b 3d
       -0.24290155 -0.049774326 -0.19768386 0.049744215
0000f0 9a b1 1d 3e 6b 4a 26 be 2a 8e 80 be 8b c9 71 3d
       0.15399781 -0.16239326 -0.25108463 0.059030097
000100 9b 6d 76 3e 95 86 a9 3d 32 9b ed bd 2b 7f bb bd
       0.24065249 0.082776226 -0.11601867 -0.09155115
000110 9e 4b 94 bc 85 e2 32 3d 0b 49 81 bc b9 e1 20 be
       -0.018102463 0.043673057 -0.0157819 -0.15711106
000120 8b ac 69 3e f4 de d2 bd 04 fd 73 3e 5e 93 6d bd
       0.22819726 -0.10296431 0.23826987 -0.05800187
000130 b2 e7 89 3e 8e 5f 62 be 0c d8 82 bd fb c3 99 bc
       0.26934582 -0.22106764 -0.06388864 -0.018770209
000140 ea 76 5d 3e de 2b 4f 3e ec 32 ef bb bf 1c 18 be
       0.21627393 0.20231578 -0.0072997715 -0.14854716
000150 99 9e 46 bd e6 7c 04 be 63 4f 4e 3e a4 4f 85 bd
       -0.048491094 -0.1293827 0.20147471 -0.06509331
000160 27 00 15 be 87 e3 2d 3e cb 88 c9 3c 05 13 84 3e
       -0.1455084 0.16981326 0.02460136 0.2579576
000170 8d db 56 bd c0 68 75 3c a1 63 2b be e7 87 45 3e
       -0.052455474 0.014978588 -0.16737224 0.19290124
000180 81 17 19 be 32 c6 18 be 36 65 3b be 72 48 62 be
       -0.14950372 -0.14919356 -0.18300328 -0.22097948
000190 a3 e6 30 3c bd 93 75 be cc a8 f0 3b 59 f0 46 be
       0.010797176 -0.23982139 0.007344341 -0.19427623
0001a0 51 b8 c5 3d 42 7a 36 be 13 70 58 3e d9 f7 53 be
       0.09654296 -0.17820075 0.21136503 -0.20700015
0001b0 18 62 2e 3e 31 54 ac 3c 42 0e 07 3e 88 49 20 be
       0.17029607 0.02103624 0.13189033 -0.1565305
0001c0 05 57 13 3e ec 68 82 3d cd 9a d3 3d 8b 64 52 be
       0.14388664 0.063676685 0.1033226 -0.20546167
0001d0 f6 b5 48 be 10 33 18 be 39 70 77 3e be ff 1a be
       -0.19600663 -0.14863229 0.24163903 -0.1513662

bias f4 [8]
000000 88 39 1f bd 51 b6 b8 3d 7f e0 ea bd 38 ff 0a 3e
       -0.038873225 0.09019149 -0.114686005 0.1357392
000010 83 5c 4f 3e 04 c5 dc bc 08 4f e9 3d 4d d4 4d 3e
       0.20250134 -0.026949413 0.11392027 0.20100518

weight f4 [8]
000000 2e 92 72 3f 13 74 7b 3f af 4d 80 3f 1f ef 82 3f
       0.947543 0.9822399 1.0023707 1.0229224
000010 68 42 82 3f e3 34 80 3f 8c 1f 7a 3f 87 8b 83 3f
       1.0176516 1.001614 0.97704387 1.0276955

bias f4 [8]
000000 88 c2 6e bd 78 f8 0c bc a5 a9 b2 bc 20 46 29 3d
       -0.05829099 -0.008604161 -0.021809408 0.041326642
000010 49 c3 37 3c 8b 0d a2 3b e6 ed 14 bc b4 c7 88 3c
       0.011215993 0.004945462 -0.0090899225 0.016696788

running_mean f4 [8]
000000 9c 48 24 be 69 9e 6c 3d 69 23 bc 3e dc 3b d4 be
       -0.16043323 0.05776826 0.36745766 -0.4145192
000010 4a 1d 82 3e 45 2c 1b 3d 5d 8c 60 be 96 6c 07 3e
       0.2541297 0.037884016 -0.21928544 0.13225016

running_var f4 [8]
000000 5a 7c be 3d b5 d8 f0 3d fe 48 3f 3f 3e 85 66 3f
       0.09301062 0.117600836 0.7472075 0.9004706
000010 8e bd 85 3d c7 2c 99 3d 89 b9 b7 3e fe 5e ea 3d
       0.06530295 0.07479244 0.3588374 0.114438996

weight f4 [8, 8, 3]
000000 b6 57 61 bc c4 3a 03 3d 7f 1a 82 3d 50 86 31 3e
       -0.013753822 0.032038465 0.0635271 0.17336392
000010 75 90 01 3e 0c f7 e1 bd 1c ae 0e be 34 2f 1b be
       0.12652762 -0.110334486 -0.13933605 -0.15154725
000020 ea cd f6 bd 88 8f 0e be 7b d5 52 be c6 d5 a5 3b
       -0.12050994 -0.1392194 -0.20589249 0.005060884
000030 07 d6 5f bd 3c 05 ef bc 2f cd 68 3d cf 9e f4 3d
       -0.05464747 -0.0291773 0.056836303 0.11944353
000040 ac 75 6e 3d 1e cf 3e be 07 e3 25 3e 34 75 f5 3c
       0.05821769 -0.18633696 0.16199885 0.029963113
000050 ad 4a 85 3d f6 52 01 be ba a6 02 be 0f c1 08 3e
       0.06508384 -0.12629303 -0.12758914 0.13354896
000060 df 7f 1e be 8a 98 85 bb dc 4d 0c 3e db 16 d1 3d
       -0.15478466 -0.004077022 0.13701576 0.102094375
000070 68 6a 93 3d d4 9a c4 3d a5 f1 16 bd 82 81 f6 bd
       0.0719803 0.095998436 -0.036851544 -0.120364204
000080 3f 8d 30 3e b9 7a 32 be 65 f0 f9 bc 66 7c 2f bd
       0.17241381 -0.17429627 -0.030510137 -0.042843245
000090 f3 b2 e6 3d da 24 26 3e 25 d8 22 bd c5 bc 53 3e
       0.112646006 0.16224995 -0.039756913 0.20677479
0000a0 0c 28 04 3d e8 48 1b 3e 7e 0d d6 bd e1 31 88 bd
       0.032264754 0.1516453 -0.10451792 -0.06650139
0000b0 c6 7e 92 3d f2 71 ab bd c2 b6 04 3e bc 32 fb 3d
       0.07153086 -0.08371343 0.12960342 0.12265536
0000c0 e8 aa bf 3a 51 e8 da bd 45 8b 63 3d 15 75 26 3e
       0.0014623078 -0.10688842 0.05555274 0.16255601
0000d0 7f 5d 06 3e 49 bb a0 bd e2 8f 3e 3e 5f 8c e5 bd
       0.13121603 -0.07848222 0.18609574 -0.11208414
0000e0 6a 50 25 3d ae bc b4 3d cb 6b e3 3d 44 6c 01 be
       0.040359892 0.0882505 0.11104544 -0.12638956
0000f0 b7 9a 3a 3d 06 9a 23 3e 29 25 5a 3e 66 9c 83 bd
       0.045557704 0.15976724 0.21303238 -0.06426315
000100 3c a3 26 3e 88 41 98 bd ce 3d dc 3d f3 59 c1 3d
       0.16273206 -0.07434374 0.10753976 0.094409846
000110 f6 03 ad bd 7d 04 0b 3d 53 1e 86 3d 65 c5 84 bd
       -0.08448021 0.033939827 0.06548753 -0.064829625
000120 69 b0 04 3e 3f a0 c3 bb 69 e8 1d 3e 7f 5d 1f be
       0.1295792 -0.0059700306 0.15420689 -0.1556301
000130 75 58 35 bd 9a 47 2e 3e 07 ed e8 bc dd 93 00 bd
       -0.044273812 0.17019501 -0.028433336 -0.031391013
000140 ac d6 0d be 7a af 79 bd 85 14 83 3d 4e 67 6b be
       -0.13851422 -0.060958363 0.06400398 -0.22988626
000150 c8 ed 56 3e c1 6c 57 bd ec c1 45 3e b3 57 99 3d
       0.20989144 -0.05259395 0.19312257 0.074874304
000160 69 d2 c7 3d cb ee 46 bd ba 74 a3 3d 33 b7 19 be
       0.097569294 -0.048567574 0.07981248 -0.15011291
000170 65 0c 0d bd e1 de 1e bd f0 9a 92 3c 15 2c 89 3d
       -0.03443565 -0.038786773 0.017896146 0.06697861
000180 d7 8e d2 3d bc c4 9c 3d da 6a 0f bd e3 94 26 3e
       0.10281151 0.076547116 -0.03501401 0.16267733
000190 8c 70 ef 3d 72 b1 7b 3d b4 fc 22 bd 21 fc 2c 3d
       0.116913885 0.061448522 -0.039791778 0.042232636
0001a0 49 eb 45 3d 2d 6a 02 bc 6b db be 3d d8 ca a5 3d
       0.04832009 -0.007959885 0.093191944 0.0809533
0001b0 1c 1e 51 bd c4 2d eb bc f9 b4 bb 3d 18 3e a3 bd
       -0.051054105 -0.028708346 0.09165377 -0.07970828
0001c0 47 8e 04 bd a3 27 f3 bc 02 92 0c be 75 8c 62 3d
       -0.03236225 -0.029681986 -0.13727573 0.05530973
0001d0 7a 49 56 be c3 11 16 3d 4c 08 f8 3d 1d a9 df 3b
       -0.20926467 0.036638033 0.121109575 0.00682558
0001e0 c6 5a 0c 3e 86 84 3b 3d ed 3e 2a 3e 29 5f dd 3d
       0.13706502 0.04578068 0.16625567 0.10809166
0001f0 1c ba 98 3d bc 15 eb 3d 89 eb 0b be 67 55 0b bd
       0.074573725 0.11478755 -0.13664068 -0.034016993
000200 fd a3 79 3c fa 4b 03 3e f0 0c 0e bd 86 d4 a6 3c
       0.015236852 0.12821952 -0.034680307 0.020365011
000210 81 cc ce bd 81 32 2c 3e 1e 77 e6 3d 95 ae 54 3e
       -0.100976 0.1681614 0.112531886 0.20769723
000220 ae 19 42 be b9 f7 77 bc 10 dc 2f be b5 58 c3 3d
       -0.18955109 -0.015134745 -0.17173791 0.09538404
000230 71 87 fe 3c 92 15 aa bc cf 43 83 3d 12 52 ad bd
       0.031070443 -0.020762239 0.06409418 -0.08462919
000240 03 51 ae bc 2b 03 e9 3d e8 b8 8e bc cc 34 04 3e
       -0.021278864 0.11377557 -0.017422155 0.12910765
000250 e9 38 3e 3e 85 6d 1c bd 14 76 9b bd 8b 6b 4b be
       0.18576397 -0.038190383 -0.07590881 -0.19865243
000260 9f b9 54 bd 6e 40 01 3e 67 32 6e be b8 6c 3f be
       -0.051934835 0.12622234 -0.23261414 -0.18693817
000270 0d 97 c4 3d 97 9c 3c 3e 86 23 b4 bd 24 a6 81 3d
       0.09599123 0.1841911 -0.08795838 0.06330517
000280 d2 4a 0e be 60 db 54 be 19 13 c4 bd 75 e6 bf 3c
       -0.13895729 -0.2078681 -0.09573955 0.02342532
000290 f0 3e 47 3d 6c 81 6b bd 03 93 05 3e fa 64 57 3e
       0.048644006 -0.057496473 0.13044362 0.21034613
0002a0 5e ad 8b 3d b1 e2 5a bd 80 ea b5 bd 18 b7 04 be
       0.068201765 -0.053438846 -0.08882618 -0.1296047
0002b0 43 cb 36 3e 9f a6 00 3e 1f e2 21 be 4d 21 0b 3e
       0.17850976 0.12563561 -0.15808915 0.13586922
0002c0 2b 71 1d 3e 36 76 9c bd ce 77 59 3d dc 7b 2e be
       0.15375201 -0.076397344 0.05309277 -0.17039436
0002d0 60 da 1d 3e 3e cb 0d 3c 42 86 a9 bd b2 69 38 be
       0.15415335 0.008654414 -0.08277561 -0.1800907
0002e0 92 73 0e 3e d0 b9 99 bd be 44 87 3d 57 e0 da bd
       0.13911274 -0.07506144 0.066049084 -0.10687321
0002f0 a5 26 37 3e 1d ba 81 3d 6f 6e 34 be 44 c8 80 bd
       0.17885835 0.063343264 -0.17620252 -0.06288198

bias f4 [8]
000000 c2 01 1c 3e 4a 63 13 3e 9f 86 eb 3c d4 dd 0a 3e
       0.15235046 0.14393345 0.028750716 0.13561183
000010 a5 f4 f5 3c 63 d9 03 3e bf ac 53 ba 11 32 53 3e
       0.030023882 0.12875895 -0.00080747524 0.20624568

weight f4 [8]
000000 91 0d 7f 3f 72 6a 82 3f 85 f3 7d 3f eb 10 83 3f
       0.99630076 1.0188735 0.99199706 1.0239538
000010 f5 f6 7c 3f 42 b4 80 3f c4 78 7b 3f fe 5d 7e 3f
       0.98814327 1.005501 0.9823115 0.9936217

bias f4 [8]
000000 cc e9 3c 3b 4c e5 1a 3c c6 a0 6a bd c9 4a 3a 3d
       0.0028825877 0.009454083 -0.05728223 0.045481477
000010 53 fc 59 b9 bc 1a 1d bb 05 ff 99 3c 05 d6 2a bc
       -0.00020788731 -0.0023972234 0.01879836 -0.010427003

running_mean f4 [8]
000000 42 c0 8b 3b 47 06 9b 3e 7c 10 99 3e 9b 91 22 3e
       0.0042648623 0.30278227 0.2989539 0.15875857
000010 ce 67 0e 3e 8a 25 96 3e 77 a2 a8 bd 51 6e 3d 3e
       0.13906786 0.29325515 -0.08234113 0.18499114

running_var f4 [8]
000000 5b 9e 1d 3e ad fe 85 3e 0f 1f 25 3e e4 dc dc 3d
       0.15392439 0.26170865 0.16125129 0.10784319
000010 44 04 b9 3c 02 bb 9a 3d 9c 2f eb 3d fa 10 ee 3d
       0.022585042 0.075552 0.1148369 0.11624332

weight f4 [8, 8, 3]
000000 32 ca 66 bd 65 ef 0e bd 8b a0 75 3d d8 29 78 3d
       -0.056345172 -0.034896273 0.05996756 0.06058678
000010 ee 39 d8 3d af 55 78 3c 83 ac da bd 21 31 06 3e
       0.10557924 0.015157147 -0.10677435 0.13104679
000020 39 bf 42 3d 41 73 a1 3c 82 29 8e 3d 6a 20 76 bd
       0.047545645 0.019708278 0.06941511 -0.060089506
000030 47 d8 6c bd 61 17 92 bd 34 6f 4a 3b 7e ac 03 be
       -0.057823446 -0.071333654 0.0030889036 -0.1285877
000040 72 c3 bb bd 53 b4 93 bd db 79 fb 3c a1 29 38 bd
       -0.091681376 -0.072121285 0.030697754 -0.044961575
000050 e2 6c d6 bd e7 25 fb 3d 01 ce b6 bd 82 0f 9a bd
       -0.104699865 0.12263089 -0.08926011 -0.07522489
000060 9d 6f 87 bd 9f 9b 1e 3d bb f8 01 be 1a e4 86 bd
       -0.066130854 0.03872263 -0.1269254 -0.06586476
000070 78 39 70 3d 5c 67 19 be 7f 12 4b be 62 a7 2a bc
       0.058648556 -0.14980835 -0.19831274 -0.010415884
000080 7c ff a5 bd dd 77 d4 bd 0b c0 fe 3d f3 0e 26 be
       -0.081053704 -0.103744246 0.12438973 -0.1621664
000090 fc bb a4 bd d2 8a 55 3e c4 55 44 3e a1 4a b8 bd
       -0.08043668 0.20853737 0.19173342 -0.08998609
0000a0 3f 3b 63 bb 34 ed 11 3e 42 1e 28 be a0 c0 2c 3e
       -0.0034672765 0.14250642 -0.16417792 0.16870356
0000b0 8c e6 21 bd ec 24 38 3e 3c 5b cd bd 56 d7 bb bd
       -0.039526507 0.17982835 -0.10027167 -0.091719314
0000c0 da 7d 01 be 54 3c 1d be c7 e2 01 3e 65 f4 94 bd
       -0.12645665 -0.15355045 0.12684165 -0.07273177
0000d0 7f ba 2e be 6d 8e 0f 3e a9 53 2f bd a7 25 ae 3d
       -0.1706333 0.14019175 -0.042804394 0.08503275
0000e0 29 e6 31 be 93 2b 47 3e d8 ef 71 bd a6 4d 04 be
       -0.17372955 0.19450216 -0.059066623 -0.12920246
0000f0 9e 65 78 3c 1f f3 54 bc f9 b2 a8 bc 29 ab 88 bd
       0.015160946 -0.012997418 -0.020593153 -0.06673271
000100 d8 97 31 3d d9 f0 77 3d 9e c9 e8 bd 03 e6 b1 3d
       0.0433577 0.060532425 -0.113665804 0.086864494
000110 c3 12 e8 bd d4 8a a4 bc e6 10 e3 3c 21 95 f9 bd
       -0.113317035 -0.02008573 0.027718019 -0.12186647
000120 ca b8 cf 3d c1 b2 42 3e 67 8a a6 bd 94 e0 0f bd
       0.101426676 0.19013502 -0.08131867 -0.035126284
000130 d5 60 56 3e 81 d5 b0 bc 8c 8e bc bd 63 12 fb bc
       0.20935376 -0.021586182 -0.09206876 -0.030648416
000140 4a 8e 21 3d d6 c0 53 be ca cd 88 b9 f1 bf 4a 3e
       0.039442338 -0.2067903 -0.00026093266 0.19799782
000150 98 63 99 bc 85 5c a5 3d 37 e6 20 be 19 ef 3c 3d
       -0.018724248 0.08074287 -0.1571282 0.04612646
000160 2d 6c 61 3d 5a c2 b3 bd 62 f3 f9 3d 38 55 45 be
       0.055034805 -0.08777304 0.12204625 -0.1927079
000170 7d f8 12 be 56 a1 b4 3c 27 3e ef bd e1 aa b0 bc
       -0.14352603 0.022049587 -0.116817765 -0.021565856
000180 80 0c b8 bc 48 04 6b be e3 7e ef bd 98 1d 08 be
       -0.022466898 -0.22950852 -0.116941236 -0.13292539
000190 f0 e0 43 be 01 55 a8 bd 5d d4 37 be 69 c4 19 be
       -0.19128776 -0.08219338 -0.17952104 -0.15016331
0001a0 20 da e0 bd e3 28 48 3d 42 eb 12 3e 13 fb 1e be
       -0.10979104 0.048867118 0.14347556 -0.15525465
0001b0 6c 40 ed 3d 31 ae 27 3e 85 7c b6 bc 10 f9 dd bd
       0.11584553 0.16375042 -0.022276172 -0.108385205
0001c0 b7 40 14 3e 28 90 63 3d b1 76 30 3e ef 36 44 3d
       0.14477812 0.0555574 0.17232777 0.04790395
0001d0 7b 88 e1 3d 6e c0 2b be 80 4d e0 3d 59 49 26 3e
       0.1101236 -0.16772625 0.10952282 0.16238917
0001e0 88 44 c3 3d 70 4f 07 3d 9d 9b fc bc 5c a1 52 bd
       0.09534556 0.033034742 -0.030835921 -0.051423416
0001f0 a0 bb 47 3e 03 4f 3b 3e 01 3a 25 be c0 75 48 bd
       0.19505167 0.1829186 -0.16135408 -0.04894042
000200 9d cf 84 3d a6 fb 75 bd 9e 0a 12 be b7 7e 06 bc
       0.064849116 -0.060054444 -0.14261863 -0.008208922
000210 7c d8 2f 3e 79 21 a4 3d 99 40 2e be 41 e0 95 bc
       0.17172426 0.08014197 -0.1701683 -0.01829541
000220 e4 13 1c 3e f9 e4 85 3d fa b2 ed 3d 93 32 cc 3d
       0.15241963 0.06537814 0.11606403 0.09970584
000230 33 02 03 3e 5b 42 9e 3d 78 96 37 3d 5d 7d f1 3c
       0.12793808 0.077275 0.044821233 0.029478723
000240 f8 77 07 3e 87 5e 96 bc 44 60 0d be 23 e7 e5 bd
       0.13229358 -0.018355621 -0.13806254 -0.112257265
000250 7e 54 c7 3d df 51 3f bd 3e 0b 26 be b2 3b 0a 3e
       0.097329125 -0.046708938 -0.16215226 0.13499334
000260 6e ca 05 bd c1 43 a2 bc 06 be a1 3d d4 e8 9f bd
       -0.032663755 -0.019807698 0.07897572 -0.0780808
000270 48 ec e4 bb 19 73 9c bd 53 ed 99 3d 64 eb d6 bd
       -0.0069861747 -0.07639141 0.07515969 -0.10494116
000280 78 fa d7 3c 52 0e 46 be 33 6b 05 3e 49 8a fa 3c
       0.02636455 -0.193414 0.13029175 0.030583518
000290 bf c8 95 bd 10 db 3f bd d5 3e 01 bd d9 d3 d5 3d
       -0.0731368 -0.046839774 -0.031554062 0.10440797
0002a0 ae 55 f9 bd f3 cc 9f 3d 56 91 a2 bd ab a7 15 bd
       -0.12174545 0.07802763 -0.07937877 -0.036536854
0002b0 a1 b9 39 3d 49 d1 1a 3d 6c 74 d8 3d 21 09 f1 3d
       0.045343045 0.037797246 0.10569081 0.11769319
0002c0 09 8f 3e 3e 3d d8 c5 3d 43 3c 38 be 44 28 3a 3e
       0.18609251 0.09660385 -0.17991738 0.18179423
0002d0 3e 59 03 3e f0 19 f7 3d 96 f3 a9 3d b2 1c ce bd
       0.12827012 0.12065494 0.082984135 -0.10064067
0002e0 79 56 18 3d 38 81 0f 3e cd 85 11 3e f3 b9 27 be
       0.03719184 0.14014137 0.14211197 -0.16379528
0002f0 47 87 1f 3e bf c9 ca 3d 60 1b c8 bd 7b 83 8f bd
       0.15578948 0.09901761 -0.09770846 -0.070075

bias f4 [8]
000000 1d e3 14 3e d6 dd 8f 3d 63 2c 0c 3e 94 48 85 3d
       0.14539762 0.07024734 0.13688807 0.06507984
000010 23 03 c7 bd f7 a9 36 bc b1 2f 09 bc 66 b0 80 bd
       -0.09717395 -0.011148921 -0.008373187 -0.06283645

weight f4 [8]
000000 9a 32 81 3f 55 b7 81 3f 50 70 78 3f ef 9b 81 3f
       1.0093567 1.0134073 0.97046375 1.0125712
000010 74 ef 7f 3f ab b3 7c 3f 51 4e 80 3f d6 d0 7f 3f
       0.9997475 0.9871165 1.00239 0.99928033

bias f4 [8]
000000 bc 4f e1 3b 4d 5e c8 3c bc 47 97 3b 0d 6e e0 3c
       0.00687596 0.024459029 0.0046167057 0.027396226
000010 03 50 ae 3c 92 f2 32 bb d4 5f 24 bb 55 30 04 3c
       0.021278387 -0.0027305228 -0.0025081532 0.008068164

running_mean f4 [8]
000000 6f 1b a3 3d 12 4d 60 bd d3 46 05 bd a9 2b 49 3d
       0.07964217 -0.054761 -0.032538246 0.049113903
000010 a0 c1 64 be 3e af 62 3e 00 74 b5 bd 3e e3 3a 3e
       -0.22339487 0.22137162 -0.08860016 0.18250749

running_var f4 [8]
000000 a4 5a 2c 3d 8e 32 63 3e 3a 1d 1b 3e f7 cb af 3d
       0.04207863 0.22187254 0.15147868 0.08583825
000010 f0 61 79 3e 85 75 f0 3d be 22 d9 3d e2 f3 d6 3e
       0.24353766 0.11741165 0.1060233 0.41982943

weight f4 [8, 8, 3]
000000 23 eb db bd 9d 90 ed 3d 50 c4 a3 bc 14 15 02 3e
       -0.10738208 0.115998484 -0.01999107 0.12703353
000010 c7 ff 12 3e fb 01 f5 bd bd 0f 0b 3e 06 aa dc bd
       0.14355384 -0.11963268 0.13580222 -0.10774617
000020 16 cb c0 bc 28 41 c1 3d 5c 1d 10 3e c3 f2 cd bd
       -0.023534339 0.09436256 0.140737 -0.10056069
000030 a4 cc c3 bb 27 74 d2 bd df f7 e0 3d 10 34 9a bd
       -0.005975323 -0.102760606 0.10984778 -0.075294614
000040 73 2b d6 bd d4 59 d9 3d 5e fc c2 3c 95 22 ef bd
       -0.10457506 0.106128365 0.023801979 -0.11676518
000050 33 0b 0a 3e e5 13 6c bd ca 26 ac 3d 68 0e a8 bd
       0.13480835 -0.05763616 0.08405836 -0.08205873
000060 c4 9a 89 3d 12 dc 26 be 92 9e 2d 3e b1 81 c2 3d
       0.06718972 -0.16294888 0.16955021 0.09497393
000070 ff 1a e8 bd c8 34 1a be 37 4b 21 be ca 1a 0c be
       -0.11333274 -0.15059197 -0.15751348 -0.13682094
000080 6e a3 bc bd bd 78 5c 3b ea 81 41 3e f8 cf 7b bb
       -0.09210859 0.0033641302 0.18897215 -0.003842352
000090 c0 cf 14 bd ce d4 be bd bc b3 24 be da 49 4c 3e
       -0.03633094 -0.09317933 -0.16084188 0.19950047
0000a0 3b f1 96 3c a7 54 d0 3c d4 42 02 be d8 2a 48 3e
       0.018425575 0.02543099 -0.12720805 0.19547594
0000b0 5d 4b 16 3e 85 ee 4e bd cf 95 e8 3c 51 b0 01 be
       0.14677186 -0.05052044 0.028391747 -0.12664916
0000c0 26 4d 25 3e 64 ff cb bd 46 ae fc 3d 6c 41 30 3e
       0.16142711 -0.09960821 0.123379275 0.17212456
0000d0 76 9a 00 be 5a 3b de bd f5 c6 90 3b d6 da d6 3d
       -0.12558922 -0.10851164 0.004418249 0.104909584
0000e0 39 e6 47 3d 5e eb 02 3e 6f 20 a5 bd 23 18 39 3e
       0.04880354 0.12785098 -0.08062827 0.18075614
0000f0 37 83 6c bd bc 80 40 3e cd 8f 61 bd 33 e7 44 be
       -0.057742324 0.18799108 -0.05506878 -0.1922882
000100 6a 37 d6 3d 93 d6 bd 3d de ea 4f 3e 65 67 5a be
       0.10459788 0.092694424 0.20304438 -0.21328504
000110 bd 4b 2b 3e ce e1 23 be b7 3a 01 3e 60 3f 84 bd
       0.1672811 -0.16004106 0.12620054 -0.064574
000120 67 3a a4 bb 3a ea 3e 3e 0f 60 24 3e c6 bc 06 3e
       -0.005011845 0.18644038 0.16052268 0.13157949
000130 97 76 f9 ba 13 7e fe 3d 84 f7 29 be d4 a7 dc bd
       -0.0019032535 0.124263905 -0.16598326 -0.10774198
000140 02 93 cb 3d 55 5c f5 bc 7b 05 46 3e 29 b5 13 3d
       0.09940149 -0.029951254 0.19338028 0.03606144
000150 95 0c 53 3e 52 0c b6 bc 48 6d fe 3d 71 cc bd 3d
       0.20610268 -0.022222672 0.124231875 0.0926751
000160 de 68 2f 3e 0d 95 f9 bc 09 c2 6d 3d 23 1f ea bd
       0.17129847 -0.03046658 0.058046374 -0.1143172
000170 a0 9d 3a bd c6 e6 cd bd c6 01 b7 bd 00 ed 41 be
       -0.04556048 -0.10053782 -0.08935885 -0.18938065
000180 97 2d 4e 3e 4d 4a 25 3e bf c9 34 be e2 e1 07 be
       0.20134579 0.16141625 -0.17655085 -0.13269761
000190 96 f2 bf bd 4a 4f 20 be b8 03 25 be cc 17 f2 3d
       -0.093724415 -0.15655246 -0.161147 0.11820945
0001a0 7b 6c 03 bd 33 11 13 be 71 56 2a 3e ab de 2f 3e
       -0.032085877 -0.1436203 0.16634537 0.17174785
0001b0 54 e2 b7 3d 7c 52 b2 3d f5 e3 f9 bd f4 4d f9 bc
       0.089787155 0.08707139 -0.122016825 -0.030432679
0001c0 30 8c 1d be 5b 67 36 bc 6b 4e f5 3d 61 84 f8 3c
       -0.15385509 -0.01113304 0.11977848 0.03033656
0001d0 23 5d 49 be e2 20 20 be b8 ca 08 3e 89 83 c3 3d
       -0.19664435 -0.15637544 0.13358581 0.09546573
0001e0 74 67 4e 3a 9d 94 2e 3e 95 97 2e be bc 19 f1 3b
       0.0007873692 0.17048879 -0.17050011 0.007357804
0001f0 12 49 d5 3d a2 08 20 3e 02 94 b3 3c f2 9a bd 3d
       0.10414328 0.15628293 0.021921162 0.09258069
000200 c0 56 53 be f6 6a c7 bd 3a c3 f4 bd 0b 6e 93 bd
       -0.20638561 -0.09737198 -0.11951299 -0.071987234
000210 25 f6 46 be cf c5 0e be fc f1 b1 3c 3c 35 07 3b
       -0.19429834 -0.13942645 0.021721832 0.0020631095
000220 55 25 45 be 9e 20 16 3e 71 81 e5 bd 15 bb a5 bd
       -0.19252522 0.1466088 -0.112063296 -0.08092324
000230 4f 69 ed 3d e2 92 93 3c f7 3c 26 3c 76 f7 43 3e
       0.11592352 0.018014375 0.010146371 0.19137368
000240 6f ab 08 be 3f ed 97 bc 14 7a 15 3e 8a 3d 98 3c
       -0.13346647 -0.018545745 0.1459735 0.018584032
000250 2c 8b 79 3d 32 0b 0c be 2e a7 44 3d 2e 4d b2 3d
       0.06092374 -0.13676146 0.048010997 0.08706127
000260 16 e9 f1 3d 01 7d 1c 3e ec 27 f6 bc a5 eb f7 bd
       0.11812036 0.1528206 -0.030048333 -0.121054925
000270 91 df 4a bd 0f f0 08 3e 90 40 86 3d d2 dc bc 3c
       -0.049529616 0.13372825 0.06555283 0.023054514
000280 03 9b db 3d 61 5a bd bd 6f 9a b7 3b 86 8e 47 3e
       0.107229255 -0.09245754 0.0056031267 0.19487962
000290 07 86 98 bd 58 52 bc 3d 7b 8f 8e bd 59 cd 18 3e
       -0.07447439 0.09195393 -0.069609605 0.14922084
0002a0 9e 8a c3 3d 83 25 03 3e d3 b8 6d be ca cf 0d 3e
       0.095479235 0.12807278 -0.23215036 0.13848796
0002b0 43 57 27 3e 06 6e be bd e9 b5 b3 bc a4 0d 14 be
       0.16341881 -0.09298329 -0.021937327 -0.14458328
0002c0 8d f3 f3 bd f3 3f 12 3e 8a e8 44 3c c1 44 45 3c
       -0.11911688 0.14282207 0.012018332 0.012040318
0002d0 97 28 8a bd 2e b1 c1 3c f1 94 e8 3d d0 1a b6 3d
       -0.06746023 0.023644056 0.11356533 0.08891833
0002e0 3e b1 03 3d 1b d2 5f bd 65 dc 51 3d 37 cc 3d 3c
       0.032151453 -0.05464373 0.051235575 0.011584333
0002f0 2e 24 48 bc 7b 79 21 3e 69 7e 1c be 04 10 ee 3d
       -0.012215657 0.15768997 -0.15282597 0.116241485

bias f4 [8]
000000 7d 9b cb 3d cc 2e 48 3e ab a0 9f 3d 42 22 9c 3c
       0.099417664 0.19549102 0.07794317 0.019059304
000010 5f 8f 69 3c 87 51 4b be b2 bb 25 bd 9a 30 1a be
       0.014255374 -0.19855319 -0.040462203 -0.15057603

weight f4 [8]
000000 6b f1 7f 3f fc e8 82 3f f8 da 7f 3f 8c 71 81 3f
       0.9997775 1.0227351 0.99943495 1.0112777
000010 3d dd 7e 3f 3d 07 80 3f 64 66 7b 3f 6a bf 7d 3f
       0.9955633 1.0002209 0.9820311 0.991202

bias f4 [8]
000000 65 8b c1 3b 1f 19 11 3d ba 42 03 bb fe de f3 bb
       0.0059065097 0.035424348 -0.0020028786 -0.007442354
000010 29 0a 67 bc 0f 63 b7 3b 85 e7 0f 3c 98 1c a2 bc
       -0.014101543 0.0055965255 0.008783226 -0.019789025

running_mean f4 [8]
000000 41 83 1f 3e 8f 4a fc 3d 51 5a 7d 3e 78 13 4a 3e
       0.15577413 0.123189084 0.24741484 0.19733989
000010 2b 14 3d bd b7 87 90 be 35 ec 0c 3e 7f ca 33 bd
       -0.04616181 -0.28228542 0.13761981 -0.043894287

running_var f4 [8]
000000 4e 93 54 3d 96 bc af 3d 96 a1 09 3e 22 b7 44 3d
       0.051898293 0.08580892 0.13440546 0.04802621
000010 d8 02 ad 3d f5 70 d8 3d 03 c7 b3 3d 21 0d cc 3d
       0.08447808 0.1056842 0.08778193 0.09963442

weight f4 [8, 8, 3]
000000 b5 9e 0d 3e 61 21 49 be 37 0f ca 3d 4d 65 15 bc
       0.13830073 -0.1964164 0.09866183 -0.00911839
000010 62 65 2b be 8e d4 81 3d ad 9a 04 3d e9 05 b7 3d
       -0.16737893 0.0633937 0.032374073 0.08936674
000020 76 4f 65 3d 9d 0a 4f 3d fe 46 4c bd 7b cb 27 3c
       0.055983983 0.05054723 -0.04987239 0.010241385
000030 00 6d 62 3d aa 03 d4 bd 88 d4 18 3e f9 8d 83 bd
       0.05527973 -0.10352261 0.14924824 -0.064235635
000040 5c b9 f4 bd 51 f7 20 3d 68 94 13 3e 52 0e 32 3d
       -0.11949417 0.03929836 0.14412081 0.04347069
000050 8d 65 5c be 96 e0 08 3e 72 73 1d bd ba 09 ef bd
       -0.21523114 0.13366923 -0.038440175 -0.11671777
000060 5d 78 37 3e 94 14 62 3d e1 51 35 be 32 3b 03 be
       0.17917009 0.055195406 -0.17707016 -0.1281555
000070 c5 b9 ee bd 67 fa f9 3c 4f 9e b9 3d 67 62 c2 3d
       -0.116565265 0.030514909 0.09063398 0.09491425
000080 38 6b 18 ba 96 68 b3 3d a1 c6 93 3d e7 f8 02 bd
       -0.00058143167 0.087601826 0.0721562 -0.031975653
000090 73 6c 98 bc da 68 9f bd cf 5f f5 3d b8 a8 3f 3e
       -0.0186064 -0.07783671 0.11981165 0.18716705
0000a0 c9 8f eb 3d 94 c6 fb 3c 15 60 f1 bd e0 b6 cc bc
       0.11502034 0.030734338 -0.11785904 -0.024989545
0000b0 56 ed 5d be 22 99 ec bd 28 9a 00 3e f4 4f 5a be
       -0.21672568 -0.11552645 0.12558806 -0.21319562
0000c0 8b 88 3f be 3c 1a 05 be 49 e1 06 be c7 3a 53 bb
       -0.18704431 -0.12998289 -0.13171877 -0.003223108
0000d0 65 4e 84 be a6 07 ae bc 08 ec 25 be 1d c8 72 3c
       -0.2584106 -0.021243881 -0.1620332 0.014818219
0000e0 d3 96 1d 3d 83 e9 9e 3d 99 e0 c1 3d d1 d5 00 3e
       0.038473915 0.077593826 0.09466667 0.12581564
0000f0 55 15 b9 bd cc 92 0d bd f7 bf ee bd f8 84 5c bd
       -0.09037272 -0.034563825 -0.11657708 -0.053837746
000100 1a f2 f7 bd d1 11 f0 bd d1 0c e7 bd 5f c7 63 be
       -0.12106724 -0.11722148 -0.112817414 -0.22244023
000110 4b 2e 02 be 22 a4 19 be fe f2 fb bd 0e ce 25 3d
       -0.12712972 -0.15004018 -0.123022065 0.040479712
000120 4c ab 0d be 4a 80 a4 3d ab 64 ca bd c3 a8 e2 3d
       -0.13834876 0.08032282 -0.09882482 0.11067345
000130 26 7f be 3c ba 1f 31 be 5a a0 19 bd d3 68 08 3e
       0.023253988 -0.17297259 -0.03750644 0.13321237
000140 7e 84 f5 3c e0 b7 14 3e 4f 84 b7 bd c2 7c c6 bd
       0.029970404 0.14523268 -0.08960783 -0.096917644
000150 d2 97 2a 3e 62 43 94 bd 89 13 db bb a1 b3 3e bc
       0.16659477 -0.07239415 -0.0066856784 -0.011639507
000160 0f 07 07 3e 5c 2b a6 bd 09 60 8c bd 5e 7f f5 bd
       0.13186286 -0.08113739 -0.06854255 -0.11987184
000170 73 21 ac bd 57 b0 88 bc 48 3d 05 be 01 f1 09 3e
       -0.084048174 -0.016685648 -0.13011658 0.13470842
000180 27 a0 07 be 59 9f ab bd 15 1b b4 bd 00 d8 31 3e
       -0.13244687 -0.083800025 -0.08794228 0.17367554
000190 af e9 00 be 13 9f bd bd 83 07 f8 3d d9 db 19 3b
       -0.12589143 -0.092588566 0.12110808 0.0023476987
0001a0 f9 ef 77 3c 4a bb 57 be c1 4e 64 3e 96 e5 a3 3c
       0.0151328975 -0.21067539 0.22295667 0.020006936
0001b0 9d b7 3a 3e 73 3e bd bd f0 e6 e8 bd 82 e1 26 be
       0.18234105 -0.09240427 -0.11372173 -0.16296962
0001c0 e1 48 10 3d 75 a2 7b bc 72 d1 84 3d 0e 1f 23 3e
       0.035225753 -0.015358557 0.06485261 0.15929815
0001d0 82 9e 07 3d c5 a7 1c 3d a8 b1 e7 bd 7b 97 50 be
       0.03311015 0.038245935 -0.11313182 -0.20370285
0001e0 63 1d d0 3d 87 b1 3d be 68 33 64 bd be 68 20 3e
       0.10161855 -0.18524753 -0.055713087 0.15664956
0001f0 3b dc cc 3d fa 5a cd bd 77 75 95 bd 85 45 44 3e
       0.10002943 -0.10027118 -0.07297795 0.19167145
000200 69 03 7a bd b3 79 5a be 90 00 47 3c 84 07 30 be
       -0.06103841 -0.21335487 0.01214613 -0.17190367
000210 c7 64 8b bd 02 c5 25 3e b4 6e 2c 3e 85 08 46 be
       -0.06806331 0.16188434 0.16839105 -0.19339187
000220 68 bb 31 3e c3 5f 0a 3e 29 93 d3 3d b0 a4 01 be
       0.17356646 0.13513093 0.10330803 -0.1266048
000230 a7 df 33 be 67 eb c0 3c 96 ca b9 3d 14 01 14 3d
       -0.17565785 0.023549749 0.09071843 0.03613384
000240 6e b8 50 bc d6 cc 42 be d0 4e 44 3e d9 28 cb 3d
       -0.012739284 -0.19023451 0.1917069 0.099199004
000250 5d 8f a3 bd 7d e2 2f bd 6f 47 05 be f1 0f 2f be
       -0.07986329 -0.042940605 -0.13015531 -0.17095925
000260 3b a5 07 be 72 ed 06 bd 11 5d 30 3e d9 c3 9c bc
       -0.13246624 -0.03294129 0.17223002 -0.019136356
000270 1b 4d 3a be 8b 19 96 bc 8e e0 2b be 96 ab d8 bd
       -0.18193476 -0.018322727 -0.1678488 -0.105796024
000280 b5 bc ee bd 03 61 45 3e 44 32 2c be 50 88 1d be
       -0.11657087 0.19275288 -0.1681605 -0.1538403
000290 07 92 34 3e 24 90 ea 3d 41 6b 0f bd 6a ad c6 bd
       0.1763383 0.11453274 -0.035014395 -0.09701045
0002a0 a5 87 11 be 4c d5 43 be 83 94 92 3d 40 8d 07 be
       -0.142119 -0.19124335 0.071572326 -0.13237476
0002b0 83 f8 2d be 6b db 8d bd 3d 8f 83 3c ff bc 22 be
       -0.16989331 -0.06926616 0.016059512 -0.15892409
0002c0 f8 d9 61 bd 1f de 2f be ca a5 11 be d2 3b 3f be
       -0.05513951 -0.17174576 -0.142234 -0.18675163
0002d0 12 c5 53 be 40 54 3f 3e 02 4b 63 bd 4b 8c 4d be
       -0.20680645 0.18684483 -0.055491455 -0.20073049
0002e0 34 0b 92 bc f9 fb 1a be 70 67 fa 3d e8 c2 15 be
       -0.017827608 -0.15135182 0.122267604 -0.14625132
0002f0 c8 7e 04 be 20 ac 20 3d 48 23 9e 3d d9 33 25 3e
       -0.12938988 0.03922665 0.07721573 0.1613306

bias f4 [8]
000000 56 7f 4d be c3 30 be 3c 17 8a 05 be 68 ca 0f be
       -0.20068106 0.02321661 -0.13040958 -0.14042056
000010 42 34 29 be 34 f5 0a be a7 ea a3 3c 7f 52 67 ba
       -0.16523841 -0.135701 0.020009352 -0.00088242436

weight f4 [8]
000000 a9 d5 7c 3f 0d f6 7f 3f d4 c7 8a 3f a7 d6 7b 3f
       0.9876352 0.9998482 1.0842233 0.9837441
000010 c3 c7 7f 3f 85 22 78 3f 7f 00 80 3f ec 59 81 3f
       0.9991419 0.9692767 1.0000151 1.0105567

bias f4 [8]
000000 c3 3e 1c bd 0b 3f 98 3c e5 3d dd 3d 94 e0 59 bc
       -0.03814579 0.018584749 0.10802821 -0.0132981725
000010 ee 7a bc bc 37 6b 56 bc 2c 31 52 3d 1d a8 8a 3d
       -0.023007836 -0.013087085 0.051316425 0.06770346

running_mean f4 [8]
000000 59 d4 50 be 24 5f 0a bc ed 1d 1a bf 73 a7 67 be
       -0.20393504 -0.008445535 -0.60201913 -0.2262247
000010 9f 50 86 be f1 e8 0c be 38 b3 50 be ee b2 e8 be
       -0.26233384 -0.13760735 -0.20380867 -0.45449013

running_var f4 [8]
000000 ef 65 16 3e eb 0f 4d 3e 86 55 1a 3f e8 bd 18 3e
       0.14687322 0.20025603 0.6028675 0.14916193
000010 73 91 03 3e 96 b7 72 3e 4b d3 8f 3e 56 ea f5 3e
       0.12848453 0.23702845 0.2809089 0.48030347

weight f4 [8, 8, 3]
000000 ca 32 1c 3e e3 b1 a4 3d ec 25 ad bb 90 2e 1e bd
       0.1525375 0.08041742 -0.0052840617 -0.038618624
000010 84 a3 16 be 81 54 14 be d0 e5 dd bd 7c 40 3a be
       -0.14710814 -0.1448536 -0.10834849 -0.18188661
000020 20 5e e3 bd 20 ce e7 bd b0 e8 1a be b7 e9 a2 3d
       -0.11101937 -0.11318612 -0.15127826 0.07954734
000030 58 f4 f6 3d 63 35 25 be 42 51 86 bd 95 28 2f bd
       0.120583236 -0.16133647 -0.065584674 -0.04276331
000040 7e 92 05 3c ee 59 4a bd 4d 27 13 3e f3 66 be bc
       0.008152602 -0.04940217 0.14370461 -0.02324245
000050 4c f2 49 3c c8 80 a8 3d 3d 74 1e be fb 03 64 bc
       0.0123258345 0.08227688 -0.15474029 -0.013916965
000060 43 48 0c be 54 a3 d5 bd d6 bf 9a 3d 66 b9 0c be
       -0.1369944 -0.10431543 0.07556121 -0.13742599
000070 7b d1 fa 3d 5f a6 a1 3d 94 d8 df bd 60 01 4f be
       0.122469865 0.07893061 -0.10929981 -0.20215368
000080 b9 2c 05 be 85 d8 c8 3d c4 a1 37 3d bd f4 c4 3c
       -0.13005342 0.09806923 0.044832006 0.024042482
000090 c4 ac 27 3e c7 25 a5 3d 83 83 d0 bd 07 f0 e8 3d
       0.16374499 0.08063846 -0.10181334 0.113739066
0000a0 d5 7c 1b be ee 8c ac 3d 8e 55 b3 3d cd f6 0f be
       -0.15184338 0.08425318 0.08756553 -0.14058991
0000b0 65 69 cb bd d1 85 a9 bc 09 60 f6 3d ac cf da bd
       -0.09932212 -0.020693691 0.12030036 -0.106841415
0000c0 2a f5 eb bc be 8d 0b be a5 3f 13 3e f6 16 c7 3d
       -0.028803427 -0.13628289 0.14379747 0.09721176
0000d0 02 2b 09 3e 4c c8 f0 3b 4d 14 6f be 8b 65 0c be
       0.13395312 0.007348096 -0.23347588 -0.1371061
0000e0 7d a7 6d be a4 24 00 3e eb 15 86 3d fa 3b f8 bd
       -0.23208423 0.12513977 0.06547149 -0.121208146
0000f0 04 cc 32 3d 3b cd 18 3e 7b 52 34 3e 69 8d a2 bd
       0.043651596 0.14922039 0.17609589 -0.07937128
000100 54 95 1c bd e7 ca 13 be 1d c5 d7 bd 11 2d 54 be
       -0.038228348 -0.1443287 -0.10535643 -0.20720316
000110 f0 1f 04 3e e5 cc 12 3e 39 c4 80 be 3a 40 10 3e
       0.12902808 0.14335974 -0.25149706 0.14087
000120 d3 cd 1e bd 81 42 91 3d 13 5c 32 be 26 73 a4 bd
       -0.038770508 0.07092763 -0.17417936 -0.08029775
000130 cf e0 96 bd ce 94 22 3e 93 99 8f 3d 1d 06 46 be
       -0.073670976 0.15877077 0.07011714 -0.1933827
000140 41 9d 54 bd c8 e8 7e bd 6c cb a3 bd 88 5d 3e 3e
       -0.05190778 -0.062233716 -0.07997784 0.18590367
000150 5e 98 fc 3d e0 19 09 bd b4 c2 36 3d 46 8e f2 bd
       0.12333749 -0.033471942 0.044619277 -0.11843543
000160 14 d7 d7 bd 27 ff 2c 3e 0c de 46 be 62 89 ed bd
       -0.1053907 0.16894208 -0.19420642 -0.11598469
000170 e2 b3 1b 3e 28 31 d8 bd e2 27 86 be 1b f0 d7 3d
       0.15205339 -0.10556251 -0.26202303 0.10543843
000180 78 f2 23 3d 29 79 3f be af b7 a0 bd 0a d1 9e 3d
       0.040026158 -0.18698563 -0.07847535 0.07754715
000190 bc d6 59 3e 2d 15 4a 3c e0 33 35 be b2 30 6a be
       0.21273321 0.01233415 -0.1769557 -0.22870138
0001a0 a0 06 10 3d 87 20 3e 3e de 9a 97 39 85 fd 2a 3e
       0.035162568 0.18567096 0.0002891635 0.16698273
0001b0 a8 4b 11 bc 25 9f 1d be ee 25 2c 3e 8a ce ae 3d
       -0.0088681355 -0.1539274 0.16811344 0.08535488
0001c0 53 e5 bd bd cd 8f b0 ba ea b2 cf 3b 0b d6 4a 3d
       -0.09272256 -0.001347059 0.006338467 0.049520534
0001d0 32 48 85 3d 39 93 90 3d 14 f7 8d bc a9 7d 65 3d
       0.06507911 0.070593305 -0.01732973 0.056028042
0001e0 13 66 e2 3d 37 8e b5 3d aa cb 2a 3e 77 82 83 bc
       0.11054625 0.08865016 0.16679254 -0.016053421
0001f0 2e 62 4d 3e 0c e6 65 3d 13 7a e0 bd bc 95 cb 3d
       0.20056984 0.056127593 -0.10960784 0.09940669
000200 fe 0d 69 3d 9c 37 ef 3d fd bf c6 bc 30 cf 8c bc
       0.05689811 0.116805285 -0.024261469 -0.017188638
000210 b9 15 a7 3d 47 c4 bc bd a4 65 31 bd ff cf 39 3e
       0.0815844 -0.092171244 -0.043309823 0.1814575
000220 fd f7 f0 3d 54 2f 10 3e e3 7a 12 bc aa 09 03 3d
       0.1176605 0.14080554 -0.008940431 0.03199164
000230 d2 53 7c 3d 6c 6f 35 3c 97 9b d3 bd 70 8c a1 3d
       0.061603375 0.011073928 -0.10332411 0.078881145
000240 20 09 6b bd da 03 8d 3d d6 9b f8 3d d9 2b 53 be
       -0.05738175 0.068855 0.12139098 -0.20622195
000250 7e ca 3a 3e 09 28 e0 3d e9 ac da 3d d8 7d 07 bd
       0.18241307 0.10945136 0.10677511 -0.033079
000260 56 bd 00 3d 5c c1 2f bd f8 58 0d be 96 9c 0a 3e
       0.031430565 -0.04290901 -0.1380347 0.13536295
000270 8b 61 0e 3e 16 22 13 3d c4 e3 0b 3e 82 62 2f be
       0.13904397 0.03592118 0.13661104 -0.17127421
000280 13 0e b4 bd c2 10 f0 3d 45 22 39 be 2c 82 a9 bd
       -0.08791747 0.11721946 -0.18079479 -0.082767814
000290 89 a5 9a bc f6 4c 82 bd e6 ab 86 be 37 f1 29 be
       -0.018877761 -0.063623354 -0.26303023 -0.16595922
0002a0 6d 87 1a bd 7f ca 31 3e b3 38 39 3d e4 a9 0b 3e
       -0.03772681 0.17362402 0.04522009 0.13639027
0002b0 cc 98 2c 3e be ba 27 be 9f 83 7a bd b6 f6 ba bd
       0.16855162 -0.1637983 -0.06116068 -0.091290876
0002c0 4f ff 9f bb e3 36 87 3d 51 43 cb 3c 4e 0d 6d bd
       -0.00488273 0.06602266 0.024812372 -0.057874016
0002d0 d0 ce 0f be 4c 8b 22 bd e9 3c 18 be 9e a6 5b 3d
       -0.14043736 -0.039683625 -0.14866985 0.053625695
0002e0 8e bd 20 be ed 73 36 bd c8 7a e3 3d eb 55 40 be
       -0.1569731 -0.04454415 0.11107403 -0.18782775
0002f0 5d f0 88 3d 97 43 78 be d3 dd ac bd db 66 30 be
       0.06686471 -0.24244533 -0.08440747 -0.17226736

bias f4 [8]
000000 cb be 91 3c 53 cb 4f bc b0 ef fe bd 11 17 9c 3d
       0.017791172 -0.012682754 -0.124480605 0.07621587
000010 f3 4b b7 3c fe 52 ca 3c 93 a5 37 bd ee c8 94 bd
       0.022375083 0.024697777 -0.04483564 -0.07264887

weight f4 [8]
000000 fc ee 72 3f 86 52 7f 3f 3f 5a 80 3f b0 6a 80 3f
       0.9489591 0.99735296 1.0027541 1.0032558
000010 bc ad 75 3f af 96 7b 3f 5a 76 80 3f ad 19 82 3f
       0.9596822 0.982768 1.0036118 1.0164086

bias f4 [8]
000000 b6 68 6a bd 71 56 1f 3b c0 6b aa 3c f9 1d 09 bd
       -0.057228766 0.0024312998 0.020803332 -0.03347585
000010 5b b1 00 bd 54 26 93 3d 8e 5b a3 3c a0 68 a2 bc
       -0.03141914 0.07185045 0.019941118 -0.01982528

running_mean f4 [8]
000000 64 2e 7b be 1d 81 26 be 03 d6 97 be 67 79 0d be
       -0.24529415 -0.1626019 -0.29655465 -0.13815843
000010 0c d4 9f 3d 63 be aa 3e f6 46 41 be a5 f5 b4 be
       0.078041166 0.3334838 -0.18874726 -0.35343662

running_var f4 [8]
000000 75 67 1e 3d e7 d2 bc 3d 68 e1 d6 3d 7b 1e 4e 3d
       0.038672883 0.09219914 0.104922116 0.050322037
000010 9d a0 99 3d 52 bb fa 3d b8 00 cd 3d 4d 28 8c 3d
       0.07501338 0.1224276 0.10009903 0.06843624

weight f4 [128, 25]
000000 d3 9f f7 3d 36 87 88 3c 9c 4b c7 3d a7 f0 06 be
       0.12091031 0.016666036 0.09731218 -0.13177739
000010 52 f0 26 3e 79 c9 07 be 96 be b5 3d 33 88 67 3e
       0.16302612 -0.1326045 0.08874242 0.2261055
000020 55 ac 42 3e ed 25 a6 3d 6a aa 25 be 53 35 4c bd
       0.19011052 0.081127025 -0.16178289 -0.04985554
000030 37 ec 07 3e 03 6c 0b 3c d3 20 d7 bc 43 e0 1d be
       0.13273703 0.008509639 -0.026260769 -0.1541758
000040 1b f7 2a 3c 60 4f 22 be a9 53 d7 bd 67 74 da 3d
       0.010434891 -0.15850592 -0.10514004 0.10666733
000050 fb 63 c8 3d 19 dd 3e 3e 61 1f 17 3e 16 af db bd
       0.09784695 0.1863903 0.14758064 -0.10726754
000060 6d 2b 59 3e 1d 27 c6 3d 9b 41 1c bb 18 2f a4 bd
       0.21207972 0.09675429 -0.0023842815 -0.08016795
000070 46 b5 e5 3d ec 9f 76 3d fb be 95 bd 1b 42 7a bd
       0.11216216 0.060211107 -0.07311817 -0.0610982
000080 46 0a 7e 3e 66 98 20 3d 96 ef f3 3d 68 ae 5e 3e
       0.24808607 0.03920784 0.11910932 0.21746218
000090 1a fb f1 bd 10 e9 97 bd ae 15 5d bd 55 7f 27 3b
       -0.11815472 -0.074175 -0.053975753 0.0025558074
0000a0 40 59 c1 bd 05 3b 0f 3e 69 ec 6a 3e e5 8d 40 3e
       -0.09440851 0.13987358 0.22941746 0.18804128
0000b0 3d 5f 03 3c 97 d5 21 ba a5 39 91 bd 89 07 8e 3d
       0.008018312 -0.000617349 -0.07091073 0.06935031
0000c0 e5 c2 cf 3d c1 e6 39 bc 67 3a 3e 3e 27 35 1a be
       0.10144595 -0.01134652 0.18576966 -0.15059339
0000d0 1f 85 14 3d 5d f7 4c be 5b 8c 3d 3e 59 76 4e be
       0.036259767 -0.20016237 0.18510573 -0.20162334
0000e0 8c 5b 36 be 1a 2d 94 bc c5 9c b2 3d d3 68 3b 3e
       -0.1780836 -0.018087912 0.08721308 0.18301706
0000f0 2f 3a 71 bc 1a 89 c8 bd 8b 33 9e 3d 37 da d8 bd
       -0.014723345 -0.09791775 0.07724675 -0.10588496
000100 4c 5b 87 bd 1b a2 d7 bd c6 78 38 3e b3 8b 08 bc
       -0.0660921 -0.10528966 0.18014821 -0.008334088
000110 21 ea 0f 3e 75 b7 3c be f3 e4 0d be 65 a2 52 3e
       0.14054157 -0.18429358 -0.13856868 0.20569761
000120 0e e7 63 bc 73 3b 21 bd e9 8b 3e be 9e ae 0a 3e
       -0.013910068 -0.039363336 -0.18608059 0.13543174
000130 cb 3b b5 ba b7 08 2a 3e 3f 8f 6d 3d df 3d 80 3d
       -0.0013827024 0.16604887 0.05799794 0.06261801
000140 68 b2 3e be 8e 15 63 3b 01 59 8d 3d 9f ef 8f 3d
       -0.18622744 0.0034650299 0.06901742 0.07028126
000150 55 ae ec bd 89 ec ae 3d 13 3d 1b be 07 df 02 3e
       -0.11556689 0.08541209 -0.15160017 0.1278039
000160 e4 ad 80 bd 30 a9 b0 bb 84 51 a2 bd 4c a5 27 be
       -0.06283167 -0.0053912625 -0.07925704 -0.1637165
000170 11 c5 2f be 9a 09 31 3e 53 f5 40 3c 3c 08 c2 3d
       -0.17165019 0.17288819 0.01177724 0.09474227
000180 25 91 6f 3a d9 ea d6 bd 06 c0 87 3d 80 a0 8d bd
       0.00091387547 -0.104940124 0.066284224 -0.069153786
000190 7c 62 67 bd 0f b0 8a bc 0f 09 1a bd 6f 8b ff bd
       -0.056490406 -0.016929654 -0.037606295 -0.12477767
0001a0 16 c9 48 3e c5 83 1e bd 2c d4 e4 bc 97 78 c3 3d
       0.19607958 -0.038699884 -0.027933203 0.09544485
0001b0 dc 21 03 bc 0d 19 0a 3e 86 97 29 3d 64 0a fd bd
       -0.008003678 0.13486119 0.04140427 -0.123554975
0001c0 31 a6 89 3d b2 2f 0b 3e a1 48 ab 3d 75 45 4d be
       0.067211516 0.13592413 0.08363462 -0.20046027
0001d0 0f 94 1c 3e 74 5c 80 bc 21 e4 37 3e d4 2f c2 bc
       0.15290855 -0.015669085 0.17958118 -0.023704447
0001e0 d5 8f 3f bc fd 73 0d 3e 64 4a 9a 3d 79 85 e6 3d
       -0.011692007 0.13813777 0.0753372 0.11255927
0001f0 42 c9 aa bd c6 f8 55 3e d3 eb 20 be fc ae 99 bc
       -0.08339168 0.20895681 -0.1571496 -0.018760197
000200 2b 22 64 3d 4b c5 a5 3d 3e c5 bf bd ae cd 41 3c
       0.055696648 0.08094271 -0.09363793 0.011828823
000210 65 a0 65 3e e2 62 c1 3d bf d9 e2 3d 33 38 42 3e
       0.22424467 0.094426885 0.11076688 0.18966751
000220 e6 13 e1 bd 9a 54 0c 3e cc 7f 7c bd c6 14 0c be
       -0.109901235 0.13704148 -0.061645314 -0.136798
000230 fa a2 0c be 0e 2d 3e 3d 57 f3 05 3d e4 82 06 3e
       -0.13734046 0.046429686 0.03270277 0.13135868
000240 67 ee c8 3c e4 70 41 bd 7a e7 95 bd 19 d1 1c be
       0.024527742 -0.0472268 -0.07319541 -0.1531414
000250 52 36 10 3e 13 b4 03 be c0 bd 1d 3d aa 20 d9 bd
       0.14083222 -0.12861662 0.038511038 -0.10601933
000260 b8 57 1a 3e 58 3a 1e be a0 81 74 b6 54 14 01 3e
       0.15072525 -0.15451944 -3.6434285e-06 0.12605411
000270 58 54 1e bd 24 56 d5 3d 8c db 27 3e 11 23 27 3d
       -0.038654655 0.10416821 0.16392344 0.040804926
000280 93 7f d0 3d d5 af 21 3d 02 75 20 bd 10 02 e1 3c
       0.10180583 0.039474327 -0.039174087 0.027466804
000290 da b6 35 3e 84 15 fc bc cd b0 82 3d 74 1b 2d be
       0.17745534 -0.030771978 0.06381378 -0.16905004
0002a0 4d f1 0a 3e 75 38 da 3d 80 c0 50 3e de fc fc bd
       0.13568611 0.106552996 0.20385933 -0.12352918
0002b0 4e 31 7a 3d e2 10 e1 bd 64 08 5e 3d fa 81 3b be
       0.061082177 -0.10989548 0.05420722 -0.18311301
0002c0 cb d0 10 bd ce 51 29 be 9f c1 bb 3d f4 c5 3f be
       -0.03535537 -0.16535112 0.0916779 -0.18727857
0002d0 fc f9 5c be 02 28 67 be 22 bf 55 be d9 02 10 be
       -0.21579736 -0.22573856 -0.20873693 -0.14063586
0002e0 e5 e4 34 3e cd 20 0f 3e e8 f3 3c 3e 45 90 10 3a
       0.17665441 0.13977356 0.18452418 0.0005514662
0002f0 a1 e4 f8 bd 1c 10 a3 3b 2a b7 56 3d 60 23 55 3d
       -0.121529825 0.0049762856 0.052420773 0.05203569
000300 92 1c ab 3d a2 70 a4 bd a6 35 09 bd 50 c5 c2 3d
       0.08355059 -0.080292955 -0.03349843 0.095102906
000310 57 0c 12 be 54 e4 34 3d 71 7e a3 3d 8f 38 8b 3d
       -0.1426252 0.044163063 0.07983101 0.06797897
000320 b8 be f0 3c 87 ff 28 3d ec de 73 3d d7 e1 91 bd
       0.029387817 0.041259315 0.059538767 -0.07123154
000330 78 dd d3 3c 14 db 92 bd 76 19 dd 3d a3 79 2c 3d
       0.02586244 -0.07170692 0.10795872 0.04210819
000340 ca 1a 94 bc 1c 8b 78 bd ff df e2 bc f0 5d 1f 3e
       -0.01807918 -0.06067954 -0.0276947 0.15563178
000350 28 7b d7 bd 23 2a 2c be 4f 7e 6f bc f3 d4 df 3d
       -0.10521537 -0.16812949 -0.014617517 0.10929289
000360 39 57 1e 3e 6c 86 07 3d 19 5e 48 be 31 42 c7 3d
       0.1546296 0.03308718 -0.19567145 0.09729422
000370 e8 1c c1 3d c5 31 0d 3e 83 58 e0 bd 42 6f 1f be
       0.094293416 0.13788517 -0.10954382 -0.15569785
000380 9c d5 25 3b db 32 09 be 04 61 e6 3c 33 bd 90 bd
       0.0025304323 -0.13398306 0.028122433 -0.07067337
000390 57 bf 2b 3e 0f 5b 38 be 38 c6 1f 3d ef e9 e8 3c
       0.16772209 -0.18003486 0.039007396 0.02843186
0003a0 e0 a5 bf 3d 53 39 d9 bd 3c 56 9e 3c d9 04 0d bd
       0.0935781 -0.10606637 0.01932823 -0.03442845
0003b0 6b 00 ba 3d 11 95 e7 bd 15 ff db bd 84 9d 19 3e
       0.09082111 -0.11307729 -0.107420124 0.15001494
0003c0 71 53 77 3a e8 e3 d5 bd df fd 03 3e fa 21 23 3e
       0.0009434736 -0.1044386 0.12889813 0.1593093
0003d0 ca 60 15 be 91 44 24 be a1 cc 78 bd 25 9f 4a 3e
       -0.14587703 -0.16041781 -0.060742024 0.19787271
0003e0 d6 2c a6 3d 38 f5 66 bd b3 39 00 bd 48 b4 1d be
       0.081140205 -0.056386203 -0.031305026 -0.15400803
0003f0 2d 92 a3 bc 99 92 69 3d a6 61 6b 3e 4b 6a 0c be
       -0.019967163 0.057024572 0.22986469 -0.13712423

bias f4 [128]
000000 24 ac 80 3d 42 d9 ab 3c 07 2a d6 3c a4 39 b5 bc
       0.06282833 0.02097762 0.026143087 -0.022122212
000010 b5 3d 8b 3d bf df aa bd 48 06 17 be d7 4c f0 3d
       0.06798879 -0.083434574 -0.1474849 0.11733406
000020 18 1f e3 3d 51 c3 b6 bd b9 fe 01 be 61 e9 c3 bb
       0.11089915 -0.089239724 -0.12694825 -0.0059787487
000030 9f 0c 1e 3e dd 7c ec 3c 74 3d 8d bd a0 83 fb 3c
       0.15434502 0.028868133 -0.06896487 0.030702412
000040 2d 6e da bd 4b 72 3b bc bc 1e 73 3d b4 17 6c bc
       -0.106655456 -0.011440824 0.059355482 -0.014409948
000050 2b bf 40 3e ee 51 be bd 54 29 de 3c d9 b3 c4 3d
       0.18822925 -0.092929706 0.027119316 0.09604616
000060 8d 7a 06 be a7 45 c7 bc 2f e7 e9 3c bb a5 f0 bd
       -0.13132687 -0.024325205 0.02855262 -0.117503606
000070 92 48 ba 3c ba 22 2f 3e ac 70 07 be 5e 50 2b 3e
       0.022739682 0.17103091 -0.13226575 0.16729876
000080 29 05 c9 bc 3d 6e 6d 3d 5d fe 3f 3a 84 92 10 bc
       -0.024538593 0.05796646 0.0007323975 -0.008823995
000090 cc 43 9d bc 47 f0 0a be 27 e7 0e be 7c 9c 0d be
       -0.019197367 -0.13568221 -0.13955365 -0.13829225
0000a0 1a e0 12 3e 81 88 40 3d 21 0a 35 3b 7a 26 6d bc
       0.143433 0.04700518 0.0027624446 -0.014474506
0000b0 d9 88 39 bd 2c 18 b4 bd 8d 51 11 3c 4b ae 9a 3d
       -0.045296524 -0.08793673 0.008869541 0.07552775
0000c0 82 38 2e 3e 70 f9 81 3b 73 81 53 bd 62 26 e8 bd
       0.17013744 0.003966503 -0.051637124 -0.11335446
0000d0 84 b1 53 3d a0 8a 7e 3d 30 9a 2e bd 7d 25 70 bd
       0.051682964 0.06214392 -0.042627513 -0.0586295
0000e0 74 40 cf bd 98 98 12 3e df 2c 57 3d 18 b6 3c 3e
       -0.10119715 0.14316022 0.052533027 0.18428838
0000f0 57 d3 50 bc b6 0d d3 bd 15 a2 06 be e1 4f 90 bd
       -0.0127457 -0.103053495 -0.13147767 -0.07046486
000100 9d f8 0c 3c 2e 47 20 be c6 77 d8 bd 34 7f 00 3e
       0.008604196 -0.15652153 -0.1056972 0.12548524
000110 45 d4 03 be 15 d9 9d bc 07 66 1e 3d e3 93 33 3e
       -0.12873943 -0.019268552 0.03867152 0.17536883
000120 19 3b 16 bd 03 45 a9 bd 5c 35 06 bb 71 cd 06 be
       -0.036677454 -0.08265116 -0.0020478582 -0.13164307
000130 3c cd ee 3d 34 e9 15 3e 6b 74 51 3d f3 fd 24 3e
       0.11660239 0.14639741 0.051136415 0.16112499
000140 1f 21 fc bd 68 3a ee 3d 13 c7 1b be de a5 a7 3b
       -0.12311005 0.11632234 -0.1521266 0.0051162085
000150 e7 1b 00 be fb 17 da 3d ea 71 50 3e c7 69 67 bd
       -0.12510644 0.10649105 0.20355955 -0.05649736
000160 81 fb ee bc e4 f0 51 bd f9 e1 e7 3d e5 8a 95 3d
       -0.02917266 -0.05125512 0.11322398 0.07301883
000170 c4 c4 34 3d f9 de 10 be d8 2a 31 bd 52 40 e0 bd
       0.044132963 -0.14147557 -0.04325375 -0.10949768
000180 2e 07 65 3d 27 2d c1 3d 82 83 83 bd 33 62 ee bd
       0.05591505 0.0943244 -0.064215675 -0.11639824
000190 63 0c 0d 3d bb 90 cb 3d 1a cc 49 3c 15 19 4b be
       0.03443564 0.099397145 0.012316728 -0.19833787
0001a0 67 d2 be 3d 94 de d1 bd e1 9b 14 bd be de 9a 3d
       0.09317475 -0.102475315 -0.03628147 0.07562016
0001b0 61 2a d9 bd ff ff 5b bd 25 ad 0f 3e 2d db 01 be
       -0.10603786 -0.053710934 0.14030893 -0.12681265
0001c0 14 df 11 3e 93 15 5a 3e d6 2f 2d be e9 f9 56 3d
       0.14245254 0.21297292 -0.16912779 0.052484427
0001d0 ea 6a 21 3e 2d 71 ad bd 70 76 03 be ec d6 fd bd
       0.1576344 -0.08468852 -0.12838149 -0.12394509
0001e0 30 75 f9 bd fe 54 ed 3c 1e 17 1c 3c c9 03 a4 bd
       -0.12180555 0.028971191 0.009526996 -0.080085345
0001f0 19 6d e5 bc 14 7e 0a bd 86 1d 7e 3d bf c0 c3 3d
       -0.028006123 -0.033811644 0.062039874 0.09558248
