nn/checkpoints/main_material_different_2023_04_23-10_48_37/2/model_30.pt (torch, 451442 bytes, 98 tensors)

weight f4 [8, 5, 3]
000000 50 63 02 be 59 66 58 3b c8 49 81 bd 9b da 48 bd
       -0.12733197 0.0033019988 -0.06312901 -0.049036603
000010 79 85 8f be 53 a6 00 be 7b 7b a5 3d a2 64 23 3e
       -0.2803152 -0.12563448 0.08080193 0.15956357
000020 4b a4 a7 3e 14 61 99 be 41 cf 42 bd c6 2c ac bd
       0.32742533 -0.29956877 -0.047560934 -0.08406977
000030 22 7c 0f be 9b 1d 0b 3e 15 19 07 3e 15 67 9d 3c
       -0.14012197 0.13585512 0.13193162 0.019214192
000040 4a 7f 55 3e a2 82 ef 3c b4 d7 89 3c b5 b8 3d 3d
       0.20849338 0.029237095 0.016826488 0.04631873
000050 fa 1e 8f be 81 dc 67 3e 5b 82 4c be 4a 24 20 be
       -0.2795332 0.2264271 -0.19971602 -0.15638843
000060 69 36 4b 3e 75 26 2b be 08 9c 44 be 31 bf dc 3d
       0.19844975 -0.16713889 -0.19200146 0.10778654
000070 89 fa 30 b9 44 d9 0c 3e 4f 86 a7 bd 6a 6c 3c be
       -0.00016878 0.13754755 -0.08179914 -0.18400732
000080 e4 25 ae 3c 4c 59 b0 3c 9e 9e 3b be 56 9f b2 3e
       0.021258302 0.021526955 -0.18322226 0.3488719
000090 0b ba 67 3e 92 2c b5 3d 2d 74 ea 3d 26 c6 35 be
       0.22629564 0.08846392 0.1144794 -0.17751369
0000a0 50 7d 8e 3d 3f 52 8a 3d 60 e0 0f 3e 3f 16 35 3e
       0.06957495 0.067539684 0.14050436 0.17684267
0000b0 52 1f 4b 3e 4e c6 ee bc 65 bd 01 3d 5a 79 9b be
       0.19836167 -0.029147293 0.03167476 -0.3036602
0000c0 c1 b3 29 3e 03 8d 52 3e 17 75 38 be 0a cc 16 bd
       0.16572477 0.20561604 -0.18013416 -0.03681568
0000d0 ff fe 28 3e 9a 49 6e be 2a 01 5f bc e7 ea 9a bd
       0.16503523 -0.23270264 -0.013611117 -0.07564335
0000e0 bc d1 cb be 21 71 86 bc 03 9d e9 bd 17 29 0d 3c
       -0.39808452 -0.016411366 -0.11406901 0.008615754
0000f0 50 9f 48 3e ff cf 4e be f6 44 ab be b4 7c a5 3d
       0.19592023 -0.20196532 -0.3345105 0.08080426
000100 40 a1 2a 3e 14 d1 ac 3d e3 d1 ae bd ca 3f ed bd
       0.16663074 0.08438316 -0.085361265 -0.115844324
000110 ea 7f 0b 3d a7 52 1c 3d d2 2d 64 bd 34 29 47 be
       0.034057535 0.03816476 -0.05570776 -0.19449311
000120 53 0b 63 3e b4 2b d2 bd ff 0a 72 3e 8b 10 ad bd
       0.22172289 -0.10262242 0.23637007 -0.08450421
000130 b6 73 87 3e 7b 4c 6b be a2 6c 89 bd d8 9e f0 3b
       0.26455468 -0.22978394 -0.06710173 0.0073431544
000140 cb 6d a1 3e f4 e0 07 3e 77 75 89 bd 67 4b 03 be
       0.31529078 0.13269407 -0.06711858 -0.12821732
000150 cf db 1e bd 1a 1e 27 be 05 8c 71 3e 1f 2c d3 bd
       -0.038783845 -0.16320077 0.2358857 -0.1031115
000160 05 ef fc bd 50 6e 5f 3e 73 3c cf 3d 79 ca 4d 3e
       -0.12350277 0.21819425 0.10118952 0.20096768
000170 59 44 ae 3c e5 c0 a8 3d 4a 17 92 be 4d 69 7c 3e
       0.021272825 0.08239917 -0.28533393 0.24649544
000180 45 ee be bd 33 90 87 be ee 30 09 be 80 a4 00 be
       -0.0932279 -0.26477203 -0.13397571 -0.12562752
000190 60 95 f9 bd b5 7f c0 bd 2b 1d bc bd f8 9a 9f be
       -0.12186694 -0.09399358 -0.09185251 -0.3117292
0001a0 12 b4 22 3e fc 72 36 be 13 94 7a 3e c9 bb 98 be
       0.15889004 -0.178173 0.24470548 -0.2983077
0001b0 11 2a d3 3d 6e c7 c2 3d a8 32 3d 3d 74 2d e8 bd
       0.10310758 0.095106944 0.046190888 -0.113367945
0001c0 c3 61 42 3e 79 b6 88 3d 17 5b 20 3e 6e c3 5c be
       0.18982606 0.06675429 0.15659748 -0.21558926
0001d0 d9 ed 55 be a4 59 d3 bd 9d 0a 63 3e c1 35 44 be
       -0.20891513 -0.10319832 0.22172017 -0.1916113

bias f4 [8]
000000 33 50 36 bb d2 9b 15 3d f3 a5 18 be f5 f0 23 3e
       -0.0027818799 0.036525555 -0.14907055 0.16009887
000010 b5 58 6a 3d 60 2a 47 bc 29 9f 13 3e bc e6 05 3e
       0.057213504 -0.012156099 0.14416184 0.130763

weight f4 [8]
000000 ba 20 75 3f cf ed 83 3f a8 63 75 3f e7 87 79 3f
       0.9575306 1.0306948 0.9585519 0.97472996
000010 b5 e7 83 3f 85 27 82 3f c1 e7 7d 3f 4a 60 83 3f
       1.0305086 1.016831 0.99181753 1.026376

bias f4 [8]
000000 85 67 f5 bc 66 b5 62 3d 7f c3 6b bd 08 b8 f6 3b
       -0.029956589 0.055348776 -0.057559486 0.0075292625
000010 21 1e a4 bc d8 d4 1c 3e 3f 9a 71 3c 88 77 b5 bc
       -0.020033898 0.15315568 0.014746248 -0.022151724

running_mean f4 [8]
000000 01 93 43 be 96 45 e1 3c 93 4f 93 3e 5b 8c 8b be
       -0.19099046 0.027499001 0.28771648 -0.2725552
000010 00 49 da 3c 83 e1 92 3d 8c a0 73 be 47 af 0d 3d
       0.026646137 0.07171919 -0.23791713 0.034590986

running_var f4 [8]
000000 7a 6b 64 3e 0e a4 41 3e e5 a3 67 3f 15 5a 90 3f
       0.22306624 0.18910238 0.9048446 1.1277491
000010 f7 26 26 3e 1a 61 21 3e f4 25 6f 3f e9 f6 72 3e
       0.16225801 0.15759698 0.93417287 0.23727001

weight f4 [8, 8, 3]
000000 3e db 23 bc 3e 03 15 3d 6f 6e f0 3d ad 30 47 3e
       -0.010001002 0.036380045 0.117398135 0.19452162
000010 02 ec df 3d be 53 0e be 51 fb fc bd d4 38 df bd
       0.10933687 -0.13899133 -0.12352622 -0.10899511
000020 a1 8a 28 bd 93 cb 95 bd 4c 46 73 be f2 f6 a3 bd
       -0.04114783 -0.07314219 -0.23757285 -0.080060855
000030 02 9e 20 be 46 9d 02 be 08 eb 6c bb e5 df 25 3e
       -0.15685275 -0.12755308 -0.0036150832 0.1619869
000040 1c 38 9a 3d fa df 45 be ef ca 70 3e cc 62 95 3d
       0.07530233 -0.19323722 0.23514913 0.07294235
000050 47 8e 0c 3d 92 32 9e bd 30 4c 90 be bb 81 ca 3d
       0.034315374 -0.07724489 -0.28183126 0.098880254
000060 15 24 d1 bd ef 20 df bd d6 2f 12 3e 83 49 4b 3e
       -0.1021196 -0.108949535 0.1427606 0.19852261
000070 7a 80 86 bd 61 a9 cb 3c fa 0d 96 bd 05 cb 33 be
       -0.06567474 0.02486104 -0.073268846 -0.17557915
000080 5d af 68 3e a9 27 66 be 82 7e f6 bd dd 14 d1 bd
       0.22723146 -0.22476067 -0.12035848 -0.102090575
000090 17 70 0c 3e 2d 43 31 3e 25 8c c7 bc d5 2e 57 3e
       0.13714634 0.17310782 -0.024358818 0.21013959
0000a0 5d 62 42 3d 31 40 bc 3d 42 07 23 be dd 0f 41 be
       0.047457088 0.09191931 -0.15920737 -0.18853708
0000b0 7f 86 62 bd 12 cf f1 bd 20 6c 27 3e a8 5f 99 3c
       -0.055304047 -0.11807074 0.1634984 0.01872237
0000c0 b6 d8 b8 3d 2e 96 ff bd ca 31 d0 3d 19 5d d8 3d
       0.09025709 -0.124798164 0.101657465 0.10564632
0000d0 07 f1 05 3e 91 10 86 bd fa 67 18 3e 57 43 48 be
       0.13080226 -0.065461285 0.14883414 -0.19556938
0000e0 7f 03 8e 3d fb e7 12 3e c5 c8 2c 3e 6c d6 3c be
       0.069342606 0.14346306 0.16873462 -0.1844117
0000f0 3e 2a 0b bd 01 4a 30 3e 91 03 6e 3e e2 b1 80 bd
       -0.033975832 0.1721573 0.23243548 -0.062839285
000100 a9 ab 4f 3e 65 26 1b 3c 68 d4 1a 3e a3 18 e3 3c
       0.20280327 0.009469603 0.15120089 0.027721709
000110 d7 02 db bd 57 3d 13 bd 12 fe 51 3e 24 69 2e bd
       -0.10693901 -0.03594717 0.20507076 -0.04258074
000120 77 2d 86 3e 18 04 ab bd e8 69 f0 3d 06 fb 69 be
       0.26206562 -0.0835039 0.1173895 -0.22849664
000130 fe e9 9a bd 01 09 28 3e 02 ae df bc 4a 05 8a bd
       -0.07564162 0.16409685 -0.027304653 -0.0673929
000140 ff 3a 01 be 69 5b b9 bd fb 70 48 3e e7 e0 5e be
       -0.12620161 -0.09050638 0.19574349 -0.21765481
000150 12 ec 31 3e 8e 6e 09 3c 2d 0c 6e 3e e7 e5 80 3d
       0.1737521 0.008388175 0.23246832 0.062938504
000160 58 ed 09 3e 7d 00 f3 bc 5d 2c 3e 3e d0 ae 0b be
       0.13469446 -0.029663319 0.18571611 -0.13640904
000170 de 72 42 bd 48 d4 58 bd 55 21 8c 3c 06 4e cf bc
       -0.047472827 -0.052936822 0.017105738 -0.02530576
000180 20 40 f3 3d 2e c2 9c 3d 4c 5e 19 be da cd 6e 3e
       0.11877465 0.07654224 -0.14977378 0.23320714
000190 1d d7 1d 3e 24 76 83 3d 77 b3 09 bc a6 91 5a 3c
       0.1541409 0.06419018 -0.008404604 0.013340389
0001a0 63 fb 8d bd b3 85 86 bc 1d dd ff 3c 04 e2 39 3d
       -0.06932714 -0.016421175 0.031233365 0.04538156
0001b0 fc ad 48 bd fd 2a 40 bd f6 44 15 3e 84 9e 04 be
       -0.04899405 -0.046915997 0.14577088 -0.12951094
0001c0 d6 6a 16 bd c2 70 57 bd 82 f8 ed bd ed c9 77 3d
       -0.03672298 -0.05259777 -0.11619665 0.060495306
0001d0 08 e7 42 be 8d b5 20 3d e6 01 3e 3e 00 03 85 bd
       -0.19033444 0.03923564 0.18555412 -0.06494713
0001e0 92 89 c6 3d 9a 7e 9e 3d 53 5b 3a 3e 0e b5 83 3d
       0.09694208 0.07738991 0.181989 0.06431018
0001f0 e3 8c 8d 3d ab 79 bd 3d 73 08 e5 bd e1 f4 6b bd
       0.06911638 0.09251722 -0.11183252 -0.05760658
000200 1d 49 bb bc 3c 7b 48 3e b5 6b bb 3c df fd 63 bd
       -0.022862012 0.1957826 0.022878507 -0.055662032
000210 9a 72 ea bd 51 84 49 3e 5b 3b 14 3e 9f a7 4d 3e
       -0.1144764 0.19679381 0.14475767 0.20083474
000220 f0 2b 89 be 9b 6f f5 bd 1e c4 51 be 09 c5 bd 3d
       -0.26791334 -0.11984178 -0.20484969 0.09266097
000230 60 7a 6f 3c 21 09 37 3d 43 98 c0 3d e7 ee 2e be
       0.014616579 0.04468644 0.094040416 -0.17083322
000240 c2 43 0e 3d a2 0c e8 3c c1 bd 32 3d da c0 8a 3e
       0.034732588 0.028326336 0.043637995 0.2710026
000250 3d c1 16 3e 5a 9f 81 bd 0b b5 d4 bb c0 58 87 be
       0.14722152 -0.06329222 -0.0064913086 -0.26434898
000260 2e e1 c9 bd b5 f1 46 3e 8a 7c 11 be 1e c9 4a bd
       -0.09857403 0.19428141 -0.14207664 -0.049508207
000270 90 9f 2d 3e a6 6d 18 3e 98 f5 64 be d9 97 5e 3d
       0.169554 0.14885578 -0.22359312 0.054344032
000280 c4 38 5a be a5 61 2c be d7 52 43 ba 86 27 4d 3d
       -0.21310717 -0.16834123 -0.0007451004 0.05008652
000290 79 d0 b7 3d 45 57 13 be fc e2 4a 3d d4 d8 ed 3d
       0.0897531 -0.1438876 0.049532875 0.11613622
0002a0 80 b7 77 3d 0a 40 a6 bd 04 9a 20 bd ad 3a 91 be
       0.060477734 -0.08117683 -0.03920938 -0.2836508
0002b0 36 f9 05 3e 0a 7f e3 3d 98 e4 47 be 63 7f 05 3e
       0.13083348 0.11108215 -0.19520795 0.13036875
0002c0 dd c7 28 3e da 1d 20 bd 96 dd 01 3d 31 80 df 3b
       0.16482492 -0.03909097 0.03170546 0.0068207015
0002d0 53 db a0 3d b8 95 bd 3c cd 95 c8 bd ad 5b 83 be
       0.07854333 0.02314268 -0.09794197 -0.2565588
0002e0 f6 6e 0f 3e 1c 9c 0c be c6 e9 9a 3c c7 3a 89 bd
       0.14007172 -0.13731426 0.0189103 -0.06700664
0002f0 d1 15 83 3e d2 40 46 3d 16 1c 43 be c0 ad 9a bd
       0.25602582 0.04840166 -0.19053683 -0.075526714

bias f4 [8]
000000 63 c5 68 3e 8f 2c 98 3d d9 8f 05 3d 08 7e f4 3d
       0.22731547 0.07430374 0.032607887 0.11938101
000010 7d f7 0a 3d ec 8c f3 3d 50 34 f9 bc bb 07 4c 3e
       0.03392743 0.11892113 -0.030420452 0.19924824

weight f4 [8]
000000 38 f8 8a 3f 08 fd 76 3f 07 9a 64 3f f3 ff 84 3f
       1.0857 0.96479845 0.8929753 1.039061
000010 fd c3 79 3f 8d 3e 8b 3f ad ef 7c 3f a4 e6 81 3f
       0.9756468 1.0878464 0.98803216 1.0148511

bias f4 [8]
000000 3f c6 0e 3d 00 70 b8 3d 8c 8f 0b be e4 36 55 3e
       0.03485703 0.09005737 -0.13628978 0.2082172
000010 ed 92 cf 3d ff ce 0e 3e 41 5d 7c bd a9 a6 b6 3c
       0.10135446 0.1394615 -0.06161237 0.022296267

running_mean f4 [8]
000000 b4 be d4 3d 41 7a 45 3d 1a d8 ab 3e ae a5 53 3e
       0.10387936 0.048212294 0.3356331 0.2066867
000010 f6 cb a3 3d 2e c0 65 3e 87 77 22 bd d5 8f 01 3e
       0.07997887 0.22436592 -0.03966477 0.12652524

running_var f4 [8]
000000 f1 ee 23 3e 2d d3 6d 3e 40 8e 2a 3e 7f 31 0f 3e
       0.16009118 0.23225088 0.16655827 0.13983725
000010 e0 22 2b 3d 69 aa 3d 3e 2d 8a 51 3e 8e 8b 39 3e
       0.041781306 0.18522038 0.20462866 0.18119642

weight f4 [8, 8, 3]
000000 cf a3 ca 3b cc f0 75 bd bb c2 ff bb ac 15 62 3d
       0.0061840783 -0.060044095 -0.007805196 0.05519645
000010 e4 2e 8a 3d 56 14 28 3c 38 39 0c be d1 0c d0 3d
       0.06747225 0.010258755 -0.13693702 0.101586945
000020 31 d1 27 3d 0e 9e 39 bd 2d 4d c5 3d 73 e2 92 bd
       0.040970985 -0.04531675 0.09633861 -0.07172098
000030 d7 85 11 be 7b 25 cf bd a1 df c3 3d a5 3a 5f be
       -0.14211212 -0.10114571 0.09564138 -0.21799715
000040 92 6e 4d be ca 4b 3c bc d7 c9 88 3d e8 cc c8 bd
       -0.2006171 -0.011492679 0.06679123 -0.09804708
000050 3d bc f8 bd 14 18 04 3e a4 a2 09 bd 4d b5 23 be
       -0.121452786 0.1289981 -0.03360237 -0.1598713
000060 ee 29 22 bd 4b 2d 91 bc 9e 58 63 be f3 54 a7 bd
       -0.03959077 -0.017721793 -0.22201774 -0.081705
000070 cd 05 01 3e 7d 4b 57 be 6c 29 0c be 50 22 7e 3b
       0.12599869 -0.2102489 -0.13687676 0.0038777776
000080 a9 9a f5 bd 67 45 00 bd 1a 67 0e 3e 0c 9b 25 be
       -0.1199239 -0.031316187 0.13906518 -0.16172427
000090 17 1f ff bd f9 52 7d 3e 23 54 2d 3e 5c d5 49 be
       -0.12457102 0.24738683 0.16926627 -0.19710296
0000a0 a3 f6 6c bd aa f4 b7 3d 1d 68 4e be 79 14 4c 3e
       -0.0578524 0.08982213 -0.20156904 0.19929685
0000b0 b3 3b 05 bd a0 31 46 3e 90 15 ad bd 7c 1c 08 be
       -0.032527637 0.19354868 -0.08451378 -0.13292116
0000c0 cd 76 13 be c8 18 45 be e4 36 40 3e 3a 12 08 bd
       -0.14400788 -0.19247735 0.18770939 -0.033220507
0000d0 c5 20 3e be 83 16 03 3e ff bb 6f bd 8e b2 79 3d
       -0.18567188 0.12801556 -0.058528896 0.0609613
0000e0 7f 76 41 be 15 6e 57 3e a2 41 18 be 22 ff 37 be
       -0.18892859 0.21038087 -0.14868787 -0.17968419
0000f0 23 f9 09 be e3 7e 6f 3d dd 6b 5c 3c 51 a9 a8 bd
       -0.13473944 0.058470618 0.013453451 -0.082354195
000100 01 30 10 bb e7 bf fc 3d 43 94 b2 bd 83 2e cc bb
       -0.0022001269 0.1234129 -0.08719685 -0.0062311306
000110 b9 92 cd bd 51 5e 82 bd 0c bd 19 3d 7e 77 29 be
       -0.10037751 -0.06365646 0.037533805 -0.16549489
000120 02 98 07 3e bd 13 4c 3e 8e 3a f2 bd 4b 22 7e bd
       0.1324158 0.19929405 -0.11827575 -0.062044423
000130 55 49 0d 3e aa ad 76 bd ba b7 12 be 64 ac d8 bd
       0.13797505 -0.060224213 -0.14327899 -0.10579756
000140 e3 d1 86 3c d3 39 7f be f5 a4 8a bd 08 4e 91 3e
       0.016457504 -0.24924402 -0.06769744 0.28379846
000150 94 5b d0 bb 3c 18 a5 3d ae d6 b7 bd 5a bf 9b 3d
       -0.006358573 0.08061263 -0.08976494 0.07604857
000160 33 17 cc bc 11 f4 2a be 8d 1c aa 3d f1 ee 03 be
       -0.024913406 -0.16694666 0.08306227 -0.12884118
000170 45 fc 8a be 89 a4 8a bc f3 69 35 be 11 de 75 bd
       -0.2714559 -0.01692416 -0.17716198 -0.060026232
000180 d3 4c 1d bc 27 ed b3 be 71 c4 04 be b9 16 35 be
       -0.009600836 -0.3514187 -0.12965561 -0.1768445
000190 42 bb 5a be 04 93 86 bd bf a8 5f be dd b5 07 be
       -0.21360496 -0.0657101 -0.21841715 -0.13252969
0001a0 26 68 4f bd fe 43 9c 3d 12 55 1c 3e f5 72 40 be
       -0.050636433 0.07630156 0.15266827 -0.18793853
0001b0 ff 3a be 3d 71 73 0c 3e 28 d9 e2 3b bb 14 34 be
       0.09288596 0.13715912 0.0069228597 -0.17586033
0001c0 4b b0 31 3e aa 8f 15 3e d0 00 0e 3e 26 e6 9a 3c
       0.17352407 0.14605585 0.13867497 0.018908571
0001d0 6b c1 3f 3e 02 14 3b be 4a 74 d9 3d 29 54 0c 3e
       0.18726127 -0.18269351 0.106178835 0.1370398
0001e0 30 55 06 3e 7d 9f 59 3d 1a ff 4e 3b a2 1a 78 3b
       0.13118434 0.053130616 0.0031585158 0.0037857671
0001f0 2b 7e 05 3e 39 0b 6f 3e 06 2f d2 bd e7 a9 ac bd
       0.1303641 0.23344125 -0.10262875 -0.08430844
000200 df 03 b1 3d 58 ec ac bd 95 64 04 be 99 4d 21 bb
       0.086433165 -0.084435165 -0.12928994 -0.0024612902
000210 e1 d6 61 3e db 0a dd 3d d6 17 4c be 3b ba 58 bd
       0.22054626 0.10793086 -0.19930968 -0.05291198
000220 76 5e 1f 3e 1d 30 58 3d 8c f1 88 3e a0 53 bc 3d
       0.15563378 0.05278026 0.26746786 0.09195638
000230 92 0f 2e 3e 7a 72 29 3e 64 a3 a0 3c b2 ee 0d 3b
       0.16998127 0.16547576 0.01960916 0.0021657166
000240 2a ea 6f 3e 80 f0 5e bd 96 30 6f be 48 f2 32 be
       0.2342917 -0.054428577 -0.23358378 -0.17475235
000250 fb 19 98 3d 9e 78 f3 bb 04 f3 4b be 56 d9 0f 3e
       0.074268304 -0.00743015 -0.19916922 0.14047751
000260 fc 83 ac 3c 84 67 0c 3b 1a 86 ce 3d b5 19 9a bd
       0.021059029 0.0021424005 0.100841716 -0.075244345
000270 05 bb 6c bd 79 d0 8d bd 8d 56 9e 3d b9 40 ff bd
       -0.057795543 -0.06924529 0.07731352 -0.12463517
000280 2f 4d 6a 3d 93 e7 10 be 7a cd f7 3c ae af 86 3d
       0.057202514 -0.14150839 0.030249346 0.06576477
000290 18 4e 6f bd ca b3 0e be 96 66 37 bd d5 ea f8 3d
       -0.058424085 -0.13935772 -0.044775568 0.12154166
0002a0 e9 a4 c7 bd 5a 70 d2 3d 19 05 2e bc 6a 38 89 bd
       -0.09748251 0.102753356 -0.010621333 -0.06700213
0002b0 7e 0a 1b bd 3b 21 95 3d 40 b8 8c 3d 44 bd 8f 3d
       -0.037851803 0.07281729 0.068710804 0.070185214
0002c0 a4 22 d6 3d c8 7f e6 3d 9e d0 6f be 98 f4 86 3e
       0.10455826 0.11254841 -0.23419425 0.26358485
0002d0 56 ef 01 3e 69 0d 1a 3e 3f 55 fb 3b ca fb 28 be
       0.12688956 0.15044178 0.0076700742 -0.165023
0002e0 f3 00 b6 3d 5e 8e 8f 3e eb 33 0a 3e 5e fa 10 be
       0.088869 0.28038305 0.13496368 -0.14158008
0002f0 da d5 47 3e cf cc 17 3d 82 6b d3 bd f7 2b 22 be
       0.19515172 0.037060555 -0.1032324 -0.15837084

bias f4 [8]
000000 26 76 4e 3e 1e 75 78 bc 53 20 f5 3d a5 c9 91 3d
       0.20162258 -0.015164642 0.11969056 0.07118539
000010 41 c7 dc bd 46 86 8d 3d bc 4d 28 bd 4a f1 21 bd
       -0.10780192 0.06910376 -0.04108976 -0.03953675

weight f4 [8]
000000 f9 38 76 3f db 85 83 3f c5 b9 77 3f 0b 8e 81 3f
       0.96180683 1.0275224 0.96767837 1.0121473
000010 3f 35 89 3f f6 ea 79 3f ec d6 7f 3f 19 33 82 3f
       1.0719374 0.97624147 0.9993732 1.0171844

bias f4 [8]
000000 00 d4 02 3d dc d3 70 bd 89 5d 38 3d 27 21 21 3e
       0.03194046 -0.058795795 0.045011077 0.15735303
000010 e8 a2 2a 3d cc 1c 09 3e 82 80 bc 3d 12 63 8a bd
       0.041659266 0.13389891 0.092041984 -0.067571774

running_mean f4 [8]
000000 5e 5a 2c bd 21 85 67 be 62 2b 1e be 34 09 e7 bd
       -0.04207837 -0.22609378 -0.15446237 -0.11281052
000010 8b f0 8a be 6d ce dd 3e 07 68 49 be 87 c2 52 3e
       -0.27136645 0.43321553 -0.1966859 0.20582019

running_var f4 [8]
000000 5a 1c e0 3d 2a ca 5a 3e 05 4c 62 3e c8 1e 8c 3e
       0.10942908 0.21366182 0.22099312 0.27367234
000010 da cf bf 3e 20 79 14 3e 4e 3f 37 3e c4 54 89 3e
       0.37463266 0.1449933 0.17895243 0.26822484

weight f4 [8, 8, 3]
000000 14 d7 15 be 9c c0 06 3e 35 6d 9a bd be 9c f7 3d
       -0.14632827 0.13159412 -0.07540361 0.12090443
000010 3f 65 14 3e 16 78 00 be 4b b3 df 3d 67 52 e3 bd
       0.14491747 -0.12545809 0.10922869 -0.110997014
000020 1f 9d 99 bd e5 50 f1 3d 4a 0e 41 3e d5 e2 1d be
       -0.075006716 0.117830075 0.18853107 -0.15418561
000030 b5 f8 53 bd 33 0d cf bd f5 cf 3b 3e 16 87 1b be
       -0.051750857 -0.101099394 0.18341048 -0.1518825
000040 3e 00 93 bd aa 2e 0b 3e 4d b3 12 3d 67 68 fe bd
       -0.071777806 0.1359202 0.035815526 -0.12422257
000050 a0 96 dd 3d 53 45 9e bd 92 44 f7 3d 60 23 d0 bd
       0.10819745 -0.07728066 0.120736256 -0.10162997
000060 6f c3 59 3d 16 91 4a be 38 6c 04 3e f2 2e da 3d
       0.053164896 -0.19781908 0.12931907 0.10653485
000070 93 a8 37 be 8d 44 e6 bd a7 a4 18 be ad ae 2d bd
       -0.179354 -0.11243544 -0.1490656 -0.042402912
000080 00 f4 36 be 1f cb ca bc fd 5e 62 3e 05 73 b1 3d
       -0.17866516 -0.024755059 0.22106548 0.08664516
000090 8b 71 c4 ba a8 7d 17 be 96 18 97 bd ce 8c 5a 3e
       -0.0014987452 -0.14794028 -0.07377736 0.21342775
0000a0 0c ce 02 3d c5 91 dc 3d d6 83 25 be 71 65 3b 3e
       0.031934783 0.10769991 -0.16163573 0.18300416
0000b0 cd 74 83 3e 5b bf b9 bc 2d 89 50 3c d5 1c 49 be
       0.2567505 -0.022674253 0.012728018 -0.19639905
0000c0 f8 c6 3c 3e d1 31 aa bd c6 93 05 3e 05 76 1c 3e
       0.18435276 -0.08310283 0.13044652 0.15279396
0000d0 da 14 0a bd e5 db 49 bd dd 20 92 3c 9d 67 f6 bc
       -0.03371129 -0.049281973 0.017837936 -0.030078704
0000e0 28 a4 27 bc 16 30 be 3d 70 c4 23 be 49 ef a5 3d
       -0.010232009 0.092865154 -0.15992904 0.08102281
0000f0 47 db b5 bd f4 93 42 3e 8e 28 dc bd f9 5f 85 be
       -0.088797145 0.19001752 -0.10749923 -0.26049784
000100 cb 58 28 3e 56 6f b6 3d 53 a1 39 3e 23 59 c2 be
       0.16440122 0.089079544 0.18127947 -0.3795863
000110 3e 96 3c 3e 8f 56 58 be 3d ab e4 3d 93 de cb bc
       0.18416688 -0.2112677 0.111654736 -0.024886405
000120 54 8b 0d bd d2 83 2d 3e 84 ba 2c 3e d8 30 ee 3d
       -0.0345567 0.16944817 0.16868025 0.1163041
000130 b0 14 3e bc 3f ef 70 3e 82 5b 86 be 6b 30 1f be
       -0.011601612 0.23528765 -0.2624169 -0.15545814
000140 82 73 38 3d 17 0f 81 bd 23 39 42 3e 45 5c 73 bd
       0.04503203 -0.06301706 0.18967108 -0.059414167
000150 e9 96 32 3e ad b4 bc 3a 5d 46 48 3c 27 56 78 bb
       0.1744038 0.0014397107 0.012223807 -0.0037893148
000160 12 08 31 3e 99 b2 3f be 40 fd a8 3d 12 12 3c bd
       0.17288235 -0.18720473 0.082514286 -0.04591567
000170 61 ea 70 bc 21 b8 f5 bd 93 32 ab bd 97 a7 85 be
       -0.014704318 -0.119980104 -0.08359256 -0.26104423
000180 b0 00 57 3e ce 6b d1 3d 97 ea 86 be 18 95 4e be
       0.20996356 0.1022564 -0.26350853 -0.20174062
000190 d4 7e 3d bd 2c 12 bf bd 95 f7 49 39 6e b4 5b 3e
       -0.04626353 -0.09329638 0.00019261085 0.21455547
0001a0 91 f3 d1 bd e5 2c 58 be ae 23 96 3d e6 65 7c 3e
       -0.10251535 -0.21110876 0.07331024 0.24648246
0001b0 ed 51 7d 3c a7 ea cb 3d 4b 21 9e be 29 8b 04 bd
       0.015461427 0.09956866 -0.30884776 -0.032359276
0001c0 e9 f6 23 be e4 b0 69 bc fd 5d 3c 3d a5 80 85 bb
       -0.16012157 -0.014263365 0.04598807 -0.0040741735
0001d0 fb fd 06 be 45 85 0c be f1 54 10 3e 14 5a 03 3e
       -0.13182823 -0.13722713 0.14094903 0.12827331
0001e0 14 fb 33 ba 92 56 2c 3e 58 d4 fd bd 24 76 a1 3b
       -0.00068657217 0.16829899 -0.12394017 0.0049274135
0001f0 fe 06 cc 3d 13 cf 3c 3e 92 27 ce b9 0f f1 b0 3d
       0.09962271 0.18438368 -0.00039320864 0.08639728
000200 bc 02 92 be 05 46 a8 bd 00 43 cc bd 07 81 01 bd
       -0.2851771 -0.0821648 -0.09973717 -0.03161719
000210 3d 19 9c be f0 4a 5c be ab 68 0d 3d 7b fe c9 bd
       -0.30488005 -0.21512961 0.034523647 -0.098629914
000220 fb 86 2c be 4b 0e 16 3e 9d 02 40 be 03 fd 8f bd
       -0.16848366 0.1465389 -0.18750997 -0.0703068
000230 2c cb e0 3d 8f ac ea bd 73 08 5e bc 23 36 52 3e
       0.10976252 -0.11458694 -0.013551819 0.20528464
000240 48 03 f2 bd 26 32 1d bd f6 be 11 3e 4e 2a b2 3d
       -0.11817032 -0.038377903 0.14233002 0.08699475
000250 30 1a 49 3e ce 15 eb bd 41 b9 f1 3b 30 f7 7d 3d
       0.19638896 -0.11478768 0.0073768203 0.062003314
000260 af 01 0d 3e 44 a4 6a 3e e6 3a 28 bd 13 89 84 be
       0.13770173 0.22914225 -0.041071795 -0.2588583
000270 88 09 0f be ac ab 6e 3e e5 90 0e 3e e0 de a4 bc
       -0.1396848 0.23307675 0.1392246 -0.020125806
000280 b4 e8 cb 3c 82 62 25 bd c4 46 92 3d 0a 9a 39 3e
       0.024891235 -0.040377147 0.07142404 0.18125167
000290 1c f3 d0 bd 18 ce dc 3c cd 96 08 be bd 13 98 3d
       -0.102026194 0.026953742 -0.13338776 0.0742564
0002a0 f0 5d 68 3e 12 12 24 3e d7 b0 2b be 84 23 04 3e
       0.22692084 0.16022518 -0.16766678 0.12904173
0002b0 44 e2 42 3e 31 29 4f be 96 a5 a1 3c cb 71 0a be
       0.19031626 -0.20230557 0.019732278 -0.13519971
0002c0 df 26 f5 bd 75 5f c7 3d d9 db c7 bc cf 72 36 3d
       -0.11970305 0.09735004 -0.024396824 0.044543084
0002d0 2f 2b d3 bd 98 00 f4 bb be b0 0f 3e 69 0e 07 3e
       -0.10310971 -0.00744636 0.14032266 0.13189091
0002e0 6b d0 11 3d 4d 94 81 bd 83 d7 e5 3c 20 69 04 bc
       0.035599153 -0.06327114 0.028056866 -0.008081704
0002f0 5e 91 f9 3c bd e3 54 3e 34 ec 38 be 4a 09 53 3d
       0.030464824 0.2079 -0.18058854 0.05152253

bias f4 [8]
000000 ef 1c e9 3d a9 6f 5f 3e ce 5d 99 3d 3a 78 c1 3c
       0.11382472 0.21819939 0.07488595 0.023616899
000010 fd 2f 98 3c 69 3b 73 be 08 ab a2 bc dd 69 1e be
       0.01857757 -0.23753132 -0.019856945 -0.15470071

weight f4 [8]
000000 27 2c 7e 3f 77 50 87 3f 22 68 71 3f 01 d5 80 3f
       0.9928612 1.0571431 0.9429952 1.0065004
000010 39 00 81 3f d5 a4 7d 3f b4 43 80 3f da c1 7d 3f
       1.0078193 0.9907964 1.0020661 0.9912392

bias f4 [8]
000000 bc 6a 9d 3d a0 1d 43 3e 83 f4 26 3d 1b aa a2 3d
       0.076863736 0.1905427 0.04076053 0.07942601
000010 17 1a a3 bd bf 91 97 3d 49 bd 8b 3d df 6b ba 3b
       -0.079639606 0.07400846 0.06823213 0.005689129

running_mean f4 [8]
000000 b8 e4 06 3e f4 bb 72 3e b7 7c de 3d fc 83 2d 3d
       0.13173187 0.23704511 0.10863631 0.0423622
000010 6c 71 ca bd 16 a6 0b bf 69 4e 29 3e 25 c9 9a bc
       -0.09884915 -0.545503 0.16533817 -0.018894741

running_var f4 [8]
000000 99 de 20 3e 2b 41 21 3e f7 f6 72 3e 79 1d 1d 3e
       0.15709914 0.15747516 0.23727022 0.15343274
000010 2c 6b 4f 3e 3a d9 34 3e 80 c9 6b 3e 26 4e 26 3e
       0.20255727 0.1766099 0.23026085 0.16240749

weight f4 [8, 8, 3]
000000 63 ee da 3d d9 c7 69 be 6b 4e 5f 3d 54 e1 bd bc
       0.1069 -0.22830142 0.054518145 -0.023178734
000010 e7 cb b3 be e7 53 bd 3c 9d c9 98 bc e3 42 ae 3d
       -0.35116503 0.023111297 -0.018650824 0.085088514
000020 9f 31 35 bd eb 86 1a bd 2e 55 67 3d cf 8d dc bd
       -0.044236775 -0.037726324 0.056477718 -0.10769235
000030 ac 02 c6 bb bb 72 0d be 2a 5b 26 3e a7 a6 fd bd
       -0.006042799 -0.13813297 0.16245714 -0.12385302
000040 b2 db 61 be 2f 2f a3 bc ff 61 11 3e fb 99 96 3c
       -0.22056463 -0.01991996 0.14197539 0.01838397
000050 0e 59 72 be 6a f4 a6 3d 2c e8 7e bd b1 a1 56 bd
       -0.23666784 0.08152087 -0.062233135 -0.052400295
000060 f6 de 2d 3e 09 40 8a 3d ed 87 82 be 2e 99 48 be
       0.16979584 0.06750495 -0.25494328 -0.19589683
000070 15 7b 30 be 3d 97 cb bd 16 b8 f0 3d ac a4 39 3d
       -0.17234452 -0.09940956 0.117538616 0.04532306
000080 9c 1c 18 bd 73 60 0d 3e cf cc 3a 3d 9b 70 9e 3d
       -0.03713666 0.13806324 0.045605477 0.077363215
000090 89 e1 22 3d 06 14 5e 3b 61 23 98 3d 70 32 7e 3e
       0.03976587 0.0033886447 0.07428623 0.24823928
0000a0 8b de fe 3d 41 67 75 3d c0 cf a5 bd f3 fb 8a bc
       0.124447905 0.059912924 -0.08096266 -0.016965842
0000b0 64 f3 75 be 65 b4 c3 bd 3e 9b 19 3e 53 ac 1d be
       -0.24018627 -0.09555892 0.15000626 -0.15397768
0000c0 ea 2c 06 be 55 2e 5e be a8 f7 0c be 8e b6 c9 bb
       -0.13103071 -0.21697362 -0.13766348 -0.0061557954
0000d0 04 7f 3c be 21 fb ac bd 77 d3 78 be 9c 44 0a bd
       -0.18407828 -0.084463365 -0.24299417 -0.033756837
0000e0 92 37 bf bd 2d 0d 8a 3d d6 f8 7a 3d fb 27 0a 3e
       -0.09336771 0.06740794 0.061272465 0.13491814
0000f0 89 d3 5b be dc e0 c2 bd fe dc b2 bd 0a fa 20 be
       -0.21467413 -0.09515545 -0.08733557 -0.15720382
000100 3a c0 7b be fb bc ac bd 45 88 00 be 54 aa 96 be
       -0.24585047 -0.08434483 -0.12551983 -0.29426825
000110 a4 5c 2f be f5 c7 01 be 7c 9a 33 be 9f 69 0c bb
       -0.17125183 -0.12673934 -0.175394 -0.002142526
000120 13 ac 55 be 9d f9 80 bd 56 b2 10 be 73 7c ef 3d
       -0.20866422 -0.0629761 -0.1413053 0.11693659
000130 f9 27 a8 bb f0 19 58 be 7e fd e3 bc 4a 75 f6 3d
       -0.0051317182 -0.21103644 -0.027830835 0.1203409
000140 2f 63 07 be f7 4c d8 bb 17 90 aa bd 40 3f 17 be
       -0.1322143 -0.006600972 -0.08328264 -0.14770222
000150 f4 5e cf 3d 33 ca 10 be 2b 85 02 3d 2e 79 41 bd
       0.10125533 -0.14139633 0.03186528 -0.047234707
000160 52 fb 7c 3d 76 f3 b4 bd af b1 f4 bd ae 5e 2b be
       0.061763115 -0.08835499 -0.11947953 -0.16735336
000170 19 cd 49 be 45 10 26 3d 0e a0 36 be 9d da 1d 3e
       -0.19707145 0.04054286 -0.17834494 0.15415426
000180 4a 57 ea bd 0a 3d b7 bc c0 e4 cc bd 4d d7 f5 3d
       -0.1144243 -0.022367973 -0.10004568 0.12003956
000190 9a ae 2f be b0 18 54 be 72 3e a9 bc 38 f6 84 3d
       -0.17156449 -0.20712543 -0.020659659 0.06492275
0001a0 98 65 f0 3b 7c b9 89 be 4d 35 99 3e 3e fd a1 bc
       0.0073363297 -0.26899326 0.29923478 -0.019774076
0001b0 fc fb 19 3e 70 ff 2c be 8c e1 e7 bd 96 a2 2e be
       0.1503753 -0.16894317 -0.113223165 -0.17054209
0001c0 cd c5 bd 3d 81 ab 17 bd 69 1b f7 3d be 37 1e 3e
       0.09266243 -0.037028793 0.12065775 0.15450951
0001d0 13 fe bd 3d 1f 3b 11 3e 5f 28 dc bd 1a ff 32 be
       0.092769764 0.14182709 -0.10749888 -0.17480126
0001e0 8a cb 4e 3e b4 79 4d be 2a 62 31 bd cd 56 ec 3d
       0.20194831 -0.20065957 -0.043306507 0.115399934
0001f0 dc 27 40 bc ec 3b 5b bd c5 58 15 bd 61 88 4d 3e
       -0.011728253 -0.053523943 -0.03646161 0.20071556
000200 44 1e 97 bd 19 4c ea bd 96 e5 17 3e 8f c3 59 be
       -0.073788196 -0.11440296 0.14833674 -0.21266006
000210 2a a6 ee bc 81 d8 20 3e 03 84 96 3e d3 f0 21 bc
       -0.029131968 0.1570759 0.29397592 -0.009884077
000220 4b 4e 79 3e d6 0e 21 3e 5b d0 0d 3e 90 df a9 3c
       0.24346273 0.15728316 0.13849013 0.020736486
000230 75 ab 90 bd 51 df e1 3d 4b 6b 3d 3e d0 ba f0 3d
       -0.07063953 0.11028922 0.1849796 0.11754382
000240 59 6c af bd 89 22 29 be cc fd 5b 3e 8d 07 28 3e
       -0.085655876 -0.1651708 0.21483535 0.1640913
000250 c5 15 da bd f5 f3 0c bd 95 91 ee bd 14 71 02 be
       -0.106486835 -0.034412343 -0.11648861 -0.12738448
000260 c3 30 47 be ba 09 bd bc 1e fa 49 3e aa 99 04 3c
       -0.19452195 -0.023075927 0.19724318 0.008093277
000270 f0 bd ff bd 42 86 21 3d 49 96 4e be 9f 43 fa bd
       -0.124873996 0.03943468 -0.20174517 -0.12219929
000280 da 88 e9 bd 54 0e 0d 3e b3 52 39 be 72 23 61 be
       -0.114030555 0.13774997 -0.18097953 -0.21986178
000290 d1 d4 59 3e 68 b8 5b 3e 5f fa a3 bd cd 84 7e bd
       0.2127259 0.21457064 -0.08006739 -0.062138367
0002a0 8d 50 3f bd 49 d3 10 be 5b 2c ba 3d 96 77 3a be
       -0.04670768 -0.14143099 0.090904914 -0.18209681
0002b0 db 5a 9c be 8a b6 3a be 69 d2 af bd c0 ef 1c be
       -0.30538067 -0.18233696 -0.085850544 -0.15325832
0002c0 9c 7c 99 bb ed 61 e6 bd b9 49 96 be 0e df 08 be
       -0.004684044 -0.112491466 -0.2935312 -0.13366339
0002d0 2e ca 8f be 25 7b 56 3e 19 0e 95 3d d5 97 2a be
       -0.28083938 0.20945413 0.072780795 -0.16659482
0002e0 ff eb 0c bd cb 13 fa bd 92 04 a0 3d 25 94 98 bd
       -0.03440475 -0.122108065 0.07813372 -0.07450131
0002f0 03 f0 8a be d3 d2 70 3c b5 4a 60 3d 63 ce 1d 3d
       -0.2713624 0.014698702 0.054758746 0.038526904

bias f4 [8]
000000 9d 68 2e be 73 02 8b 3c cb a9 30 be 18 ef 21 be
       -0.17032094 0.016968941 -0.17252271 -0.15813863
000010 77 7d 6a be 07 14 15 be 46 14 01 3d 0f 07 1b bd
       -0.22899424 -0.14558421 0.031513475 -0.03784853

weight f4 [8]
000000 9d f3 7d 3f b1 d9 7c 3f 49 9c 89 3f 66 f5 78 3f
       0.9919985 0.9876967 1.075082 0.9724945
000010 67 a7 7a 3f c0 d5 80 3f e0 7c 83 3f 22 0d 84 3f
       0.97911686 1.0065231 1.0272484 1.0316508

bias f4 [8]
000000 f6 bd 7e 3d 3f d0 cf 3c 27 82 69 3e 8a 5c b2 3c
       0.06219288 0.025367854 0.22803555 0.021772642
000010 68 5d 4b bc e1 53 97 3d 7c 3b 03 3d e8 6e 11 3d
       -0.0124124065 0.073890455 0.03203915 0.03550616

running_mean f4 [8]
000000 74 f0 04 bf 8a 8f 5b bd f1 c0 87 bf 5d bb 20 bf
       -0.519294 -0.053603686 -1.0605756 -0.62785894
000010 35 60 c7 be 1a e5 6d 3e 31 a6 50 be 21 cb 45 bf
       -0.38940588 0.23231927 -0.20375897 -0.77263075

running_var f4 [8]
000000 4a 64 da 3e d6 29 6f 3e a2 d5 3e 3f 6c c6 89 3e
       0.4265464 0.23355803 0.7454473 0.26909196
000010 ef ab 56 3e ee 54 a7 3e 6c 02 87 3e b7 6e 2e 3f
       0.20964025 0.32681984 0.26369035 0.6813769

weight f4 [8, 8, 3]
000000 55 eb 9e 3d 18 1f da 3d 2b 28 c8 3d cd f3 0f bd
       0.0775973 0.10650462 0.097732864 -0.035144616
000010 12 7e 2e bc 74 07 0b be e1 41 3a be 0c dd 45 be
       -0.010650175 -0.13577062 -0.18189193 -0.19322604
000020 2f 61 1e be d8 a2 8e bd ab 97 90 be f1 bf c5 3d
       -0.1546676 -0.06964654 -0.28240713 0.096557505
000030 1d 9e 68 3e d0 50 17 bd fa 09 24 bd 4c ff e0 bd
       0.22716565 -0.036942303 -0.040048577 -0.10986194
000040 0b 70 71 bc b1 fa 4c bd ff 16 03 3e b7 7c 85 bd
       -0.014736186 -0.050043765 0.12801741 -0.06517928
000050 9b 56 ce bb 70 b4 ee bd c0 88 8e be cd 56 2e 3d
       -0.0062969453 -0.116555095 -0.27838707 0.04256325
000060 ac 11 42 be 80 be 1e be d4 29 32 3d 92 45 a7 bd
       -0.18952054 -0.15502357 0.04349692 -0.08167566
000070 84 95 25 3e 01 52 45 bd f8 35 18 be 54 17 25 be
       0.16170317 -0.04817391 -0.14864337 -0.1612218
000080 c7 14 89 be 18 2d bb 3d 80 b7 c8 3c 9e 33 4c 3d
       -0.26773664 0.0913946 0.024501562 0.049853913
000090 d6 d7 4b 3e 5e 4f 90 bd 6b b3 bc bd 1a fd b6 3d
       0.19906554 -0.07046388 -0.09213909 0.08934994
0000a0 49 ee 18 be 4b 48 f1 3d 91 b9 63 3c 57 dd 63 be
       -0.14934649 0.11781367 0.013899223 -0.22252403
0000b0 55 3b f3 bd 87 68 23 be bc 32 33 3e 38 e9 f8 bd
       -0.11876551 -0.15957843 0.17499822 -0.12153858
0000c0 05 b4 77 be b3 6f 73 bd 6d 94 07 3e c7 8f 13 3e
       -0.24189766 -0.059432697 0.13240214 0.14410315
0000d0 8a 5b e6 3d 46 31 f0 bd 7c f3 71 be 07 d5 11 be
       0.112479284 -0.11728148 -0.23628038 -0.1424142
0000e0 89 fc 68 be 84 71 1b 3e e9 cd b8 bd 79 a1 64 ba
       -0.22752585 0.15180022 -0.09023649 -0.0008721571
0000f0 f4 70 b4 3c 37 0c 08 3e 39 70 35 3e 8d b4 2d be
       0.022026516 0.1328591 0.17718591 -0.16963406
000100 b3 de af 3d 31 a1 74 be 8a 19 a8 bd ab c7 61 be
       0.085873984 -0.23889615 -0.08207996 -0.22048824
000110 ab 53 88 3d af 77 c4 bc fe a1 36 be 89 3c 51 3e
       0.066565834 -0.02398285 -0.17835233 0.20433249
000120 aa 01 a9 bb b9 31 8c 3d 84 82 0a be 68 47 9f bd
       -0.005157669 0.06845421 -0.1352635 -0.077772915
000130 c9 78 35 bd 3a 78 05 3e 37 0e 5d bd 4d 5c 6d be
       -0.044304643 0.13034144 -0.053968634 -0.23179741
000140 67 a7 78 be 90 3a d9 bd ef 15 67 bd 62 07 84 3e
       -0.24282609 -0.10606873 -0.056417402 0.25786883
000150 df 46 f1 3d 67 4f c6 bd a8 76 b6 3d b5 a4 8c bd
       0.11781096 -0.096831135 0.08909351 -0.06867353
000160 f5 a1 c6 bd 8e 97 45 3e 39 b5 7d be d8 c9 77 be
       -0.096988596 0.19296095 -0.24776162 -0.24198091
000170 ff 17 06 3e bf a4 e2 bd a1 b3 8c be 56 31 b3 3d
       0.13095091 -0.11066579 -0.27480796 0.087496445
000180 25 54 94 3d da 08 79 be 0d d4 48 3b f2 48 9c 3d
       0.07242612 -0.24319783 0.003064397 0.07631101
000190 92 50 9b 3e ae 60 ef 3c 6d 50 2c be a0 83 6a be
       0.30334908 0.029220905 -0.16827555 -0.22901773
0001a0 40 4f c7 bd 75 7b f9 3d e5 b7 a4 3c 0f d3 0b 3e
       -0.097319126 0.12181751 0.020107219 0.13654731
0001b0 d6 31 5b 3d 2f d0 30 be 0c 55 37 3e 3d 97 eb 3d
       0.053514324 -0.17266916 0.17903537 0.11503456
0001c0 9b d9 1f be 13 b3 66 3d 65 96 16 3d e3 a3 b5 bd
       -0.15610354 0.056323122 0.03676452 -0.088691495
0001d0 6b 93 b6 3d a0 e1 49 3d b7 8d 86 bd a3 66 bc 3c
       0.089148365 0.04928744 -0.06569999 0.02299816
0001e0 c7 d0 fb 3d 8e ef a6 3d 05 6d 0f 3e 19 6a e6 3d
       0.122956805 0.0815116 0.14006431 0.11250705
0001f0 7e 07 83 3e 95 94 01 3e 1d 4d f0 bd e3 7b d5 3d
       0.25591654 0.12654336 -0.11733458 0.1042402
000200 59 6a b2 bd dc 4a 04 3e 35 d4 51 bd a1 26 02 bd
       -0.087116905 0.12919182 -0.051227767 -0.03177512
000210 6f c2 a4 3d c2 d5 16 be 64 f6 1e 3d e9 21 76 3e
       0.08044898 -0.1472998 0.038809195 0.24036373
000220 2c 3b d8 3d 87 89 1b 3e aa ca 39 bd f1 f5 b9 bd
       0.10558161 0.15189181 -0.04535929 -0.09080113
000230 5c 8a 1b 3c 34 d7 a0 bd 1e 11 b6 bd 9b 7f 4c bd
       0.009493437 -0.07853547 -0.088899836 -0.04992638
000240 8a 82 8a be 48 a4 45 bc 43 98 17 3e 2a ac a6 be
       -0.27052718 -0.0120630935 0.14804177 -0.32553226
000250 ee 31 03 3e 5e 0a 01 bd 7b a6 67 3d 2a 9c e8 3c
       0.12812015 -0.031504028 0.056555253 0.028394777
000260 4e 1d 64 bc 17 b9 3e bc 5e c6 a5 bc 96 80 73 3e
       -0.013923002 -0.011640809 -0.02023619 0.2377952
000270 9d 81 de 3d b9 bf db bd 54 f0 eb 3d 72 fe 8c be
       0.108645655 -0.107299276 0.11520448 -0.27537876
000280 53 74 ff bd 10 49 bd 3d 36 15 00 be 0f d5 1e be
       -0.12473359 0.09242451 -0.12508091 -0.15510963
000290 d9 45 26 bd d8 a0 4f be 5d 23 88 be e7 db 9a bd
       -0.040593956 -0.20276201 -0.2658948 -0.07561474
0002a0 7d 6a 62 be b9 1b 21 3e 0f 53 23 3d dc f4 e8 3d
       -0.22110935 0.15733232 0.039874133 0.11374828
0002b0 43 7a 10 3e 95 ab 94 be 58 6a e9 bc 1f ad ab bd
       0.14109139 -0.29037157 -0.028493091 -0.083826296
0002c0 6f db c7 bd 4f 30 ac 3d b2 9b a0 3d 14 0e 8a bc
       -0.097586505 0.08407652 0.078421965 -0.016852416
0002d0 91 44 21 be e3 60 e5 bc cc 41 f5 bd 02 c7 8a bd
       -0.15748812 -0.0280003 -0.119754404 -0.06776239
0002e0 00 ad b0 bd b6 97 22 be dc 19 35 3e 1b 49 90 be
       -0.08626747 -0.15878186 0.17685646 -0.28180775
0002f0 fb 46 77 3d 2a a9 93 be 74 3c 0c be 3f d5 f6 bd
       0.060370427 -0.2884 -0.13694936 -0.12052392

bias f4 [8]
000000 27 22 79 3d 7f 91 d2 bb e0 e0 16 be 9e c9 59 3d
       0.060823586 -0.006426036 -0.1473422 0.053170793
000010 29 36 1e 3c 7a bd e7 3a a2 9f e2 bc 14 45 e9 bd
       0.0096564675 0.001768037 -0.02766401 -0.11390129

weight f4 [8]
000000 91 5b 49 3f 6a 31 4f 3f 1e 69 4b 3f 69 dd 40 3f
       0.78655344 0.80934775 0.7945727 0.75337845
000010 df e2 2f 3f bf 13 4d 3f 50 de 48 3f 18 ef 57 3f
       0.6870555 0.80108255 0.7846422 0.84349203

bias f4 [8]
000000 61 c4 3f be ee 1a ff bd 98 d2 1e be 21 2c 5f be
       -0.18727256 -0.12456308 -0.15510023 -0.21794178
000010 52 37 b1 be db 9a 23 be 50 5d 43 bd 50 60 e8 bd
       -0.3461252 -0.15977041 -0.04769641 -0.11346495

running_mean f4 [8]
000000 80 ac ba be 0f da ef be b9 31 0c bf 89 c3 cc be
       -0.36459732 -0.46846053 -0.5476337 -0.3999293
000010 44 94 3e bd 4a b5 98 3e 1e 7a e1 be a5 b1 1e bf
       -0.046528116 0.29825813 -0.4403848 -0.61989814

running_var f4 [8]
000000 f7 0c cb 3d cf a7 0d 3e 74 87 28 3e ec a7 eb 3d
       0.09914582 0.13833545 0.16457921 0.11506638
000010 97 c9 25 3e fe 6e 6d 3e 95 81 81 3e 1b bc 04 3e
       0.16190182 0.23186871 0.25294176 0.12962382

weight f4 [128, 25]
000000 6e 26 0d 3e f1 74 ae 3e d2 04 b5 3e dc e4 65 be
       0.13784191 0.34073594 0.3535524 -0.22450584
000010 ff c4 24 3d 91 11 5d be 77 93 3f 3e 56 db ae 3e
       0.040226933 -0.21588732 0.18708597 0.34151715
000020 71 b3 89 3b ed 08 84 3d 2e 17 24 be 9d 3a 48 3d
       0.0042022993 0.06447015 -0.16024467 0.048884023
000030 65 41 0d 3d dd d4 1b 3e 0a 05 81 3d bd 11 62 be
       0.034486193 0.1521792 0.06299789 -0.22077079
000040 ec d1 47 bd ae 81 88 be 76 4d d1 be 13 7f 04 3d
       -0.04878418 -0.26661438 -0.4087941 0.03234775
000050 d2 09 da 3d 43 52 71 3e 03 12 76 3e 18 23 25 be
       0.10646404 0.23566537 0.24030308 -0.16126668
000060 21 27 9a 3d eb d8 a4 3d f2 c6 f8 bd 6e 72 44 bd
       0.075269945 0.08049186 -0.12147321 -0.04796069
000070 25 da e9 3d 0f a8 f0 3d dc 89 06 bd 1f e8 f6 bb
       0.11418561 0.11750805 -0.032846317 -0.007534995
000080 21 57 09 3e 57 6a 74 bd 25 56 fd 3d 1b 1d 21 3e
       0.13412143 -0.059671726 0.123699464 0.15733759
000090 da ec ec bd 14 5e dc bd 90 54 2a be 99 37 de 3d
       -0.11568613 -0.107601315 -0.1663382 0.10850448
0000a0 d5 a6 4a bd fd a6 18 3e 6a 82 52 3e 3d e8 af 3e
       -0.04947551 0.14907451 0.20557562 0.3435687
0000b0 a2 6f 40 3c 30 8c 42 bd d9 3d 4a bd dd ce 20 3d
       0.011745365 -0.047496974 -0.04937539 0.03925978
0000c0 b4 1d 91 bd 25 55 b4 bc 46 3a 7c 3e c1 ea ec bd
       -0.070857435 -0.022013256 0.24631605 -0.11568213
0000d0 bf fc a2 bd da cf 36 be ed 70 19 3e f0 a4 22 bd
       -0.07958364 -0.17852727 0.14984484 -0.039708078
0000e0 38 11 98 be 69 ba 68 be 19 56 02 3e cf aa 1f 3e
       -0.29700637 -0.2272736 0.12728156 0.15592502
0000f0 cd 8f 83 3d 28 8b a7 be d5 a0 06 3e 35 2c 18 bc
       0.06423912 -0.32723355 0.1314729 -0.0092878835
000100 fe aa 80 3c 67 1e 09 be 3a 87 7b 3e ca 2d be 3d
       0.015706535 -0.13390504 0.24563304 0.09286077
000110 4d b9 67 bd 20 d3 a4 be 84 ec 09 be 99 f3 69 3e
       -0.0565732 -0.32192326 -0.1346913 0.22846831
000120 5f 92 96 3d b6 b9 85 3d c1 9f 9f be 13 e1 0e 3e
       0.07352137 0.06529562 -0.3117657 0.13953047
000130 49 24 16 3e a1 60 20 3e 18 f6 95 3e 7a 74 82 3e
       0.14662279 0.15661861 0.29289317 0.2547949
000140 86 f5 cb bd c6 b0 08 be c3 40 cb bc fa 66 9a 3d
       -0.09958939 -0.13348684 -0.024811154 0.075391725
000150 1f bf 92 3b 4f 53 00 3d 75 65 d9 bd 8e 82 75 3d
       0.00447835 0.03132945 -0.106150545 0.05993896
000160 0b 17 27 be df 73 db bc 2d f2 17 be f5 79 72 bd
       -0.16317384 -0.02678865 -0.14838476 -0.05919834
000170 75 97 c7 bd 88 42 6b 3e 20 aa b5 bd 4d 1c 05 3e
       -0.09745685 0.22974598 -0.088703394 0.12999077
000180 4b 4f 44 3d 2b 77 13 bb c6 58 7e 3e 3f 92 dc bc
       0.047927182 -0.002250145 0.24838552 -0.026925204
000190 58 82 68 3d 47 3e b2 3e 3d fc 0f 3e 88 15 b0 bc
       0.05676493 0.3481314 0.14061065 -0.021494642
0001a0 64 8a 0e 3e 3f b5 c7 bd e9 fe ba bd c3 85 99 3d
       0.1391998 -0.09751367 -0.091306515 0.07496216
0001b0 8f 03 23 3d 78 fa 23 3e 3e 4c de bc 80 85 42 be
       0.039798316 0.16013515 -0.027135964 -0.18996239
0001c0 35 a7 0a 3d d8 36 d7 3d 8f 55 a0 3d d1 80 8e be
       0.033850867 0.105085075 0.07828819 -0.27832654
0001d0 cf 80 6f 3e 62 ec c0 bc 93 a4 9b bd db 57 a6 be
       0.2338898 -0.023550216 -0.075997494 -0.32488903
0001e0 fe 8e 09 bd f1 4b 65 3d 29 08 0b 3e e3 10 3f 3e
       -0.033583634 0.055980626 0.13577332 0.18658786
0001f0 3a 5a 1f be 36 9e ed 3d f8 7b 4a be f4 c0 6d 3c
       -0.15561762 0.11602442 -0.19773853 0.014511336
000200 34 d3 b9 3c fe 48 1a 3d 9e 90 85 3d 68 95 bb 3c
       0.022683717 0.037667267 0.06521724 0.02289839
000210 da dd ae 3e 5d 54 a5 3d 22 e8 52 3e 61 f3 07 3e
       0.34153634 0.08072732 0.20596364 0.13276435
000220 fb 81 dc bd 8a 7c 5e 3d be 47 89 bd 5a 5d 1c be
       -0.10766979 0.05431799 -0.06703137 -0.15269986
000230 8f f8 d4 bd 5f 3f 06 3e b1 7b 6d 3c e2 14 6f 3e
       -0.10398971 0.13110112 0.014494822 0.2334781
000240 7d d5 7a 3d 4e ad c2 bd ac 0c 27 be 9d cd 1d be
       0.061238755 -0.095057115 -0.16313428 -0.15410466
000250 5a b5 ca 3d 31 2f bd bc f4 fc f8 3d 96 c6 84 be
       0.09897871 -0.023093792 0.12157622 -0.2593276
000260 c9 6b 82 3e 37 48 8a be 42 66 07 3e e4 aa c1 3d
       0.2547286 -0.2700822 0.13222602 0.09456423
000270 2e 81 b5 3d cc 31 12 3e 4d b6 71 3e 82 e1 ca bc
       0.0886253 0.14276809 0.23604698 -0.024765734
000280 76 e8 48 3e 96 6f 1f 3a 2d ba 07 be 9b 3d 8b 3d
       0.19619927 0.0006081996 -0.13254614 0.0679886
000290 ca 34 3e 3d c8 63 8b bd f7 68 a9 3d 2a d0 93 bd
       0.046437062 -0.06806141 0.082719736 -0.072174385
0002a0 f4 ed 2d 3e 34 88 b7 3d 45 f0 94 3e 90 1a 85 be
       0.16985303 0.089615256 0.2908956 -0.25996828
0002b0 47 ac 96 3d 97 b7 38 be c2 6a d5 3d 83 64 a5 be
       0.07357078 -0.18038784 0.10420753 -0.32303247
0002c0 27 ac 0c 3c be 2a 40 be e8 62 22 3d ce 71 68 be
       0.008585966 -0.18766305 0.039645106 -0.22699663
0002d0 d9 c6 cb be f1 47 1f bf 92 b2 b9 be 9e 49 39 be
       -0.39800146 -0.6221915 -0.3626905 -0.18094489
0002e0 f2 11 d7 3d e8 d0 e8 3d 4a c2 30 3e cc 51 43 bd
       0.1050147 0.11367971 0.17261615 -0.04768543
0002f0 f3 ad 72 bd 6c 0d db bc bd 34 cf 3c bf 5c 51 3e
       -0.059247922 -0.026739798 0.025293702 0.20445536
000300 25 be aa 3c aa a3 85 bd f0 0e 68 bc 42 a2 e6 3d
       0.020842621 -0.06525357 -0.014163718 0.11261417
000310 0d c8 0b be 43 0b 02 3d 1c 8d 1b 3c e0 e1 87 3d
       -0.13650532 0.03174902 0.009494092 0.06634879
000320 79 c8 80 3d d7 c1 05 3c 3c d2 9b 3d 90 b2 d9 bc
       0.06288237 0.008163891 0.076084584 -0.026574403
000330 33 9b 52 bd ba 40 2a 3d 58 a8 37 3e 7f 06 1e 3e
       -0.05141754 0.041565634 0.17935312 0.15432166
000340 bf 60 ba bc 9a 58 86 be 99 03 1b 3c d1 0e 95 3d
       -0.02275121 -0.26239473 0.009461307 0.07278217
000350 b2 20 fd bd 0d 6a 0d be fe ca 27 be be 4b 07 3e
       -0.12359752 -0.13809986 -0.16386029 0.13212487
000360 37 32 17 3e f9 40 ee 3c 24 a8 c8 be 44 11 43 3d
       0.14765249 0.029083716 -0.3919078 0.047623888
000370 e0 ef 28 3d fd 7f 62 3d 31 29 a1 be f5 ff 17 be
       0.041244388 0.05529784 -0.3147674 -0.14843734
000380 ad 25 95 bd 5b fc a1 be c2 8e cf bd 27 27 39 3e
       -0.07282577 -0.31637844 -0.10134651 0.18081342
000390 88 76 b1 3e df f7 ac be e8 d6 83 bd 1a 15 92 bc
       0.34660745 -0.3378286 -0.064374745 -0.017832328
0003a0 15 c0 0c 3d 71 d6 49 3d 99 85 4b 3d 92 6c 78 3d
       0.03436287 0.049276773 0.049687956 0.060650416
0003b0 f0 d4 03 3d eb c8 ea bc 58 e7 04 3d 49 1b 58 3e
       0.032185495 -0.028660258 0.03244719 0.21104158
0003c0 0e a0 4d 3d ae 55 51 bd ad 79 5c 3d d4 16 6e 3e
       0.05020147 -0.0511071 0.053826977 0.23250896
0003d0 35 3d 47 be 88 60 1e be ea 18 02 be 59 f0 3a 3e
       -0.19456942 -0.15466511 -0.12704816 0.18255748
0003e0 55 82 fc bb 18 34 e6 bd cd af 5d be a8 c6 ca be
       -0.0077059665 -0.11240405 -0.21649094 -0.39604688
0003f0 ba fb 0e 3e 19 14 66 3e b1 26 75 3e 6d ea 72 be
       0.13963214 0.22468604 0.23940541 -0.23722239

bias f4 [128]
000000 7e ae b8 3d 86 de 11 3d a5 cb 62 3d 26 e6 18 3d
       0.09017657 0.035612606 0.05536999 0.03732886
000010 e5 5d 99 3d 83 c8 34 bd bc 9f 05 be fd b1 0b 3d
       0.07488612 -0.044136535 -0.13049215 0.03410529
000020 9b 96 21 3e 32 c9 00 be 43 a9 47 be 4c fc 84 3d
       0.15780108 -0.1257675 -0.19498162 0.06493434
000030 9e 2a 5b 3e f7 4a 5c 3d 3d 35 35 bd 6d b9 4b 3d
       0.21402976 0.05378243 -0.044240225 0.049737383
000040 48 60 23 bd f5 63 02 3d 02 d3 b4 3d 76 bb 9e 3d
       -0.039886743 0.031833608 0.08829309 0.07750599
000050 ea 1a 60 3e ab 32 8b bd 6b 3a 24 3d 9b d0 00 3e
       0.21885267 -0.067967735 0.040094774 0.12579577
000060 d2 39 f0 bd 7b 69 2e bb 04 47 f7 3c 76 88 23 bd
       -0.11729778 -0.0026613164 0.03018523 -0.03992506
000070 0b f7 12 3d 43 e5 fa 3d 96 aa 9a bd 01 f3 53 3e
       0.03588013 0.122507595 -0.07552068 0.20698167
000080 e3 49 96 3c 16 56 e0 3d 22 67 88 3d 88 50 dc bc
       0.018345779 0.109539196 0.06660296 -0.026893869
000090 43 a1 7e bd 48 0a e3 bd a7 36 c4 bd e1 ff 36 be
       -0.06216551 -0.11085945 -0.095807366 -0.17871048
0000a0 73 a3 ef 3d 7c 92 03 3d 9f 52 5e 3d 6f 6c 98 3c
       0.11701097 0.03212212 0.054278012 0.018606393
0000b0 d9 db a5 bd d3 45 a6 bd 04 af 58 3d f6 bc cb 3d
       -0.08098573 -0.08118787 0.052901283 0.09948151
0000c0 eb 2a 08 3e 53 86 f3 bc 4d 98 e0 3c 9c d7 a8 bd
       0.13297622 -0.029727137 0.027416373 -0.08244249
0000d0 ac fb 8d 3d 95 f3 13 3e 22 d4 4d bd 01 78 86 bc
       0.06932768 0.14448388 -0.050251134 -0.016414644
0000e0 09 fa a5 bc de e9 1e 3e c1 86 89 3d fe fa b1 3d
       -0.020260828 0.15518901 0.067151554 0.08690451
0000f0 0d c6 fe 3a 5c 46 8d bd 52 84 1b be 43 41 dd bb
       0.0019437686 -0.068981856 -0.15187195 -0.0067521646
000100 c6 f7 2c 3d 28 21 a4 bd d2 d6 10 be 5a c7 78 3d
       0.042228483 -0.080141366 -0.14144447 0.06073699
000110 37 54 cd bd 80 52 03 3d 94 1b 47 3d 42 22 e8 3d
       -0.10025828 0.0320611 0.048610285 0.11334659
000120 a9 4f 8f 3d 01 d8 96 bd f5 3f 6e 3b f5 c5 45 bd
       0.06997616 -0.07365418 0.003635404 -0.04828449
000130 9a 6c 36 3e 28 87 f5 3d 8d 16 34 3d db bb e3 3d
       0.17814866 0.1198867 0.04396682 0.11119815
000140 f7 85 67 bc 77 bd 19 3e 54 55 01 be ea a2 d3 3c
       -0.014131061 0.15013681 -0.12630206 0.02583452
000150 5c 19 17 be 8c c9 2e 3e 9e 88 8b 3e 51 72 ed bb
       -0.14755768 0.17069072 0.27252668 -0.0072462936
000160 ec 20 5c bd 5d 12 5f 3c 66 9a 9c 3d 3b 0d 21 3e
       -0.053742334 0.013615218 0.07646637 0.15727703
000170 4f 80 8d 3d fa fb 21 be 1d b9 6b 3d aa c3 ac bd
       0.069092385 -0.15818778 0.057549585 -0.084357575
000180 2c cb 9e 3d 3d e8 97 3d 1d 34 ad bc cd 59 44 bd
       0.07753596 0.07417343 -0.021143014 -0.047937203
000190 a4 75 e7 bc ad ae 16 3e 29 10 81 3c bc 89 31 be
       -0.028254338 0.14715071 0.015754776 -0.17337698
0001a0 e5 2a d8 3d 18 5d bc bd 06 5d c9 bc 4f 5e c5 3d
       0.105550565 -0.09197444 -0.02458049 0.096371286
0001b0 1f 4f d0 bd 6a 06 0d bd 18 e6 05 3e c4 8e 19 bd
       -0.10171341 -0.034429945 0.13076055 -0.037489668
0001c0 5f a2 31 3e da b4 32 3e 62 fe 27 be 63 bd c2 3d
       0.17347096 0.17451802 -0.16405633 0.09508779
0001d0 51 4b 00 3e a2 6f 8b bc c9 6d d5 bd 80 3c ae bd
       0.12528731 -0.017021004 -0.104213305 -0.08507633
0001e0 51 0b 57 bd 78 f3 e8 3d b1 8c be 3d e7 e4 91 bd
       -0.052501027 0.11374563 0.093041785 -0.07123738
0001f0 6e 20 c8 3c 8a ea 1b 3d bb ab eb 3d 94 9d a6 3c
       0.024429526 0.03806547 0.11507364 0.020338811
