nn/checkpoints/main_material_different/0/model_30.pt (torch, 451442 bytes, 98 tensors)

weight f4 [8, 5, 3]
000000 35 93 6b 3d 0e dd 57 3e d3 a9 b6 bd 9b a4 24 be
       0.057513434 0.2108042 -0.0891911 -0.16078417
000010 7a c9 89 3e b4 30 84 be 6a 4e 08 bd 7b bf 66 3e
       0.26911527 -0.25818408 -0.033277906 0.22533982
000020 11 fd 52 be 49 69 e6 bd 54 ff 09 3e 08 4a 77 be
       -0.2060435 -0.1125055 0.13476306 -0.24149334
000030 c9 87 81 be b2 18 9d 3d 2f 85 06 be a4 e0 d8 bc
       -0.25298908 0.07670726 -0.13136743 -0.026474304
000040 94 c6 09 be 58 71 0f 3e fd ad 03 3e 12 dd bd bc
       -0.13454658 0.14008081 0.1285934 -0.023176704
000050 6e b6 86 be 8a 7a 89 3a c6 44 35 be 6f cc 11 be
       -0.26311058 0.001048879 -0.17702016 -0.14238141
000060 27 2d 66 bd 29 fe b4 3b 03 15 83 3e 75 ee 94 bd
       -0.056195404 0.0055234623 0.25601968 -0.072720446
000070 fc 3a 2c be de 83 93 bc 22 37 0e bd 13 0d a1 be
       -0.16819376 -0.018007215 -0.034720547 -0.31455287
000080 a8 85 4d 3e 26 6c 75 be 6b 01 60 3c f1 7f af bd
       0.20070517 -0.23967037 0.013672213 -0.08569325
000090 8c a4 e7 3d 6c ab ea bc ed 2f 5e 3e cc a3 a7 bd
       0.11310682 -0.028646193 0.2169797 -0.08185539
0000a0 89 d8 35 3e 4f ab 66 be 67 f6 aa bd b3 a8 30 be
       0.17758383 -0.22526287 -0.08347779 -0.17251854
0000b0 2b 32 cc 3d a1 c5 a6 3e ab 80 b7 3c fc 7d a7 3e
       0.09970506 0.32572654 0.02240022 0.32713306
0000c0 ce c5 7b bd cd 4b 6f be 39 51 0a be ba ee dd 3d
       -0.061467938 -0.2336876 -0.13507546 0.10836549
0000d0 11 6d 1b 3e 6d 55 60 3e e3 23 de bd 95 42 2a 3c
       0.15178324 0.21907587 -0.108466886 0.010391851
0000e0 bd da 3c 3e d7 68 bc 3d 0a 36 e4 bc c0 30 7a be
       0.18442817 0.09199684 -0.0278578 -0.24432659
0000f0 27 06 89 be f9 39 a5 bb 7d fb b3 3c 04 22 a0 bd
       -0.26762506 -0.0050423113 0.021970505 -0.07818988
000100 5a eb 38 3e 71 c7 d0 bc fd c6 8b bd 8f 99 20 3e
       0.1805853 -0.025485726 -0.068250634 0.15683578
000110 6a b5 97 bd b7 06 dd bc eb 43 e3 bd 26 da 1b bd
       -0.07407649 -0.026980741 -0.11096939 -0.03804984
000120 01 f3 32 be 87 48 25 3e f9 76 8f bc 0e b6 52 3e
       -0.17475511 0.16140948 -0.017512785 0.20577261
000130 32 f3 dc bd 98 52 a8 bd 7a 3e 1b 3e 54 0d df bd
       -0.10788573 -0.082188785 0.15160552 -0.10891214
000140 59 fc f0 bc 0e 2d 17 bd e1 81 a9 3c 85 62 93 bd
       -0.029417204 -0.036908202 0.020691814 -0.071965255
000150 fb d9 0f 3e 89 d9 92 bd 8a 04 d4 be de 40 f8 bd
       0.14047997 -0.07170398 -0.41409713 -0.121217474
000160 9c 73 a4 3d d6 49 25 be 6d 51 8e 3e 09 0c 00 be
       0.08029863 -0.16141447 0.27796498 -0.12504591
000170 50 0a 40 3d 9a d6 89 bd 7e cc 85 3c be 30 f9 3d
       0.046884835 -0.06730385 0.016332861 0.121675
000180 b2 09 a6 bd 5b 37 e3 3d 69 b7 05 3e 9a 73 68 3e
       -0.08107318 0.110945426 0.13058247 0.22700348
000190 a3 bd 17 3e 5b fa 84 be 30 52 e0 bd 4d 5c 86 3e
       0.14818434 -0.25972256 -0.10953176 0.26242295
0001a0 56 6b d3 bd 92 63 a4 ba 03 c9 b3 3e 38 80 89 bc
       -0.10323207 -0.0012541881 0.35114297 -0.016784772
0001b0 88 60 5e 3d 93 bb eb bd ee 94 e5 3d 8f a7 72 3e
       0.054291278 -0.11510386 0.11210047 0.23696731
0001c0 79 a5 cb 3c 07 c6 63 be a0 e5 77 3e fd 9a f1 3d
       0.024859177 -0.2224351 0.24208689 0.1179714
0001d0 20 86 ba bd b3 95 24 be 42 51 45 3e 51 77 b8 be
       -0.091076136 -0.1607273 0.19269279 -0.3602853

bias f4 [8]
000000 a6 64 49 be 93 3a 65 be 19 cd 58 3e 6f 91 94 be
       -0.196673 -0.22385626 0.21171989 -0.29017207
000010 75 9a 05 be 32 d1 31 bd a8 23 26 3e ec e2 6c be
       -0.13047202 -0.043412395 0.1622454 -0.23133439

weight f4 [8]
000000 7e c9 88 3f c5 4c 7a 3f 56 af 7b 3f 40 0e 7e 3f
       1.068649 0.9777339 0.98314416 0.99240494
000010 cf e9 8b 3f 91 f1 86 3f 42 34 62 3f f3 b6 80 3f
       1.0930728 1.054247 0.8836099 1.0055832

bias f4 [8]
000000 03 cc d7 bc 00 ae ab 3d 86 00 a1 3b c2 89 1a 3e
       -0.026342398 0.08382797 0.0049133925 0.15091613
000010 2b b4 d2 bd 3b 9a 8e bc 6f 60 98 3d 3a 04 05 bc
       -0.102882706 -0.017407527 0.07440268 -0.0081186835

running_mean f4 [8]
000000 06 67 ea be 34 e8 03 bf af 80 56 bc a3 d4 a4 3d
       -0.45781726 -0.5152619 -0.013092204 0.0804837
000010 d9 91 a9 be d8 7d bd be be 6c f9 3e 37 fd a1 bc
       -0.33119085 -0.37010074 0.48715776 -0.019774063

running_var f4 [8]
000000 1a c7 7c 3f 1d 65 dc 3e 56 4e 8f 3e 6d 21 92 3f
       0.98741305 0.43045893 0.27989453 1.1416451
000010 05 c2 d0 3e 6b b7 25 3f 4c ec 1f 3f 14 0c 21 3f
       0.40773025 0.64733 0.62469935 0.62909055

weight f4 [8, 8, 3]
000000 e2 59 89 be 87 f0 56 bd 2d 79 5f bd 36 87 74 3c
       -0.26826388 -0.05247548 -0.05455892 0.014924815
000010 08 0e a1 3c 37 0d 40 be 36 58 35 bd 0e ec 63 bc
       0.019660011 -0.18755041 -0.044273578 -0.01391126
000020 32 78 17 bd b2 cd 24 3e 59 d4 01 be 9f 96 43 be
       -0.03697986 0.16094092 -0.1267866 -0.19100426
000030 0a 2d 33 be e9 0a 8d bd 0e 81 f7 3d e1 ee 12 be
       -0.1749765 -0.068868466 0.12085162 -0.14348938
000040 ce 62 21 be a2 15 99 3e 1d bb 24 be 35 07 69 3d
       -0.15760347 0.29899317 -0.16087003 0.05689164
000050 2b 88 78 bd e8 a9 9b bd 34 84 15 3e df c1 ca 3d
       -0.060676735 -0.076007664 0.14601213 0.09900259
000060 2a 40 35 be 45 17 77 3e fa d3 26 3e 2d 43 6a bd
       -0.17700258 0.2412997 0.162918 -0.05719297
000070 77 c9 64 3a 16 52 39 3e fd 3e 20 bd a0 43 a5 3c
       0.00087275304 0.1809772 -0.03912257 0.020173848
000080 63 13 8f bd 6a 56 ad 3c 64 3d 0c 3e e9 4b 0f be
       -0.069861196 0.02115937 0.13695294 -0.13993801
000090 f7 a9 7c be 1d 4e 34 3e 99 27 8c bd 4c 98 3a 3e
       -0.24674211 0.17607923 -0.0684349 0.18222159
0000a0 b0 d7 8e bd 5b 2d 4a 3d 6e 0e e8 bd 8b ba ec 3d
       -0.06974733 0.04935966 -0.11330877 0.11559018
0000b0 e1 f2 2d 3e 90 e3 62 3e 10 6c 0a bd 8d c3 c7 bc
       0.16987182 0.2215712 -0.033794463 -0.024385238
0000c0 3b b2 5a 3e 77 c2 3c 3e ba 29 56 be ea ef cd bd
       0.21357052 0.18433557 -0.20914355 -0.100555256
0000d0 c2 77 ac bc 96 65 4a 3e 07 bb 20 3d c0 d4 3a bd
       -0.021053199 0.19765314 0.039240863 -0.04561305
0000e0 ec 71 47 be ef ac 7b 3d f4 d5 90 be dc 37 44 3c
       -0.19477051 0.06144422 -0.28288233 0.011976209
0000f0 2f 17 0e be 31 70 99 bd b8 73 00 be b7 45 84 bb
       -0.13876031 -0.07492102 -0.12544143 -0.004036631
000100 ca b6 29 bb a1 71 89 3c 90 15 5f 3e eb eb 27 bb
       -0.0025896304 0.016777815 0.21785569 -0.0025622796
000110 60 bd 9a bd 00 a8 d5 3d 67 97 b6 3d dd ab 68 be
       -0.07555652 0.10432434 0.089155965 -0.2272181
000120 c0 ad 60 bd 33 75 84 3e 0f d5 4b 3d 65 4b 4f 3d
       -0.0548532 0.25870666 0.049763735 0.05060901
000130 64 38 72 be 6a 14 08 be 0f 93 fb bd 09 22 bb bd
       -0.23654324 -0.13289037 -0.122839086 -0.09137351
000140 83 3d 01 be 3d c5 fe 3d 52 c6 e4 b9 57 29 34 be
       -0.12621121 0.12439964 -0.0004363531 -0.17593895
000150 e6 48 f2 3d 24 4a f1 bb 8b 64 07 3e 22 27 83 be
       0.118303105 -0.0073635746 0.13221948 -0.25615793
000160 d1 28 1a be f8 b7 0f be e2 4d e9 3c e8 ab f4 3d
       -0.15054633 -0.14035022 0.02847952 0.11946851
000170 44 ac 06 3e 71 1a ae bd cd 18 63 3b a3 c9 29 be
       0.13151652 -0.08501137 0.0034652234 -0.16580825
000180 f6 2f 37 3e af 21 69 3d e5 0c 50 3d 29 63 0c be
       0.1788939 0.05691689 0.050793547 -0.13709702
000190 59 d7 f4 bd 3e 4c 8a bc a2 03 85 bc 00 88 65 bd
       -0.11955137 -0.016882058 -0.016237084 -0.056037903
0001a0 7d da 48 3d b1 ca 90 3d 51 c8 17 3e 63 b5 14 3d
       0.04903649 0.0706991 0.14822508 0.036305796
0001b0 fd 5c f5 3d 48 4b 3f be 81 65 40 3e ac 7d 22 be
       0.11980627 -0.18681061 0.1878872 -0.15868253
0001c0 ee c4 09 be 52 db 9b 3d cc 3c 8e 3d f0 df a5 3d
       -0.13454029 0.076101914 0.0694519 0.08099353
0001d0 95 6f 16 3e 03 fd 19 3e cd b2 0c 3e 0b 0f 51 be
       0.14691003 0.15037923 0.13740082 -0.20415895
0001e0 ab 60 7d 3c 17 9a 26 3e b2 e5 bf 3d 8c 2e a3 3d
       0.015464942 0.16269718 0.09369983 0.079678625
0001f0 ae 80 1d be 93 d3 ae bd 76 29 c9 bd e1 16 82 3b
       -0.15381119 -0.08536448 -0.09822361 0.0039700125
000200 44 c3 a8 bd f0 64 da bc 5c f4 55 3e ad 31 1f be
       -0.08240369 -0.026659459 0.20893997 -0.15546294
000210 19 c0 a2 3d 26 ce bd 3d 3d 49 7c 3e e3 94 2c be
       0.07946796 0.09267835 0.24637313 -0.16853671
000220 25 91 18 3e fa 29 f9 bc b4 ad 43 be 8b 71 2b 3e
       0.14899118 -0.030415524 -0.19109231 0.16742532
000230 0d 1e 12 3e 97 aa 7e be 48 61 bf 3b 84 b4 0b be
       0.14269276 -0.24869762 0.0058404543 -0.1364308
000240 6d db bd 3b b9 c0 79 bd 36 df 2f 3e 93 cb 02 3e
       0.00579398 -0.06097481 0.17174992 0.1277297
000250 11 35 ea bd 73 97 7f bd ae fa 27 3e 1c 1f 5e 3e
       -0.11435903 -0.062400293 0.1640422 0.21691555
000260 5e 16 ba bd a0 2d 08 be 12 b8 dc bd 87 0a 28 3c
       -0.090862975 -0.13298655 -0.10777296 0.010256416
000270 d6 5a d1 bb 5b 08 1f 3e 0d 72 a4 3e 68 aa 2d be
       -0.0063890023 0.15530531 0.32118264 -0.16959536
000280 06 c6 06 be 70 eb 54 bd 38 7e 06 3e 84 20 0d bd
       -0.13161477 -0.051982343 0.13134086 -0.034454837
000290 31 b8 07 bd 89 b8 10 be 9c 39 5b bc d7 16 3b 3e
       -0.033134643 -0.14132895 -0.013380434 0.18270431
0002a0 d2 2d 00 3e 87 3f af be bd b3 aa bb 3f 3d 08 3e
       0.12517479 -0.34228155 -0.0052094148 0.13304614
0002b0 82 08 52 3e 23 75 d4 3d fc 2d fb 3b f5 6c ab bc
       0.20511058 0.103739046 0.007665394 -0.020925978
0002c0 6f 17 ec 3d ab ea fe 3d 74 b2 8f 3b ef 44 1d be
       0.11527907 0.12447103 0.004385287 -0.15358327
0002d0 95 80 a1 3e 51 0c 52 be c0 0b 12 be 19 12 2a 3e
       0.31543413 -0.20512511 -0.14262295 0.16608466
0002e0 15 27 fc bd 64 87 be 3c 28 00 02 3e 0b 22 57 bd
       -0.12312142 0.023257919 0.12695372 -0.0525227
0002f0 69 f5 9e bd b1 d6 1d 3d 23 d2 db bd 59 50 a7 3d
       -0.07761652 0.038534824 -0.1073344 0.08169622

bias f4 [8]
000000 22 93 b3 3c 12 37 43 3e 96 fc 26 3e 64 e5 46 3e
       0.021920744 0.19063976 0.16307291 0.19423443
000010 0b 74 2c be 81 b9 67 3d b5 24 15 be a1 37 89 bd
       -0.16841142 0.056573395 -0.14564784 -0.067000635

weight f4 [8]
000000 23 ba 83 3f 7f 86 79 3f d9 70 7d 3f c1 9b 6d 3f
       1.029118 0.9747085 0.99000317 0.92815787
000010 3e 1b 7b 3f c0 be 85 3f cd 83 86 3f 0f b0 84 3f
       0.98088443 1.0448837 1.0508972 1.0366229

bias f4 [8]
000000 bf 01 56 3e 5f 23 98 3c ba ae 84 3d c9 ca c3 3d
       0.20899104 0.018571554 0.06478639 0.095601626
000010 0c 6d 15 bd 6b 81 cf 3d 74 02 c0 3d 4e 4d e3 bc
       -0.03648095 0.101321064 0.09375468 -0.027746823

running_mean f4 [8]
000000 a9 a9 7d be 90 eb c7 3e 58 14 7d 3d 0d 8d 95 bd
       -0.24771751 0.39046907 0.06178698 -0.07302294
000010 6b 15 16 bd 25 1e 1c 3d ad 54 c9 bd 59 24 92 3d
       -0.03664152 0.038114686 -0.09830604 0.07135839

running_var f4 [8]
000000 9f c0 22 3e c0 74 0f 3e eb 13 28 3e a9 17 b9 3d
       0.15893792 0.1400938 0.16413848 0.09037716
000010 59 23 b8 3e 8a 91 86 3d f9 37 7c 3d d8 59 1c 3e
       0.35964468 0.06570728 0.061576817 0.15268648

weight f4 [8, 8, 3]
000000 ac f3 71 3e 78 09 4b be 91 6f 58 3e 00 f8 69 be
       0.2362811 -0.19827831 0.21136309 -0.2284851
000010 5a 50 09 be ce b5 15 3e b7 c3 a6 3d 6a 4d ee bd
       -0.13409558 0.14620134 0.081427984 -0.11635859
000020 49 ab 27 be 99 6a fe 3a c6 1d c6 3d 6c 8b 90 3e
       -0.16373934 0.0019410431 0.096736476 0.2823137
000030 7a b2 85 3d ee 0b ec 3d e1 4d f5 3d 43 b7 17 bd
       0.06528182 0.11525713 0.11977745 -0.037040006
000040 60 07 33 be d3 e2 26 3e 6e 61 ec bc c7 19 17 3d
       -0.17483282 0.16297464 -0.028855052 0.036889818
000050 38 77 d8 3d cc 1f d7 3d 3a 15 d1 3d 48 f9 a2 bd
       0.10569614 0.10504112 0.10209127 -0.07957703
000060 54 01 45 bc 64 29 9a 3e ba 69 7f bd 19 50 95 3e
       -0.012024242 0.30109704 -0.062356688 0.29162672
000070 90 9f 3e 3e 09 18 79 3c 40 7c 8e 3e 9b 54 91 bd
       0.18615556 0.015203484 0.2782917 -0.07096215
000080 2d d5 05 3e 38 15 e7 bc 6c ab 3a bd 4a 47 3f 3e
       0.13069601 -0.02820836 -0.045573637 0.18679538
000090 bb 6f 4a 3c 28 aa c1 bd 1c c1 2a bd 54 d5 28 be
       0.01235574 -0.09456283 -0.04168807 -0.16487628
0000a0 6a bc bd 3b f4 ee 5e bd 19 cc 00 be 61 e3 59 3d
       0.005790283 -0.054427102 -0.12577857 0.05319536
0000b0 e0 77 50 be 4c 96 e5 3d 23 14 1e 3d 1e 09 1e 3e
       -0.20358229 0.112103075 0.038593423 0.15433165
0000c0 3e bb 43 be 06 28 93 be d7 49 0a 3e 65 9f 8a 3d
       -0.19114396 -0.28741473 0.1350473 0.06768683
0000d0 1d 33 20 be 25 73 19 3e b4 b0 1e 3e 96 fc ba 3d
       -0.15644498 0.1498533 0.15497094 0.09130208
0000e0 cf de 5a be 60 0d f9 bb 0f 23 db bd d6 cf f2 bd
       -0.21374057 -0.0076004714 -0.10700046 -0.11856048
0000f0 b9 58 03 bd fd 9b 85 be 2d 35 b5 bd 62 82 d4 3c
       -0.032067034 -0.26095572 -0.08848033 0.025941078
000100 83 45 cc bd 1d 64 2e be 84 c9 c9 3d d3 fd bf bc
       -0.09974196 -0.17030378 0.09852889 -0.023436463
000110 cc 63 0d be ec 98 b8 bb d7 b5 2b 3c 37 87 60 3e
       -0.138076 -0.005633464 0.010480366 0.2192658
000120 d4 d3 3b be cc 8b d1 3d 40 4b bb 3d 68 e5 b2 bd
       -0.18342525 0.10231742 0.09145212 -0.08735162
000130 dd 4e 87 3d 41 10 33 be d8 ab ba 3d b3 14 36 3c
       0.06606839 -0.17486669 0.09114808 0.0111133335
000140 99 1e 8a 3d 39 c1 b5 bd 58 de 40 be 0d 42 43 3e
       0.06744117 -0.08874745 -0.18834817 0.19068165
000150 09 20 46 3e 68 aa 0c be 2f 42 8c 3d c6 e7 f9 bc
       0.19348158 -0.1373688 0.06848561 -0.030506026
000160 fa 75 e3 bd 45 9e fb 3d a5 9b e3 3d 3b 5d a3 bc
       -0.111064866 0.12286047 0.11113671 -0.019941917
000170 76 7f e0 bc 5e 0e d6 3d 98 ad cc 3d 34 4b 88 be
       -0.027404528 0.10451959 0.09994048 -0.26619875
000180 5c 46 2a be b4 26 b6 3c 48 3c dc 3d 0f 4c 62 bc
       -0.16628402 0.022235252 0.10753685 -0.013812079
000190 72 16 80 3e 7b e0 fc 3d 5b 6b 6b bc b4 76 62 bd
       0.25017124 0.12347504 -0.014368857 -0.055288985
0001a0 b9 ce 6b 3d fa 79 d4 bd 21 21 52 be 65 17 9a bd
       0.057570193 -0.10374828 -0.2052045 -0.075239934
0001b0 43 bd 84 3c b5 5d 8d 3d af 4e 5b 3a 92 cf 90 be
       0.016203528 0.06902639 0.0008365912 -0.28283364
0001c0 bf f8 85 bd 07 1c d3 bc dc 65 2d be ac bc 52 be
       -0.06541585 -0.0257702 -0.16933388 -0.20579785
0001d0 a0 29 48 bd 33 e7 be bd 20 0a aa be 96 a1 36 3e
       -0.04886782 -0.093214415 -0.3321085 0.17835078
0001e0 c8 b1 63 3e 1b 2c 71 bd 5d fd bc bd dd 81 bb 3d
       0.22235787 -0.058879953 -0.09228013 0.09155629
0001f0 85 21 8e 3d 7a 28 0a bd 4e 62 ca bc cf 77 85 3e
       0.06939987 -0.033730008 -0.024705078 0.2606797
000200 b6 3b 27 be 0e d5 7f 3d ab 59 b1 3c 85 49 01 be
       -0.16331372 0.062459044 0.021649202 -0.12625702
000210 ff 5b 34 be 46 d0 fe bd 50 c5 fc 3b 54 ba 15 3e
       -0.17613219 -0.12442069 0.007713951 0.1462186
000220 7a b0 89 bb 33 08 86 bd 93 2f 3f 3e ec 69 54 be
       -0.004201946 -0.065445326 0.18670492 -0.20743531
000230 ea 62 86 be ab 9d 96 be a2 a9 06 3e c2 60 c4 3c
       -0.2624734 -0.29417166 0.13150647 0.023971919
000240 bc 49 eb bd bb 32 58 3c f0 ed 2d be aa 29 c0 bd
       -0.11488673 0.013195689 -0.16985297 -0.09382947
000250 ee fd 36 be 96 ad 0e be 8a 6c 7c bd ef 5b ed bd
       -0.17870304 -0.13933405 -0.06162695 -0.115898006
000260 e2 1c 39 bd 5e ba 18 bd 00 b2 f3 3d 07 b5 35 3e
       -0.04519356 -0.03728711 0.11899185 0.17744838
000270 94 9f 1b 3e 0f a3 dc bb 41 93 db 3d 9b df cf 3d
       0.15197593 -0.0067333053 0.10721446 0.10150071
000280 0f b9 c3 3d 72 ed 2e be 28 a9 b3 3e 63 62 3e bd
       0.095567815 -0.17082766 0.35089993 -0.046480548
000290 0d 6c 4e bd 5a c6 88 3a 68 95 cd bd 23 4d ed 3d
       -0.050396014 0.001043509 -0.100382626 0.11586978
0002a0 26 14 80 be ac 70 5c bd 07 ee 1c be 26 0c 82 be
       -0.25015372 -0.05381839 -0.15325175 -0.25399894
0002b0 d2 8f 8e bc e9 8e 58 bd fe 84 10 be 9e 2a 43 be
       -0.017402563 -0.052870665 -0.14113232 -0.19059226
0002c0 ef 13 1e 3e 8c ef e5 3d 52 23 3c be 52 30 0d 3d
       0.15437292 0.112273306 -0.18372849 0.03446991
0002d0 c9 d7 4e be 12 82 c8 bd a9 82 71 be 0c 8e 57 3c
       -0.20199503 -0.09790434 -0.23584999 0.013156425
0002e0 15 62 14 3e c8 62 ff bd f7 d0 21 3e 62 70 18 3e
       0.1449054 -0.12470013 0.1580237 0.1488662
0002f0 4f 91 f8 3c 3a a3 a8 3d 65 af 57 bd 72 54 db bc
       0.030342726 0.08234258 -0.052657504 -0.026773665

bias f4 [8]
000000 e4 8d 28 3e a8 77 31 3e 2d dc 32 3e c3 5a 24 be
       0.16460377 0.17330801 0.17466803 -0.16050248
000010 45 fc 7f 3d 37 b6 6b 3e 66 16 b7 3c a2 66 42 be
       0.062496442 0.23018728 0.022349548 -0.18984464

weight f4 [8]
000000 46 bd 81 3f 71 64 74 3f aa c9 7a 3f dc 7c 80 3f
       1.0135887 0.9546576 0.97963965 1.0038104
000010 ee dc 74 3f 7e 82 87 3f 28 86 83 3f 78 bb 83 3f
       0.9564961 1.0586698 1.0275316 1.0291586

bias f4 [8]
000000 36 e0 6c bd 68 64 0d 3c 51 96 89 3d 17 3e 0e bd
       -0.05783101 0.008629896 0.06718124 -0.034727182
000010 71 5f 5b 3d 15 77 63 3d f3 88 73 3d 7e 66 34 3e
       0.053557817 0.055533487 0.059456777 0.17617223

running_mean f4 [8]
000000 f5 b6 e3 3e a4 a6 d4 3e cc 48 37 be 44 3a 21 be
       0.44475523 0.41533387 -0.17898864 -0.15744883
000010 81 af a6 be 04 da b8 3d 65 6d a4 3c fe 37 0c bf
       -0.32555774 0.09025958 0.020071695 -0.5477294

running_var f4 [8]
000000 36 97 c9 3e 1c 50 85 3e 8d 29 a4 3e e0 07 5c 3e
       0.39373177 0.2603768 0.3206295 0.21487379
000010 3a a2 18 3e 8b 53 af 3e ad c5 42 3e 4c e2 fa 3e
       0.14905635 0.34243426 0.1902072 0.49000776

weight f4 [8, 8, 3]
000000 53 ae 93 3d 95 14 46 be 21 5f 29 3e 3b 67 7f bd
       0.07210984 -0.19343789 0.16540195 -0.062354308
000010 34 26 14 3b 6b ff 33 bb 5d b4 12 3d 97 e4 2c be
       0.0022605779 -0.0027465473 0.03581654 -0.16884075
000020 27 6e 46 bc c7 d2 a7 3c fd 03 66 be f2 e1 92 be
       -0.012111223 0.020486249 -0.22462459 -0.28688008
000030 a5 a5 fc 3d 2d c7 9b 3d 71 96 94 bd 09 30 f9 bd
       0.12336282 0.07606349 -0.07255257 -0.12167365
000040 da 21 ca 3c 78 f5 bc 3b f1 ce f0 bd 18 f6 07 3d
       0.024674345 0.005766567 -0.11758221 0.033193678
000050 5d bd f6 3d 7b 7c 54 be 10 4e 69 bd 97 f7 4e be
       0.12047837 -0.2075061 -0.05695921 -0.20211636
000060 6a 3f a4 bd e0 65 02 bb bb c7 fd 3c 03 5c 88 be
       -0.08019908 -0.0019897148 0.030979028 -0.266327
000070 b7 a2 b2 3d 6c 6a 41 3e d5 b5 e4 3d 74 40 52 3d
       0.08722442 0.18888253 0.11167494 0.051331
000080 03 49 18 3d c5 86 b1 bc 84 21 a4 3d 01 b4 80 3d
       0.037179004 -0.021670708 0.08014205 0.06284333
000090 ff 88 41 be 18 c4 2e 3e ef 66 99 bb 3d dc 3e 3e
       -0.18899916 0.17066991 -0.00468146 0.18638702
0000a0 cf 89 4a be 2e c4 66 3e 73 e7 36 3d d6 51 8d 3d
       -0.19779132 0.22535774 0.04465432 0.069003746
0000b0 ef 1e e9 3d 77 cd 85 3c 01 7f ae 3d 9c ab 09 be
       0.11382853 0.016333325 0.08520318 -0.1344437
0000c0 1f 7a 07 be 91 9b a1 bc 67 dd 8a bd c6 b2 80 3d
       -0.13230179 -0.0197275 -0.067805104 0.06284098
0000d0 64 41 0b be 2e 5a a0 bd d0 7c 36 3d ad d2 56 be
       -0.13599163 -0.078297004 0.044552624 -0.20978804
0000e0 be b2 42 3e ab 89 10 be 5e 05 97 3d b5 db 32 be
       0.19013497 -0.14115016 0.073740706 -0.17466624
0000f0 9f f0 81 be 20 d3 e7 bb 48 db 9a bd 68 6d 79 be
       -0.25378892 -0.0070747286 -0.07561356 -0.24358141
000100 e9 0d 9d be d4 af 21 be 02 56 5d bd de 98 ed bd
       -0.30674675 -0.1578973 -0.0540371 -0.11601423
000110 4c b2 d6 3d 3c ed a4 bd 62 7a 5b 3e 29 5e 2a 3e
       0.10483226 -0.08053061 0.21433404 0.16637482
000120 7b bb ca bd 91 68 07 be 29 67 e5 bd d3 fd 95 3b
       -0.0989904 -0.13223483 -0.11201317 0.0045773773
000130 44 16 cd 3d c0 d3 4e 3d 04 5d 67 bd 78 8f e4 3d
       0.100140125 0.05049491 -0.05648519 0.11160177
000140 6f 67 f2 bd 0d 30 53 bd 05 0e 48 3e cb f0 2e 3d
       -0.11836135 -0.051559497 0.19536598 0.042710107
000150 65 cc 29 3d 27 70 2e 3d 45 0d 3b bd 59 13 81 3d
       0.04145469 0.042587426 -0.04566695 0.063025184
000160 df 66 4f be 42 63 24 bd 92 49 6d be 9f 26 8f bd
       -0.20254086 -0.040133722 -0.23172596 -0.06989788
000170 5a 84 e9 3d b6 31 44 3d 17 4b 14 be 17 9e 0e 3d
       0.11402197 0.04789897 -0.1448177 0.034818735
000180 23 04 01 be cd 1c bf bd 50 d5 ab 3d 02 8e 7f be
       -0.12599234 -0.09331665 0.083902955 -0.24956515
000190 69 80 03 bd 4b 6a f4 bd 20 14 cf bd 79 28 be bd
       -0.032104883 -0.11934336 -0.101112604 -0.09285063
0001a0 b4 ee 64 be 74 4f e7 3d d2 d5 f5 bd 4e e5 6c 3e
       -0.22356683 0.11294451 -0.120036736 0.23134348
0001b0 40 b2 22 bc 20 7f 89 bd 03 c3 69 bd df 51 06 3e
       -0.009930193 -0.067137 -0.057070743 0.13117169
0001c0 d6 97 a5 3d c7 32 ed bd d8 4d 1d 3e 01 88 f2 3d
       0.08085601 -0.11581951 0.15361726 0.11842347
0001d0 b6 46 c1 bd 20 e8 83 3e 85 c1 b2 bd 61 81 81 be
       -0.09437315 0.25763035 -0.08728317 -0.2529402
0001e0 43 fb 9d bd 61 bd 26 be 2b 03 07 be 30 95 a8 39
       -0.0771394 -0.1628318 -0.13184802 0.0003215461
0001f0 e7 53 ad 3d 48 d2 38 3c 6f 2f ba bd 24 cf 00 be
       0.08463269 0.011280604 -0.090910785 -0.12579018
000200 36 5d 16 be 4f 40 b0 3d 01 a0 ed 3d a7 ce 55 bd
       -0.14683995 0.08606016 0.11602784 -0.052199032
000210 af 4e 68 be 68 5f e9 3d 8c 15 6a bd 0b 51 16 3e
       -0.22686265 0.113951504 -0.057149455 0.14679353
000220 16 f5 ef bd 79 df 2d 3e 86 ce 78 be 74 c4 12 be
       -0.11716668 0.1697978 -0.24297532 -0.14332753
000230 49 e3 82 bd 58 40 9c be c4 14 26 3d 64 f4 f6 3d
       -0.063910075 -0.3051784 0.040547147 0.120583326
000240 66 4a a2 3c ea dc 2d 3e 88 86 28 be ee 4f f8 bb
       0.019810867 0.16978803 -0.1645757 -0.0075778877
000250 df 23 b4 3d c2 2b c3 bd 6c bc c0 3b 1b 73 1a 3e
       0.08795904 -0.095298305 0.0058818366 0.15082972
000260 10 2f 65 3e 35 fc 18 3e 72 24 84 3d 4d bc 4d bd
       0.22381234 0.1493996 0.06452264 -0.050228406
000270 bd 8c 31 3d 3f ce a4 3d e4 1e 82 3e 4f fb 0a 3e
       0.04334711 0.08047151 0.25414193 0.13572429
000280 1a e1 56 3e e6 d5 24 3e d3 8a a9 3e 22 7c 1b bc
       0.20984307 0.16097221 0.33113727 -0.009490045
000290 2e 6f 30 3e 55 ff 34 3e d7 2a e5 bd 44 41 48 3e
       0.17229912 0.17675526 -0.11189812 0.19556147
0002a0 c7 99 7e bb 8f 5c 5c 3e 1b fe 89 3e 1f 18 bb 3d
       -0.0038848983 0.21519683 0.2695168 0.0913546
0002b0 bc 4f d1 bd aa a5 e4 3d b6 ca 0a be 3d 96 7a be
       -0.10220286 0.111644104 -0.1355389 -0.24471374
0002c0 98 d3 1b be 36 80 64 3d f5 6c 4e 3e d4 c0 af bd
       -0.15217435 0.055786334 0.20158751 -0.08581701
0002d0 db 36 27 be 8b 91 ce 3d e4 29 ce 3c 43 48 a4 3d
       -0.1632952 0.10086354 0.02516646 0.08021595
0002e0 e6 bc e8 bd d6 83 31 3e fc 0b e5 3d 73 fd 36 3d
       -0.113641545 0.17335448 0.111839265 0.0446753
0002f0 19 07 42 bd d8 6f 82 bd 86 6c 0a be be fc 25 be
       -0.04737005 -0.06368989 -0.13517961 -0.16209695

bias f4 [8]
000000 0b c8 43 be 0e f4 9a 3d a3 75 2e 3d 3f 21 13 3e
       -0.19119279 0.07566081 0.042592656 0.14368151
000010 9a be 17 3d 94 e8 4f be 74 aa 35 3e 61 95 01 be
       0.037047006 -0.20303565 0.17740804 -0.1265464

weight f4 [8]
000000 05 ee 76 3f 5f 0e 7b 3f df ac 84 3f 2c 3a 76 3f
       0.9645694 0.98068804 1.0365256 0.96182513
000010 7a f8 82 3f e3 23 86 3f 79 f1 80 3f ec a9 75 3f
       1.0232079 1.0479702 1.0073692 0.95962405

bias f4 [8]
000000 0a 5a 8c 3d ed e2 22 3e 10 5f 9a 3d 53 5c a6 bd
       0.06853111 0.15906878 0.07537663 -0.08123078
000010 2b e0 85 3e cc 8a 16 3d 19 c0 e0 bd 91 5f 84 3b
       0.2614759 0.03675346 -0.1097414 0.0040397127

running_mean f4 [8]
000000 74 b9 0e bf 06 4e 96 3e 15 0c b7 be 39 9d c6 bc
       -0.5575173 0.29356402 -0.35751405 -0.024244891
000010 e6 51 4f be 9b ee 11 bf 9c 3a 6f 3f 07 fd 4f be
       -0.20246086 -0.5700471 0.93448806 -0.20311366

running_var f4 [8]
000000 25 73 30 3e da 33 5c 3e 77 94 c2 3e b4 26 0b 3e
       0.17231424 0.21504155 0.38003895 0.13588983
000010 84 b9 31 3e 0f 48 44 3e ce 06 33 3e 33 69 c6 3e
       0.17355925 0.19168113 0.17483065 0.38752136

weight f4 [8, 8, 3]
000000 99 c1 fa bd 5a 6d 88 bd af 89 e2 3b b4 ac 1b 3d
       -0.12243957 -0.06661482 0.006913386 0.0380065
000010 ba ae 17 3e cd 76 1e bc 87 51 36 3e d0 ca 98 be
       0.14812747 -0.009671879 0.17804538 -0.29842234
000020 38 5a e3 bd 63 1a 13 3d 1a 74 ba 3c 1d 11 0f 3d
       -0.11101192 0.035913836 0.02276044 0.03492843
000030 58 e3 9e bd 3c 01 32 3e 86 86 88 3b b9 f4 28 be
       -0.07758206 0.17383283 0.004166427 -0.16499604
000040 52 57 84 bd 17 94 c8 3d 5a a7 29 3e bf 26 d1 bc
       -0.064619675 0.09793871 0.16567746 -0.02553117
000050 3b 04 c1 3c c3 d2 b2 bd c4 49 30 be 49 06 81 be
       0.023561588 -0.08731606 -0.1721564 -0.25200108
000060 cf eb a2 bd 47 70 43 be 2e 62 ae 3d 5b 69 16 3e
       -0.07955133 -0.19085799 0.0851482 0.14688627
000070 de 02 81 3e 9a b9 30 3d e1 a9 76 3d 3a cd 11 3d
       0.251975 0.043145753 0.060220603 0.03559611
000080 00 cd ec bb 9f b0 60 3d 67 ea c0 3d 2c ed 1c bd
       -0.0072265863 0.05485594 0.09419709 -0.038312122
000090 60 71 2a be ae 2d 04 3e 24 80 2e be 76 2f a9 3d
       -0.16644812 0.1290805 -0.1704107 0.082610056
0000a0 2d cb 8e bc 20 b9 82 3d 33 f6 c9 bd f8 75 37 3e
       -0.017430866 0.06382966 -0.09861412 0.17916095
0000b0 94 ea 9c bd a3 10 6f 3e 69 93 8c ba a9 fe fd 3d
       -0.0766193 0.2334619 -0.0010725084 0.12402088
0000c0 91 c6 9e bc 30 b7 09 3e 3c 14 b8 bd cd 3e 12 bd
       -0.019381793 0.13448787 -0.089882344 -0.035704423
0000d0 3f fa 3c 3d 46 51 a0 bc 62 17 e6 3d c8 f7 11 bc
       0.04613709 -0.019570004 0.11234929 -0.008909173
0000e0 73 e9 aa be 1c d4 00 39 ea c4 76 be f6 c2 24 3e
       -0.33381233 0.00012286048 -0.24098554 0.16089997
0000f0 05 d0 0a 3e a3 59 3f 3e cf be 9e be 4d d0 05 be
       0.13555916 0.18686537 -0.3100495 -0.13067742
000100 0a 34 0e be d0 01 34 3e 36 71 6c be 46 9d 26 3d
       -0.13887039 0.17578816 -0.23090062 0.04067733
000110 47 6d 2e be df 77 02 3c 5e b6 31 3d cd b1 dd 3d
       -0.17033873 0.00796315 0.04338681 0.108249284
000120 b6 17 07 be b4 ae 21 3e 3e e5 99 3d 81 6b 4d be
       -0.13192639 0.157893 0.075144276 -0.2006054
000130 58 07 c5 bc d0 51 36 be 45 31 cf 3d 4b d6 5c 3e
       -0.024051353 -0.17804646 0.10116819 0.21566121
000140 5f 12 65 bd a5 7d ae be 51 4d 87 bd 0c d1 07 3e
       -0.055925723 -0.34080234 -0.06606544 0.13263339
000150 7a 99 8f 3d ef dc 9b bb b7 c2 95 3d 91 73 97 be
       0.07011695 -0.004756562 0.073125295 -0.29580358
000160 22 cc 9b bd ba eb fe 3d 4e c2 2b be 12 f4 84 bd
       -0.076072946 0.12447305 -0.1677334 -0.06491865
000170 83 27 36 be c6 29 21 3e 89 55 04 be 9f 05 a2 bc
       -0.1778851 0.15738592 -0.12923254 -0.019778071
000180 e1 88 0a be c0 1b bb bc 5f 35 b1 bd 63 b7 f9 bd
       -0.13528778 -0.02284038 -0.08652758 -0.12193181
000190 a7 22 18 bd 40 4d 4e be 9a dd f2 3d 70 d6 bf 3d
       -0.037142422 -0.20146656 0.118586734 0.093670726
0001a0 0e de 91 bd d9 24 9f be 50 36 ee bd 23 df bf bd
       -0.07122432 -0.310828 -0.11631453 -0.09368732
0001b0 6a 0d a5 bd b7 4f 37 be e8 69 04 be 06 68 3c be
       -0.08059199 -0.17901503 -0.12931025 -0.18399057
0001c0 63 20 2f bc d1 c9 65 be 09 ac 36 3c e5 d5 ad bd
       -0.010688874 -0.22440268 0.011149415 -0.08488063
0001d0 77 28 d9 bd 14 f4 64 be f3 79 52 bd 7b 96 20 be
       -0.10603421 -0.22358733 -0.05138583 -0.15682404
0001e0 12 8e 3a 3d ff 45 87 3c 19 12 11 3e 50 7b 1b be
       0.045545645 0.016512869 0.1416706 -0.15183759
0001f0 bd f5 79 3e 46 c7 86 3d 37 b3 54 be 60 87 cf bd
       0.24410148 0.06580977 -0.2077149 -0.101332426
000200 10 c8 bf 3d 43 66 ca bb 53 47 3a bd 86 48 f8 3d
       0.09364331 -0.0061767413 -0.045478176 0.12123208
000210 75 67 e6 3d 02 d0 3d bd 43 29 cb bd 7c 21 14 39
       0.112502016 -0.04634095 -0.099199794 0.00014126854
000220 be 9b 60 3e 18 d2 1c 3e 92 5c 41 3e 44 dd 9f 3d
       0.21934411 0.1531452 0.18882969 0.07805875
000230 07 fc 3f 3e 77 a1 5b bd 7a 79 0d 3e e8 62 42 be
       0.18748485 -0.05362078 0.13815871 -0.18983042
000240 9e 8a 7f be bf 70 3d be 29 12 09 bd e1 f5 48 be
       -0.24955222 -0.1850004 -0.033464584 -0.19625045
000250 ec 0b 7c 3d f4 bb 00 be 00 2a 86 bd 9a 4c 7f 3d
       0.061534807 -0.12571698 -0.065509796 0.062328912
000260 07 a5 65 3e da a0 92 3d e5 59 0c 3e fd 2c 50 be
       0.22426234 0.07159586 0.13706167 -0.20329662
000270 f7 59 bf 3d 99 61 f7 bc 44 1e 09 be 0f cc c8 bc
       0.09343331 -0.030197905 -0.13390452 -0.024511365
000280 53 15 64 3e ce ef f3 3d a0 aa 27 3a e5 46 a5 3c
       0.2227376 0.119109735 0.00063959695 0.020175407
000290 83 00 49 be e1 d3 9a bc 8b ec 51 be a0 0d 1e be
       -0.19629101 -0.01889986 -0.2050039 -0.15434885
0002a0 e3 a0 a8 3e 60 0c bc 3d 81 db 27 be 8e 31 4f 3e
       0.32935247 0.09182048 -0.16392328 0.20233747
0002b0 3a 48 83 be a7 fc a7 3d ff a7 0f be b3 dc 61 bd
       -0.25641042 0.082024865 -0.14028929 -0.055142116
0002c0 c5 91 91 3b ae fe 34 3c de 38 9b 3c 0b 64 25 3d
       0.004442426 0.0110470485 0.018948015 0.04037861
0002d0 50 42 5c be 19 d9 e6 3d 85 10 f7 bc 16 e8 f4 bc
       -0.21509671 0.11271877 -0.030159244 -0.029895823
0002e0 fb 8f 7c 3c 9d 5f 7c 3e b8 21 97 3d a7 54 31 be
       0.015415187 0.24645849 0.07379478 -0.17317449
0002f0 ab 34 19 3e 1d f2 80 3d 81 c3 70 bd 26 02 50 bd
       0.14961497 0.062961794 -0.058780197 -0.0507833

bias f4 [8]
000000 b8 30 61 3e d1 95 46 3e 2e ff d0 bd 8a 21 ae 3d
       0.21991241 0.19393088 -0.10204922 0.08502491
000010 7c 64 99 3d 83 48 03 3e 0a 67 b2 bd 88 e3 3a 3e
       0.07489869 0.1282063 -0.087110594 0.18250859

weight f4 [8]
000000 da af 6e 3f a2 3b 6c 3f 05 55 77 3f d1 81 93 3f
       0.9323708 0.9227849 0.96614105 1.1523992
000010 6a ed 8f 3f 70 28 82 3f de 04 85 3f a6 98 77 3f
       1.1244328 1.016859 1.039211 0.967173

bias f4 [8]
000000 30 de 16 bd 3a b5 19 be e8 b3 d2 3d 82 d6 5d 3e
       -0.03683299 -0.15010539 0.10288221 0.2166386
000010 b9 7b dc 3d 3e db 06 3e e3 ea e1 3b 81 ee e7 3b
       0.10765786 0.13169572 0.0068944558 0.0070779924

running_mean f4 [8]
000000 f5 0c c1 3c f8 e2 de 3e 7d e9 89 be 3a 19 fd bd
       0.023565749 0.43532538 -0.2693595 -0.12358327
000010 bf 96 3b bf fc 74 c5 3e 07 e3 b1 be 3c 91 74 3e
       -0.73276895 0.38565814 -0.3474352 0.23883528

running_var f4 [8]
000000 5a b5 9d 3d a9 cc 6b 3e 0e d2 4d 3e 77 7d be 3e
       0.07700606 0.2302729 0.20099661 0.37205097
000010 a3 e6 4a 3f b0 71 ab 3e 0c 72 1d 3f 56 07 cc 3e
       0.79258174 0.33485174 0.61502147 0.39849347

weight f4 [8, 8, 3]
000000 38 fc a8 3d 5a d8 58 3e 8b cf d4 3d ea 9c c0 bd
       0.08251232 0.21176282 0.10391148 -0.09404929
000010 b6 66 9c bc 68 14 ec bd e8 09 b6 bd cc df 06 3e
       -0.019091945 -0.1152733 -0.08888608 0.13171309
000020 95 8c 83 3d fb 4a 6d 3e dc a9 84 be c2 b7 b0 bd
       0.06423298 0.23173134 -0.25910842 -0.08628799
000030 a9 6b 8c 3e 55 ed b4 bc 52 0e 44 be 04 c3 b3 bd
       0.27425888 -0.022085825 -0.19146088 -0.08777431
000040 4d eb 15 bd d0 1f f3 3b c4 21 3c 3c 72 35 ef bd
       -0.036601353 0.007419564 0.01148266 -0.11680116
000050 28 64 62 3e b5 e0 bd 3d 2a 0d 0d be 37 fb 3d be
       0.22108519 0.09271375 -0.13774553 -0.18552862
000060 57 cc b7 3d d1 63 e1 3d 1e c7 07 3e 56 ef 29 3d
       0.089745216 0.110053666 0.13259551 0.041488014
000070 2b 30 62 3e 89 dc 04 be ef 11 ea 3d 6c 87 8f 3d
       0.22088687 -0.12974752 0.11429202 0.070082515
000080 0e 96 83 3e 51 30 9b 3d 5c 34 21 be b3 f1 a0 3c
       0.2570042 0.07577575 -0.1574263 0.019646501
000090 e4 d1 be bd dd a1 06 be 44 46 0c bd 3d fc 80 bd
       -0.09317377 -0.13147683 -0.034246698 -0.06298111
0000a0 07 22 30 3e a2 3f ed 3d e3 db 3d be 8e f3 59 be
       0.1720048 0.115844026 -0.18540911 -0.21284315
0000b0 9b 4d 98 bd ce f0 aa 3d b4 67 43 3e e0 4f 8e 3d
       -0.07436677 0.08346711 0.19082528 0.06948829
0000c0 05 db 81 bb 69 fb fe 3d 1e 37 2d bd 62 4f 57 3c
       -0.0039628767 0.124502964 -0.042288892 0.013141485
0000d0 66 6c e4 3d f1 0d c5 bd 6f 87 88 3d 26 82 e7 bd
       0.11153488 -0.096218 0.06666457 -0.11304121
0000e0 d8 f8 87 bc ee 25 09 3e a6 6a 02 3e 69 db ea 3b
       -0.01659815 0.13393375 0.12735996 0.007167269
0000f0 07 01 2f 3d d7 f8 44 bd 7e 73 e5 3d fb c5 27 3e
       0.04272559 -0.048088875 0.11203669 0.16384117
000100 5a 5c ab 3d 17 50 19 be 15 f5 2d bc aa c1 c2 bd
       0.08367224 -0.14971958 -0.010617514 -0.09509595
000110 67 7d 5f 3e fa fc ef bd 5f c6 e8 bc 8a 1f b0 3e
       0.21825181 -0.11718173 -0.028414903 0.34399062
000120 ab 49 e3 bd e7 44 1f 3e b8 40 b2 bd ce ac 4e bb
       -0.110980354 0.15553628 -0.0870375 -0.0031536105
000130 71 1a aa bd 11 d4 0a 3d d2 18 d1 3c 88 57 46 3e
       -0.083058245 0.03389365 0.02552453 0.19369328
000140 4b cb 2b 3e 15 24 94 3e ad 18 86 be 97 bf f8 bd
       0.16776769 0.28933778 -0.261907 -0.12145918
000150 00 c7 0a be a1 d3 1e be 53 28 f8 bd 99 d0 93 be
       -0.13552475 -0.15510418 -0.12117066 -0.28870085
000160 c5 c7 a5 bc 48 62 8e bd f0 68 aa bc 64 12 75 bd
       -0.02023686 -0.069523394 -0.020801991 -0.05983199
000170 6b 9e e9 bd ce 0d 2b 3c 63 dc 7f bd 86 71 65 bd
       -0.11407169 0.010440303 -0.062466037 -0.056016468
000180 77 d2 af bd 3e f6 60 be f5 09 b8 bb ee cf 7a be
       -0.08585065 -0.21968934 -0.0056164213 -0.24493381
000190 b1 79 05 3e cd 7d 36 be 54 16 6c 3d b9 3a 62 3e
       0.13034703 -0.17821427 0.05763848 0.22092713
0001a0 84 8b 92 bd 12 79 50 38 37 3b 68 bd fe 84 fd 3d
       -0.07155517 4.970382e-05 -0.056697097 0.12378882
0001b0 33 91 d8 3d 02 92 ce bc 81 0e 2f 3d f2 be ad 3d
       0.105745696 -0.025216106 0.04273844 0.084836856
0001c0 ab 36 91 3d 0a 50 d2 3d 8d 00 07 3e 0e f1 45 be
       0.07090505 0.102691725 0.13183804 -0.19330236
0001d0 bc f8 99 3b c7 8a 02 3e 80 dc 00 be fe 54 61 3e
       0.004698841 0.12748252 -0.12584114 0.22005078
0001e0 d6 22 8f 3d 7c a9 81 3e 65 7e 06 3e ab d9 3e bb
       0.06989066 0.2532462 0.13134153 -0.002912144
0001f0 ff 10 1e be f5 5a c3 bb 26 42 18 be 39 af 96 3d
       -0.15436171 -0.0059617707 -0.14868984 0.0735764
000200 9d d5 fe 3c 6d 02 30 3e 8a 83 64 3c bf 15 1e 3e
       0.031107718 0.17188425 0.013947377 0.15437983
000210 13 b6 c0 3a 69 97 54 3d 03 5e 89 be fe 90 89 be
       0.00147027 0.05190221 -0.26829538 -0.26868433
000220 05 91 18 be ae 0e b9 3d ca cd 1a be cf 81 94 bc
       -0.1489907 0.09036003 -0.15117565 -0.018128304
000230 c2 90 82 3e eb 36 e5 bd fa a6 1d 3e 10 3b 43 be
       0.25501066 -0.111921154 0.15395728 -0.190655
000240 b8 a4 13 be d1 05 22 3c 6f 5d 1f 3e bc b9 74 bd
       -0.14418304 0.009889082 0.15562986 -0.059747443
000250 50 07 d5 3b e8 ad 8a bd 64 59 1a bd ec a5 90 3e
       0.006501116 -0.06771451 -0.037682906 0.28251588
000260 e5 32 30 bd c1 94 90 bd 11 a7 85 be ab 1b 17 be
       -0.043017287 -0.070596226 -0.26104024 -0.14756648
000270 c7 01 49 bd 4a a2 fd bd 1a db a2 be bd cf 00 be
       -0.04907396 -0.1238447 -0.31807786 -0.12579246
000280 96 d4 a0 bd c5 d2 54 3e ae 3f 15 3d 10 26 a1 3c
       -0.078530475 0.20783527 0.036437683 0.01967147
000290 fc e0 f1 bb 8e 12 09 be e6 9a dc bd e7 a2 11 be
       -0.0073815566 -0.13385984 -0.10771732 -0.14222299
0002a0 e5 01 11 bd f1 22 77 3d be 82 7b bd 20 86 ab bd
       -0.035402197 0.060336057 -0.061403982 -0.08375192
0002b0 40 db 27 3e 95 ab c1 3c 88 a6 b4 bd 65 72 d6 3c
       0.16392231 0.023641387 -0.08820826 0.026177594
0002c0 8f 03 05 3e f8 81 42 3e 72 de 75 be a7 1b b5 be
       0.12989639 0.18994892 -0.24010637 -0.3537266
0002d0 d0 be 84 be 6c e7 3c be 4d b3 a4 be cc 53 0a be
       -0.25926828 -0.18447655 -0.32168046 -0.13508528
0002e0 8c 36 4a be dd 3b 81 3c 73 90 ac bd b5 70 6a be
       -0.1974737 0.015775615 -0.08425989 -0.22894557
0002f0 37 e7 dd 3b 3e 7a 1c bd 08 16 8b 3d 02 4c a3 bd
       0.0067719477 -0.038202517 0.067913115 -0.07973482

bias f4 [8]
000000 d9 39 02 bd 15 20 e9 3d 00 32 52 be 71 c9 f4 bd
       -0.03179345 0.11383072 -0.20526886 -0.119524844
000010 b7 2a 89 bd b2 7c 03 3e 1e bd 2a 3e e5 5e 19 3e
       -0.066976 0.12840536 0.16673705 0.14977606

weight f4 [8]
000000 8e 89 66 3f 82 f0 4a 3f 5b 59 3d 3f e1 4d 46 3f
       0.9005364 0.79273236 0.7396447 0.77462584
000010 bc 7a 59 3f da b7 59 3f d4 80 4c 3f 63 25 52 3f
       0.849529 0.8504616 0.79884076 0.820883

bias f4 [8]
000000 82 1e 83 bd 4f 99 50 bd e1 d5 a0 be f3 54 b1 bd
       -0.06402303 -0.050927456 -0.31413177 -0.08658781
000010 0e 48 00 be ac a3 16 be 9d af 40 be 1b 16 12 be
       -0.12527487 -0.14710873 -0.18816991 -0.14266245

running_mean f4 [8]
000000 ab 4e 29 bd 14 66 90 3e 08 70 0a 3e bb 54 01 bf
       -0.04133479 0.2820288 0.13519299 -0.50519913
000010 7f 1f c4 3d f3 db 0d 3e 82 37 bc be 97 58 20 bf
       0.0957632 0.13853435 -0.367611 -0.6263518

running_var f4 [8]
000000 1c b0 50 3e 3c 49 c0 3e e4 ca 1d 3e 17 fc 0c 3e
       0.2037968 0.37555873 0.15409428 0.1376804
000010 a3 0c 04 3e f0 cf da 3e 77 51 3f 3e 97 74 68 3e
       0.12895446 0.4273677 0.1868342 0.22700725

weight f4 [128, 25]
000000 63 c5 46 be 94 a1 c0 bd 51 0e c5 be cd 64 90 be
       -0.19411235 -0.094058186 -0.38487485 -0.28201905
000010 04 d7 ea bd 7e 97 09 be cd 79 59 be fd 34 dd bd
       -0.11466792 -0.13436696 -0.2123787 -0.10801122
000020 7a d1 e4 be 43 e7 65 be 6f 8e 52 be a6 63 30 be
       -0.44691068 -0.224515 -0.20562147 -0.17225513
000030 a1 32 bf 3d f2 78 14 3e 88 e8 b5 3d 05 fe c2 3d
       0.093358286 0.14499262 0.088822424 0.09521107
000040 50 1c 05 3e f8 dc 93 3d ec 15 ec 3d d2 52 15 3c
       0.12999082 0.07219881 0.11527619 0.009113984
000050 15 31 ae 3d e3 5f 84 3c 2d 4b 53 3b f5 3b ea bd
       0.085054554 0.016159004 0.0032240853 -0.11437217
000060 9e 31 78 3d 3a 52 7d be 6b 18 95 be 37 95 ec bc
       0.060594194 -0.24738398 -0.29120192 -0.028879745
000070 a8 47 8e 3d 79 13 01 bf 6f fd 17 3d 01 e6 b3 be
       0.06947261 -0.5042034 0.037106927 -0.35136417
000080 56 85 22 bf a4 3a ef be 99 7e 98 be 84 8c 22 bb
       -0.63484704 -0.46724427 -0.29784086 -0.0024802992
000090 d7 e4 16 3e d9 2b 81 bc 61 a1 b0 3d 78 e3 c6 bd
       0.14735733 -0.015767979 0.086245306 -0.09711355
0000a0 14 af 06 3e 18 0c c5 bd 64 cd 8b be 2a 41 fa 3d
       0.13152725 -0.09621447 -0.27305138 0.1221946
0000b0 b7 e2 4e be ee 2c c4 bd 08 bf 2c be d4 a4 1d 3e
       -0.20203672 -0.09578882 -0.16869748 0.15394908
0000c0 72 30 00 3c dc a6 5a 3d 02 04 fc 3b 53 f3 2b ba
       0.00782405 0.053381786 0.0076909075 -0.00065593905
0000d0 14 21 5d 3e 87 19 0e 3e c2 99 92 bd a0 9d 05 bd
       0.2159465 0.13876925 -0.07158233 -0.032621026
0000e0 51 bb b8 3d 25 f6 9e 3d 8b ba ad bb c8 64 02 be
       0.09020103 0.07761792 -0.0053017787 -0.12733757
0000f0 12 0a 0b 3e 73 40 22 be 3c fe e1 bd 01 3e ff bd
       0.1357806 -0.15844898 -0.110348195 -0.12462998
000100 e7 44 98 bd 2b d4 37 3e 32 9c 14 be 0a 33 b2 3c
       -0.07435017 0.1795203 -0.14512709 0.021752853
000110 8c b8 d1 bc ce ab 73 3c e8 fa 38 3d 78 56 92 3e
       -0.025600694 0.014872504 0.045161158 0.28581595
000120 e8 06 bf 3d e4 af bb bd 93 5b 38 be 52 e4 06 3e
       0.09327489 -0.09164408 -0.18003683 0.13173035
000130 cb 90 7a bc e7 5d 01 be d7 24 ab bd b2 a8 be 3d
       -0.01529331 -0.12633477 -0.08356636 0.0930952
000140 bd 00 87 3e e4 cb 0c be 02 90 64 3d 38 5e 4e be
       0.2636775 -0.13749653 0.0558014 -0.20153129
000150 07 f3 68 3e 07 49 8b bd df d5 ba 3c 58 e2 8d 3d
       0.22748958 -0.06801038 0.02280706 0.06927937
000160 e5 d7 4c 3e da a5 db bd a3 af ac 3d 0c b3 74 be
       0.20004232 -0.10724993 0.084319375 -0.23896426
000170 0e 60 8a 3e ce fb 5a 3d 94 79 6e 3d 3b 6b 2f be
       0.2702641 0.053462796 0.058221415 -0.17130749
000180 d0 b0 fa 3d 58 fe 22 be 89 0e 36 be 3e 11 38 be
       0.122407556 -0.15917337 -0.17778982 -0.17975327
000190 13 ce a6 bd 23 f1 b0 bc 81 15 77 3e c0 f6 83 be
       -0.08144774 -0.021599358 0.24129297 -0.25774193
0001a0 32 45 85 bc 28 08 a4 3d 33 4c 3b 3e 8d 59 14 3e
       -0.016268346 0.08009368 0.18290786 0.14487286
0001b0 1f 86 f1 bd 4c 38 cb 3d db c2 85 3c 8f 40 b8 3d
       -0.1179316 0.09922847 0.016328266 0.089966886
0001c0 39 95 70 bd 80 37 85 3d 73 4c 8b be 73 1f 67 3d
       -0.05873606 0.065047264 -0.27206764 0.056426477
0001d0 04 ad de bd 2b 2a 76 3d 29 d4 23 3e c4 64 58 bd
       -0.10872844 0.06009881 0.15998901 -0.052830473
0001e0 29 a2 1d 3e e9 28 97 be ae 9a fd 3d 87 61 ff bd
       0.1539389 -0.295234 0.123830184 -0.12469774
0001f0 65 56 3d be 9f 5b 00 3e 17 92 34 3e ac 61 b8 bc
       -0.18489988 0.1253495 0.17633854 -0.022507511
000200 1e a9 5f 3e e6 f7 3a 3e 0d 17 d6 3b 4b ea 4f 3d
       0.21841857 0.18258628 0.0065335096 0.05076055
000210 6b 74 fb 3d 37 27 de 3d 8d 54 21 3e c9 c5 45 3e
       0.12278064 0.108473234 0.1575491 0.1931373
000220 be f4 c1 3c 63 2c 4c be c2 09 e9 3c 2b 67 09 3d
       0.023676272 -0.19938807 0.028447036 0.033545654
000230 20 d5 21 3d ba a1 4c 3e b0 ce 31 be 6d 4e 81 bd
       0.039509892 0.19983569 -0.17364001 -0.06313787
000240 cf e5 ad 3d 44 d2 9e 3b 9e c5 1b bd 92 00 ce bc
       0.08491098 0.004846843 -0.03803026 -0.025146756
000250 7a c8 81 bd 4b 6b 8e bd a8 af 12 be af 7d c0 3e
       -0.06337066 -0.06954058 -0.1432482 0.3759589
000260 fb 01 b7 3e 33 22 2f be 51 99 2c 3d ef 24 1c be
       0.35743698 -0.1710289 0.0421384 -0.15248464
000270 8b 9a 98 3d e8 da 63 3e 73 a4 a9 3d 45 a2 9f 3e
       0.07451352 0.22251475 0.08283319 0.3117849
000280 7d 4c a1 3d ad 0d 53 be 32 e6 c3 3d 6c 56 07 3d
       0.07875917 -0.20610686 0.09565391 0.033041403
000290 a5 85 51 3e 32 f4 04 be 9c 1a 8a 3b 4c 0c 8a 3d
       0.20461138 -0.12983778 0.004214598 0.06740627
0002a0 4b ff 95 be ef 4e a2 be 5d 40 b1 3d 6d 53 47 be
       -0.29296336 -0.31700847 0.086548544 -0.19465418
0002b0 ad 9b cb 3d 91 94 20 3e 08 62 93 3d 96 e3 98 3d
       0.09941802 0.15681674 0.07196432 0.074652836
0002c0 2d 3e 00 be f6 75 4b bd fb 94 6d 3d db 6b 6e bd
       -0.12523718 -0.049673043 0.058003407 -0.058208328
0002d0 a2 af 9c bd 54 fc 95 bd cf b2 5e 3e 4a 5e db bd
       -0.07650687 -0.073235184 0.21747898 -0.107113436
0002e0 b1 eb 61 bd ba 35 32 3e c1 2a 7e bd 87 98 5b 3b
       -0.055156413 0.17403308 -0.062052492 0.0033507661
0002f0 0a 69 c5 bd fa b6 c1 bd 85 6e 0d be 1b 22 af 3d
       -0.09639175 -0.09458728 -0.13811691 0.08551427
000300 8a 87 15 be d5 b7 96 bd 80 79 3f be b9 af 0e be
       -0.14602485 -0.07359282 -0.18698692 -0.1393422
000310 98 a8 01 3d 04 3b 01 3e b7 0e ed bd 69 10 b5 bd
       0.031654924 0.12620169 -0.11575072 -0.088410206
000320 18 40 45 be 91 f5 d6 3d 20 a2 60 be 63 01 23 be
       -0.19262731 0.10496057 -0.21936846 -0.15918498
000330 26 52 93 bd 32 69 1a be a8 40 81 bd ad e2 be 3c
       -0.07193403 -0.15079191 -0.0631116 0.023301447
000340 ac 38 df bd a0 c8 05 3e 94 97 85 bd cc ac 58 be
       -0.10899481 0.13064814 -0.06523052 -0.21159667
000350 f3 05 e4 3d 32 30 41 be aa 16 cd 3c a8 f1 57 3d
       0.11133947 -0.18866041 0.025035221 0.052720696
000360 c8 8a 34 3e ce 58 2f 3d da 21 8b 3e d2 b0 fe bd
       0.17631066 0.0428093 0.27174264 -0.124360695
000370 a9 03 a8 be e9 b3 7a 3e c8 17 d5 be 5e 38 81 be
       -0.32815292 0.24482693 -0.41619706 -0.25238317
000380 a8 02 98 bd f8 8e 9a bd 5c 16 07 be 48 c2 3c 3c
       -0.07422382 -0.075468004 -0.13192123 0.01152093
000390 74 c5 0c 3e ed 9f eb bd 8c 7c a1 bd 40 51 4a bd
       0.13747197 -0.11505113 -0.078850836 -0.049393892
0003a0 01 d6 2a 3d 30 30 48 3d 40 d3 9d 3c 08 85 41 3e
       0.041707996 0.04887408 0.01926577 0.18898404
0003b0 06 cf cc bc 39 86 eb 3d 5f ae 9a bd ed 34 97 3d
       -0.02500106 0.1150021 -0.0755279 0.07383142
0003c0 95 c5 9c be 38 62 da bd 7a c3 ce bd dd 95 65 3d
       -0.30619493 -0.10663265 -0.10095878 0.056051124
0003d0 61 61 a9 bc 2f 64 90 be 54 9e 5a 3e 94 39 01 3e
       -0.020676317 -0.28201434 0.2134946 0.1261962
0003e0 d7 ef 73 3d 9e 76 b7 bd ea 94 72 be 30 79 50 be
       0.0595549 -0.08958171 -0.23689619 -0.2035873
0003f0 ab 08 ce bd b5 e7 31 bd 00 c8 9a be 19 78 ab 3d
       -0.10060247 -0.043433864 -0.30230713 0.08372516

bias f4 [128]
000000 a4 19 f7 bc bb 88 b7 3d 3e a6 56 3c 95 04 b2 bd
       -0.030163594 0.08961626 0.013101159 -0.0869228
000010 ca 7a b3 3d 94 b4 c0 bd 82 de 84 3c 44 9f 14 3e
       0.087636545 -0.094094425 0.016219381 0.1451388
000020 d1 bb fb 3d c0 e1 51 3d 6c 96 f6 3d f2 e9 6c 3d
       0.122916825 0.051240683 0.120404094 0.057840295
000030 60 cd 1d 3e 0d e6 99 bd d3 8c e8 3d 8c 29 e8 3c
       0.15410376 -0.07514582 0.11354985 0.028340124
000040 39 c6 e5 bd b3 e1 47 3e 70 82 83 3d 92 16 a7 bc
       -0.112194486 0.19519691 0.06421363 -0.020396505
000050 18 cb d4 3d 45 3f 1a 3e 56 36 e1 3d 1e 69 e0 bd
       0.103902996 0.15063198 0.10996692 -0.109575495
000060 d9 87 04 3e 34 a0 23 3e 00 e1 c2 bd 48 da 6f 3d
       0.12942447 0.15979081 -0.095155716 0.05855778
000070 f3 ff 3e 3e 94 0c cc bd b1 91 2b 3d 29 91 cd 3d
       0.18652324 -0.099633366 0.04188699 0.10037453
000080 d4 86 cc bb f3 4e 21 be 1d 63 cf 3d 1e 2b b8 3d
       -0.0062416587 -0.15752773 0.10126326 0.08992599
000090 6e dd fb 3c 03 40 5b 3e 96 1c 89 bd 1d e7 74 bd
       0.030745234 0.21411137 -0.066949055 -0.05979072
0000a0 ca c3 24 3e fa be 2e 3e 1b d2 3d 3e c5 ef d6 bd
       0.16090313 0.1706504 0.1853718 -0.10494951
0000b0 61 f3 36 3e 6d 11 2a 3e 95 28 26 bd d8 e8 57 bc
       0.17866279 0.1660821 -0.040566046 -0.013178073
0000c0 9a 2b ac 3d a4 a7 04 bd 9d 53 a4 3d 07 d8 81 3c
       0.08406754 -0.032386437 0.080237605 0.01585008
0000d0 45 b6 e2 bd 3c 90 5e bd f4 53 1b be 61 ed a7 bd
       -0.110699214 -0.05433677 -0.15168744 -0.08199573
0000e0 d0 05 05 3e c5 ee 11 bc 96 d2 f3 bc 34 df 36 3d
       0.12990499 -0.008907025 -0.029763501 0.044646457
0000f0 b2 d1 02 be a8 8a f2 3c c6 6f ca 3d 55 9b 79 3e
       -0.12775305 0.029607132 0.098846 0.2437566
000100 a0 53 2d 3e 89 df 2f 3e c2 9a 68 bb 45 fe a4 3d
       0.16926432 0.17175116 -0.0035492633 0.080563106
000110 81 f1 17 3d 11 61 3c 3e a2 62 07 3e 08 cb 54 be
       0.03709555 0.18396403 0.13221219 -0.20780575
000120 fa 03 c3 3c 37 32 e7 3c 52 57 9f 3c 27 ba b1 bd
       0.023805607 0.028222186 0.019450817 -0.08678084
000130 4a 22 6c bd 0b 47 d3 3d ad cc 0e 3c 58 12 47 3e
       -0.057649888 0.10316285 0.008715791 0.19440591
000140 3c 31 20 be 19 bd 79 bc 4d da 1d be bd 3d 90 bc
       -0.15643781 -0.015242838 -0.15415306 -0.017607564
000150 d4 8b 12 be 6f 3a 02 3e b3 f6 05 be 6e 77 8a bd
       -0.14311153 0.12717603 -0.1308239 -0.06761061
000160 15 5e b0 bd 83 ac ad 3d ac 48 6b bc 21 0d 56 3e
       -0.08611695 0.084801696 -0.014360588 0.20903446
000170 76 cd 60 3e 73 15 35 be fa d1 e4 3d a3 02 e1 3d
       0.21953377 -0.17683963 0.11172862 0.10986831
000180 e1 c0 22 3e a4 51 e3 3d 5b f9 6f 3c 7f c8 5a 3d
       0.1589389 0.11099556 0.014646853 0.053413864
000190 9f d9 56 3c c4 4a 0f 3e 1c 4e 57 3e f3 3c c8 3d
       0.013113408 0.13993365 0.2102589 0.0977725
0001a0 bc 5f 0c 3e a6 9d d4 3c 31 41 af 3d 9a c4 45 3d
       0.13708395 0.025954079 0.08557356 0.048283197
0001b0 e9 39 7b bb 74 9d a5 3d 41 61 ed 3d ec c8 e4 3d
       -0.0038334078 0.080866724 0.11590815 0.11171135
0001c0 91 c1 0b 3e 73 e2 06 3e e9 b5 20 be 60 ce 5a 3d
       0.13648058 0.13172321 -0.15694393 0.05341947
0001d0 8b 36 3b 3d 24 02 af bd 95 9f f8 3c a5 6f 0e be
       0.045706313 -0.0854533 0.030349532 -0.13909777
0001e0 16 d7 37 bd 04 c2 1b be 08 5e 26 be 45 68 e8 bd
       -0.044882856 -0.1521073 -0.16246808 -0.11348013
0001f0 bf 42 9a 3c d0 50 97 3d 1e 45 3a be 9a f3 3f 3e
       0.018830655 0.07388461 -0.18190429 0.1874527
