nn/checkpoints/main_material_different/1/model_0.pt (torch, 451231 bytes, 98 tensors)

weight f4 [8, 5, 3]
000000 24 e0 b5 bd e6 39 fb 3d 7d 3a 06 be b1 7c 1e 3e
       -0.08880642 0.122669026 -0.13108249 0.15477253
000010 68 48 99 3d 3b 1a b1 3d 8c 7b 23 3e 69 c5 2a 3d
       0.074845135 0.08647581 0.15965098 0.04169217
000020 fa 64 2f be ce 36 ff 3d 68 53 8a 3d 23 bb 86 bc
       -0.17128363 0.12461625 0.0675419 -0.016446656
000030 5e 49 51 3d e2 26 5d 3e 77 d5 8c bc 9d 5a 51 3e
       0.05109536 0.21596864 -0.017191632 0.20444722
000040 20 fc 5a be 6d 19 bd 3c 3f 02 51 bd d9 6a fc bc
       -0.2138524 0.023083413 -0.051027533 -0.030812668
000050 83 2f 32 be 6b f0 74 3d fe d2 78 bd e2 91 47 bc
       -0.17400937 0.059799593 -0.060748093 -0.012180777
000060 b3 08 56 be 22 e7 97 bd ae d0 80 be 9e 10 82 3e
       -0.20901756 -0.07417132 -0.2515921 0.25403303
000070 1d b4 6b be 3d 8b 7f be cd 44 95 3b 4f f4 0b 3e
       -0.23017927 -0.24955459 0.004555321 0.13667415
000080 dc ed e5 bd 58 6c 52 bd b6 97 26 be 8a 0c 59 3e
       -0.11227009 -0.051372856 -0.1626881 0.2119619
000090 81 bd 4a 3e 4b a4 cd bd 11 7a 2c bc 7f 7d 28 be
       0.19798853 -0.10041102 -0.01052715 -0.16454123
0000a0 a2 8f 05 3e f1 0e 8c 3d 63 84 0f be ce e7 2c 3e
       0.13043073 0.06838787 -0.14015345 0.16885301
0000b0 f1 55 e3 bd 26 d4 39 bd 94 61 69 be e6 57 fa 3d
       -0.111003764 -0.045368336 -0.2279113 0.122237965
0000c0 44 54 6f 3e 3c 94 44 3e b8 3f 02 be f2 5d 88 3e
       0.23371989 0.19197172 -0.1271962 0.26634175
0000d0 21 7a fc bc 92 0a 13 be 31 ac b9 3d 9e cd 7e 3e
       -0.030819954 -0.14359501 0.09066046 0.24883124
0000e0 47 44 f7 bd e6 1f 5f 3e 0f 23 69 bd de 72 01 be
       -0.1207357 0.21789512 -0.0569182 -0.12641475
0000f0 73 cc 81 be 6c 41 8a bd 8d b8 ad 3d a6 6c 57 be
       -0.25351295 -0.067507595 0.08482466 -0.2103754
000100 00 d2 6f 3e 3c 60 44 be 35 fa a2 3c be e9 e6 bd
       0.23419952 -0.19177336 0.019894699 -0.112750515
000110 8b a1 ef 3b 9f f7 14 3d 39 7d 31 3e 35 57 96 3c
       0.0073129586 0.036368962 0.17332925 0.01835213
000120 37 99 07 3e a3 14 07 be a9 81 08 be d5 6e c7 3d
       0.1324204 -0.13191466 -0.13330711 0.097379364
000130 63 c9 be 3d c1 7e 0d be 7d 06 14 3e 65 52 f8 bd
       0.09315755 -0.13817884 0.144556 -0.121250905
000140 bf 2e 85 3e 69 6a 02 be e8 a9 e3 bd eb c6 78 3e
       0.26012227 -0.12735905 -0.111163914 0.24294631
000150 ef 77 03 be f5 07 38 3e 67 b5 09 3d d9 a6 7b be
       -0.1283872 0.17971785 0.033620264 -0.24575366
000160 71 40 6b be 82 77 0e 3e 7b 6b 56 3e d2 3c 8e 3d
       -0.22973801 0.13912776 0.20939438 0.06945194
000170 51 c2 31 3e 35 ff d4 bd 10 3c cd bd 06 9d d5 bb
       0.17359282 -0.104002394 -0.10021222 -0.006518963
000180 78 c4 51 3e d7 4a 19 b9 f7 7c 7d 3e c6 ea b8 bd
       0.20485103 -0.00014619097 0.24754702 -0.090291545
000190 2d 0d 3d be 43 d6 1b 3c e7 66 76 be 17 7d 32 3d
       -0.18462057 0.009511533 -0.24062692 0.043576326
0001a0 8c 65 95 3d c8 5a 33 3e 4e 4c 8f 3e de eb f8 bd
       0.07294759 0.17515099 0.27987903 -0.12154363
0001b0 a0 64 da bd 47 10 2c be 62 04 00 3e f9 db 10 bd
       -0.10663724 -0.16803084 0.12501672 -0.035366032
0001c0 e8 70 48 3e d5 7b 76 be 7f 30 cd 3d 8d c8 f3 bd
       0.1957432 -0.24070676 0.100190155 -0.119034864
0001d0 27 99 66 be 2f 9a 12 3e d4 ad 83 3e 4d 28 d2 3d
       -0.2251936 0.14316629 0.25718558 0.10261593

bias f4 [8]
000000 fa 73 bd 3d 7b 1d 58 3d a7 8f 5b be 93 cf e4 bc
       0.092506364 0.05276249 -0.21441518 -0.02793101
000010 1d e7 0d 3e cd 71 79 3d 0d 9e ba 3d e9 62 cb bd
       0.13857694 0.060899545 0.09112177 -0.09930975

weight f4 [8]
000000 8d f9 7f 3f 43 79 81 3f 61 17 82 3f 81 08 7a 3f
       0.9999016 1.0115131 1.0163385 0.97669226
000010 b6 0d 7d 3f e0 c6 81 3f 47 5a 80 3f 20 f8 80 3f
       0.98849046 1.0138817 1.002755 1.0075722

bias f4 [8]
000000 9a 73 d0 3c 9f 4d f5 3c 49 ef cd 3c 3d 8d 0f bd
       0.025445748 0.02994424 0.025138514 -0.035046805
000010 a7 b3 aa bc 4d 05 fc 3c 6b d6 a1 3c bb a6 90 3c
       -0.020837618 0.030764246 0.019755563 0.017657628

running_mean f4 [8]
000000 2e 70 e1 3e af 71 ef be da d1 35 be 97 18 76 3e
       0.440309 -0.4676642 -0.17755833 0.24032818
000010 a0 a4 57 bd c3 d9 e0 3d 59 2e 82 3e 5d b7 8d 3d
       -0.052647233 0.10979035 0.25425985 0.069197394

running_var f4 [8]
000000 74 5d 31 3f 6e bd c6 3f d1 1f a1 3d dc 05 1d 3f
       0.69283223 1.5526559 0.078673966 0.61337066
000010 9f 9a 7a 3e c2 be 30 3e 84 60 87 3e 3c 7e 7a 3e
       0.24473046 0.17260268 0.26440823 0.24462217

weight f4 [8, 8, 3]
000000 24 d1 91 bd 10 42 19 be ab 25 d1 3d d6 6a 68 bd
       -0.071199685 -0.14966607 0.10212263 -0.05674251
000010 5c 2b 4b 3e c5 3b 36 be 6e 1c 05 3e 31 7a e9 3d
       0.19840759 -0.17796238 0.12999126 0.11400259
000020 58 c1 c5 bd 49 0d 93 bd 65 fd 51 be c5 47 03 be
       -0.09656018 -0.07180268 -0.20506819 -0.12820347
000030 3f a6 40 be 9a bc 86 38 39 17 08 be 57 39 3b bd
       -0.18813418 6.424748e-05 -0.13290109 -0.04570898
000040 4a 0a 0f ba fc 8a 63 3d 1b bd a5 bd e0 00 3f 3e
       -0.000545655 0.055552468 -0.0809271 0.18652678
000050 a6 c1 34 be bc e6 81 3c 15 5b 67 bd ba 70 36 be
       -0.17651996 0.015857093 -0.056483347 -0.1781644
000060 21 25 0f 3d 5c 07 3e 3d ba 30 e7 3d a5 ee 54 bd
       0.03494752 0.046393737 0.11288591 -0.0519854
000070 0d 8f fd bd 7a ca 74 be 94 28 9b bd 84 7e c8 bd
       -0.123808004 -0.23905364 -0.07576099 -0.09789756
000080 e1 c2 40 3e 2d 0a 27 be 35 5f 16 be 47 d1 8d bc
       0.1882434 -0.16312476 -0.14684756 -0.017311705
000090 c9 e4 4c 3e 7d d6 1e be 82 53 0d be 07 f3 32 be
       0.2000915 -0.15511508 -0.13801387 -0.1747552
0000a0 fd bd 36 be c1 63 2d 3e 9b 31 b0 3d 12 0c 1d 3d
       -0.17845912 0.16932584 0.086032115 0.03834159
0000b0 95 ba bb 3d 88 48 87 3d 62 9a fe bd b9 09 30 3e
       0.09166447 0.06605631 -0.1243179 0.17191209
0000c0 00 b9 04 3e bf 5a 66 bc 8a 72 20 3d 00 df bd bd
       0.12961197 -0.0140597215 0.039171733 -0.092710495
0000d0 04 d1 29 be 1f 46 19 3c 6f 1b 14 3e 98 a7 20 be
       -0.1658364 0.009355097 0.1446359 -0.15688932
0000e0 c0 76 0f bd 2d 3c 44 bc 1f f9 5d be 63 87 09 3e
       -0.03502536 -0.011977238 -0.21677063 0.13430552
0000f0 f4 fe 2c be f4 b3 19 3e b1 03 1d be f7 ac 08 be
       -0.16894132 0.15010053 -0.1533344 -0.13347231
000100 a9 46 1d 3e 10 b0 4c be be b3 26 3d 59 68 49 3e
       0.15358986 -0.19989038 0.04069876 0.19668712
000110 9d f9 2e bd 50 a0 27 bd 1a 85 67 be 2b 83 db 3d
       -0.04271852 -0.04092437 -0.22609368 0.10718378
000120 7b 10 d6 3c 2a 0a d9 bd 71 b8 c1 bd 4b 28 08 3e
       0.026130905 -0.10597642 -0.094590075 0.1329662
000130 80 91 4c 3e 86 f1 1c 3e e5 af ec bd e1 59 33 be
       0.19977379 0.15326509 -0.11556987 -0.17514755
000140 00 f8 b2 bd e4 7a 20 3d b9 ec b9 3d 4b f9 1e bc
       -0.087387085 0.039179698 0.090783544 -0.009702991
000150 5b 77 31 3e 2a f7 0c 3e 17 dd 3b 3e c4 56 52 bc
       0.17330687 0.1376616 0.18346058 -0.012838069
000160 d2 12 39 3d 24 1a 35 3e 63 fd 2f bd 26 7d 2e bd
       0.045183964 0.17685753 -0.042966258 -0.04259982
000170 49 1e 1e 3e 10 40 b5 3b 85 a9 25 be 31 2c d9 3d
       0.1544124 0.0055313185 -0.16177948 0.10604132
000180 84 41 2e be ba 40 ba 3d 76 21 19 be 8d b5 88 3d
       -0.1701718 0.09094377 -0.1495417 0.06675253
000190 0a 5b 81 bd 14 79 61 3d 4f b7 95 bc 8f e6 4c bb
       -0.063161924 0.05504711 -0.018275885 -0.0031265353
0001a0 54 72 15 be 6b b1 29 3e f8 ad 42 be c1 27 52 bd
       -0.14594394 0.16571586 -0.19011676 -0.051307444
0001b0 86 68 f7 3d f8 87 8d 3d 28 9b 03 3e 9d 5a 89 bd
       0.12080483 0.069106996 0.12852156 -0.06706736
0001c0 12 1f 26 be a9 a5 07 be 9a 3f 2b bd 3d 2c 02 be
       -0.1622279 -0.13246788 -0.041808702 -0.12712188
0001d0 b5 92 95 bc 9d fc 25 be c8 e5 1b 3e 48 cc 18 be
       -0.018258432 -0.16209646 0.15224373 -0.14921677
0001e0 44 bc 4b be 2a 33 2c 3c ea 73 f9 3d 3d af 3a be
       -0.19896036 0.010510245 0.12180312 -0.1823091
0001f0 a4 77 07 3e ba f0 2b 3e f3 f5 e7 bd 8b 34 ff bc
       0.13229233 0.16791049 -0.11326208 -0.031152984
000200 19 a4 bc 3d ec 2d de 3d 7b 47 07 bd 02 35 d8 bd
       0.09210987 0.10848603 -0.033027153 -0.105569854
000210 94 dc 1b 3e ed 0e c4 bd a4 ab 99 3d 48 5d 35 3c
       0.15220863 -0.09573159 0.07503441 0.011069603
000220 a8 61 42 3e a1 ae 30 be 6a 7a cc bd f1 1e 07 3e
       0.18982565 -0.17254116 -0.09984286 0.13195397
000230 7e 7b 5e be 8d 6b c2 bd da 8a 08 bd 7a 3a 41 bb
       -0.21726796 -0.0949317 -0.033335544 -0.0029484318
000240 1a 53 cd bc 88 c9 0f 3e d3 b7 5c bd f4 88 4f 3e
       -0.02506404 0.14041722 -0.053886246 0.20267087
000250 0b 87 df 3d 9f 20 b0 3d 21 26 08 3e 27 49 26 be
       0.10914429 0.08599972 0.13295795 -0.16238843
000260 0d 03 b2 3d be dd fa 3d 92 37 05 3d 87 ea d2 38
       0.08691988 0.12249325 0.0325237 0.000100572644
000270 19 ea 34 bd 58 a3 02 3c b5 26 4f be 63 41 d0 3d
       -0.044168565 0.0079735145 -0.2022961 0.101687215
000280 12 cc 0e be ce 03 86 3d a6 64 47 be 49 12 9f bd
       -0.13945034 0.065436944 -0.19471988 -0.077671595
000290 9d 4a 44 be 85 7d 8e 3d 07 f5 59 be cb 5c db ba
       -0.19169088 0.06957535 -0.21284877 -0.0016736028
0002a0 0c 66 86 3d b3 24 67 bd ea fc 29 be e1 62 33 be
       0.06562433 -0.056431483 -0.16600385 -0.17518188
0002b0 86 f0 c7 3d 4a 5b 42 3e b7 7c 0c 3e 08 41 3b 3e
       0.09762673 0.18980137 0.1371945 0.18286526
0002c0 4d 4e 19 3e e3 39 83 bd 7c 71 c0 3d 71 bc 93 3c
       0.14971276 -0.064075254 0.093966454 0.018034192
0002d0 6b 8f fc 3d 3a 8a bf bd 48 21 22 bd 0c 4c 09 3e
       0.12332042 -0.093525365 -0.03958252 0.13407916
0002e0 68 3b 6f bd 43 f4 d8 3c 13 f4 27 be 46 61 7c 3d
       -0.058406264 0.02648366 -0.164017 0.061616205
0002f0 b7 d0 17 3e 92 9b 85 b9 48 e3 04 3c 7c 12 5a be
       0.14825712 -0.00025483646 0.008110829 -0.21296114

bias f4 [8]
000000 d6 92 5b bd 60 e6 19 3e cd ff d0 3d 4b e1 29 be
       -0.05360683 0.15029287 0.1020504 -0.16589849
000010 d8 f8 8f 3d 44 0d ad 3d 97 7d 28 bc 08 70 d7 3d
       0.07029885 0.08449796 -0.010283849 0.10519415

weight f4 [8]
000000 17 7e 7d 3f f0 70 7f 3f b2 49 82 3f 08 fe 7e 3f
       0.9902052 0.99781704 1.017874 0.9960637
000010 a0 3c 7a 3f bc 25 7c 3f be 5c 80 3f 70 ea 81 3f
       0.97748756 0.9849508 1.0028303 1.014967

bias f4 [8]
000000 1a b1 b2 bb d6 04 d4 3c 27 4b 07 3c e5 7e 99 3c
       -0.005453241 0.025881212 0.008257664 0.018737266
000010 64 76 bc 3b 5b ba 29 bc 9b 87 28 3d f8 79 d7 3c
       0.005751418 -0.010359372 0.04114495 0.026303276

running_mean f4 [8]
000000 f7 c3 b4 be 28 b0 a0 bb 64 54 84 bd db b3 8e 3d
       -0.3530576 -0.004903812 -0.06461409 0.069678985
000010 fa ba 24 be 75 27 20 3d 06 25 cd bc c9 31 61 3e
       -0.16086951 0.03910013 -0.025042068 0.21991648

running_var f4 [8]
000000 79 b0 89 3e c2 e5 e6 3d c0 a0 9a 3e 79 14 2c 3e
       0.2689245 0.112742916 0.30200768 0.16804685
000010 ff 1d 14 3f 69 93 99 3e a4 69 16 3e d6 d4 06 3e
       0.5785827 0.29995278 0.14688736 0.13167128

weight f4 [8, 8, 3]
000000 a3 39 5f 3e 94 cf 49 3e 2d 4b f8 3d f8 ec 94 bc
       0.2179933 0.19708091 0.12123714 -0.018179402
000010 30 13 46 3e c1 3f 47 be 9c 1f 1a 3e b8 0c 3f be
       0.19343257 -0.19457914 0.1505112 -0.18657196
000020 3b 1b bd bd ab eb d6 3c 93 ee 1a 3d 73 b2 62 3d
       -0.092337094 0.026235422 0.03782518 0.055345964
000030 e9 a6 dc bd 05 09 e8 3d 22 1c 1f 3e 46 6c 1b 3e
       -0.10774023 0.11329845 0.15538076 0.15178022
000040 98 14 21 3e 8b 1d 82 bc 49 9c b8 bd 5c 27 e5 bd
       0.15730512 -0.015883228 -0.09014184 -0.11189148
000050 1e d5 86 3c b8 1d 4b bd 75 5d 38 bc f6 9c db bd
       0.016459044 -0.04958889 -0.011252751 -0.10723297
000060 2f 52 3b bd 1e 51 47 3d 59 ab 41 3e 92 2c 51 be
       -0.045732673 0.048661344 0.1891302 -0.20427158
000070 52 f5 29 3e 29 f2 41 3e 0f ef 9e 3c 4a 1e 3e be
       0.16597489 0.18940033 0.019401101 -0.18566242
000080 89 98 3f 3e ca 99 fe bb 9f 6e 01 be ae 06 a1 ba
       0.18710531 -0.007769798 -0.12639855 -0.0012285316
000090 3e 33 fd 3c 37 57 ce 3d 17 27 2c 3d 49 12 70 3c
       0.030908223 0.10075229 0.042029466 0.014652797
0000a0 54 34 a4 3d a1 9a be 3d 0a 85 0a be 37 ec 08 be
       0.08017793 0.09306837 -0.13527313 -0.13371359
0000b0 49 24 37 be d3 d5 81 bd d5 1f c3 bd 76 69 51 3c
       -0.17884935 -0.06339612 -0.09527556 0.0127814915
0000c0 8a c0 0a be 67 23 6c bd 9b 9d cd 3d 42 ab cf 3d
       -0.1355001 -0.05765095 0.100398265 0.10140087
0000d0 0c 8e 45 3e 01 a4 a3 3d 6b bb 17 3e ab 96 0c 3d
       0.19292468 0.07990266 0.14817588 0.034323376
0000e0 52 ed dc bd de a5 87 bd b9 9a 0e be 4d 9e 86 3d
       -0.10787453 -0.066234335 -0.1392621 0.06573162
0000f0 7c ec 2d 3e d7 8e 2a be 8f 3d 60 be aa 4c 6b 3e
       0.16984743 -0.16656052 -0.21898483 0.22978464
000100 b1 94 b7 3d 90 53 2f be 59 1c 71 bd c0 d9 92 bc
       0.089639075 -0.1712172 -0.058864925 -0.017926097
000110 9d ae 27 be 7b 71 f3 bd 13 54 df bd 1e 55 29 be
       -0.16375203 -0.11886879 -0.10904708 -0.16536376
000120 2a 59 1b 3e a8 13 27 3d 8a c5 1c be 54 ed f4 3d
       0.15170732 0.04079023 -0.1530973 0.11959329
000130 d4 a9 d4 3c 57 b9 91 bd af af 1a bd 13 cd f3 3d
       0.025959887 -0.07115429 -0.0377652 0.11904349
000140 88 ae 80 bd 58 02 55 bd cb 4c b5 bc 64 f0 0c be
       -0.06283289 -0.05200419 -0.022131344 -0.13763577
000150 4e ba 32 3e f6 5a 25 be 1c b3 3c bd 55 c8 04 3e
       0.17453882 -0.1614798 -0.04606925 0.12967046
000160 84 63 1a bd 47 ce 3f 3e 89 c5 f7 3d 2b 2c 26 be
       -0.03769256 0.18731032 0.12098224 -0.16227786
000170 83 8b 1c bd 88 45 c2 3c 40 65 d7 3d c8 5c 30 be
       -0.038218986 0.023714796 0.10517359 -0.17222893
000180 2e 50 bb 3d 7e 1f 14 be 71 75 02 3e b0 a6 f8 bd
       0.091461524 -0.14465138 0.12740113 -0.12141168
000190 05 bc 56 bd f7 94 dd 3c b6 82 92 3b 35 c4 5d 3d
       -0.052425403 0.027048571 0.0044711484 0.054142196
0001a0 d1 e0 f0 bd 57 dd 7e bd df 2e 35 3c 79 be 35 3e
       -0.1176163 -0.062222805 0.011058538 0.17748441
0001b0 71 55 9e bd e9 1e ab bb 01 16 7f 3d c4 de 95 3d
       -0.077311404 -0.0052221906 0.062276844 0.0731788
0001c0 63 cd 1c bd cb e0 16 3e c5 4a 6a bc a5 0c 88 3c
       -0.03828181 0.14734189 -0.014300053 0.016607592
0001d0 1f 46 e3 bc 7b 02 3a be 38 dd 35 be ce 7a ec bd
       -0.027743397 -0.18165009 -0.1776017 -0.11546861
0001e0 1e 66 a5 3d 77 b7 1f 3e f0 ff 04 be 74 ec f7 3d
       0.08076118 0.1559733 -0.12988257 0.12105647
0001f0 e7 1c 85 3d fc 59 43 3e c2 bf 2f 3e bb a7 c2 3d
       0.06499653 0.19077295 0.17162994 0.09504648
000200 a1 38 96 bd fb 69 f0 3c 6d b3 c4 3d 6d fc 84 3d
       -0.0733502 0.02934741 0.09604535 0.06493459
000210 48 83 eb 3d 72 32 b5 3c 14 99 61 bc 74 b4 16 be
       0.11499649 0.02211878 -0.013769407 -0.14717275
000220 60 e3 39 3e 7f 08 b1 bd 2f 33 bc 3c 75 da 22 be
       0.18153143 -0.086441986 0.022973625 -0.15903647
000230 76 57 ea bd 0d d5 2c be a9 a0 2f 3c 82 32 26 3e
       -0.11442463 -0.16878147 0.010719457 0.16230205
000240 8f 2c 8c bd 0f f4 ab b8 bf bf b8 bd 69 52 50 3d
       -0.068444364 -8.199375e-05 -0.09020948 0.050859842
000250 24 11 e7 3d de 53 2e 3e 3b 35 a3 bd 92 43 16 3e
       0.11282566 0.1702418 -0.07969137 0.14674214
000260 2c e9 a2 3d 67 e4 d8 3d 01 c6 8b 3d 0b db fd 3c
       0.0795463 0.10590439 0.068248756 0.030988237
000270 80 68 3e 3e d9 46 09 3d 8a ed 09 be 96 34 15 3e
       0.18594551 0.03351483 -0.1346952 0.14570841
000280 87 fd 2d 3d 86 1f 00 be 0f 32 38 be fa ca 1b 3e
       0.04247811 -0.12512025 -0.17987846 0.15214148
000290 fc 57 ae 3d 77 35 86 3d e3 d8 48 3e b9 50 ac 3d
       0.085128754 0.06553166 0.19613986 0.08413834
0002a0 d1 54 f0 3b e5 27 b6 3d 2f 81 24 3e fa f2 d0 bd
       0.0073343297 0.08894328 0.16064905 -0.10202594
0002b0 76 ee 03 bb eb fe 48 be 07 e7 a5 3d 12 8b 4b 3e
       -0.0020131147 -0.19628493 0.081007056 0.1987727
0002c0 99 40 00 3e 4d 26 3f 3e 61 4a 1c bd b9 59 5d bd
       0.12524642 0.18666954 -0.03815687 -0.054040644
0002d0 96 13 d0 bd 35 3b 0b be cf 38 20 be 44 e3 89 3d
       -0.10159986 -0.13596804 -0.15646671 0.067328006
0002e0 8f 77 6d 3d 2c e2 08 3e d5 c6 9b bd 3a 2d 07 bd
       0.057975348 0.13367528 -0.076062836 -0.033002116
0002f0 13 b3 43 3d 07 e5 44 3d 08 8e 37 be ef 2b 7a 3d
       0.0477782 0.04806998 -0.17925274 0.061077055

bias f4 [8]
000000 97 8f f9 bc c5 5a e7 bd ec 03 4c be c0 a2 6b bd
       -0.030463977 -0.1129661 -0.19923371 -0.057528257
000010 1b d1 41 bd 9d b6 0e 3e b4 68 c5 3c d1 5e 15 3e
       -0.04731856 0.13936849 0.024097778 0.14586951

weight f4 [8]
000000 28 6e 82 3f ba 7d 7c 3f 62 49 84 3f 54 06 84 3f
       1.0189867 0.98629344 1.0334895 1.0314431
000010 ad 40 7d 3f 5f 6d 7f 3f 33 95 7f 3f 89 56 78 3f
       0.9892681 0.9977626 0.99837035 0.9700704

bias f4 [8]
000000 07 45 12 3d f4 c8 96 bc af aa d0 3c 3c cc 95 3c
       0.03571036 -0.018406369 0.025472013 0.018285863
000010 ee 61 b3 3b 23 4d d6 3c 5b 8b 7a 3c d5 be 10 bd
       0.0054743206 0.026159829 0.015292014 -0.03533824

running_mean f4 [8]
000000 53 6f 13 3e 74 62 19 be fa 5f b0 be c8 1c 8c bd
       0.14397936 -0.14978963 -0.34448224 -0.06841427
000010 e3 cf 04 be 5c af a9 3e f7 45 ad 3e 1b 7e 17 3e
       -0.12969927 0.331416 0.3384244 0.14794199

running_var f4 [8]
000000 80 7b ce 3d 39 8a eb 3d 49 7e a5 3d 8d 67 3e 3d
       0.100821495 0.11500973 0.080807276 0.046485472
000010 7c 49 07 3e a6 66 f2 3d 53 26 28 3e 32 e9 79 3d
       0.13211626 0.11835985 0.1642087 0.061013408

weight f4 [8, 8, 3]
000000 45 4b 05 be 15 2c 8e bb 79 cd 31 be 89 09 00 3e
       -0.13016994 -0.004338751 -0.17363538 0.12503637
000010 49 4b e0 3d 31 0f 76 bd 2e 57 e2 bd c1 57 ea 3d
       0.109518595 -0.06007308 -0.110517845 0.11442519
000020 ec 08 91 bd 8a 7e 22 3c e7 69 3b 3e 6e aa 02 bc
       -0.0708178 0.009917865 0.18302117 -0.007975204
000030 36 6f 8f bd 22 c3 b7 3d 88 76 b5 bc d3 72 00 be
       -0.07003634 0.089727655 -0.022151247 -0.12543802
000040 4d bb 06 3e 13 60 51 bd 55 83 eb bd 7b 8b 26 bd
       0.13157387 -0.051117014 -0.11499659 -0.040660363
000050 fc 45 23 bc 8e 15 84 bd 7f d2 a4 3d df 72 f3 3d
       -0.009965416 -0.06449424 0.080479614 0.11887144
000060 ba 57 03 bc f0 1f 0b 3e 2c dd 37 be ff 00 fc bd
       -0.008016521 0.13586402 -0.17955464 -0.123048775
000070 fb 79 20 3d e6 5c e4 3d a0 38 11 3e 6d 38 52 3d
       0.03917883 0.111505315 0.14181757 0.051323343
000080 7e 04 1e 3c 86 02 02 3d 56 58 74 be 72 00 a8 3d
       0.009644626 0.031740688 -0.23861822 0.0820321
000090 15 d2 78 3d cd 75 40 3e 70 ef 18 bd 29 35 c5 bd
       0.060747225 0.18794937 -0.03733772 -0.0962928
0000a0 07 7c 29 3e 84 73 0a 3e e5 51 87 3d d0 0d 28 3e
       0.16551219 0.13520628 0.06607417 0.16411519
0000b0 ee 9b 0b 3d 22 ed df 3d 62 c9 60 bd 89 ab 23 3e
       0.034084253 0.10933901 -0.054879554 0.15983404
0000c0 63 3b dd 3d 16 3e c7 3c 32 ea 0c be a5 ef 3c be
       0.10802343 0.024321597 -0.13761213 -0.18450792
0000d0 b1 e7 25 3e 86 f0 1a 3e 36 d7 9a 3d bf 94 20 3d
       0.16201665 0.15130815 0.075605795 0.039204355
0000e0 b0 35 2a be c8 0d 88 bd de 81 0d be 4a 0f d0 3b
       -0.16622043 -0.066432536 -0.13819072 0.006349479
0000f0 74 e9 96 bd 82 57 ef bd cd 75 24 be 26 6c 02 3e
       -0.073687464 -0.11686613 -0.16060562 0.12736568
000100 3c df 41 3d 86 a8 25 be ef 33 9d 3d 71 dc f8 3d
       0.047332034 -0.16177568 0.07675921 0.12151421
000110 53 b9 f0 bd 68 25 87 3d f7 40 84 bc 70 55 1d 3e
       -0.11754098 0.065989316 -0.016144259 0.15364623
000120 8d 69 03 3e c0 a2 30 3d 38 8e 2b 3e 3c 48 30 be
       0.12833233 0.04312396 0.16753471 -0.17215055
000130 14 04 d1 3d ab 0b b5 3d 92 ed 28 be aa 9a 37 be
       0.10205856 0.08840116 -0.16496876 -0.17930093
000140 5a bd 0e bb 85 c9 23 be e6 6a 2b bd da 14 3b be
       -0.0021780343 -0.15994842 -0.041849993 -0.18269673
000150 97 11 cb 3d 91 ae 08 3e b3 5c f0 3d 33 05 9a bd
       0.09915464 0.13347842 0.11736431 -0.07520523
000160 e8 19 2b be c9 6f 00 be e3 d6 9e 3d 57 79 21 be
       -0.16709101 -0.12542643 0.0775583 -0.15768944
000170 8b 82 a8 bd 6f 55 11 3e 20 97 30 3e 3d 2d 39 3e
       -0.08228024 0.14192747 0.1724515 0.18083663
000180 3f c0 c8 ba cf df 45 be bc 64 67 3d d1 8f 4a be
       -0.0015316083 -0.19323657 0.056492552 -0.19781424
000190 7c b1 e2 bc 04 b6 01 3e ce f5 0d 3e 01 3d 42 3d
       -0.027672522 0.1266709 0.13863298 0.04742146
0001a0 e5 e7 09 be 86 d0 67 3d 98 ce 1c be 5f ae ad 3d
       -0.13467367 0.056595348 -0.15313184 0.08480524
0001b0 d2 58 d9 3c 31 db 00 bd 12 e3 21 be d6 0d be 3b
       0.02653161 -0.031459037 -0.15809277 0.005799989
0001c0 a5 6f 2f 3e 4d 27 c4 3d c6 e6 02 3e 19 a6 46 3d
       0.17132433 0.095778085 0.12783346 0.048498247
0001d0 e5 19 74 3d aa cb 1a 3d d2 2c f5 bd 12 bd be bc
       0.059595007 0.037791885 -0.119714394 -0.023283515
0001e0 86 b8 3e be b7 a6 a6 bd e6 fd 83 bd 25 0f dd 3d
       -0.18625078 -0.08137267 -0.06444912 0.10793904
0001f0 97 53 a0 bd a2 7f 5c bd 17 f0 8c 3b 51 cc 4b 3e
       -0.078284435 -0.053832658 0.004301082 0.1990216
000200 59 b7 2b be f8 46 30 be 76 f9 33 be 91 53 43 be
       -0.1676916 -0.17214572 -0.1757563 -0.19074847
000210 05 0d 63 bd 7b 07 ab 3d 5a 60 32 3e 9c 88 c4 3d
       -0.05543234 0.08351036 0.17419568 0.09596369
000220 cd 7c 31 3e 63 ae 90 3d 19 3b 2d 3d 3d e0 30 be
       0.17332764 0.070645116 0.042292688 -0.1727304
000230 8f 9f 3e 3e 53 fe d6 bd 9e 16 93 bd 12 27 1e be
       0.18615554 -0.10497727 -0.07182048 -0.15444592
000240 69 3c a7 bb d1 eb 67 3d e1 3c c7 bd 47 ff 07 3e
       -0.005103637 0.056621376 -0.097284086 0.13280974
000250 65 59 19 3d 36 e4 54 be eb a8 2c be 90 b6 01 3e
       0.03743877 -0.2079018 -0.16861312 0.12667298
000260 1f 52 d3 bd 23 0f d0 bd 6b 58 b2 bd c8 34 0c be
       -0.10318398 -0.10159137 -0.08708271 -0.1369201
000270 66 b4 c7 bd 4f b2 1a 3d bc 5c 11 3e 6c 37 7b bd
       -0.09751205 0.037767705 0.14195532 -0.06133215
000280 71 b8 41 be 50 d2 61 bd 14 19 fd 3b 49 6c 59 be
       -0.18918015 -0.05513221 0.007723937 -0.21232714
000290 f5 4c 24 3e 27 8e d5 bd 2e 41 ab 3d c7 5a 1c 3e
       0.16044982 -0.10427504 0.083620414 0.15269004
0002a0 ef 8b 37 3e 3a 82 46 be ce 02 95 3d 51 c9 9d 3c
       0.17924474 -0.19385615 0.072759256 0.019261034
0002b0 b5 c2 33 3d 97 50 39 be 88 21 1e 3d 2b 8d db bd
       0.04388686 -0.18097149 0.038606197 -0.10720285
0002c0 ed f0 8c 3c 44 39 de 3d 07 94 01 3e 93 a8 28 be
       0.017204726 0.10850766 0.12654124 -0.16470556
0002d0 5c 16 34 3e 6d c2 15 be b0 1e 09 3e 7d 67 20 be
       0.17586654 -0.14624949 0.13390613 -0.15664478
0002e0 ef 29 3d be ff e8 90 bd b4 31 b2 bd d6 19 30 be
       -0.18473028 -0.070756905 -0.08700886 -0.17197356
0002f0 13 d5 a3 bd 90 04 89 bd d7 2e 22 be 44 08 4f be
       -0.07999625 -0.06690323 -0.1583818 -0.20217997

bias f4 [8]
000000 fb c5 94 bd 2f d5 35 3e 41 8f a6 bd d8 60 9d 3d
       -0.07264324 0.17757104 -0.08132792 0.07684487
000010 d5 53 ca bd 87 ca 1b 3e 49 86 49 bd e9 30 af 3c
       -0.09879271 0.15213977 -0.04920033 0.021385627

weight f4 [8]
000000 0a 51 81 3f 9b ca 84 3f 3b 22 77 3f f1 68 81 3f
       1.0102856 1.037433 0.96536607 1.011015
000010 f0 8d 82 3f 77 20 73 3f 7b 50 82 3f 95 e0 80 3f
       1.0199566 0.9497141 1.0180811 1.0068537

bias f4 [8]
000000 16 3a a6 3a d7 79 10 3c 90 ee d0 ba 53 67 b3 3c
       0.0012682106 0.008818111 -0.0015940238 0.021899855
000010 f7 66 de 3c 32 fd ec bc 6d 0a ef 3c c4 ef 60 3c
       0.027148707 -0.028929327 0.029179776 0.01372904

running_mean f4 [8]
000000 83 d1 06 be 40 55 e9 3e 2f 82 2b be dc c3 85 3c
       -0.1316586 0.45572853 -0.1674888 0.016328745
000010 21 6b b2 bd 95 a1 6c bc 36 2f 91 be bd 3a 82 be
       -0.087118395 -0.014442821 -0.28356332 -0.2543544

running_var f4 [8]
000000 ae 68 5f 3d b0 21 8a 3e a4 2f 33 3e 1f 16 d0 3e
       0.05454319 0.26978827 0.17498642 0.40641877
000010 09 ff 5e 3e de bb 0b 3e ea db 6e 3e 9f eb 22 3f
       0.21776976 0.13645884 0.23326078 0.6364078

weight f4 [8, 8, 3]
000000 36 02 c7 bd 53 98 0a 3d ab 8a ce 3d 12 e5 d5 3b
       -0.097172186 0.033836674 0.100850426 0.0065275514
000010 1a d3 5e 3e 7a f0 2a be 8f 23 10 3e b0 a8 b8 bd
       0.21760216 -0.16693297 0.14076065 -0.090165496
000020 fd 94 9e bd bf 7d 73 bd 87 bb 29 be 02 67 3f 3e
       -0.07743261 -0.059446093 -0.16575442 0.18691638
000030 79 99 20 3e c6 15 08 3e 60 23 34 bb 06 51 79 3d
       0.15683545 0.13289556 -0.0027486905 0.060868286
000040 99 bb 91 bd 60 fa 85 bd 75 57 bd 3c af 0b 0e 3e
       -0.071158595 -0.06541896 0.023112992 0.13871644
000050 bc c5 91 3d 91 aa e1 3d 5c 72 ca 3d 02 e1 92 bc
       0.07117793 0.11018861 0.098850936 -0.017929558
000060 1e 74 5c bd a8 8d b9 3d a7 74 fc bd 03 93 37 3e
       -0.053821675 0.09060222 -0.12326937 0.17927174
000070 cd 1f 2a be a7 08 2e 3e 5a d8 62 bd df 8f c8 bd
       -0.16613694 0.16995488 -0.05538211 -0.09793066
000080 08 88 b7 bd f3 47 3c be 88 c4 15 3d 83 81 1c 3e
       -0.08961493 -0.18386821 0.03656438 0.1528378
000090 c1 46 39 be 75 c3 7e bd c0 66 41 3e 79 b3 5d 3d
       -0.18093397 -0.06219812 0.18886852 0.054126237
0000a0 f5 f9 fd bd 65 16 98 bd 5e f2 0e 3d 41 6c 28 be
       -0.12401191 -0.074261464 0.034899108 -0.16447546
0000b0 80 01 4f 3e bd 73 0f bd 7a 7c 30 be 0d d9 ae bd
       0.20215416 -0.035022486 -0.17234984 -0.08537493
0000c0 26 4e 14 3e ae df 01 be 8e 43 06 bd 8a de 2d be
       0.14482936 -0.12682983 -0.03277927 -0.16979423
0000d0 c1 b4 9e bd c6 06 40 be 25 69 a8 3d 2f e3 f5 3d
       -0.0774932 -0.18752584 0.0822318 0.120062225
0000e0 25 c2 f9 3d 10 c0 f3 3d b5 28 55 3e bc 5a e6 bd
       0.12195233 0.119018674 0.2081631 -0.11247775
0000f0 92 d9 32 3e 84 4e 17 be 45 e5 45 be 37 06 23 3d
       0.17465809 -0.14776045 -0.1932574 0.03980085
000100 ff 14 f4 3c 76 ee 36 be 90 2d 23 3e 37 31 0d 3e
       0.029795168 -0.17864403 0.1593535 0.13788305
000110 23 b2 c8 bc 74 55 67 bd 37 52 8e bd 6f 5e 35 be
       -0.024499005 -0.05647798 -0.06949275 -0.17711805
000120 6a cf 9b 3d fd be 02 be ab 0f 52 bd 95 cf db 3d
       0.076079205 -0.12768169 -0.051284473 0.107329525
000130 d2 05 38 be 33 96 7b bd 3d 8d 1d 3e 47 3c 88 3d
       -0.1797097 -0.061422538 0.1538591 0.06652122
000140 5a 40 0f be 1f 2f 16 3e f4 f2 47 3e fe 1d 14 be
       -0.13989392 0.14666413 0.19526273 -0.14464566
000150 18 0a 98 3d 9b 5b 64 bc d1 6c ce bb 70 1b 2a 3e
       0.074238 -0.013937856 -0.006299593 0.16612029
000160 09 00 b2 bd ee aa a4 bd 93 b9 c6 3d d5 94 fd 3d
       -0.08691413 -0.08040415 0.09703364 0.12381903
000170 41 ba 8f 3d bb 20 17 3c df 79 38 3e 35 6c 7b bd
       0.07017947 0.009224112 0.1801524 -0.06138249
000180 66 bc 86 3d 6c 5e 42 bd 73 90 50 3e d2 3b d3 bb
       0.06578903 -0.04745333 0.20367603 -0.00644634
000190 69 90 a3 bd 94 7f 30 be 2b 66 50 3e 5e 49 0f be
       -0.079865284 -0.17236167 0.20351474 -0.13992831
0001a0 89 04 17 bd dd db b4 bc f0 92 cc bd 97 11 41 be
       -0.03686956 -0.022077495 -0.099889636 -0.18854366
0001b0 1e 95 93 3c 92 d8 06 3d a1 33 4f 3d 36 ad 45 be
       0.01801544 0.03292138 0.050586347 -0.19304356
0001c0 19 7e cd 3d 26 90 1b 3e 0f 20 24 be 03 7b 7b bd
       0.10033817 0.15191707 -0.16027854 -0.06139661
0001d0 82 3b 77 bd f5 46 22 bd df 9c 3f be b6 e9 88 3c
       -0.060359485 -0.03961845 -0.18712185 0.016713005
0001e0 64 00 19 bd 18 14 89 bc e8 50 29 be 4b e5 25 be
       -0.03735389 -0.016733214 -0.1653477 -0.1620075
0001f0 bc 54 39 be 5a e5 99 3d 83 19 9c bd 1c af 14 be
       -0.1809873 0.075144485 -0.076220535 -0.14519924
000200 76 6f 15 be df d0 20 3e 23 61 30 be 03 43 64 bd
       -0.145933 0.15704678 -0.17224555 -0.05572797
000210 7f 52 26 3e 34 fe c5 3d 6e 75 b6 bd fc 41 2a bc
       0.16242407 0.09667626 -0.08909117 -0.010391708
000220 0f 17 cf bc 68 9f 1d 3e c0 63 b7 bd b1 20 04 be
       -0.02527955 0.1539284 -0.08954573 -0.12903096
000230 11 47 cf bc 6d c7 7e bd 8f 5c 90 3d fe a1 a3 bc
       -0.025302442 -0.062201906 0.07048904 -0.019974705
000240 72 7f 6e bc 3e 73 9d 3d 51 e8 4f 3d 9c 54 63 be
       -0.0145567525 0.07687996 0.050758664 -0.22200245
000250 e0 23 28 3e dc 17 2f 3e 1d 17 19 3e 96 1a b0 bd
       0.16419935 0.17098945 0.14950223 -0.08598821
000260 07 a8 07 3e d5 b6 92 bd 48 0f 2a be 72 26 91 3c
       0.13247691 -0.07163779 -0.16607392 0.017718527
000270 0f 26 da bd e4 47 35 3e e2 13 39 3e d5 81 61 3d
       -0.1065179 0.17703205 0.18073991 0.055055458
000280 4a 3b ed 3d 61 d0 0f 3b ed 21 e8 3d c9 4d 8b bd
       0.11583574 0.0021944272 0.11334596 -0.06801946
000290 ff 3a 51 be 74 56 0a 3e bb ad f9 bc 8f fd 18 be
       -0.20432661 0.13509542 -0.030478349 -0.14940475
0002a0 ab 05 f8 3d 42 5c af bc 5d 97 b8 3d 29 02 5e be
       0.12110456 -0.021406297 0.09013245 -0.21680512
0002b0 69 df e2 bd 8c b4 a2 3d 98 25 0e be cb 7e 44 ba
       -0.11077768 0.07944593 -0.13881528 -0.00074957
0002c0 a9 67 0a 3e e9 b2 1c 3d 05 9b f1 bd 38 56 2e 3e
       0.13516106 0.03825656 -0.11797146 0.17025077
0002d0 e6 81 4f be 10 19 0b be 22 94 0e 3e 2c bb f9 bd
       -0.20264396 -0.1358378 0.13923696 -0.12193903
0002e0 ad 63 3b bd 2f 74 30 3e ff 49 2e be 50 27 43 3e
       -0.045749355 0.1723182 -0.17020415 0.19057965
0002f0 65 2d 50 3e dc 62 67 3e 25 d3 0c 3c cf c2 05 be
       0.20329817 0.22596306 0.008595263 -0.13062595

bias f4 [8]
000000 e6 83 c7 bd 67 0f 98 bd 81 22 08 3e d5 79 b7 bd
       -0.097419545 -0.07424813 0.13294412 -0.089587845
000010 9d 8f ab 3d c8 e8 33 3e 2e 0f e5 bd 11 3e b7 3d
       0.083770014 0.17569268 -0.11184536 0.08947385

weight f4 [8]
000000 f1 cc 80 3f 5a 3a 7e 3f 7a 89 7e 3f a7 74 7f 3f
       1.0062543 0.9930779 0.9942852 0.9978737
000010 5d 03 84 3f 11 ca 83 3f a0 05 7b 3f ed 42 7a 3f
       1.0313526 1.0296041 0.9805546 0.9775837

bias f4 [8]
000000 dc bd d9 bc 8f d6 34 bd 43 66 18 bb c5 6a 85 3c
       -0.02657979 -0.04414993 -0.0023254312 0.016286263
000010 8c c0 dc 3c 8c b6 5f 3d 51 35 c6 3c e2 41 79 3c
       0.026947282 0.05461745 0.024195345 0.015213462

running_mean f4 [8]
000000 c5 00 f5 3d d6 2f 78 be 51 98 ac 3d ff 36 b6 3d
       0.119630374 -0.24236998 0.084274895 0.088972084
000010 1d 2e 2b be bf be d8 bd d9 b1 17 bd f0 e7 22 3e
       -0.1671681 -0.10583257 -0.037034843 0.1590879

running_var f4 [8]
000000 37 87 ec 3d a5 97 ff 3d b4 20 3b 3e 3b 70 02 3e
       0.11549228 0.12480096 0.18274194 0.12738125
000010 c3 02 c8 3d 4c 7d 01 3e 84 fb c2 3e 0f 2f 8e 3e
       0.09766152 0.12645453 0.38082516 0.27770278

weight f4 [8, 8, 3]
000000 32 7e 00 bd 57 fc 08 bd 39 f5 ae 3d 7c 2d 49 3e
       -0.03137035 -0.033443775 0.08542866 0.19646257
000010 67 59 77 bd 52 08 4c 3e 66 af 28 3d 10 94 30 3c
       -0.060387995 0.19925049 0.041182898 0.010777488
000020 80 48 09 3e b0 f9 ab 3c fc 2a 4b 3d 26 72 f5 bd
       0.13406563 0.020993084 0.04960154 -0.11984663
000030 6b fd 1e 3e 20 97 6b 3c 8f ec 22 be df d0 a5 3d
       0.15526359 0.014379293 -0.15910552 0.080964796
000040 e9 e5 6b bd f1 70 6f 3d f1 26 ce 3d e4 b1 f6 3d
       -0.057592306 0.05845732 0.10066021 0.12045649
000050 e2 2a 5e bd 3b 44 d0 bc 8e ec 37 3e 91 74 e0 3d
       -0.054240115 -0.02542316 0.17961332 0.10959733
000060 a1 0d a9 bd 1b 7c 16 be da db 28 3e 30 73 22 3e
       -0.08254553 -0.1469578 0.16490117 0.15864253
000070 cb 1e a6 3d ed 99 04 be 1d 00 39 3e 77 4a 3e be
       0.08111342 -0.12949343 0.1806645 -0.18583094
000080 67 eb 9b 3c 42 c7 22 be 48 bf 32 3e 2c 37 6b bd
       0.019033147 -0.15896323 0.1745578 -0.057425663
000090 8d 0d 30 3e 87 44 f6 bd b4 57 19 3c 82 07 f5 3d
       0.17192669 -0.12024789 0.009359289 0.119643226
0000a0 87 58 06 be f8 ea b7 3d 20 5a a9 3d e7 d5 80 3b
       -0.13119708 0.089803636 0.08269143 0.003931749
0000b0 ae f0 73 3d 15 ff 4c 3e bb c7 0e be 06 44 7d bd
       0.059555702 0.20019181 -0.13943379 -0.06183245
0000c0 d0 cf 4e be 4c cf 27 3d 68 9c 5f bd 7b cf f4 3d
       -0.20196462 0.040969178 -0.05459252 0.11953636
0000d0 c7 a7 17 3d e3 af 47 bd 06 f5 0c be 84 ba 42 3e
       0.03702524 -0.048751723 -0.13765344 0.19016463
0000e0 ad d5 94 bd c0 8b c0 bd bd 2f d6 3d 7c 4f 34 3e
       -0.07267318 -0.09401655 0.10458324 0.17608446
0000f0 8b 3f 05 3e 39 60 ae bd a2 62 b5 3c aa e0 2d 3e
       0.13012521 -0.08514447 0.022141758 0.16980234
000100 bc 7a 77 be 13 01 fb bb 9c 54 1c 3e 94 07 29 3e
       -0.24167913 -0.00766004 0.15266651 0.16506797
000110 d9 a9 0a 3e 9f f6 44 bd b3 65 2f 3e 19 47 14 3e
       0.13541354 -0.04808676 0.17128639 0.14480247
000120 b4 a5 f4 bd 7b f0 44 3e 50 a8 d0 3d 41 94 c9 bd
       -0.11945668 0.19232361 0.10188353 -0.0984273
000130 be 1e ed 3d 9a 76 b2 bd 18 a3 bb 3d 57 98 45 be
       0.11578129 -0.08714028 0.09161967 -0.19296394
000140 d2 9e a9 bd 82 52 86 3d 3d 1d 02 3d ad 5c 4c 3e
       -0.08282246 0.06558706 0.031766165 0.19957228
000150 f8 3a ac 3c 10 2d 62 bd c7 ba 5e 3e d0 e6 51 bd
       0.021024212 -0.055218756 0.21750937 -0.05124551
000160 24 5d d5 3d bb 3b 02 3d 64 2f 0b 3c ec 90 40 3d
       0.10418156 0.031795245 0.0084951855 0.04701321
000170 c9 c9 0a be fc 48 0f be b3 3b 0f be 22 70 25 be
       -0.13553537 -0.13992685 -0.13987617 -0.16156057
000180 82 cf 7a bd a5 f2 39 3e 4c 93 91 bd 11 b1 ed 3d
       -0.06123305 0.18158968 -0.07108173 0.11606038
000190 22 37 51 3d 3f c9 ef bd 2a 14 ee bc 06 63 14 be
       0.05107797 -0.117083065 -0.02906235 -0.144909
0001a0 59 11 2b 3d 1f a8 1e bd 20 3b c4 bd 8c 6f 22 bd
       0.04176459 -0.03873455 -0.0958159 -0.03965716
0001b0 5e c2 9f ba 0a 28 49 3e 97 78 6a bd 66 0b f5 bd
       -0.0012188663 0.1964418 -0.05724391 -0.11965065
0001c0 63 8d 6b be 36 0c 67 be 7e 5f 68 3c 73 70 5c bd
       -0.23003154 -0.22563252 0.014182923 -0.053818177
0001d0 63 89 97 3d 87 11 23 3e c0 7d ac bd 46 6d 89 3d
       0.07399251 0.15924655 -0.084224224 0.067102954
0001e0 92 b4 af bd 66 83 04 be e2 5e ec bd 84 af e5 3d
       -0.08579363 -0.1294075 -0.11541535 0.112151176
0001f0 25 d7 e2 bd 05 40 6e bd 67 4f 48 bd fc 8b 2a be
       -0.11076192 -0.058166523 -0.04890385 -0.16654962
000200 3f 45 b1 bd cd 8d 5b be ee 0a df 3d eb 36 45 bd
       -0.08655786 -0.21440811 0.108907565 -0.048148077
000210 e1 90 5f 3c 8c 83 35 3e 9c 70 0f 3e 56 ba 1c 3e
       0.013645382 0.17725962 0.14007801 0.15305457
000220 75 25 6c be 89 24 b8 3d 8e af 9f 3b 02 a5 a4 3d
       -0.23061164 0.089913435 0.0048732227 0.08039285
000230 2f 4f 0c bd 58 7f 93 3d aa 57 26 be 6e 3b 17 be
       -0.034255203 0.07202023 -0.16244379 -0.14768764
000240 a5 4e 0b bd ad 46 b9 3d d8 ad 42 bd b3 7e 66 3d
       -0.03401055 0.090466835 -0.04752907 0.056273174
000250 e7 6d a2 3d ab f7 10 be 3a 02 2a bd b4 b6 48 be
       0.079311185 -0.14156978 -0.04150603 -0.19600946
000260 82 be 2a 3d fb d5 6f 3d 76 3c 86 bd 18 44 84 bd
       0.04168559 0.058553677 -0.06554501 -0.064583
000270 b0 48 c3 3d d7 70 1a 3d 8b c6 65 3e 7e 93 8d bd
       0.095353484 0.03770527 0.2243902 -0.069128975
000280 ea ae 24 be 64 5f d8 bd ee 91 c3 bd e9 9d 49 3d
       -0.1608235 -0.10565069 -0.09549318 0.04922286
000290 76 bc f8 bd 3c fb 13 3e c8 fd 59 bc 67 5e 3a bd
       -0.12145321 0.14451307 -0.013305135 -0.045500185
0002a0 e3 25 10 be df 87 ed 3c 4c 42 6f 3d 93 a7 f6 3d
       -0.14076953 0.028995452 0.058412835 0.12043681
0002b0 ad 36 a9 3d 4e 73 bc 3d 65 7e 21 3e 4e 6b 6c 3d
       0.08262382 0.0920168 0.15770872 0.05771952
0002c0 21 15 b8 3d 9f dc 42 bd 04 d4 9a bd 62 5a ba 3d
       0.08988405 -0.047573682 -0.0755997 0.090992704
0002d0 3c 2c b7 3b d4 1d 47 3e 8e 52 e4 3c 88 e7 e5 3d
       0.00558999 0.19444972 0.027871396 0.11225802
0002e0 b2 d5 79 be 59 90 5a be 99 5c e5 3d 54 99 2f be
       -0.24397925 -0.21344127 0.11199302 -0.17148334
0002f0 c6 7b 04 3e 7c 68 a2 bb 52 59 f7 bd 50 e0 22 be
       0.12937841 -0.004956303 -0.120775834 -0.15905881

bias f4 [8]
000000 c0 ff f9 3d e8 c9 0e bd 6e 24 47 be 45 9e a2 bd
       0.122069836 -0.03486052 -0.1944749 -0.07940344
000010 4d 3a 4a be 4f 8e 09 3e 30 e3 3a be a9 b8 33 be
       -0.19748802 0.13433193 -0.18250728 -0.17550911

weight f4 [8]
000000 39 68 80 3f 92 f7 80 3f 75 8c 7d 3f 23 ba 79 3f
       1.0031806 1.0075552 0.99042445 0.9754965
000010 a7 fc 7f 3f f1 31 75 3f b1 0e 7b 3f a1 d4 80 3f
       0.9999489 0.9577933 0.9806929 1.0064889

bias f4 [8]
000000 6c b7 14 bc e6 72 c6 bc 18 b9 af 3b b6 3a dd bc
       -0.009076934 -0.02422471 0.005362641 -0.027005535
000010 c3 7d 5a 3b c3 bc 21 bd db a7 08 bd d5 1c 12 3b
       0.003333912 -0.039486658 -0.033363204 0.0022295017

running_mean f4 [8]
000000 cc dc bf 3e 97 d1 51 3d 08 d6 2b 3d 97 89 4b bd
       0.37473142 0.05122527 0.041952163 -0.049691763
000010 fa 22 bb be f3 c8 b9 3b bb 4c 85 be bc da 10 be
       -0.36550122 0.005669707 -0.26035103 -0.1414594

running_var f4 [8]
000000 0a bb ba 3d 5e 9e 04 3e f5 83 1c 3e 93 6f c5 3d
       0.09117706 0.12951037 0.15284713 0.09640422
000010 19 7c a4 3d e8 5c bd 3d 24 02 ae 3d 51 d0 db 3d
       0.08031482 0.09246236 0.08496502 0.107330926

weight f4 [128, 25]
000000 5b 84 21 3e 94 7a 41 3e 37 c5 b9 bd b3 99 31 bc
       0.15773146 0.18894416 -0.09070819 -0.010839867
000010 e7 a9 35 be fc 54 ee 3d 2a f7 ba bd ff e7 31 be
       -0.17740594 0.11637303 -0.09129174 -0.17373656
000020 f2 d4 3c 3e 3a e2 40 3d f7 ea d5 3d d4 2d c2 3b
       0.18440607 0.047090746 0.104452066 0.0059258733
000030 35 88 e2 bb ce cf 1e 3e a9 18 3b 3e 30 04 1b 3c
       -0.00691321 0.15508959 0.18271126 0.009461448
000040 66 16 17 3d 8a 2c 1b 3e 9b 2e 59 3d 3a 63 e2 3d
       0.036886595 0.15153709 0.053022962 0.11054082
000050 79 22 34 bd 67 cd 09 bc 1a 5c 80 3d 12 0d c7 bd
       -0.04397819 -0.008410788 0.06267567 -0.0971929
000060 e5 6c c9 3c ac f3 3a 3e 12 1c b1 3a 31 da 11 3e
       0.024588058 0.18257016 0.0013512394 0.1424339
000070 71 40 39 bd 5b b1 62 be 22 83 86 bc ed e4 38 be
       -0.04522747 -0.22137968 -0.01641995 -0.18056078
000080 45 9e 79 3d ad 3d 70 3c b3 69 f2 3c 5f fb 3c 3d
       0.060941953 0.014663142 0.029591417 0.046138164
000090 5d ae 8d bb 5d d5 f9 bc 24 16 8e 3c dc 30 29 be
       -0.0043237642 -0.030497247 0.017344542 -0.16522545
0000a0 d3 ab c3 3d 37 a6 4e 3e 74 f8 37 3e 82 e9 fc 3d
       0.09554257 0.20180593 0.17965871 0.123492256
0000b0 ef b0 30 3d 04 de 5d bb c6 9f 02 be 4e 5c 68 bd
       0.043137487 -0.0033854255 -0.12756261 -0.056728654
0000c0 00 05 87 bb c2 09 be 3c 64 ab 81 3c 1d c3 41 3e
       -0.004120469 0.023198012 0.015828796 0.18922086
0000d0 54 57 15 3d c2 aa b4 3d b9 00 09 3d 7b 0b c1 bc
       0.036460236 0.08821632 0.033447955 -0.023565045
0000e0 35 f6 1d 3e f4 63 f7 bd a9 e6 a2 bc 63 d8 04 3c
       0.15425952 -0.120796114 -0.019885378 0.008108231
0000f0 71 4e b4 bd 6f 54 ab bd 1a bf 18 bd 75 dc f3 bd
       -0.08804024 -0.08365714 -0.037291624 -0.11907283
000100 15 d6 07 3e 1b 6a 39 bc aa 39 33 bd 3b c2 81 bd
       0.1326526 -0.011316801 -0.043756165 -0.06335875
000110 c0 44 50 3a 96 00 5d 3c 2f 11 dc 3d 6d 1a eb bd
       0.0007944815 0.013488909 0.10745465 -0.1147965
000120 00 71 1b be af 16 f3 3d 6b 4d 8e 3d 5c 77 e1 3d
       -0.15179825 0.11869561 0.0694836 0.11009094
000130 e2 cb 07 3e 8f 33 dd 3d b7 63 d5 3d d5 dc a9 3d
       0.13261369 0.1080085 0.1041941 0.082940735
000140 16 4b b4 bd d5 b2 98 3c f8 cf 38 3e dd 77 cb bd
       -0.08803384 0.018639961 0.18048084 -0.099349715
000150 43 0f 9e 3d f0 9c 88 bd cd cf 8b 3c a0 16 2c 3e
       0.07717755 -0.066705585 0.01706686 0.16805506
000160 f3 ba 12 3e 5b c2 f1 bd 0e 51 7d bd 78 e7 14 3e
       0.14329128 -0.118046485 -0.061844878 0.14541423
000170 1e 5c 03 be a8 07 1e be 32 b2 11 3e 3b 73 cf bd
       -0.12828109 -0.15432608 0.14228132 -0.101294
000180 30 ad 8b bc c7 fa c8 bd 6f 0a df bd 8e 62 4c be
       -0.017050356 -0.09813457 -0.10890662 -0.1995947
000190 9b ed 2d be f7 62 9f bd d6 c4 83 3c db 8c ea bd
       -0.1698517 -0.07782548 0.01608507 -0.11452647
0001a0 28 2c c8 3d 17 ba df 3d bf ea eb 3d ad 55 90 bd
       0.09774047 0.10924166 0.11519384 -0.07047591
0001b0 eb be 09 3e df 8e 1b 3e 8e d7 5c be ca 61 43 be
       0.13451736 0.1519122 -0.21566603 -0.19080272
0001c0 10 6a 2a 3d bf f6 87 3d bc 17 4d be ec b0 2b 3e
       0.041605055 0.0663886 -0.20028585 0.16766709
0001d0 52 98 1c 3d b8 d7 f0 3d 8a f0 8e bd 28 66 37 3e
       0.0382312 0.11759895 -0.06979473 0.17910063
0001e0 b2 5a 7b bd df 46 66 be 47 d5 8e 3c 08 1a c1 3c
       -0.06136579 -0.22487973 0.017435683 0.023571983
0001f0 f2 fc bc 3d c1 fe 8e bb 4a 3a 06 bd 8a c5 98 3d
       0.09227933 -0.004363865 -0.032770433 0.074595526
000200 08 18 09 3d 83 c5 a2 3c 91 7c 0a 3e ac a4 44 be
       0.033470184 0.019869572 0.13524081 -0.19203442
000210 c8 45 84 3c ba 43 45 bc c7 26 85 3d ba 2e a3 3d
       0.016146556 -0.012040073 0.06501537 0.07967897
000220 98 85 24 3e 7c a8 84 bd 4f 2c 4a 3e 37 ba 30 be
       0.16066587 -0.06477448 0.19743465 -0.17258535
000230 c6 85 2b be cc d6 16 3e ce 74 09 3e 6c fb d8 3d
       -0.1675025 0.14730376 0.13423464 0.1059483
000240 76 a9 62 3d 3a cb 1d 3d fd 49 20 bd 56 42 e2 bd
       0.05533739 0.03852389 -0.03913306 -0.11047809
000250 fe e3 05 be 10 b2 80 3d b5 ed 89 bd e9 e5 a2 bd
       -0.13075253 0.06283963 -0.06734792 -0.07954008
000260 60 d5 63 3e 26 dd 3b 3c be 73 dc 3d 7e d0 14 3e
       0.22249365 0.0114663 0.107642636 0.14532658
000270 c1 24 0f 3e e7 68 92 3d 88 d2 e8 bd 44 e2 1b 3e
       0.13978864 0.07148915 -0.11368281 0.15223032
000280 d1 5a 91 bd 07 49 84 3c 32 bf 94 bd 78 0b fc 3d
       -0.070974 0.016148103 -0.0726303 0.12306875
000290 87 67 36 3d bc 36 14 be be 4c 8a bc 61 40 09 be
       0.044532325 -0.14474005 -0.016882297 -0.13403465
0002a0 2a fd 2f 3e 27 d4 3d 3e 3b 53 d7 bc 77 89 8b bd
       0.17186418 0.18537961 -0.026284805 -0.06813329
0002b0 42 0b 42 bb 16 ee 0d 3e 61 3c 1a 3e 21 63 2a 3e
       -0.002960876 0.13860354 0.15062095 0.16639377
0002c0 23 a3 45 3d 1d 61 b2 3d c5 0e 43 3e 30 9f 37 be
       0.048251282 0.08709929 0.19048603 -0.17931819
0002d0 24 2b 3b bd 96 07 d5 3d 33 a3 15 3e 62 50 0e be
       -0.04569544 0.104018375 0.14613037 -0.13897851
0002e0 e9 b8 40 be 17 81 06 bb 47 51 48 3e 46 3d 99 bd
       -0.18820538 -0.002052372 0.19562255 -0.0748239
0002f0 ad 54 bb bd 23 f1 8b 3d a4 b5 38 3e 4f 37 8f bd
       -0.0914701 0.068331026 0.1803804 -0.06992971
000300 7e 68 3b bd 04 15 94 bd c4 5a ea bd ca 6d 14 3c
       -0.04575395 -0.07230571 -0.114430934 0.009059379
000310 7e be d2 3d 12 38 89 bd 72 8b 34 bd 91 f1 a0 bc
       0.1029024 -0.06700148 -0.044078298 -0.019646438
000320 66 1a ff 3d 8d 33 fe 3d ff 0f 8a bd 03 63 84 3d
       0.12456207 0.12412176 -0.06741332 0.064641975
000330 e4 0a 4b 3e 7b 54 60 bd 72 c1 05 3e 36 5b da bd
       0.19828373 -0.054768067 0.13062075 -0.10661928
000340 d7 15 ea 3d fb ff 74 3b 29 ca 0c 3c 64 0a 91 3d
       0.11429947 0.0037384022 0.008593121 0.0708206
000350 21 6d 53 be ef 1e de bd 09 01 d1 bd 2c 0f 52 bd
       -0.20647098 -0.10845744 -0.102052756 -0.051284
000360 19 33 5c bd a9 5b ee bd 42 39 cc bd 6c 3f 92 3b
       -0.053759668 -0.116385765 -0.099718586 0.004463127
000370 b4 cf f8 bd 54 4c f4 3d e4 24 7e bc 51 2b cd 3c
       -0.12148991 0.11928621 -0.015511725 0.025045069
000380 40 2b 24 3e 07 c5 02 be 1d 6c 03 be 39 3a 21 bb
       0.16032124 -0.12770472 -0.1283421 -0.0024601354
000390 e4 57 41 be e7 4a f7 3d 64 a1 8d 3d 1d ef 2a be
       -0.18881184 0.12074833 0.069155484 -0.16692777
0003a0 d4 9c 5b be dc 9d 4d be dd 8d 49 3d fe 7d 10 3e
       -0.21446544 -0.2007975 0.049207557 0.14110562
0003b0 58 1f 30 be 5a 80 51 be 55 9f cd 3c 11 c4 a7 3d
       -0.17199457 -0.20459118 0.02510039 0.081916936
0003c0 a8 64 2c 3e 99 61 b8 3d ed eb fe bd ae 09 48 bd
       0.16835272 0.0900299 -0.12447343 -0.048837356
0003d0 e5 45 25 be a0 7c 27 3e e2 9a f1 bc e8 61 f9 bb
       -0.16139944 0.16356134 -0.0294928 -0.0076105483
0003e0 8b f7 1f 3e f6 f8 58 3e 5d 92 ee bd e6 56 0e 3e
       0.15621774 0.21188721 -0.1164901 0.13900337
0003f0 09 94 02 bd 80 b2 0c 3d 10 c5 3d 3e 5a 2d f2 bd
       -0.03187946 0.03434992 0.18532205 -0.118250564

bias f4 [128]
000000 7a 5f 7c 3c b4 7b c7 3d fc 04 a1 3d cd dd 17 bd
       0.015403623 0.097403914 0.07862279 -0.03707676
000010 2e 1f de 3d ba ea ff 3d bc 04 41 bd 52 34 a4 bd
       0.10845791 0.124959424 -0.047123656 -0.08017792
000020 96 1e 4c 3e 1c 6d 57 3c 74 a4 ae bd 12 7f 83 3d
       0.19933543 0.013148572 -0.08527461 0.06420721
000030 92 f2 b4 3d 3f 65 e4 3d 62 93 32 be dc 8a 18 be
       0.08835329 0.11152124 -0.17439035 -0.1489672
000040 47 13 38 3e 79 98 f8 bd 83 70 6a bc 21 59 b7 bd
       0.17976104 -0.12138457 -0.014309051 -0.08952547
000050 eb 1b a7 3d fe 5d 3c 3e 1e 12 7d 3d b1 9b f4 3d
       0.08159622 0.1839523 0.061784856 0.11943758
000060 3d f5 6d bd 70 6c e8 3d 91 2b 02 3d 8e 1b 17 be
       -0.058095206 0.11348808 0.03177983 -0.14756605
000070 07 51 58 3d 78 d5 2e bd 49 4e fe bd a3 b5 5c 3d
       0.05281165 -0.04268405 -0.124172755 0.05388416
000080 c4 cf d2 3d d7 56 19 3e 17 00 92 3d ff 66 a3 bd
       0.102935344 0.14974533 0.071289234 -0.07978629
000090 a0 1c 03 be 11 bb af bd 14 d1 58 3e 2f 71 18 be
       -0.12803888 -0.08580602 0.21173507 -0.14886926
0000a0 57 18 06 3e 75 46 c2 3d 8e 78 24 bd 0b 42 28 3d
       0.13095222 0.09486095 -0.040154032 0.04107861
0000b0 e9 6b e9 bd 3a 99 08 be bf 09 29 be a0 6f 03 3e
       -0.11397535 -0.13339701 -0.16507624 0.1283555
0000c0 ab b2 30 3d 75 e4 db bd 3d c5 10 3e 11 63 64 bd
       0.04313914 -0.10736934 0.1413774 -0.05575854
0000d0 bd 38 23 bc f9 56 0d be 0f e8 84 3a 57 d3 1d 3e
       -0.009962258 -0.13802709 0.001013996 0.15412651
0000e0 d4 ba 9a bd 51 d5 06 be 29 3b 54 bc e7 e5 83 3d
       -0.07555166 -0.13167311 -0.012953558 0.06440335
0000f0 5c 65 2b bd f0 08 bf 3d 6f db 0e be bc fd 23 3d
       -0.04184471 0.093278766 -0.13950895 0.0400369
000100 b6 a9 f5 bd 52 51 30 be 16 a3 1a be cd f7 9d 3d
       -0.119952604 -0.17218521 -0.15101275 0.0771328
000110 1a e0 f4 3d 73 48 aa bd 3d 8e 2f bc 23 34 3b 3d
       0.119568065 -0.083146 -0.010715065 0.04570402
000120 93 33 3e bd 19 b4 8c bd ec ec be bd 35 c4 8e 3d
       -0.046435904 -0.068702884 -0.09322533 0.06971017
000130 7c 6d a2 3d 05 dd 8c bd 02 51 2f be bf 3c 48 3e
       0.07931039 -0.06878094 -0.17120746 0.19554423
000140 15 00 43 3e 93 cc 68 3d f3 b3 8f 3d 4a 1c 17 3c
       0.19043 0.056835722 0.070167445 0.009223053
000150 31 70 73 bd 59 9e 56 bd 20 35 e1 bd 9d 69 8b 3d
       -0.059433166 -0.052397106 -0.10996461 0.068072535
000160 29 6b 23 be 50 af 27 3e 19 07 86 bd 6d 65 30 bd
       -0.15958847 0.1637547 -0.065443225 -0.043065477
000170 3e 24 6f bd e0 5e a3 3d 4f ff e9 3d d6 73 35 3d
       -0.058384173 0.0797708 0.114256494 0.044299923
000180 79 10 ab 3d 64 3d 02 3e 0f d9 af 3c 20 9e e7 3d
       0.08352751 0.12718731 0.021465806 0.11309457
000190 e8 ef 8c bd be 02 3f 3e 15 60 8f bd 74 3c f9 bd
       -0.06881696 0.1865339 -0.07000748 -0.12169734
0001a0 5c 51 9f bd ea 9c 6a 3e 1e a0 90 3d 0a cc bb bd
       -0.0777919 0.2291142 0.0706179 -0.09169777
0001b0 61 cd 98 3d 00 5d 09 3e 00 a7 14 3e 19 10 24 be
       0.07461048 0.13414383 0.1451683 -0.16021766
0001c0 44 8c 25 be 6c ef 67 bb 58 69 c0 bd d7 71 a9 bd
       -0.16166788 -0.003539051 -0.09395093 -0.08273666
0001d0 6e ea 01 be e2 cf f3 bd 01 67 ca bc fb 40 da bd
       -0.12687084 -0.11904885 -0.02470732 -0.10656925
0001e0 95 2e e9 3c fe d4 f4 bd ac c3 cb bd ec b0 e6 3d
       0.028464595 -0.119546875 -0.09949431 0.11264214
0001f0 62 bc 68 3c 16 88 a9 bd 7f 4d 2b be e5 a4 e9 3d
       0.01420507 -0.082779095 -0.16728781 0.11408404
