nn/checkpoints/main_objs_different/7/model_30.pt (torch, 518706 bytes, 98 tensors)

weight f4 [8, 5, 3]
00000000: 5939 4bbe 6949 c43e 1ce9 26be 4efb 8c3e
00000010: 0071 0f3e 1c5a 433e a0ad 8a3e df11 6c3e
00000020: 4f44 143b d22a 593e 0d0f d63d 55a3 a13d
00000030: 34f9 983e 2fff 3b3e 604f c4bd b92a c43e
00000040: 8ab9 e6bd 32f8 7ebe d976 113e ee8c a43d
00000050: f9c4 293d fffe cb3d 557a 073d d204 92be
00000060: 8888 173e 1406 a8bb 9ff4 c7be ef06 643e
00000070: 91dd d4bb 018e 143e 320a 44be feef 25bf
00000080: 2924 8cbe ab07 923d db8c 61be 6884 d6b9
00000090: 7391 a83c e566 80bd 6498 b0bd a8ec 743e
000000a0: 0cf2 a4bc 6c61 36bd 7113 873d 94c5 a4bd
000000b0: 0ad3 263d f44e e93d 0d04 b83e d10c 3fbe
000000c0: 0464 c9bd abe5 513d 4984 9ebe 1e8c f2bd
000000d0: 6bce 5b3c 3d92 c4be f7ae 9f3d 1ef6 883e
000000e0: 3688 c1be 185f 7a3d 5f77 d23c 1412 82be
000000f0: c931 253e 06e9 44be 244f 613e f3cc fc3d
00000100: 7cae a0be 142d 3e3d 0605 02be 9a4d e6bc
00000110: 52d0 643b 96ea c73e 2962 58be 8d56 8cbd
00000120: cbde 403e e0aa 71be 0bc2 f63c daf0 9f3d
00000130: 14be a23d baf3 6cbd 492a 5ebe bdcc 033e
00000140: 5993 7bbd dc25 c8bd caab be3c 9691 963e
00000150: 483b d8bd 1e6e bcbd 0ce4 8dbc 8d29 bebe
00000160: 6a47 07bf e980 173e 3bbb 71be 17f7 a83c
00000170: b711 353d 63ef 373d 9314 a43e 6ff7 8fbe
00000180: 159f f6bd 3003 2a3d 59b5 66be d666 82be
00000190: 9017 c4bd 878c 74bd 7e9f 9abc 9972 963e
000001a0: 2c80 18be 9806 993c 177e 85bd a593 963e
000001b0: c9c4 87be 4709 e9bd 0f34 403e 923c 5abd
000001c0: fcb3 72be aa82 ad3b 5e0c 2dbe 5eb7 52be
000001d0: d0fb 803e 107e d9bd c530 953d b10e 743e
-0.19846095 0.38337258 -0.16299862 0.2753548 0.1400795 0.19077343 0.2708559 0.23053692
0.0022623723 0.21207741 0.104520895 0.07892481 0.29877627 0.18359064 -0.09585452 0.38313845
-0.112658575 -0.24899366 0.14205493 0.08034693 0.041447613 0.09960746 0.03307565 -0.28519303
0.14798176 -0.0051276777 -0.3905382 0.2226827 -0.0064961393 0.14507295 -0.19144514 -0.64819324
-0.27371338 0.07130369 -0.22026388 -0.0004091591 0.020577168 -0.062696256 -0.08622816 0.23918402
-0.020134948 -0.044526502 0.06595505 -0.080454975 0.040728606 0.11392012 0.3594059 -0.18657233
-0.098335296 0.05124442 -0.309603 -0.118431315 0.013415913 -0.3839282 0.07797044 0.26750273
-0.37799233 0.061125845 0.025691686 -0.25404418 0.16132273 -0.19229516 0.22002846 0.123437785
-0.3138312 0.04642971 -0.12697229 -0.028113175 0.0034914208 0.39046162 -0.21131195 -0.06852446
0.18834989 -0.2360034 0.030121824 0.07809611 0.07946411 -0.057849623 -0.21695818 0.1287107
-0.06141982 -0.09772846 0.023275275 0.29407948 -0.10558182 -0.09200691 -0.017320655 -0.37141076
-0.52843344 0.14795269 -0.23606579 0.020625634 0.044206347 0.04490603 0.32046947 -0.28118464
-0.12042061 0.041506946 -0.22530116 -0.25469083 -0.09574807 -0.05970433 -0.01887488 0.29384306
-0.14892644 0.018679902 -0.0651819 0.2940952 -0.26517323 -0.11378723 0.18769859 -0.05328042
-0.23701471 0.0052951174 -0.16899249 -0.20577762 0.25192118 -0.10619748 0.07284693 0.2383373

bias f4 [8]
00000000: 9209 b33d 1e54 21be 66c3 e73d 6821 0a3e
00000010: de9c 403e 8e5e 27be 7844 a93d 23b2 383e
0.0874206 -0.15754744 0.11316566 0.13489306 0.1880984 -0.16344664 0.082650125 0.18036704

weight f4 [8]
00000000: de9f 763f 4cc5 673f a126 773f a83c 883f
00000010: 639e 573f fd7c 853f b847 8c3f a927 853f
0.9633769 0.90535426 0.9654332 1.0643511 0.84226054 1.0428768 1.0959387 1.0402728

bias f4 [8]
00000000: e237 a63e b63c cb3e 7182 78bd ab03 05be
00000010: 6ff8 853d 46f9 8ebd 247c 4f3e 760c 953e
0.3246451 0.39694756 -0.060671274 -0.1298968 0.065415256 -0.06981139 0.202622 0.2911107

running_mean f4 [8]
00000000: 8d4b 433f 5e8d 97bd 20f0 9abe 7563 08be
00000010: 41b3 383e 9b81 e0be a921 20be fae5 fa3d
0.76287156 -0.074000105 -0.30261326 -0.1331919 0.1803713 -0.4384888 -0.1563784 0.12250896

running_var f4 [8]
00000000: 7e8d bf3f 3c84 6e3e d3db 223f 7eee 2a3f
00000010: 6aef 7d3e dfa7 ac3e 807d c73e c6a3 763e
1.4965055 0.23292631 0.63616675 0.6677016 0.2479836 0.33721825 0.38962936 0.24085912

weight f4 [8, 8, 3]
00000000: 5c82 42be c15e ce3c d63c 563e e58a 91be
00000010: cc51 02be f089 573e e183 7abd ef12 d73c
00000020: ce65 a93c 1d14 903d da6d e93d 6f4d 353e
00000030: 8318 ed3d 05ea 353e d384 00be b130 9f3c
00000040: 25fc 4dbd 6c9a 2abc ee00 07be 6c3d cabc
00000050: c7b6 e7bd cd29 033e c2c4 aa3e 6625 0a3b
00000060: f4dd dfbd 1fed 2b3d eb9a a73d a361 91be
00000070: 91b3 373d d1ef c5bd 6ed6 c0bb 35f7 fcbd
00000080: 0168 93bd d2a5 823d 748e 92be a670 083e
00000090: 11a0 36be af60 373d d42f 9fbd b387 3b3d
000000a0: 1b92 b73d 3e91 9bbe 79a2 4d3e 2a48 5cbe
000000b0: d153 be3e 1adf 3d3e 39c2 ee3d 58e3 5bbe
000000c0: 29d0 973d 84f2 76b9 0af3 9fbb 2d12 ec3c
000000d0: 78ca 0cbe e0b6 a0be 9401 633e 2624 8d3e
000000e0: 3e4c ef3d 9a1f b73d e68b 383e d2fb 5fbe
000000f0: ee18 b43c c791 f1bd f1ae 403d cdf1 373e
00000100: a12b 063e 2105 323d a435 073e 12f2 9c3e
00000110: 7b0b 3fbe 3b0e 23bd 1b69 3dbe 7250 363e
00000120: 10a0 21be 029a 0cbd c90b e43d 16d9 2cbe
00000130: dcc9 2abe 19b8 be3d 5610 dd3e 62d2 c33d
00000140: ba43 bebd b2f0 ec3c 20c3 e13c a08f 513e
00000150: 1716 c7bd 4a0e a0be fa11 60be 591f 9c3d
00000160: 4061 2cbe 401b 95be 525a 903d 9b7a 153e
00000170: b637 21bd 58d2 043e 7947 df3d 4273 c6bd
00000180: a3b3 383c 0648 573e 2447 40be a40a 1d3e
00000190: c7df babd 8742 b5bd 7407 bcbd 9c4d 07be
000001a0: 6851 45be 8aab 80be 7574 50bd 8df7 1dbe
000001b0: eedb f03c be5c 423e 2bee 5c3e de22 6fbd
000001c0: 9a5b 70be a97c 393e cfc5 603e 5423 183e
000001d0: 067f 88be 7d1c 483d 6ebf 46be 5f6b 863e
000001e0: 4d9c 113e 2b97 913d 3200 8d3e 5cc9 3bbc
000001f0: 73af 523d 95ba 233e 35f3 65be 514c b6be
00000200: 81e1 11be c2fc 45be f334 06be f91e 40be
00000210: 1aa6 3b3e 8ff9 62be d3b9 2f3e 327c 073e
00000220: 5cba 093e d86e aebe 1c86 3dbe e10c 22be
00000230: d4b8 08be 422e a9bc 8c67 2ebe c070 6b3e
00000240: 2f6b 543e d0e5 2cbd 1bb8 89be edd3 6b3e
00000250: 88b2 5f3d d83b 13be 5c31 88bc 465a b0bd
00000260: 9280 303e 8310 493c c5a4 463e 2358 9f3e
00000270: 4bc1 483e 90a4 1d3e 8231 28be 766c 3abe
00000280: 9149 72bd 5919 9ebd cd49 48be 9a9b f83d
00000290: a624 0f3e 76f6 6bbd 5d39 82be f9ca 45bd
000002a0: 690d 433e 0cf1 bfbd 1c8b 743e 7db2 dcbd
000002b0: f02c a93d a782 0c3e 00ea 2d3e 7fc8 62bd
000002c0: f126 6fbd 45ca 053e e05b 41bd b133 0dbd
000002d0: b4ca e53d 4a55 da3d 4ad7 a33d 64d1 333e
000002e0: bd73 5c3e 40b7 a13d d36b 563d 39ad 2dbe
000002f0: 08f5 be3d d46e 56bd a410 6b3e 38eb b63d
-0.1899504 0.025191667 0.20921645 -0.2842628 -0.12726516 0.21048713 -0.061160926 0.026254145
0.020678427 0.07035086 0.11397906 0.1770532 0.11576941 0.17765053 -0.12550668 0.019432398
-0.050289292 -0.010412794 -0.13183948 -0.024687491 -0.11314159 0.12808914 0.3335324 0.002107942
-0.10931006 0.041974183 0.08183845 -0.28394803 0.044848982 -0.09664882 -0.005884937 -0.123518385
-0.071975715 0.06379284 -0.28624308 0.13324222 -0.17834498 0.04476994 -0.07772794 0.04578371
0.08963414 -0.30384248 0.2008151 -0.21511903 0.37173322 0.18542138 0.11658139 -0.21473444
0.0741275 -0.00023550732 -0.0048812674 0.02881726 -0.1374911 -0.31389523 0.22168571 0.27566642
0.11684464 0.089415744 0.18022117 -0.21873406 0.021984544 -0.11795383 0.047041837 0.17963333
0.1310258 0.043461923 0.13204056 0.30653435 -0.18656723 -0.039808493 -0.18497126 0.17804125
-0.15783715 -0.03432656 0.1113506 -0.16879687 -0.16678566 0.093124576 0.43176526 0.09561612
-0.092902616 0.028923366 0.027558863 0.20464945 -0.0972101 -0.31260902 -0.21881858 0.076231666
-0.16833973 -0.29122353 0.07048477 0.14597552 -0.03935977 0.12970865 0.10902304 -0.096899524
0.0112732975 0.21023569 -0.18777138 0.1533609 -0.091247134 -0.0885058 -0.09181109 -0.132132
-0.19269335 -0.25130874 -0.050892312 -0.15426464 0.029401746 0.18980691 0.21575229 -0.05838286
-0.23472443 0.1811396 0.21950458 0.14857227 -0.2665941 0.048855294 -0.19408962 0.26253793
0.1421978 0.07108911 0.27539212 -0.011461582 0.051436853 0.15989144 -0.22456057 -0.356051
-0.14246179 -0.193347 -0.13106136 -0.18761815 0.18325081 -0.22165512 0.1716073 0.1323097
0.13449997 -0.34068942 -0.1850819 -0.15825225 -0.13351756 -0.02065194 -0.17031687 0.2299223
0.20744012 -0.042211354 -0.26898274 0.23030062 0.05461362 -0.14378297 -0.016625099 -0.08610968
0.17236546 0.012272003 0.19398792 0.3112193 0.19604985 0.15394807 -0.16425136 -0.18205437
-0.05915219 -0.077196784 -0.19559403 0.12139054 0.13978824 -0.05760809 -0.2543439 -0.048289273
0.19048084 -0.09372148 0.23881191 -0.107762314 0.08260524 0.13721715 0.16983795 -0.05536699
-0.058386747 0.13065441 -0.04720676 -0.034473125 0.11220303 0.10660799 0.080000475 0.17560345
0.21528526 0.0789628 0.052348923 -0.1696061 0.0932408 -0.052351788 0.22955567 0.08931583

bias f4 [8]
00000000: da3d 23be 3d58 a6be 5396 36be 6c6d fcbd
00000010: 7c56 e53d 6fd1 113d a307 e03c f7db 2cbe
-0.15941563 -0.32489195 -0.17830782 -0.12325558 0.11198136 0.035600122 0.027347391 -0.16880785

weight f4 [8]
00000000: 6eb9 683f 8954 953f be18 8d3f 0338 803f
00000010: 9198 633f f28f 603f 44ff 833f 2916 453f
0.90907943 1.1666423 1.1023176 1.0017093 0.8890467 0.87719643 1.0312276 0.7698694

bias f4 [8]
00000000: 4299 643e eb70 0ebe 28ae aebd 26ed 05bc
00000010: f676 a63e 19b0 d23d bb96 823e 2c46 87be
0.22324088 -0.13910262 -0.085293114 -0.008174216 0.32512635 0.10287494 0.25505623 -0.26420724

running_mean f4 [8]
00000000: 0fec 3fbd 559a ddbe a2a3 03bc 170b 59be
00000010: 9bb8 c73d 2a90 05be aa78 73bc f6e8 b53e
-0.046855982 -0.43281808 -0.008034619 -0.21195637 0.097520076 -0.13043275 -0.0148603115 0.35529298

running_var f4 [8]
00000000: 269b 233e b5d8 043e 37d9 4c3e 1731 873e
00000010: 4e9e 5f3e b90b 173f a7d2 e53d f957 723e
0.15977153 0.12973292 0.20004736 0.2640464 0.21837732 0.5900226 0.11221819 0.23666371

weight f4 [8, 8, 3]
00000000: 95d7 25bd f133 3ebe 4679 9ebd 088d e5bd
00000010: 8093 ce3d 2456 923e ea39 81bc 8026 4ebe
00000020: 4755 42be 07cb ea3d 8d8e d8bd 6db1 373e
00000030: 87b1 273d 0142 8bbc 50ae 83be 0886 82bd
00000040: cc68 8bbd 60dd 61bd 640d 23be 8cd1 583e
00000050: 29a4 c33d 7ae0 18be 7e0b 1fbe 44f1 843d
00000060: 98c0 80be 3d62 743e 066e 1c3e f9a1 9cbe
00000070: 1d3e a53d c806 abbd 358a ecbc 7f5a 0b3e
00000080: 4351 40be b222 ce3d b170 05be a89a 5f3e
00000090: d2fd 1bbd 0c7b df3d 3471 fbbd 6d5a 10be
000000a0: 3a02 6ebe 650c 9a3d 5cc8 e33d 577e c2bd
000000b0: 4be9 8abe 8570 95bc 2b1e 9cbd 81d2 f4bd
000000c0: 4cbd dcbd efe5 443e 099b f9bc 4d68 cebd
000000d0: e4c7 31be 7e2c b13e 9896 e53a efc0 813e
000000e0: ea32 84be 8155 3f3e 8487 7fbd 1be4 d8bd
000000f0: 4de1 793e bb6e ec3d fafa 16be 9c11 7e3d
00000100: f48b 00be baf5 2abe 035d 393e 9ba8 27be
00000110: ca3b 3cbe fe3f c13c bddc c33d e6dc 093d
00000120: d14a 793e ee41 8fbe 60d9 75be 00d6 75bd
00000130: b7a2 26bb 4bca 6bbe b5b8 033e c722 353e
00000140: b68a ac3d 12ae 403e 977a 863d a741 18be
00000150: 4f10 963e 7482 0a3e 18f1 843d e36d 9f3d
00000160: 60c1 fcbc d3c8 203e baaa 0a3c 9359 ba3e
00000170: b565 95bd f68b 0fbd fcdc 243e c5f0 d13c
00000180: ba4d b83d d2d6 f9bd c52b fa3d de6d 8a3d
00000190: 3244 ae3e 6421 0d3e aa56 66bd bc43 8ebd
000001a0: 79e6 c73d 5096 f9bd 69e4 4f3d c38e a53d
000001b0: d053 693e 1c19 48bd 9e5c d53d 5ae2 403e
000001c0: 1c5e dc3d f66e 1c3e 162d b53d cc87 793e
000001d0: db9e 013e 73a0 11bd 8fed 393e 2fef 86be
000001e0: 6684 b03d 2aad 69be 8887 083d a2eb 3cbe
000001f0: 4298 73be 46cb 623e 464b 43be 1aec bbbc
00000200: 8cd8 b3be acc1 713d fb5a 8abe b4ec 2cbe
00000210: 5511 243d 5868 4bbd 89c4 d1bd 7a93 d93d
00000220: 66ec 9bbd fd93 65be 8f4e 333d 4712 8b3e
00000230: a809 163e cb48 043e d84e 25be aca6 3fbe
00000240: ef28 1b3e 256b 433e b943 813c 27ad 0abe
00000250: da71 97bd 3e52 633e f043 91bd 3f00 a23d
00000260: 336d 1f3d 335f 5a3c 2c96 13be 1492 62be
00000270: 36cb 303e 459d d93e 75ca 5b3e c55c 98bd
00000280: f1c9 f23d f2fd d83a 1b31 b13d 219e dbbd
00000290: 449f 31bd 8cdc 84bd 7d52 9a3d e34c 8d3e
000002a0: c9d3 a13d 0b72 abbd 33e5 2a3e d144 08bd
000002b0: 8517 b23d 22b3 a73e 23df 053e f9f3 163d
000002c0: b4f0 dabe 359f 513e d2bd 9abc a7fc 943d
000002d0: aadc 21be 0369 1d3e f0a6 bbbd d32d 00be
000002e0: ba2d 793d 4a05 443e 5088 c2be c9c0 83bd
000002f0: 3d6a 06be 6409 c1bd fc34 07be 3f2a c43d
-0.0404888 -0.18574502 -0.07737975 -0.1120854 0.10086727 0.28581345 -0.015774686 -0.20131874
-0.18977843 0.11464506 -0.105740644 0.17938776 0.040940788 -0.016999247 -0.25718927 -0.06373221
-0.06807098 -0.05514276 -0.15923077 0.21173686 0.095527954 -0.14929381 -0.15531728 0.0649133
-0.25146937 0.238656 0.15276346 -0.30592325 0.08068488 -0.08350903 -0.028874496 0.1360874
-0.18780999 0.10065211 -0.1303127 0.2183634 -0.03808386 0.10912141 -0.12277451 -0.14096995
-0.23243037 0.07521895 0.111222 -0.09496754 -0.27131113 -0.01824213 -0.076229416 -0.11954213
-0.10778293 0.19228338 -0.030469434 -0.100784875 -0.17361408 0.34604257 0.0017516194 0.2534251
-0.25820094 0.18684961 -0.062385097 -0.10590383 0.24402352 0.11544558 -0.14744177 0.062028512
-0.12553388 -0.166953 0.18101887 -0.16372912 -0.18382183 0.023590084 0.09563587 0.03365793
0.24344946 -0.27979988 -0.24008703 -0.06001854 -0.0025426575 -0.23026387 0.12863429 0.17689048
0.084248945 0.18816403 0.06566351 -0.14868794 0.29309317 0.13526326 0.064912975 0.07784631
-0.030853927 0.15701608 0.008463556 0.36396465 -0.0729479 -0.035045587 0.16099924 0.025627503
0.089992 -0.12199177 0.122153796 0.06759237 0.34036404 0.13782269 -0.056234993 -0.06946513
0.09760756 -0.12186873 0.05075494 0.0808387 0.22785878 -0.04885207 0.10418056 0.18836346
0.107601374 0.15276703 0.0884649 0.24368209 0.12658255 -0.035553407 0.18157028 -0.26354358
0.08619003 -0.22819963 0.033332378 -0.18449262 -0.2378855 0.22147855 -0.19071683 -0.02293973
-0.3512615 0.05902259 -0.27022538 -0.1688717 0.04005559 -0.049660057 -0.10242564 0.10623832
-0.07613449 -0.22419734 0.04377609 0.27162382 0.14652121 0.12918393 -0.16143358 -0.18715924
0.15152334 0.19083841 0.015779363 -0.13542615 -0.07394762 0.22199342 -0.07093036 0.07910203
0.0389225 0.013328361 -0.14412755 -0.22126037 0.17265019 0.425028 0.2146395 -0.074395694
0.118549235 0.0016555174 0.08651944 -0.1072352 -0.04336478 -0.064873785 0.07535265 0.27597722
0.07901723 -0.08371361 0.16688995 -0.033268753 0.08695892 0.32753855 0.13073401 0.036853764
-0.42761767 0.20470889 -0.018889342 0.07274752 -0.15806833 0.1537209 -0.091627 -0.1251748
0.060834624 0.19142643 -0.37994623 -0.06433255 -0.13126464 -0.09425619 -0.13203806 0.0957837

bias f4 [8]
00000000: 9986 683e 8135 b3bd 5b25 173d 6a7c d7bd
00000010: 72d5 9cbc 35b7 a73e 670d c53d ac85 0b3e
0.22707595 -0.087504394 0.03690086 -0.10521777 -0.019144747 0.32756963 0.09621697 0.1362521

weight f4 [8]
00000000: 3d84 9a3f 4f64 833f f3d3 533f 95ce 663f
00000010: fe1a 6a3f 89ff 853f 4c24 813f 8cca 8d3f
1.2071606 1.0264987 0.82745284 0.9015897 0.91447437 1.0468608 1.0089202 1.1077437

bias f4 [8]
00000000: 84e5 2f3e 6a94 aa3e cb11 e03c d17c 2b3e
00000010: 29aa 983e b64b 833e 6ace a6bd dcc0 b93d
0.17177397 0.33316356 0.027352234 0.16746832 0.29817322 0.256437 -0.08144839 0.09069988

running_mean f4 [8]
00000000: 2cb6 fbbc 1c01 b8be dbe3 3d3d bb92 a23e
00000010: 1c1a 183f 79c2 c1bc e285 053f d6a8 a43c
-0.030726515 -0.35938346 0.046359878 0.3175257 0.5941484 -0.023652302 0.52157414 0.020100038

running_var f4 [8]
00000000: 122f ab3e c315 bd3e 4314 513e 593f af3e
00000010: 9a0c fc3e ca75 b53e 5222 2d3f 67c7 883e
0.3343435 0.36930665 0.20417885 0.34228018 0.49228364 0.35441428 0.67630494 0.26714632

weight f4 [8, 8, 3]
00000000: 4d48 0abe 688c cabd 3463 9abd a14a 2d3e
00000010: bc46 afbe d2a1 933e 4b3d 9cbe bb61 613e
00000020: a518 2c3e 0c83 1dbe c8ed 4fbb e2d5 3f3d
00000030: 297e 0dbd 8abe 21be 9bc4 f9bd 10e1 b3be
00000040: d8b7 12be fe15 b63c 576c 83bd f1c6 bbbd
00000050: beb0 32be 4a24 dabd 3274 323c e42d 1e3d
00000060: 5752 893d 7844 a2be ce1d 033f 923d 0fbc
00000070: 9972 283c 2a85 bbbe 1154 ef39 cdaf 24bb
00000080: ec6e 1b3e d1c4 ff3c c23a 80be 1506 053e
00000090: fc4a c03d 63ca 9b3c d6be 1fbe 81d3 a63d
000000a0: 65b2 abbd 2148 9e3e e536 b2bd d0a3 9dbe
000000b0: c360 833d 24d7 193e 6723 33be a54f 223b
000000c0: 9999 e7bc c17b 88be c946 1dbe 105e 413e
000000d0: db9f 0aba cda7 c5be dd85 58bd 4ab5 79bd
000000e0: a852 373c be2a 823e 6445 16be bc9b 5d3e
000000f0: 8b68 4b3e 77e5 e8bd 0626 c83d b473 813d
00000100: 2e7a 82bd 4d7e 14bd a351 5abd 2870 02bd
00000110: 7daa a4be f785 47be a8cd b2bd 1d42 8bbe
00000120: eaaf 5cbe a158 c4bd a4d2 5a3e 3f3d 28be
00000130: a937 083d df3f 43bd 6601 d0bc 477d ecbd
00000140: b00a 1fbe b794 833e e9a0 143c 12b7 873e
00000150: 7cb0 edb6 74a9 f33d f56a 6e3e 6eb3 8fbd
00000160: 81be 3bbd ca66 b83e 7f99 b4ba 1960 a73d
00000170: c7ad 53be ef6c ac3d 6848 4fbe 3387 f43d
00000180: 6407 91be a106 86bc d2c3 903d c541 2cbe
00000190: 2fe2 853c dfff da3c 5173 ddbe 326e 99bd
000001a0: 430b d7bd d09c 25be f890 d63d a688 8ebd
000001b0: b373 3dbe ec2e f5bd 901c ecbc 7169 ccbe
000001c0: 3462 033e 5568 9cbe 5622 7cbd 1e9e 063e
000001d0: 7166 3cbe 0169 49be 2147 5dbe 4a09 72be
000001e0: 763c 1e3e 5d42 233e 71f7 ee3d 61ba 423e
000001f0: 1544 dc3d c09d 143d fa6f 0abe 7dfe 39be
00000200: c611 3b3e 7573 3c3e 2441 2bbd bb7d c8bd
00000210: 60cc 0f3e 97e0 15be a2eb 12be 47cc 863e
00000220: ecb4 a5bd 0506 aebd 5c58 21be 6ca8 0c3d
00000230: 3f0a d93d 6c84 5ebe 582f ea3d e257 93be
00000240: 0eff 293d d90c 34bb 5ff1 9bbe 68ec a13c
00000250: c07e 17bc baf4 9abe 514e 173e 406c 50be
00000260: 8015 2fbe cc70 6cbe 5357 51be 5d6f 0f3e
00000270: d372 78be a50f 303e 35b4 20b9 a881 d1bc
00000280: a263 2cbe 0df2 7f3d 8cf9 53be 4179 333e
00000290: c75c 5e3e e7ed 413e 7d20 a23d 6bb2 03be
000002a0: b8ea 2abe fd31 a33c 1781 de3c 8576 8bbe
000002b0: 3a88 643e 4f91 843e 4eb3 98bd 01fa 04be
000002c0: e545 04bd 251f b53c 988a 363e 01d7 a93d
000002d0: 54b7 c3be cc71 87be 795c 0e3d 2ca7 15be
000002e0: 9b65 b3ba 5e39 77be 0cf9 61be cb8a fc3d
000002f0: 25b9 20bd 3c0f 52be 408a 6b3e edb1 7c3e
-0.13504143 -0.098900616 -0.07538453 0.16923 -0.34233654 0.28834397 -0.30515513 0.22009937
0.16806276 -0.15382022 -0.0031727422 0.046834834 -0.034544144 -0.15795341 -0.12195703 -0.35132647
-0.14327943 0.022227284 -0.064171486 -0.091688044 -0.17450234 -0.10651453 0.010891961 0.038617983
0.06705158 -0.31692863 0.51217353 -0.008742707 0.010281228 -0.36625034 0.00045648267 -0.00251292
0.15179032 0.031221779 -0.2504483 0.12990601 0.09389302 0.019017404 -0.15600142 0.0814581
-0.083836354 0.30914405 -0.087018766 -0.30789042 0.0641494 0.15023476 -0.17493974 0.002476671
-0.028271483 -0.26656917 -0.15359034 0.18883538 -0.00052881025 -0.38604584 -0.052862037 -0.060963906
0.01118914 0.25423235 -0.14674908 0.21641439 0.19864099 -0.11371892 0.097728774 0.06320897
-0.0637096 -0.036253262 -0.05330051 -0.03184524 -0.32161322 -0.19484697 -0.08730632 -0.27198878
-0.21551481 -0.09587217 0.21369416 -0.16429614 0.033256207 -0.047668334 -0.025391292 -0.11547332
-0.1553142 0.25699398 0.009071567 0.2650686 -7.083696e-06 0.11897555 0.23282988 -0.07016645
-0.045835976 0.36015922 -0.0013778656 0.08172626 -0.2067176 0.08419215 -0.20242465 0.1193985
-0.2832595 -0.016360583 0.070686 -0.16821964 0.016343204 0.026733337 -0.43252042 -0.07491721
-0.10500195 -0.161731 0.10476869 -0.06959657 -0.18501167 -0.1197184 -0.028822213 -0.39924195
0.1283043 -0.3054835 -0.061556183 0.13146254 -0.18398453 -0.19668962 -0.21609165 -0.23636356
0.15452752 0.15943284 0.116682895 0.1901641 0.10755173 0.036283255 -0.13519278 -0.18163486
0.18268499 0.18403418 -0.04181017 -0.09789606 0.14042807 -0.14636455 -0.143477 0.26327726
-0.08091149 -0.08497242 -0.15756363 0.034340307 0.105976574 -0.21730202 0.11434811 -0.28777987
0.041503005 -0.0027473478 -0.3045759 0.019766048 -0.009246528 -0.30264837 0.14775969 -0.20353794
-0.17098045 -0.23089904 -0.20443468 0.14007325 -0.24262552 0.17193468 -0.00015325921 -0.02557452
-0.16834882 0.062486697 -0.20700663 0.17526723 0.21715079 0.18938409 0.07916353 -0.1286103
-0.166911 0.019921297 0.027161164 -0.2723886 0.22317591 0.25892112 -0.07456075 -0.12985994
-0.03229322 0.022109577 0.17826307 0.08292962 -0.38225806 -0.26454008 0.034756158 -0.14614552
-0.0013686897 -0.24142978 -0.2206766 0.1233116 -0.039239068 -0.20513624 0.23001957 0.24677248

bias f4 [8]
00000000: 2905 393e a3cc 14be ca37 ac3d 9c4c 1dbe
00000010: d123 03bd 7a2a 76be b621 d13d 74e1 763d
0.18068375 -0.14531188 0.084090784 -0.15361255 -0.03201658 -0.24039641 0.10211508 0.060273603

weight f4 [8]
00000000: 03e7 7c3f 8b89 843f 809f 523f 2939 5e3f
00000010: 7738 a83f 4b4b 633f 8a01 793f 0527 883f
0.98789996 1.0354475 0.8227463 0.8680597 1.3142232 0.8878676 0.97267973 1.0636908

bias f4 [8]
00000000: 80c1 793d a309 5a3e ba4f 203e e7bf 103e
00000010: 4742 b03e 1e7a 363e d44f afbd 81fa 233d
0.06097555 0.21292739 0.15655413 0.14135705 0.34425566 0.17820022 -0.08560148 0.04003382

running_mean f4 [8]
00000000: adbc c1be 3261 3fbe d842 debe ed40 6f3b
00000010: c1c6 8dbf cab8 51bd ee73 a4be b9a0 6abe
-0.3783926 -0.18689421 -0.43410373 0.0036507205 -1.107628 -0.05120162 -0.32119697 -0.22912873

running_var f4 [8]
00000000: fc1f 1a3f e983 093f 0871 a93e a17c e13e
00000010: 43d0 5b3f b825 5d3e d7ae a33e 9389 0d3f
0.60205054 0.53716904 0.33094049 0.44040397 0.8586466 0.2159642 0.3196933 0.55288047

weight f4 [8, 8, 3]
00000000: 4a12 853d 2633 0b3e cbbb ec3d 2d27 39bd
00000010: 5bbf b03e 0a24 163e a2e5 9bbc d525 513e
00000020: a586 55be ee52 52bd ad47 de3b cd26 083e
00000030: 7d98 6fbd eddb 573e dca2 b3be 9edf 26be
00000040: 5255 8a3d 9e9f ccbc 7900 18be dd57 0dbe
00000050: 6a96 98bd a9ed 283e 57c6 c53d 28f2 b13d
00000060: 5f0f 30bd f546 9c3a ff89 233e b900 b63c
00000070: d26b 45be a26d 783e 78d9 303e f265 1fbd
00000080: 21e1 e9bd c571 2a3d 5e28 9ebe a168 9bbd
00000090: 8d16 88bd 3eaa 8bbd e198 043e eaa7 48bd
000000a0: 959e b3be 9358 28be d567 cabd 8888 393e
000000b0: 8a82 b9be dd1f 433e 572e 243d 41a0 943c
000000c0: 128d c3bd a4d7 1dbd 545a 2b3e 1ec3 1f3e
000000d0: 4a67 1fbe a1e9 723e 1c9d 0e3e bc19 ce3d
000000e0: 31de 21bd 881c 573e 9b3c 01be 31a6 cdbd
000000f0: bfa1 22be c0e4 afbe cd4e 4bbe d0ad 833d
00000100: 4090 a33d 8b34 d3bc 9d3c 86bd fae3 26be
00000110: fb54 253e c0fc 5d3e 182d e53d a859 883e
00000120: 511f 8e3d 0a6f 2bbe 2631 99be 1114 edbd
00000130: 8e0e 6a3e 8527 e93d 2fd1 05be 55b4 ebbc
00000140: 9f18 803e f876 68be 63d2 083e e68f 323e
00000150: 1fc7 263d 1d40 64be db9b 38be 7dd9 f13c
00000160: b2fd c5bc 4a94 0fbe 83c1 5eba 9ada aebc
00000170: 266c 8e3d d489 a33e d2cb 3bbe 4d62 a3be
00000180: 6b7c 5cbe b54c b43d 9bea ae3d 8a74 6fbd
00000190: 8a22 25be 37cf 4e3c 6f08 afbd 0769 3abe
000001a0: 0870 babd 0478 b93d 9b8e d2bd 263c 7bbe
000001b0: a9fd a2be 751f 863e 18e3 fc3d 8ad5 653e
000001c0: 7e6c dfbc d55a b63b 5969 3ebe 4625 e9be
000001d0: 5bbd 0ebe d502 d63c f0f0 833d b792 aebd
000001e0: f8cb bf3e c9b7 fabd 9353 60bd f7dd 54be
000001f0: bde6 0f3e 303b e83d 6ba7 87bd ae78 abbe
00000200: 5831 163e fdd9 2abd 1a54 e2bd a41a 543d
00000210: 00af 28be dfe6 743c b806 2dbe 6a04 00bd
00000220: e3d4 82be e34e 4e3d 40ad 403e 7cf3 913c
00000230: 1b02 5cbe 8401 993e d096 43be 604b c93d
00000240: 130a 3bbe 34f3 3cbe ffb0 e03c 472a c23d
00000250: a70f 4b3e 0236 be3d 670c dd3d e038 93bd
00000260: 7a70 2ebe 5097 73bd 3b29 193e 375e 92be
00000270: 6bc9 9ebe a0b1 a53e 4620 5fbe ef7a a43d
00000280: 2d04 4abd 97ae 8b3d 44da 1fbd 8894 18be
00000290: 49e0 99bd 705b 29be e00f 42be ff05 85be
000002a0: f694 cb39 7d35 923d ea85 a13d 6aa6 1a3b
000002b0: cc49 e3bd c992 94bd baaa 5e3e 1288 a83d
000002c0: bd94 35bc be0b babd 530e 05be cf72 e23d
000002d0: c002 2a3f 5664 ee3d 5d29 7e3e 0165 38be
000002e0: b398 573e 8e14 883e 060f fbbd 1e44 52bd
000002f0: 22f0 1d3e 9490 813e 0f6b ca3d 4dee 083d
0.06497629 0.1359373 0.11559256 -0.045203377 0.34520993 0.14662185 -0.019030396 0.20424588
-0.20852144 -0.05134862 0.0067834468 0.13296051 -0.058495034 0.21079989 -0.3508519 -0.1629624
0.06754555 -0.024978455 -0.1484393 -0.13803048 -0.07450564 0.1649691 0.09656971 0.08688766
-0.04298341 0.0011923002 0.1597061 0.022217141 -0.19279411 0.24260572 0.17270458 -0.038915582
-0.11419893 0.041612405 -0.30890173 -0.07588316 -0.06644926 -0.068195805 0.12948944 -0.04898826
-0.35081926 -0.16440038 -0.09883086 0.18118489 -0.36232406 0.19055124 0.040083256 0.018142821
-0.095483914 -0.03853573 0.16733676 0.15601775 -0.15566745 0.23721935 0.1392712 0.10063502
-0.03951854 0.21006978 -0.12620775 -0.10041464 -0.15882014 -0.3435421 -0.19854279 0.064296365
0.07986498 -0.02578189 -0.0655453 -0.16297904 0.16145699 0.21678448 0.111902416 0.26630902
0.06939567 -0.16741577 -0.2992031 -0.11576093 0.22857115 0.11384491 -0.13068078 -0.028772512
0.25018784 -0.22701633 0.13361506 0.17437705 0.04071724 -0.22290082 -0.18028204 0.029522652
-0.024168823 -0.14021412 -0.00084974634 -0.021344472 0.069542214 0.31941092 -0.1833947 -0.31910935
-0.21531837 0.08803693 0.08540841 -0.05846075 -0.16126457 0.012622646 -0.085465305 -0.18204127
-0.091033995 0.09056094 -0.10281106 -0.24534664 -0.31834152 0.26195875 0.12348002 0.2244474
-0.027273413 0.0055650272 -0.18594874 -0.4553625 -0.13939421 0.026124397 0.064424396 -0.085240774
0.37460303 -0.122420855 -0.054767203 -0.20787798 0.14052863 0.11339414 -0.06623729 -0.3349051
0.1466726 -0.041711796 -0.11051197 0.05178322 -0.16473007 0.014947622 -0.16897094 -0.03125421
-0.25553045 0.0503682 0.1881609 0.017816298 -0.21485178 0.2988397 -0.19100499 0.0982883
-0.18265562 -0.1845215 0.027428148 0.0948072 0.1983019 0.09287645 0.10793381 -0.071885824
-0.17035094 -0.059470475 0.14957134 -0.28587505 -0.31013045 0.3236208 -0.21789655 0.0803126
-0.04932039 0.0682041 -0.039026514 -0.1490041 -0.07513482 -0.16538787 -0.18951368 -0.25981137
0.00038830162 0.07139108 0.0788687 0.0023597726 -0.1109806 -0.072545595 0.21744815 0.08229078
-0.011082825 -0.09084271 -0.12993746 0.11057054 0.66410446 0.11640231 0.24820466 -0.1800728
0.21054344 0.26578182 -0.12258725 -0.051334493 0.15423635 0.25305617 0.09883701 0.033430386

bias f4 [8]
00000000: eb3b 22be 08bc 7fbe dade d4bb 013a 2d3a
00000010: c88c 253e d721 5d3e 8bdd 9cbe b6ae 11be
-0.1584317 -0.24974072 -0.0064962925 0.00066080695 0.16166985 0.2159494 -0.30637774 -0.14226803

weight f4 [8]
00000000: 0aa9 713f 06b6 863f 7679 6e3f e083 803f
00000010: 7339 883f 75e6 763f 880c 8c3f 4995 7b3f
0.9439856 1.0524299 0.93154085 1.0040245 1.0642532 0.964454 1.0941324 0.98274666

bias f4 [8]
00000000: 9cb6 2bbe 61e8 473c f265 88bb 9924 9b3e
00000010: 288f 2b3e dc97 c03d 92a4 a63e 593d 5ebd
-0.16768879 0.0122014 -0.0041625435 0.3030136 0.16753829 0.09403965 0.32547432 -0.054257724

running_mean f4 [8]
00000000: 8e40 093d 311d f6be 84b1 46bd 07bc b4be
00000010: 2103 81be affa 1bbd 2dfe 4abf b1d3 5d3f
0.03350883 -0.48069146 -0.048509136 -0.35299703 -0.251977 -0.038080867 -0.7929409 0.8665114

running_var f4 [8]
00000000: 3ee8 963d c8cc 8a3e 4c35 2a3e 7de4 ca3e
00000010: 147c ae3e 50d4 473e 2564 943e ad0d f33e
0.073685154 0.2710936 0.16621894 0.39627448 0.3407904 0.19514585 0.28982654 0.4747137

weight f4 [8, 8, 3]
00000000: f642 61bc 0cd5 67be 3cac 563e e9db dd3d
00000010: 37bf 82bd 2aa6 ffbd 683c 8f3d 3fb4 ca3c
00000020: 9ce7 85bd 5b40 8b3d 9636 183e 9d7f ab3e
00000030: 9d1b c0be ecfc 1ebe d226 07bd 3501 053e
00000040: aeb9 9a3d 7d93 883d 5130 9e3d 39bb 83be
00000050: 8f67 19be 476c 5bbb 5ce4 7ebe bb3c 853d
00000060: b8e5 30bd 3e6d 63bd fbc4 d23d 9059 ff3d
00000070: 00e3 dfbd bb60 1cbe bd8f 033e f653 023c
00000080: 70c5 3cbe 418f 03be c61d af3d 3756 b03e
00000090: 42b2 9dbe 7509 a8be f347 a6bd 589a e33d
000000a0: f7c6 1bbe c3cb 5abd 67e0 263c 26f8 f03d
000000b0: 8d88 6e3e b400 45be 6933 f3be 2340 a3be
000000c0: 5e3c cabd cec9 233e 81e9 813e 6248 48be
000000d0: b5a1 febd 4065 4ebd 729a a43d ca35 5c3e
000000e0: 13f7 fdbd a6b9 3dbe 869b 05be 1672 023f
000000f0: ca6d 13be 8760 eabd 7447 d73d 6b88 853d
00000100: 763f f33d 295d 643c 4bef fabc 2a62 493d
00000110: af53 ee3d 7c5e 983c 52a4 97be 377a 7abe
00000120: 3319 10bd 0ad7 52be 7502 d9be d838 873e
00000130: 2374 b2be b115 b5be 6be3 9e3d a549 65be
00000140: 739f 24bd b334 d03d 519b 5cbd 348c 33be
00000150: 34b3 52ba d6ea 8bbd 433c c43d 071f 2e3d
00000160: e142 bc3c c0b7 52be be48 83be bd16 2cbd
00000170: c946 323d 2597 0fbc d814 bbbd 626c 19be
00000180: 5294 6a3d c540 f4bd e7fa bdbe 71bf 0fbd
00000190: af1a e2be 75c6 6ebd 8760 ef3d 4b8b 38bd
000001a0: 5450 3c3e b38d 3fbe c37a 303c 792f c03d
000001b0: b116 8cbd 33ac 5abe 1b04 343e db23 7c3e
000001c0: 062b a2be 2d68 e3bc b22a 5dbe eec6 6dbe
000001d0: c589 00bd 9366 b9bc f9ed 55bd b2cc 1abd
000001e0: 55fa ab3a 0dbb cd3a 910d 0e3e ab79 783d
000001f0: 05f5 bfbb 993c ad3c a9ae 43be 9841 883d
00000200: 14f3 5cbd 575f 91be da33 953b 8c73 813e
00000210: 393e e2bd 05f8 45be 8551 d03c 5f88 b03e
00000220: 4425 52bd 0d95 813e b07c 0f3e f6f2 8fbe
00000230: d79f 60bd 7c3d d4bc 071d ccbd e87a c6bd
00000240: d670 943d 97a1 983d 23cc 41bd 3311 d83d
00000250: fa20 743d 7015 96be cac1 51be 3054 4abd
00000260: 8c86 bebe 235c 253d e93f 49bc 179a b03d
00000270: f829 28be 855a 693d 52aa 21be 3639 9e3c
00000280: 8e47 2a3e 1646 153e 03c7 f5be cc74 313d
00000290: a5a5 0939 1622 23bd ee41 bdbd 0170 58be
000002a0: 81c1 4cbd f1ba 56be dba6 f53c 7b5e 863e
000002b0: 2810 07be c715 9abe a728 69bd 92d2 083d
000002c0: bf3e 45bd c374 5ebd f30a 29be 8ee5 d3bd
000002d0: 3548 bcbe 5634 2e3d 79df 6f3e 06b5 8bbc
000002e0: d947 6cbe 30ab 31be 7dc8 83be 64d5 b2bc
000002f0: c2d3 833e 6367 a5bd e248 82bd 19be eabd
-0.013748875 -0.22639865 0.2096414 0.1083296 -0.063841276 -0.12482865 0.069939435 0.024744151
-0.065383166 0.06799384 0.14864573 0.334958 -0.37521067 -0.1552617 -0.032996006 0.12988742
0.07554947 0.06668756 0.077240594 -0.25728777 -0.1498091 -0.0033481286 -0.248918 0.06505724
-0.043187827 -0.055524103 0.10291477 0.124682546 -0.10931969 -0.15271275 0.128478 0.007954588
-0.18434691 -0.12847616 0.08550601 0.34440777 -0.30800062 -0.32819715 -0.08119192 0.11113423
-0.15212618 -0.05341698 0.010185338 0.117660806 0.23294277 -0.1923855 -0.4750016 -0.3188487
-0.098747954 0.15994951 0.25373462 -0.19558862 -0.12433187 -0.05038953 0.080372706 0.21504894
-0.12400641 -0.1852785 -0.13047609 0.5095533 -0.1439735 -0.114441924 0.105116755 0.0652016
0.118773386 0.013938227 -0.030631682 0.049165882 0.11637055 0.018599741 -0.29617554 -0.24460684
-0.03518028 -0.20589843 -0.42384687 0.26410556 -0.3485423 -0.35368112 0.0775822 -0.22391374
-0.040191125 0.101663016 -0.05385906 -0.17533952 -0.00080375676 -0.06831901 0.095818065 0.04251006
0.02298111 -0.20577908 -0.25641435 -0.042013872 0.043524537 -0.008764063 -0.09134835 -0.14982751
0.057270356 -0.11926416 -0.37105486 -0.035094682 -0.44160983 -0.058294732 0.11688333 -0.045054715
0.18390018 -0.18706398 0.010771456 0.09384055 -0.068402655 -0.21354751 0.17579691 0.24623053
-0.3167345 -0.027759636 -0.21598318 -0.23220417 -0.031381387 -0.022631919 -0.0522289 -0.03779287
0.0013120869 0.0015696004 0.13872363 0.060662907 -0.005858066 0.02114706 -0.19109596 0.06653136
-0.053942755 -0.2839305 0.0045533003 0.25283468 -0.11047024 -0.19332893 0.025429497 0.34479043
-0.05130507 0.2530903 0.14012408 -0.28115052 -0.054839935 -0.025908224 -0.09966474 -0.09691411
0.07248084 0.07452696 -0.04731382 0.105501555 0.05960176 -0.2931323 -0.20484081 -0.049396694
-0.37212026 0.04037107 -0.012283304 0.0862314 -0.1642226 0.05697109 -0.15787628 0.01931439
0.16628858 0.14577517 -0.48003396 0.043324277 0.00013127046 -0.03982743 -0.09241091 -0.21136476
-0.049989227 -0.2096975 0.02998679 0.26243958 -0.13189757 -0.3009474 -0.056923535 0.03340394
-0.048155542 -0.05431057 -0.16508083 -0.103465185 -0.3677384 0.04253038 0.23425092 -0.017054092
-0.23074283 -0.17350459 -0.25738898 -0.021830268 0.25747496 -0.0807636 -0.063615575 -0.114620395

bias f4 [8]
00000000: 9707 a93c e606 8f3b 7eda 043e 25d2 50bd
00000010: 366f 5fbe 21f5 823d 9e03 483c 86e5 0cbe
0.020633502 0.004364836 0.12973973 -0.05098166 -0.21819767 0.06394411 0.012207894 -0.13759431

weight f4 [8]
00000000: 3a78 163f 5884 383f d0fa 333f dae0 233f
00000010: 2bee 043f 038e 383f f9f7 243f 74ae 143f
0.587772 0.7207694 0.70304585 0.6401497 0.51925915 0.7209169 0.64440876 0.58078694

bias f4 [8]
00000000: 894e dfbe c011 3cbe fc60 8abe c9f1 83be
00000010: d7cf b0be 4ee0 07bf c9e2 91be 9050 4abe
-0.43614605 -0.18366146 -0.27027118 -0.25770405 -0.3453357 -0.53076637 -0.28493336 -0.19757295

running_mean f4 [8]
00000000: 88e4 29be 0811 efbe 120f e73d b226 54bf
00000010: 9115 6bbf 5518 b3bd 5b80 13bf 071b 48bf
-0.16591084 -0.4669268 0.11282171 -0.82871544 -0.9182978 -0.08744875 -0.5761773 -0.7816624

running_var f4 [8]
00000000: 7f54 9f3e 3740 383f 5563 fb3e 6d0b 093f
00000010: 69f8 933e d56b 833e d789 853e 1479 db3e
0.31119153 0.71972984 0.49099222 0.5353306 0.2890046 0.25668207 0.26081726 0.42865813

weight f4 [128, 25]
00000000: 8a5e 99bd b801 b0bd 1536 9abe e4da 92be
00000010: b161 02bf cfce c03d 14dc be3d 8b60 e8bd
00000020: f34d 913e add8 c63b f359 2f3e 9ced 9f3e
00000030: 5657 25bd acea 823e fe3e 74be 8012 233c
00000040: 55e6 8d3e 6728 ac3d a5cd 79be 35e2 7abe
00000050: a01c 453e effb aabd a1ad 91be 3c07 02be
00000060: 2677 c53d a77b d6be 8da5 553d 52ef ebbe
00000070: ccaf 13be c292 bcbe de96 363e 7ae3 cb3c
00000080: d529 8fbd c8da 07bd c0be 83be 18bb 22be
00000090: b157 4c3e 85ab f13b 2e54 ae3d 1f45 0f3d
000000a0: 17cf f93d 1a93 843d 0897 83be 86d2 9c3e
000000b0: e4bc babd 87db 193d a3a6 67be ac6d 91bd
000000c0: a1f1 a63b bfad bb3b 9aeb d63a 9d5e 38be
000000d0: 5cb5 233d 0250 d1be 30dd e3be 9080 f5bd
000000e0: 7ba8 f23d a875 f1bd 9964 a63e 4f00 7d3d
000000f0: d4a1 cc3e 2d25 a0bd bf48 6b3e 07a6 62be
00000100: 8335 9ebd 20a8 5cbe 136d ccbd 3cc9 c2be
00000110: e01f 02bf e99b 90bd f1fe 11be 1520 5cbd
00000120: 7e18 413d a558 9cbe ded7 cd3d 230f f6bd
00000130: 6053 d8be 9fed 9cbe ab0d b23d f878 2b3d
00000140: 265f 98be 3cbc b3be b89d dd3d 3fc3 563e
00000150: 3e2d 373e 9159 383d 3827 56be a0fd d83d
00000160: 94b3 1c3e e569 98bd 0a93 cebd 2556 17be
00000170: bdd1 f7be b6c0 f8bd f749 fa3c c9f5 123e
00000180: 50c0 873c 1db5 f3bc 665e 39bc 3a41 cf3d
00000190: 9e58 1fbe 3612 03be 4ee2 f93d c9da 48be
000001a0: 57f5 18bf 168e f6be 5291 b3be 77d8 83bd
000001b0: d11c bd3d 4dc1 8a3e 7a99 993e bb32 05bd
000001c0: c391 b33b cc84 b73d e781 173e 50d5 86be
000001d0: 8e56 2dbe fa55 583e e281 b8be 7f75 f1be
000001e0: 575d 9dbe 6db1 19be d913 703d c1d9 863c
000001f0: a287 1f3e 2f0f 3c3e 35ac a2be 1e23 98be
00000200: 9d93 9dbe 3149 aebc 9203 4fbe 5bf1 cbbe
00000210: d5c4 2abf d377 e6be d974 70be cc90 cdbe
00000220: fa4f 94bd 3999 5c3e b2f9 323e 0dc5 1ebe
00000230: 0fd2 e13d fd50 5d3e 728a 70be 02dc c1bc
00000240: bf6d f5bd 22de 29be 3dd7 e7be 8775 043e
00000250: d907 6a3d e00c 873d 60a2 b8bd 3b2b 9b3e
00000260: 3113 30be e66b a8be 7eaf 03bf c73d 2cbd
00000270: 577e 05bf 7dd4 5fbe de9b c73c 70f1 a43d
00000280: 9fa5 473d a787 03bf 14ad ea3d 2cef 52bc
00000290: a8d1 2d3e ab8a 393d 24ff ffbd aec6 903d
000002a0: 6aa9 123e 7253 6fbd d80c 60be 3bc1 593e
000002b0: fbeb 3abd d6a2 0e3e 9ef5 85bc baff b1be
000002c0: 2d7b 20be 0341 01bf 9d8e efbe 10ff 2d3d
000002d0: 29b8 0c3e 7bee 16be 2237 9f3e 4865 56be
000002e0: adec ce3d 82e4 083d f186 ebbd a2d0 8c3d
000002f0: 1128 bcbd 7606 6f3e a94b 9dbd 000d 0dbe
00000300: f118 fd3c 5640 db3c 758c c53d fc21 aabd
00000310: 9d7a e63d 7689 b0be f8e2 453e 451d c8bd
00000320: ee08 1cbe 21fb abbe 666d bfbd 65ff dbbd
00000330: e69b 3a3e 234c e73d ae93 1fbe 618f 403e
00000340: 5201 06bd 15c0 c43b b61c 3a3d 42a8 c13c
00000350: 6746 b9bd bedd 05be c2b5 f1bd 051d 843e
00000360: 846b 39be fd57 983d 6a23 28be f2b3 253e
00000370: 35f3 7cbe 3f46 0ebe 32cb 25bf b2c8 81bd
00000380: 897c 813d 74b6 093e 1bdc 99bc 2cd6 a53d
00000390: b7f1 a73d e805 e7bd 6548 c8be 33c4 903d
000003a0: 13b5 07bb 0f31 a43d cf18 593e c57a b23d
000003b0: edab e73a a486 02be b94c f4bd f441 893d
000003c0: 863c 1c3e 2978 5c3e 643a f8bd 2590 003d
000003d0: 74b4 f23c bfab 50be bda5 74bd a578 0fbf
000003e0: c172 20be 4742 013e 11aa 133e 0aed 3dbe
000003f0: 9de6 cfbc 6678 ec3d 24d8 403d fd1d 313e
-0.07488735 -0.08594078 -0.30119386 -0.28682625 -0.50930315 0.094144456 0.0931932 -0.11346539
0.28379783 0.0060683102 0.17124157 0.3123597 -0.040366493 0.25569665 -0.23852155 0.009953141
0.27714792 0.08406144 -0.24394853 -0.24500354 0.19249201 -0.08348834 -0.2845278 -0.12698072
0.096418664 -0.41891214 0.052159835 -0.46081024 -0.1442253 -0.36830717 0.17830989 0.024888743
-0.06990401 -0.03316763 -0.25731468 -0.15891683 0.19955327 0.007375183 0.0851215 0.03497803
0.121977024 0.0647337 -0.25701165 0.30629367 -0.09118059 0.037562873 -0.2262216 -0.071009964
0.0050947224 0.0057274993 0.0016397119 -0.18004842 0.03996788 -0.40881354 -0.4450469 -0.11987412
0.11848541 -0.11790019 0.32498625 0.061767872 0.39967215 -0.07819591 0.22976969 -0.22133647
-0.0772505 -0.2154851 -0.09981742 -0.38044155 -0.5082989 -0.070609875 -0.14257409 -0.053741533
0.0471425 -0.3053638 0.10050939 -0.12014606 -0.4225111 -0.3065004 0.08694013 0.04186341
-0.29760092 -0.3510455 0.10821098 0.20972918 0.17888352 0.045007292 -0.20913398 0.1059525
0.15302879 -0.07442073 -0.10086639 -0.14778955 -0.48402205 -0.12146132 0.030552847 0.14351572
0.016571194 -0.029749447 -0.01131401 0.10119863 -0.15561149 -0.12799916 0.12201367 -0.1961471
-0.5974936 -0.48155278 -0.35071808 -0.06437772 0.09234012 0.27100602 0.29999906 -0.032519083
0.0054800226 0.08960876 0.14795648 -0.2633462 -0.16927549 0.21126547 -0.36036593 -0.47159955
-0.30735275 -0.15009089 0.05861268 0.016461255 0.15579084 0.18365167 -0.3177201 -0.29714292
-0.30776682 -0.021275135 -0.20216206 -0.39832577 -0.6670659 -0.45013294 -0.23482074 -0.40149534
-0.07241817 0.21542825 0.17478064 -0.15504856 0.110263936 0.21612926 -0.23490313 -0.023664478
-0.11983823 -0.16588643 -0.452814 0.12935458 0.05713639 0.065942526 -0.090153456 0.3030642
-0.17194821 -0.3289482 -0.51439655 -0.042051103 -0.52145904 -0.21858402 0.024366315 0.08053863
0.048741933 -0.51378864 0.11458793 -0.012874406 0.16974509 0.04529826 -0.12499836 0.07069145
0.14322439 -0.05842919 -0.218799 0.21265118 -0.045635205 0.13929304 -0.016352471 -0.34765416
-0.15671988 -0.50489825 -0.46788493 0.042479575 0.13742127 -0.1473941 0.3109675 -0.20937073
0.10103736 0.033421047 -0.115003474 0.06875731 -0.091873296 0.23342308 -0.07680447 -0.1377449
0.030895682 0.026764076 0.09645931 -0.08307263 0.112538554 -0.34479874 0.19324863 -0.09771208
-0.15237781 -0.33590034 -0.09347038 -0.10742072 0.18223533 0.11293819 -0.15583679 0.18804695
-0.032716103 0.0060043433 0.045437537 0.023639802 -0.09046631 -0.13072869 -0.11802246 0.2580339
-0.1810742 0.074386574 -0.1641976 0.16181925 -0.24702151 -0.13893984 -0.64763176 -0.06337108
0.06322581 0.13448507 -0.018781712 0.08097491 0.082004 -0.112804234 -0.39117733 0.07068672
-0.0020707294 0.0801717 0.2120087 0.08714823 0.0017675139 -0.12746674 -0.11928696 0.06702033
0.15257463 0.21530212 -0.12120512 0.031387467 0.029627062 -0.20378016 -0.059728373 -0.56043464
-0.15668775 0.12622939 0.14420344 -0.18547454 -0.02537852 0.11546402 0.047081128 0.17296596

bias f4 [128]
00000000: bc0d 31be 346b 00bd c5c0 19bd eb3c a83d
00000010: f4e1 0a3c fff0 00bd 5b04 d43c 52a8 883d
00000020: 2ff5 f63d c32c 0ebc b205 5cbd 5947 65bb
00000030: 715e 0fbe 32bd 84bd e9e0 25bc b46a 8e3d
00000040: a280 f43d 4b52 1b3c 169c 93bc d333 a5bd
00000050: bca9 92bd 8dce 7f3d 0e06 aa3d 9823 47be
00000060: ef4f 073e d3e5 df3d 29dd 25bd ffd0 283e
00000070: 45d2 32bd 0f83 7f3d fad4 033e e276 6abc
00000080: acca d03d c3e5 1a3e 4ff1 53bd afef 353e
00000090: 3b7c b33d af5b f0bd 8ea1 1b3d f392 78bd
000000a0: c0c3 5c3d 25b3 2ebb ed50 d3bc ea8c 4ebe
000000b0: 6a6c 1bbd aa79 5fbd a105 9b3d 21b1 ab3d
000000c0: 09b2 51bd 0597 e1bc 0f6b 88be 8a93 223e
000000d0: 10f2 253e b418 023e 4ca1 9d3d 90d5 263c
000000e0: f123 593c 70a4 ecbd 99ef 36be c53a 01bd
000000f0: 5996 c03c 6665 093d 1a9d 123d c2d3 afbd
00000100: 01dc f3bc 5b41 c3bd 3f02 5d3e 612c 97bd
00000110: 87d8 653d 2e22 f83d e2e2 823c 3994 873c
00000120: f3d5 223d 9017 d03d db30 f2bd 4347 e4bc
00000130: 9045 c7bd c4c1 4abd dd39 64bb b67c 793d
00000140: 9ade b43c f2c3 efbc ab36 cdbc 5eea 2b3e
00000150: f331 5a3d dd25 bbbc 9d4d 473a e9a6 433d
00000160: 3995 fc3d 2718 073c 3263 b3bb ff49 db3d
00000170: dfab 193e 7bf8 c2bd f35b 14bd 7456 b33c
00000180: 2c7d bb3d e39f d5bb 07d0 9d3d 360a 173e
00000190: 0f22 8e3e 12f0 62be ca55 e23c c90f 8b3d
000001a0: 9d73 5c3d 4b4e c33d 120e 0b3e 713d 153d
000001b0: baab 2cbe ad4a 2b3e 35ac a23c ae4f 5cbd
000001c0: f0ed 66bc 7798 c03a e244 c5bd 481e 3cbe
000001d0: e6cf 0cbd 27fa 6abe 1c57 793e 4119 bbbc
000001e0: b3ad 5f3d ee8b fcbd bc8f 413c e5a8 6ebd
000001f0: 70b4 e6bc 1c85 7d3d 035e 82bd 5ce9 0b3e
-0.17290395 -0.031352237 -0.037537355 0.08214744 0.008476723 -0.03147983 0.025880983 0.066727296
0.12058484 -0.008677664 -0.05371637 -0.0034985153 -0.1400087 -0.06481399 -0.010124424 0.06953946
0.11938597 0.009480069 -0.018018764 -0.08066525 -0.071612805 0.06245284 0.08301936 -0.19447172
0.13214086 0.10932507 -0.040494118 0.16485976 -0.04365756 0.062380847 0.12874213 -0.01431057
0.101949066 0.1512671 -0.0517438 0.17767213 0.087639295 -0.11736237 0.037995867 -0.060687017
0.05389762 -0.0026657071 -0.025795424 -0.20170942 -0.03794519 -0.054559387 0.07569433 0.08383394
-0.05119518 -0.027537832 -0.2664418 0.15876594 0.16205621 0.12704736 0.076967806 0.010182753
0.013253198 -0.115548015 -0.17864837 -0.031550188 0.023509191 0.033543967 0.035794355 -0.085853115
-0.029767992 -0.0953395 0.21582888 -0.073815115 0.0561147 0.12115894 0.015977327 0.01655017
0.03975482 0.10160744 -0.11825725 -0.027866011 -0.09730065 -0.049501196 -0.0034824528 0.06090995
0.022078801 -0.029268239 -0.025050482 0.16788623 0.05327029 -0.022845203 0.0007602813 0.0477666
0.123331495 0.008245504 -0.0054744715 0.10707473 0.1500697 -0.0952005 -0.036220502 0.02189181
0.09154734 -0.006519304 0.07705694 0.14749989 0.2776036 -0.22161892 0.027628798 0.0679012
0.053821195 0.095364176 0.13579586 0.03643555 -0.16862383 0.16727705 0.019857505 -0.053786926
-0.014094815 0.0014693876 -0.09632279 -0.18370926 -0.034377955 -0.22946988 0.24349636 -0.02283919
0.05460901 -0.12331377 0.011814054 -0.05826654 -0.028162211 0.06189452 -0.063655876 0.13663238

weight f4 [128, 127]
00000000: 108b e1bc 7b0f d83c 24aa 7e3d bf16 19bd
00000010: 5d0a acbe 19d6 e2ba 99c8 7d3e ec5a e53d
00000020: 44f0 5d3d 2185 9fbd c482 bfbb 5fb3 9c3d
00000030: da95 73bd 853e 39bd f8c8 11be f420 683d
00000040: a567 41bd 1f39 86be 85f2 17be 5580 80bd
00000050: 3b59 1abd 6d7a 263e c8b1 eb3b d59d acbe
00000060: 3d60 7bbe f712 5cbe 9766 9cbe 55bc 9abe
00000070: 1bb1 05bd 4428 b53d 79f3 073e 2053 9cbe
00000080: d4d3 a6bd 0236 1abe c2f0 3ebd 4b56 18be
00000090: fb88 b3be 0891 96bd f0d5 0cbe 6170 20be
000000a0: bd59 f7bd c3f3 8cbe b805 84be 844f 903d
000000b0: 11ae 57bd 50ce 39bb 5bec 713d f1a0 003e
000000c0: 4147 e6bc e501 febc 41e9 4dbe 85fc 4cbe
000000d0: 99c1 cfbb 8eeb 183e f38d 83be 9039 96be
000000e0: aa2e 25be a71d 12be 7ba8 bdbe 76af 04be
000000f0: 53d3 603b c5f6 c53c bf80 73be 2496 47bd
00000100: aa44 86bd 9d1e 6dbe d0d2 99bd da1d 103e
00000110: c2dc b5bd 0f67 8cbe 3ade 90bd 8324 a1bb
00000120: 5a74 50be bf0d 6c3d ee6e 013d 4c9b b43d
00000130: 60d5 053e bb87 f93d 64ed 093e 93e8 cd3d
00000140: 2a03 ed3d 10e9 6c3e 3d50 093c 3dd1 23be
00000150: c484 0d3d f93a a33d 6122 3bbd 443a 01be
00000160: f331 b1bb b255 55bd 399d d43d d284 9fb9
00000170: 4fb3 94bd aa70 413e 0d54 fa3d 6581 3c3e
00000180: 7b78 fc3a e094 8cbd 2b80 35be 3737 c5bc
00000190: b26a 04bc 05d2 6abe 4289 c63d 614c 07bd
000001a0: f24e e13c f150 cd3d 1ebc 9d3d 2f0c 1ebe
000001b0: 3847 cabc 0590 053d 51d7 7a3c b2e4 cf3b
000001c0: f65a 97bc ed19 e2bd 7444 50be cdda ef3d
000001d0: ec14 943d 259e b4be ceeb 853b 597d f2bb
000001e0: 7d8b f63c 74c9 cebd 1d8e e6bc bc12 4ebd
000001f0: f6cb b43d b5e3 2c3e d947 26bd 5d22 bfbd
00000200: 36b7 72bd 61e8 283d 1ab6 82bd 82df c6be
00000210: 5b0a b63d 2a6b 97bd 3dc4 233e 17f9 293e
00000220: 71e9 92bc 830c a1bd 10e6 82bd 7766 fabd
00000230: d038 29be 420a 54be c221 e3bd 552c 2dbe
00000240: 5ede 55bd 462a 22be a16f a9bd b989 003e
00000250: 96bb 513e 2709 013e 3f78 a13d 833c 9e3d
00000260: 28ec 0a3b a29d 1bbe fc3a 67be d7b3 35bd
00000270: eabe 8e3d e6d0 56be c41b 8abe 76c1 18bc
00000280: 35c3 47bc 6a5c 05be 7b02 cabd 9bc2 a9bd
00000290: ea69 30be 59bf 12be 2f31 78be fd0b 2cbd
000002a0: 9da7 0fbe 04d6 bbbe 7e68 06bd 8cb7 d3bd
000002b0: 9287 3c3d daab 41bc 6883 9c3c 139e 2dbc
000002c0: d993 8b3d c453 9dbe 78cf 8dbe ad65 613d
000002d0: 7488 b63c 8ae4 1b3d 0ec8 b1bd 3841 46be
000002e0: ec8f f93b 3b58 333d 0243 72bd 0871 20bd
000002f0: da77 24bd 7f95 253d bffd 07be f7b7 afbe
00000300: c951 adbe 815a c43d c1cd b4bd 99c0 bdbe
00000310: f54f ccbc a8ee 143e 4c0c f83b 6628 babe
00000320: 6d8b 82bd 2171 9b3d 4f55 033e ba7b 4a3e
00000330: 8cfe ac3c 783f 8ebc de36 ed3d 1d65 993d
00000340: 9989 4fbe 4066 29be 9aa6 6fbd d291 ed3d
00000350: 6b88 f73a 5769 86bd 1a06 90bc 32e4 26bd
00000360: 5ad1 dc39 6ac0 d13d 6330 0a3d 7b34 e1be
00000370: 2b1b 223e 5040 e53d 335a 043e 4d6b 73bd
00000380: cb9a e9bd c9ae a2bc 4e7f a9bd 8dfa 09be
00000390: ccb8 cabe 871f d23d d907 a4bd 130c e7bd
000003a0: cdb7 e3bd 8403 da3d 8651 c5bd e97a 37be
000003b0: cb13 97bd d38d 173c 60fc 823c 6e6e 4d3e
000003c0: ac87 5f3d 6f8a 65bd e7eb 7b3d 2b42 bbbd
000003d0: b7da dfbd bd4b 9abd 9d2b dabc 8ac7 e33d
000003e0: 1f40 af3c f23a da3d cc28 e9bc 60da 01bd
000003f0: f268 113c 7caa f23d 4a2d 143e ecb2 abbd
-0.02753213 0.02637457 0.062173977 -0.037375208 -0.33601657 -0.0017306238 0.24783553 0.111989826
0.054184213 -0.07789064 -0.005844446 0.076514 -0.05946908 -0.04522564 -0.1423682 0.05667205
-0.047217984 -0.26215455 -0.14838608 -0.062744774 -0.037682753 0.16257639 0.007192824 -0.33714166
-0.2454843 -0.2149161 -0.3054702 -0.3022181 -0.032639604 0.08845571 0.13276471 -0.3053217
-0.08145872 -0.15059665 -0.046616323 -0.14876668 -0.35065445 -0.07351881 -0.13753486 -0.15667869
-0.12077663 -0.27529725 -0.25785613 0.070464164 -0.052656237 -0.0028351732 0.059063297 0.12561394
-0.028110148 -0.031006763 -0.2010851 -0.20018204 -0.0063402173 0.14933607 -0.25694236 -0.29340792
-0.16131082 -0.14269124 -0.37042603 -0.12957558 0.0034305647 0.02416552 -0.23779581 -0.04872717
-0.065560654 -0.2315621 -0.075109124 0.14073887 -0.08879997 -0.27422377 -0.07073636 -0.0049176826
-0.20356885 0.057630297 0.03159993 0.08818683 0.13069677 0.12184092 0.13469464 0.10054126
0.11572869 0.23135781 0.008380947 -0.15997787 0.034550443 0.079702325 -0.045687083 -0.12619883
-0.0054075657 -0.05208368 0.1038155 -0.00030425802 -0.07260763 0.18890634 0.12223063 0.18408735
0.001926198 -0.06864333 -0.17724673 -0.02407418 -0.008082079 -0.22931679 0.096941486 -0.033031825
0.027503464 0.10025204 0.07701896 -0.15434335 -0.024692163 0.03260805 0.0153101245 0.0063444013
-0.01847599 -0.11040101 -0.20338613 0.11711655 0.07230553 -0.35276905 0.004086948 -0.0074001965
0.03009581 -0.10097018 -0.028143937 -0.050310835 0.08827965 0.16883738 -0.040595863 -0.09332726
-0.059256755 0.04123724 -0.06382389 -0.38842398 0.08888694 -0.07393487 0.15992828 0.16598926
-0.01793358 -0.078637145 -0.06391537 -0.12226575 -0.16525578 -0.20707038 -0.11090423 -0.16911443
-0.05221402 -0.15836439 -0.08273245 0.12552537 0.20481715 0.12601148 0.07884263 0.077263854
0.002119789 -0.15196851 -0.22581095 -0.04436096 0.06970008 -0.20978126 -0.26974308 -0.009323468
-0.012192537 -0.13023534 -0.09863754 -0.08289071 -0.17227903 -0.14330806 -0.24237512 -0.04200362
-0.14028783 -0.36686718 -0.032814495 -0.10337743 0.046027727 -0.011820758 0.019105628 -0.01059677
0.06815309 -0.3072797 -0.2769735 0.055028606 0.022281863 0.03805975 -0.086807355 -0.19360816
0.007616034 0.043785315 -0.059145935 -0.039170295 -0.04015336 0.040425774 -0.1328039 -0.34320042
-0.3385146 0.09587575 -0.08828307 -0.37061003 -0.02494047 0.14544165 0.0075698253 -0.36358947
-0.063742496 0.07589937 0.12825511 0.1977376 0.021117471 -0.017364249 0.11582731 0.07489989
-0.20267333 -0.16542912 -0.058508493 0.11600079 0.001888526 -0.06563061 -0.017581034 -0.040744968
0.0004211765 0.10241778 0.03373755 -0.43985352 0.15830676 0.11193907 0.12925033 -0.059428502
-0.114064775 -0.019858735 -0.082762346 -0.13474484 -0.39594114 0.102599196 -0.08009309 -0.112816
-0.111190416 0.10645202 -0.0963469 -0.1791798 -0.07376822 0.009250122 0.015989482 0.20061657
0.054572746 -0.056040224 0.06150427 -0.0914348 -0.109303884 -0.07533977 -0.026632125 0.111220434
0.02139288 0.10655774 -0.028461836 -0.0317024 0.008875119 0.118489236 0.14470401 -0.08383736
