nn/checkpoints/main_material_different/5/model_30.pt (torch, 451442 bytes, 98 tensors)

weight f4 [8, 5, 3]
000000 52 0d 74 be 51 f2 98 be 1d e5 5f 3e f2 a9 dd 3d
       -0.23833206 -0.29872373 0.21864744 0.1082343
000010 52 1b 6b be ec 0f 80 3e 40 96 75 be e7 43 3d 3e
       -0.2295964 0.25012147 -0.23983097 0.18482934
000020 13 cd a6 3e 0e 9a d0 bd 32 a5 60 bd 86 e1 95 bd
       0.32578334 -0.101856336 -0.054845043 -0.07318406
000030 2d 11 2a be d5 82 1b 3e 7b b5 60 be b1 30 6d 3e
       -0.16608115 0.15186627 -0.2194423 0.23163106
000040 91 d6 a1 bc 22 58 28 3d 87 82 4b 3e e5 e0 d1 3d
       -0.019755634 0.041099675 0.19874011 0.10247973
000050 7d 01 48 3d 3e 29 f3 bc a5 e6 1d 3d 3f b0 5f 3d
       0.048829544 -0.029682752 0.038550038 0.05461144
000060 23 84 a2 bd 74 d1 8c 3e b9 97 8b 3e 0d 4e 76 be
       -0.07935359 0.2750355 0.27264193 -0.24053212
000070 5f e9 e6 bd d6 4c c7 bc 33 7e 1c bd 0f ad 39 bd
       -0.11274981 -0.02432863 -0.03820629 -0.045331057
000080 f7 ef 6f 3e d1 a5 58 3e e7 7a 7f be b2 b7 05 3e
       0.23431383 0.21157004 -0.24949227 0.13058355
000090 66 66 3b 3e 5d 7d 1e be ff a7 8f 3d 6b 99 af bd
       0.1830078 -0.1547751 0.070144646 -0.08574184
0000a0 ec c3 1e ba 24 74 8d be 83 5d db 3c ec d3 4e be
       -0.00060564163 -0.2762767 0.026777988 -0.2019803
0000b0 8a c8 98 3d 40 91 35 be c1 81 b9 3c 07 13 e0 3d
       0.07460125 -0.1773119 0.02264488 0.10941129
0000c0 27 ad 29 bd 52 be 33 3e a5 5d e0 3d 27 8d 96 be
       -0.041424897 0.1755307 0.10955361 -0.29404566
0000d0 d1 88 a0 bc 14 4f fb 3c 3c f1 8f bc a4 65 21 be
       -0.01959649 0.030677356 -0.017571084 -0.15761429
0000e0 26 25 b4 3d 0f 27 76 be 25 c7 fa bc d8 68 97 3e
       0.08796148 -0.24038337 -0.030612538 0.29572177
0000f0 d4 df b0 be 3e 7f e1 3d 68 fd 80 3d 9b 8c e4 bd
       -0.34545767 0.11010598 0.062983334 -0.11159631
000100 11 d2 2b 3e d9 49 24 3e 1d a9 67 be b9 96 fc 3b
       0.16779353 0.16043796 -0.22623105 0.007708397
000110 ff 97 df 3d 42 13 ad 3d 9b 53 d9 3d 8f 36 95 bd
       0.10917663 0.08450939 0.106116496 -0.07285797
000120 b2 76 40 be c6 10 97 3e b0 87 82 be 71 f8 2b be
       -0.18795279 0.29504985 -0.25494146 -0.16793992
000130 9a 2a 01 3e fd d2 5d 3e f0 30 f3 bd 89 a6 3c be
       0.12613907 0.21662517 -0.118745685 -0.18422903
000140 0b 35 c1 3d 0b e3 00 3d 05 31 8f be b8 c5 ab bd
       0.09433945 0.031466525 -0.27967086 -0.08387321
000150 9f 91 8c be 9d 56 6f bd c3 75 94 bb 76 e2 09 3e
       -0.2745485 -0.05843221 -0.00453064 0.13465294
000160 24 1b 20 be fc 82 61 3e 07 f5 99 3e 4a 67 d1 3c
       -0.15635353 0.22022623 0.30069754 0.025561947
000170 de 23 75 3c d7 e0 fb bc 6b 51 c8 3d 52 74 0c 3e
       0.014962165 -0.03074686 0.09781154 0.13716248
000180 23 90 0c bd 3d b2 42 be dc 58 0d 3e c7 ed a6 bd
       -0.034317147 -0.19013305 0.13803428 -0.08150821
000190 20 d9 6c be 71 ee 58 3e 1a 16 5c 3d ff 14 b1 3d
       -0.23129702 0.21184708 0.053732015 0.08646583
0001a0 0d ba a9 3d e7 22 2d 3e ca 2a 57 bd 2d 7a 4b bc
       0.082874395 0.16907845 -0.05253104 -0.012419266
0001b0 72 e1 52 3d eb e0 0b 3e 65 d6 53 be 6a 55 0d 3e
       0.051484533 0.13660018 -0.20687254 0.13802114
0001c0 22 a9 0d be 89 d5 68 be 22 16 bc bd 03 22 29 3e
       -0.1383405 -0.22737707 -0.09183909 0.1651688
0001d0 00 4c db bd 6d ed 0f 3e 06 84 0f bc 01 0e a4 bd
       -0.10707855 0.14055414 -0.008759504 -0.080104835

bias f4 [8]
000000 7f 98 21 be ab 6c b9 3d 15 e5 05 3e 13 b9 25 3e
       -0.15780829 0.0905393 0.13075669 0.16183881
000010 2f 58 41 be 1c 93 88 3e e2 7d 17 3e c2 9c da bd
       -0.18881296 0.26674736 0.14794114 -0.106744304

weight f4 [8]
000000 ec 69 8b 3f bd f8 66 3f 1a ac 6c 3f 55 89 8e 3f
       1.08917 0.90223294 0.92450106 1.113566
000010 26 71 82 3f 76 b3 7b 3f c0 7b 7a 3f 4b 54 85 3f
       1.019078 0.9832071 0.9784508 1.0416349

bias f4 [8]
000000 5a 95 82 3d 42 05 a0 bd 15 30 37 bc b1 9d d0 3d
       0.06376143 -0.07813503 -0.011180897 0.10186327
000010 11 25 53 3d ca a6 25 be 8e 35 2d 3d f2 40 0d 3e
       0.05154902 -0.16176906 0.0422874 0.13794306

running_mean f4 [8]
000000 b0 a6 a1 be 67 f5 d2 3e c0 e3 a6 3d bd 02 c8 3d
       -0.31572485 0.41202852 0.081489086 0.09766147
000010 d0 7e 69 be c5 52 4c 3d 4d 7e c8 3e 33 17 24 be
       -0.22802281 0.049883623 0.3915886 -0.16024475

running_var f4 [8]
000000 8a e9 97 3e c5 13 00 3f 23 1b 4b 3e 57 e6 5d 3e
       0.29670364 0.50030166 0.1983457 0.21669899
000010 95 b6 ac 3e 03 71 af 3e 59 a4 c2 3e d9 f2 13 3e
       0.3373305 0.3426591 0.38016012 0.14448108

weight f4 [8, 8, 3]
000000 85 da 49 bd 65 30 11 bb 0e 2b 0d be 10 d6 27 be
       -0.049280662 -0.002215409 -0.13785955 -0.16390252
000010 b4 35 41 3c d6 c2 4c be d1 f2 39 3e 09 8f 41 3d
       0.011792589 -0.19996199 0.18159033 0.04725555
000020 c5 63 c7 bd 2e 26 36 bd c8 2a 09 bc 25 7f 2a 3e
       -0.097358264 -0.044470005 -0.008372016 0.16650064
000030 61 91 2d 3e e1 e9 a0 bd 7a 99 3d 3e aa d4 5e 3d
       0.16949989 -0.07857109 0.18515578 0.05440203
000040 f9 f7 ab 3d cd 76 ca bd f4 ab 07 be 5b 04 6b 3e
       0.083969064 -0.09885941 -0.13249189 0.2295088
000050 76 43 d5 3d 62 23 b0 bc ba f7 57 be 79 b2 a9 3d
       0.10413258 -0.021501247 -0.21090594 0.08285994
000060 95 4b aa be f5 25 03 3e bd a7 3b 3e f4 69 c7 bd
       -0.3326079 0.12807448 0.18325706 -0.09737006
000070 34 3f 4c 3c 8f 6f f6 bd d2 0e 27 3e 56 37 cb bc
       0.012466241 -0.12032997 0.16314247 -0.02480666
000080 da 68 6a be 42 55 c2 bc b8 88 f7 bd db 45 85 3e
       -0.2289156 -0.023722295 -0.12086624 0.26029858
000090 02 e0 a2 bc 11 ac 45 be e4 03 2d bd f8 26 26 3e
       -0.019882206 -0.1930392 -0.04224004 0.16225803
0000a0 ae 5d dd 3d e7 90 61 3e b3 21 f8 3c a2 fb 9e 3d
       0.108088836 0.22027932 0.030289507 0.07762839
0000b0 a6 ab 2f 3e c4 fa 05 be 39 92 a2 bd 7f c6 10 be
       0.17155322 -0.1308394 -0.07938046 -0.1413822
0000c0 55 c1 89 3d 0a f6 32 3e dc 53 11 3d a9 7f fc 3d
       0.06726328 0.17476669 0.035480365 0.12329037
0000d0 a3 20 1f bd 8d 15 5d 3d 41 9f 4b be 58 fe bc bd
       -0.038849484 0.05397563 -0.1988497 -0.092282
0000e0 62 a8 9d 3c 41 57 90 3e 7e 3a a3 3d c5 fa 6b bd
       0.01924533 0.2819157 0.07970141 -0.0576122
0000f0 b1 c7 07 bd 35 9f 0f 3e 9a ea 84 3d 35 4d c6 bc
       -0.033149425 0.14025576 0.06490059 -0.024206737
000100 54 f0 80 3e c6 6b d0 bc 93 2a 7b be ca 13 5c 3d
       0.25183356 -0.025442015 -0.2452796 0.05372981
000110 e3 41 5f be d4 b9 7d be 06 dc a0 bd d9 e2 a8 bd
       -0.21802478 -0.24777919 -0.07854466 -0.08246393
000120 8a 73 af bd 83 12 32 be 32 ec 4a bb b5 6e 13 3e
       -0.08566959 -0.17389874 -0.0030963537 0.143977
000130 19 4c 2c 3c a0 af 80 bd c8 09 46 3d 5d c6 8d bd
       0.01051619 -0.06283498 0.048349172 -0.069226004
000140 05 dc e8 3d 87 19 09 3e 37 56 1a be f4 5c 29 bd
       0.113700904 0.13388644 -0.15071951 -0.041348413
000150 32 fd 18 bb 86 f7 74 be fb 68 fe 3d 59 de 31 be
       -0.0023344276 -0.23922548 0.12422367 -0.17369975
000160 06 c9 f6 bd 21 e0 29 be 21 1e f0 3d df 57 a6 3d
       -0.12050061 -0.16589405 0.11724497 0.08122229
000170 af 68 87 3d 93 51 1d 3d 71 c0 93 3e a9 7b d4 3d
       0.06611764 0.038407873 0.2885776 0.10375149
000180 8b ea 07 be 24 02 dd bc 2a e3 16 be 99 45 fc 3d
       -0.13273065 -0.02697856 -0.14735094 0.12317962
000190 37 e2 e6 bc b6 84 87 be 17 f0 58 bd 21 48 2f 3e
       -0.02818404 -0.26468438 -0.052963343 0.17117359
0001a0 4e 75 10 3d 07 ee 47 3d a2 90 4c 3e 89 1b 8d be
       0.03526812 0.048810985 0.19977048 -0.2756007
0001b0 7e 95 8e be f4 57 f1 bb f7 e0 66 3e 03 3f 03 be
       -0.27848428 -0.007365221 0.22546755 -0.12817006
0001c0 a1 8d 71 3e 4a e9 5b be c0 e6 17 3e c2 2c 44 3c
       0.23589183 -0.21475711 0.14834118 0.011973562
0001d0 d3 66 52 be e2 3b 1f bd 59 9f 73 ba 7a 2a 6a 3e
       -0.20547037 -0.038875468 -0.0009293459 0.22867766
0001e0 fe 43 93 bd 1b d4 7b 3e 0e 0f 55 bd c9 56 b2 3d
       -0.07190703 0.2459263 -0.05201631 0.08707959
0001f0 01 ed b3 bd 17 ea 05 3d 37 0e 58 3d a5 2e 0d 3e
       -0.08785439 0.03269395 0.05274793 0.13787325
000200 a2 da e4 bc ce e2 21 3e 84 3d ad 3e 4a 49 6e bd
       -0.027936283 0.15809175 0.33835995 -0.058175363
000210 4d a0 0b 3e bc 89 c5 bd c3 b4 cc bd f9 13 7e bd
       0.13635369 -0.09645411 -0.09995415 -0.062030766
000220 b3 ca 00 3e 9b 39 10 be 30 66 82 be d8 58 1a 3d
       0.12577324 -0.14084475 -0.25468588 0.037682384
000230 79 5f d9 3d 3c 32 9f be cc 62 cf bd 9e 5e f6 3d
       0.10613913 -0.31093013 -0.10126266 0.120297655
000240 45 36 14 bd 28 09 47 3d b7 1d 88 3e 3b 71 87 bc
       -0.036184568 0.048592716 0.2658517 -0.016533485
000250 4a 92 c6 bc 10 a4 71 3d 8e 2c 1d be c3 a9 db 3d
       -0.024239678 0.058994353 -0.15349028 0.10725739
000260 f6 e7 4a 3d c4 c9 d5 bc 9f cd 0f 3e 0f 1e c3 be
       0.04953762 -0.026097186 0.14043282 -0.3810887
000270 68 46 d8 bd 01 ce 24 be 51 cf 66 3e 12 fc a4 3d
       -0.10560304 -0.16094209 0.22540022 0.08055891
000280 04 ff f7 3d 05 ed d7 bc 95 31 4d 3d 94 74 86 3d
       0.12109187 -0.026358137 0.050096113 0.06565204
000290 8f f6 3d be d4 70 a6 bd 07 64 1e 3e 50 e8 15 3e
       -0.18551086 -0.08126989 0.15467845 0.14639401
0002a0 dd a5 3f 3e cf 71 86 3e 3c f6 32 be 56 a7 33 3e
       0.18715616 0.26258704 -0.17476743 0.17544302
0002b0 14 e2 c9 bd f7 5c 39 be e7 94 3c be 3f dd ee 3d
       -0.09857574 -0.1810187 -0.18416177 0.11663293
0002c0 8d d3 eb 3d 8e b1 0d be 3b 74 1d 3e 96 dd 2d be
       0.115149595 -0.13837263 0.1537637 -0.1697906
0002d0 32 3a 24 be bf 62 88 3c 1c 21 b9 3b 19 ae 82 3c
       -0.16037825 0.016648648 0.005649699 0.015952157
0002e0 76 bf 38 be 1f eb 72 bc 2b 86 87 bd 1d 3f 3d be
       -0.18041787 -0.014826565 -0.066173874 -0.18481107
0002f0 67 1a ec 3d 48 1b 86 bc 56 09 2f bd 09 81 22 3c
       0.11528473 -0.01637043 -0.042733513 0.00991846

bias f4 [8]
000000 55 c8 c0 3d e9 be 37 3e 48 b7 00 be a6 8c e0 bd
       0.0941321 0.1794392 -0.12569916 -0.109643266
000010 e0 36 39 3d e3 7f bf 3d 02 63 7a bd eb 34 c6 3d
       0.04521835 0.09350564 -0.061129577 0.09678062

weight f4 [8]
000000 89 3f 82 3f 28 79 79 3f 9b 26 8c 3f d4 a1 72 3f
       1.0175639 0.97450495 1.0949281 0.9477818
000010 0c 40 89 3f d8 78 75 3f 1d bb 62 3f 1f 99 73 3f
       1.072267 0.9588752 0.8856676 0.9515552

bias f4 [8]
000000 c3 82 0d 3e c6 e5 52 3d c7 99 1a 3d 8b c2 00 3b
       0.13819413 0.05148866 0.03774431 0.0019647207
000010 e3 d7 35 3e 13 dc 7d 3e 13 24 f0 bc 3f 46 85 3d
       0.17758135 0.24790983 -0.029314077 0.06507539

running_mean f4 [8]
000000 eb f8 b8 3d bb 1a d5 3d 94 db 05 be 39 ea 65 bd
       0.09031852 0.10405489 -0.13072044 -0.056131575
000010 5e 0a 68 bd 4d 5d 2a 3e f7 f9 ce 3c db 2f 9d 3a
       -0.056650512 0.16637154 0.025265677 0.0011992411

running_var f4 [8]
000000 1e ad 1e 3e da 7c 14 3e 2f c1 c6 3d cf 3f 1d 3e
       0.15495726 0.14500752 0.097048156 0.15356372
000010 aa 6d cd 3e fa 18 a7 3d f8 9a 16 3e d9 0f fa 3d
       0.4012273 0.08159061 0.14707553 0.12210054

weight f4 [8, 8, 3]
000000 fe 7f 55 3d 0b 13 a6 be 88 f9 8f bc 20 b9 22 3e
       0.052124016 -0.32436404 -0.01757504 0.15890932
000010 36 ab 96 bd 37 c0 6a 3e 55 8d 3d 3e e8 a6 8c 3d
       -0.07356875 0.22924887 0.18510945 0.06867772
000020 cb 5a 9b bc 97 df c3 bd 2a 7a e5 3d ba 40 09 3d
       -0.018964192 -0.09564131 0.112049416 0.033508994
000030 46 e6 d3 3d 7c 80 77 be 01 5c 2b be ef 1c c9 3d
       0.103466555 -0.24170107 -0.16734315 0.09819972
000040 bf a1 5b 3d 66 9c b9 bb 5e 7e 3d be 00 8b 0a 3e
       0.05362105 -0.005664396 -0.18505237 0.13529587
000050 bf f6 54 be 7c c5 f5 3d 8a ca 79 39 15 db 52 be
       -0.20797251 0.12000558 0.00023821942 -0.20591386
000060 fd 02 72 3e c6 e5 15 be 3f 3e 3d 3e 46 21 e8 3d
       0.23633952 -0.14638433 0.18480776 0.113344714
000070 7f df a0 3c 2b ee 1b 3c db ad a3 3e fa ca 7a 3d
       0.019637821 0.009517233 0.3196858 0.06122873
000080 b8 7d da bd 28 70 91 bd cf e4 ae 3d 0b d4 43 3e
       -0.1066851 -0.0710147 0.085397355 0.19123857
000090 ab b2 80 bd a7 f8 83 3c d6 96 ef 3d 7d e8 85 3e
       -0.06284078 0.016109778 0.116986915 0.26153937
0000a0 c4 5b 0c 3e 56 77 95 bd 3f 38 13 3e e9 fa 4a 3e
       0.13706881 -0.07298152 0.14376925 0.19822277
0000b0 e1 c7 f1 bd fc 12 80 be 66 23 28 be 99 60 33 3c
       -0.11805702 -0.25014484 -0.16419753 0.010948324
0000c0 e0 f8 15 3e ef 48 5b be 36 39 1d be ad 1d ae 3d
       0.1464572 -0.2141454 -0.15353855 0.08501754
0000d0 08 73 c1 bd 51 5a e3 bd f0 8b 59 bd 08 bd 33 be
       -0.094457686 -0.11101211 -0.05311197 -0.17552578
0000e0 d6 da 3c 3b 7e 16 50 3e b5 bd 83 3c 50 ca 2f bd
       0.002881696 0.2032108 0.01608167 -0.04291755
0000f0 e8 1a 16 3e a5 c5 0c bd a8 79 15 3e f7 a5 82 bd
       0.14658701 -0.034368176 0.1459719 -0.063793115
000100 f0 aa 16 be 61 0d d2 bb 0c 7a ca 3d 10 42 1c be
       -0.14713645 -0.0064102863 0.0988656 -0.15259576
000110 61 97 64 3e fd 2f e8 bc 53 f9 1e 3d db 55 99 bd
       0.22323371 -0.028343195 0.038811993 -0.07487079
000120 8c 36 bf 3d 1e 6c 1b bd 3d 30 d7 3d f5 ac e6 bd
       0.09336576 -0.037944905 0.105072476 -0.11263458
000130 9e 00 0c 3e 9f 3e 01 3e 65 ef 5a 3e 36 c2 1c 3d
       0.1367211 0.12621544 0.21380384 0.03827115
000140 4b 2e 83 3e 45 aa 02 be 51 ae 2a be 71 a6 a4 3c
       0.25621256 -0.12760265 -0.16668059 0.020098897
000150 b1 78 f9 3d 46 a5 b8 3c dc f1 95 bd f6 a3 0d 3e
       0.12181223 0.022539746 -0.07321522 0.13832077
000160 cb c8 ad bd 6c 95 15 3d f0 c4 96 3d 8f f3 c1 bd
       -0.08485564 0.036519453 0.073617816 -0.09470283
000170 b9 1e 57 3e 2a c1 55 3d 3d 0b 4c bd ae 9f a5 bd
       0.21007814 0.05218617 -0.049815405 -0.08087097
000180 17 00 3a bd 4c 40 6a be b1 2a 73 bd ae b1 a3 bd
       -0.045410242 -0.2287609 -0.059366886 -0.07992874
000190 67 4d 23 be e1 b0 a8 bd 90 1e 95 bd 09 a1 3d 3e
       -0.15947495 -0.08236862 -0.0728122 0.18518461
0001a0 23 97 29 3e ff 09 7f be 98 cc cf 3d 0f 79 8d be
       0.1656156 -0.24906157 0.10146445 -0.27631423
0001b0 6e 07 25 bd 97 d6 ff bd 38 9c bd 3d d2 db c9 3c
       -0.04029029 -0.12492102 0.09258312 0.024640951
0001c0 e7 db 1c bd de c7 9e bd 58 25 f0 3d 3d cb 9b 3d
       -0.038295653 -0.077529654 0.11725873 0.07607124
0001d0 f0 c6 3d be ed ae 08 3e 57 4e 3f 3d a9 93 15 3e
       -0.1853292 0.13347979 0.04670557 0.14607109
0001e0 46 f2 67 be d2 e4 b9 3d 24 71 8d 3d 35 63 65 bd
       -0.22651014 0.09076847 0.069063455 -0.056002814
0001f0 81 fb 9d bd f7 67 14 3e fd 44 79 3e b1 48 24 3e
       -0.07713986 0.14492784 0.24342723 0.16043355
000200 2d 10 a1 be e2 bb c3 bd 17 f4 1d bc 83 3f 3c bd
       -0.31457654 -0.0955732 -0.009640715 -0.045959007
000210 5f e3 91 3e c4 4c 78 be 66 de 50 3e b6 64 07 3e
       0.28493783 -0.24248034 0.20397338 0.13222012
000220 6e fd c6 3d 1c 7b 47 be 01 29 fa 3d 8b ba 8c 3d
       0.097163066 -0.19480556 0.12214852 0.06871518
000230 19 ea 37 be 1a af 03 3e b4 42 86 3d fe 2d e4 bc
       -0.17960395 0.12859765 0.06555691 -0.027853962
000240 0a 88 2e 3d dd 08 85 be 12 c6 21 3e bd 80 1b be
       0.042610206 -0.25983325 0.15798214 -0.15185829
000250 04 53 99 bd 4e 98 54 3e 02 5a 97 be f7 ba a3 bc
       -0.07486537 0.20761225 -0.29560858 -0.019986613
000260 ff 03 61 3d 48 58 49 bd 09 40 2e be 90 53 35 3b
       0.05493545 -0.049156457 -0.17016615 0.0027668215
000270 fa 03 32 be 71 f0 e6 3d e8 0f d6 3d d2 83 27 be
       -0.1738433 0.11276329 0.104522526 -0.16358879
000280 26 67 8a 3c 5a c8 09 3d 6a 73 47 bd 04 35 4a be
       0.016894888 0.033638336 -0.04869405 -0.19746786
000290 b6 22 02 bd 69 5b 44 bd e8 32 2d 3e 0d 7c 92 bd
       -0.031771384 -0.047938738 0.1691395 -0.07152567
0002a0 dc 9b 67 3e f9 53 86 bc e4 a4 af bd 02 10 0a 3e
       0.2261805 -0.016397463 -0.08576372 0.13482669
0002b0 aa dc e7 bd 0e 71 8f be ce c8 ed 3d 67 ac cc 3d
       -0.11321385 -0.2801594 0.11610566 0.09993821
0002c0 44 74 72 3d de 7d d4 bc 1e af 42 3e 09 26 02 3d
       0.05919291 -0.025938924 0.19012114 0.031774554
0002d0 3c d2 b2 3e 85 06 6d 3d e5 2d 41 be 40 44 1b 3e
       0.3492602 0.057867546 -0.18865164 0.15162754
0002e0 99 f5 8c bd ee 60 29 bd ee df c5 bd b2 b6 f4 3c
       -0.068827815 -0.041352205 -0.09661852 0.029872272
0002f0 8f 09 f0 3c fd 12 c7 bd 12 58 ae 3d d4 6c ac 3d
       0.029301433 -0.097204186 0.08512892 0.08419195

bias f4 [8]
000000 5f ea 76 bd 5b ba 13 be bd 9c 67 bd 22 8e 35 3e
       -0.060282107 -0.14426558 -0.05654596 0.1773
000010 59 6b 1d 3e 02 db 9d bd 62 3c 30 3e 29 2a 80 3d
       0.15372981 -0.07707788 0.17210534 0.062580414

weight f4 [8]
000000 45 15 72 3f c6 0d 6f 3f 94 b5 7d 3f 7b 77 8f 3f
       0.94563705 0.9338039 0.9910519 1.1208338
000010 74 80 74 3f 11 cc 82 3f 25 3f 81 3f 1a 4b 82 3f
       0.95508504 1.0218526 1.0097395 1.0179169

bias f4 [8]
000000 c1 6f 76 3d 7e 91 bf 3d ae 16 f5 3d 75 d8 5e bd
       0.06016517 0.09353922 0.119672164 -0.05440565
000010 ff 29 54 3d ac 30 19 bc 58 87 08 3d 65 3a 77 3e
       0.051797863 -0.009349983 0.0333322 0.2414337

running_mean f4 [8]
000000 e2 ad cd bd bc a6 63 3e 5d ca 2d be 64 9c e6 3e
       -0.10042931 0.22231573 -0.16971727 0.45041192
000010 4f a8 06 bd 1e f4 73 3d e4 ef 97 bd 05 41 96 3e
       -0.032875355 0.05955898 -0.074188024 0.2934648

running_var f4 [8]
000000 97 1a 4f 3e ce d3 cf 3e e0 d4 e5 3d 60 28 42 3e
       0.20224987 0.40591282 0.11222243 0.18960714
000010 9c 54 9f 3e 77 e0 6b 3e db 07 47 3e b8 50 43 3e
       0.3111924 0.23034845 0.1943659 0.1907376

weight f4 [8, 8, 3]
000000 46 59 dd 3d d2 4f 46 3e a7 83 44 bd 98 98 1f 3d
       0.10808043 0.19366387 -0.047977116 0.038963884
000010 d8 94 c2 3d 75 ab 1f bd 7b 42 cd 3d 4a 1e 35 3d
       0.09501046 -0.038981874 0.10022446 0.04421834
000020 d8 ff b4 3d b0 0d 00 be 65 82 68 3e 11 31 88 3e
       0.08837861 -0.12505221 0.22705992 0.26599935
000030 e3 08 a8 3d f5 f0 35 be b4 b7 f1 bd 7e 81 ec 3d
       0.0820482 -0.17767699 -0.11802617 0.11548136
000040 88 0a 42 3d a1 45 1c 3e 05 5e 2f be 7c 5e 3f 3e
       0.047373325 0.15260936 -0.1712571 0.18688387
000050 03 64 19 be f5 22 06 3e 46 74 d6 3d 49 1d 63 be
       -0.14979558 0.13099273 0.10471396 -0.2217914
000060 28 82 a2 3d 71 b9 30 3e 80 4e da bd 9c 08 0f 3e
       0.079349816 0.1725824 -0.10659504 0.13968128
000070 6b e4 08 3d b3 fa 02 3e 96 cf 61 3e e9 15 bb bd
       0.03342096 0.12790947 0.22051844 -0.091350384
000080 4a 1a 1f be 2b f0 ed bc c3 80 89 3c c7 7f 30 3e
       -0.15537372 -0.029045185 0.016785031 0.17236243
000090 0c 7c a9 3d d0 ac 8c 3d af 08 43 3e 32 45 8a 3d
       0.08275613 0.06868899 0.19046281 0.06751479
0000a0 91 01 38 3e 92 e5 d8 3c 46 10 61 3d 3c 4c 4b be
       0.17969348 0.026476655 0.05494716 -0.198533
0000b0 75 7b 2f 3e 27 c5 1f 3e a3 da 06 be 2b 9c 80 3e
       0.17136939 0.15602551 -0.13169341 0.25119147
0000c0 7a a5 25 3e 4d d6 5d be 66 b0 e3 ba 27 eb 9b 3c
       0.16176406 -0.2166378 -0.0017371296 0.019033028
0000d0 e8 59 36 be 78 39 65 be 79 90 31 bd 0c ba 7a 3b
       -0.17807734 -0.22385204 -0.04335067 0.0038257865
0000e0 f3 1e 80 3c a3 89 00 3e 89 6f 6c bd 6f 3c 82 3d
       0.015639758 0.12552504 -0.057723556 0.06359183
0000f0 cd fd df 3d f3 9e 19 bc 51 c1 2c be 12 2b 7a 3e
       0.109370805 -0.009376275 -0.1687062 0.24430493
000100 a8 a1 9b 3b 8a b0 83 be cc d9 bc bc 5f 9e 48 3e
       0.0047494955 -0.25720626 -0.023053072 0.19591664
000110 2e 65 02 be 95 05 3a 3e 69 cb 42 be 06 41 00 3e
       -0.1273391 0.18166192 -0.19022907 0.12524804
000120 6e 1a d8 bd b7 53 32 be cb b2 0e be e1 9b 30 bd
       -0.10551916 -0.17414747 -0.13935392 -0.043117408
000130 8f 62 04 bd f4 63 1b 3d 43 01 84 3e d1 2e f2 3d
       -0.032320555 0.03793712 0.25782213 0.11825336
000140 bd c5 9c bd 4e 5f d4 3c 8e 16 8d be 20 47 85 bd
       -0.07654903 0.025924351 -0.2755627 -0.06507707
000150 be 40 78 3b ca 7c c1 3d 87 85 1f be 36 aa 41 be
       0.0037880386 0.0944763 -0.1557828 -0.18912587
000160 6f 9e 14 3e d4 42 8c 3d fe 84 00 be 15 2c ed bd
       0.14513563 0.06848684 -0.12550732 -0.115806736
000170 b6 50 95 3d c5 4a 28 3e b5 5e 9f bc 3f 1a 39 3e
       0.07290785 0.16434772 -0.01945434 0.18076418
000180 48 f6 79 be 07 c4 35 be 75 00 2b 3e 0f 0c d3 3d
       -0.24410355 -0.1775056 0.16699393 0.10305034
000190 2f 9a ed 3c bd 87 4d be f8 75 13 be 3d 4c 9f 3d
       0.029004185 -0.20071311 -0.1440047 0.07778213
0001a0 39 b9 0f 3d 04 8c 82 bd 14 9b e3 bd 6b be cf bd
       0.03508875 -0.06374362 -0.11113563 -0.10143741
0001b0 72 12 bc bd 40 25 ba 3d 9f 59 3a 3d bd 7a 2d 3e
       -0.09183206 0.09089136 0.045495626 0.16941352
0001c0 15 4d f2 3c 82 6d d4 3d 98 bd 90 3c 0b 13 64 3e
       0.029577771 0.103724495 0.01766853 0.2227289
0001d0 cc 37 1e be 94 b0 19 bd 61 e3 37 3e 98 58 17 3e
       -0.15450972 -0.037521914 0.17957832 0.1477989
0001e0 07 de 2b 3e cf 8f 01 3e 60 3b ff 3d aa 92 f6 3d
       0.16783915 0.12652515 0.12462497 0.12039693
0001f0 3e 23 28 be 7f 6b 1a be ba cc 15 be 10 8a 83 bc
       -0.16419694 -0.15080069 -0.14628878 -0.016057044
000200 bb cb 67 3b 93 7b b8 ba c8 32 28 bd 24 45 c4 3c
       0.0035369236 -0.0014074914 -0.041064054 0.02395875
000210 b5 52 58 3e aa 6c 42 bd 63 55 35 3e 13 e6 24 be
       0.211253 -0.04746691 0.17708354 -0.16103391
000220 42 88 50 be 08 cd 62 be 2b 76 01 be 7b c6 32 be
       -0.20364478 -0.22148526 -0.12642734 -0.17458527
000230 a9 8d 3d 3e e7 6b 0a 3d d3 89 8e be 93 d5 b6 3c
       0.1851107 0.03379431 -0.27839527 0.022318637
000240 ec 09 1f 3e e6 65 9a ba 68 89 cc bc 43 b0 46 3d
       0.15531129 -0.0011779636 -0.024967864 0.04850794
000250 cd f5 22 be 77 f6 74 be 74 ab c8 3d 49 bd 95 bd
       -0.15914078 -0.23922144 0.09798327 -0.07311494
000260 53 ac 9c be c4 57 87 3b e9 2f 58 bd 62 5a 1f be
       -0.30600223 0.0041303355 -0.052780066 -0.15561822
000270 bb fa 94 bd bd 1c df 3d 77 a8 46 3c 7e ed f6 bd
       -0.072743855 0.10894153 0.012125126 -0.12057017
000280 ca bc cc bc 3d 2d 8f be c5 40 30 3e bd c0 9c bd
       -0.024992365 -0.27964202 0.17212208 -0.076539494
000290 cc 7f df bc 3e 21 7c bd 66 f4 b2 3c 8b 13 1a bd
       -0.027282618 -0.06155514 0.021845054 -0.037616294
0002a0 f1 01 d9 3d 59 1b 41 b8 18 1f f3 3c ae af 12 3e
       0.105960734 -4.6040255e-05 0.029677913 0.14324829
0002b0 ce a1 4d be d6 cc 21 3e a4 5c 08 3e f0 ee 22 be
       -0.20081255 0.15800795 0.1331659 -0.1591146
0002c0 8f 0e 2a 3e a5 8d 2f 3e be 6c 6b be c2 ae 79 be
       0.16607116 0.17143877 -0.229907 -0.24383071
0002d0 0d fd 1d be 78 6b 9d 3d a2 e4 74 bd e6 0f 30 3e
       -0.15428562 0.07686514 -0.059788354 0.17193565
0002e0 62 65 0e be be fe 12 be b8 fe e0 bd 46 14 0c be
       -0.13905862 -0.14354989 -0.10986084 -0.13679609
0002f0 bc 37 8f 3e 8a 78 d2 3d 78 1e 2b 3a e2 db 83 be
       0.2797221 0.10276897 0.00065276725 -0.25753695

bias f4 [8]
000000 a6 7c 9a 3d 18 14 91 bd f1 12 d2 3d 29 7f f0 3d
       0.07543306 -0.07083911 0.10257519 0.11743004
000010 c9 4e 83 bc 21 48 0a 38 c2 21 ca 3d 5d 34 66 bb
       -0.016028779 3.296894e-05 0.0986972 -0.0035126426

weight f4 [8]
000000 ad ae 7c 3f eb 53 75 3f dd 05 87 3f 02 a4 83 3f
       0.98704034 0.95831174 1.0548664 1.0284426
000010 9f 07 6d 3f af b0 88 3f 01 c9 89 3f 97 4e 7b 3f
       0.92589754 1.067892 1.0764467 0.98166794

bias f4 [8]
000000 a4 c8 da 3d 0d ec 44 3d 38 28 2d 3d 86 77 8d 3c
       0.106828004 0.048076678 0.042274684 0.017268907
000010 01 9a 80 bc 09 5c 82 3d 50 24 d8 3d a9 78 7a 3d
       -0.015698435 0.063652106 0.10553801 0.061150227

running_mean f4 [8]
000000 2d 9a bc 3e 4d e0 d1 3e 95 5e 2c 3d 05 11 32 3d
       0.36836377 0.4099144 0.042082388 0.043473262
000010 ec 34 35 3d 5d fa 31 be 3e 94 73 be 27 b3 d3 bd
       0.044239923 -0.17380662 -0.23787019 -0.10336905

running_var f4 [8]
000000 c7 38 af 3e 21 fc a5 3e 27 4c b4 3e 19 61 2d 3e
       0.34223005 0.32418922 0.3521435 0.16931571
000010 28 96 c7 3d f5 3c ab 3e 31 b6 d5 3e e6 56 d1 3e
       0.09745437 0.33444944 0.41740564 0.4088661

weight f4 [8, 8, 3]
000000 45 4a 4e 3e 23 eb 2c bc ef 26 fa 3d 1b a7 df 3d
       0.20145519 -0.010554108 0.12214457 0.10920545
000010 87 5b 1a 3d 76 8c 2a 3a 47 8e 3a be db 9d 47 3d
       0.037684944 0.00065059157 -0.18218337 0.048734527
000020 f4 7a 46 be 02 2d 33 3e b1 16 b2 bd f9 34 73 3e
       -0.1938284 0.17497638 -0.08695734 0.23750676
000030 2c 47 3a be e9 4f 6b 3d 6a 95 77 3c cb f4 0f be
       -0.18191212 0.057449255 0.015111307 -0.14058225
000040 dd a6 88 be 2f 5e 78 bd 7e 89 41 3e 09 da a8 be
       -0.26689807 -0.060636695 0.18900105 -0.32978848
000050 fa 59 1f be 50 07 18 be 04 a8 1e 3d 02 06 ee bd
       -0.15561667 -0.1484654 0.03873445 -0.1162224
000060 f3 4a f9 3d 52 d2 0f be ba c1 5b ba 53 11 66 be
       0.121724986 -0.14045075 -0.00083830545 -0.22467546
000070 35 34 23 3d b3 bf 2c 3e fe db 47 3e 7f 92 39 3d
       0.03984471 0.16870002 0.19517514 0.045305725
000080 68 22 bf bd d2 34 f9 bd a3 1f a3 bd 79 e3 e7 3d
       -0.09332734 -0.12168278 -0.079650186 0.11322684
000090 db 91 06 be ed 78 ae bd f1 8c be bc 58 1a 49 be
       -0.13141577 -0.085191585 -0.023260565 -0.19638956
0000a0 3e 33 42 3d dd 30 88 be cd a8 2c be 89 a7 81 be
       0.04741215 -0.2659978 -0.16861267 -0.25323132
0000b0 e7 d6 25 be e1 25 26 3d a3 53 98 3c 63 d5 88 bc
       -0.1619526 0.040563468 0.018594569 -0.016703313
0000c0 1e 28 d5 bd f9 24 23 3e d8 f4 4b be f9 91 e0 bd
       -0.10408042 0.15932073 -0.19917619 -0.10965342
0000d0 35 4b 54 be 87 a1 e9 3d c0 32 a1 bc 44 f9 30 3e
       -0.20731814 0.11407762 -0.01967752 0.17282587
0000e0 22 02 c3 bd 24 47 19 3e b4 97 ab bc 99 19 b6 3d
       -0.09521891 0.14968544 -0.020946361 0.08891601
0000f0 66 66 16 bd 6a a1 76 bd fb 48 83 be ed 16 90 be
       -0.03671875 -0.06021253 -0.25641617 -0.2814249
000100 62 4f ac bd 10 51 56 be ff 67 7c be f2 6e f4 bd
       -0.084135786 -0.2092936 -0.24649046 -0.11935224
000110 e6 7d 2c 3c 01 2f 9b bd 10 ae 17 3e 50 95 05 3d
       0.010528063 -0.07577325 0.14812493 0.0326131
000120 a4 30 5a bd f1 ec bd bd 57 96 06 be ee 84 16 be
       -0.053269044 -0.092737086 -0.13143288 -0.14699146
000130 a5 d6 ab bc 66 9e 86 bd ae b3 32 be 92 fe 17 3e
       -0.020976374 -0.06573181 -0.17451355 0.14843205
000140 ec 3d 03 bc 3a e4 85 be 01 00 4d 3d 5e de e1 3d
       -0.008010369 -0.26150686 0.05004883 0.11028741
000150 6d 35 2c be 53 6a 24 3c 8b e1 2a 3d ff 46 48 3e
       -0.16817255 0.010035115 0.041719 0.19558333
000160 16 5d 23 3e 48 e4 d9 bd 5f d6 4b 3e 7a 38 77 3d
       0.15953478 -0.10639244 0.19905995 0.060356595
000170 d4 d4 3d be aa 05 f1 3d 4b 78 2b be d1 fa 85 be
       -0.18538219 0.117686585 -0.16745107 -0.2616792
000180 b0 a2 57 3e 23 66 bd bd 93 ce f6 bd 5c a9 50 3e
       0.21058154 -0.09247997 -0.1205112 0.20377105
000190 d6 8d 4c 3d cd 97 2a be 9e fa 16 bd d8 61 ff bd
       0.049939953 -0.1665947 -0.0368601 -0.12469834
0001a0 31 e7 5f 3e 08 33 d1 3d 34 59 6c 3e 13 7e dc bd
       0.21865536 0.102148116 0.23080903 -0.10766234
0001b0 24 52 ff bc d6 6f 34 be cf 7e da bd ef cd 58 bd
       -0.031167097 -0.17620787 -0.10668718 -0.05293077
0001c0 35 eb d1 bc 8e 65 9c be 03 18 c9 bd ac 4e a9 3d
       -0.02562485 -0.3054623 -0.09819033 0.082669586
0001d0 b5 eb ce bd d3 7c 20 3e 67 d0 0d 3e 6d 7d 88 be
       -0.10103551 0.15672617 0.1384903 -0.26658192
0001e0 4b 9c 97 3c e7 74 c8 bd 29 91 06 3e f6 36 09 be
       0.018507143 -0.09787922 0.13141312 -0.13399872
0001f0 40 af 63 be f2 f0 5c be 03 35 05 bc ce a2 19 be
       -0.22234821 -0.21576288 -0.008130315 -0.15003511
000200 59 b4 ea bd 48 18 7a 3d 64 90 be bd 5b 6e 2d 3d
       -0.1146018 0.061058313 -0.09304884 0.04234157
000210 d4 53 0c bb df c9 ef 3d 7f 5b 0c bd 70 48 29 bd
       -0.002141227 0.11708426 -0.034266945 -0.041328847
000220 2b f7 70 be b0 6d 8c 3d 4b 4b f6 bd 9d 4c ad bc
       -0.23531787 0.06856859 -0.1202608 -0.021154696
000230 46 20 02 3d 92 9c 40 3e c3 3e eb bc df c6 e4 3d
       0.03176906 0.18809727 -0.02871645 0.11170744
000240 19 d1 f1 3d 03 04 77 be 85 43 61 be 50 7a e8 3d
       0.1180746 -0.24122624 -0.21998413 0.11351454
000250 16 9f 20 3e 90 1d 1d be 5d 04 36 3e c6 f5 7a 3e
       0.15685686 -0.15343308 0.17775102 0.24507818
000260 f9 8b 7d be 0a 3e e8 bd 06 0e 8d bc 38 b1 49 be
       -0.24760427 -0.11339958 -0.017218601 -0.1969651
000270 21 b0 d6 bd 86 de 9e 3d 7b 68 2a 3d 59 98 16 bc
       -0.10482813 0.07757287 0.041603547 -0.009191596
000280 05 73 1d be 0c c1 66 be 6c 4d 86 be 04 45 7f be
       -0.15375908 -0.22534579 -0.26230943 -0.24928671
000290 51 20 ed 3c b4 2d 51 bc 51 f2 8b 3d e3 b4 f7 3d
       0.028946074 -0.012767244 0.068333276 0.12095048
0002a0 4f 0b 00 3e dc 84 07 be b0 9c 2e bd 18 59 c0 3c
       0.12504314 -0.13234276 -0.042629898 0.023479983
0002b0 4d 26 bc bc 15 79 01 be ab af 14 3e 56 a7 bc bd
       -0.022967482 -0.12643845 0.14520137 -0.09211604
0002c0 3f c4 a3 be 10 dc 15 3e 4f df b5 3d 9d 86 3c be
       -0.3198566 0.14634728 0.08880483 -0.18410726
0002d0 af 44 d6 bb 75 af 15 be a7 80 0a bd e5 a0 35 3e
       -0.0065389494 -0.14617713 -0.0338141 0.17737158
0002e0 49 c2 0c 3e 9b 52 54 3d 66 9f 25 3e 46 3f 2c be
       0.13745989 0.05183659 0.16174087 -0.16821012
0002f0 4e 8a 9b bd f7 1a 72 3c d5 b9 99 3c 54 89 c6 be
       -0.07594739 0.014776937 0.01876537 -0.38776648

bias f4 [8]
000000 c4 84 5d bd 2c 8c bf bd dd 68 80 bd 06 22 94 bd
       -0.054081693 -0.093529075 -0.06270001 -0.07233052
000010 f0 3f 26 3e c7 01 a5 bd fd a8 ae 3d 6a ee e3 3d
       0.16235328 -0.080569796 0.08528326 0.11129458

weight f4 [8]
000000 62 75 82 3f 9d 67 80 3f e3 9b 74 3f 2b e3 8b 3f
       1.0192072 1.003162 0.95550364 1.0928701
000010 2e fc 6f 3f 58 ba 82 3f 6a 86 81 3f 77 34 93 3f
       0.9374417 1.0213118 1.0119145 1.1500386

bias f4 [8]
000000 88 3c 61 3d ea 91 e1 3d 65 b0 43 3d 81 ed 5a 3d
       0.054989368 0.11014159 0.047775645 0.053449158
000010 fb 13 22 3e 7b a1 f9 3d 66 eb 3e 3e cc 7b eb 3d
       0.15827934 0.12189003 0.18644485 0.11498222

running_mean f4 [8]
000000 65 92 9d be 27 45 03 bf 3c e2 fd be 02 96 8f be
       -0.30775753 -0.51277393 -0.49586666 -0.28044134
000010 00 34 b1 3b e8 b6 a4 be cf 50 97 be 8e 41 9d bd
       0.00540781 -0.32170796 -0.2955384 -0.07678519

running_var f4 [8]
000000 f0 47 91 3e af 78 0b 3e ac ba 36 3e 4b 61 d0 3e
       0.28375196 0.13620256 0.17844647 0.4069923
000010 ff 49 32 3e 4a 2c 39 3e 86 92 84 3e 77 9e f1 3e
       0.1741104 0.18083301 0.2589304 0.47191212

weight f4 [8, 8, 3]
000000 c1 7d ea 3c 78 5a 28 be 0d 16 3b be 09 49 82 be
       0.028624417 -0.16440761 -0.1827013 -0.25446346
000010 5d f7 16 3e e0 b2 d7 bd 45 de 35 3e ee be e4 3b
       0.14742799 -0.105321646 0.1776057 0.0069807684
000020 17 ca 21 3e 92 06 1e be a8 2d 88 bd dc ab 9c bd
       0.15799747 -0.15432194 -0.06649333 -0.07649967
000030 21 a0 d1 3b 8a a5 07 3e 2d a7 84 be c6 33 7f 3d
       0.0063972627 0.13246742 -0.25908795 0.062305234
000040 83 ab 53 bd 3d bf 16 3e 28 82 4a be 00 12 35 3d
       -0.05167724 0.14721389 -0.19776213 0.04420662
000050 79 a7 74 3d d5 2f d1 be fc 85 90 3e 91 01 24 3e
       0.059730027 -0.40856805 0.28227222 0.16016223
000060 cf 82 af bd 17 ba 8f bd ae 91 bc 3d 69 62 94 3d
       -0.08569872 -0.07017916 0.09207474 0.07245333
000070 d1 0f bf bd c7 04 cf 3d 5e 8f 4a 3e 89 6b b9 3d
       -0.093291886 0.10108333 0.19781253 0.09053714
000080 85 3e 5c 3e e3 f8 14 bd 8c 1e 98 be 62 c5 4f be
       0.21508224 -0.03637017 -0.29710805 -0.2029014
000090 ca 53 b1 3c 5e 7e 53 3e 72 16 84 be 2d 1e f9 bd
       0.021646399 0.20653674 -0.25798374 -0.12163959
0000a0 74 af 65 bd ab 3b 5a 3e be a9 ae bd 0f 81 e8 3d
       -0.05607553 0.21311824 -0.085284695 0.11352741
0000b0 75 e3 42 3d 0c 65 94 be d6 4c 2a 3e 81 93 df bd
       0.0475802 -0.28983343 0.16630873 -0.10916806
0000c0 9e 5e 7b 3d f5 1a 35 bd d2 4c d9 3d 29 2a 58 be
       0.06136953 -0.04421516 0.106103554 -0.21109833
0000d0 8f 43 c7 bc 84 f2 53 3e 7e 7d fc bd 8f bb 01 be
       -0.024324207 0.20697981 -0.12328623 -0.12669204
0000e0 6e bb 1b 3d 53 10 ec bd fa b9 79 be 1f 2a b8 bd
       0.038020544 -0.11526551 -0.2438735 -0.08992409
0000f0 e6 a2 87 bd 16 54 13 be 26 36 02 be 50 ee 39 be
       -0.06622867 -0.14387545 -0.12715968 -0.18157315
000100 68 f3 63 3e 60 7e 6d 3e 21 93 22 be 1a 05 41 3e
       0.22260821 0.2319274 -0.15876438 0.18849602
000110 cd 30 cb bd 57 e7 43 be 29 4d eb bb 28 78 65 be
       -0.099214174 -0.19131218 -0.007180829 -0.22409117
000120 8a e6 1e 3e e3 6b 99 bd 84 57 58 3e 76 6e e2 3d
       0.15517631 -0.07491281 0.21127135 0.11056225
000130 b0 01 dd 3c fa 45 ea 3c bf fe 19 3e c2 4d 9a bd
       0.026978344 0.02859782 0.15038584 -0.075343624
000140 71 a1 f6 bd 0b bf 86 bc 7f 5c e8 3d 14 2a 61 bd
       -0.12042511 -0.016448518 0.11345767 -0.05497177
000150 91 4b 93 bd 2a a7 35 be 55 a7 fc 3d 39 a4 02 3e
       -0.071921475 -0.1773955 0.123366036 0.12757958
000160 20 19 12 3e 01 19 39 3d 60 ed 77 bc 66 1c 73 be
       0.14267397 0.04518986 -0.015132278 -0.23741302
000170 a1 7c 18 3e f9 d1 e2 bd 2a 9b fb 3d 62 32 dc 3d
       0.14891292 -0.11075205 0.122854546 0.10751797
000180 57 44 10 3e b9 ac 73 be ea b1 11 be 0d d6 82 be
       0.1408857 -0.23796357 -0.14228025 -0.25553933
000190 52 31 66 3c 21 36 89 be 8e 5c ec 3d ed d3 8e 3d
       0.014049845 -0.2679911 0.11541091 0.069740154
0001a0 d7 b1 2d be d1 4c 0b be 90 12 eb bd 1a ea ee bd
       -0.16962372 -0.13603522 -0.1147815 -0.11665745
0001b0 0f 38 11 bd 03 c4 8b 3d ea 23 ed 3d 6d e3 7b bd
       -0.035453852 0.06824496 0.11579116 -0.061496187
0001c0 98 1e 9c bd f7 bb 4a 3e 21 e0 30 bd e8 7c 8d 3e
       -0.07623023 0.19798265 -0.043182496 0.27634358
0001d0 92 a8 6c bd 82 74 47 be 18 84 ac bd 63 c6 5d bb
       -0.05777795 -0.19478038 -0.084236324 -0.0033840172
0001e0 df cb 3a be ae 8b 04 3e b0 fa 89 be a1 59 5a bd
       -0.18241833 0.12943909 -0.26949072 -0.053308133
0001f0 7f 2e 82 3d ee de 20 bd da 57 bc bd 2e c4 05 3e
       0.06356525 -0.039275102 -0.09196444 0.13063118
000200 61 4c 4f 3d 6d 3c fb 3c b6 c7 38 be 9b ae 99 bd
       0.05060995 0.030668462 -0.18044934 -0.075040065
000210 ba 14 97 3d 69 84 00 3e 89 3e 1f be 2f eb ac be
       0.07377 0.1255051 -0.15551199 -0.3377318
000220 a2 c6 1d be 7c 20 d1 3c 5e af 86 bd 71 9e 6a 3e
       -0.15407804 0.025528185 -0.065764174 0.22912003
000230 f6 b9 3b 3d 28 86 9a be 3e 65 ad 3d 83 69 19 3d
       0.045831643 -0.30180478 0.08466576 0.03745414
000240 4c 3a 4b be d8 ca 81 3b ee 1c 47 3c 57 fe 16 3e
       -0.19846457 0.0039609484 0.0121528935 0.1474546
000250 9f e7 5a 3d 82 f3 80 3e 2a 96 ec 3d 44 90 63 3e
       0.053443547 0.25185782 0.11552079 0.22223002
000260 66 15 05 be 17 ee 8f be 83 c5 07 3e 26 93 43 be
       -0.12996444 -0.28111336 0.13258938 -0.19099101
000270 de 34 2e be 26 e4 05 3e 19 38 8c bd 3e 23 86 be
       -0.17012355 0.13075313 -0.06846637 -0.26198763
000280 1f e5 00 3e 44 7f 07 3e af 05 47 bd df 92 18 be
       0.12587403 0.13232142 -0.048589405 -0.14899777
000290 e5 9b df 3d c8 d1 99 be fb 67 20 bd eb bf ac 3d
       0.109184064 -0.30042863 -0.039161664 0.08435043
0002a0 9d 71 4c 3e 65 8d ac 3d 26 0d 75 3d 78 86 bd bd
       0.19965215 0.08425406 0.059826992 -0.092541635
0002b0 46 fa 3c 3e 0d 5b 5e 3e e1 99 3f 3e 26 6b 37 3e
       0.18454847 0.2171442 0.18711044 0.17911968
0002c0 eb 98 c0 bd f7 5b 3a 3d de cd 0a 3e a0 6a 69 be
       -0.09404167 0.04549786 0.13555095 -0.2279458
0002d0 04 98 91 bd 81 e1 6f bb 33 f8 ff 3d 71 ad 95 bd
       -0.07109073 -0.0036602917 0.12498512 -0.07308472
0002e0 44 94 11 3e 1d 8e 87 bd 1a 7a 4f 3d 4b 0a 4b 3e
       0.14216715 -0.06618903 0.050653554 0.19828145
0002f0 42 83 6c 3c fb 30 aa be 4b 96 49 be 43 4a 2c bc
       0.014435591 -0.33240494 -0.19686238 -0.010515752

bias f4 [8]
000000 2f a2 96 3b 39 c5 26 3e ef b4 89 bc b2 55 01 be
       0.0045969705 0.16286172 -0.016809909 -0.12630346
000010 74 3e 1f be c2 35 d0 3d a6 e6 22 3c 33 02 53 be
       -0.15551168 0.101665035 0.009942686 -0.20606308

weight f4 [8]
000000 12 78 62 3f b2 43 46 3f d6 e3 45 3f 11 3a 3c 3f
       0.8846446 0.77447045 0.77300775 0.735261
000010 c4 d2 4d 3f 5d 7c 65 3f 25 19 61 3f ef 8b 34 3f
       0.8039973 0.8964289 0.8792899 0.7052602

bias f4 [8]
000000 39 50 00 bc 28 9a c4 bd 89 9b 4d be 51 3c aa be
       -0.007831627 -0.095997155 -0.20078863 -0.33249143
000010 f9 1b 09 be c7 e7 d5 bd 0e 05 ad bd 2a 96 d4 bd
       -0.13389577 -0.10444599 -0.0844823 -0.10380204

running_mean f4 [8]
000000 13 6c 52 be b1 d4 63 3d 08 33 dd be b1 50 fc 3d
       -0.2054904 0.05562276 -0.43202996 0.12320078
000010 53 e7 08 bf 1a b1 6b be c5 19 08 be 2c 44 1c ba
       -0.5347797 -0.23016778 -0.1329108 -0.0005961086

running_var f4 [8]
000000 f1 76 9f 3e 4f ac 8b 3e 4e e3 ed 3d 2c c6 0c 3e
       0.31145433 0.272799 0.116156206 0.13747472
000010 09 12 61 3e 99 23 69 3e fb 2c 14 3e 43 4d b9 3e
       0.21979536 0.22767486 0.14470284 0.3619176

weight f4 [128, 25]
000000 d9 c8 a9 be 4d c1 87 be 95 42 1c be a8 c3 60 be
       -0.33161047 -0.26514664 -0.15259774 -0.21949637
000010 32 7b 15 be 67 ff 3d be 4b 75 17 3d c1 eb 5c be
       -0.14597777 -0.1855446 0.036977094 -0.21574308
000020 ab 3c 13 be 90 42 a1 bd 61 72 8e bc 2d 3c c0 bc
       -0.14378612 -0.07874024 -0.017388524 -0.023466194
000030 98 a7 c1 bd 4d 7a 10 3d b7 78 94 bd 18 6f dd 3d
       -0.09455794 0.035272885 -0.07249587 0.10812205
000040 a6 2c 0d 3e 44 c6 2c 3d f5 d6 61 3e b9 e1 9b 3d
       0.13786563 0.04218127 0.22054656 0.076114126
000050 b0 6c f0 3d 87 92 61 3d 37 3a 14 be c0 cc 3f be
       0.117394805 0.05507138 -0.14475332 -0.1873045
000060 bc 7c 4a 3c 1e e3 05 3e 95 d3 89 be 15 79 bc bd
       0.012358841 0.1307492 -0.26919237 -0.09202782
000070 f8 51 93 3e 10 96 fe bc 60 ba 24 3e 93 f0 98 be
       0.28773475 -0.031077415 0.16086721 -0.29871044
000080 e1 b1 34 be 32 50 67 3c ca ad fb bd 50 50 96 bd
       -0.1764598 0.014118241 -0.12289007 -0.07339537
000090 24 73 22 bc 47 ae 8a be da ef 62 3d f1 f3 6b 3e
       -0.009915147 -0.27086088 0.05540452 0.23042275
0000a0 c5 fc 29 3e 0e a5 07 3e e5 df 03 be 21 d5 f4 3d
       0.1660033 0.13246557 -0.12878378 0.119547136
0000b0 35 9b 71 3c d2 42 b7 bd 96 50 3e 3d 7f bf 6f 3d
       0.014746477 -0.08948292 0.04646357 0.058532234
0000c0 98 80 44 bd f3 9b a3 bd 75 b3 39 3d b5 20 dc bc
       -0.0479742 -0.07988729 0.04533716 -0.026871065
0000d0 91 1b ba be ac cf b9 be ff 22 45 be 1c 6a 60 be
       -0.36349156 -0.36291254 -0.19251631 -0.21915478
0000e0 5d 0f 34 be 01 ad 38 3e 69 b8 09 3c ee 8f dd 3c
       -0.17583986 0.18034746 0.008405783 0.02704617
0000f0 f4 13 87 3e e9 ee 95 3d 97 a9 cb 3c 47 5d de bd
       0.2638241 0.07320959 0.02486114 -0.10857635
000100 3c 48 21 3c 98 91 c9 be 06 16 95 bd 47 33 05 3e
       0.009843882 -0.39368892 -0.07279591 0.13007842
000110 07 28 a5 bd 9f 49 9e 3d 8f 0f 38 3e fc 6e 51 be
       -0.08064275 0.07728886 0.17974685 -0.20452493
000120 ef 78 d8 3d 46 52 9d bc 8a 42 84 3d 15 e7 10 be
       0.10569941 -0.01920427 0.06458004 -0.14150651
000130 02 c2 3c be 06 f0 07 bd 70 30 59 3e 60 d4 4a 3e
       -0.18433383 -0.03318789 0.21209884 0.19807577
000140 f4 37 e6 bd 24 8b 64 3e 5a d5 5c be 65 65 93 be
       -0.11241141 0.22318703 -0.21565762 -0.28788295
000150 d4 bb 87 bc 9c 84 1f be 43 22 72 be 3f ae c4 ba
       -0.016569056 -0.1557793 -0.23645882 -0.0015005543
000160 53 63 8f 3d 7e 47 38 3d 4b fd 62 be ec d5 2d be
       0.070013665 0.044990055 -0.22166936 -0.16976136
000170 12 67 4d be 67 5e ca bb 98 e3 22 3e 96 df 9c be
       -0.2005885 -0.0061758044 0.15907133 -0.30639333
000180 94 d9 b6 3d d1 6d 06 bd 02 fe 66 3e e6 aa e8 bd
       0.089282185 -0.032819573 0.22557834 -0.11360721
000190 ba 93 b4 3d d1 29 b4 3e cb 3e de 3e e2 b6 aa 3a
       0.08817239 0.35188153 0.43407282 0.0013024474
0001a0 19 3a 35 be e2 5a 18 3e bd 3d 90 3e 92 7c d3 3d
       -0.17697944 0.14878419 0.28172103 0.10326494
0001b0 a3 13 f8 bc 40 98 9c 3d a1 ae 92 bd 5b 4c 9c 3d
       -0.030282801 0.07646227 -0.07162214 0.07631751
0001c0 b5 68 24 3b 32 dd d0 3d e0 73 40 3e fc d1 0d be
       0.0025086824 0.1019844 0.18794203 -0.13849634
0001d0 66 ce 90 bc 18 af 8b 3d d6 63 ab be d5 98 3e bd
       -0.017676543 0.06820506 -0.33474606 -0.04653247
0001e0 1e 6c 23 be 32 56 2f 3e da 26 c8 3c 9f db d0 bd
       -0.15959212 0.17122725 0.024432588 -0.101981394
0001f0 fe 01 3c be bc 37 1b 3e 9c 69 02 3d 9c f2 25 3e
       -0.18360135 0.1515798 0.031839 0.1620583
000200 d2 1a bd 3e 53 13 50 3c f8 a4 92 bd 24 b8 51 3e
       0.36934525 0.01269992 -0.071603715 0.204804
000210 f3 75 6d 3e a1 24 c9 bd 81 7f 3d be 23 1e 91 3e
       0.23189525 -0.098214395 -0.1850567 0.28343305
000220 b9 e6 5f 3c 45 56 31 be 84 5d eb 3b 8d e3 44 bb
       0.013665848 -0.17318065 0.007182779 -0.0030042857
000230 99 4c 84 3d 3d 71 96 3b fd ad 81 bd 96 b0 6c 3e
       0.06459922 0.004591136 -0.06332014 0.23114237
000240 c2 78 4f 3e a6 9c 20 be ef 34 06 3d d7 7f b9 be
       0.20260909 -0.15684757 0.032765325 -0.36230347
000250 9d 5c df bd c2 f7 02 bb da d7 bf be ad f0 6f be
       -0.109063365 -0.00199841 -0.3746937 -0.23431654
000260 8f c3 14 bd fc 30 38 be 13 02 85 bd df 6b d8 bd
       -0.03631931 -0.17987436 -0.06494536 -0.1056745
000270 9f ec 3e 3e 8a 46 31 3c 55 c8 88 bd 18 34 6d 3d
       0.18644951 0.0108200405 -0.06678835 0.05791101
000280 f9 77 62 be bb 9f 44 3e 58 a6 27 3e b5 44 64 be
       -0.22116078 0.19201557 0.16372049 -0.22291835
000290 6b 89 ee 3c 14 7f ec bd 7a df 6f be d4 07 20 be
       0.02911826 -0.11547676 -0.23425093 -0.15627986
0002a0 77 ea 6a be 31 98 20 bd 29 4f 35 3e 74 d9 6f 3d
       -0.22941004 -0.03920764 0.17705978 0.05855699
0002b0 6b 65 1e bd e3 13 34 3e 13 27 09 3e 0c f7 7a bd
       -0.03867094 0.17585711 0.13393812 -0.06127076
0002c0 90 62 7a be 90 18 ca 3d 69 42 32 be 8b 93 9a 3d
       -0.24451661 0.09867966 -0.17408146 0.07547673
0002d0 3b eb 31 3d 6b 39 5b 3e 0e b5 9d 3e 8a 46 7a bd
       0.043437224 0.21408622 0.30802196 -0.061102428
0002e0 9f 78 11 bc 6f 8c 56 be 41 04 01 be 41 ca 9c bd
       -0.008878856 -0.20952009 -0.12599279 -0.07655764
0002f0 6e 94 e6 bb 74 d6 14 be 7c f8 1a 3e 2b 76 64 be
       -0.007036737 -0.14534932 0.15133852 -0.22310703
000300 22 c1 c0 3c 6a 52 c0 3d 3e 8c 34 3c 39 31 f3 3c
       0.023529593 0.09390719 0.0110197645 0.029686557
000310 8a e9 f9 bd 52 bb 5e 3e a4 2d 83 3d 93 64 ee 3d
       -0.12202747 0.21751145 0.0640519 0.11640277
000320 2c 22 8d 3d 7f 06 51 bd 47 1b a6 3d ef 77 d8 bd
       0.068912834 -0.051031586 0.081106715 -0.105697505
000330 8f 7e 1c be de a0 5a 3e 34 e8 0b be d1 e5 66 3e
       -0.15282653 0.21350428 -0.13662797 0.22548606
000340 b0 3e 8c 3e c0 03 97 bd 02 14 1b 3c f2 0e 5a be
       0.27391577 -0.07373762 0.009465219 -0.21294764
000350 8c cf 39 3c 1c a0 19 3d 1c fc da bd a7 5a 45 be
       0.011340987 0.037506208 -0.10692617 -0.19272862
000360 57 34 a9 3d b5 35 25 3e 2a 47 05 bd 65 b6 15 3e
       0.08261936 0.16133769 -0.03253857 0.14620359
000370 59 4d 14 3e e7 f7 6d be 0d 9a 8b bb cf 4d 4e 3e
       0.14482631 -0.23239098 -0.0042603076 0.20146869
000380 78 d0 02 be 1e 62 08 3e ef de 64 3c 30 af 0a 3e
       -0.12774837 0.13318679 0.013969167 0.13543391
000390 76 7c b6 bd d8 05 58 3e d4 9c 1b be e6 0a 7f 3e
       -0.08910458 0.21095979 -0.15196544 0.24906501
0003a0 f0 b6 0c 3e 93 cb bf bd 6a 9c 8a be 51 2d bc 3d
       0.1374166 -0.093650006 -0.2707246 0.09188331
0003b0 2e 76 fc 3b d7 69 d2 bc ff 9f 84 3c d8 20 0a 3e
       0.007704518 -0.025685234 0.016189573 0.13489091
0003c0 7d 09 67 3d 12 3d 9a bb ef 1b a5 3d 61 cb 17 be
       0.056405533 -0.004706987 0.080619685 -0.14823677
0003d0 51 c3 57 3d ce 28 34 be ee ea e7 3d 46 e4 be bb
       0.052676503 -0.17593691 0.11324106 -0.005825552
0003e0 9a c7 4e be 4a 66 78 3d 7d 43 50 bd c9 5e b8 bd
       -0.2019333 0.060644425 -0.05084561 -0.09002454
0003f0 28 cc 20 bf 3c b7 2c be 9f 0f b8 be a3 6b 8c 3d
       -0.6281152 -0.16866773 -0.35949418 0.068564676

bias f4 [128]
000000 12 4b ae 3d 9f 0e ea bd 71 4a 0e 3d f3 d1 43 3e
       0.08510412 -0.1142857 0.03473896 0.19123058
000010 44 27 5c 3d b0 17 3e bc cb 38 6e 3d 87 1a 6b bb
       0.053748384 -0.011602327 0.05815963 -0.0035873966
000020 28 77 a4 bb 2f f5 9b bd 2a d4 12 3d bd 7e 1d bd
       -0.0050190873 -0.076151244 0.035846867 -0.038450945
000030 49 0c 28 3e ac 36 57 be 05 fe 17 3e 86 2f ca bd
       0.16410936 -0.2101695 0.14842995 -0.098723456
000040 40 f4 15 bb b9 4e b4 bd 59 52 ef bd 86 b0 06 3e
       -0.002288118 -0.08804078 -0.116856284 0.13153276
000050 9c 36 7f 3d c6 25 fc 3c 25 50 a4 3d 4a 68 f8 3d
       0.06230794 0.03077973 0.08023099 0.121292666
000060 b6 dd ab 3d 62 58 63 bc 03 7d eb bd e8 f2 c3 3b
       0.083918974 -0.013876053 -0.114984535 0.0059798844
000070 9f e2 12 be 35 ed 1b be f1 90 11 3d c7 79 94 bc
       -0.14344262 -0.15227206 0.035538618 -0.018124474
000080 74 95 e2 bd b4 a4 04 3e 4f e3 0e be bc 2b d3 3d
       -0.11063662 0.12953454 -0.13953899 0.10311076
000090 2e f4 4a 3d 06 0f 93 3d 40 47 9e bc e7 78 bc bd
       0.049549274 0.071806 -0.019321084 -0.09202748
0000a0 3b 69 98 bc 98 9d b7 bd b0 9f 98 3d cf f9 db bc
       -0.018604865 -0.089656055 0.07452333 -0.026852516
0000b0 85 6f 09 be bc 08 c6 bb 96 70 d7 3d 0c 2f 97 3d
       -0.13421448 -0.0060435217 0.10519521 0.0738202
0000c0 8b 1b da 3c d7 d1 05 bc 47 e2 49 3e af c7 31 3e
       0.026624462 -0.0081677055 0.19715224 0.1736133
0000d0 e5 da d7 bc 8c f9 f6 3d f5 96 db bd e8 38 83 bc
       -0.026349494 0.12059316 -0.10722152 -0.016018346
0000e0 0e 75 3d bd 40 df f2 3d bc b9 c6 3d 64 38 d0 bd
       -0.04625421 0.11858988 0.09703395 -0.10167006
0000f0 75 72 ce 3c ba 91 55 3e 13 1b e7 3d d3 27 55 bb
       0.025201062 0.20856372 0.11284461 -0.0032524958
000100 6b 45 99 bd 3c 94 78 3d 67 57 96 3d 70 3b 73 3d
       -0.074839436 0.060688242 0.073408894 0.059382856
000110 eb f3 30 be e9 a1 ce bd ea 9e 05 bd 43 41 44 3d
       -0.17280547 -0.10089476 -0.032622255 0.0479138
000120 7e 5b 1c 3d c4 e3 30 3d ae a9 65 3e ca 23 57 be
       0.03817319 0.043185964 0.22428009 -0.21009746
000130 bc 2f db bd 86 22 9f bb 1f 4d 5d 3d 2f 11 f9 3d
       -0.10702464 -0.0048564104 0.054028627 0.12161481
000140 44 47 1a 3e 2b a5 4d 3e 52 b3 a3 bd 47 ec 37 3c
       0.15066248 0.20082538 -0.07993187 0.0112257665
000150 f5 4b 26 be 20 75 32 bc 21 95 30 be 9f 51 a0 bd
       -0.16239913 -0.010892183 -0.17244388 -0.07828068
000160 cf 5a ec bd 90 11 e1 3d dc 2c 31 3e 15 a6 ca bd
       -0.11540758 0.10989678 0.17302269 -0.09894959
000170 a7 1a 30 3e 4e 85 93 bd bf a7 71 bd 53 44 27 3d
       0.17197667 -0.0720316 -0.058997866 0.040836643
000180 e7 e5 cf bd 5e 10 23 3e e4 17 14 be fe ab 0f 3c
       -0.10151272 0.15924212 -0.14462239 0.0087690335
000190 0b e9 d4 3d ea b1 b2 bd 30 34 da 3c 3b 4b 8d 3d
       0.10396012 -0.08725341 0.026636213 0.06899115
0001a0 3a 98 19 3e da 1d f3 3d 38 20 46 bd 6d 0d 1b 3e
       0.14999476 0.11870928 -0.04837057 0.1514184
0001b0 41 2e b6 3d 09 26 37 be 87 46 34 3e 4a 7b 1a 3e
       0.08895541 -0.17885603 0.17605029 0.15086094
0001c0 25 ff 1e 3e 05 42 f2 3d b8 35 a6 3d 4d f7 35 3e
       0.15527017 0.118289985 0.08115715 0.17770119
0001d0 cf c4 de bb 14 a0 b7 3d 62 13 3c be 1a d1 c4 3d
       -0.0067983638 0.08966079 -0.18366769 0.096101955
0001e0 7b 65 3d 3e d6 25 2d bd 6a 17 2a bd b2 d1 dd bc
       0.18495743 -0.04227241 -0.041526236 -0.02707753
0001f0 54 65 3e 3e 63 23 ce 3d ed 20 32 bc e2 fc 2b be
       0.18593341 0.10065343 -0.010872108 -0.16795686
