nn/checkpoints/main_material/5/model_30.pt (torch, 451442 bytes, 98 tensors)

weight f4 [8, 5, 3]
0	0x3e5f2048	0.21789658
1	0xbe66a16b	-0.22522514
2	0x3db15558	0.08658856
3	0xbe7c6e98	-0.24651563
4	0xbe8ac96a	-0.27106792
5	0xbe13e0ba	-0.14441195
6	0x3c087b2b	0.008330147
7	0xbe04ce1e	-0.12969252
8	0xbd195dab	-0.037442844
9	0x3d4c94d3	0.049946617
10	0x3d98d22e	0.074619636
11	0x3d488169	0.04895154
12	0xbe3069ec	-0.17227906
13	0xbc065f3a	-0.008201415
14	0xbdf0575e	-0.11735414
15	0xbd004903	-0.03131963
16	0x3c450f1d	0.012027529
17	0x3e04cae7	0.12968026
18	0xbd11010e	-0.035401396
19	0x3dd7eb90	0.10542977
20	0x3bb55a89	0.0055344743
21	0xbe20c3e0	-0.1569972
22	0xbdecad42	-0.11556484
23	0x3d0be0d2	0.034149952
24	0xbe843846	-0.25824183
25	0xbdc4fd78	-0.09618658
26	0x3d25b7fe	0.04045867
27	0x3e0f8ac1	0.14017774
28	0xbe47d108	-0.19513333
29	0x3dc48496	0.09595601
30	0x3db7552e	0.089517936
31	0xbe438e13	-0.19097166
32	0x3d9d429f	0.076787226
33	0xb8ad2531	-8.25621e-05
34	0xbe318516	-0.17335925
35	0xbda3d6da	-0.07999964
36	0x3d94f679	0.072735734
37	0xbe2aa81a	-0.16665688
38	0x3e1942ab	0.14966838
39	0x3e0a9821	0.13534595
40	0xbd4d982f	-0.05019396
41	0xbe370f84	-0.17877012
42	0xbbfe33eb	-0.007757654
43	0x3d921b1a	0.071340755
44	0xbe5d2b05	-0.21598442
45	0xbe68718e	-0.22699568
46	0x3e187a94	0.1489051
47	0xbe5842c4	-0.21119219
48	0x3dfc1d99	0.12310333
49	0x3dcb84e3	0.099374555
50	0xbe6cedc2	-0.23137572
51	0x3dc8a706	0.09797482
52	0xbe823ff9	-0.25439432
53	0xbe0a04b7	-0.13478361
54	0x3e3afec4	0.18261248
55	0xbe65c3f2	-0.22438028
56	0xbdac1e76	-0.084042475
57	0x3e8ad546	0.2711584
58	0xbe54e3f0	-0.20790076
59	0xbda6445b	-0.081185065
60	0x3c0413ae	0.008061333
61	0xbe5234b1	-0.20527913
62	0xbd1d863e	-0.0384581
63	0xbde84733	-0.11341705
64	0x3e3f795a	0.18698636
65	0x3e86acad	0.26303616
66	0xbc94daee	-0.0181708
67	0x3b6eb0fe	0.0036421414
68	0xbdfa40f2	-0.122194186
69	0xbe24891d	-0.1606793
70	0xbe97d100	-0.29651642
71	0xbe5d0b5e	-0.21586367
72	0xbdebcbe4	-0.115134984
73	0xbd5080cb	-0.050904077
74	0x3e223d03	0.15843587
75	0x3dbc418e	0.09192191
76	0x3e1931e5	0.1496044
77	0xbe97f05a	-0.2967556
78	0xbe8dfd21	-0.27732185
79	0x3cdb6050	0.026779324
80	0xbe056f76	-0.130308
81	0xbd97cd9e	-0.07412265
82	0x3d31e019	0.043426607
83	0xbe00f808	-0.12594616
84	0xbdbdb7dc	-0.09263584
85	0xbe2a6a34	-0.16642076
86	0xbddcf166	-0.107882306
87	0x3e41376e	0.18868801
88	0xbdcee0fb	-0.10101505
89	0xbd658250	-0.05603248
90	0x3e49288f	0.19644378
91	0xbe054232	-0.13013533
92	0xbe644df0	-0.22295356
93	0x3e5e8aaa	0.21732584
94	0x3cb52013	0.02211002
95	0xbe55b2cc	-0.20868987
96	0x3dabe027	0.08392363
97	0xbe6f4316	-0.23365435
98	0xbd26280b	-0.04056553
99	0x3e28abb3	0.16471748
100	0x3e0cfc56	0.13768134
101	0x3c4dc297	0.012558601
102	0x3e778394	0.24171287
103	0xbcaba41b	-0.020952275
104	0xbe0e0b2d	-0.1387145
105	0xbe06ac7c	-0.13151735
106	0x3d476541	0.048680548
107	0xbe1d5081	-0.15362741
108	0x3cef1dc6	0.029189002
109	0x3e20e780	0.1571331
110	0x3e87b8b4	0.26508105
111	0x3e626af8	0.22111118
112	0xbe59de38	-0.21276176
113	0xbde8dc60	-0.11370158
114	0x3e81ba1e	0.2533731
115	0x3e550df9	0.20806111
116	0x3e725988	0.23666966
117	0xbdb4d9f7	-0.08830636
118	0xbe1f03a9	-0.1552874
119	0x3e93abe5	0.28842083

bias f4 [8]
0	0x3df8b574	0.121439844
1	0xbe7396fc	-0.23788065
2	0x3e32a704	0.17446524
3	0xbe7b5716	-0.2454494
4	0x3d257774	0.040397123
5	0x3d2b9457	0.041889515
6	0xbe3b85db	-0.1831278
7	0x3e6ca1d0	0.23108602

weight f4 [8]
0	0x3f81de89	1.0146037
1	0x3f849542	1.035805
2	0x3f7e9aa4	0.9945471
3	0x3f83aa24	1.0286298
4	0x3f85e725	1.0461165
5	0x3f847cb2	1.0350554
6	0x3f7bab47	0.98308223
7	0x3f71812d	0.9433773

bias f4 [8]
0	0x3cb06a15	0.021534959
1	0xbbbce3c8	-0.0057644583
2	0x3ab7f9ab	0.0014036199
3	0x3cfb22d9	0.030656265
4	0x3d1a7a63	0.037714373
5	0x3d495f1a	0.04916296
6	0x3cf85b12	0.030316863
7	0x3d12d762	0.035849936

running_mean f4 [8]
0	0xbe9a1123	-0.300912
1	0xbed3d8d0	-0.41376352
2	0xbd81ef7b	-0.063445054
3	0xbf1da271	-0.6157599
4	0xbea44b86	-0.3208887
5	0xbeda10a2	-0.42590815
6	0xbdfc1d32	-0.12310256
7	0x3f2789f3	0.6544487

running_var f4 [8]
0	0x3f75fb34	0.9608643
1	0x3ea9285e	0.3303861
2	0x3ec573a1	0.3856478
3	0x3f87a46d	1.0597054
4	0x3f5ab015	0.8542493
5	0x3fa2c1b1	1.271536
6	0x3ebb4e8e	0.3658337
7	0x3f92eb1a	1.1477997

weight f4 [8, 8, 3]
0	0xbe3c6073	-0.18396167
1	0xbb8fe906	-0.004391792
2	0xbd971299	-0.07376594
3	0xbe1f7270	-0.15570998
4	0xbddd365e	-0.10801385
5	0xbe9d4633	-0.3071762
6	0x3d340025	0.04394545
7	0x3ca2c772	0.019870494
8	0xbe02fb0d	-0.12791081
9	0x3d2b2ae1	0.04178894
10	0xbd825721	-0.06364275
11	0x3d4c7c15	0.04992302
12	0x3dd68e18	0.10476321
13	0x3c6c249a	0.014413023
14	0x3da48cdc	0.08034679
15	0xbde8e8cc	-0.113725275
16	0x3cd17f6e	0.025573459
17	0xbde3f099	-0.11129875
18	0x3e2d0b13	0.16898756
19	0xbdaf2939	-0.085527845
20	0xbd2d1bba	-0.04226277
21	0x3dabc526	0.083872125
22	0x3abcda9c	0.0014408412
23	0xbc890d65	-0.01673002
24	0x3e0716d3	0.131923
25	0x3e4271ea	0.18988767
26	0xbe3933f2	-0.18086222
27	0x3e2386fd	0.15969463
28	0x3c800426	0.015626978
29	0xbd3f820e	-0.04675489
30	0xbda86312	-0.08222021
31	0x3c410bb4	0.011782575
32	0xbc7adee8	-0.015311934
33	0xbe078abb	-0.13236515
34	0xbe35bec6	-0.17748556
35	0xbd962d39	-0.07332844
36	0xbd495c63	-0.049160372
37	0x3a9f2388	0.0012141326
38	0x3e147bbc	0.14500326
39	0xbde93e6d	-0.1138886
40	0x3cd5d43d	0.02610218
41	0x3e5ed677	0.217615
42	0x3e336971	0.17520691
43	0xbde4ed2c	-0.111780494
44	0xbe2cf23c	-0.1688928
45	0xbe2a383c	-0.16623014
46	0xbde23171	-0.110445864
47	0x3c748461	0.01492414
48	0xbe0bfd47	-0.13670836
49	0xbdabc2d6	-0.083867714
50	0x3d762938	0.060097903
51	0xbdfd3c49	-0.12365014
52	0xbbb44234	-0.005501056
53	0x3d38cc9b	0.045117002
54	0x3bdcd6f1	0.00673949
55	0x3e473bd6	0.1945642
56	0x3dc1c6fa	0.0946178
57	0x3e32abee	0.17448398
58	0x3e2c3d7e	0.16820332
59	0xbe0eb659	-0.13936748
60	0x3ceb4639	0.028720008
61	0x3da15541	0.07877589
62	0x3e2e9ecf	0.17052768
63	0xbde3aac6	-0.11116557
64	0x3d1b28f4	0.037880853
65	0xbe08cd56	-0.1335958
66	0x3e1c0a75	0.15238364
67	0xbe8012d5	-0.25014368
68	0xbdf7d913	-0.121019505
69	0xbe26a4b0	-0.16273761
70	0xbcecf57e	-0.028925654
71	0xbd26273f	-0.04056477
72	0xbd42f565	-0.047597308
73	0xbe0bbe95	-0.1364692
74	0xbd8290a8	-0.06375247
75	0xbd3220b2	-0.043488212
76	0xbd6d9769	-0.058005724
77	0x3e48e98f	0.19620346
78	0xbe365de1	-0.1780925
79	0x3d951ac2	0.07280494
80	0xbdcf1c10	-0.10112774
81	0xbe196640	-0.14980412
82	0xbe63090c	-0.2217142
83	0xbe5b0165	-0.2138725
84	0xbe538ec2	-0.20659927
85	0x3c2f83a4	0.010712538
86	0xbe599279	-0.21247281
87	0x3e0be47e	0.13661382
88	0xbda2f15f	-0.07956194
89	0xbde7594b	-0.11296328
90	0xbe3e18e3	-0.18564181
91	0xbd7c0d6a	-0.06153623
92	0xbdd3f2d7	-0.103490524
93	0x3dd669bc	0.10469386
94	0x3e0f2596	0.13979182
95	0x3b020674	0.0019840272
96	0xbe17a748	-0.14809906
97	0xbd9dce8f	-0.077054136
98	0xbe15a944	-0.14615351
99	0x3cecd8fe	0.028912064
100	0xbe015cd4	-0.12633067
101	0x3da4fa07	0.080555014
102	0x3dc7b7d1	0.09751857
103	0x3dc24241	0.09485293
104	0xbe37fb5e	-0.17966983
105	0x3e14fc22	0.14549306
106	0x3e3d9f69	0.18517841
107	0xbdb9ef2e	-0.09078823
108	0x3ddfacd2	0.10921635
109	0xbe83f7b8	-0.25774932
110	0xbe13faec	-0.14451188
111	0xbe20c0d5	-0.1569856
112	0xbe560c08	-0.20903027
113	0x3d2c77ac	0.042106315
114	0x3df2783b	0.118393384
115	0x3d766784	0.060157314
116	0xbd9fe62f	-0.07807576
117	0xbe3231c6	-0.174018
118	0x3bad8674	0.005295569
119	0x3dfb3cc3	0.12267449
120	0xbe4ccd4f	-0.20000194
121	0x3d9cf903	0.07664683
122	0x3e163b4a	0.14671054
123	0xbe000654	-0.12502414
124	0x3d9e82e8	0.07739812
125	0x3da71bb1	0.081595786
126	0x3c6c5be9	0.01442621
127	0x3d3633fc	0.04448317
128	0x3dd18b68	0.10231668
129	0xbe072126	-0.13196239
130	0xbd8f7f6c	-0.07006726
131	0xbd8ce44b	-0.06879481
132	0xbe1be637	-0.15224539
133	0xbd8aa5d0	-0.067699075
134	0x3db207f3	0.086929224
135	0xbe42b1c8	-0.1901313
136	0x3c38bb6e	0.0112751555
137	0x3d801b18	0.06255168
138	0xbcad0a1f	-0.02112299
139	0x3cc9dc6d	0.02464124
140	0xbda28248	-0.079350054
141	0x3d8725d2	0.065990105
142	0xbded338e	-0.11582099
143	0x3d619be9	0.055080328
144	0xbcf9bdd3	-0.030486023
145	0x3cc98e8c	0.024604104
146	0x3d252b7b	0.04032467
147	0xbd2b3d98	-0.041806787
148	0xbe22756b	-0.15865104
149	0xbe2531f9	-0.16132344
150	0x3d93f0e2	0.07223679
151	0x3d2434d7	0.040089455
152	0xbdae9eb2	-0.085263625
153	0xbd72d4a0	-0.059284806
154	0xbbf60323	-0.007507698
155	0xbe419ae3	-0.18906741
156	0x3d212e94	0.03935106
157	0xbd982ed3	-0.07430806
158	0xbe2d0d5b	-0.16899626
159	0xbe153b60	-0.14573431
160	0x3e1139e7	0.14182244
161	0xbe5b9cd9	-0.21446551
162	0x3e13c0bc	0.14428991
163	0x3dcfcf7e	0.10146998
164	0xbe00533c	-0.12531751
165	0x3cd25230	0.025673956
166	0xbe065266	-0.1311737
167	0xbd59600f	-0.053070124
168	0x3e7072b5	0.23481257
169	0x3e094130	0.13403773
170	0x3e365fad	0.17809935
171	0xbd0be5ca	-0.03415469
172	0x3e0d2a59	0.13785686
173	0x3e2249f3	0.15848522
174	0x3db23d35	0.087030806
175	0xbd9a004c	-0.07519588
176	0xbda38df2	-0.07986058
177	0xbd7f836d	-0.062381197
178	0xbcb98c6d	-0.022649968
179	0x3e386beb	0.18009917
180	0xbd962325	-0.07330922
181	0x3e39ee51	0.18157317
182	0x3df5522b	0.11978563
183	0xbdc9edcd	-0.0985981
184	0x3cc1a0dd	0.023636276
185	0x3e491d08	0.19639981
186	0xbe39b244	-0.18134409
187	0x3dbb530b	0.091466986
188	0x3e48b247	0.19599257
189	0x3cc35d57	0.023848219
190	0x3b656fc2	0.003500924
191	0x3d00583c	0.031334147

bias f4 [8]
0	0xbe124a1f	-0.14286087
1	0x3e358810	0.17727685
2	0xbd80b005	-0.06283573
3	0xbd6db32d	-0.058032203
4	0xbe33d58d	-0.17561932
5	0xbd9bb055	-0.07601992
6	0x3d4fc858	0.050728172
7	0x3e40c218	0.18824041

weight f4 [8]
0	0x3f8073ab	1.0035299
1	0x3f8715b0	1.0553493
2	0x3f821044	1.0161214
3	0x3f7b26af	0.981059
4	0x3f81038d	1.0079209
5	0x3f7eee6b	0.99582547
6	0x3f81401b	1.0097688
7	0x3f7e9918	0.9945235

bias f4 [8]
0	0x3d875d59	0.066096015
1	0x3bce60a5	0.006298142
2	0x3cc39727	0.023875786
3	0xbc9c14e9	-0.01905294
4	0x3ca92a66	0.0206501
5	0x3db38654	0.087658554
6	0x3d9bff45	0.07617048
7	0x3c034a0a	0.008013258

running_mean f4 [8]
0	0xbeae2fae	-0.34020752
1	0x3ddb1649	0.1069761
2	0xbd9f3bff	-0.07775115
3	0xbeeb332b	-0.45937476
4	0xbec9315f	-0.3929548
5	0xbe430820	-0.19046068
6	0xbe697fec	-0.22802705
7	0x3f0982a2	0.53714955

running_var f4 [8]
0	0x3d6fbc99	0.05852947
1	0x3ddb61f5	0.10712043
2	0x3e0aea52	0.13565949
3	0x3dad6df6	0.08468239
4	0x3d7a23fb	0.06106947
5	0x3c1a3293	0.009411472
6	0x3d341b10	0.04397112
7	0x3d8f69d5	0.07002608

weight f4 [8, 8, 3]
0	0xbd6ee2a6	-0.058321618
1	0xbe44d2a2	-0.19220975
2	0x3dc52278	0.09625715
3	0xbe232996	-0.15933833
4	0x3e4cdf56	0.20007071
5	0x3d5919ca	0.05300311
6	0xbdef5776	-0.11686604
7	0xbe8c6afb	-0.2742537
8	0xbd2e7224	-0.04258932
9	0xbd4ff866	-0.050774
10	0x3e27bb22	0.16379979
11	0x3c47810c	0.012176763
12	0xbdd00a5d	-0.10158227
13	0x3e35367e	0.17696568
14	0x3ddbf32c	0.10739741
15	0xbe069271	-0.131418
16	0x3e72539d	0.23664708
17	0x3d688932	0.056771465
18	0xbd4cb9b1	-0.049981777
19	0xbde81b9f	-0.11333393
20	0x3dcb81b2	0.09936847
21	0x3db117d3	0.08647122
22	0xbd702227	-0.05862632
23	0xbe4f5f60	-0.20251226
24	0x3d6beca9	0.057598744
25	0xbe256065	-0.16150053
26	0x3e019942	0.1265612
27	0xbe151317	-0.14558063
28	0x3de47312	0.111547604
29	0xbcfcdbc2	-0.030866507
30	0xbd90e538	-0.0707497
31	0xbd5d091d	-0.05396377
32	0x3e03ae89	0.12859549
33	0xbdbabc55	-0.09117953
34	0xbd8b56c2	-0.06803657
35	0xbd2bb4dd	-0.04192053
36	0xbe2b7d0d	-0.16746922
37	0xbd3a2562	-0.045445807
38	0xbe208df3	-0.1567915
39	0x3e0ecb27	0.13944684
40	0x3d52c2d3	0.05145533
41	0xbe1b5042	-0.15167335
42	0xbcf5ccec	-0.03000494
43	0x3e4234ac	0.18965405
44	0x3e625fa6	0.221068
45	0xbdd4b144	-0.10385373
46	0xbda67266	-0.081272885
47	0xbe0c1615	-0.13680299
48	0xbe2c09af	-0.16800569
49	0xbcc5bebb	-0.024138799
50	0x3de911e5	0.11380366
51	0xbc80a183	-0.015702015
52	0x3e208492	0.15675572
53	0xbe61d346	-0.2205325
54	0x3d804bb7	0.062644415
55	0x3df08b82	0.11745359
56	0xbe21c0a4	-0.15796143
57	0xbdc73007	-0.09725957
58	0x3da80e53	0.08205857
59	0x3ce95219	0.02848153
60	0x3d8a9332	0.067663565
61	0xbc61360f	-0.013745799
62	0x3d81357f	0.06309032
63	0xbd598128	-0.05310169
64	0xbdac97ab	-0.08427366
65	0xbd50b27a	-0.05095146
66	0xbddedd57	-0.10882061
67	0x3d8a8aeb	0.06764778
68	0xbdba88de	-0.091081366
69	0x3dbde21d	0.09271643
70	0xbd289bf9	-0.041164372
71	0x3e5514f9	0.20808782
72	0x3dff9b22	0.12480761
73	0x3d9286ef	0.07154643
74	0x3d58ed67	0.05296078
75	0xbdc5efb3	-0.096648596
76	0xbd6fafe6	-0.05851736
77	0xbced9501	-0.029001715
78	0xbdbf5356	-0.09342067
79	0xbdca328e	-0.09872924
80	0x3e7b7611	0.24556758
81	0x3cc9a8f3	0.024616694
82	0xbdd031f6	-0.10165779
83	0xbe3f18b4	-0.18661767
84	0x3dcc6398	0.099799335
85	0x3e0801a9	0.13281883
86	0xbdf993a4	-0.12186363
87	0xbdbb3a7a	-0.09142013
88	0xbc963f8e	-0.018340852
89	0xbda919a9	-0.082568474
90	0xbd46c3bf	-0.04852652
91	0x3dff4d0c	0.124658674
92	0xbd0bcad5	-0.034128983
93	0xbd1e5c31	-0.03866214
94	0xbdfd65d1	-0.123729356
95	0x3e102bec	0.14079255
96	0xbb5e2841	-0.0033898505
97	0xbe62db14	-0.22153884
98	0xbdd7f1a1	-0.10544134
99	0x3d979db8	0.07403129
100	0xbe2353d0	-0.1594994
101	0x3cfe73ad	0.031061018
102	0x3d9c7dd8	0.0764119
103	0xbe545e68	-0.20739138
104	0xbcb3e5b7	-0.021960123
105	0x3d653c71	0.055965845
106	0xbcfdfd1d	-0.031004483
107	0x3d946482	0.07245733
108	0x3ddbac60	0.10726237
109	0x3e56ed63	0.20988993
110	0xbe4a3e7b	-0.19750397
111	0x3dbce43f	0.09223222
112	0xbcf46acd	-0.029836083
113	0x3c60df78	0.013725154
114	0x3e0eb632	0.1393669
115	0x3ca3e37f	0.02000594
116	0xbe344314	-0.17603713
117	0x3df3b279	0.11899275
118	0xbde37340	-0.111059666
119	0xbd44c97d	-0.048043717
120	0x3d8a8f45	0.06765608
121	0x3d31cb81	0.043406967
122	0xbd98ddd4	-0.07464185
123	0xbdfe1dae	-0.12408005
124	0xbdd6ce9d	-0.10488627
125	0xbe7eebed	-0.24894686
126	0xbe239caa	-0.15977731
127	0x3e05831b	0.13038294
128	0xbcad6733	-0.021167373
129	0x3d1a1e11	0.03762633
130	0x3d3bf3c9	0.04588679
131	0x3d8306e5	0.063977994
132	0xbd66ee0c	-0.056379363
133	0xbe09d816	-0.13461336
134	0x3df99159	0.12185926
135	0xbe256098	-0.16150129
136	0xbe4840cd	-0.1955597
137	0x3e437d13	0.19090681
138	0x3d632535	0.055455405
139	0xbc0e645e	-0.008690922
140	0x3e1f6ea0	0.15569544
141	0xbe4b1bd6	-0.19834837
142	0xbe0c72b5	-0.13715632
143	0xbdf3dbff	-0.11907195
144	0x3e480627	0.19533597
145	0xbdb766b0	-0.08955133
146	0x3c831616	0.016001742
147	0xbbdf6fc6	-0.0068187444
148	0x3e61dcd2	0.22056893
149	0xbe46cb30	-0.19413447
150	0x3a828790	0.0009958614
151	0xbd6ee817	-0.058326807
152	0xbd1956c5	-0.037436265
153	0xbde25f34	-0.11053315
154	0x3e0dcb3d	0.1384706
155	0xbcfd2bcf	-0.030904679
156	0x3e418490	0.18898225
157	0x3ddbf06a	0.10739215
158	0xbe452cbc	-0.19255346
159	0x3dd0efbd	0.102019764
160	0x3e3e96fe	0.18612286
161	0x3e307424	0.17231804
162	0x3d53f69e	0.051748864
163	0x3dab2121	0.08355928
164	0x3ba04a2d	0.004891655
165	0xbdddd452	-0.108315125
166	0xbd96760d	-0.07346735
167	0x3d1b8a6e	0.037973814
168	0x3df8e260	0.121525526
169	0xbe4b546c	-0.19856423
170	0xbd989f99	-0.07452316
171	0x3d6ab405	0.057300586
172	0x3e61f25f	0.22065113
173	0x3de6e9b6	0.112750456
174	0x3dee7ca6	0.116448686
175	0x3e2ea01c	0.17053264
176	0x3e040be1	0.12895156
177	0xbd9550f5	-0.07290832
178	0xbd452310	-0.04812914
179	0xbe0b40bc	-0.13598913
180	0xbdb7b0d1	-0.08969272
181	0xbe0e682a	-0.13906923
182	0x3e0e4d53	0.13896684
183	0xbd7a97f7	-0.06118008
184	0xbe1270a3	-0.1430078
185	0xbd82a600	-0.06379318
186	0xbe06f9fe	-0.13181302
187	0xbe2a4145	-0.16626461
188	0x3e0d65e2	0.13808396
189	0xbddb042a	-0.106941536
190	0x3e3ec822	0.18631032
191	0xbe07eba2	-0.1327348

bias f4 [8]
0	0xbe3978fc	-0.18112558
1	0xbe0ad5b2	-0.13558081
2	0xbde72395	-0.112860836
3	0xbc67ef72	-0.014156209
4	0xbe4cd08b	-0.20001428
5	0xbe371dec	-0.17882508
6	0xbe32e6bc	-0.1747083
7	0x3d82f829	0.06394989

weight f4 [8]
0	0x3f7c2ea9	0.985087
1	0x3f7cb834	0.9871857
2	0x3f8455ac	1.0338645
3	0x3f79d646	0.9759258
4	0x3f8189f0	1.012022
5	0x3f80b774	1.0055985
6	0x3f7d6cd0	0.9899416
7	0x3f83528e	1.0259569

bias f4 [8]
0	0x3d23af9d	0.0399624
1	0xbd8b476d	-0.06800733
2	0x3d8c237c	0.068427056
3	0xbc43d0c1	-0.011951626
4	0x3cf832ed	0.03029772
5	0x3d127016	0.035751425
6	0x3d01e710	0.0317145
7	0x3d0cfe31	0.034422103

running_mean f4 [8]
0	0xbe6cf5a9	-0.23140587
1	0xbe9d6c08	-0.30746484
2	0xbe04281e	-0.12905928
3	0xbd9ffc8a	-0.0781184
4	0xbe8dfcc6	-0.27731913
5	0xbecc9f68	-0.39965367
6	0x3d1418fb	0.036156636
7	0xbd87bf7d	-0.0662832

running_var f4 [8]
0	0x3e879666	0.26481932
1	0x3e2d0b40	0.16898823
2	0x3d89ed4a	0.067347124
3	0x3d797e42	0.060911424
4	0x3d7826cd	0.06058388
5	0x3e35e443	0.17762856
6	0x3e5100c7	0.20410453
7	0x3ed1e9bf	0.40998647

weight f4 [8, 8, 3]
0	0x3dc8bec9	0.098020144
1	0xbd0653c3	-0.032794725
2	0xbdac8bc7	-0.08425098
3	0xbd476cb2	-0.048687644
4	0x3e563fcd	0.20922776
5	0x3e715730	0.23568416
6	0xbdd738eb	-0.10508903
7	0x3d800dd3	0.06252637
8	0x3e508cac	0.20366162
9	0x3df81b58	0.121145904
10	0xbe134868	-0.1438309
11	0xbe6eb773	-0.23312168
12	0x3e0e6997	0.13907467
13	0x3dc6ed66	0.09713249
14	0xbc321327	-0.010868824
15	0xbdeef117	-0.11667078
16	0xbe1b3f3f	-0.15160845
17	0xbe03abae	-0.1285846
18	0x3e1e9d4f	0.15489696
19	0xbdc1b64c	-0.094585985
20	0xbda38fb8	-0.079863966
21	0xbe607315	-0.219189
22	0xbd8c20f9	-0.068422265
23	0x3e1e6658	0.15468729
24	0x3cfb45b0	0.030672878
25	0xbdc6e952	-0.09712471
26	0xbe2c3e20	-0.16820574
27	0x3e7db9dd	0.24777932
28	0xbc50a4ef	-0.012734636
29	0x3e4d34af	0.20039628
30	0xbd24101f	-0.040054437
31	0x3e6c0ad4	0.23051006
32	0x3de54f0b	0.11196717
33	0x3d86744a	0.06565149
34	0x3e06ce9f	0.13164757
35	0x3dcc306e	0.09970175
36	0x3bd4d3f1	0.006494992
37	0xbd8d0dc8	-0.06887394
38	0x3c13cae6	0.009020543
39	0x3d52abe5	0.051433463
40	0xbd8db0c7	-0.06918483
41	0x3dd4aa31	0.10384024
42	0xbd6e3294	-0.058153704
43	0x3d0108ef	0.03150266
44	0xbe4288b1	-0.18997456
45	0x3e38ff02	0.18066028
46	0x3da33635	0.079693235
47	0xbd2727b9	-0.040809367
48	0xbdd4a0fc	-0.10382268
49	0xbd9e26fc	-0.077222794
50	0xbe15be63	-0.14623408
51	0xbda25bbd	-0.07927654
52	0xbdf3424b	-0.11877879
53	0x3cf894bc	0.03034436
54	0x3e2be52a	0.16786638
55	0xbe1ed2d3	-0.1551011
56	0xbe015652	-0.12630585
57	0xbe06f357	-0.13178764
58	0x3e515f79	0.20446576
59	0xbd0b23c8	-0.03396967
60	0xbd9d874c	-0.076918215
61	0xbe11901d	-0.14215131
62	0xbdabc375	-0.0838689
63	0x3d360223	0.04443563
64	0x3dded86c	0.10881123
65	0xbe3aff80	-0.18261528
66	0x3d6d737c	0.057971463
67	0xbbbe9969	-0.0058166278
68	0xbd66629a	-0.056246378
69	0x3af0e30e	0.0018378214
70	0xbe07ae1f	-0.13250016
71	0x3e57ae0f	0.21062492
72	0xbd794fe1	-0.060867194
73	0x3e1c0212	0.15235165
74	0xbd6bf0fa	-0.05760286
75	0x3db1a928	0.08674842
76	0xbd6f6751	-0.05844814
77	0x3c6bf627	0.014401949
78	0xbd10afaa	-0.035323776
79	0x3dd5646f	0.10419547
80	0xbcc68b19	-0.024236249
81	0xbe07c3a5	-0.13258226
82	0xbe06a50f	-0.13148902
83	0xbe093703	-0.13399892
84	0x3dcfa008	0.101379454
85	0xbde0a5c0	-0.10969114
86	0x3db338cf	0.0875107
87	0x3e13c470	0.14430404
88	0xbd049c59	-0.032375667
89	0x3e3ed11a	0.18634453
90	0xbe164698	-0.14675367
91	0xbd5380c9	-0.05163649
92	0xbde2477c	-0.11048791
93	0xbe1da468	-0.15394747
94	0xbdf16f0a	-0.11788757
95	0x3d50d51d	0.05098449
96	0xbe0eb263	-0.13935237
97	0xbda281d8	-0.07934922
98	0x3ddbcb2c	0.10732111
99	0x3de1532f	0.11002194
100	0x3d0bc5a5	0.034124035
101	0x3ba4deab	0.005031427
102	0x3de42c08	0.11141211
103	0x3e04ae39	0.12957086
104	0x3e350b80	0.17680168
105	0xbe0d8a51	-0.13822295
106	0x3d934a7c	0.07191941
107	0xbdc469ea	-0.09590514
108	0x3e348969	0.17630543
109	0x3e01288a	0.1261312
110	0xbc5360f5	-0.012901534
111	0x3d8c7156	0.068575546
112	0x3e410098	0.18847883
113	0x3d4868ca	0.04892806
114	0x3e20402b	0.15649478
115	0x3e4b4204	0.19849402
116	0x3d9b7f0f	0.07592594
117	0x3e7b244c	0.24525565
118	0x3d76aa12	0.060220785
119	0x3dc8c8ce	0.098039255
120	0x3dc1b11c	0.09457609
121	0xbdda1d95	-0.106501736
122	0xbe5ba2da	-0.21448842
123	0x3e0f8ffa	0.14019766
124	0x3d82465e	0.06361078
125	0x3e1c1c4a	0.15245166
126	0xbe45ad22	-0.19304326
127	0x3d42d3ef	0.047565397
128	0xbe2ee0cc	-0.1707794
129	0xbda3c87d	-0.079972245
130	0x3e11f380	0.14253044
131	0x3dcce462	0.10004498
132	0x3da12160	0.07867694
133	0x3dd9af10	0.10629094
134	0x3de98132	0.11401595
135	0xbe1296f3	-0.14315395
136	0x3d52ccea	0.051464953
137	0x3e650b3e	0.2236757
138	0x3e204957	0.15652977
139	0x3e4afa49	0.19822039
140	0x3d9dc1dd	0.07702992
141	0xbde66697	-0.11250036
142	0xbcce6d3a	-0.025198568
143	0xbe25dd26	-0.16197643
144	0xbe19dfdc	-0.15026802
145	0xbe21d8af	-0.15805314
146	0xbd3a5564	-0.04549159
147	0xbe18f8c9	-0.14938654
148	0x3c549581	0.012975098
149	0x3d14bd59	0.03631339
150	0x3dad4781	0.08460904
151	0xbcc35dba	-0.023848403
152	0x3d3a2a86	0.04545071
153	0x3dca6d83	0.09884169
154	0xbe2e23ca	-0.1700584
155	0xbcf19199	-0.029488372
156	0x3e3b0b9e	0.1826615
157	0x3e1e51cd	0.15460892
158	0x3e11be0b	0.14232652
159	0x3e269d64	0.16270977
160	0x3e46f569	0.19429554
161	0xbe680e04	-0.22661597
162	0x3c9b9dd0	0.01899615
163	0x3e33f9c4	0.17575747
164	0x3df0187a	0.117234185
165	0x3dd49abe	0.10381077
166	0x3e4bc292	0.19898441
167	0xbdfeb2de	-0.1243646
168	0x3ca07f8a	0.019592065
169	0xbdfd2cfc	-0.12362096
170	0xbe12784c	-0.14303702
171	0x3e0eacb3	0.13933067
172	0x3d8c5a88	0.06853205
173	0x3dfe55ca	0.12418707
174	0x3e210452	0.15724304
175	0xbe4ad5e4	-0.19808155
176	0xbd7b63d7	-0.06137451
177	0xbdaffb1b	-0.085928164
178	0xbd9fe5ee	-0.078075275
179	0x3dc32a55	0.095295586
180	0x3e66985e	0.22519061
181	0xbd63aecd	-0.055586625
182	0x3d849b41	0.06474925
183	0xbda17694	-0.07883945
184	0x3dc8387e	0.097764
185	0x3dda7734	0.106672674
186	0x3d6d176d	0.05788367
187	0x3d7a20f8	0.061066598
188	0xbe0c5b5a	-0.13706723
189	0xbdd52442	-0.10407306
190	0xbe0be182	-0.13660243
191	0xbe2a14aa	-0.16609445

bias f4 [8]
0	0x3d4a868b	0.049444716
1	0x3da7fa9b	0.08202096
2	0xbd4b35ee	-0.04961198
3	0x3e28416f	0.16431211
4	0x3a8c04e3	0.0010682609
5	0xbc8d351c	-0.017237239
6	0x3e3bff65	0.18359144
7	0xbe3d1c38	-0.18467796

weight f4 [8]
0	0x3f82be10	1.0214252
1	0x3f7cab1f	0.9869861
2	0x3f8403f1	1.0313703
3	0x3f847861	1.0349237
4	0x3f807838	1.0036688
5	0x3f7b29a3	0.9811041
6	0x3f7ef0ba	0.9958607
7	0x3f74656d	0.95467263

bias f4 [8]
0	0x3d81a198	0.0632965
1	0x3c87e460	0.01658839
2	0x3cda57d7	0.026653213
3	0xbbad2e45	-0.005285057
4	0x3c722ca1	0.014781148
5	0x3caf94ee	0.02143332
6	0x3c39337a	0.011303777
7	0x3c92b2b5	0.01790748

running_mean f4 [8]
0	0xbbe644d3	-0.0070272475
1	0x3e975901	0.29560092
2	0xbe86e96d	-0.26349965
3	0x3cf307d9	0.029666828
4	0x3f1bee79	0.60910755
5	0x3da84e4a	0.082180575
6	0x3ed9117c	0.42396152
7	0xbe9c2cd1	-0.30502942

running_var f4 [8]
0	0x3dce07d9	0.100600906
1	0x3e08cb48	0.13358796
2	0x3ddb2d0d	0.10701952
3	0x3ddd6c6a	0.10811694
4	0x3e2ffc15	0.17186005
5	0x3ec77b96	0.38961476
6	0x3e350d03	0.17680745
7	0x3de157ee	0.110030994

weight f4 [8, 8, 3]
0	0xbdb6faee	-0.0893458
1	0x3e27c9b6	0.1638554
2	0xbdf597a5	-0.119918145
3	0xbd6bc85b	-0.05756412
4	0x3e00cb16	0.12577471
5	0x3e2f6097	0.1712669
6	0xbe36c295	-0.17847665
7	0xbdf2ee54	-0.11861864
8	0xbe00705b	-0.1254286
9	0x3dfabe97	0.122433834
10	0xbd8d2cca	-0.068933085
11	0xbda6bcff	-0.08141517
12	0x3d6230e6	0.055222414
13	0xbe402115	-0.1876262
14	0x3e104cbd	0.14091773
15	0xbdb23e32	-0.08703269
16	0x3b9f1629	0.0048549366
17	0xbcadf29e	-0.021233853
18	0xbdaf3536	-0.08555071
19	0xbd822619	-0.06354923
20	0x3e609433	0.21931534
21	0xbd8138e1	-0.06309677
22	0x3df3acdf	0.11898207
23	0xbcc4d52b	-0.024027428
24	0xbd783cc0	-0.06060481
25	0x3e22a9a5	0.15885027
26	0xbb9cdb3c	-0.004786877
27	0xbd4483a2	-0.047977097
28	0x3d5a170a	0.053244628
29	0x3e45a4a9	0.19301094
30	0xbd88c055	-0.066773094
31	0xbe17f13a	-0.14838114
32	0x3e5e7cea	0.21727338
33	0x3e05ab55	0.13053639
34	0x3e1a1027	0.15045224
35	0x3c13904a	0.009006569
36	0xbe29cc12	-0.16581753
37	0xbe6b6fd1	-0.22991873
38	0x3df16fa4	0.11788872
39	0xbd883b24	-0.06651905
40	0x3e321ad2	0.17393044
41	0x3cb2536e	0.021768298
42	0x3da01120	0.07815766
43	0xbe481fa5	-0.19543321
44	0xbe35298f	-0.17691635
45	0x3d0885f2	0.033330865
46	0x3c32afb9	0.010906153
47	0xbdaabd77	-0.08336919
48	0x3c7fd5cc	0.015614938
49	0x3cae3530	0.021265596
50	0xbe0efecc	-0.13964385
51	0xbe2c0fdf	-0.1680293
52	0x3dc02c4f	0.09383451
53	0x3d309a19	0.04311571
54	0xbe606fb1	-0.21917607
55	0xbc80efac	-0.015739284
56	0x3b95c389	0.0045704287
57	0x3e42c2b7	0.1901959
58	0x3e01c7d4	0.12673885
59	0xbd1eb929	-0.0387508
60	0xbd0834fe	-0.033253662
61	0x3c205915	0.009786864
62	0xbe0e34e0	-0.13887358
63	0x3bdf019e	0.0068056127
64	0xbd5040fd	-0.050843228
65	0xbe0a2f72	-0.13494661
66	0xbdb60709	-0.088880606
67	0x3de2534c	0.11051044
68	0x3e36be34	0.17845994
69	0xbdb7ca75	-0.089741625
70	0x3e1154e7	0.14192544
71	0xbddd05d0	-0.10792124
72	0x3dabcf4a	0.083891466
73	0xbdc97a97	-0.09837835
74	0xbdd5f80b	-0.10447701
75	0xbe61421c	-0.21997875
76	0xbd7b8cc8	-0.061413556
77	0x3e1c32c9	0.15253748
78	0x3d9e676d	0.07734571
79	0x3ce525af	0.02797207
80	0xbde15bb0	-0.11003816
81	0xbcb92ecc	-0.022605322
82	0x3d44d37e	0.048053257
83	0xbde0c86e	-0.10975729
84	0xbd8178df	-0.063218825
85	0xbd89dc0a	-0.06731422
86	0x3e114863	0.1418777
87	0x3e000229	0.12500824
88	0x3ccb2c8e	0.024801519
89	0xbe3e6b7f	-0.18595694
90	0xbd74b4c6	-0.05974271
91	0xbe0ebf5c	-0.13940185
92	0xbc768cb7	-0.0150481975
93	0x3cfc4a07	0.030797018
94	0xbc102dc6	-0.008799976
95	0x3dd8372a	0.10557397
96	0x3d194d8f	0.03742748
97	0x3dc0c07f	0.09411716
98	0xbd190a60	-0.03736341
99	0x3e31ee6c	0.17376107
100	0xbdf8d5ca	-0.12150152
101	0xbc9e06b1	-0.0192903
102	0x3d720c50	0.059093773
103	0xbda5be61	-0.080929525
104	0x3e197d05	0.14989097
105	0xbe3e77f7	-0.1860045
106	0x3cbf88d8	0.023380682
107	0x3e59eed7	0.21282516
108	0x3dd95796	0.10612409
109	0xbd7e70a8	-0.062119156
110	0xbe4e57a9	-0.20150627
111	0x3ce3b4e0	0.027796209
112	0xbc2e3375	-0.0106323855
113	0xbe03309d	-0.12811513
114	0xbdc5034f	-0.09619772
115	0x3d7833ce	0.06059628
116	0x3e0cf682	0.1376591
117	0xbbe6a71a	-0.007038963
118	0x3c32b02b	0.0109062595
119	0x3d8b4aff	0.06801414
120	0xbdbf7099	-0.09347648
121	0xbe1bfef6	-0.15233979
122	0xbdc493eb	-0.095985256
123	0xbe1e0ac0	-0.15433788
124	0xbd848af5	-0.064718165
125	0x3e38ca8f	0.1804602
126	0x3e0c4aa5	0.1370035
127	0xbd097f4f	-0.033568677
128	0xbe51b089	-0.20477499
129	0xbd415d0b	-0.047207873
130	0xbe383e2c	-0.17992467
131	0x3e4ddd64	0.20103985
132	0xbd74b347	-0.059741285
133	0xbd84181b	-0.0644991
134	0xbdd49f65	-0.103819646
135	0x3bc32caf	0.0059562544
136	0xbe3fb316	-0.1872066
137	0x3d6790da	0.056534626
138	0x3e23b73e	0.1598787
139	0xbd805ac8	-0.06267315
140	0x3df09e68	0.117489636
141	0x3e00a9db	0.12564795
142	0xbe7f83c6	-0.24952611
143	0x3dca2e1b	0.09872075
144	0xbd2daa14	-0.042398527
145	0xbe74f94d	-0.23923226
146	0xbdd1b4c6	-0.10239558
147	0xbc8c0b2b	-0.017095169
148	0x3e30db78	0.1727122
149	0xbd5c7a62	-0.05382765
150	0xbd516a47	-0.051126745
151	0xbe5b6507	-0.21425258
152	0xbde0b1e4	-0.1097143
153	0x3c7a3455	0.015271266
154	0xbe12065a	-0.14260235
155	0x3db3f1a8	0.08786327
156	0xbe4cb9e8	-0.19992793
157	0xbdf3de4c	-0.11907634
158	0x3d6a5cba	0.057217337
159	0xbdff1a0d	-0.12456141
160	0x3da5d0f9	0.08096499
161	0xbe33d615	-0.17562135
162	0x3e326911	0.17422892
163	0x3dcad48d	0.09903822
164	0x3dde916a	0.10867579
165	0x3db19894	0.0867168
166	0x3d28ffd4	0.0412596
167	0x3dc798ee	0.09745966
168	0xbdb9400a	-0.090454176
169	0xbe177f95	-0.14794762
170	0xbd370dc4	-0.044690862
171	0xbdabcf7b	-0.08389183
172	0xbe50cfad	-0.20391722
173	0xbded9521	-0.1160071
174	0x3df33dbe	0.11877011
175	0xbe209124	-0.15680367
176	0x3d2453ad	0.040118862
177	0x3df6d613	0.1205255
178	0xbe24031e	-0.16016814
179	0xbd936649	-0.07197244
180	0x3c13191f	0.008978157
181	0x3dfa330a	0.12216766
182	0x3d930078	0.07177824
183	0x3e1e865c	0.15480942
184	0x3dda5012	0.106598035
185	0xbd9c1be8	-0.0762251
186	0xbc67c640	-0.014146388
187	0xbe3031c8	-0.1720649
188	0xbd0887c9	-0.03333262
189	0xbdd0e84a	-0.102005556
190	0xbd8a3078	-0.06747526
191	0xbdfe2721	-0.12409807

bias f4 [8]
0	0xbe33b362	-0.17548898
1	0x3e0b17fc	0.13583368
2	0x3d64a898	0.055824846
3	0xbe0cce9d	-0.13750692
4	0x3dc8dc2e	0.09807621
5	0x3d16331b	0.03666983
6	0xbe1f1015	-0.15533479
7	0xbc4b21e8	-0.012398221

weight f4 [8]
0	0x3f7a8241	0.97855
1	0x3f822528	1.0167589
2	0x3f820dd8	1.0160475
3	0x3f85ff85	1.0468603
4	0x3f8382a0	1.0274239
5	0x3f823f0f	1.0175494
6	0x3f7b6d70	0.98213863
7	0x3f7c5bc7	0.9857754

bias f4 [8]
0	0x3d3d92cd	0.04628258
1	0x3d0a7615	0.033804018
2	0x3d0c5fd9	0.034271095
3	0x3d8c8bf3	0.06862631
4	0x3d332e72	0.043745466
5	0x3d917c2b	0.07103761
6	0x3ced250c	0.02894833
7	0x3cfc916a	0.030831058

running_mean f4 [8]
0	0xbe94ded8	-0.29076266
1	0x3e31c90e	0.17361853
2	0xbdb5ea3c	-0.08882567
3	0xbe861622	-0.2618876
4	0x3e212dfc	0.15740198
5	0xbe479caf	-0.19493364
6	0xbebfa09d	-0.37427226
7	0xbe8f73d2	-0.2801805

running_var f4 [8]
0	0x3df01711	0.117231496
1	0x3e12c618	0.1433338
2	0x3d922c2b	0.071373306
3	0x3d7e1935	0.062035758
4	0x3d988ce2	0.07448746
5	0x3e012d9c	0.12615055
6	0x3dcab6dc	0.09898159
7	0x3d94c670	0.072644114

weight f4 [8, 8, 3]
0	0xbe42558b	-0.18977945
1	0x3d9eea6b	0.077595554
2	0xbe096153	-0.13416032
3	0xbd026341	-0.031832937
4	0x3e2fdbe9	0.17173733
5	0x3ddb9fae	0.10723816
6	0x3db510c1	0.08841086
7	0x3cb624eb	0.0222344
8	0xbe1850b0	-0.1487453
9	0x3dfd1957	0.12358349
10	0xbe18d4d8	-0.14924943
11	0x3e344d2a	0.17607561
12	0x3e03e489	0.12880148
13	0xbe245f73	-0.16052036
14	0xbe4ae5ef	-0.19814275
15	0x3cd7eb52	0.026357327
16	0xbe2ac75b	-0.1667761
17	0xbcccb1c2	-0.024987105
18	0x3e0ec70c	0.13943118
19	0x3dbc7018	0.09201068
20	0xbdf1008e	-0.11767684
21	0xbd6b5bec	-0.05746071
22	0x3e1da69d	0.15395589
23	0x3e027205	0.12738807
24	0xbbe55833	-0.0069990396
25	0x3dd142d3	0.10217824
26	0xbdc106d6	-0.09425132
27	0x3cabde43	0.020980006
28	0x3e398fab	0.18121211
29	0xbe1d78ee	-0.15378162
30	0xbd63582a	-0.055504
31	0x3c7277ae	0.014799042
32	0xbd1a2837	-0.037636008
33	0x3dd2f870	0.10301292
34	0xbe3a6ddb	-0.18205969
35	0x3cfd328d	0.030907894
36	0xbb725936	-0.0036979443
37	0x3e1763f9	0.1478423
38	0xbd99162a	-0.074749306
39	0x3e78974a	0.24276462
40	0x3e461d94	0.1934722
41	0xbe608876	-0.21927056
42	0xbde3ef23	-0.11129596
43	0x3e44df64	0.19225842
44	0x3cbdfc62	0.023191635
45	0x3e0bfd31	0.13670804
46	0xbce87f24	-0.028380938
47	0xbe707cc5	-0.23485096
48	0xbd5901f3	-0.052980375
49	0x3e18f36a	0.14936605
50	0x3ba6e69b	0.0050934083
51	0x3d4ff9c9	0.050775323
52	0xbd7c25af	-0.061559375
53	0xbd6d6411	-0.05795676
54	0x3e69f5b3	0.22847633
55	0x3df15de1	0.11785484
56	0xbe4c31d4	-0.19940883
57	0xbc237456	-0.009976467
58	0x3d8378db	0.06419536
59	0xbc9a9793	-0.018871104
60	0x3e2fbcf3	0.17161922
61	0xbd0dde77	-0.034635987
62	0x3cc1bae1	0.023648681
63	0x3dc29ca1	0.09502531
64	0xbe000005	-0.12500007
65	0x3e296920	0.16544008
66	0xbc315c14	-0.010825176
67	0x3cc738bf	0.02431905
68	0xbdfad4d8	-0.12247628
69	0x3c958c0a	0.018255252
70	0x3d039f66	0.032134436
71	0xbe432e90	-0.19060731
72	0xbde930aa	-0.11386235
73	0xbc43b42b	-0.011944811
74	0x3dc475b6	0.09592764
75	0x3de2b257	0.11069172
76	0x3d86651c	0.06562254
77	0xbdcd2de2	-0.10018517
78	0x3e3718fe	0.17880628
79	0x3c4ffd81	0.012694717
80	0x3e236934	0.159581
81	0xbe30a1a9	-0.17249168
82	0xbd41044e	-0.047123246
83	0xbe0ebcc2	-0.13939193
84	0xbd4c7b9d	-0.049922574
85	0x3c9cd6e4	0.019145437
86	0xbde78fc8	-0.11306721
87	0x3e4e32a4	0.20136505
88	0xbe5d63c2	-0.21620086
89	0xbe1ff682	-0.15621379
90	0x3e1c511a	0.15265313
91	0x3e0fca0f	0.14041923
92	0xbd1fe856	-0.039039932
93	0x3e1e0716	0.1543239
94	0xbe09849a	-0.1342949
95	0x3e2bd2db	0.16779654
96	0x3d76163f	0.06007981
97	0x3e3fadf4	0.18718702
98	0x3e16cde8	0.14726985
99	0xbdd4f2a3	-0.10397842
100	0xbc8400fd	-0.016113752
101	0xbdac3ea1	-0.08410383
102	0x3e4d61d6	0.20056853
103	0x3d137c5f	0.03600728
104	0x3cbff0f5	0.023430327
105	0xbe4fb6ca	-0.20284572
106	0x3d398de9	0.04530135
107	0x3dd4f18b	0.10397633
108	0xbd51b9fe	-0.051202767
109	0xbe24e2da	-0.16102162
110	0xbe418154	-0.18896991
111	0x3e58a387	0.2115613
112	0x3c2b8fef	0.010471328
113	0xbdbdd59d	-0.09269259
114	0xbdb53f2a	-0.08849938
115	0xbd62072e	-0.05518263
116	0x3e47a720	0.19497347
117	0xbc92757e	-0.01787829
118	0x3d102189	0.03518823
119	0x3e0f8ecd	0.14019318
120	0x3df4e213	0.11957183
121	0xbe55d32a	-0.20881334
122	0x3dc64c3a	0.09682508
123	0x3ca467e9	0.02006908
124	0xbe70b94e	-0.23508188
125	0x3ca15467	0.019693566
126	0x3e0c56be	0.13704965
127	0xbdcadbf3	-0.09905233
128	0x3e2c435f	0.16822575
129	0x3e43397b	0.19064896
130	0xbe645c16	-0.22300753
131	0x3d2e68d3	0.042580437
132	0xbd70e247	-0.058809545
133	0xbe4bf7ed	-0.19918795
134	0x3d5a89a6	0.053353928
135	0x3e2b4f34	0.16729432
136	0xbe3bd5c7	-0.18343268
137	0x3e359d2e	0.1773574
138	0xbc362c4c	-0.01111896
139	0x3e182002	0.1485596
140	0xbe62eeb7	-0.22161375
141	0x3da3f64b	0.08005961
142	0x3e195612	0.1497424
143	0xbdd40e04	-0.10354236
144	0x3e271b49	0.16319002
145	0xbe074d02	-0.1321297
146	0xbe3de6aa	-0.18545023
147	0xbdee9067	-0.11648636
148	0xbe1b47bc	-0.15164083
149	0xbe3331c3	-0.17499451
150	0x3dd8e0ce	0.10589753
151	0xbc3fc3f3	-0.011704433
152	0xbe068557	-0.13136803
153	0x3da845c4	0.08216432
154	0xbe1e5d3b	-0.15465252
155	0xbdb3c413	-0.087776326
156	0x3dbbd63e	0.09171723
157	0xbe29b7b7	-0.16573988
158	0xbdf76358	-0.12079495
159	0xbe149ef8	-0.14513767
160	0x3ca197a4	0.019725628
161	0x3e035f60	0.12829351
162	0xbdba3f45	-0.09094099
163	0x3e620a20	0.22074175
164	0xbd60d8cf	-0.054894265
165	0xbe37c59c	-0.17946476
166	0x3e213ce9	0.15745892
167	0x3e43c2db	0.191173
168	0x3c8d676d	0.017261231
169	0xbd60cb03	-0.054881107
170	0xbcbd7a48	-0.023129597
171	0x3d436011	0.047699038
172	0xbe39cbf3	-0.18144207
173	0xbe24577d	-0.16048999
174	0x3d562bc5	0.052287836
175	0xbd246751	-0.040137593
176	0x3e4afb63	0.19822459
177	0xbdb461aa	-0.088076904
178	0xbd5ef64d	-0.05443411
179	0xbe56a1e4	-0.20960194
180	0xbe5f2249	-0.21790422
181	0x3d9b91ca	0.075961664
182	0xbe6ed3ac	-0.23322934
183	0x3df6efcf	0.120574586
184	0x3c8e6e27	0.01738651
185	0x3e27c2a6	0.16382846
186	0xbbe96d42	-0.0071236202
187	0x3d1acaae	0.037790947
188	0x3dad52e2	0.08463074
189	0xbe35f8fd	-0.17770763
190	0xbe19bfa7	-0.15014516
191	0x3e0b1131	0.13580777

bias f4 [8]
0	0x3e3bfdc9	0.1835853
1	0x3da9c3da	0.08289309
2	0xbe22800a	-0.15869156
3	0x3d210447	0.03931072
4	0x3ddffc89	0.10936839
5	0x3d965ae6	0.07341556
6	0xbe072759	-0.13198604
7	0xbd7fc5c3	-0.06244446

weight f4 [8]
0	0x3f837391	1.0269643
1	0x3f703b55	0.93840533
2	0x3f73358c	0.9500358
3	0x3f711fed	0.9418934
4	0x3f6e91bb	0.9319112
5	0x3f7d4b8c	0.989434
6	0x3f8504c8	1.0392084
7	0x3f7df835	0.9920686

bias f4 [8]
0	0xbb395b0b	-0.0028283026
1	0xbd5f4cc9	-0.054516587
2	0xbc8ff30a	-0.017571945
3	0xbc09d920	-0.008413583
4	0xbca1a5a9	-0.019732313
5	0x3bbd2af0	0.005772941
6	0xbd492d1a	-0.049115278
7	0xbd0e1a61	-0.034693126

running_mean f4 [8]
0	0x3e482650	0.19545865
1	0x3e127eb3	0.14306144
2	0xbd95a8f3	-0.07307615
3	0x3da31cbe	0.079644665
4	0x3e4a24e6	0.19740638
5	0x3da626e2	0.08112885
6	0xbeb41d38	-0.35178542
7	0xbe815440	-0.2525959

running_var f4 [8]
0	0x3dae0911	0.08497823
1	0x3de4037f	0.11133479
2	0x3da780f8	0.08178896
3	0x3dc51a53	0.096241616
4	0x3e4ee6ad	0.20205183
5	0x3dc185e1	0.094493635
6	0x3dd6157c	0.104533166
7	0x3d619a28	0.055078655

weight f4 [128, 25]
0	0xbd17bcd6	-0.037045322
1	0xbdec8d5a	-0.11550398
2	0xbd4e1d72	-0.05032105
3	0x3e2ccaf9	0.16874303
4	0x3d9d8031	0.07690466
5	0xbe02d81d	-0.12777753
6	0x3d986ba1	0.074424036
7	0x3d50bcb9	0.05096123
8	0x3e43c0a3	0.19116454
9	0xbe284991	-0.16434313
10	0x3c8e880d	0.017398858
11	0x3e3d5b50	0.18491864
12	0xbd6ea47c	-0.058262333
13	0xbb833a43	-0.004004748
14	0x3d88110f	0.06643879
15	0xbd84bf2c	-0.06481776
16	0x3e1c31b6	0.15253338
17	0x3cf30aed	0.029668296
18	0xbdb051d7	-0.0860936
19	0xb90a7826	-0.00013205464
20	0x3d48b016	0.048996054
21	0x3d811eeb	0.06304725
22	0xbd16f0c1	-0.036850695
23	0x3e171e87	0.14757739
24	0xbe35f73d	-0.17770095
25	0xbe1e6c83	-0.15471081
26	0x3c67f7fe	0.014158247
27	0x3d446d9a	0.047956087
28	0xbe1f0392	-0.15528706
29	0xbb27dafd	-0.0025612705
30	0xbd7915c2	-0.060811765
31	0xbc7dad83	-0.015483263
32	0x3df40e0f	0.11916744
33	0x3d80679b	0.06269761
34	0xbe18c93e	-0.14920518
35	0x3e1ab7ac	0.15109128
36	0xbc5d4506	-0.013505226
37	0xbcac3f3f	-0.021026252
38	0x39068e80	0.00012832321
39	0xbb9ff13c	-0.0048810523
40	0xbb90f1f6	-0.0044233752
41	0x3d1a180f	0.0376206
42	0x3d94f3c2	0.072730556
43	0x3e0a6e57	0.13518654
44	0x39d836d9	0.00041239595
45	0xbe30220a	-0.17200485
46	0x3e52b459	0.2057661
47	0xbe249fca	-0.1607658
48	0xbc486987	-0.012232191
49	0x3da61db5	0.08111135
50	0xbdf3d1a9	-0.11905224
51	0x3d5a8c7e	0.05335664
52	0x3e6a70b8	0.22894561
53	0xbc87d4cc	-0.016580962
54	0x3d8bbc69	0.06823046
55	0x3e0a3b2a	0.13499132
56	0x3d6575f7	0.056020703
57	0x3e48f49e	0.19624564
58	0xb9e7d828	-0.00044220802
59	0xbdc8adaa	-0.09798749
60	0x3dc8b8d8	0.09800881
61	0x3d8e5abb	0.06950899
62	0xbe58d9a0	-0.21176767
63	0xbd0204c2	-0.03174282
64	0x3cffc7bb	0.031223169
65	0x3de1e730	0.11030424
66	0xbd902681	-0.07038594
67	0x3e2738e1	0.16330291
68	0xbe6720fb	-0.22571175
69	0xbe01e9ba	-0.12686816
70	0x3dea841f	0.11450981
71	0xbe1e29d1	-0.15445639
72	0xbd2c5a6f	-0.04207843
73	0x3dd8038a	0.1054755
74	0xbe2e1776	-0.17001137
75	0x3e053b60	0.13010931
76	0x3e269df0	0.16271186
77	0xbe08d414	-0.13362151
78	0xbc982180	-0.018570662
79	0x3c413bf3	0.011794078
80	0xbe3e1c87	-0.1856557
81	0xbcebfa9e	-0.028806027
82	0xbc01d752	-0.0079248715
83	0x3e040ec4	0.12896258
84	0xbd97fa92	-0.07420839
85	0x3e2a7126	0.16644725
86	0xbd783b47	-0.060603406
87	0xbe6fce4f	-0.23418544
88	0x3d8882d7	0.06665581
89	0x3e286092	0.16443089
90	0xbe7814eb	-0.2422673
91	0xbd84c7b7	-0.06483405
92	0xbdfad9b8	-0.12248558
93	0xbd445037	-0.04792806
94	0x3cf6e9ba	0.030140746
95	0x3e10abc7	0.14128028
96	0x3e091290	0.13385987
97	0x3d481a04	0.048852935
98	0x3de60983	0.11232283
99	0xbe3bfcac	-0.18358105
100	0xbe2be689	-0.16787161
101	0x3b04212c	0.0020161374
102	0xbe88702b	-0.26648077
103	0x3e1d4dac	0.1536166
104	0x3d6f68d1	0.05844957
105	0xbdc7cbac	-0.09755644
106	0xbdc68f6d	-0.09695325
107	0x3de5c8a8	0.11219913
108	0xbe06377a	-0.131071
109	0xbd883e2f	-0.066524856
110	0x3c9c23a8	0.019059971
111	0x3d1638b0	0.036675155
112	0x3cb027d4	0.021503367
113	0x3e1ee3d4	0.15516597
114	0x3d3ed2f0	0.046587884
115	0xbd891339	-0.066931196
116	0x3e088acb	0.13334195
117	0x3d0ba404	0.034091964
118	0xbe0fd03a	-0.14044276
119	0xbd9113de	-0.070838675
120	0x3e11b7ca	0.14230266
121	0x3dd1ff22	0.10253741
122	0xbdd9c199	-0.10632629
123	0xbd8f46c7	-0.069959216
124	0xbd5c95ae	-0.053853683
125	0x3e4d1b0e	0.20029852
126	0x3e26b24e	0.16278955
127	0x3e85c7bc	0.26128948
128	0x3e533ac1	0.20627882
129	0x3e19788e	0.14987394
130	0x3dd8a5fa	0.105785325
131	0xbd8d4f70	-0.06899917
132	0xbb9d7c27	-0.00480606
133	0xbd6425e8	-0.055700213
134	0x3dd5a450	0.10431731
135	0x3bd0e455	0.0063748755
136	0xbe0c93a9	-0.13728203
137	0x3e0a893f	0.13528918
138	0x3da7cd1d	0.08193419
139	0xbd9cb4fa	-0.07651706
140	0xbdfdcb93	-0.12392344
141	0xbd5e9129	-0.054337654
142	0x3d9bdf16	0.0761091
143	0x3e360ba2	0.17777875
144	0xbde1d909	-0.11027724
145	0x3e3d8c61	0.18510582
146	0x3dba4209	0.090946265
147	0x3e4a197d	0.19736286
148	0x3de3a171	0.11114777
149	0x3c2dff0e	0.010619892
150	0x3d8f4591	0.069956906
151	0x3e4b970f	0.19881843
152	0x3d1ca5f4	0.038244203
153	0x3e66293e	0.2247667
154	0xbdbb8e93	-0.09158053
155	0xbda83e2b	-0.082149826
156	0x3d6853a0	0.056720376
157	0xbd9ac390	-0.07556832
158	0xbdae8b3a	-0.08522649
159	0xbd7a8c62	-0.061169036
160	0x3d626aed	0.055277754
161	0xbe11393d	-0.14181991
162	0x3e324bb6	0.17411694
163	0xbdfc5c83	-0.12322333
164	0x3e312bc4	0.17301852
165	0xbe2ec8f0	-0.17068839
166	0xbd5ded0f	-0.054181155
167	0xbe4e938b	-0.2017347
168	0xbe3c12db	-0.18366568
169	0xbd67e8ad	-0.05661838
170	0xbd5421ee	-0.05179017
171	0xbcee6baa	-0.029104073
172	0x3e0a151b	0.13484614
173	0xbd8255fe	-0.06364058
174	0xbdb721ef	-0.08942019
175	0x3c23a1b5	0.009987284
176	0xbe8cacfb	-0.27475724
177	0xbe8c72c4	-0.2743131
178	0x39a8b0db	0.00032175225
179	0xbcfc63d4	-0.03080932
180	0xbe16d2c4	-0.14728838
181	0x3e3e97ae	0.18612549
182	0x3dde416f	0.10852324
183	0x3e4de9ed	0.20108767
184	0x3dd2415b	0.10266372
185	0xbda93a1e	-0.08263038
186	0x3d791bfa	0.060817696
187	0x3e125670	0.14290786
188	0xbe213198	-0.15741575
189	0xbc95ec0f	-0.018301038
190	0x3e571a61	0.21006157
191	0x3d598e62	0.053114302
192	0x3de467e2	0.111526266
193	0xbd4e3822	-0.0503465
194	0x3cb8d2d9	0.022561477
195	0xbe418ff9	-0.18902577
196	0xbdc5e674	-0.09663096
197	0xbe03cf02	-0.12871936
198	0xbd4770a7	-0.048691418
199	0xbe3f6c97	-0.18693767
200	0xbddf9a4d	-0.109181024
201	0xbde0dd4c	-0.10979709
202	0xbdd63cc8	-0.10460812
203	0x3e001768	0.12508929
204	0x3e5190e4	0.20465428
205	0x3e2e80ed	0.17041369
206	0xbc35a8d9	-0.01108762
207	0x3e28ae71	0.16472794
208	0xbd880d44	-0.06643155
209	0x3d9e0abc	0.07716891
210	0x3b20a641	0.0024513158
211	0xbe2e2e00	-0.17009735
212	0x3d56a13d	0.052399863
213	0x3e731227	0.23737393
214	0xbe13a4cf	-0.14418338
215	0xbdc81196	-0.09768979
216	0xbde5302e	-0.1119083
217	0xbbc6d767	-0.0060681584
218	0x3d672ede	0.05644118
219	0x3da41cf0	0.08013332
220	0x3ddeed41	0.10885096
221	0x3e00455e	0.12526461
222	0xbdf189b2	-0.117938414
223	0xbd8f4b38	-0.06996769
224	0x3c2c1eeb	0.010505418
225	0x3e4585ae	0.19289276
226	0x3dc63f2a	0.09680016
227	0xbe5c9d74	-0.21544439
228	0xbe3fa6a8	-0.18715918
229	0xbde84d43	-0.113428615
230	0x3e3d8e9d	0.18511434
231	0x3cafdd53	0.02146784
232	0x3dec5a06	0.11540608
233	0x3e57f672	0.21090105
234	0x3e002a61	0.12516166
235	0xbb799f60	-0.003808938
236	0x3ce75c2b	0.028242191
237	0xbe77b785	-0.24191101
238	0x3e0244da	0.12721577
239	0xbe30611f	-0.17224549
240	0x3dda4cd1	0.10659183
241	0x3e2a1d22	0.16612676
242	0x3dc5f879	0.09666533
243	0xbe2be8ea	-0.16788068
244	0xbb93a801	-0.0045061116
245	0x3dea3583	0.11435988
246	0xbdeb165e	-0.114788756
247	0xbd1e7d7d	-0.038693894
248	0xbd113d28	-0.035458714
249	0x3e19695e	0.149816
250	0x3de9a6a2	0.11408736
251	0x3ddb1e49	0.10699136
252	0xbe4e4479	-0.20143308
253	0xbdf0bced	-0.11754785
254	0x3db5443c	0.08850905
255	0x3e2131ce	0.15741655

bias f4 [128]
0	0x3da833d3	0.0821301
1	0x3dc9f0a2	0.0986035
2	0x3d889c00	0.0667038
3	0x3da5eca0	0.08101773
4	0x3df02350	0.11725485
5	0xbd884c6e	-0.06655203
6	0x3dec736a	0.11545451
7	0xbdcf8103	-0.10132029
8	0xbd80ecbe	-0.06295155
9	0xbce1be35	-0.027556518
10	0x3cf4ac40	0.029867291
11	0xbc92d160	-0.017922103
12	0xbdec2c6c	-0.1153191
13	0xbdc5a7be	-0.09651135
14	0xbd340994	-0.043954447
15	0xbe42671b	-0.18984644
16	0xbdc58165	-0.09643821
17	0x3e5c2351	0.21497847
18	0xbabb0f98	-0.0014271615
19	0x3b52ff80	0.0032195747
20	0x3da05478	0.07828611
21	0xbd47e505	-0.048802394
22	0x3e1866ca	0.14882961
23	0xbde4704b	-0.11154231
24	0xbdb28901	-0.08717538
25	0xbe37f85a	-0.17965832
26	0xbdbf884c	-0.093521684
27	0x3cc3ef9b	0.023917964
28	0xbd3e1d0e	-0.046414427
29	0x3dc63d18	0.096796215
30	0x3c272f11	0.010204093
31	0xbc11c06c	-0.008895975
32	0xbd4c7451	-0.049915615
33	0xbe0facf4	-0.1403082
34	0x3e5346df	0.20632504
35	0xbdf60b95	-0.12013928
36	0xbde5687b	-0.11201569
37	0x3e030843	0.1279612
38	0xbdbe375f	-0.09287905
39	0xbe2b46f0	-0.1672628
40	0x3e3f8136	0.18701634
41	0x3df90fba	0.12161203
42	0xbe340bd6	-0.1758264
43	0x3dffc87f	0.124894135
44	0xbc1ef31c	-0.0097015165
45	0x3e098067	0.13427888
46	0xbd048244	-0.032350793
47	0xbe19944b	-0.14997976
48	0x3e7021d4	0.23450404
49	0x3d197ccf	0.037472542
50	0x3e12ace3	0.14323764
51	0x3dc7231c	0.097234935
52	0x3d063428	0.032764584
53	0xbcf83f6b	-0.030303678
54	0x3dd018b0	0.10160959
55	0x3ce2ac37	0.027670009
56	0xbb2f9225	-0.002678999
57	0x3d837258	0.06418294
58	0xbd390ff5	-0.045181233
59	0x3d3bc139	0.04583857
60	0xbe1eb522	-0.15498784
61	0xbd4e2165	-0.050324816
62	0x3d4bb205	0.04973032
63	0x3daebdd1	0.08532298
64	0x3d738eb2	0.059462257
65	0x3b957ad7	0.004561763
66	0x3cc9589c	0.024578385
67	0x3df53589	0.11973102
68	0x3d914473	0.07093134
69	0xbe0dd8ab	-0.13852184
70	0x3e615036	0.22003254
71	0x3d3a68c2	0.04551006
72	0x3ca72a6d	0.020405972
73	0xbe32896a	-0.17435232
74	0x3cd606a5	0.026126215
75	0xbd626817	-0.05527505
76	0x3e1598d9	0.14609088
77	0xbd982756	-0.07429378
78	0xbe221982	-0.15830043
79	0x3d22ac5d	0.03971516
80	0x3e4c110b	0.19928376
81	0x3d39f9c0	0.045404196
82	0x3e26200a	0.1622316
83	0xbcfaaff6	-0.030601483
84	0xbe0310ef	-0.12799428
85	0xbd931174	-0.07181063
86	0xbe055c25	-0.13023432
87	0x3c9fa0f8	0.019485936
88	0x3dc953ab	0.098304115
89	0xbd1cf4eb	-0.03831951
90	0x3e0cefa7	0.13763295
91	0x3dab0ab4	0.08351651
92	0xbd30049e	-0.042973153
93	0x3d6d1f0d	0.05789094
94	0x3dbf00bb	0.09326311
95	0xba62e402	-0.00086551916
96	0x3deee15c	0.11664078
97	0x3db70ab0	0.08937585
98	0xbd3cb5fd	-0.046071995
99	0x3ddeb518	0.10874385
100	0xbbad96a0	-0.005297497
101	0x3e3199ff	0.17343901
102	0x3dca500d	0.0987855
103	0x3c98119e	0.018563088
104	0x3d1bd825	0.03804793
105	0x3e062111	0.13098551
106	0xbd092f4a	-0.033492364
107	0xbe16626c	-0.14685982
108	0x3c803bf3	0.015653586
109	0x3c116955	0.008875211
110	0xbd97ec8f	-0.07418167
111	0xbd53303f	-0.051559683
112	0xbd7ed89b	-0.06221829
113	0x3d11c579	0.035588715
114	0xbdef8b7d	-0.11696527
115	0x3e294379	0.16529645
116	0x3d6ab151	0.05729801
117	0xbe19aa5e	-0.15006396
118	0xbd6d81b1	-0.05798501
119	0xbb2696f4	-0.0025419565
120	0x3dbb5183	0.091464065
121	0xbd594b2e	-0.053050213
122	0xbc83d511	-0.016092809
123	0x3e06745d	0.13130327
124	0xbe007574	-0.12544805
125	0x3e2633fa	0.16230765
126	0x3d130ef2	0.035902925
127	0x3ca5d95d	0.020245248
