nn/checkpoints/main_material/7/model_0.pt (torch, 451231 bytes, 98 tensors)

weight f4 [8, 5, 3]
00000000: 0b16 3d3b c562 1f3e b264 7f3d f52f e5bd
00000010: 2d6e 9ebc 7aa4 84bd d0c5 cb3d 7d9a 633e
00000020: 4f50 16be af51 6ebe 685e c1bd ada6 03be
00000030: d69b c93c 372f 863d d22b 593e b9f1 e03d
00000040: 178b 15bd 28f8 ee3d 9e9c dcbd 00f7 a03d
00000050: fb89 273e b893 b2bd 1fc4 543e 0de8 b1bd
00000060: 8e92 5fbe 3add 6e3e 347a 1abd a179 5ebe
00000070: 20a4 4bbe 579a 55be 77a2 863e 31bc fc3d
00000080: b394 cebd 9392 853e 1d5d 6cbe fcf5 21be
00000090: 1f4d 023e 1ac6 bb3d bea5 e2bc fffa 41be
000000a0: d86a 20be 2b8c 403e 245c b7bd a7b3 383e
000000b0: 9588 debd 2511 34bd 3623 80be f168 1abd
000000c0: 0175 803e 93b0 05be 7605 51be 4e2f 66be
000000d0: ce49 07be 00a8 56be 2fe0 3e3e b9c5 55be
000000e0: 0805 563e 9408 00bd 3936 8ebd c353 513e
000000f0: f6db 1e3e 1b9c d2bd b753 2e3e 0e60 0f3e
00000100: 8f03 34bd 2645 5c3e ef4a 11be f301 41be
00000110: 2f3a 373d bc5a b4bd 9bbb dcbd 1500 47be
00000120: 54e1 60be 6e70 013e 1a20 93bd 56b2 1ebd
00000130: 91ed 5bbe 69d2 693e e38e 9b3d 0f0f 0a3e
00000140: 72eb 38be 4882 863d fdbb 073e 07ca 4a3e
00000150: 82ef 4f3e 6998 613d e1e7 08be 85bf 283e
00000160: 6039 883d f672 613e 7dec 183c 14f1 73be
00000170: 9651 513e 39f6 41bc 6046 163e c51f 04be
00000180: 68dd 35be 4a15 03bd 0139 10be 3000 ecbc
00000190: c0a0 dcbd bce5 3e3e 2caf bd3d 0927 5f3e
000001a0: b1e7 1ebe 7be7 073e d7f8 463d aaca 79be
000001b0: 15de b03d 1d22 96bd 527b f13c f916 833e
000001c0: 1348 223e fea8 26bd 791a b6bd d383 833e
000001d0: ef28 01be 824b 7e3e ad2d 7f3e ea40 463e
0.002885225 0.15565021 0.06235189 -0.11190788 -0.019339645 -0.06476684 0.09949839 0.22226901
-0.14679073 -0.23273347 -0.09441835 -0.1285655 0.024610441 0.06551974 0.21208122 0.10983605
-0.0365096 0.11668426 -0.1077206 0.078596115 0.16361229 -0.08719581 0.2077794 -0.08686838
-0.2183325 0.23326579 -0.0377142 -0.21726085 -0.19886827 -0.20859657 0.26295826 0.12340582
-0.10086956 0.2608839 -0.23082395 -0.15816492 0.12724732 0.09168644 -0.027666923 -0.18943404
-0.15665758 0.1880347 -0.08953121 0.18037282 -0.10865895 -0.043961663 -0.25026864 -0.037697736
0.25089267 -0.13055639 -0.2041224 -0.22478983 -0.13211748 -0.20962524 0.18640207 -0.20876206
0.20900357 -0.03125818 -0.06943936 0.20442109 0.15513596 -0.10283681 0.17024122 0.14001486
-0.043948706 0.21510753 -0.14188741 -0.188484 0.044733223 -0.08806369 -0.107779704 -0.19433625
-0.21960956 0.12640545 -0.07183857 -0.038744293 -0.21477343 0.22834171 0.07595613 0.13482307
-0.18058565 0.06567818 0.13255306 0.1980363 0.20306209 0.05507699 -0.13369705 0.16479309
0.066515684 0.2201651 0.009333727 -0.23822433 0.20441279 -0.011838489 0.14675283 -0.12902744
-0.17760241 -0.032002725 -0.14084245 -0.028808683 -0.10772848 0.18642324 0.09261927 0.21792234
-0.15518071 0.13271897 0.048577156 -0.24393716 0.08636109 -0.07330725 0.029477749 0.25603464
0.15847807 -0.040688507 -0.08891768 0.2568651 -0.12613271 0.24833491 0.24919768 0.193607

bias f4 [8]
00000000: a713 71bc cbf9 c1bd 1f2c 4e3e 14d6 7bbe
00000010: 18e5 043e 5989 613e 5567 f73d f2ff 043d
-0.014714158 -0.09471472 0.20134018 -0.24593383 0.12978017 0.2202505 0.12080256 0.03247065

weight f4 [8]
00000000: c730 7f3f 88b3 7f3f b0a8 803f 13cf 7f3f
00000010: a700 7f3f 302e 803f 2002 7e3f 72c4 7e3f
0.99683803 0.9988332 1.0051479 0.99925345 0.9961037 1.0014095 0.9922199 0.995185

bias f4 [8]
00000000: 98ae 2fbb 1f88 e6bb f214 0fbb af8e c73b
00000010: ce33 2ebb 2093 1f3b f9e6 edb7 85d2 cabb
-0.0026806947 -0.00703527 -0.0021832553 0.0060900073 -0.002658117 0.0024349168 -2.8360157e-05 -0.0061896467

running_mean f4 [8]
00000000: 9734 753b a77a 1bbe 6d60 303e e46f c0be
00000010: c3e2 90bc 2b02 e93e 912e 183d 6e9e b63e
0.003741538 -0.15183507 0.17224284 -0.37585366 -0.017686253 0.45509467 0.037153784 0.35667747

running_var f4 [8]
00000000: d45b cc3e e9cb 133f bd60 db3e 75ad 553f
00000010: 4a7c 0a3f 13f9 8a3f bec7 cd3e c5eb 9f3f
0.3991381 0.5773302 0.42847243 0.834678 0.540959 1.0857261 0.40191454 1.2493826

weight f4 [8, 8, 3]
00000000: a698 70bd b9e5 d33c 7b8e 10bd 925d e8bc
00000010: cce4 b6bd 3ed8 09be 9e16 18bc 849c c9bd
00000020: ae77 06bb 80f0 09be 5e88 37be e1d7 703c
00000030: 1d73 31bd f42e 01be aa92 2bbe fde7 d9bd
00000040: 2939 0dbe f953 3fbe 304e f3bd a9af 463e
00000050: 24f4 8bbd c0b6 63bd 19b9 9ebd ad69 1bbe
00000060: 881d 62bd 3333 2f3e a869 dabd b13b 82bd
00000070: 6584 873d 5876 c03d 5eda 52be 3869 19be
00000080: 9aed 20be 2269 6c3d 3724 43be 44f7 803d
00000090: 9f78 d83c 5efb 523d ec41 04be b133 bdbd
000000a0: b67c aebc a704 203e 723a f6bd 420f 1d3e
000000b0: 83fd b23c 7b7f 463d d342 3b3e 8191 953d
000000c0: 2d6f c7bb edd8 edbd bbd9 e6bd ad38 08be
000000d0: b220 4b3d 8ab0 e2bd c9d1 dfbc 9428 023e
000000e0: 74f3 41be 344a 90bd d72e 16be e508 2cbe
000000f0: 3a53 44be 2ee5 e03d 4208 4d3e 8a6f de3d
00000100: d899 443e 861f 373e b193 b93c b02c 07be
00000110: 1598 303d 7652 3e3d 94bb 0fbe aef4 bfbd
00000120: 3f15 a83d ec66 d6bc a983 cbbd 0911 97bb
00000130: 2a51 533d b95b bd3d 8e0a 8b3d 0fbe 1abe
00000140: bbef 51bd 168d 293e 6a29 2f3e 2621 063d
00000150: c927 6c3d b8e7 143d 1867 52bc 1748 6dbb
00000160: e079 423d f13b cd3d 3a34 d6bd dba8 143e
00000170: d842 1d3d 04e2 4b3e 4661 c73d 4f9d 37be
00000180: a5e2 c2bd 957b 91bc 0e39 ccbd 7d71 923d
00000190: d69c de3c 11b3 cdbd 5496 4ebe 3d9e 4dbe
000001a0: 66d0 4c3d cde2 253e 2eab aebd d2fc 29be
000001b0: 2e97 f4bd f540 3bbe 2c46 123b 2a00 2cbd
000001c0: d457 0fbe 6b97 1c3e 47da 24be adf2 293e
000001d0: 3bb7 f03c 0f05 0bbd 1188 06be 105f edbd
000001e0: fb7b 493e 7c0e 8a3d c9ab d03c 9990 38be
000001f0: fe85 093e 654d e4bc 986c a8bd 19e2 b2bd
00000200: 8d4e 353e c905 95bd 4cdc 0abe 9bfd 673d
00000210: 9de2 073e 9c76 e7bb c75a 10be 796c 9bbd
00000220: f900 85bc b6f7 98bd 70ee 6dbb c172 07be
00000230: 98e1 1e3e 01a1 e93c 593d 0f3d 1209 14bd
00000240: cb17 a2bd fafc 013e 4ad8 40be 5ff3 013e
00000250: 2bde 033e a827 eebd b635 26be 416b 08bd
00000260: 5ac3 95bc 68a7 c5bd ae1e 15be e092 093e
00000270: bb86 f43d db25 ccbd 558f 4fbe 2bda d7bd
00000280: 545c cabd 1db6 a8bd 2861 48bd 3fbe 03be
00000290: c69d 20be daf6 fe3d 24b3 43be de70 14be
000002a0: 5b41 3fbd 4273 32be c6cb 11ba cc2a 35bc
000002b0: fbd5 4abe dd50 cdbc 9be4 3e3c ab7a 21be
000002c0: 83e8 e33d e1dc 193d f820 53bd 97d9 eabd
000002d0: cdaa 21be 7d7f 193e 12ae 48be a4e7 1bbe
000002e0: 3043 c03c ad8d 09be 6fcf ce3d 2f0b ffbc
000002f0: 7730 2abe f329 4f3e 0dd8 4bbe 1fa0 003e
-0.058739327 0.025866376 -0.03529213 -0.02836493 -0.08930358 -0.13461396 -0.009282736 -0.09844306
-0.0020518112 -0.1347065 -0.17923114 0.014699907 -0.04332267 -0.12615567 -0.16755167 -0.106399514
-0.13791336 -0.18684377 -0.118801475 0.19402947 -0.068336755 -0.055594206 -0.07750148 -0.15177031
-0.055203944 0.17109375 -0.106646836 -0.063590415 0.06617049 0.09397572 -0.20591113 -0.14981544
-0.15715638 0.05771745 -0.19056784 0.06297162 0.026424704 0.051509254 -0.12915772 -0.09238375
-0.021299701 0.15626775 -0.12022866 0.15337852 0.0218494 0.04846142 0.1828721 0.07303143
-0.006086251 -0.11613641 -0.112719975 -0.1330287 0.049591728 -0.110688284 -0.027321713 0.12710792
-0.18940526 -0.07045403 -0.14666305 -0.16800268 -0.19172373 0.109812126 0.20022681 0.10861118
0.19199312 0.17883119 0.022653433 -0.1320064 0.043113787 0.04646536 -0.14036399 -0.09372841
0.08207177 -0.026172124 -0.099372216 -0.004610185 0.051591076 0.0924601 0.067891225 -0.15111564
-0.051254015 0.16557726 0.17105642 0.032746457 0.05765513 0.036353797 -0.012841962 -0.00362063
0.04747951 0.100211985 -0.1045918 0.14517538 0.038393825 0.19910437 0.0973535 -0.17931102
-0.09515885 -0.017759124 -0.0997182 0.071505524 0.027174395 -0.1004392 -0.20174533 -0.20079894
0.05000343 0.16199799 -0.08528744 -0.1660035 -0.11942898 -0.18286498 0.0022319658 -0.041992344
-0.13998348 0.15292136 -0.16098891 0.1659648 0.029384246 -0.03394037 -0.13137843 -0.11590397
0.19676201 0.06741044 0.025472539 -0.1802391 0.1343002 -0.027868936 -0.082238376 -0.08734531
0.17705746 -0.07276494 -0.13560599 0.05663834 0.1327004 -0.0070637 -0.14097129 -0.07589049
-0.016235815 -0.07469122 -0.003630545 -0.13227369 0.15515745 0.028519155 0.034970615 -0.036141463
-0.079146944 0.12694159 -0.18832508 0.12690495 0.12877719 -0.116286576 -0.16231427 -0.03330541
-0.018281627 -0.09651071 -0.14562485 0.13434935 0.1193976 -0.09968158 -0.2026952 -0.10539659
-0.098808914 -0.0823786 -0.04892078 -0.12865542 -0.15685186 0.12449427 -0.19111305 -0.1449618
-0.046693187 -0.1742678 -0.00055616756 -0.011057567 -0.1980819 -0.025062973 0.0116511835 -0.1576945
0.111283325 0.037564162 -0.051545113 -0.11467283 -0.15787812 0.14990039 -0.19597653 -0.15225083
0.023469537 -0.13432951 0.100981586 -0.031133262 -0.1662005 0.20230846 -0.19906636 0.12561081

bias f4 [8]
00000000: 901e 353e 8043 4dbe da37 17bc f582 09be
00000010: 86fe 123d 254b 8fbc 10d4 04bd a77e 5c3d
0.1768744 -0.2004528 -0.009229625 -0.13428862 0.035887264 -0.017491886 -0.0324288 0.053831723

weight f4 [8]
00000000: 093b 7f3f e6de 7e3f 3d6a 803f 2d46 7f3f
00000010: eec5 7f3f f338 803f bc08 813f 30cd 7e3f
0.99699455 0.99558866 1.0032421 0.99716455 0.9991139 1.001738 1.008079 0.9953184

bias f4 [8]
00000000: b182 a3bb e503 03bc 5350 06bb 77ec a5bb
00000010: c347 2b3a 1d6d e8bb 482f 403a 1973 70bb
-0.004989945 -0.007996534 -0.0020494654 -0.005063589 0.00065338257 -0.0070930854 0.0007331264 -0.0036689697

running_mean f4 [8]
00000000: d259 35be 8d9c 0dbe 61a4 a4bd c55c 1e3d
00000010: e60e 2ebe 5be1 13bd c259 74be d6fc 04be
-0.17710045 -0.1382925 -0.08039165 0.03866269 -0.16997871 -0.036103588 -0.23862365 -0.12987074

running_var f4 [8]
00000000: 3693 2b3f 29d8 d03e 113d cd3e 2b8f c43e
00000010: c1c3 0d3f 9952 c03e 932d 1e3f 4223 e53e
0.670215 0.40789917 0.40085652 0.38390478 0.5537682 0.37563017 0.6178829 0.44753462

weight f4 [8, 8, 3]
00000000: 7564 f43d 77b1 dfbc 2821 09bb 02db 3fbe
00000010: 008e 3a3e 16b5 1fbe d3f1 9d3d e9f9 383e
00000020: c89b 92bc 5e53 8fbd 288a 8bbd 7505 4e3e
00000030: ef0a 333e 9925 c4bd b01a d9b9 6ab3 e63c
00000040: b483 3cbe 7f2d aabd 0c80 62bd 159e cdbd
00000050: 0a46 b33d fa24 5a3d c8ae e0bc 4367 0a3e
00000060: 1d47 e3bd 8e7f b73b 4872 11be b6c6 fc3d
00000070: bb6e 673d 1648 dabd b6f9 01be a205 063d
00000080: bd62 c8bd 3b6c 1bbd 269f 8e3d 8aa9 d0bd
00000090: e97e 433e b880 0a3c 51e5 c5bd bda9 dc3d
000000a0: 967f 3d3e d4e0 273e 16e3 033e 9364 51be
000000b0: bb84 1dbd 4060 11bc 4cb5 8c3c 6039 403e
000000c0: e572 393c 9d99 a3bd 7091 aebd f416 923c
000000d0: 7376 0dbe 4802 b63d 4bf0 3f3e d188 d1bd
000000e0: 2bd2 a53d 46fd 08be 3730 3c3e 9183 13be
000000f0: a9aa 303e 2ef1 23be fd5e 203e 573b 01be
00000100: a78f f73d 8fbc f73b f04d 40be f931 2f3c
00000110: 147d 933d dff6 e83d 76fe 05be a68b 1b3d
00000120: 5f2d 0e3e f9ef ddbd 5c18 293e f8e0 06be
00000130: 0c50 243d dec5 f9bd 7b27 33be 80c2 71bd
00000140: c677 26bd 4be6 1f3e 98f3 ae3d 710d f8bd
00000150: 5af7 97bc 1180 adbd c308 a0bd d41c eabd
00000160: ddb8 403e 5feb 0a3e 0843 053e 07c9 0a3e
00000170: edb4 3c3e 8e65 543e 8a23 4cbe 59c9 33be
00000180: 38b8 a43d 8fa2 19be ef5b 45be d356 cf3d
00000190: e073 a53d 3801 c33c ecf4 8c3d 22a9 253e
000001a0: 1f6a 03be 29cf 0f3e c4c7 e6bd 94a8 bc3d
000001b0: 1436 febd 5b41 3ebe 45f0 04be 953b 05be
000001c0: d75d 37be 7244 f0bd 878e 2e3e 1f57 703d
000001d0: 76d8 8c3d e8c3 dabd 04fb 053e cb89 adbc
000001e0: 4a64 7c3d 92ec e2bd 9ac8 9dbd 2d79 50bb
000001f0: e1c2 253e 4cd2 423e 6202 8abd 5a26 3a3e
00000200: ecbd 01be d8f3 2d3d 4197 5ebd 3dd9 a839
00000210: 5131 113d 3497 13be ee78 843d c809 12bd
00000220: 1f39 3a3e 8eb5 3dbe 22af 3dbe ee69 773b
00000230: 325e 32be de67 16bc ae33 273e b392 42be
00000240: 50fb 37be ec54 bf3d 360e e7bd 0af9 cabd
00000250: 3c9c 0fbe 3392 6fbc 3bfc 0cbc 2f8d 193e
00000260: 31b2 c83d d4cc a7bd 226f f23c 0b0e 1a3e
00000270: 1665 c23d 692d 39bd 5041 983d 7f4a 0e3e
00000280: 2676 943c 859e 4cbe b685 063c a931 c2bd
00000290: f23a cfbd c654 963d 0ced 21be 716b 12be
000002a0: 62b1 373b 3ec7 42bd 2e2b 093d dd5c e9bd
000002b0: c0e7 d5bc d07b e5bd 6647 363e 1e08 a73d
000002c0: 03db 283e 2963 273e 9ff7 82bd 8d21 41be
000002d0: 11fb 03be 1ef8 02bd 7665 003b 9e87 3c3e
000002e0: c36f 19be 4fac a2bb 58fe fd3c 0ede 4abe
000002f0: 38f0 2fbe d10a c33d 7345 393e 62c6 d1bd
0.11933223 -0.027306302 -0.0020924304 -0.18735889 0.18218231 -0.15596423 0.0771214 0.18064083
-0.017896548 -0.06998323 -0.068134606 0.20119269 0.1748464 -0.09577484 -0.0004140935 0.028161723
-0.18409616 -0.08309459 -0.055297896 -0.100399174 0.08753593 0.05325792 -0.027427092 0.13515954
-0.11097548 0.0055999225 -0.14203751 0.123425886 0.056502085 -0.106582806 -0.12692913 0.032720216
-0.09784458 -0.037945013 0.06963949 -0.10188587 0.19091381 0.0084535405 -0.09662879 0.107745625
0.18505701 0.16394359 0.12879595 -0.20448522 -0.03845666 -0.008873045 0.017176293 0.18771887
0.011318897 -0.07988284 -0.08523834 0.01783321 -0.13814716 0.08887154 0.18744008 -0.10231174
0.08096727 -0.13377866 0.18377768 -0.14405657 0.17252602 -0.16009971 0.15661235 -0.12620293
0.120879464 0.0075603197 -0.18779731 0.010693067 0.07201591 0.11375212 -0.1308535 0.037974976
0.13884495 -0.10836787 0.16513199 -0.13171756 0.0401154 -0.12195943 -0.1749553 -0.05902338
-0.04064157 0.15615194 0.085425556 -0.12111939 -0.018550564 -0.08471692 -0.07814171 -0.1143128
0.1882052 0.1356635 0.13013852 0.13553248 0.18428393 0.20741865 -0.19935432 -0.17557277
0.080429494 -0.15003417 -0.19273351 0.10123982 0.08078742 0.023804292 0.06882653 0.161778
-0.1283345 0.14043869 -0.11268571 0.09211841 -0.12412658 -0.18579619 -0.1298228 -0.1301101
-0.17906891 -0.11731805 0.17046557 0.058676835 0.06877224 -0.106818974 0.13084036 -0.021183869
0.06161908 -0.110802785 -0.07704277 -0.0031810508 0.16187622 0.19025534 -0.06738736 0.18178692
-0.12670106 0.042468876 -0.054343466 0.00032205312 0.035447422 -0.14413148 0.06468378 -0.03565386
0.18185852 -0.18526289 -0.18523839 0.0037752348 -0.17418745 -0.009180037 0.16328308 -0.19001274
-0.17966962 0.093423694 -0.112820074 -0.09910782 -0.14024442 -0.014622259 -0.008605058 0.14995264
0.09799612 -0.08193365 0.029594008 0.1504442 0.09491937 -0.045209322 0.07434332 0.13895606
0.018122744 -0.19982345 0.00821059 -0.09482128 -0.10118665 0.07340388 -0.15813082 -0.14298798
0.0028029312 -0.047553293 0.033488445 -0.113946654 -0.026111484 -0.11205256 0.17800674 0.08155845
0.16489796 0.1634642 -0.06394886 -0.18860455 -0.12888743 -0.031974904 0.0019591725 0.18411109
-0.1498404 -0.0049643884 0.03100507 -0.1981127 -0.1718148 0.095235474 0.18092899 -0.10242917

bias f4 [8]
00000000: 1753 b4bd 39cd e33d a02d d73d a9ef 323d
00000010: 8f90 93ba 127f 43be 4e98 05bd 7a1c d1bc
-0.08804911 0.111231275 0.10506749 0.04368559 -0.0011258292 -0.19091442 -0.032615952 -0.025526274

weight f4 [8]
00000000: 9a1b 803f 2429 803f b4a1 803f bcfa 7f3f
00000010: a136 803f 4095 7e3f 5b6a 7f3f feba 803f
1.0008423 1.0012555 1.0049348 0.99991965 1.0016671 0.9944649 0.9977166 1.0057065

bias f4 [8]
00000000: 017b 13bc 2919 5f3b 0713 9b3a 707e 13bc
00000010: 90b3 c6ba 9ac7 2dbb e26e 523b 41b1 a939
-0.009001494 0.0034042096 0.0011831232 -0.009002313 -0.0015159715 -0.0026516677 0.0032109548 0.00032366256

running_mean f4 [8]
00000000: 04e3 0dbd aebc d03d 8bc0 8a3d 6215 623d
00000010: 2298 8dbd da1c 30be f8df a7bd d2b1 50bd
-0.034640327 0.10192238 0.06775006 0.055196173 -0.06913783 -0.17198506 -0.081970155 -0.050950833

running_var f4 [8]
00000000: bfbb d33e 6659 cd3e cada cb3e 7aaf d63e
00000010: 6bfa c93e 336f cc3e 615c cf3e 4940 d73e
0.41354176 0.40107268 0.3981536 0.41930753 0.39448866 0.39928588 0.40500167 0.42041233

weight f4 [8, 8, 3]
00000000: 98c5 ec3d 7513 8b3c 0667 4ebe 1ccb 1abe
00000010: 6427 333e e332 793d 1dd6 153e 508c 94bd
00000020: 01db 3c3e 2f0a 1c3e 492d 793c 3ccc 073d
00000030: c7e5 103d 220a 813d 5334 213d 6691 043e
00000040: c9ba f23d 452a 2e3e cee7 923c a817 89bd
00000050: f7a9 d53d 86a0 233d 8f7a 13bc 0f6a 2fbe
00000060: e9c1 91bd e671 023d d922 423e 33ee b4bb
00000070: 79a7 203e b91a 43be f4af 843d 839d 1cbe
00000080: 6b82 85bd 972f 50bd 9b2f 383e e9f3 00be
00000090: 3729 ecbd 7d04 81bd d118 0cbe 3bd7 8fbd
000000a0: d791 883d 53e1 68bd 8fe6 a63b 1fcd 2abd
000000b0: f52d 58bc cd5e 11bd f5bf e3bd 6848 183e
000000c0: 2688 13bd 0d00 febc bd66 3dbe 317c 323e
000000d0: 63cd ff3d 6e84 193e 4949 d03c 6a24 013e
000000e0: cc19 cd3d f67e 843d cd20 e7bd 055a 473d
000000f0: 90c0 f53d 4c09 33be c6cd 6d3d 711b 49be
00000100: fc74 30be c9dc 203e 0a30 273e ace1 3dbe
00000110: af78 143d 5a78 e83d 587f 303d 232e 2cbe
00000120: 8c6e 08be 7265 663c 86e0 cbbd a35a 24be
00000130: d338 34be dd4e c93d 41d3 debc ae71 58bd
00000140: 8086 003e 65cd 50bc 8089 24bd d634 27be
00000150: e6df 393e 1c6b 223e c1a0 463d 1d93 373d
00000160: b77c 4b3e bf2f 633d 8592 fbbc db2d 9dbd
00000170: b071 4d3e bff6 873d 040d 9d3c 9841 833d
00000180: 6e6f 40be e03b 47be cc2f f83d f2df 0e3e
00000190: 7866 a4bc 8425 2dbe 4334 a93d e7c6 dcbd
000001a0: 6713 3d3c ba29 6cbd bc1b c53d 06f9 8abd
000001b0: 749d e43d 1fa4 0abd c913 b4bd 5c03 3d3e
000001c0: dcf7 cf3d f609 5fbd 8a86 36be 56b7 60bd
000001d0: e539 7e3d 1ea5 3c3d 78b3 2dbe 5bcd 4abe
000001e0: 5255 92bd c0bb 813d 7432 04be cc15 00bc
000001f0: e730 1a3e 02df e5bd 0334 3cbe e0cf f03d
00000200: 3b2c a23d 0bff 45bd eca7 69bd 1ea7 dbbd
00000210: f811 16be e9b5 183c 46c6 203e 4fb7 2cbd
00000220: 9470 e23d 0080 3bbe 8711 92bd 0dce 183a
00000230: abb7 e8bd 8e13 393e 649a 03bd deff ae3b
00000240: ef11 f5bd dfd3 253a 24df 0cbe dab6 97bd
00000250: f73d ff3d 2312 a93d 7b9a 073c 867f 15be
00000260: c2c7 5dbd 777d 7abb abfa 77bc 688e ac3d
00000270: 2dca d8bd f12e 023d 60dc 143e b05c 11bd
00000280: fe9b d63d 4ef9 8cbd 1f4a 35be e832 e43c
00000290: 47cc 443d a61b 46be 372b 1d3c 8f3a d93d
000002a0: bfa2 3e3e ac0c cdbd a064 29be 3e0a 4abe
000002b0: a3df 4cbe 5e6e 473e 4c33 a6bd e69c fc3d
000002c0: 74c4 88bd 0819 48be bd80 87bd 989a 24bd
000002d0: 2aaf c2bd 235c 77bd 4d05 f13d 3ef5 fd3b
000002e0: 093e e7bd b867 143d d286 293e 3633 b93d
000002f0: a499 f63d c80b 423c 4720 2ebe ca5f 3abd
0.115611255 0.016977051 -0.20156488 -0.15116543 0.17495495 0.060839545 0.14632459 -0.07253325
0.18442918 0.1523826 0.015208551 0.033153757 0.035375383 0.06300761 0.03935654 0.1294609
0.11852033 0.17008312 0.017932799 -0.06693965 0.10432809 0.03994801 -0.009001388 -0.17130302
-0.071170636 0.031846903 0.18958606 -0.0055215596 0.15688886 -0.19053163 0.06478873 -0.15294461
-0.06519016 -0.050826635 0.1798691 -0.12593044 -0.115312986 -0.06299684 -0.13681342 -0.07023474
0.06668442 -0.05685551 0.0050934027 -0.041699525 -0.013194551 -0.0354908 -0.11120597 0.14871371
-0.036018513 -0.031005884 -0.18496223 0.17430188 0.12490346 0.14991924 0.02542557 0.12611547
0.10014686 0.064695284 -0.11285553 0.048669834 0.11999619 -0.17484015 0.05805757 -0.19639374
-0.17232126 0.15709223 0.16326919 -0.18543118 0.036247905 0.1135108 0.043090194 -0.16814475
-0.1332342 0.014062272 -0.09954934 -0.160502 -0.17599802 0.09829495 -0.027200343 -0.05284279
0.12551308 -0.012744282 -0.040170193 -0.16328749 0.18151817 0.15861171 0.04849315 0.044818033
0.19871794 0.055465456 -0.030709514 -0.07674762 0.200629 0.0663886 0.019171245 0.064089954
-0.18792507 -0.19456434 0.121184915 0.13952616 -0.020068392 -0.16908842 0.08261921 -0.10780125
0.01154027 -0.05765698 0.096244305 -0.06785779 0.11162844 -0.033847924 -0.08792836 0.18458313
0.10154697 -0.05445286 -0.1782476 -0.054862343 0.06206693 0.046055906 -0.16962993 -0.198049
-0.0714518 0.063346386 -0.12909871 -0.007817697 0.15057717 -0.11224176 -0.18379216 0.11758399
0.079185925 -0.04833893 -0.05704491 -0.107252344 -0.14655292 0.0093207145 0.15700635 -0.042167004
0.11056629 -0.18310547 -0.07132249 0.0005829044 -0.11363157 0.18073866 -0.03212966 0.0053405603
-0.11966311 0.0006325822 -0.13756996 -0.07407923 0.12462991 0.082554124 0.008276577 -0.14599428
-0.054145582 -0.0038221756 -0.0151354475 0.08425599 -0.10585437 0.031783048 0.14537191 -0.035488784
0.10478972 -0.068834886 -0.17704056 0.027856305 0.048046377 -0.19346485 0.009592823 0.10606872
0.1861677 -0.100121826 -0.16542292 -0.1973047 -0.20007186 0.19475695 -0.08115253 0.123346135
-0.066780955 -0.19540799 -0.06616352 -0.040186495 -0.09506066 -0.060390603 0.11768589 0.0077501824
-0.11291129 0.036231726 0.16555336 0.09042971 0.120410234 0.011843629 -0.170045 -0.045501508

bias f4 [8]
00000000: 434c 20be 64fe 1bbd f264 013e 8548 213e
00000010: ca9c c8bd eec8 33bd b740 0e3d aa8e b13d
-0.15654092 -0.038084403 0.12636164 0.1575032 -0.0979553 -0.043892793 0.034729686 0.08669789

weight f4 [8]
00000000: 371f 813f 2ff5 7d3f 8a80 7f3f a9d6 803f
00000010: 6ac7 7e3f e935 7e3f 5058 803f cbed 7d3f
1.0087651 0.99202245 0.9980551 1.0065509 0.9952303 0.9930101 1.0026951 0.9919097

bias f4 [8]
00000000: f69f 123c 2af8 d9bb 9d19 55bb 40e6 bbba
00000010: f121 a43b 7509 71bb 2c6e c73b aed2 083c
0.0089492705 -0.006651898 -0.0032516487 -0.0014335588 0.005008929 -0.0036779318 0.0060861316 0.008351011

running_mean f4 [8]
00000000: b808 423d a974 c6bd d88d 053e 4230 1c3e
00000010: 3faa 11be b249 afbd 9584 a6bc cffd e5bc
0.047371596 -0.0969022 0.1304239 0.15252784 -0.142251 -0.08558978 -0.020326892 -0.028075127

running_var f4 [8]
00000000: 5056 0d3f df74 e83e ef57 eb3e 6a2d 013f
00000010: f2e8 f43e fbc2 d93e 6a8f de3e 0ba2 ea3e
0.5520983 0.45401666 0.45965526 0.5045992 0.47833973 0.4253157 0.4346879 0.45826754

weight f4 [8, 8, 3]
00000000: fe43 89bd 957e 95bd a1f3 1b3e 89e6 49be
00000010: 7149 1dbe 608a 933d 0e11 683d 390c 973d
00000020: b1ef 33be 6926 48bc 61e9 4dbe bfb7 1e3d
00000030: 6e34 f53d e508 4abc 20f9 c93d 5e58 cd3d
00000040: 706e 30bd 0cfe e3bc ec25 9abd f297 f83d
00000050: 8b36 dbbd 6c7e 2d3e b3c4 733d 1f81 bd3d
00000060: c4c1 753d 0cf2 05be 617e 323e 045d 3fbe
00000070: e2b4 96bd 0d05 27be de18 a9bd f74e 573d
00000080: 9b6c e33c 3b23 1f3d 6814 3a3e 47a5 fa3d
00000090: 48cb 57bd b57f 74bd 6566 1ebe 9604 7bbc
000000a0: 64b2 3c3e ae37 99bd dfdd fd3d d3c4 73bd
000000b0: 23c3 28bd 2fe5 503b 1a7d 3ebe 3c75 ab3d
000000c0: 6747 2b3d fc67 0dbb 13f1 2dbe 109d 2c3c
000000d0: 844c fa3d d088 a6bd f378 3abe 279a 8ebd
000000e0: 7d6e 173d 37b1 ac3d f4e1 2abe 64d5 6abd
000000f0: 5587 13be d650 04be 362b 063e 86f4 a4bd
00000100: 6aaf bb3d 599e e43d 67e4 a63c 3ffd 05be
00000110: cbcc 00be 2dc4 c13d 6970 503e 0d3f 4ebe
00000120: dc1c 833b 24b5 5abd ba79 493e ea45 1e3e
00000130: 9d6d 383e 49e2 77bd 79ae 26bc 048b ae3d
00000140: 570c d83d fb76 403e 3a3b a53c 142d 183e
00000150: 0175 24bd 72ce ebbd 09a3 203c 0cc9 203e
00000160: 9649 373e 7ebe 34bd 3d54 203e f555 d2bd
00000170: 2ee9 45be f6c0 bb3d 14bb 3f3e fa43 59bd
00000180: 4b82 bd3d 585c 38be b011 893d 8fec 3bbe
00000190: 913b 2fbe b139 363e 8a99 393e 91c6 493c
000001a0: 724a d73d 2109 60bc 4355 3a3e a9af cf3d
000001b0: be0a 7fbd eaa5 473e be94 ca3d 34e4 06be
000001c0: 1a62 00be 6a23 50be 292c e1bd 81de f73a
000001d0: 04aa 7bbd 0648 5b3d d074 7e3c 4711 13be
000001e0: a11e 35bc b52e 31be d10f 87bd 5e60 363e
000001f0: 5bd6 153e 2040 433d be31 4e3d dc39 513d
00000200: 8e3e 2cbe 25ae 96bd 819d e63d 275d 3cbe
00000210: 448c 9f3b a48d 473e 71f5 76bc e6f1 083e
00000220: 40a8 ca3d ff98 12be f274 12be 1f07 2a3e
00000230: 0fcc 35be c172 eabd 0a54 883c e90a ec3d
00000240: 3456 3c3e 92ef f53c 116b 14be d56e cf3d
00000250: 0ae2 61ba 4b12 21be af3e 91bd 7744 dc3d
00000260: 0918 11be bbdd 2e3e c1b0 e2bd 7a10 2f3a
00000270: bcb0 4ebd 6f74 bbbd 757f 503d 87ac f4bc
00000280: b9c7 0abe 31be 17be 4dbd 803b bff2 09be
00000290: 3e19 123d 82fe 45bc 8f17 4d3d f997 88bd
000002a0: 2440 27be 8cde b5bc 838b 3abd 8dec bd3d
000002b0: 129e f6bd e424 a4bd 7a74 a3bd d872 953d
000002c0: cce5 10be bbc8 bfbd 9d18 4a3d e310 c73d
000002d0: 4c5f be3d 3049 29be 9844 073e 221c e0bd
000002e0: 2540 f8bc 7eec ec3d 52f3 61bc 17e8 093e
000002f0: 7b27 b03c a480 0fbe 6093 14be cf3d 863d
-0.067024216 -0.07299534 0.15229656 -0.19716848 -0.15360047 0.07204127 0.05665689 0.07375378
-0.17571904 -0.012216189 -0.20108558 0.038749453 0.11972891 -0.012331222 0.0986197 0.1002662
-0.04307407 -0.0278311 -0.07526764 0.12138356 -0.107037626 0.16942757 0.05951376 0.092531435
0.059999242 -0.13080615 0.17431022 -0.18687826 -0.073587194 -0.1631052 -0.08256696 0.05256554
0.027761748 0.038851958 0.18171847 0.122385554 -0.0526841 -0.059692103 -0.15468748 -0.015320918
0.18427426 -0.07481323 0.12395834 -0.059513878 -0.041201722 0.0031874885 -0.1860241 0.0837197
0.04181614 -0.0021576872 -0.16986494 0.0105354935 0.122216254 -0.08131564 -0.18210201 -0.06962996
0.036970604 0.084322385 -0.16687757 -0.05733241 -0.14407094 -0.12921461 0.13102421 -0.08054452
0.09164317 0.11163015 0.020372583 -0.13084887 -0.12578122 0.09461246 0.20355381 -0.2014124
0.004001243 -0.053395405 0.19675341 0.15456358 0.18010564 -0.060518537 -0.010173433 0.08522609
0.10549229 0.18795387 0.020169843 0.14860946 -0.040150646 -0.11513986 0.009804496 0.15701693
0.17899165 -0.04412698 0.15657134 -0.10270301 -0.19327232 0.09167664 0.18723708 -0.053043343
0.09253367 -0.18003976 0.06692827 -0.18351959 -0.17112567 0.17795445 0.18124977 0.012315408
0.10512246 -0.0136740515 0.18196587 0.101409264 -0.062266104 0.19496885 0.098916516 -0.1317299
-0.12537423 -0.2032601 -0.10994751 0.0018910916 -0.061441436 0.053535484 0.01553078 -0.1436206
-0.011054666 -0.17302974 -0.065948136 0.17810199 0.14632551 0.047668576 0.050340407 0.05108057
-0.16820738 -0.07357434 0.1126051 -0.1839491 0.004869016 0.19487625 -0.015073166 0.13373527
0.098953724 -0.14316176 -0.14302424 0.16604279 -0.17753623 -0.11447669 0.016641635 0.115255184
0.18392259 0.030021463 -0.14493968 0.101285614 -0.00086167513 -0.15729634 -0.07092034 0.10755246
-0.14169325 0.17076771 -0.110688694 0.00066781754 -0.050461516 -0.09153067 0.050902802 -0.029867424
-0.1355275 -0.14818646 0.0039288164 -0.13471507 0.035668604 -0.012084605 0.050071295 -0.066696115
-0.16333061 -0.022200845 -0.045543205 0.09273634 -0.12041868 -0.08014849 -0.079812005 0.07297295
-0.1415016 -0.09364458 0.04933988 0.09720018 0.0929552 -0.16531825 0.1320976 -0.10942866
-0.030304024 0.11568545 -0.013790922 0.13467441 0.0215032 -0.14013916 -0.14509344 0.06554758

bias f4 [8]
00000000: e60b 8ebd 8693 e0bd 55a1 b2bd 5330 04be
00000010: 8ae3 f93d b3e0 08be d496 d6ba 4ca1 8b3d
-0.06935863 -0.10965638 -0.08722178 -0.12909059 0.12201603 -0.13366966 -0.0016371855 0.06817874

weight f4 [8]
00000000: 0357 7e3f aeb7 803f f018 803f b0cd 7e3f
00000010: 1f69 803f a925 7e3f c5ce 803f 1f1f 803f
0.9935152 1.0056055 1.000761 0.99532604 1.003208 0.99276215 1.0063101 1.0009497

bias f4 [8]
00000000: 630a 193b c984 433b 93c3 2d3b e9ae a0bb
00000010: b880 aebb 1e3f 943b 90a2 0dbc 3ae4 4c3b
0.0023352138 0.0029833785 0.0026514276 -0.0049036634 -0.005325403 0.0045241257 -0.008644715 0.0031263963

running_mean f4 [8]
00000000: 5689 1bbd ea48 dabd 5bde 15be 25bf b53d
00000010: 6a06 943d c8ce 9dbd 570c adbd 75f9 e0bc
-0.03797277 -0.106584385 -0.14635603 0.088743486 0.07227786 -0.07705456 -0.08449619 -0.0274627

running_var f4 [8]
00000000: b1a1 c53e e584 e43e 5a53 eb3e a959 143f
00000010: 96f1 e13e 99e1 da3e 23d6 d53e 09af d83e
0.38599923 0.4463264 0.4596203 0.5794931 0.44129628 0.42750242 0.41764936 0.4232104

weight f4 [8, 8, 3]
00000000: 8300 523e 66a4 3cbe 9b05 da3c b1ae e83d
00000010: 2ac7 263e aab0 3bbe 05bd 763d 69af 243e
00000020: 3717 a43d f7a1 973d 9f1e 13bd 883c 023e
00000030: 7237 0cbe 00ce 3bbe 294e 35be 8dd6 39be
00000040: 7618 d73c f160 313e 6698 7cbc 40a7 d83d
00000050: 7f37 243e 9371 8fbc e76e 7a3d 013e 41bd
00000060: 1a8f 41be a180 01be eb91 9dbd 0971 e4bd
00000070: 895f 7b3c 6c63 16be 8a90 b0bd 1153 cdbd
00000080: c52e 3f3e d0af ff3d c15e cf3d 45f8 3abe
00000090: 8ae4 ee3c 7baf ff3d d110 05bd f38d 25be
000000a0: b9a4 ffbd 3761 143e 2e7d 1cbe b95c 1a3e
000000b0: 6ae5 253e 48b9 553d af50 2abe 3192 29be
000000c0: 0409 73bd 5828 39be 6f5f 96bd a1eb 6f3d
000000d0: 97f7 0cbe f91f 193e f1dc c93c 6926 d43d
000000e0: 86f4 4d3d 4720 06be 1d5b d8bd 6fae fb3d
000000f0: 05cc d63d b92a d63b cbdb d83d 27f7 723d
00000100: 1fa4 2abe 150a b2bc 5eef c73d 81c4 1a3e
00000110: 48b4 b0bd 51f4 03be 373e ed3c be3f 55bd
00000120: 24fc 2e3e 3a27 223c f400 05be 6c7b 163e
00000130: 7923 153d af38 f83d 6194 32be ad5a 1ebe
00000140: a35c 4d3c 511b 14be af32 a5bd 2f00 ab3d
00000150: ace0 2bbe 81f3 9a3d e087 673d 92e5 1b3d
00000160: 8512 d5bb 7275 09bc faf5 77bd 1017 303d
00000170: 2511 4e3e 1b8a 0b3e b19f bd3d 2705 113e
00000180: bbd7 fd3d 2f9f ed3d 87fa 6f3d a4ae 0b3e
00000190: bea2 293e 6b5f 15be b7c7 8e3d d525 1bbd
000001a0: 411d 27be 0782 d1bd 8e96 a4bd 06b7 eb3d
000001b0: abc2 c93d 5ea7 e7bd 2eed be3d 131f 5bbd
000001c0: 966c 34be 6e29 babd 5aae 2ebe fd01 443e
000001d0: b887 1abe 41d7 b93d 0428 cbbb ca18 14be
000001e0: 3c61 5ebb bc28 4ebc 0e94 06be f1da b63d
000001f0: aa6c 053e 6590 29be 20ca fd3d 3a8d aebd
00000200: 15e9 37be 4096 3c3e a8f1 f0bd 8036 693d
00000210: 1dbd 2dbe d685 313e 162d 3dbe e8ae 00be
00000220: 11c0 42be 59e5 e1bd 71cd 51bd 7d3b ec3d
00000230: 43c4 32bd e318 c33d 59fc 1fbe 578e eebd
00000240: 73d5 243c 0f67 2e3e 9e3b 533d edc7 513e
00000250: 9162 9dbd b3bf 063e 3df4 42be b506 513e
00000260: 8518 d3bd 922f 253e 6052 a9bd 6e6c 4bbd
00000270: 0d85 c53d 64ed 243e 9b6b 4dbc c6d9 32ba
00000280: 7c95 bd3d dde4 bc3d 2060 203e 8211 b63d
00000290: 4964 2d3e 95ed 28be 0a2a e6bc ac4a 633d
000002a0: 1bad 35bd 390f cbbd edbe 0dbb f725 0f3d
000002b0: a467 d5bd 0fe2 f73d 605e 463e ae8d 0ebe
000002c0: e7ae 93bc bdc8 1f3e 5153 0dbe 160a 1fbe
000002d0: ea3f 3bbe ab93 4c3e 42f3 3abe ad50 b73d
000002e0: 5bf8 aabc f456 06be 1a84 c23d 4977 3bbe
000002f0: b5b9 bfbb 5bec 453c c445 54bc 42e3 40be
0.20508008 -0.18422088 0.026614001 0.11361445 0.16286913 -0.1832911 0.060238857 0.16082539
0.080122404 0.07403939 -0.035917874 0.12718403 -0.13693026 -0.18340302 -0.17705597 -0.18148251
0.026256781 0.17322136 -0.015417194 0.105787754 0.16036795 -0.017510211 0.06114092 -0.047178272
-0.18902245 -0.12646724 -0.07693847 -0.11154372 0.015342602 -0.14686364 -0.08621319 -0.10025609
0.18670185 0.124847054 0.10125495 -0.1825877 0.02916171 0.12484642 -0.03248674 -0.1616743
-0.1248259 0.1449021 -0.15282127 0.15074433 0.16200796 0.05217865 -0.16632341 -0.16559674
-0.05933477 -0.18081796 -0.07342421 0.058574323 -0.13766323 0.14953603 0.024641486 0.10358889
0.050282024 -0.1309825 -0.105642535 0.1228913 0.104881324 0.0065358547 0.10588797 0.059317734
-0.1666417 -0.021733323 0.097624525 0.15114023 -0.08628136 -0.12886168 0.02896033 -0.052062742
0.17088372 0.009897048 -0.12988645 0.14695519 0.036410782 0.121201865 -0.17439415 -0.15464278
0.012534293 -0.14463545 -0.08066308 0.083496444 -0.16784924 0.07565976 0.056526065 0.038060732
-0.006502452 -0.008389818 -0.060537316 0.042990744 0.20123728 0.13626902 0.09258974 0.14162122
0.12394663 0.116026275 0.05858853 0.13640839 0.16565987 -0.1458718 0.06971686 -0.037877876
-0.16319753 -0.10229879 -0.080365285 0.11509518 0.09851583 -0.1131122 0.09322582 -0.05349643
-0.17619547 -0.09089933 -0.17058697 0.19141383 -0.15090835 0.090742595 -0.0061998386 -0.14462581
-0.0033932468 -0.012582954 -0.13142416 0.089284785 0.13029733 -0.16558988 0.12392068 -0.085230306
-0.17960007 0.18416691 -0.11764842 0.05693674 -0.16966672 0.1733621 -0.1847423 -0.12566721
-0.1901858 -0.11030073 -0.051221315 0.11534784 -0.0436442 0.09526231 -0.15623607 -0.11648243
0.010060656 0.17031501 0.051570527 0.20486422 -0.07684816 0.13159065 -0.19038482 0.20412715
-0.10307411 0.16131428 -0.08267665 -0.049663953 0.09644518 0.16106182 -0.012537862 -0.0006822612
0.092570275 0.0922334 0.15661669 0.08890058 0.16932787 -0.1649688 -0.028096218 0.055491135
-0.04435454 -0.09915013 -0.0021628693 0.034948315 -0.104201585 0.12103664 0.19371939 -0.13921234
-0.018027736 0.1560392 -0.13801314 -0.15531191 -0.182861 0.19978206 -0.18256858 0.089509346
-0.020870378 -0.13119107 0.094978526 -0.18307222 -0.0058509954 0.012080277 -0.012956087 -0.18836692

bias f4 [8]
00000000: 1d12 22be 8e4c 053d 0e96 28be af8a 3f3e
00000010: 898e 95bd 31bb 113e d506 2d3d a1a7 88bd
-0.15827222 0.03254371 -0.16463491 0.18705247 -0.07302577 0.14231564 0.042242844 -0.06672598

weight f4 [8]
00000000: 4a9b 7e3f fdc4 7e3f 4278 803f 466d 803f
00000010: d44b 803f 8e84 7e3f 6863 803f 934c 7e3f
0.994557 0.9951933 1.00367 1.0033348 1.0023141 0.9942101 1.0030336 0.99335593

bias f4 [8]
00000000: 4f19 10bc 3046 0bbc 096e e0bb 6f34 d7bb
00000010: 224e f9bb 7d77 10bc c3fb 013b efb7 11bc
-0.008795097 -0.008500621 -0.0068490547 -0.00656753 -0.007608191 -0.008817551 0.00198339 -0.008893951

running_mean f4 [8]
00000000: 3258 4bbd ad50 c6bd 98f1 02be 04a6 3b3e
00000010: d0a7 9fbd d2ef 35bd 0d6d 443e 4d8f 1ebe
-0.049644656 -0.096833564 -0.12787473 0.18325049 -0.077956796 -0.044418164 0.19182225 -0.15484352

running_var f4 [8]
00000000: 262d d53e 07ff cd3e 58a5 d13e 4013 c53e
00000010: 696c d03e 9b01 d43e 462c 0d3f 95c8 ec3e
0.41636008 0.40233633 0.4094646 0.3849125 0.4070771 0.41407475 0.5514568 0.46246782

weight f4 [128, 25]
00000000: 8e0b babd ad75 17bd b240 b63d ebc9 13be
00000010: a590 d6bd 1785 3bbe 49ab 8d3d 464a 58bd
00000020: 56e8 febd d3b3 1dbe c54f 4abe 2ffe c7bd
00000030: 15fe 0a3e d083 003e 9443 073e 8a89 19bd
00000040: 4c7b 8bbc f0fe 9dbd f890 93bd a6ab 993d
00000050: 72c6 9bbd a083 653d ddd2 ae3d 4acf 3abe
00000060: 30e5 483c 4139 14be 6ad5 213e 2b73 bdbc
00000070: 7aa2 84bd c965 8e3d 3527 d9bd a41d 3fbe
00000080: 6396 073c 508f 09bd a347 df3c e737 143e
00000090: 962c 133e 91dd 2fbe a223 50be 3f73 46be
000000a0: 8b2d d2bd 0017 49bd 7e3e 313e eea3 be3d
000000b0: 88e9 fe3d 135e f7bd 2510 3fbe c2c9 e6bd
000000c0: fee2 3fbe cd86 983d 2d75 c53d 92e1 8cbd
000000d0: 14d3 d73c cc98 ddbc 6513 17be e8c0 fabd
000000e0: 5a2f 263e 18ae 85bc 80c1 99bd 890d 3bbe
000000f0: 934a 3a3e 0c8b 3e3e 3272 d83d 76bf 3dbe
00000100: 2f70 1a3e b17b 3cbe ccad 0d3e 270f 2c3e
00000110: b6d2 e13c f90d e93b 4ea4 3c3e b19d a73d
00000120: c098 7f3d cf3e 32be 1081 31be 6478 043d
00000130: 99bd c2bd db56 533d 5bf9 9b3d e058 40be
00000140: fb50 4a3e 07bd 4a3e ece8 29be d2d1 9ebd
00000150: 40c3 4ebd 11b6 b23d f2c5 06be f5b1 2b3e
00000160: e105 a63d fc8a 233d 77af 393e 3aed 403e
00000170: de2b e73d 2c95 28be c745 2cbe 7891 473d
00000180: f19b 023e 9453 a43b 23cb 21be 61d2 233e
00000190: d23c 353e e78c 1abd 46cc ed3d c6f6 ddbd
000001a0: 8288 513e b1c7 03be 0f99 2d3d b52a 00bd
000001b0: ed88 d33d 3558 6abd b8fc 12be 807a 13be
000001c0: f6c5 25be 8565 693d 44b6 9b3d b030 c63d
000001d0: 0856 4b3e 87fe 233d 34e4 d63d c563 e23d
000001e0: 8639 15be d4da 303e a492 2a3e 4be1 223b
000001f0: 7fa9 74bd b374 0b3e bb17 3c3e 4644 d63d
00000200: 5419 1d3e 3ee2 b8bd 450a 47be 12c1 3f3d
00000210: 7790 d5bd 1611 d0bd fd1b 4e3d 50f4 dfbd
00000220: 0e6e 42bc 08cd 3f3d d01e ecbd ee67 84bd
00000230: 5bc1 43bd 9a5f 393e 76bb febd eab6 12bc
00000240: 8a24 95bd 3fcf bdbd 8637 29be 842c 503d
00000250: 7b13 e2bd c5f6 263e 34fd e13d b5b6 403e
00000260: f66a 18bd 16a5 90bd 4e63 693d 395d 3e3e
00000270: 2550 1abe e96e be3c 543f 1e3e 159e 3f3e
00000280: 05af 233d 0c8c 03be 01ec 6ebd cca3 3abe
00000290: 54bf 2dbe cd45 9abd f807 153e 3b6d 2c3d
000002a0: e21c 223e 084a 533e 33b2 11bb 89ce 3e3e
000002b0: decd 06be 3e37 3abe 261b 82bb 5484 9abd
000002c0: 9481 ccbd 3d6c 22be 745f 72bd 69f7 afbd
000002d0: bebd 8bbd 527a 28bd 7de2 5f3d d0c0 ab3d
000002e0: 56dc 463e e9dc babd ada4 d73d 6cea 5dbd
000002f0: 2e9f 0dbe c13e dbbd a59c 163e 0f5c 06be
00000300: 2252 ea3d 98e1 26be d70b 4f3e 1fa9 5e3d
00000310: b638 a6bc e373 ba3d 61b7 7a3d df71 6fbd
00000320: 25f0 07be c18b fa3d 181d 13be 0499 02be
00000330: 1f19 d73d 9aba b53d 90f7 a8bd 8620 213e
00000340: e266 663c b439 e63d 8bd2 25bc 6f66 943d
00000350: f9df b83d 6904 443e 7415 39be 1772 0ebe
00000360: 8d3b 3f3e 4efd ef3d 984b 923c 20b3 b1bd
00000370: 63dd 84bd 1b6b 80bb fb46 e13c 6ee2 253e
00000380: 798b eabc dc1c 36bd 4393 38be 0d2a bf3d
00000390: 3fa0 f9bd d30f 013e fb35 39be 29bc 3abe
000003a0: 0a0a fd3d 722a b63d 40e9 f13d 24a4 6e3d
000003b0: ad57 153d 8f1c d83d 365a 8abd 4434 0c3e
000003c0: 361b 4c3e 1015 30be 9ebd b5bd 934b 0fbe
000003d0: fe25 3ebe e489 1d3e 908d 05be 64b4 e9bd
000003e0: f198 c2bc 5af4 183c 0f7d d5bd 79b2 693d
000003f0: 7378 2a3e 1040 363e 389c 823d 9dad d93d
-0.09084235 -0.03697746 0.088990584 -0.14432494 -0.104768075 -0.18312488 0.06917436 -0.052805208
-0.12446658 -0.15400629 -0.19756992 -0.097652785 0.13573487 0.12550282 0.13209373 -0.037484683
-0.017026566 -0.07714641 -0.07205385 0.075034425 -0.0760621 0.05603373 0.08536313 -0.18243137
0.012261674 -0.14474966 0.15804067 -0.023126205 -0.064763024 0.06953008 -0.10603181 -0.18663651
0.008275601 -0.03358394 0.027255839 0.1447445 0.14372477 -0.17174365 -0.20326093 -0.193799
-0.10262593 -0.0490942 0.17308995 0.09308611 0.12446886 -0.1207849 -0.18658502 -0.11268951
-0.18738934 0.07447586 0.0964149 -0.068789616 0.026345767 -0.027050398 -0.14753492 -0.12243825
0.16229 -0.016318366 -0.0750761 -0.18266882 0.1819251 0.1860773 0.10568656 -0.18530068
0.15081857 -0.1840656 0.1383583 0.16802655 0.027566295 0.0071122614 0.18422052 0.08184374
0.062401533 -0.17406772 -0.1733439 0.032341376 -0.09508819 0.051596504 0.0761592 -0.18783903
0.19757454 0.1979867 -0.16592759 -0.07754864 -0.050479174 0.08726133 -0.13161448 0.16767104
0.0810659 0.039927468 0.18133341 0.18840495 0.11287664 -0.16463155 -0.16823493 0.048722714
0.127548 0.005014846 -0.15800147 0.15998222 0.17698982 -0.03773203 0.11611228 -0.10838084
0.2046223 -0.12869145 0.042382296 -0.03129073 0.10328851 -0.057213027 -0.14354217 -0.14402199
-0.16188797 0.056981582 0.07603124 0.09677255 0.19857037 0.040037658 0.10492745 0.11054186
-0.14572725 0.17270976 0.16657501 0.0024853523 -0.059731957 0.13618736 0.18368427 0.10462241
0.15341693 -0.09027527 -0.19437511 0.046814986 -0.10427945 -0.10159509 0.05031966 -0.10935271
-0.011867059 0.046826392 -0.115293145 -0.064651355 -0.04779182 0.18102875 -0.12438099 -0.008954743
-0.0728236 -0.09268045 -0.16525087 0.050823703 -0.11038872 0.16305073 0.11034623 0.18819697
-0.03721138 -0.07062738 0.05697947 0.18590249 -0.15069635 0.023246245 0.15453845 0.18712647
0.039961834 -0.12846392 -0.05833054 -0.18226546 -0.16967517 -0.07532845 0.14553821 0.042096358
0.1583133 0.2063371 -0.002223146 0.18633474 -0.1316447 -0.18185136 -0.0039705215 -0.07544771
-0.099856526 -0.15861602 -0.059173062 -0.085921116 -0.068233 -0.04113228 0.054659355 0.083863854
0.19419989 -0.091241665 0.10529456 -0.05417864 -0.13830253 -0.10705329 0.14708193 -0.13121055
0.11441447 -0.16296995 0.2021936 0.054360505 -0.020290714 0.09104135 0.06121004 -0.058458205
-0.13275202 0.12233687 -0.14366567 -0.12753683 0.10502838 0.08873482 -0.08250344 0.15735063
0.014062615 0.11241475 -0.010120998 0.072461 0.090270944 0.19142307 -0.1807459 -0.1391071
0.1867506 0.11718236 0.017858312 -0.086767435 -0.06487539 -0.003919018 0.027499666 0.16199657
-0.028630959 -0.044461116 -0.18024926 0.093341924 -0.12188768 0.12603693 -0.18086998 -0.1823584
0.123554304 0.088948146 0.11812067 0.058262005 0.036460567 0.10552322 -0.067554876 0.13691813
0.19932255 -0.17195535 -0.08874057 -0.13993673 -0.1856918 0.15384632 -0.13042283 -0.1141136
-0.023754569 0.009335602 -0.10424244 0.05705497 0.1664751 0.17797875 0.063774526 0.10628817

bias f4 [128]
00000000: 5d8d 43bd f2e8 b83d ac34 b23d b80b 223e
00000010: 74b2 013c e858 a1bd 31e0 8bbc 631e acbd
00000020: 88e1 fb3d ec76 423e 3985 663d 528b 1b3e
00000030: fa6b febd 423b b63d f6b9 f93d 3d1f 383d
00000040: 1c12 8dba d7fe 733d f1be 143d 079c 32be
00000050: 538d 593d a659 afbd 62db b6bd 53a7 f5bd
00000060: 730e edbd be19 cf3d 7987 063e e849 36be
00000070: 1b6b b13d 4809 573d 91e3 edbd 3ec2 e53d
00000080: 0025 7a3c 9796 06be 03b8 55bb ea1e cb3d
00000090: bbfd 1b3c b36c 87bc 3406 a5bc 2140 9bbc
000000a0: 79ed bcbd 3460 47bd 89d4 393e 02fe 103e
000000b0: 3df6 dcbd c217 17be 6652 d53d 4e93 8fbd
000000c0: 301f 40bd 0809 0bbe 1144 a7bd 1ec7 fabd
000000d0: b4f0 42be 3e05 d3bc 0c1a 73bd 2f43 12be
000000e0: ef08 c7bd e8d3 32bd 7bd6 c33d c898 143d
000000f0: d6ad 533d 565d 0c3e 2465 493d 65be 973d
00000100: 68c7 bdbd 5ada 463e ddbd 08be f840 4f3d
00000110: f80c 9e3c 3720 1abd ed6c 64bc 9f5d 663c
00000120: d559 133e 12cb f5bd 38e7 04be 8ef2 ea3d
00000130: b55b ea3d 8d23 be3d 231e 073d cd99 013d
00000140: 35a0 2d3e cc3c 38be 4c55 7e3d 0a02 2a3e
00000150: 2bb8 30bd 25fc 023d 5193 08be 3225 3abe
00000160: b95c 293d 9acb e63d 159c 3dbe 4674 4e3e
00000170: 817c 693d f332 b8bd 0a3b 26be 4dff 7cbd
00000180: 904b e83d 362f 0e3d a4ba a4bd d586 77bd
00000190: 8c3d aebc 6f8b 093e b00e 13be 9bef 1f3e
000001a0: 4b08 86bd 828d a7ba c7d6 a13c 0c7a 0b3e
000001b0: 69c0 c0bd f382 febd 8272 713b 879d bdbc
000001c0: 3eb8 94bc d47d 003e 39db edbd fbe4 383e
000001d0: 1718 69bd 9e9d 83bd 279e 3c3e bbf9 ce3d
000001e0: c3a3 dfbc 7150 a23c 50b5 b9bd c874 ee3d
000001f0: 0118 7d3d c2fe 40bd 236a 3ebd c945 a53c
-0.047742236 0.09028806 0.087014526 0.15824783 0.007916082 -0.07878286 -0.017074676 -0.08404233
0.12298876 0.18990678 0.056279395 0.15189865 -0.12422939 0.08898021 0.12193672 0.044951666
-0.0010762843 0.059569206 0.03631491 -0.17442332 0.053113293 -0.08562021 -0.08928563 -0.11994805
-0.115750216 0.10112332 0.13137616 -0.1780163 0.08663007 0.052499086 -0.116156705 0.112186894
0.015267611 -0.13143383 -0.00326109 0.09918006 0.009520943 -0.016531324 -0.02014456 -0.018951477
-0.09224982 -0.04867573 0.18147482 0.14159396 -0.10789154 -0.14755157 0.10416107 -0.07010518
-0.046904743 -0.13577664 -0.081672795 -0.1224501 -0.19037133 -0.025759336 -0.059351012 -0.14283441
-0.09718501 -0.04365912 0.09562393 0.036278516 0.051679455 0.1370748 0.04916872 0.07409362
-0.09266549 0.19419232 -0.13353677 0.05059907 0.019293293 -0.03762838 -0.013941986 0.014060407
0.14389737 -0.12001623 -0.12978828 0.11472045 0.11443273 0.092841245 0.032987725 0.031640816
0.16955645 -0.17991942 0.062093064 0.1660234 -0.043144386 0.031978745 -0.13337447 -0.18178251
0.041348193 0.11269303 -0.18516572 0.20161542 0.0570035 -0.08994093 -0.16233459 -0.06176691
0.113425374 0.034712993 -0.080434114 -0.06043132 -0.021269582 0.13432096 -0.14361072 0.15618746
-0.065445505 -0.0012783261 0.019755734 0.13620776 -0.09411699 -0.1242732 0.0036841934 -0.023146404
-0.01815426 0.12548 -0.11614079 0.18056099 -0.05690774 -0.064265475 0.18419705 0.10106226
-0.027299767 0.019813748 -0.09067786 0.11643368 0.06179047 -0.047117956 -0.04648794 0.020174878

weight f4 [128, 127]
00000000: 13b8 a93d 0938 96bc 0656 80bd 4372 65bd
00000010: 4c65 45bd b94c eebc 62d4 1a3b 38a4 373d
00000020: dd22 443c 6276 35bd c4ed 643d 8a1b 873d
00000030: 3387 9d3d 2826 29bd 52d7 b03d 967d af3d
00000040: 666b 99bd 6b9b d33c 5a1f ca3c e04e b2bd
00000050: ef62 5bbd cc05 97bd 3473 1d3d 9580 a93c
00000060: fa29 97bd b8c7 42bd 4613 a2bc 18e1 14bb
00000070: a2f3 bdba 5818 c5bc 7bea 8d3c c41d 663d
00000080: 2fa1 2fbb 97e3 81bd ee34 16bc 41e6 103d
00000090: 94bf 91bd b936 81bd 8248 623d 83ab 83bd
000000a0: c323 973d d1a8 f4bc db9c 95bd 1212 663d
000000b0: 8371 c23c 1cc4 dfbc 1c01 03bd a24c 6a3d
000000c0: 1c48 86bc 9485 8c3c f41a 20bd b00a d7bc
000000d0: a55e 863d 9027 993d cf13 5e3d 4a5b 0cbd
000000e0: 0587 f3bc 5458 9fbd 8c4f 6e3b c831 57bd
000000f0: 9767 adbc a8d3 983d 5177 1c3d 357f 8d3d
00000100: addc aabb c21b 1bbd b756 90bc 2e88 8ebd
00000110: 5dad d5bc 1cbf 11bd 1578 b73c 655a 303d
00000120: 3398 5ebc b495 61bd c441 82bd 66e0 f7bc
00000130: 8f03 8dbc 421d 063d 84c8 823d fce7 e7bc
00000140: 9f14 ad3d 4ac7 b93d 2447 b53d e3fa 03bd
00000150: c10f 223d e5b9 aabd e412 3cbd c31b b23b
00000160: 83de 7dbd c273 803d c83c db3c f961 4ab9
00000170: 7cea 74bb 8875 07bd e3d0 743d c42e 643d
00000180: 75c4 4b3c ac78 d63c 9351 25bd 6681 523d
00000190: 08a7 63bd fbf5 d9bc 1ce1 183b b99c 563d
000001a0: 440c 743d 7eec 1e3d 30e8 25bd 5c6e 03bd
000001b0: 5e0f 063c dc7b 623d 75b9 44bd 1301 2cbd
000001c0: d9b6 45bc 5362 093b d46f b33d 070b 693d
000001d0: f4c7 70bd 3c31 41bd 6cd1 a43d e775 8bbc
000001e0: e047 80bc 7a57 953d 42e2 f6bc 3253 8fbd
000001f0: 08d3 2e3c 133e 3d3c 9664 843d 1205 debb
00000200: b10f ae3b 0734 95bd 4bd5 803d ae1c 45bc
00000210: 0380 22bb 582b a03d e8ae be3c 2464 90bd
00000220: f49f ad3d 483c 92bc acaf a7bb 2a97 8cbd
00000230: ca89 0abd e1e0 36bd 6998 07bc 84a8 123d
00000240: 0136 8d3d c49e 2e3d 686b ae3d 13ef 953d
00000250: a152 b0bd ed15 0e3a 1e1f 443d 9f2f 29bc
00000260: cf7c b3bd c196 f33c 5800 12bc 11b1 a4bd
00000270: ad78 cc3c ef76 a1bd 2560 84bb feae 92bc
00000280: aca0 8dbd d377 023d cd0c 9abb 637a 713d
00000290: 0b3f ac3d a169 afbd b005 243d 3495 623d
000002a0: 29a1 b7bd 0f6c 0f3d 60d7 9ebc c402 363d
000002b0: a395 64bc 87fb 0b3d 031e 09bd eecf 4cbd
000002c0: 5b4b 42bd 9669 95bd 3552 8dbd 138d 153d
000002d0: fc43 993d fed4 993d 0f69 a9bc 889c d93a
000002e0: 1222 a33d 8b7a 0ebd 23c1 94bc 43b9 7fbd
000002f0: 4f74 8dbd 3770 653c 2fa8 883d 9016 43bd
00000300: 4416 2dbd 0f06 8c3d d0fe 6c3d e208 a13c
00000310: 7210 d03b 9d67 333d c2e9 5abd 7e99 50bd
00000320: effc dfbc 2e43 653d b71b acbd c366 1abd
00000330: 1565 533d 1774 91bd 3deb 6bbd 214f 0a3d
00000340: 9fc4 22bd 7895 aebd d9f3 d83c 7ba4 843c
00000350: 2e0d 023d b346 d2bb 196a 423d 86d1 8a3c
00000360: 4d48 93bd 0fca 76bd 6451 08bd e300 6a3b
00000370: 327b 453c 0dba 683d e8cf 37bc 925a 2dbc
00000380: 139c 03bc 6338 713d a0f2 ad3d 4dde b5bd
00000390: d490 45bc 3bb2 07bd b87f 94bd dac9 89bd
000003a0: d624 80bd ca02 2fbd e817 52bd 912a eb3c
000003b0: 9f4f 1fbd 9105 e7bc ac61 323d a6d0 823d
000003c0: a443 343d 1d06 9bbd 630a 1fbc 98a1 56bd
000003d0: c23b 6dbd d622 923d 2cca 993d 0022 7a3d
000003e0: b215 1e3d 2249 a4bb 4194 c63b b865 fbbc
000003f0: ad3b 473d a8e5 643d 0cda 3abd 65d9 a13d
0.082870625 -0.018337267 -0.06266408 -0.05601717 -0.048192307 -0.029089319 0.0023625125 0.044834346
0.011971203 -0.04430235 0.055890813 0.065970495 0.07691803 -0.041296154 0.08634819 0.085688755
-0.07491188 0.025830945 0.024673153 -0.087064505 -0.053561147 -0.073741525 0.038439944 0.020691196
-0.07381053 -0.047553748 -0.01978458 -0.0022717174 -0.0014492164 -0.02405946 0.017323723 0.05618073
-0.0026798954 -0.063422374 -0.009167893 0.035375837 -0.07116619 -0.06309266 0.05524493 -0.06429198
0.07379868 -0.029865654 -0.073053084 0.056169577 0.023735767 -0.027315192 -0.03198348 0.05720199
-0.016391806 0.017153539 -0.039088205 -0.026250213 0.06561021 0.07478249 0.05421811 -0.034266748
-0.029727468 -0.07780519 0.0036363332 -0.05253771 -0.02116756 0.07462245 0.038199726 0.069090284
-0.005214295 -0.03786827 -0.017619474 -0.06959568 -0.026083643 -0.035582647 0.022396127 0.043054957
-0.013586092 -0.05507441 -0.063602 -0.030258369 -0.017213611 0.032742746 0.063859016 -0.028308861
0.08451199 0.090712145 0.088514596 -0.032221686 0.039565805 -0.08336238 -0.045916453 0.0054354384
-0.06197978 0.06272079 0.026762381 -0.00019300719 -0.003737121 -0.03307107 0.059769522 0.05570866
0.012436976 0.026180588 -0.040361 0.051392935 -0.055579215 -0.02660655 0.0023327535 0.052395556
0.05958201 0.038799755 -0.040504634 -0.03208767 0.008182375 0.055293903 -0.048028428 -0.041993212
-0.01206752 0.0020963147 0.08761564 0.056895282 -0.05878444 -0.047166094 0.080477566 -0.017023994
-0.015659273 0.072920755 -0.030137185 -0.0699829 0.010670431 0.011550444 0.06464498 -0.006775507
0.005311929 -0.07285314 0.062906824 -0.012030764 -0.002479554 0.07820767 0.023276761 -0.0705035
0.08477774 -0.01785101 -0.0051173773 -0.0686477 -0.033822812 -0.044648055 -0.0082760835 0.03580524
0.06895066 0.04263188 0.0851658 0.073209904 -0.0860951 0.00054201373 0.04788124 -0.010326295
-0.0876404 0.029734971 -0.008911215 -0.08041585 0.024959886 -0.07884013 -0.0040397816 -0.017905708
-0.06915411 0.031852555 -0.004701233 0.058954608 0.08410462 -0.08565069 0.040044487 0.055318072
-0.08966286 0.035015162 -0.019389808 0.04443623 -0.013951692 0.034175422 -0.033475887 -0.050002985
-0.047435146 -0.072955295 -0.06900445 0.036511492 0.0748367 0.07511328 -0.020679979 0.0016602436
0.07965483 -0.034784835 -0.018158501 -0.06243254 -0.0690695 0.014003805 0.066727035 -0.04762894
-0.042257562 0.06837093 0.057860196 0.019657556 0.0063496167 0.043799985 -0.053445585 -0.05092763
-0.027342288 0.05597227 -0.08403724 -0.037695657 0.05161007 -0.071022205 -0.057597388 0.03376687
-0.039738294 -0.08524603 0.026483463 0.016191712 0.03175085 -0.0064171194 0.047464464 0.016945612
-0.07191525 -0.06025129 -0.033280745 0.0035706095 0.012053298 0.056818057 -0.011219002 -0.010580676
-0.008032816 0.058891665 0.08493543 -0.08880291 -0.0120584555 -0.03312896 -0.07250923 -0.06727953
-0.06257026 -0.04272727 -0.05129233 0.02870682 -0.038894292 -0.028200896 0.04355018 0.06387453
0.04400982 -0.075695254 -0.009707066 -0.0524002 -0.057918318 0.07135551 0.07509264 0.06106758
0.03859491 -0.005013601 0.0060601537 -0.030688152 0.048640896 0.05588308 -0.045618102 0.07902793
