nn/checkpoints/main_material/7/model_30.pt (torch, 451442 bytes, 98 tensors)

weight f4 [8, 5, 3]
00000000: c332 473c c957 2e3e 1c01 833d 3f29 ddbd
00000010: 02fb bebc 29a9 88bd 5a90 af3d 3bfc 673e
00000020: 7999 20be 4628 76be 51fa 99bd 64f1 23be
00000030: 2460 4b3c e0ea 913d 1fb4 3a3e 5808 033e
00000040: a14c 6dbd 811b ad3d 7719 96bd ba59 743d
00000050: ead5 213e 4356 9bbd a10a 433e fed9 bbbd
00000060: 259b 84be 560c 653e 54a2 a4bd f5ad 7fbe
00000070: 6f51 2ebe c800 80be dbb0 903e b0e4 fe3d
00000080: 0bc7 edbd 48f3 803e d373 87be 998b 1abe
00000090: cb29 203e 59ff 9c3d 6efd aebc 9a68 15be
000000a0: 2f32 1cbe c778 4d3e b87e c2bc 15d2 3f3e
000000b0: 7e66 cbbd 1a65 29bd 5471 9cbe 0a24 d4bd
000000c0: 849e 843e f302 c4bd 87d4 70be a5d3 4fbe
000000d0: 187d e2bd 746e 63be 675a 493e d511 3dbe
000000e0: 4785 2b3e a364 a8bc 2a3f 9dbd cb34 4c3e
000000f0: 6461 333e 9906 debd 958c 5b3e 7ec6 0a3e
00000100: 88f1 e0bd c4e6 6b3e f07a dabd 79a7 6abe
00000110: 7e16 6d3d aa51 e0bd 2db2 04be 180a 05be
00000120: 15b8 46be b10e c53d c7e7 9ebc fef1 e8bc
00000130: 6c27 4ebe 60a9 863e 3c40 993d e808 ab3d
00000140: 1ca3 4fbe 2aaa 333c 2684 ae3d 7118 243e
00000150: 8433 743e b553 4b3d 14f3 29be 8722 513e
00000160: 5a0e 4d3d c981 533e 26b4 583b a786 82be
00000170: b5a7 4c3e 647e bd3a 0661 003e 8477 0fbe
00000180: f211 12be 0826 0bbd 48a7 1cbe cafc 9f3c
00000190: ba5d 01be 2441 383e 2a09 eb3d 4dad 603e
000001a0: ced6 2abe 2117 463e 5799 bb3d 90f5 54be
000001b0: 352c fa3d b88e 383b ebdf ea3c cb2c 763e
000001c0: 328f 3d3e 3c46 97bc 114c 84bd 9cbc 993e
000001d0: 625c 0bbe d870 7d3e 0ac1 7d3e 219e 243e
0.012158099 0.17025675 0.06396696 -0.10798883 -0.02331305 -0.0667289 0.08572455 0.22654812
-0.15683545 -0.240388 -0.07518447 -0.16010052 0.012413058 0.07124877 0.18232773 0.12796152
-0.057934407 0.084525116 -0.07329076 0.059655882 0.15804258 -0.075848125 0.19047023 -0.09172438
-0.25899616 0.22367987 -0.08038774 -0.24968703 -0.17023252 -0.25000596 0.2825993 0.124459624
-0.1161023 0.2518561 -0.26455554 -0.15092315 0.15640943 0.07665891 -0.021361079 -0.14590684
-0.15253519 0.20065604 -0.023742065 0.18732484 -0.09931658 -0.041356184 -0.30555212 -0.103584364
0.25902188 -0.09570875 -0.23518573 -0.2029558 -0.11059016 -0.22210103 0.19663392 -0.18463834
0.1675006 -0.0205558 -0.07678063 0.19942014 0.1751762 -0.10841102 0.21440347 0.13552281
-0.109835684 0.23037249 -0.1066798 -0.22915448 0.05788278 -0.10953076 -0.12958594 -0.12992132
-0.19406159 0.09621943 -0.01939763 -0.028435703 -0.20132226 0.26301098 0.07482955 0.08351308
-0.20277065 0.010965863 0.08521299 0.16024949 0.23847777 0.049640376 -0.16596633 0.20423327
0.050062515 0.20654978 0.0033066361 -0.25493357 0.1998585 0.0014457223 0.12537012 -0.14010435
-0.14264658 -0.033971816 -0.15298188 0.019529719 -0.1263341 0.17993599 0.11476357 0.21941109
-0.16683504 0.1934476 0.09160107 -0.207968 0.12215463 0.002816124 0.028671226 0.24040525
0.18511656 -0.018466108 -0.06459821 0.3002671 -0.1360946 0.24750078 0.2478067 0.16075946

bias f4 [8]
00000000: ba39 6e3c 0c6a e4bd 1d70 4d3e 96c1 76be
00000010: 47a7 073e afd9 573e dcc6 cc3d db1d ff3c
0.01454013 -0.11153039 0.20062299 -0.24097285 0.13247405 0.21079133 0.09998867 0.031142166

weight f4 [8]
00000000: c992 7c3f 3261 813f fc41 7e3f b2f2 8b3f
00000010: ca67 783f b07f 7f3f a55f 803f 6753 7b3f
0.98661476 1.0107787 0.99319434 1.093344 0.9703337 0.9980421 1.0029188 0.98174137

bias f4 [8]
00000000: 69cc 073d d530 f3bc 1f92 7e3b 4d09 813d
00000010: 8061 8d3d c8e3 933d 02e1 903d 9d6a b03d
0.033153925 -0.02968637 0.003884442 0.06300602 0.06903362 0.0722118 0.07074167 0.08614085

running_mean f4 [8]
00000000: fd2a c73b 16a7 a6be fef2 b53e dba7 1bbf
00000010: e70f 753c bcf5 1d3f dcb9 503c b472 363f
0.0060781226 -0.3254935 0.3553695 -0.60803 0.014957405 0.61703086 0.012739625 0.71268773

running_var f4 [8]
00000000: 830e ce3d 7fe0 0b3f 7392 6b3e baa7 563f
00000010: 7f0d b93e f473 703f ac83 d33d c5c6 1e40
0.10061362 0.5463943 0.23005085 0.8384968 0.3614311 0.9392693 0.10327849 2.480882

weight f4 [8, 8, 3]
00000000: 93bd 18bd 9ffa 973b a41a 89bd b032 a33c
00000010: c256 d9bd 7fa5 a9bd 8742 e0bc cf1d 1abe
00000020: 70da 9b3b 60fd 15be 0f36 01be de32 823d
00000030: 5f51 ebba eeb1 20be 186c eebc 0487 cebd
00000040: f12b 0dbe 52fd 84be 4638 bcbd c851 2d3e
00000050: c20a 85bc 4736 b9bc d483 dcbd 496b 7ebe
00000060: e96e 9f3b 0544 1b3e 7122 18be 6d41 65bd
00000070: 86d8 9bbb 3938 413d 9473 4ebe 9192 11be
00000080: 8c91 22be cf9d 27bc 5ad0 91be 021f 6a3d
00000090: 62a8 b03a 6121 2d3d 9352 4ebe cb05 f0bd
000000a0: f06e 2ebd a8e2 0b3e 3a08 42be b151 103e
000000b0: f35a b8bb 8519 133d 01df 2c3e 0e64 5a3d
000000c0: 7c9e d93b b796 fabd d9f4 86bd 05e5 36be
000000d0: 66c6 413d 2c07 d7bd a42f 14bd 9346 013e
000000e0: abb4 51be d575 a7bd 45a9 56be 2148 50be
000000f0: 1c6c 7cbe a1ce c53d d2f5 273e 22f4 ca3d
00000100: af20 2d3e c55a 283e 3f78 84bc 8e10 19be
00000110: cbf8 263d cd7d 133d 3724 1dbe 62d8 eabd
00000120: 971f e23d ae8f b13a 41fa d4bd 57f6 3c3d
00000130: ea2d 8f3d 43c1 183d 6224 bf3d 296f 21be
00000140: 2b37 2bbd 3250 4a3e 516f 243e bd56 8fbb
00000150: 19de 58b9 4106 2f3d 0f19 c93b a854 783c
00000160: f9a9 bc3d 898e cb3d 1630 7fbd a703 013e
00000170: 6e1e 883c dfd4 703e 3ce2 b43d 15f4 16be
00000180: 6d59 04be 4bce 30bd 197a 2fbe 49d4 9e3d
00000190: efd2 abbc 8737 d6bd ba29 6dbe f9eb 36be
000001a0: b0f7 be3c 84bb 393e db46 ddbd 8a50 d2bd
000001b0: 1316 a5bd 7e38 0fbe d8ca 203d f5a5 29bd
000001c0: 94cd 24be 71b7 413e dafe 2dbe e022 2b3e
000001d0: 9331 333d 41b1 56bd 8bba d1bd 583f d1bd
000001e0: 9c0d 313e bc09 753d b3d8 ffbc 117d 3fbe
000001f0: b80f 023e 9824 37bd 4769 e2bd 2d50 f4bd
00000200: 4593 153e 917f 93bd 2349 3bbe bd4e 773d
00000210: 8223 193e 0f23 35bc ce7a 12be 6193 bfbd
00000220: f2d4 29bd 395d afbd 4c49 b23c e99c 0cbe
00000230: 72db 223e bc66 52bb e203 0c3d 64ac 38bd
00000240: 8ba7 3cbd 0edf 443e 4e3d 36be a862 3a3e
00000250: 611c f43d 5122 c5bd 7530 27be 08d4 b3bc
00000260: 3d6b 92bc 90bb 09be ea85 1cbe dbdf ec3d
00000270: e68f e53d a95e cebd bb6a 2cbe 862d 9cbd
00000280: 3b64 98bd 684d 6bbd 1fff f5bd 3666 01be
00000290: 6903 4dbe 7277 fd3d c6e4 1cbe a43f c5bd
000002a0: fc37 89bd 33d2 56be 4e52 8bbc b312 67bd
000002b0: 8814 86be 35bf 01bc f297 903c 30e3 e8bd
000002c0: e611 9f3d eef4 1c3d ad85 28bb 6e8f 27be
000002d0: 11e6 0dbe b6f5 dc3d 7559 3cbe 3c5d 09be
000002e0: 4cfe 36bb 1a77 1dbe b34d c63d 0b31 c8ba
000002f0: 117a 61be a8f5 4c3e 5de8 4dbe b3f8 103e
-0.037290167 0.0046380307 -0.066945344 0.01992163 -0.10612251 -0.08283519 -0.027375473 -0.15050434
0.0047562644 -0.14647436 -0.12618278 0.063573584 -0.0017953328 -0.15692875 -0.029104277 -0.10084346
-0.13786294 -0.25974518 -0.09190421 0.16925728 -0.016240481 -0.02260889 -0.10767332 -0.24845614
0.0048655164 0.15162666 -0.14856888 -0.055970598 -0.004756036 0.04717276 -0.20161277 -0.14216067
-0.15875834 -0.010230496 -0.28479272 0.057158478 0.0013477916 0.04226816 -0.20148687 -0.11719855
-0.042586267 0.13660681 -0.1894845 0.14093663 -0.0056260764 0.03591301 0.16881944 0.053318076
0.0066412073 -0.12235778 -0.0658967 -0.17860802 0.047308348 -0.10499415 -0.036178246 0.12624578
-0.20479076 -0.081767716 -0.20963009 -0.20340015 -0.24650615 0.09658552 0.16402367 0.09909846
0.16906999 0.16440876 -0.016170619 -0.14947721 0.04076461 0.036008645 -0.15345846 -0.11467053
0.110411815 0.0013546848 -0.10399295 0.046133365 0.06991179 0.037293684 0.09333111 -0.1576506
-0.04180066 0.19757155 0.16058089 -0.0043743537 -0.00020682103 0.042730574 0.0061370204 0.015156902
0.09212107 0.09939296 -0.062301718 0.1259905 0.016616073 0.23518704 0.08832213 -0.14741547
-0.12924738 -0.043165486 -0.1713642 0.07755334 -0.020974604 -0.1045981 -0.23160449 -0.17863454
0.023311466 0.18137938 -0.1080453 -0.10269268 -0.08060851 -0.13986394 0.039255947 -0.041418035
-0.16094047 0.18917634 -0.1699175 0.16712523 0.04374845 -0.052415136 -0.102406584 -0.1021716
0.17290348 0.059823737 -0.03123126 -0.18700053 0.12701309 -0.044712633 -0.11055236 -0.11929355
0.1460696 -0.07202066 -0.18289618 0.060377825 0.14954951 -0.011055722 -0.14304659 -0.09354282
-0.041462846 -0.08562703 0.021763466 -0.13731731 0.15904024 -0.0032104691 0.03418339 -0.04508628
-0.04605822 0.19225714 -0.17796823 0.18201697 0.11919475 -0.09625686 -0.16327079 -0.02195169
-0.0178734 -0.13450456 -0.15285459 0.115661345 0.11209087 -0.10076649 -0.1683759 -0.076258704
-0.074409924 -0.057446867 -0.12011551 -0.12636647 -0.20020832 0.12376298 -0.15321645 -0.09631279
-0.06700131 -0.20978622 -0.01700702 -0.056414317 -0.2618754 -0.007919122 0.017650578 -0.113714576
0.07767086 0.03831952 -0.0025714443 -0.16363308 -0.13857295 0.10789053 -0.183935 -0.13414472
-0.002792257 -0.15377465 0.09682789 -0.0015273405 -0.22019221 0.20015585 -0.20108171 0.14157371

bias f4 [8]
00000000: a0e4 443e 88a0 51be ea4c b0bc 72df fabd
00000010: 91ee 713c 8db7 acbc 40e7 1fbd 9f3a 313d
0.19227839 -0.20471394 -0.02152105 -0.1224965 0.014766351 -0.021083618 -0.039038897 0.043268796

weight f4 [8]
00000000: d8fb 843f 83be 7d3f 779a 803f 1c34 753f
00000010: 05da 843f a4d9 7b3f f8d0 843f d3dc 823f
1.0389357 0.9911882 1.0047139 0.9578264 1.0379034 0.9837897 1.0376272 1.022364

bias f4 [8]
00000000: d330 503d 7a0d a93b 6942 003d 8df9 893c
00000010: 00e4 9a3d c218 593c 4204 b03d fe6f 0c3d
0.050827812 0.0051590772 0.031313334 0.016842628 0.07563019 0.013250532 0.08594562 0.03428649

running_mean f4 [8]
00000000: 5a40 7cbe fe59 c4be 8cdc 86be 76d8 183e
00000010: 250e 8cbe 67a9 0ebe 70c5 b7be 0e0c 87be
-0.24633923 -0.3834991 -0.2634014 0.14926323 -0.2735454 -0.1393181 -0.3589282 -0.26376384

running_var f4 [8]
00000000: dfba 563f c9eb 9b3d 651d f93d c15c d83d
00000010: b432 e63e e9bb a83d 472f 753e 3452 2b3e
0.8387889 0.07613332 0.1216381 0.105645664 0.44960558 0.08238966 0.23943816 0.16730577

weight f4 [8, 8, 3]
00000000: 9eb6 123e da00 8e3c b050 583d cc99 3cbe
00000010: 1935 553e a4bf 3bbe 81d9 6f3d 1748 1b3e
00000020: 1b79 bf3c 4905 87bd 21c9 aabd 9051 343e
00000030: 56bc 6a3e ea42 9ebd 8632 103d c647 0f3d
00000040: 77a0 51be f63f 14bd 45fd 01bd 52a1 98bd
00000050: c6fb 223e efbe 673d cf7c e93c 0c29 253e
00000060: 1c20 8fbd 1dc1 0c3d 3540 b3bd 7c01 2b3e
00000070: d50a 8c3d a96f e1bd 5279 0abe 4bb6 ac3c
00000080: 96d2 9bbd a225 4bbd 154f 833d 88ca b3bd
00000090: e675 823e 2ee8 2d3c 5b89 8cbd 2a3c dd3d
000000a0: 3d8f 4f3e c41d ca3d 6d7e 183e 223f 79be
000000b0: f478 3ebd ab89 023c 4863 2d3d b6b2 603e
000000c0: 9bec 8d3c 6b32 0fbe 5cc5 e0bd 1e25 b43c
000000d0: 38fc 03be 23f4 0b3e bcbb 313e df4f 06be
000000e0: 06f4 683d 1e5f ebbd 9efc 2c3e 0ed0 2fbe
000000f0: 4542 333e a68d 58be 475f d43d 65fe 2ebe
00000100: 8c2f f13d 85c1 ee3c 8ff2 35be 6684 f5bb
00000110: ba35 2d3d 87b1 223e 24bf adbd b855 453c
00000120: 1c9e 423e b2dc fabc 26ce 713e 5ca3 acbd
00000130: 7f64 d63d 4e90 a1bd 9f0c 06be 7afb aebc
00000140: 3129 71bd 74d7 4c3e 73e0 c93d 67b0 bfbd
00000150: 83ee 483d 4ea7 7ebc 5f82 66bd e012 13be
00000160: 1225 5c3e cfc6 0e3e aa78 783d f43f dd3d
00000170: 4342 523e c7d2 523e 5176 22be 8c08 06be
00000180: fa55 d53d 26c2 2dbe a56b 65be 5fa2 8f3d
00000190: 11c4 9dbc 2a84 763d c1b2 533d 5d55 253e
000001a0: 4511 14be 2bac b83d 1ece 0cbe 0927 a93d
000001b0: 1402 18be cf9d 6abe b8de 16be b30b fcbd
000001c0: 88de 29be 6320 cfbd cd20 2f3e 2edf 4c3c
000001d0: 94a9 ed3d e64f 39be 675e 263e b7ce 43bd
000001e0: ce67 263d 90c5 02be 9bd1 cebd 34fc 40bd
000001f0: 1f1c 083e 08fa 1f3e e793 02be 0b86 413e
00000200: fb97 24be 88d1 353c cd48 7bbd 919e a7bc
00000210: 6f1d 77bc 53cc 1bbe dbce a23c 4d27 7bbd
00000220: 3330 1f3e 2856 26be 7c46 85be c320 04bc
00000230: 77da 53be bed9 ef38 2d67 523e 328d 2dbe
00000240: 1931 68be bdd4 4e3d 66bb 20be a978 9fbd
00000250: 4fb7 22be f9a3 c4ba 6660 7cbc 85cb 183e
00000260: dae7 9a3d eee1 d3bd 95fe acbc 1e48 0b3e
00000270: 8c20 b33d ba17 12bd bfa2 5c3d 457d 403e
00000280: 388c a83b 63e8 58be 4fb8 eeba fa74 b2bd
00000290: b5b8 a2bd 1fdb 593d 8de4 08be c689 f5bd
000002a0: 93f9 233d 7a66 efbc 8fee d5bd ccf0 06be
000002b0: 98a2 22bd 0017 a9bd 1475 3c3e 2354 a93d
000002c0: 745d 463e 5810 093e e4f7 d4bd 0ac0 3abe
000002d0: 1c52 f0bd c2bd bf3c 9bb3 03bd b46d 213e
000002e0: 3eac 0cbe 922c 9fbc f3fe 193c e7d1 11be
000002f0: 245e 6cbe 452d 043e 122f 463e ea54 bebd
0.14327475 0.01733439 0.052811325 -0.18418044 0.20821036 -0.18334824 0.058557037 0.15164219
0.023373177 -0.06592805 -0.083391435 0.17609239 0.22923407 -0.077276066 0.035204433 0.034980558
-0.20471369 -0.03619381 -0.031735677 -0.074526444 0.15916356 0.056578573 0.028501896 0.1612894
-0.06988546 0.034363855 -0.08752481 0.16699785 0.068380035 -0.110076256 -0.13522843 0.021083018
-0.076085255 -0.049596436 0.06411568 -0.08778864 0.25480574 0.010614438 -0.06862136 0.10802491
0.20269485 0.098689586 0.14891978 -0.2434049 -0.04650207 0.007967393 0.04233101 0.21943173
0.017324736 -0.13984077 -0.10975143 0.021990355 -0.12889183 0.1366735 0.17356771 -0.13116406
0.056873344 -0.114927515 0.16893241 -0.1716921 0.17505749 -0.21147785 0.10369735 -0.17089231
0.11776647 0.029145012 -0.1776831 -0.0074925898 0.042287566 0.15888034 -0.08483723 0.012044363
0.19005626 -0.030622814 0.23613796 -0.08429596 0.10468387 -0.07888852 -0.13090752 -0.021360148
-0.058877174 0.20004064 0.098572634 -0.09359818 0.049055588 -0.015542818 -0.056276675 -0.14362669
0.21498516 0.13943027 0.06066195 0.10803214 0.2053309 0.20588218 -0.15865447 -0.13089198
0.10416789 -0.16968593 -0.22404344 0.07013392 -0.01925853 0.060184635 0.051684145 0.16145845
-0.14459713 0.090172134 -0.13750502 0.082593985 -0.14844543 -0.22911762 -0.14733398 -0.12306919
-0.16588795 -0.10113599 0.17102356 0.012504382 0.1160461 -0.18096885 0.16246949 -0.04780456
0.04062634 -0.12770677 -0.10098573 -0.04711552 0.13291977 0.15622723 -0.12751733 0.1889879
-0.16073601 0.011097319 -0.061348725 -0.020461353 -0.015082701 -0.15214662 0.019874027 -0.061316777
0.1554573 -0.16243804 -0.26030338 -0.008064452 -0.20688806 0.00011436966 0.20547171 -0.16948393
-0.2267498 0.05049585 -0.15696487 -0.07786686 -0.15890239 -0.0015002481 -0.015403843 0.14921387
0.075637534 -0.10345827 -0.021117488 0.1360173 0.08746442 -0.03566716 0.053866144 0.18797787
0.0051436685 -0.21182398 -0.0018212887 -0.08713718 -0.07945386 0.053187486 -0.13368435 -0.11989169
0.040032934 -0.02922367 -0.10445892 -0.13177794 -0.039705843 -0.0825634 0.18404037 0.08268001
0.19371587 0.13385141 -0.10398844 -0.1823732 -0.11734411 0.023405913 -0.032153707 0.15764505
-0.1373758 -0.019430432 0.009399164 -0.14240228 -0.23082787 0.12907894 0.19353893 -0.0929354

bias f4 [8]
00000000: 5e78 a6bd c98d f13d 0ef8 ce3d 9fd2 733d
00000010: 62ae 0b3b f4e4 40be 379b 60bd 681f dbbc
-0.08128427 0.117946215 0.101059064 0.059527036 0.0021313657 -0.18837339 -0.054835524 -0.026748374

weight f4 [8]
00000000: 34ba 753f c60f 843f a788 733f c645 863f
00000010: 928e 7e3f 9409 7b3f 2bba 843f 0ae7 7e3f
0.9598725 1.0317314 0.9513039 1.0490043 0.99436295 0.9806149 1.0369314 0.9957129

bias f4 [8]
00000000: 0452 92bc 8381 833c 0012 223c 26e8 92bc
00000010: ddff 103d 4808 f4ba 732b 8c3c a938 3d3d
-0.017861374 0.016052967 0.009891987 -0.017932963 0.03540026 -0.0018618191 0.017110562 0.046196613

running_mean f4 [8]
00000000: 534c d03d 52bc 583e bf50 213d fba6 8a3e
00000010: 1bd5 50be 75c3 d5be ce9b 59be 8b0a e1bd
0.10170808 0.21165588 0.039383646 0.2708052 -0.20393793 -0.41750684 -0.21250841 -0.10988339

running_var f4 [8]
00000000: d445 3f3d 7366 743d 1e2a 893d 7b79 883d
00000010: 4ce7 923d 2714 1f3d 221f 6f3d dd45 9a3d
0.046697453 0.059668016 0.06697486 0.066637956 0.07173023 0.03883758 0.0583793 0.075328566

weight f4 [8, 8, 3]
00000000: dd13 ae3d cf2b e93c 1804 f2bd 5fc7 e9bd
00000010: 3f2a 623e 94cd d93d 49bf 023e c82d 1cbd
00000020: a17f 203e 1508 223e ddd1 2a3d 67ba a93c
00000030: 03a0 033d 68e9 1b3d f0c8 533d fca2 2c3e
00000040: 2e6c 003e 25f2 5c3e 751f d0bb c854 88bd
00000050: a63c 143e b950 153d 87d9 debc 5a57 40be
00000060: 5acf b1bd 1656 593c 3202 483e a3e0 083d
00000070: f3dc 2c3e e573 12be a85a 5f3d b5e1 3dbe
00000080: 2700 72bd 612f c43c a755 2d3e ec61 20be
00000090: cf3d 00be 39aa 50bd 1e7d 20be 2312 1bbd
000000a0: 3041 6b3d 55f5 b5bd e8f2 6f3c c14c 6cbd
000000b0: 4947 33bd 02cc 94bd df43 ffbd 8358 ce3d
000000c0: fedc 6bbd df0d 3bbd 7db7 5abe 629d 493e
000000d0: 26f1 e73d 319e 073e 62ef 3b3c aa10 f83d
000000e0: 0b7c 083d 87e3 a63d cf45 2abe 6ee0 9d3d
000000f0: 636c 8a3d a25b 61be 7bf3 1d3d 117f 48be
00000100: e35c 56be da72 e73d 57f3 463e 0817 1fbe
00000110: ee81 8b3c 186e 4f3d c276 a03c dabf 2bbe
00000120: 529a 44be b498 86bc 1fac bfbd ba48 49be
00000130: ef1e 19be 197a 023e a80e b6bb 25fb 47bd
00000140: 539e ab3d 7cc2 b5bb 64c3 f9bb ed60 67be
00000150: f158 f73d fcda d53d 2940 bc3d 55da 353c
00000160: d5c0 4f3e c46b a93d 59ce 3abd 3d8c 8ebd
00000170: 95ff 5b3e 74e0 a13d 98c5 1d3c 3f2c aa3d
00000180: 6448 3bbe a0b9 26be 56c3 ba3d 1320 1a3e
00000190: 99f0 5fbd eb5d 2cbe d373 1f3c fc6c 0cbe
000001a0: 7e4b 21bd e053 babd ea77 193e 77bd 3fbd
000001b0: 10c7 d23d bf9a 86bd a70b f8bd b051 233e
000001c0: a1f6 913d 8457 70bd e457 20be 32b2 00be
000001d0: e22d c33c caff 9bba 32b9 4abe b765 4cbe
000001e0: f4f0 93bd 69ee 8a3d 2947 e7bd 8498 a23c
000001f0: 06d0 2f3e 3d8c 9cbd 2a7d 29be 0733 ef3d
00000200: 08c2 593d 022e b8bd 2656 bebd 1bce b6bd
00000210: 32f4 dbbd 77c6 38bc 1551 513e ea1e 3fbd
00000220: 3492 cd3d 6bad 16be 978c a0bd 488c 8cbc
00000230: 0ff8 32be 6b74 1c3e 3597 0ebd 69e2 fbbc
00000240: c4c9 aabd 36dd a5bc 2836 02be 1ada 04be
00000250: cf9e f03d c2e7 f13d aafb b03c 22e1 24be
00000260: 4b2b afbd 11b5 6abc 3a91 92bc 2872 333d
00000270: 0eee eabd 45e4 343d fe07 163e b6ea 16bd
00000280: 86b2 d43d 727e b1bc 69ef 34be f2b0 d93b
00000290: c1de 903d 497a 5fbe e599 0a3c 83af b33d
000002a0: c568 db3d a516 abbd b78e 2abe ba72 21be
000002b0: 511e 46be 7cbe 673e f808 9fbd 6aaa 003e
000002c0: 645b a3bd 86b7 31be 1d39 febd cbec d3bd
000002d0: 0ea4 e1bd cfa1 81bd 81df cc3d 0de4 fe3b
000002e0: baa8 01be a9dc fa3c ec19 2b3e 22b6 ae3d
000002f0: 247d ea3d 22d7 453c 8bd1 51be 2aae 31bd
0.08499882 0.028463272 -0.11817187 -0.1141498 0.22086428 0.10634914 0.12768282 -0.038129598
0.15673687 0.15823396 0.041704047 0.020718766 0.03213502 0.03806439 0.0517053 0.16859049
0.12541267 0.21576746 -0.006351406 -0.06656796 0.1447626 0.036453936 -0.027203334 -0.18783322
-0.08682127 0.013265153 0.19532087 0.033417355 0.1688116 -0.14302023 0.054529816 -0.18543132
-0.059082177 0.023948373 0.16927205 -0.15662354 -0.12523578 -0.050943587 -0.15672728 -0.037859093
0.057435215 -0.08884684 0.014645316 -0.057690386 -0.043769155 -0.07265474 -0.12464117 0.10075476
-0.0575838 -0.045667525 -0.21359058 0.19688943 0.11325292 0.13243939 0.0114706475 0.121125534
0.03332142 0.08148866 -0.16628192 0.07708822 0.067589544 -0.22007611 0.03856228 -0.19579722
-0.20933871 0.11301203 0.19428764 -0.1553613 0.017029729 0.050642103 0.019587878 -0.16772404
-0.19199494 -0.016430236 -0.09359001 -0.19656649 -0.14953206 0.12741889 -0.0055559464 -0.048823494
0.08379807 -0.005546866 -0.0076221693 -0.22595568 0.12077511 0.104421586 0.09191925 0.011099418
0.20288403 0.08272508 -0.045606945 -0.06960342 0.21484216 0.07904139 0.00962963 0.083092205
-0.18289334 -0.16281748 0.091192886 0.15051298 -0.05467281 -0.16832702 0.0097322045 -0.13713449
-0.039378636 -0.09098029 0.1498715 -0.046811547 0.102918744 -0.06572484 -0.121115975 0.1594913
0.07127119 -0.05867721 -0.15658528 -0.12567976 0.02382559 -0.0011901793 -0.19797209 -0.19960676
-0.072236925 0.067837544 -0.112928696 0.019848116 0.17169198 -0.07643936 -0.16551653 0.116796546
0.05316356 -0.0899315 -0.09293775 -0.0892603 -0.10739936 -0.011277786 0.20441087 -0.04666034
0.10037652 -0.14714591 -0.078393154 -0.017156735 -0.1747744 0.15278785 -0.03481217 -0.03074761
-0.08339265 -0.020247083 -0.12715971 -0.12973824 0.1174904 0.118117824 0.021604378 -0.16101506
-0.08553179 -0.014325396 -0.017891515 0.04381004 -0.114711866 0.044163007 0.14651486 -0.03684493
0.10385613 -0.02166674 -0.17669453 0.006643408 0.07073737 -0.21823992 0.008459543 0.087737106
0.107133426 -0.083539285 -0.16656004 -0.15766421 -0.19347502 0.22631258 -0.077653825 0.12565008
-0.07976416 -0.17355165 -0.12413237 -0.10347899 -0.11017619 -0.06329691 0.100035675 0.0077786506
-0.1266202 0.030622797 0.16709107 0.08530833 0.1144965 0.012075217 -0.2049009 -0.043378986

bias f4 [8]
00000000: 33ef 1bbe 6a25 47bd e9c8 013e ed87 193e
00000010: 1f00 cfbd e720 6dbd f140 fb3c bfe9 9a3d
-0.15227966 -0.048619665 0.12674297 0.14993258 -0.10107445 -0.057892706 0.030670615 0.07564115

weight f4 [8]
00000000: c493 7a3f 3cbc 813f 477d 803f 84fc 783f
00000010: 151a 863f a5c6 803f 1e1b 833f d350 7d3f
0.9788172 1.013557 1.0038232 0.9726031 1.047671 1.0060622 1.024265 0.9895145

bias f4 [8]
00000000: 2466 133d b225 4c3d 1972 fa3a f802 943d
00000010: d8d4 783d 638d bf3d a975 af3c ebfc 293d
0.03598608 0.049840637 0.001910749 0.07227129 0.06074986 0.09353139 0.02141841 0.041500967

running_mean f4 [8]
00000000: a9ed 3a3e 4ffd 60be cc78 d53d 5ed3 523e
00000010: 2e81 cbbe fad0 3abe ad30 93bd 6b0a 1bbe
0.18254723 -0.2197163 0.10423431 0.20588443 -0.39746994 -0.1824378 -0.071870185 -0.15140693

running_var f4 [8]
00000000: 0f7a 543e 1695 353e 5a19 303e 7dbb 6b3e
00000010: f2b0 d23e 5c5d 0b3e 8a10 123e 2e63 223e
0.20749687 0.17732653 0.17197171 0.2302074 0.41150624 0.13609833 0.14264122 0.15858147

weight f4 [8, 8, 3]
00000000: 7ab0 5bbd 6513 90bd d23d 163e 5de3 4bbe
00000010: f89c 47be 2a3e 1d3d f994 133d 42cd 463d
00000020: b1c1 56be 75d9 3bbc 2afd 58be 81dd 5a3d
00000030: 1922 063e 11bd 893c 9a08 953d 9394 013e
00000040: f04b a3bd c177 12bd a55f 0fbd cb6a b13d
00000050: ad1d 19be 9eb3 0a3e 1f0b ee3c 3370 d83d
00000060: fe09 d93c 7858 37be 5fda 0d3e e8de 57be
00000070: 3bfc 15bd 354d 7fbe c6ce 7cbd 6ddc 6f3d
00000080: 018e 1d3d 8cb1 a93a bc7b 243e f11b bd3d
00000090: 6492 c9bd d77c a3bd 46f0 6abe c0e8 17bc
000000a0: ab6f 403e 8c25 d6bd 9154 153e 40ad 7fbd
000000b0: 22f7 0ebd 07ec acbc 6655 3bbe 034b 773d
000000c0: 979f 313d 6d18 f6bc 5d56 06be 2fb0 e5bb
000000d0: ca5d f43d db19 03be 2653 3ebe 99ce c1bd
000000e0: 8915 893d 9652 9d3d b31e 1cbe cf1a cabd
000000f0: 11ce 31be 5704 cebd e84f 0f3e 686e 1bbd
00000100: c210 7a3d a24b 123e 8938 e33d d9eb 03be
00000110: a720 a4bd a0be 9d3d 4942 423e b341 79be
00000120: 4f7c 063a 5cb6 f8bc 350d 663e 53bb e03d
00000130: 83cf 283e 3a2e 5ebd a3c2 4c3b 81c1 9a3d
00000140: eb12 113e 5127 1e3e 6ddc 0a3d e35a de3d
00000150: f565 3cbd 7adf 41be 2731 c93c 80ac 1e3e
00000160: 3df7 5b3e acde edbc 8b3e 433e 562d a0bd
00000170: 8b66 41be e2a3 0f3e b59b 1e3e 199a 13bd
00000180: deea 953d 6966 2cbe c245 ec3c 9cd2 60be
00000190: 1c1a 28be b009 283e 363c 613e 4bd9 b03c
000001a0: 47e7 e43c a137 7d3c 9f73 1b3e d3f1 f83d
000001b0: 523c febd 21ee 783e 4d2b 973d d79c 31be
000001c0: 118f 9fbd 2076 60be a487 f4bd 8861 2e3d
000001d0: f412 7c3b 9308 893d d94f 463b 0ce0 20be
000001e0: 599d bbbc dbcd 3dbe 6e29 9cbd 7703 df3d
000001f0: 8855 ff3d d554 a73d 4969 003d df4b 4d3c
00000200: 7397 2dbe 4198 bcbd d8f7 993d 8b06 69be
00000210: 69da 283d 04be 363e c071 863d d853 ed3d
00000220: 4c66 eb3d 4fd9 1bbe 8dcf 2bbe d035 613e
00000230: 926c 3dbe c926 b8bd 52fb 5b3d 9e33 a53d
00000240: 9818 2f3e 93f6 043c 1146 23be e788 e33d
00000250: 1899 a6bb 4cf7 5bbe 31af 62bd 7bc6 d73d
00000260: 6982 e9bd c301 2f3e ee98 e6bd 1f21 a23b
00000270: 3675 a0bd 9f32 89bd cccc 843d a41b 13bd
00000280: 6f49 acbd 267e 52be 013d d83b 0ea4 febd
00000290: d57e 1e3c 0085 81bd 14f3 123d 21d6 43bd
000002a0: a83a 2ebe 8e10 e7bc 4964 0fbd 7709 cf3d
000002b0: 08c1 cfbd 8802 d0bd 3aff d8bd 2550 973d
000002c0: 1291 25be 25aa 0cbe 24bb d53c a7e8 ac3d
000002d0: 0915 c43d d61f 07be 008c 213e 9ed5 70bd
000002e0: b93d 1c3c bfc1 213d 818b 563d 4d2d cb3d
000002f0: aad1 033d c70e 34be 751e 81be f64e 003d
-0.053635098 -0.07034949 0.1467202 -0.19910951 -0.19493473 0.038389362 0.036030743 0.048535593
-0.20972325 -0.01146542 -0.21190324 0.0534339 0.13098945 0.016813787 0.07277031 0.12654333
-0.07973468 -0.035758737 -0.035003323 0.08662947 -0.14952727 0.13545081 0.029058037 0.10568275
0.026494022 -0.17904842 0.13852833 -0.21081126 -0.0366175 -0.24931796 -0.061720632 0.058559824
0.038465504 0.001294659 0.16062826 0.09233845 -0.09842375 -0.07982796 -0.2294322 -0.0092718005
0.18792598 -0.1045638 0.14583041 -0.062421083 -0.034903653 -0.02110864 -0.18294296 0.06037427
0.043365087 -0.030040944 -0.13118882 -0.007009528 0.11931951 -0.12802832 -0.18586406 -0.094632335
0.06693561 0.07681768 -0.15246086 -0.098683946 -0.17363764 -0.100594215 0.13995326 -0.03794709
0.061051138 0.14286664 0.110947676 -0.12882937 -0.080140404 0.077023745 0.18970598 -0.24341469
0.0005130218 -0.030360393 0.22465976 0.10973229 0.1648541 -0.054243304 0.0031243942 0.07556439
0.14167373 0.15444686 0.03390162 0.10857179 -0.04599567 -0.18932906 0.02455957 0.15495491
0.21481033 -0.029036842 0.19066827 -0.07821147 -0.18886773 0.1402736 0.15489085 -0.03603563
0.07320188 -0.16835941 0.028841857 -0.21955341 -0.1641621 0.16409945 0.21995625 0.021587988
0.027942313 0.0154551575 0.15180825 0.12155499 -0.12413849 0.24309589 0.07381306 -0.17344986
-0.077909596 -0.21920061 -0.11939934 0.04257348 0.0038463445 0.066910885 0.0030259995 -0.15710467
-0.022902178 -0.18535559 -0.076250896 0.10889333 0.12467486 0.08170477 0.031350408 0.012530296
-0.16952305 -0.09208728 0.075179756 -0.22756402 0.041223917 0.17845923 0.06564665 0.115882576
0.11494121 -0.15219615 -0.16778393 0.21993184 -0.18498448 -0.08991773 0.053706475 0.08066486
0.17099226 0.0081154285 -0.15944697 0.111100964 -0.005084168 -0.21481055 -0.055342857 0.10535904
-0.11401827 0.17090516 -0.11259638 0.004947796 -0.07834856 -0.06699108 0.064843744 -0.035915032
-0.08412444 -0.20555934 0.006599069 -0.12433635 0.009673794 -0.06324196 0.03587635 -0.04781163
-0.17014563 -0.028206136 -0.03500775 0.10109227 -0.1014424 -0.10156733 -0.105955556 0.07388333
-0.16168621 -0.1373678 0.026090212 0.084428124 0.09574325 -0.13195738 0.15776062 -0.05879747
0.0095362 0.03949141 0.052379135 0.0992075 0.032182373 -0.17583762 -0.2521855 0.031325303

bias f4 [8]
00000000: 21a1 8abd 3867 c0bd c029 adbd e489 06be
00000010: da97 fc3d d707 13be bddb 58bb 91e9 973d
-0.06769014 -0.093946874 -0.08455229 -0.13138539 0.12333651 -0.1435846 -0.0033089959 0.07417596

weight f4 [8]
00000000: 4bc2 7d3f ff97 823f 9095 863f 11af 803f
00000010: 86c3 793f 45c7 7d3f 0723 713f cdcf 883f
0.9912459 1.0202636 1.0514393 1.0053426 0.9756397 0.99132186 0.9419407 1.0688416

bias f4 [8]
00000000: a8e5 833c 45d7 bb3d 147f 4c3d ab13 883b
00000010: 2c62 c2bb 5583 ea3c ca52 2c3c b9b1 8f3d
0.01610072 0.09171919 0.04992588 0.004152735 -0.005932113 0.028627077 0.010517785 0.0701632

running_mean f4 [8]
00000000: ef54 febd acd8 b0be 7fd1 81be b827 843e
00000010: b371 4a3d f811 0dbe 9be4 66be c2b0 07be
-0.124185435 -0.34540308 -0.25355145 0.25811553 0.04942484 -0.13776386 -0.22548144 -0.13251022

running_var f4 [8]
00000000: cf87 8a3d 8807 013e 9027 c73d 82f3 253e
00000010: 2338 923d ee5b 303e 92ed a53d f93b ba3d
0.06764185 0.12600529 0.09724343 0.16206172 0.071396135 0.17222568 0.081019536 0.0909347

weight f4 [8, 8, 3]
00000000: cacd 1f3e 0f59 88be b9c4 3bbc 92ca fd3d
00000010: 1191 2b3e 7776 6abe 5055 8b3d 8626 a13d
00000020: dac4 de3c 468d 9f3d 9528 60bd 5263 b23d
00000030: 9b2e 14be c145 3abe f09c 26be f983 32be
00000040: 92bd 01b8 9a0e d83d fbca 1dbd 0d78 d83d
00000050: 59b1 313e ee2d e03c 870d 803d a7f5 97bd
00000060: 9fcc 79be 0b5e febd 52a9 9fbd 0c5f cbbd
00000070: 3682 5f3c c9a7 41be a61e 67bc 65a7 f6bd
00000080: e45d 0d3e 65d7 f13d f764 c13d 1afe 64be
00000090: 9736 51bd 2cb8 d53d 33aa a1ba 8cb0 23be
000000a0: 512e 0dbe 61bf 073e 8de8 05be 7a2b fe3d
000000b0: 82c0 ea3d ca6f a63d b719 54be 1fbb 68be
000000c0: 56be 65bd 113d 4bbe 7a5b 95bd cebb 9e3d
000000d0: 65ae 49be 0155 9f3d 2c21 863d d53c d43d
000000e0: da28 733d 6216 f1bd b7be dabd 2912 d73d
000000f0: 2291 ac3d cdb5 1c3d 7cba f33d 983d b73d
00000100: 356f 0fbe 278a 723d 7511 ec3d 88bd 193e
00000110: b6ce 4bbd c71f dbbd 7ca6 223d abcf 17be
00000120: 5b1f 0e3e 3d6d 42bd a961 10be 5fdd f63d
00000130: 4c49 023c 3b56 bc3d 1e18 5ebe 3e83 22be
00000140: 3195 6d3b 0c92 26be 18b3 edbd 27ce 203d
00000150: b813 56be 98bc 873d d2b4 9ebb 60c6 c93d
00000160: 30c2 8e3c f35b 313d 54f2 73bd 68fc 193c
00000170: f658 243e b08c 5b3e bb1b 153d 0b30 fe3d
00000180: 932e 153d 6983 903d a9d6 fd3c ff09 1e3e
00000190: 8bdb 293e 780d 48be b8ff e23d c87b b0bd
000001a0: 1da2 57be 7069 e2bd 667d 9cbd 4a16 9d3d
000001b0: e625 433d 4e1e 11be ee6e 503d feb7 bdbd
000001c0: 8841 53be 533a 11be 9597 18be 6ff5 063e
000001d0: fcb6 26be 9e71 273d 4770 7bbd e57a 34be
000001e0: ddee 50bd cc7f e4bc bb54 f1bd 89bd 983d
000001f0: 9cd6 e43d 4b32 4cbe 36ff 083e ae55 cfbd
00000200: f2d2 4ebe 863e 313e 5d69 0ebe c958 de3c
00000210: 4da3 41be ffee 043e 3507 33be bb4e a4bd
00000220: 5841 19be 3b7c 00be 91fe 07be 1da2 e93d
00000230: da2b a7bd f0af 943d ca47 33be 108b 07be
00000240: 0000 e03b af01 123e 160a 77bc b858 653e
00000250: 0b27 e0bd 87c2 cc3d f339 58be 7a33 3b3e
00000260: 26ca 0bbe e61c 0d3e 426b e8bd dadf c8bd
00000270: 1dff b93d 24bd 463e f9e5 73bd d790 323c
00000280: c297 c23d d53b 063e 77f7 053e 9289 183d
00000290: 4fd2 143e 8cd7 2abe bc5a 8dbc f813 f8bc
000002a0: d50b a5bd 0fef 15be 31ec a5bd 5389 563d
000002b0: 5913 85bd 17b7 e03d b7d3 583e b55e 33be
000002c0: adc3 13bd 4335 483e 238e 09be a252 1bbe
000002d0: 178b 0cbe 8248 5c3e 4343 f5bd 29cd c93d
000002e0: e775 21bd 0dae 03be ef05 a33d d07d fdbd
000002f0: b1c9 84bc d044 25bc ae1c c0bc 817b 62be
0.15605846 -0.26630446 -0.011460477 0.12392153 0.16754557 -0.22896753 0.068033814 0.07868676
0.027193476 0.07790618 -0.054726202 0.0871035 -0.14470904 -0.18190672 -0.16270804 -0.17433156
-3.0932548e-05 0.1054966 -0.038523655 0.10569773 0.17352809 0.027365651 0.0625258 -0.07419901
-0.24394463 -0.12420281 -0.07795967 -0.09930238 0.013641885 -0.18911661 -0.014106428 -0.12043647
0.13805348 0.11808661 0.09443086 -0.22362557 -0.05107745 0.104355186 -0.0012334049 -0.15985316
-0.137872 0.13256599 -0.13076992 0.12410636 0.11462499 0.08126791 -0.20712934 -0.22727631
-0.05608972 -0.19847514 -0.072928384 0.07750665 -0.19695432 0.07779885 0.06549296 0.10363165
0.05936513 -0.11771847 -0.10680907 0.10501511 0.084261194 0.038259316 0.119008034 0.08947295
-0.14007266 0.059213784 0.11526767 0.15013707 -0.04975768 -0.106994204 0.039709553 -0.14825313
0.13879149 -0.04746746 -0.14099754 0.12053942 0.007952046 0.09196135 -0.21688887 -0.15870377
0.0036252255 -0.1626665 -0.11606425 0.039259102 -0.2090596 0.06627768 -0.004843333 0.0985229
0.01742658 0.04330058 -0.059557274 0.009398557 0.16049561 0.21440387 0.0364034 0.12411507
0.03642137 0.070563145 0.030986147 0.154335 0.16587655 -0.19536388 0.11083931 -0.086173594
-0.21057935 -0.11055267 -0.07641105 0.07670267 0.047643565 -0.14171717 0.05088704 -0.09263609
-0.20630467 -0.14182405 -0.14901574 0.13179563 -0.1628074 0.04087984 -0.061386373 -0.17625006
-0.051009048 -0.02789297 -0.11783739 0.07458026 0.11173746 -0.1994106 0.13378605 -0.10123764
-0.20197657 0.17309007 -0.1390738 0.027141945 -0.1890995 0.12981795 -0.17483218 -0.08022829
-0.14966333 -0.1254739 -0.13280703 0.11407874 -0.08162661 0.0726012 -0.17507854 -0.13236642
0.0068359375 0.14258455 -0.015078088 0.22397125 -0.10944947 0.09998041 -0.21115856 0.18281356
-0.13651332 0.13780555 -0.11348583 -0.09808321 0.09081862 0.19408089 -0.05954549 0.01089879
0.09501602 0.13108762 0.13082682 0.037240572 0.14533351 -0.16683787 -0.01725518 -0.03028296
-0.080588974 -0.14641975 -0.081016906 0.052377056 -0.06497831 0.109724216 0.21174513 -0.17516597
-0.036075283 0.19551568 -0.13433127 -0.1516824 -0.13724934 0.21512035 -0.1197572 0.09853584
-0.03941908 -0.12859364 0.07960116 -0.123775125 -0.016209455 -0.010087207 -0.023451176 -0.22117426

bias f4 [8]
00000000: 2b6d 2abe fddc 0a3d d882 23be 6663 3b3e
00000010: 1ec2 8cbd 6978 093e 811c 2b3d d6ec 6abd
-0.16643207 0.033902157 -0.15967882 0.18299636 -0.068729624 0.13424839 0.04177523 -0.05735477

weight f4 [8]
00000000: 1754 6a3f 7b48 803f 0d6c 753f b89e 733f
00000010: b50e 833f 2d11 863f 67d0 6d3f 0b2f 803f
0.9153456 1.0022119 0.95868 0.9516406 1.0238863 1.0473992 0.9289612 1.0014356

bias f4 [8]
00000000: 8d72 1abd 0ad6 ecbb 505b 40bd a636 c0bc
00000010: 278c 3dbd fdf2 9dbc 77e6 d3bc 4039 5abd
-0.0377069 -0.007227664 -0.046962082 -0.023463558 -0.046276238 -0.019280905 -0.02586673 -0.053277254

running_mean f4 [8]
00000000: c4d7 47be 70d7 c0be c2c4 3dbe 10d6 5a3e
00000010: b755 bfbe 3af4 99be b25f 853e e9ad 9abe
-0.19515902 -0.37664366 -0.18532088 0.21370721 -0.37370083 -0.30069143 0.26049572 -0.30210808

running_var f4 [8]
00000000: 089c d53d 0f65 c03d d7f8 c13d 8b7c e83d
00000010: e66e b93d a0dd bc3d 32fc 0f3e 73da 0b3e
0.10430151 0.093942754 0.094712906 0.1135188 0.09054355 0.09221959 0.14061049 0.1365755

weight f4 [128, 25]
00000000: 7224 21be 83c7 1dbe e23a dabd 6d68 2fbe
00000010: 242e e7bd e3ce 97be 726e aa3d d20a 84be
00000020: 0e23 a6be 3d36 6fbe 62b3 91be ae7d c4bd
00000030: f7e5 193e a8b0 d93d d1dd 0f3e 604b 0b3c
00000040: 5ec0 8f3d e028 10bc d144 713d f143 7a3d
00000050: 008e 47bd 97dc 973d 8512 dd3d a171 32be
00000060: 1f4c 22bd 059c c2bd 6848 263e bb07 e1ba
00000070: 67a0 cabd 5c19 0a3d bac2 28be 5013 35be
00000080: 75ea a93d 4f00 e3bd 1357 2cbd 58a3 763e
00000090: 13db 243e a7a9 cebd fc72 b7bd 9642 b0bd
000000a0: 1906 32be 48a9 8dbd ae68 033e 2e54 853d
000000b0: 1e6e 3e3e 55aa 98bd a9bc 77be a1a2 9abd
000000c0: 6de3 75be ba45 a93c b86d 0a3c 66da 12be
000000d0: ae79 dabc 9ee8 6abd 16e9 35be b7d3 39be
000000e0: 618b 0a3e 9888 fb3c 3988 11be f34b 38be
000000f0: 1d36 363e a4c3 273e 8914 9d3d 085c 28be
00000100: 9715 663e ce4e 12be 4303 273e cb6a 443e
00000110: 507a d43c 9442 c0bc f682 f13d 7bee cf3d
00000120: c0bd 103d 96bf 4dbe 8f44 59be 5953 913d
00000130: bb80 96ba 9326 883d a5e0 ddbc b5ba 9cbe
00000140: c395 313e e79a 2d3e 43e8 31be 8916 9fbd
00000150: d35b 20bd 1e9b ec3c ddaf 1bbe 8395 033e
00000160: 5f83 cd3c e712 42bd 7710 0d3e e378 1f3e
00000170: 5075 983c b23e 77be 278f 7abe 122e 043d
00000180: d4b6 0f3d bf2b b0ba 19d7 64be bc2e b13d
00000190: 9f97 783e 40cd c73c 6736 4a3e 6986 7ebd
000001a0: 34b4 563e 81d8 1cbe c248 863d cc13 a73c
000001b0: 93d6 023e a0af 1abc 3b81 bfbd 99e7 28be
000001c0: 2024 10be 30b5 383d 4519 903d e7d4 883d
000001d0: 7f2f 2e3e 526b 7c3d 18e3 ce3d 4fa5 d13d
000001e0: b4a2 eabd 4219 0f3e 6ff4 293e 47bc ba3b
000001f0: e56c 03bd 6a9f fe3d 99df 583e 5e8b 273e
00000200: f4b3 eb3d 1645 b9bd efc2 f9bd 3a2d 063e
00000210: af8e 573c 4565 a9bc d73a 0f3e f248 fabc
00000220: 1986 8ebc 787c a03d 8403 99bc c095 d33a
00000230: b438 03bd fc3e 4b3e 94bb 6bbd abbb dc3c
00000240: 109d 56bd f1e2 2f3b 4d1e d9bd de54 a53d
00000250: 73d4 f3bd 532e 2f3e 1629 b83d 04a2 313e
00000260: b38a bcbd d773 93bd b2ec 113d 1262 433e
00000270: 23e7 febd 5a97 1f3d c96b 143e 5677 183e
00000280: 2f3b e83d 0b00 f4bd 0402 9d3b f95f 65be
00000290: 0d93 30be 696d 4ebb f831 343e 733a 8a3d
000002a0: 7bde 3e3e 273f 3b3e de06 10bd 7075 113e
000002b0: b3f7 1abe e88c 37be 8588 e6bc 79e4 6fbd
000002c0: fe64 e2bd 790b 2cbe 99a8 bcbd 0e22 8dbd
000002d0: ad84 e0bc 0363 373c 8e53 053e e54b 9f3d
000002e0: 772c 843e c771 cdbd 4f9e e33d 6591 5fbd
000002f0: 982f b3bd ec63 94bd 6b9d 323e 8da5 afbd
00000300: 1b2f 3d3e 32ba 0dbe 402b 7a3e c9c1 933d
00000310: caf9 9abc 6caf 973d f57a 873d b592 16bd
00000320: ac67 07be a100 fe3d 959a 7bbd 2aa8 d8bd
00000330: 5de5 3a3d ef18 90ba bc65 efbd c0f6 1f3e
00000340: 350f 59bc 567f 073e e6fe 0dbd 7e96 bd3d
00000350: 7b9a 923d df1b 193e 5938 51be ca30 2ebe
00000360: bafb ef3d e90b 853d 1889 0d3d 137c 28be
00000370: 109d 4cbd edfe bfbc 4312 763d 6a68 203e
00000380: fc5f 08bd 514a 71bd 9a2f 8cbe ddde 223a
00000390: ee40 07be d6ba bf3d d376 58be b78d a2be
000003a0: dc47 843d 57d1 153d 214f a13d cb1b ac3c
000003b0: 50ac 983d bceb b93d 4e19 21bd 808b b13d
000003c0: 9e22 1f3e 4253 80be cb88 2ebe 0b46 22be
000003d0: d704 81be e5b8 f73d d51a c8bd 7325 94bd
000003e0: 0f04 74bd cbc6 bbbd 5ed9 bcbd 2536 a63d
000003f0: 3195 373e 6f5e 413e 8940 ad3d 0ca1 e23d
-0.15736559 -0.15408139 -0.10655762 -0.17129679 -0.112880975 -0.2965003 0.08321847 -0.25789505
-0.3244862 -0.23360534 -0.2845717 -0.09594284 0.15029131 0.10629398 0.1404946 0.0085018575
0.07019113 -0.008798808 0.05890352 0.06109995 -0.048719406 0.07415121 0.10794548 -0.17426158
-0.039623376 -0.095024146 0.16238558 -0.0017168442 -0.098938756 0.03371559 -0.16480532 -0.17683148
0.08296672 -0.11084043 -0.042075228 0.24085748 0.16099195 -0.10090952 -0.089574784 -0.0860645
-0.17385139 -0.069170535 0.12832901 0.065101966 0.18596694 -0.07454363 -0.24193062 -0.0755055
-0.24012537 0.020663131 0.008449011 -0.14341125 -0.02666935 -0.057350747 -0.17764696 -0.18147169
0.13529731 0.030704781 -0.14212121 -0.17997722 0.1779408 0.16383225 0.076699324 -0.16441357
0.22469173 -0.14287874 0.16309838 0.19181363 0.02593723 -0.023469247 0.11792557 0.101529084
0.03533721 -0.20092615 -0.2121756 0.070959754 -0.0011482456 0.066479824 -0.027084658 -0.30611196
0.17342286 0.16953622 -0.17373757 -0.0776797 -0.03915007 0.02888256 -0.15203805 0.12850003
0.025087057 -0.047381308 0.13775812 0.15573458 0.018610626 -0.2414501 -0.24468671 0.0322705
0.035086468 -0.0013440772 -0.22347678 0.08651492 0.24276589 0.024389863 0.19747315 -0.062139902
0.2096718 -0.15316965 0.06556846 0.020395182 0.12777166 -0.009441286 -0.09350821 -0.16494597
-0.1407628 0.04509467 0.0703607 0.06681233 0.17010306 0.061625786 0.101019084 0.10236608
-0.114568144 0.13974479 0.1659715 0.005698714 -0.03208627 0.124327496 0.21179046 0.16361758
0.11508933 -0.0904638 -0.12195384 0.1310319 0.013156577 -0.020678172 0.1398729 -0.030552361
-0.017397927 0.078362405 -0.018678434 0.0016142651 -0.0320365 0.19848245 -0.057551935 0.026944956
-0.05239588 0.0026838148 -0.106014825 0.08072828 -0.11905756 0.17107515 0.089922115 0.1734696
-0.09206142 -0.07199829 0.03562612 0.1908038 -0.124464296 0.0389627 0.14494242 0.14889273
0.113394134 -0.11914071 0.0047915 -0.22399892 -0.17243595 -0.003149832 0.17597187 0.067494296
0.18639557 0.1828581 -0.0351628 0.14204955 -0.15133552 -0.17924845 -0.02814127 -0.058567498
-0.11054419 -0.16801251 -0.09211845 -0.06891261 -0.027407015 0.01119304 0.13020155 0.077781476
0.25815174 -0.10031467 0.11114179 -0.05458202 -0.08749312 -0.07245621 0.17442863 -0.08576498
0.18475 -0.13840559 0.24430561 0.07214696 -0.018917937 0.07406506 0.06615249 -0.036761004
-0.13223141 0.12402464 -0.061426718 -0.1057895 0.045628894 -0.0010993759 -0.11689326 0.15621471
-0.013248255 0.13232169 -0.03466692 0.0925722 0.07158371 0.14952038 -0.20431651 -0.17010799
0.11717935 0.06496412 0.03455457 -0.1645358 -0.049954474 -0.023436988 0.06007601 0.15664831
-0.033294663 -0.058908764 -0.27380067 0.0006213019 -0.13208362 0.09361808 -0.21139078 -0.31748745
0.064590186 0.036576595 0.07876421 0.021009346 0.07454741 0.09078166 -0.039330773 0.08669186
0.15540549 -0.2506352 -0.1704437 -0.15847032 -0.25199005 0.12095813 -0.09770743 -0.07233705
-0.059574183 -0.09168776 -0.09221147 0.08115796 0.17928006 0.1888368 0.08459575 0.110658735

bias f4 [128]
00000000: 156d 6ebc b54d ae3d e1fc 963d 6f43 ad3d
00000010: d2b1 a83b 9dad 45bc b3f7 fe3b 8dac 2bbd
00000020: b965 c73d d327 0d3e 19e2 ad3d a6eb 173e
00000030: a93d 4abd 66cd 673d e340 ba3d df5f a73d
00000040: 2140 f4bb 28ad f23c 08a2 1e3d 21da a1bd
00000050: a66d 133e 708e 2cbd 9ea7 cbbd 3dab 07be
00000060: 91e1 b0bd 4df7 dc3d cd17 0e3e 8d31 10be
00000070: ab05 c33d d412 bf3c a392 4abd 7285 0a3e
00000080: e1c9 db3c 1682 45bd 486d 2abb 5a8c 1b3e
00000090: 5401 3dbb 9af7 b43c 4e12 11bc 7e59 1abc
000000a0: fee7 d9bd 096d 8bbc 77c6 0f3e c5fc 183e
000000b0: b01b 0dbe c682 d1bd 62cb d23d c264 24bd
000000c0: 0b63 acbd cba4 a2bd 1224 91bd be7f a2bd
000000d0: 8689 21be b267 e3bc 1635 6abc 0d96 febd
000000e0: 1746 6fbd a55f 42bd 522e b33d d1ed 353d
000000f0: 7aee 003e e167 c43d a4cb 1e3d a7d5 053c
00000100: d890 c6bc 4648 273e 394d ccbd 8267 ff3c
00000110: ea35 d43c 6b10 6839 0ca6 1ebd 576e 35bc
00000120: f16e cd3d 5a5f cdbd 8b7e f4bd 5ef3 bd3d
00000130: 8331 f83d 2a36 303d bd28 0c3b e97a 853d
00000140: 88af 2a3e 3a30 2cbe 2c67 7d3d b54a 0c3e
00000150: 8a2f 03bc 8169 dc3d 72de e2bd 36b3 e8bd
00000160: 16e4 833c 94ab 4b3e 7954 57be 91c1 f13d
00000170: 4885 9a3d cc10 cabd 6c38 2abe 3236 52bd
00000180: 8496 6c3d 256d a03a 49f6 73bd 0df1 b7bc
00000190: 1e03 763c 6717 153e af78 f0bd ec7e 0d3e
000001a0: ac43 38bc 9290 ad3c 4215 1e3d 76ca 143e
000001b0: caac 4ebd 7706 edbc c371 ca3c 171b 26bd
000001c0: d6f0 b93b 85ea 9a3d 1502 87bd 9e86 033e
000001d0: 9552 12bc 880b fcbc 5a94 e63d 80de 073e
000001e0: 5fdd 8db8 ebc8 843d 53d8 1cbd 19dd fd3d
000001f0: 62d2 973d 95db 8cbc 1ac9 7f3c 6c8e 563d
-0.014552374 0.08510915 0.073724516 0.084601276 0.005148151 -0.012065318 0.007780993 -0.041912604
0.09736199 0.13784723 0.0849039 0.14835986 -0.04937521 0.056592368 0.090944074 0.08172583
-0.007453934 0.029623583 0.038728744 -0.07902933 0.14397296 -0.042128026 -0.0994408 -0.13248916
-0.086367734 0.107893564 0.13876267 -0.14081402 0.095225655 0.023324408 -0.04945625 0.13527468
0.026829662 -0.048219763 -0.0026005078 0.15190259 -0.0028839903 0.022090722 -0.008854462 -0.009420751
-0.10639952 -0.017019765 0.14040552 0.14940174 -0.13780093 -0.10230021 0.102926984 -0.040135153
-0.084173284 -0.07941588 -0.07086958 -0.07934521 -0.15775117 -0.027759407 -0.014294883 -0.12430964
-0.058416452 -0.047454495 0.08749069 0.044416253 0.12590972 0.09590126 0.038768426 0.0081686145
-0.024238989 0.16336164 -0.099756666 0.031177286 0.025904614 0.0002213136 -0.038732573 -0.01107367
0.10030926 -0.100279525 -0.11938199 0.09274934 0.121188186 0.043020405 0.0021386587 0.06517584
0.16668522 -0.16815272 0.06186597 0.13700373 -0.00800694 0.10762311 -0.11077584 -0.11362307
0.01609997 0.1988967 -0.21028318 0.11804498 0.07544953 -0.09866485 -0.16623086 -0.051321216
0.05776073 0.0012239559 -0.059561048 -0.02245381 0.015015392 0.14559709 -0.117417686 0.13817948
-0.011246603 0.0211871 0.03859449 0.14530358 -0.050457753 -0.028933747 0.024712449 -0.04055318
0.005674462 0.07564262 -0.06592194 0.12844321 -0.008930822 -0.030767217 0.112587646 0.13268471
-6.7646375e-05 0.064836346 -0.03829224 0.12395687 0.07413174 -0.017194549 0.015611911 0.052381918

weight f4 [128, 127]
00000000: 8d08 9fbd aa3a 723c df98 47bd af00 48bd
00000010: 81d6 1cbd 0565 babb 51c6 babb 8b4c 6f3c
00000020: 259b 983b 2d86 d0bc df92 913d 4017 9c3d
00000030: a5d2 ad3d 424b 1abc 4da0 863d 3ddc c43d
00000040: 2640 91bd 460c 913b de2c 6abc 5559 31be
00000050: 1aef 1dbd b2f6 1bbd 49ed 343d 3079 22bd
00000060: 1208 babd 2761 36bd 140d 3bbd 7a86 253d
00000070: 8ec7 583c 03fc 50bd 5702 bebc c3c1 873c
00000080: 3336 01be 2dab 00be d867 96bd e58c 393d
00000090: 2456 acbd 951c 3ebe 321d ad3c f8c6 5abd
000000a0: 2b84 6b3c 1d79 76bd d401 a8bd dda2 7b3d
000000b0: 5b4c fa3c f63f 49bc f443 61bd d72d 16bc
000000c0: 63ce 7bbd 7ea8 2d3d 6d9e 52bd dff9 b9bd
000000d0: 8a32 833d eeac a63d 5387 3d3d 8729 c6bd
000000e0: 4b50 83bd c975 42bd 4f19 acbb 63f5 1bbe
000000f0: 93d4 9ebc 782e e63d ab17 6e3d e029 ae3d
00000100: 62f9 78bc 8fad 93bd b9a6 b2bc e1ab 42bd
00000110: bf02 35bd 558a c9bd 09fc b33a c4de 523d
00000120: f322 90bc 1c98 3ebe d292 59bd 2fa7 dcbb
00000130: 7caf 4cba dd48 383d 4572 b23d f46a 75bc
00000140: 9c76 7c3d c193 b23c 93af e43d ebbc d83a
00000150: 8e6f 54bd dce0 19be a396 4bbd 2357 54bd
00000160: c615 a6bd cd24 493c 7f1d a43c 11c5 073b
00000170: 9e75 b3bc a500 f8bd 83d1 073d e3ae 7f3d
00000180: 9b1c 293d e93d 1f3d b1ad 49bd 6f57 b93c
00000190: 58a8 3bbd a9af 6a3b 0bc9 413c c5f7 c43c
000001a0: c2c6 0b3d 0844 973c 1ae9 45bd ac6f 7cbd
000001b0: 13b8 b4bd 9174 9b3d c86a 21bb 58f0 3fbd
000001c0: fce9 7e3b f444 ca3c 4f7f c43d 4361 803d
000001d0: dd78 2fbd c1c4 cebc e727 c73d a517 35bd
000001e0: 3c76 6ebd 60cf 903d 9f6a 873c 168e e2bc
000001f0: eea9 19bd 90c2 29bd 8af2 7e3d d48c 1b3d
00000200: de25 e0bc c3b9 8dbd c1ea c63d 47f0 073d
00000210: bb13 d3bc e871 873d 3ccf 193a 9a55 cabd
00000220: bd96 733d 0bb8 16bc 8475 0abd f934 80bd
00000230: 25f4 de3b e30e 97bc 4a17 993b 488a ec3c
00000240: 9473 4f3d c694 0c3d 936d 313d c18d 883d
00000250: 6831 d1bd 588d 0b3d fbe5 373d 6efd bbbb
00000260: d48a 8ebd 450d 773d 5590 4b3c 49c8 19bd
00000270: f638 893d dc97 80bd 9265 723d c713 903b
00000280: ed78 5bbd 5aca 863d 06eb 8f3c 8b61 dd3c
00000290: 95ad 1c3d ea3e b3bd 61fb 06bc a333 e93c
000002a0: 758b f9bd bfcf a63c b84e 06bd 3961 d13c
000002b0: ef9b 253b 4a4e 873d bdbf e63b 2882 dabc
000002c0: e30e cdbc 7508 ecbc 2526 8fbd d7d3 8d3d
000002d0: 8c4f c73d 649b 943d 38f7 a2b8 0d8f ad3b
000002e0: 7b98 783c 694e edbd c807 073c 0b6b 9fbd
000002f0: bdbf b9bd d6ef d13c 6a63 953d 8409 f6bc
00000300: a1ef 26bd 452a 0d3d d5d4 563c 386b 933d
00000310: 40dd 623d 101e ad3d 9580 edbc 34fe 77bc
00000320: 5f42 053c 09fc 0e3d 32ce bfbd 508b a5bd
00000330: e88c a83c ee6f b9bd 5c7e 81bd 865f bd3c
00000340: 9ee0 35bd b086 94bd 1a1c 263d c28d 003d
00000350: 8bf0 983d 10f0 6d3c 5faa ea3d 5901 7e3d
00000360: 7749 08be 8526 b4bd 719f 54bd c850 2ebd
00000370: 5956 b2bc e79b 863d a3b2 bd3b cfc5 24bc
00000380: dca2 4ebd 544e ef3c 8ce3 8b3d 1769 5ebd
00000390: 3001 1c3d e7bc ad3c 6a9e 77bd 337b 66bd
000003a0: b3cd c1bd 704e bdbc 6d5f acbc 1340 2c3c
000003b0: c50c 1abd 0ecf 10bd 97c3 5bbc 643c 013d
000003c0: cf41 a63c b80e 27bd 16c7 033d 26ae 23bd
000003d0: 5927 b6bd fe86 333d 951e af3d 490a 893d
000003e0: eb80 4f3d f028 4d3c 5625 083d a154 35bd
000003f0: c2f6 0b3d d928 ce3c a835 e2bd 204a 833d
-0.07765303 0.014784494 -0.048729774 -0.048828777 -0.038290504 -0.005688312 -0.0056999107 0.014605652
0.0046571665 -0.025454605 0.071080916 0.07621622 0.08487443 -0.009417357 0.06573544 0.096123196
-0.070923135 0.004426512 -0.014292924 -0.17319234 -0.038558103 -0.038077064 0.044171605 -0.039666355
-0.090835705 -0.044526245 -0.04566677 0.04041145 0.013231171 -0.051021587 -0.023194475 0.016571885
-0.12618332 -0.12565298 -0.073440254 0.045300383 -0.084148675 -0.1856559 0.021132085 -0.053412408
0.014374773 -0.060174096 -0.08203474 0.061434615 0.030553987 -0.012283316 -0.054996446 -0.0091662025
-0.061476123 0.042397015 -0.051420618 -0.09080862 0.06406124 0.081384525 0.046271633 -0.096758895
-0.06411799 -0.04747561 -0.0052520405 -0.15230326 -0.019388473 0.11239332 0.05812804 0.08504081
-0.015196176 -0.07210838 -0.021808015 -0.047527198 -0.044192072 -0.09840838 0.0013731729 0.051481977
-0.01759479 -0.18612713 -0.053118534 -0.006733797 -0.00078081316 0.044991363 0.087132014 -0.014979113
0.061636552 0.02179897 0.111663006 0.0016535794 -0.0518642 -0.15027183 -0.049704205 -0.051840913
-0.08109622 0.01227684 0.020033596 0.0020716826 -0.02190667 -0.12109498 0.03315879 0.062422644
0.041287046 0.0388774 -0.04923791 0.0226247 -0.045814842 0.0035810268 0.011827718 0.024043927
0.034125097 0.018465057 -0.048318006 -0.061629936 -0.08824172 0.07590593 -0.0024630297 -0.04686007
0.003889679 0.024691083 0.09594595 0.06268551 -0.042839874 -0.025240304 0.09724408 -0.044212002
-0.058218226 0.07070804 0.016530333 -0.027655642 -0.037515573 -0.041445315 0.062243022 0.0379761
-0.027361806 -0.06920197 0.097127445 0.03318813 -0.025766244 0.06613523 0.0005867367 -0.098796085
0.059469927 -0.009199153 -0.033803478 -0.06260104 0.0068040066 -0.018439716 0.0046719657 0.028874531
0.050647333 0.03432157 0.04331739 0.066676624 -0.102145016 0.034070343 0.04489706 -0.0057369983
-0.06960073 0.06031539 0.012424548 -0.037544522 0.067003176 -0.06278965 0.059178896 0.004396889
-0.05358212 0.06581564 0.017568123 0.027024051 0.03825148 -0.08752234 -0.008238644 0.028467005
-0.121848024 0.020362733 -0.032789916 0.025559055 0.0025269946 0.06606729 0.0070419 -0.026673391
-0.025031513 -0.028812626 -0.06989697 0.06925171 0.09731969 0.07256201 -7.77081e-05 0.005296594
0.015173073 -0.11587221 0.008241601 -0.07784089 -0.09069774 0.025627058 0.07294352 -0.030033834
-0.04075587 0.03446414 0.013112267 0.07198185 0.05538678 0.084529996 -0.028991977 -0.01513629
0.0081335 0.03490833 -0.093655005 -0.080832124 0.020575002 -0.09054552 -0.06322929 0.023116838
-0.044403665 -0.07252252 0.040554143 0.03138519 0.07467755 0.014522567 0.11458277 0.062013004
-0.13309275 -0.087964095 -0.051909868 -0.042557508 -0.02176969 0.06572705 0.0057891174 -0.010056927
-0.050448284 0.029212154 0.068305105 -0.05429944 0.03808707 0.02120824 -0.06045381 -0.056269836
-0.09463062 -0.023108691 -0.021041596 0.010513323 -0.037609834 -0.035353713 -0.0134133315 0.031551734
0.020295052 -0.04078552 0.032172285 -0.039961003 -0.08894224 0.04382991 0.08550755 0.06691415
0.050660055 0.012521967 0.03323873 -0.04427016 0.034170873 0.025165962 -0.1104539 0.064106226
