nn/checkpoints/main_objs_different/5/model_30.pt (torch, 518706 bytes, 98 tensors)

weight f4 [8, 5, 3]
000000 ad 48 ee 3d 05 aa 0c 3d 54 3c ad 3e d8 50 87 3d
       0.116349556 0.03434183 0.3383509 0.066072166
000010 46 83 73 3e 2e 28 3e 3d 9d 59 35 3c a7 9a 25 3e
       0.23780546 0.046425037 0.011068729 0.16172276
000020 43 84 01 3e 77 4d 19 be 43 d5 92 3c 5b 00 63 3e
       0.1264811 -0.14970957 0.017923957 0.22168104
000030 ec 0b 15 3e c9 b2 a6 3e cc 69 31 3d 64 06 a7 bd
       0.14555329 0.32558277 0.043313786 -0.08155516
000040 12 45 98 3d ee 1c 90 3d df 8b 70 bd 6d 43 16 3e
       0.07435049 0.07036768 -0.05872714 0.14674158
000050 a9 8f ba be 23 32 31 3e ed 21 f1 3d df 84 54 be
       -0.3643773 0.17304282 0.11774049 -0.20753811
000060 cd e3 1f bd 7b 0c 05 3d 7e a2 be be 6e f9 b4 3d
       -0.039035607 0.032482605 -0.37233347 0.088366374
000070 a7 32 39 3e 98 97 a8 be 4a d5 c1 bd 77 a5 41 bb
       0.18085729 -0.32928157 -0.0946451 -0.0029548088
000080 70 e7 b3 3e a2 50 85 be 03 82 f1 bd d6 36 8a 3e
       0.3513751 -0.2603808 -0.11792376 0.26994962
000090 b3 3c 9f 3d b0 29 46 3d 7b 2e 2a 3e be 3a fa bd
       0.07775249 0.0483796 0.16619293 -0.122182354
0000a0 fd b5 16 be e7 4c 9f 3e b8 f0 e5 bd ba 1b 4b be
       -0.1471786 0.3111336 -0.11227554 -0.19834796
0000b0 c3 63 66 3e 17 ca 1c 3e 1d de a1 3e ba 71 79 be
       0.22498994 0.15311466 0.3161477 -0.2435979
0000c0 2e 4f 8d bd a8 3d 46 bd 73 51 7c 3e c0 50 0a 3e
       -0.06899868 -0.048398644 0.24640445 0.13507366
0000d0 ec 39 47 bc 92 bf 1d 3e 56 5f 0f be 6c 1b eb bd
       -0.012159806 0.1540511 -0.14001212 -0.1147984
0000e0 d4 62 38 3e 1a 7d a0 3c 70 46 25 be 62 4f 91 3e
       0.1800645 0.019590903 -0.16140151 0.28380877
0000f0 01 49 f4 3e e9 01 ee 3d bd 78 45 bd 52 19 8c 3e
       0.47711948 0.11621458 -0.048210848 0.27363068
000100 96 f8 33 3d 9c de ab 3d c4 e7 96 3d ff c1 f5 bd
       0.043938242 0.08392069 0.073684245 -0.119998924
000110 37 3b 33 3e 28 50 50 bd 1a b3 5f bd 9a c6 80 bd
       0.17503057 -0.050857693 -0.054614164 -0.0628788
000120 a6 e8 24 3e e4 91 96 bd d7 f9 06 3d 70 f4 a7 be
       0.16104373 -0.07352045 0.03295311 -0.3280368
000130 e6 56 46 be 56 6f 80 3e d3 e8 46 3d 20 4d 80 3e
       -0.19369087 0.25084943 0.048561882 0.25058842
000140 d9 0c 08 3d aa 2a 3e be b7 8a 65 3d e9 52 39 bd
       0.033215377 -0.18570963 0.056040492 -0.045245085
000150 ea ad 66 be b5 34 e7 3d b5 f2 07 3e 5b 1c 28 bd
       -0.2252728 0.1128935 0.13276179 -0.041042667
000160 d3 d6 94 3e 7e c2 83 bd 60 8e 3e 3e 0f 55 a3 bd
       0.29070148 -0.06433581 0.18608999 -0.07975208
000170 dc 22 89 3c 12 96 64 3d 2a d5 23 bd 0d af ce 3d
       0.016740255 0.05580718 -0.03999821 0.10091982
000180 0c 45 3d 3d 6e c1 68 be 80 c2 1d be ec 31 b8 3d
       0.046208426 -0.22730038 -0.15406227 0.08993897
000190 3b 83 17 be fc 25 61 3d 96 3d cc 3e 6c c2 8f be
       -0.14796154 0.054967865 0.39890736 -0.2807802
0001a0 e0 4f c2 3d d7 63 7e be ec 18 1e be 49 97 3d 3e
       0.09487891 -0.24842773 -0.15439194 0.18514742
0001b0 a2 ce b9 3b 8b c6 44 be 9b 9d be bd e6 b1 76 be
       0.0056703845 -0.19216363 -0.093074046 -0.240913
0001c0 b0 e4 19 3d 20 ef 42 bd 00 96 84 3e 54 60 97 be
       0.03757161 -0.04759133 0.2589569 -0.2956568
0001d0 4a ae 36 3e 0b e0 95 be d9 52 09 be 69 af 0f bb
       0.17839924 -0.29272494 -0.1341051 -0.002192462

bias f4 [8]
000000 4f 4f 08 be ff 8c a6 be 42 68 0a be 76 12 ba 3d
       -0.13311504 -0.32529446 -0.13516334 0.090855524
000010 7c 41 51 3c 4e ca 5d be 1f 8a 47 be 3f 7c 32 be
       0.01277196 -0.21659204 -0.19486283 -0.17430209

weight f4 [8]
000000 1b ab 4b 3f 00 08 90 3f f6 dd 78 3f 29 ab 55 3f
       0.7955796 1.1252441 0.97213686 0.83464295
000010 17 e1 7a 3f 9f 24 74 3f aa 6b 82 3f 06 f0 95 3f
       0.9799971 0.9536838 1.0189106 1.1713874

bias f4 [8]
000000 d0 4f 7e 3e d9 47 93 3d ea 22 b3 3e 24 30 1c 3e
       0.24835134 0.07191438 0.34987575 0.15252739
000010 71 7f 2e 3e 2e 5d 95 3e ef 86 13 3e 18 ae ee 3d
       0.17040803 0.29172653 0.14406942 0.116542995

running_mean f4 [8]
000000 db 5f 0e 3f 3f 05 0c bf 9d 3b 8c 3c c8 e4 ba 3e
       0.55615014 -0.54695505 0.01711827 0.3650267
000010 c7 00 d3 3e 43 6f 37 be 0b 3d 1a be 1a ed 15 bf
       0.4121153 -0.17913537 -0.15062349 -0.58564913

running_var f4 [8]
000000 49 a2 12 40 bf ee 0d 3f 2b 8a e6 3e 1f 58 f2 3e
       2.291155 0.5544242 0.4502729 0.47332856
000010 c4 6b 63 3f 62 f1 5a 3e 2f 8c 84 3e 0c 34 61 3f
       0.8883631 0.21381143 0.25888202 0.8797004

weight f4 [8, 8, 3]
000000 db 6b 9a 3e d8 22 c0 3e d8 0d 92 3e 8b 3b 04 bc
       0.30160412 0.37526584 0.28526187 -0.008070837
000010 78 7a ae 3d 1e 5d 80 3e 7f b4 26 3c 55 0e e2 3d
       0.08519453 0.25071043 0.01017487 0.1103789
000020 d7 ff 33 be 0b 5c a4 3d 06 c6 98 3d 84 c2 13 bd
       -0.17578064 0.08025368 0.07459645 -0.036074176
000030 3c 8a 30 3e a2 b5 92 3d 1c e6 48 3e 67 1d 05 3e
       0.17240232 0.0716355 0.1961903 0.12999497
000040 9d ad fe 3d 67 42 05 bd 20 4a 39 3e 24 dc 7b 3e
       0.12435458 -0.03253403 0.18094683 0.24595696
000050 2d a7 6c bd 4d 57 80 3d 50 64 84 bc 8e 8e 02 bc
       -0.05777662 0.06266651 -0.016161114 -0.007968558
000060 f3 16 65 3d 2b a1 27 3d 3b 17 ee 3d 35 f2 f8 bc
       0.05593009 0.040925186 0.116255246 -0.03038893
000070 41 db 7c 3d 14 0e 07 be c7 9b d6 bd 83 1f 00 be
       0.061732534 -0.13188964 -0.10478931 -0.12512021
000080 50 05 25 3e 04 93 39 bd eb f9 f2 bc 92 e1 a4 3e
       0.16115308 -0.04530622 -0.029660186 0.32203346
000090 42 56 c4 3c 71 88 2a be bb 06 51 3e 11 3e d6 bd
       0.023966912 -0.16653611 0.20412724 -0.10461057
0000a0 87 ca f3 bd bd d0 03 bd 7e 84 3e 3e 79 7b cc bd
       -0.119038634 -0.03218149 0.1860523 -0.09984488
0000b0 bd 75 07 3c 22 6a 0b be 35 12 a8 be ca a5 32 be
       0.008267817 -0.13614705 -0.3282639 -0.17446056
0000c0 e5 41 7e 3e 08 71 1b bc 19 cf d3 bd 64 8f 91 be
       0.24829824 -0.009487398 -0.10342235 -0.2842971
0000d0 ed b9 2a 3e 6d 10 06 bc 75 ca 1f 3e 57 b8 d4 3c
       0.16672488 -0.008182627 0.15604575 0.025966806
0000e0 8a 7e 18 be 9a 9a 03 3e 24 f6 55 be 42 4a 36 be
       -0.14892021 0.12851945 -0.20894676 -0.17801765
0000f0 0f 75 e0 bd 4d 6f cd bd 19 a7 15 3e f0 66 05 3e
       -0.10959827 -0.100309946 0.14614524 0.13027549
000100 f3 4d 2a 3e 2e 02 be be 42 4e 81 bd ef 5a 5e bd
       0.16631298 -0.37111038 -0.063137546 -0.05428594
000110 59 4b 63 3e 44 6e 2a 3e 46 9d 13 be f1 31 c4 bd
       0.22196712 0.16643625 -0.14415464 -0.09579838
000120 52 d9 08 bc e4 f6 db bd 7e e4 c7 3d db 0f 8d 3d
       -0.008352594 -0.1074045 0.09760378 0.0688779
000130 b1 dd bd 3d 13 ca 01 3c 24 b6 0c 3b d4 0f 29 be
       0.092708 0.007921713 0.002147087 -0.16509944
000140 bb fb 1f be 13 73 09 3e f1 f8 e2 3d 9d 5e 89 bd
       -0.15623371 0.13422804 0.11082638 -0.06707499
000150 b5 43 bc bd 05 a6 fa 3d 6d 10 00 3e 1e 13 81 bd
       -0.091926016 0.12238697 0.12506266 -0.063024744
000160 2f 96 72 3d 7d 95 e6 bd 10 9f 82 be 0b 58 31 3d
       0.059225257 -0.112589814 -0.2551198 0.043296855
000170 14 8d 45 bd 25 cc a5 3e 81 63 3d 3e 4f fb 0a 3f
       -0.048230246 0.32382312 0.18494989 0.54289716
000180 2b de 1a 3e 52 83 54 3d d2 0d 6f bd b6 74 e2 bd
       0.15123813 0.05188305 -0.05836279 -0.11057417
000190 14 cc 24 be a4 df 00 be 50 0d 18 3e 8f 8b 65 bc
       -0.16093475 -0.12585312 0.14848828 -0.014010324
0001a0 eb 6d a7 3e dd 94 31 be 3e ee 41 3e 0e d9 ce 3c
       0.32701048 -0.17341943 0.18938538 0.025249984
0001b0 45 d1 14 be f3 0d 88 bd 1f 04 b5 bd 08 01 9f 3e
       -0.14532955 -0.066432856 -0.08838677 0.31055474
0001c0 5d 03 10 be ff 62 5a 3e 44 f4 8e 3d 3e 3f 22 3e
       -0.14063783 0.21326827 0.06980184 0.15844437
0001d0 00 78 59 3e 86 ab 8b 3d de fa c0 bc 73 d4 17 3d
       0.21237183 0.06819825 -0.023557123 0.03706784
0001e0 04 7e 38 3c ed 75 f2 3d 68 b3 de bd 24 cf d4 3d
       0.011260513 0.11838899 -0.10874063 0.103910714
0001f0 dc 8b 1d 3e 18 74 c1 3d 18 0c 21 be 78 3b c7 3b
       0.15385383 0.09445971 -0.1572727 0.0060800873
000200 29 53 c0 be b5 d2 93 bc 82 36 e9 bd 64 8c 45 bd
       -0.37563446 -0.018044809 -0.1138735 -0.04822959
000210 e2 39 3f 3e 25 80 71 be 82 94 4c bd c4 82 89 be
       0.18674424 -0.2358404 -0.049946316 -0.2685758
000220 20 a5 21 3e ff c0 91 bd 8a 9a c0 3d 48 0b 56 3d
       0.15785646 -0.07116889 0.09404476 0.052256852
000230 d2 94 a5 3d 4f aa 9d be 26 54 b3 3b 78 d3 1b be
       0.08085026 -0.30793998 0.0054726778 -0.15217388
000240 57 39 2f be 88 64 20 bd f7 f9 fb bc 24 cb 02 be
       -0.17111717 -0.039158374 -0.030758841 -0.12772804
000250 6b d1 02 bd 30 d8 43 3e 88 d9 5d b9 3c 94 5d 3e
       -0.031937998 0.19125438 -0.00021157239 0.21638578
000260 70 37 43 be bf a2 cd bd 54 aa a9 bd d7 bb 66 3e
       -0.19064116 -0.10040807 -0.08284441 0.22532593
000270 30 ad dc bd 1c 39 cb 3d 1f 4c e3 bd be 02 cf bd
       -0.107752204 0.09923002 -0.11098503 -0.10107945
000280 7a 5f 1b 3d 32 cd 42 3e da d8 a1 be df 97 03 be
       0.03793285 0.19023588 -0.31610757 -0.12850903
000290 b1 40 2d 3c cd 0a 4b 3e da 35 d4 3d ab 42 a4 3d
       0.010574506 0.19828339 0.10361834 0.080205284
0002a0 cd c0 df 3d 4f 1e 72 bd aa 64 c1 3d 71 19 f4 bd
       0.10925446 -0.059110936 0.09443028 -0.11918915
0002b0 fa b4 02 bf 6d a8 a1 3e a8 c9 dc bd ec 82 c6 3d
       -0.510574 0.3157381 -0.107806504 0.0969294
0002c0 a6 5d 2c be 4a a7 97 3d 0b f4 43 bd 17 72 f5 3d
       -0.16832599 0.07404955 -0.04784016 0.119846515
0002d0 c2 15 5d be b7 87 4e 3e a0 9c 2c be b8 7d 91 bd
       -0.21590331 0.20168959 -0.16856623 -0.07104057
0002e0 df 41 64 be 92 97 92 bc 96 b4 ec 3d 7b 44 04 3e
       -0.22290753 -0.01789454 0.115578815 0.12916748
0002f0 e8 76 9e be 63 09 d9 bc d8 a5 1f 3e 26 ad c1 3b
       -0.30950093 -0.026493734 0.15590608 0.0059105335

bias f4 [8]
000000 83 20 53 bd 87 f1 e5 bd 19 4f df bd 0b a0 e9 3d
       -0.051544677 -0.11227708 -0.109037586 0.11407479
000010 fc b3 b4 bb 68 8a e3 bd b8 c5 70 3e 57 59 83 3d
       -0.00551462 -0.11110383 0.23512924 0.064135246

weight f4 [8]
000000 99 67 73 3f 38 e5 6d 3f d0 94 8c 3f 47 88 92 3f
       0.9507995 0.92927885 1.0982914 1.1447839
000010 fb 2b 71 3f 01 7a 82 3f 67 de 70 3f 15 58 74 3f
       0.94207734 1.0193483 0.9408936 0.954469

bias f4 [8]
000000 0f 93 83 3e 9a 5e d3 3d ac e5 23 3c f5 07 84 bd
       0.25698134 0.10320778 0.0100034885 -0.0644683
000010 9f b7 a5 3e 26 1d 8a 3e 92 0c e4 3d bb b3 ad bd
       0.32366654 0.26975363 0.1113521 -0.084815465

running_mean f4 [8]
000000 ef 0b 44 3f b3 40 c0 be b8 c5 5b be ad eb f6 3e
       0.7658071 -0.37549362 -0.21462142 0.4822668
000010 c1 17 ac 3e a8 84 fb be ce 15 71 3e 84 64 32 be
       0.33611873 -0.49124646 0.23543474 -0.17421156

running_var f4 [8]
000000 08 b4 f3 3f 82 fb 96 3e a8 03 20 3f a3 aa 58 3e
       1.9039316 0.2948876 0.6250558 0.21158843
000010 aa 53 04 3f 1e 50 06 3f c1 3b 9f 3e 5c 77 f3 3e
       0.5169016 0.52466 0.31100276 0.47552

weight f4 [8, 8, 3]
000000 41 5a 76 3e 0e e6 ef 3d 65 82 04 be ab ac 9d 3e
       0.24057867 0.11713801 -0.12940367 0.30795798
000010 e0 14 20 3e dc cf 3c 3c 82 92 57 3e 9c 20 a1 3b
       0.15632963 0.011524167 0.21051982 0.0049172174
000020 98 ea 2e be 34 32 e5 3d 37 45 9c 3e 2f b3 cf bc
       -0.17081678 0.11191216 0.30521557 -0.025353996
000030 d7 0d 18 be 85 a5 91 3d 54 d3 39 bd 62 d5 5c 3e
       -0.1484903 0.071116485 -0.045367554 0.21565774
000040 35 44 a7 bd 88 65 c0 3c de 4c bc 3d 04 bc f8 3c
       -0.08167306 0.023485914 0.09194349 0.03036309
000050 05 f1 3e 3d d9 8e 9b bd 7b 4c 00 3e dd ec 2f 3e
       0.046616573 -0.075956054 0.12529175 0.171802
000060 75 90 f0 bc d0 b8 5a 39 f0 af a9 3d e6 c8 0a 3c
       -0.029365757 0.00020858948 0.082855105 0.0084707495
000070 d4 d0 fc 3c d1 8f 13 3d 92 74 7f be 55 c8 4a be
       0.030861296 0.036025826 -0.24946812 -0.19802983
000080 a9 fe 6d 3e f5 50 cc bd 20 0e 2c 3d 6f 46 35 be
       0.23241676 -0.09976379 0.04200566 -0.1770265
000090 fb ee 58 3c 7e a6 01 3e 67 10 7b 3d 45 67 ed 3d
       0.013240571 0.12661168 0.06129494 0.11591963
0000a0 56 c5 16 3e 35 29 00 3e eb b1 9a be cb 36 09 3e
       0.14723715 0.12515719 -0.30213866 0.13399808
0000b0 d6 c6 96 be c8 b6 32 3d 72 0b 71 3b e9 88 51 be
       -0.29448575 0.043631345 0.0036780504 -0.20462383
0000c0 ea 2b a8 3c f9 27 b7 bd 61 34 4f be 5f cb 11 3e
       0.020528752 -0.08943171 -0.20234825 0.14237736
0000d0 bf bf e7 bd af cc f7 bd 95 ac a4 3d ab 07 4a be
       -0.113158695 -0.12099587 0.0804073 -0.19729488
0000e0 20 16 9b be 70 17 89 be dc d0 00 3e 13 d1 9b 3e
       -0.30290318 -0.26775694 0.12579674 0.30432948
0000f0 d3 2b 06 bd 6a 16 f1 bb c7 81 99 bd 19 9f df 3c
       -0.032756638 -0.0073574083 -0.07495456 0.027297543
000100 14 39 e4 bd 0a 99 61 be 4a 76 94 bd e3 fd 59 3d
       -0.11143699 -0.22031036 -0.07249124 0.05322064
000110 ad 95 15 bc d7 79 cd 3d 41 84 9f be aa 84 3f be
       -0.009129924 0.10033005 -0.3115559 -0.18702951
000120 52 2d 7b 3e e1 57 2f 3d 49 d3 64 be 9c 40 68 3d
       0.24529007 0.042808417 -0.22346224 0.05670224
000130 22 86 92 bc 70 dd 20 be a1 12 d2 3d 6c e5 d3 3d
       -0.017886225 -0.15709472 0.102574594 0.10346493
000140 86 6a 28 be 86 68 e3 bd 8d 78 ae bd 5f 55 36 3e
       -0.16446885 -0.11103921 -0.08519087 0.17806004
000150 e5 40 68 3e 92 b3 45 be b2 3c 73 be af f9 19 be
       0.22681005 -0.19306782 -0.23753622 -0.15036653
000160 f9 88 8a 3e f4 5e 23 3e 25 6a 1f be 00 d9 2a be
       0.27057627 0.1595419 -0.15567835 -0.16684341
000170 30 d5 96 3c 92 32 7b 3c c6 69 9b 3d 8f 35 e5 bd
       0.018412203 0.015331881 0.07588534 -0.11191856
000180 91 08 9c 3d 70 8d 0c 3e c7 aa 4e 3d 60 a3 1f be
       0.076188214 0.13725829 0.050455835 -0.15589666
000190 d7 a3 1f bd 70 1a a1 bd 24 9c 75 be ca 7e 98 3b
       -0.03897461 -0.07866371 -0.23985344 0.0046537863
0001a0 03 92 74 3e 28 eb 98 bd 45 9f 38 bd 4f 66 86 bd
       0.23883824 -0.074667275 -0.045073766 -0.065624826
0001b0 d0 5f d9 3d 03 61 86 be 97 74 94 3c 67 a5 ac bd
       0.10613978 -0.2624589 0.018122 -0.084299855
0001c0 03 ff 8a 3e eb 33 07 be 78 4a 0f 3e 40 e7 7c 3d
       0.27147684 -0.13203399 0.13993251 0.061743975
0001d0 b6 04 30 3e 3b 90 66 3e 76 d4 e0 3c fb ab ad bd
       0.17189297 0.22515957 0.02744506 -0.08480068
0001e0 80 a2 18 bd 49 b2 3b bd 1c 39 de 3c 73 04 33 be
       -0.037264347 -0.045824323 0.027126841 -0.17482166
0001f0 70 0a 86 3d 75 14 c5 b9 c3 45 c7 bd 4c 5f 9e bc
       0.065449595 -0.0003759001 -0.09730103 -0.01933255
000200 64 b7 a8 3c 25 67 fa 3e 09 e8 29 3e 6d 4d e3 3d
       0.02059526 0.48906818 0.1659242 0.11098752
000210 5c f0 8d 3d 88 e1 31 3e 15 66 4c 3c 9b 8e 97 be
       0.069306105 0.1737119 0.01247551 -0.29600987
000220 eb 7e a2 3c 81 c2 43 be 8b 51 38 3e b6 ac 97 3e
       0.01983591 -0.19117166 0.17999856 0.29623955
000230 bc c9 08 be 13 5e 28 be 4b 0c 24 3d 37 99 e4 bc
       -0.13358206 -0.16442136 0.040050786 -0.02790509
000240 29 b8 3f be a1 47 74 3c 0a af 2d 3e 02 c8 0d be
       -0.18722595 0.014909656 0.16961303 -0.13845828
000250 4d cf 29 3e 58 41 51 be c8 7f e7 3d f9 70 57 3e
       0.16582985 -0.20435083 0.11303669 0.2103919
000260 78 03 66 3e 59 f6 59 bc dc b8 0e 3e c5 06 5c 3d
       0.2246226 -0.013303363 0.13937706 0.053717393
000270 4a f7 66 3e bc 0b 0a 3e bd 7d 16 be 18 06 16 be
       0.22555271 0.13481039 -0.14696403 -0.14650762
000280 ec fa b5 bd b4 62 7b 3e 5a d9 71 3e 25 ed e5 3d
       -0.0888575 0.24549371 0.2361807 0.11226872
000290 88 04 3a 3e 55 61 89 bd 7b 26 04 bd 7d e8 9a 3e
       0.18165791 -0.06708018 -0.03226326 0.302555
0002a0 33 bb 60 be 8c a1 2f bd ca 2e 2b 3e ec c5 df bd
       -0.21946411 -0.042878672 0.16717067 -0.109264225
0002b0 d1 ad 28 be a4 df 66 3e d7 40 b1 bd d7 56 23 be
       -0.16472556 0.2254625 -0.08654945 -0.15951096
0002c0 7d 10 5e be 59 33 16 3d 5f ff 27 3d 12 e5 85 be
       -0.21685977 0.036670063 0.041015025 -0.2615133
0002d0 c3 1a 67 3d a8 cd 73 be 41 81 e9 3d 06 53 13 3e
       0.056422006 -0.2380892 0.11401606 0.1438714
0002e0 91 8f d9 3d 41 e5 c1 bd d5 6a de 3d 5f 88 8f bd
       0.10623086 -0.09467555 0.1086022 -0.070084326
0002f0 a9 bf 00 bc ca ea f3 bd 17 3a e7 bd e3 f9 28 be
       -0.007858195 -0.11910017 -0.11290377 -0.16501574

bias f4 [8]
000000 80 10 20 be 3a b5 63 3e 97 af 4e be 59 c2 71 be
       -0.15631294 0.22237101 -0.2018417 -0.23609294
000010 25 c0 1e 3e d6 d0 d3 3d 17 87 ea bd fe 11 32 3d
       0.15502985 0.10342567 -0.114515476 0.04347419

weight f4 [8]
000000 38 c6 76 3f 0b 5d 7a 3f e2 cd 92 3f 17 01 89 3f
       0.9639621 0.9779822 1.146908 1.0703458
000010 d4 21 6b 3f e3 1e 79 3f 54 60 74 3f 18 5b 86 3f
       0.9184849 0.97312754 0.95459485 1.049655

bias f4 [8]
000000 72 83 d5 bd 9a f3 5b 3d a9 c3 24 3e c6 6d cf 3e
       -0.10425462 0.053699113 0.16090263 0.40513438
000010 3e ef 3f bc 5c 45 2f be 00 0c 27 3e 41 84 21 3e
       -0.011714755 -0.17116302 0.16313171 0.15773107

running_mean f4 [8]
000000 0f 5f c2 3e 5d 42 29 3e 23 a1 24 bf 82 0c a2 be
       0.3796315 0.16529222 -0.64308375 -0.31650168
000010 79 af 6d 3e db c9 9f 3e 72 ce bb 3e aa fc 60 be
       0.23211469 0.3120869 0.36680943 -0.21971384

running_var f4 [8]
000000 c9 f8 c7 3e 6e f1 43 3e 00 1b e2 3e c9 42 c0 3d
       0.39056996 0.19135067 0.44161224 0.09387738
000010 3a e2 b7 3e e4 6c 4e 3e b4 6a 2a 3e 39 b7 79 3e
       0.35914785 0.20158726 0.16642267 0.243863

weight f4 [8, 8, 3]
000000 f5 25 d4 3d e4 ba eb 3c 04 b9 fe bd 5c e3 8e be
       0.10358802 0.02877564 -0.12437633 -0.27907836
000010 89 2a fd 3d 33 1b 3e bd 29 78 3d 3b 80 a8 1c be
       0.123616286 -0.046412658 0.0028910732 -0.15298653
000020 24 de 1e 3c be ff 2f be 4d a3 cb bc 83 e2 a3 3e
       0.009696517 -0.17187402 -0.024858141 0.32008752
000030 b1 52 ac 3c b0 2f a7 bd 9d 48 3c 3e 57 17 28 be
       0.021035524 -0.081633925 0.18387075 -0.16415153
000040 07 e6 cc bc d5 26 a2 3d e2 99 20 3e eb f2 40 bd
       -0.02501203 0.07917563 0.15683702 -0.047106665
000050 6c e3 1f be b4 a7 d9 be 74 9f 8c bd 9c 77 18 be
       -0.15614098 -0.4251076 -0.06866351 -0.14889377
000060 80 94 96 be 1b ed ab 3d 34 af 01 bb 1b 42 3c 3e
       -0.29410172 0.08394834 -0.0019788267 0.18384592
000070 62 17 c2 bd a1 d8 9d be d4 79 13 3e 53 7b bf 3c
       -0.09477116 -0.30829337 0.14401942 0.023374235
000080 49 ab 06 3e 58 be 2d 3e 7b df e3 3d 16 63 a4 3c
       0.13151278 0.16967142 0.1112661 0.02006678
000090 d6 0e 28 3d 29 d5 23 3d be 7c f6 bd 8a 5e 4a be
       0.041029774 0.039998207 -0.120355114 -0.19762626
0000a0 1a 61 6a bd 22 e7 3a bd 2e a2 3d 3c f6 9d 31 be
       -0.05722151 -0.04563058 0.011574311 -0.17345414
0000b0 e2 d7 26 be 7b 45 3d bd 0c 70 23 bd a8 35 e5 bd
       -0.1629329 -0.04620884 -0.039901778 -0.11191875
0000c0 24 4e 62 bd 2f 4b 0e be f2 08 61 bd d5 3b ff bd
       -0.055250302 -0.13895868 -0.05494017 -0.12462584
0000d0 a5 97 96 3d be 2c 8e be c6 8b 0b be ac c8 a6 bc
       0.07353143 -0.2776851 -0.13627538 -0.02035936
0000e0 cb c1 06 be 40 31 27 be a0 18 07 be 5a 89 a6 be
       -0.13159864 -0.16327381 -0.13192987 -0.32526666
0000f0 44 16 a9 bd 2c 04 d3 3d 60 a3 d3 bd fc 40 33 3c
       -0.082562 0.1030353 -0.10333896 0.010940786
000100 7e a3 4b bd 31 ef b5 bd 93 98 2b bc b1 3e 54 be
       -0.049716465 -0.08883513 -0.010473388 -0.2072704
000110 ef a3 cd bd f7 2b ad 3d 5b 74 ac 3e 37 ae 0b be
       -0.100410335 0.08455651 0.33682522 -0.13640676
000120 49 47 0e be 78 77 c8 bd fe 93 b6 3d f1 19 20 be
       -0.1389438 -0.09788412 0.08914946 -0.15634896
000130 22 55 10 3d 75 95 0d be 74 26 9b 3e 7e 41 5b 3e
       0.03523744 -0.13826545 0.30302775 0.21411702
000140 4a 49 1a 3e 95 57 a4 be 63 eb 32 bd 21 04 7f be
       0.1506702 -0.3209807 -0.043681514 -0.24903919
000150 e9 b2 ab be 13 96 b3 bd 84 9d d6 3d 5b 65 79 3d
       -0.33534935 -0.08768859 0.104792625 0.060887676
000160 fd 8e 40 3e 40 c8 ac 3d 5a 66 58 3d 58 6f f2 bc
       0.18804546 0.08436632 0.052831985 -0.029594108
000170 9b 86 94 bd e0 11 71 bd aa 9e cf 3d a5 fe 42 3e
       -0.072522365 -0.058854938 0.10137685 0.19042452
000180 b8 0f a1 bb 16 ef dc bd ef 00 13 be 17 a0 16 bc
       -0.004915204 -0.107877895 -0.14355825 -0.009193442
000190 14 ef e7 3c c4 3b 78 3c 52 2b 0d be 67 c6 9b be
       0.028312244 0.015150968 -0.13786057 -0.30424806
0001a0 d8 af 6f be bc 3f 85 be 41 4a 29 be 57 85 4e be
       -0.23406923 -0.26025188 -0.16532232 -0.20168053
0001b0 b0 1f c7 bd ef fc 00 3e cd 60 a1 3d 35 e7 12 be
       -0.09722841 0.12596487 0.078797914 -0.14346011
0001c0 07 23 b3 be 83 a6 40 bd 2d 5d f7 bd d4 fb fd 3d
       -0.3498766 -0.047033798 -0.12078319 0.12401548
0001d0 e3 00 26 be 43 9f 93 3d c3 48 85 3c df 3b 81 3d
       -0.16211276 0.07208111 0.016270047 0.06310248
0001e0 38 fb 2a bd a7 eb 03 3e c9 d3 2f 3e 80 12 de bd
       -0.041743487 0.12882863 0.17170633 -0.10843372
0001f0 70 9b 50 3e ad cb d3 bd 10 ea 07 be 93 71 06 3e
       0.20371795 -0.103415824 -0.13272882 0.13129263
000200 2f 86 6c 3e 34 f2 82 3d d4 bf 3d be 2f f3 b6 be
       0.23098062 0.06393853 -0.18530208 -0.3573241
000210 c1 5d 45 3c c3 fb 4c 3e 1e 41 a3 bd 82 4b 8d bd
       0.012046278 0.20017914 -0.079714045 -0.068991676
000220 7f da 1b 3e db cd 81 be a0 1a 18 bd 52 ca 52 3e
       0.15220068 -0.25352368 -0.037134767 0.20584992
000230 7a e3 7f 3d e2 87 d6 bb 1c d0 f3 3d bd 4b 36 3e
       0.062472798 -0.00654696 0.11904928 0.1780233
000240 4f c7 1d bc 73 7f 47 bd e2 10 32 be 36 17 97 bd
       -0.009630038 -0.04870553 -0.17389253 -0.07377474
000250 5d 00 17 be 74 f8 02 be 07 f7 a0 be dd 47 05 be
       -0.14746232 -0.1279009 -0.31438467 -0.13015695
000260 67 c2 85 3e 80 ae 28 3e f4 54 15 3e 69 89 87 3e
       0.2612488 0.16472816 0.14583188 0.26472023
000270 c9 2e 38 3e 52 e7 b0 3d 4f 2b 1b 3d 91 84 53 be
       0.17986597 0.08637871 0.0378831 -0.20656039
000280 9e 07 b2 3b 0f b3 67 bd f4 6e 3c bc 56 71 62 bd
       0.005433037 -0.056567248 -0.011501063 -0.055283867
000290 00 54 53 bd 45 1b ad be 8d 71 1f be f8 90 91 3c
       -0.05159378 -0.33809868 -0.1557066 0.017769322
0002a0 93 7f 88 be 32 06 10 3d b9 9d b6 bd cf b4 e9 bd
       -0.2665983 0.03516216 -0.08916802 -0.114114396
0002b0 ae a3 f3 bd f9 6f 0e be 80 92 31 be c2 97 af bd
       -0.11896454 -0.13909902 -0.17341042 -0.085738674
0002c0 32 70 88 be df f6 5e bd 68 f9 61 be 60 5f bd 3d
       -0.26648098 -0.054434653 -0.22067797 0.09246707
0002d0 99 7a f3 3d 2d fe 79 3e e0 b2 57 bc c4 f9 8c 3e
       0.11888618 0.24413367 -0.013165206 0.27534306
0002e0 67 89 7c 3d c0 e8 2a be 76 94 63 bd 0c 17 d2 bd
       0.061654475 -0.1669035 -0.055561505 -0.10258302
0002f0 32 34 7e 3e dc ce 4f 3c e6 e2 54 3e 84 a8 2a bb
       0.24824598 0.012683596 0.2078968 -0.0026040385

bias f4 [8]
000000 41 83 80 3e 13 ec 6f 3d 67 f9 8c bd 56 83 00 bd
       0.2510014 0.058574747 -0.06883507 -0.03137525
000010 85 dc 91 bb cf 9e 16 be ca 00 d1 3d 2c 6c 52 3e
       -0.004451337 -0.14709018 0.102052286 0.20549077

weight f4 [8]
000000 53 72 6b 3f cd 93 89 3f 8e 73 6e 3f 98 05 8d 3f
       0.9197132 1.074823 0.9314507 1.1017332
000010 5a 6a 77 3f 61 09 5a 3f d2 eb 81 3f 1c 85 82 3f
       0.96646655 0.8517056 1.0150092 1.0196872

bias f4 [8]
000000 7c 1b af 3d 3e e1 03 3f 2c 7b 7e ba 1d 3f 70 3e
       0.08550164 0.5151557 -0.0009707685 0.23461576
000010 3a d5 10 3e 7e a7 75 3d be e5 73 3e 6b a1 2d 3e
       0.1414384 0.059974186 0.23818108 0.16956107

running_mean f4 [8]
000000 d4 8c bf bd 68 6d 49 bd 0c f8 48 bf ec 86 a2 bd
       -0.09353033 -0.049176604 -0.7850349 -0.079358906
000010 ad 4c 5f bf ba 94 b0 bd 1f 1e 95 bd 51 2a bc bd
       -0.8722637 -0.08622117 -0.07281136 -0.09187759

running_var f4 [8]
000000 aa 45 8b 3e 1f 2d ac 3e 83 e4 0e 3f 3f a8 38 3f
       0.27201587 0.33628175 0.5581743 0.72131723
000010 c7 36 87 3e c1 72 36 3e dc 8e 38 3e 6a e8 1b 3e
       0.2640898 0.17817213 0.18023247 0.15225378

weight f4 [8, 8, 3]
000000 d4 a0 d2 3c a6 f6 a1 3d a6 10 88 3e 45 0e f7 bd
       0.025711454 0.079083726 0.26575202 -0.120632686
000010 79 18 5d be 1e 7e d0 3d 64 e2 7e bc ef 5b 72 bd
       -0.21591367 0.10180305 -0.015556905 -0.059169706
000020 22 8e 0b 3e 81 ba 72 be c3 79 60 be 01 ac d3 3c
       0.13628438 -0.23703958 -0.21921448 0.025838854
000030 0e d5 db 3d 49 77 8e 3e 8e 3c 9b 3d b1 3a ee 3d
       0.10733996 0.27825382 0.07579909 0.11632288
000040 fb 31 0b 3e fd 02 59 3c 1e b2 e0 3d 9f 5b e7 bd
       0.13593285 0.013245341 0.10971473 -0.11296772
000050 3d 05 70 be ba dc ee 3d 6c 54 60 be db f8 7d bd
       -0.23439498 0.11663194 -0.21907204 -0.062004905
000060 92 15 65 bd 38 e4 5f be b6 c8 ea 3d 33 57 56 be
       -0.055928774 -0.21864402 0.11464064 -0.20931701
000070 b1 40 8f bc 46 b1 89 be 07 8e 38 be b1 2c 17 3e
       -0.017486902 -0.2689306 -0.18022929 0.14763142
000080 98 7f bf bb 7b 1d ef bd de 16 10 bc 9a 31 8b be
       -0.005844068 -0.11675545 -0.008794514 -0.2718628
000090 f2 4d 04 be bf 3b 5b be b2 d2 f8 bd 5d 99 98 3e
       -0.12920359 -0.2140951 -0.12149562 0.29804507
0000a0 f1 ab 62 be 03 8f f3 bd f7 c3 01 be c4 9f 02 3c
       -0.22135903 -0.11892512 -0.12672411 0.007972661
0000b0 37 39 24 bd e6 24 f7 bc 41 79 e1 bc 0f 22 28 bd
       -0.040093627 -0.030168962 -0.027523639 -0.041048106
0000c0 3f e9 3a 3e 4b 81 b4 3d 41 27 ef 3c 4e db 8a bd
       0.18253039 0.08813723 0.029193522 -0.0678011
0000d0 b3 00 b8 3c 00 5c 8d be 57 e6 a8 be c8 b8 86 3c
       0.02246127 -0.27609253 -0.32988235 0.016445532
0000e0 6d 4d 25 3e 22 52 8c 3e 2c 87 ab 3e 1e d2 ad 3e
       0.16142817 0.27406412 0.33501565 0.3394937
0000f0 62 d6 bc 3c 35 aa 4a be 86 b2 0f 3e 3f 5a e7 bd
       0.023051444 -0.19791491 0.14032945 -0.1129651
000100 58 61 bd 3d e1 09 94 3d ea ff 60 3e 14 b6 29 3e
       0.092470825 0.07228447 0.21972623 0.16573364
000110 5d 4c 1b be 10 bb 59 3e c5 e4 12 bc 47 c4 8b 3d
       -0.15165849 0.21262765 -0.008965676 0.06824546
000120 54 31 6a 3d 75 97 24 be 53 e2 18 be b2 94 3a be
       0.05717595 -0.16073401 -0.14930086 -0.18220785
000130 75 99 22 be 87 3d 52 be a7 d8 5b 3e b4 d1 2c be
       -0.15878852 -0.20531283 0.21469365 -0.1687687
000140 c6 af 67 3d f0 f9 75 3e 01 93 52 3d e5 6a 8e 3e
       0.056564115 0.24021125 0.051409725 0.2781593
000150 4c 9b d5 3c f8 35 71 3d e1 13 33 3d ad 82 75 3c
       0.026075028 0.05888936 0.04372013 0.014984769
000160 ce ca 2c be 67 54 f9 3b f0 15 7a be fe b9 b2 3d
       -0.16874239 0.0076089385 -0.24422431 0.087268814
000170 ef 43 69 3d ce 85 b6 3e cd 8a 0c be be 38 2f 3e
       0.056949552 0.3564896 -0.13724823 0.17111489
000180 7e 2b f2 bc 25 39 38 3c b3 79 b1 3c f2 ac f6 3d
       -0.029561754 0.011244093 0.021664476 0.120447055
000190 f7 72 a8 bd 62 ee 55 3e 46 83 8f 3d 72 55 a4 be
       -0.08225053 0.20891717 0.0700746 -0.3209644
0001a0 31 78 12 be 67 52 1d 3e 31 cb 6e be b1 98 2e 3d
       -0.14303662 0.15363465 -0.23319699 0.042626087
0001b0 c2 bb 63 3c be cf 93 be cf 8d 60 be 65 42 ac bb
       0.013899745 -0.28869432 -0.21929096 -0.0052569383
0001c0 30 1b af bd 4a 45 f3 bd cf e9 f6 3d cc 1d cf bd
       -0.085501075 -0.1187845 0.12056314 -0.10113105
0001d0 d7 6a 87 3e 5d 04 70 3d 52 f2 14 3d d4 d0 4f be
       0.264487 0.05859791 0.036363907 -0.20294505
0001e0 55 41 89 bd 8f 08 47 3e 1a 89 56 be 0c aa a8 be
       -0.06701914 0.19436859 -0.20950738 -0.32942235
0001f0 e0 d6 25 3c ce 76 82 be d4 e1 12 bd 09 08 d1 3c
       0.010122031 -0.25481266 -0.035859898 0.025516527
000200 cd 10 19 3d a1 fd 79 3e 25 99 ad 3d 6f 3c 6a be
       0.037369538 0.24413158 0.084764756 -0.22874616
000210 2f 59 8f 3d cc e4 20 3e 80 63 58 3d 2c 46 43 be
       0.06999432 0.15712279 0.052829266 -0.19069737
000220 50 5a fd 3c da 0a 81 3c 46 7c 58 3d 6a cf 5b be
       0.030926853 0.015752245 0.05285289 -0.21465841
000230 d1 44 db bd 51 59 19 3d c5 59 cf 3b 2a cb b5 3e
       -0.10706485 0.037438694 0.00632784 0.35506564
000240 4b 1f 56 bd 6f 15 90 3e 2a bd c3 bd 44 5b 60 3e
       -0.052275937 0.28141353 -0.095575646 0.21909815
000250 c2 20 05 bd 7b b9 c0 3d 92 d9 2e bd 30 92 ac be
       -0.032501943 0.094103776 -0.04268796 -0.33705282
000260 64 56 a1 3c a4 20 bc bd 93 5d 04 bc 1d 34 e9 3c
       0.019694515 -0.09185913 -0.00807895 0.028467232
000270 ba 89 59 be e5 65 be bc 42 d5 65 be b4 28 c6 3d
       -0.21243945 -0.023241946 -0.22444633 0.09675732
000280 9b 26 b2 bd f6 42 be 3c 11 46 8f 3e 16 05 04 3e
       -0.0869877 0.023225289 0.27983144 0.12892565
000290 a0 00 9c 3d 7d a4 60 3e 56 d8 3c be 34 76 60 bc
       0.07617307 0.21937747 -0.184419 -0.013700057
0002a0 b2 f1 83 3e dc 29 99 3d 9c 64 f6 bd e3 22 87 be
       0.25770336 0.07478687 -0.120309085 -0.26393804
0002b0 70 cb 38 be 75 33 6f 3e f5 8e bd 3d 8b e5 ef bd
       -0.18046355 0.23359473 0.092557825 -0.11713704
0002c0 2e 50 a9 bd 05 ae d8 3c 0c 31 9f bd 9e c7 bc bd
       -0.08267246 0.026450166 -0.07773027 -0.092177615
0002d0 8f 22 4f be 11 32 26 3e a3 4c 9b 3d 4f 14 a0 bd
       -0.20228027 0.16230036 0.07582977 -0.078163736
0002e0 05 40 1e be 15 45 1b be 3c c2 54 3d aa eb 08 3d
       -0.15454109 -0.15163071 0.05194305 0.03342787
0002f0 cc ee b5 3e c2 1a 25 3e 90 42 b1 3c 9c 01 b6 3d
       0.3553375 0.16123489 0.021638185 0.08887026

bias f4 [8]
000000 21 da aa bd 2b 4d 20 bd 13 41 f3 b8 f7 10 8f bc
       -0.08342386 -0.039136093 -0.00011599264 -0.017464144
000010 d4 6c 87 bc a6 a1 53 bc b0 74 29 be f1 d7 2c 3e
       -0.016531385 -0.012916958 -0.16548419 0.1687925

weight f4 [8]
000000 f9 ed 7b 3f 1e 42 83 3f d0 fe 82 3f b1 98 8a 3f
       0.9840999 1.0254552 1.0234013 1.0827848
000010 1f d7 72 3f 89 9a 7b 3f 01 fd 8b 3f 06 69 83 3f
       0.948595 0.98282677 1.0936586 1.0266426

bias f4 [8]
000000 33 95 80 3e 1f af f6 3a d0 88 c4 3c 7d b0 7e bc
       0.2511383 0.0018820501 0.023991019 -0.015545008
000010 42 e7 bc bc 8b 38 e7 3d 62 f2 63 3d 07 63 e7 3d
       -0.023059491 0.112900816 0.055651076 0.11298185

running_mean f4 [8]
000000 e8 68 89 be dd 0b 7a bf d2 7d 10 3f 3e 37 8a bc
       -0.2683785 -0.9767435 0.56441987 -0.016872045
000010 3c 29 0b be 59 7f 88 be 1c 0d 89 bb 34 1a 55 3e
       -0.13589948 -0.2665966 -0.004182471 0.20810777

running_var f4 [8]
000000 6c de a2 3e ae a5 14 3e 71 e9 61 3e 93 e0 8b 3e
       0.3181032 0.14516327 0.22061707 0.27319774
000010 2f 5f 5a 3e 6e 5f 96 3e fa be d4 3e bb b9 75 3e
       0.21325372 0.29369682 0.41551954 0.23996632

weight f4 [8, 8, 3]
000000 e8 0d 3a bd b0 6d 92 bd fd c5 51 be 4d cf 26 3e
       -0.04542342 -0.071498275 -0.20485683 0.16290016
000010 50 a6 fb 3b f7 9e ed bd 95 13 45 3d 44 a7 f9 3d
       0.007679738 -0.11602586 0.048114378 0.121901065
000020 58 88 8c be 66 93 b2 3e f6 1a e3 bd c4 12 23 be
       -0.27447772 0.3487808 -0.11089127 -0.15925127
000030 87 b5 11 bb d4 5b 75 3e 3c d5 9d 3e 98 2d 82 3d
       -0.0022233443 0.23960811 0.30826747 0.063563526
000040 f7 f0 8b 3d 5a 3a e1 bd 89 c2 db bd 29 a2 8a bc
       0.0683307 -0.10997458 -0.10730464 -0.016923027
000050 cd 36 0b 3e 35 a3 81 3d 12 0c 17 bd fd b0 1f 3d
       0.13595124 0.063299574 -0.036876746 0.03898715
000060 6d 0c ba 3e 15 2a 71 3d b9 a1 12 be 5c 1a 1d 3d
       0.36337605 0.058878023 -0.14319505 0.038355216
000070 08 df c9 3e 66 b3 85 3c 85 15 44 3d 05 a8 aa bc
       0.39427972 0.016320895 0.047872085 -0.020832071
000080 61 24 97 3d c8 f2 ce bc 00 46 42 3d b8 36 db bc
       0.073799856 -0.025262251 0.04743004 -0.02675949
000090 7a 62 b1 3d f5 5e 08 3d 9e 90 66 bd 14 d1 1f 3d
       0.08661361 0.033293683 -0.05629026 0.03901775
0000a0 ec 0d 77 bd e1 2a c9 bd b5 57 16 be 49 b1 b3 3d
       -0.06031601 -0.098226316 -0.14681895 0.08774049
0000b0 0d dd 2b 3e f5 7f e6 bb 42 e3 2c bd a5 96 32 3e
       0.16783543 -0.0070342966 -0.042208917 0.17440279
0000c0 aa 61 b7 bd 6c f8 7a 3c dc bd 3a 3e f5 33 34 be
       -0.08954175 0.015318017 0.18236488 -0.17597945
0000d0 5a c9 80 3e 24 2a 43 be 5b 70 c5 3c 02 68 2f be
       0.2515362 -0.19059044 0.024101427 -0.1712952
0000e0 2e 53 58 bc 9f 2e 10 be 0d e7 20 be 21 26 03 be
       -0.013203425 -0.14080285 -0.15713139 -0.12807514
0000f0 c8 93 31 be d8 24 d4 3d 30 67 03 be 24 fe 4d bd
       -0.1734153 0.1035859 -0.12832332 -0.050291196
000100 26 66 0b be ed e7 61 be 6d fb a3 3c bc 3f 80 be
       -0.13613185 -0.22061129 0.02001735 -0.25048625
000110 aa cc df bd e7 f2 39 be 23 57 bf bd bf 45 37 3d
       -0.109277084 -0.18159066 -0.09342792 0.04474425
000120 00 d4 e1 3d 0b b9 ec bb 3e d9 fd 3c 3e 5b a6 bb
       0.11026764 -0.0072242073 0.030987378 -0.005076795
000130 9f 99 96 3c 0a a1 62 3b 23 06 68 bd 79 3f 50 be
       0.0183838 0.003458085 -0.056646477 -0.20336713
000140 47 eb 07 bb b9 4f b2 3e 7a 74 cf bd 71 86 73 be
       -0.0020739601 0.3482645 -0.10129638 -0.23781754
000150 14 4b a3 be 43 88 2d be da e5 c8 3d 7a 44 df 3d
       -0.31893218 -0.16946511 0.09809466 0.10901733
000160 20 1c 92 3e 80 47 da bd 27 27 9e be 5c 1a e7 bd
       0.28537083 -0.10658169 -0.30889246 -0.112843245
000170 c5 20 6f be ee 40 d1 bd 71 53 6a be 2d e9 82 3d
       -0.23352344 -0.102174625 -0.22883393 0.06392131
000180 d8 cc 41 3e e3 a3 b6 bc 54 19 f0 3d 9b 02 dd bb
       0.18925798 -0.022294944 0.11723581 -0.0067446954
000190 6c 3f 30 bc 74 31 c8 bd 17 b6 2b be 8f 87 1d be
       -0.010757308 -0.097750574 -0.1676868 -0.15383743
0001a0 1b 66 8f be 00 78 21 3e 53 7f 44 3c 5a c9 4c be
       -0.28007588 0.15768433 0.011993247 -0.19998685
0001b0 6a 78 c3 bc 88 79 9e 3e e8 cf 89 3d 02 d0 c0 bd
       -0.023861129 0.30952096 0.06729108 -0.09414674
0001c0 3f 39 8f bb c2 34 85 be 69 61 2c be 8d a3 1c bc
       -0.004370838 -0.26016814 -0.16834034 -0.009560478
0001d0 4c 96 14 3e 48 eb f5 bc 63 d6 db bc 9c 73 94 3e
       0.14510459 -0.030019417 -0.026835626 0.28994453
0001e0 a4 3f b7 bc 3b cd c8 bd 19 cf 5b bd b1 d9 25 3e
       -0.022369213 -0.098047696 -0.0536643 0.16196324
0001f0 34 3a 22 bd e4 3f 0a 3d 53 77 8c 3c e2 d2 51 3d
       -0.039606288 0.033752337 0.017146742 0.051226504
000200 8f 08 3b be db cd a3 3e 8b aa ec bd d2 3f bd bd
       -0.18264984 0.31992993 -0.11555966 -0.092406884
000210 46 15 ab bd 2a 4f 4c bc fe 73 21 3d ca 62 be 3d
       -0.08353667 -0.012470046 0.03941726 0.09296186
000220 5a 2b d8 3c bc 4c 98 be f7 30 21 be f7 43 2e 3e
       0.02638786 -0.29746044 -0.15741335 0.17018114
000230 82 67 08 3e e2 0a 7e 3d 72 5e e5 bd b9 97 3c 3e
       0.13320735 0.062022097 -0.11199655 0.18417253
000240 f9 ad 04 3e 2b 6f 90 bd c4 fe b8 3d fc d1 22 bc
       0.1295699 -0.070524536 0.09032968 -0.0099377595
000250 27 2a 0b bc e0 c3 6f 3d 94 51 7a be 27 ad 37 be
       -0.008493937 0.05853641 -0.24445182 -0.17937146
000260 b2 e3 ce bd 2e e8 40 3e c0 1c 9a 3c 2c 9a 4d 3d
       -0.10102023 0.1883857 0.018812537 0.050195858
000270 0a ff 7f bd a5 c2 10 be 33 19 e7 bc 7a a5 8a bd
       -0.062499084 -0.14136751 -0.028210258 -0.067698434
000280 aa 57 19 3e bd bb ce bd b5 d3 89 be ed ec a7 bd
       0.14974847 -0.10094402 -0.26919332 -0.08199487
000290 ed 85 34 3e 49 7e 61 3e 15 f0 0a 3e 88 db 28 3e
       0.17629214 0.2202083 0.13568147 0.16489995
0002a0 86 6f 1e 3e 4b 4f 63 be e9 ed 82 3d 43 b2 2a be
       0.1547223 -0.22198217 0.06393034 -0.16669564
0002b0 c5 9e 8b 3e 37 03 71 bd 2f 31 c9 3d 60 f7 31 be
       0.2726957 -0.058840957 0.09823834 -0.17379522
0002c0 60 ca 91 bd 75 02 e9 bc 86 fb fb 3d 18 be a0 3d
       -0.07118678 -0.028443554 0.12303834 0.078487575
0002d0 ba 51 fd ba 2a 75 b0 bd 92 33 6b bc 7d 20 76 bd
       -0.0019326725 -0.08616097 -0.014355557 -0.060089577
0002e0 d8 e7 4e 3e 14 aa a1 be 3c 15 f9 bd 9b 5a e3 bd
       0.20205629 -0.31575072 -0.12162253 -0.11101266
0002f0 2c 49 03 3d b5 f5 9e 3d b7 1b 8c bc 99 d3 84 be
       0.032052204 0.07761709 -0.01710306 -0.25942686

bias f4 [8]
000000 c9 05 36 be dd e7 4a 3e e4 e1 0a 3e e1 b0 01 be
       -0.17775644 0.19815011 0.13562733 -0.1266513
000010 a8 e9 be 3d e8 a7 e4 3d 9d 56 0b 3d ea 3a f7 3d
       0.0932191 0.11164838 0.034018148 0.12071784

weight f4 [8]
000000 0f fb 3a 3f 2c 86 38 3f 43 b4 14 3f bb 67 36 3f
       0.73039335 0.7207973 0.5808756 0.7125203
000010 af 3b 42 3f ae 0d 24 3f e3 00 46 3f 74 57 45 3f
       0.7587232 0.64083374 0.77345103 0.7708657

bias f4 [8]
000000 44 99 41 be 79 7d a6 be f9 73 1d be 37 08 72 be
       -0.18906122 -0.32517603 -0.15376271 -0.23635946
000010 2d f2 62 be ad 02 02 bf f0 28 99 be fd 9f 92 be
       -0.22162695 -0.5078533 -0.29914045 -0.28637686

running_mean f4 [8]
000000 ab 62 d7 bd 06 fd 15 3f 10 20 13 bf 27 98 0c bf
       -0.10516866 0.5858921 -0.574708 -0.54919666
000010 67 59 e8 bc db ce bf 3d 4c f1 7b 3d 05 cc fe bd
       -0.028362943 0.093656264 0.061509416 -0.124412574

running_var f4 [8]
000000 01 c7 81 3e 81 e6 92 3e c5 5f 9a 3e 75 db 16 3f
       0.2534714 0.28691486 0.3015119 0.58928615
000010 24 88 00 3f 19 d3 36 3e 6d 02 73 3e 2b e8 6d 3e
       0.50207734 0.17853965 0.23731394 0.23233096

weight f4 [128, 25]
000000 c5 75 86 3c 64 11 32 bc aa ed 6f 3e 14 4f d9 3d
       0.016413579 -0.010868404 0.23430505 0.10610786
000010 ea fb 4a be af d3 24 3d 73 44 8d be a9 2d 73 bd
       -0.1982266 0.04024094 -0.27591285 -0.059369717
000020 f5 8c 86 3e 04 f6 67 be a4 d9 2b 3e 5c 41 a7 3d
       0.26279417 -0.22652441 0.16782242 0.08166763
000030 64 45 9f bd 54 7f 30 3e 0c c7 07 3e 0a ac 46 be
       -0.07776907 0.17236072 0.13259524 -0.19401565
000040 0a f1 28 be a4 60 e0 bd 3a f8 52 3d 82 66 7f bd
       -0.16498199 -0.10955933 0.05150626 -0.06235362
000050 de 9d 01 3f c1 ac 8e bd ad 5c 02 3e ee 0a 87 bd
       0.5063151 -0.06966544 0.12730666 -0.065938815
000060 9b dc 08 bd c1 f2 a0 be 16 da df 3d 88 35 d1 3e
       -0.03341351 -0.31435207 0.109302685 0.40861154
000070 74 1a f5 bc 04 53 23 3e 8a 91 a1 bd 43 1d 25 be
       -0.02991984 0.15949637 -0.078890875 -0.16124444
000080 25 8c 1b be 54 19 5e 3d 54 1c c0 be ac 55 23 bd
       -0.1519018 0.054223374 -0.37521613 -0.039876625
000090 a3 35 ac be c0 0e 46 3d 40 dd ec 3d 76 9a 76 3d
       -0.33634672 0.04835391 0.115656376 0.0602059
0000a0 f7 63 6e bd be c3 a7 be 3a 70 7d bd ea 15 a9 be
       -0.058200803 -0.32766527 -0.061874606 -0.33024532
0000b0 6a 09 a8 be e3 8e 44 be 0a d5 8d be f7 a9 8b 3e
       -0.32819682 -0.19195132 -0.27701598 0.2727811
0000c0 3b e5 27 3b b1 63 ce 3b 75 92 c2 3e 66 4d 75 3e
       0.002561881 0.0062985052 0.38002363 0.23955306
0000d0 bf c3 49 bd 93 ec 5b bd 5e 30 1e be cf 0a be be
       -0.049258944 -0.05369241 -0.15448138 -0.3711762
0000e0 19 e5 7b be 9a 45 b2 3d 8d 69 38 3d 53 81 4d be
       -0.24599113 0.08704682 0.045022536 -0.20068865
0000f0 47 d6 29 3e 83 04 84 3e 8e 0d 67 bd d1 32 54 bb
       0.16585647 0.25784692 -0.05640941 -0.0032378922
000100 f2 fd ec bd 9b 9f 42 bd b5 ec 71 3e ed 31 b1 3c
       -0.11571874 -0.047515493 0.23625453 0.021630252
000110 35 f5 24 3e bd c4 e3 bd 8b 97 0e 3c c7 87 10 bb
       0.16109164 -0.11121509 0.008703123 -0.0022053586
000120 1f 08 1d be 0f 1e 97 3d c7 d3 2c 3d 49 2f 8c be
       -0.15335129 0.0737878 0.042194154 -0.27379826
000130 83 00 15 3e ba 14 f6 3e af 14 1c bd d8 b1 e6 3c
       0.14550976 0.48062688 -0.038105663 0.028160974
000140 7a 91 4c 3e 6d 41 10 3e d9 f9 91 be 5a 26 61 3a
       0.1997737 0.14087458 -0.2851093 0.00085887837
000150 38 23 23 be 24 1a 09 be 43 f0 c2 be 20 91 b5 3c
       -0.15931404 -0.13388878 -0.3807393 0.022163928
000160 5c 6c 01 3e 78 af 9b 3e a8 48 c0 bd 98 17 68 be
       0.12638992 0.3040731 -0.09388858 -0.2266525
000170 2a d1 69 3d d7 be ea bd 1a 24 be be 13 5e 32 3e
       0.05708424 -0.11462181 -0.37136918 0.17418699
000180 fa 65 5a be d9 c1 13 3e 29 26 99 3c 56 20 43 bb
       -0.21327963 0.14429416 0.018694954 -0.0029773912
000190 fd 3f 08 3e bc 63 e2 3b 39 53 89 bc db 12 4a be
       0.1330566 0.006908862 -0.016763316 -0.19733755
0001a0 84 2c a1 3d e5 56 9d be 02 61 38 bc f2 ae 54 3e
       0.07869819 -0.30730358 -0.011253597 0.20769861
0001b0 f8 54 d3 bb 34 cf ab 3c 63 39 c2 bd 50 02 eb bd
       -0.006449338 0.020972826 -0.09483602 -0.114750504
0001c0 4e ec 9e bd cc ae 03 3d 0b 0f db bd f1 e1 40 3d
       -0.07759915 0.03214912 -0.106962286 0.047090475
0001d0 34 18 ed 3d 9c 8b 07 3d 09 d1 b9 be c3 02 fe 3d
       0.11576882 0.033092126 -0.36292294 0.124028705
0001e0 4c 1f 15 be da 9a 14 be a3 b8 ac bd cf fe 46 3e
       -0.1456272 -0.14512196 -0.08433654 0.1943314
0001f0 fd 13 a4 be f3 61 39 3e b2 dd 8c bd dc e3 86 bd
       -0.320465 0.18103771 -0.068782225 -0.065864295
000200 a2 59 59 3d 09 aa 00 3b 27 e4 d7 bd 6d 42 59 3d
       0.053063996 0.00196326 -0.105415635 0.053041864
000210 67 1b e5 3c d7 06 89 bd ac a7 e0 be 89 84 f4 be
       0.027967168 -0.06690758 -0.43877923 -0.47757366
000220 58 b6 e7 3b e5 b7 7c 3c 77 27 65 be 85 7b 83 bd
       0.0070712976 0.015424703 -0.22378336 -0.06420044
000230 39 fc d4 bd 06 9a db bc 72 b4 16 3e 05 7e 4f 3e
       -0.1039967 -0.026806843 0.14717272 0.20262916
000240 37 d1 45 be 5d e2 1c 3e f5 6a 06 3d 16 56 e0 bd
       -0.1931809 0.15320726 0.032816846 -0.109539196
000250 77 78 49 3d 2b 9d de bc f6 02 a3 3e ee 36 a9 3e
       0.04918715 -0.027174553 0.31838197 0.3304972
000260 04 eb ad 3e 8f 86 4a 3d cb 67 d0 bd 35 5b 3b 3e
       0.33968365 0.04944473 -0.10176047 0.18296511
000270 23 a3 5b be 35 66 86 be 3c 59 82 bd ab f3 12 bf
       -0.2144895 -0.26249853 -0.06364676 -0.5740306
000280 fc 08 50 be 99 c1 00 be 25 a9 2b be 27 f3 c5 bc
       -0.20315927 -0.12573852 -0.16763742 -0.024163796
000290 2f e1 60 3e 01 fc 09 3e 4f f0 22 be c5 f3 1d bc
       0.219609 0.13475038 -0.15911983 -0.009640639
0002a0 ba b1 2e 3e 17 76 ad 3d f3 4e a1 3d 72 83 97 3e
       0.17059985 0.084697895 0.078763865 0.29592472
0002b0 79 a4 1e be 36 9e 92 bd 85 0b 34 be c1 8b 25 3e
       -0.15492429 -0.071590826 -0.1758252 0.16166593
0002c0 75 13 5a 3e 4a f2 6a 3e e2 77 dd 3b 71 bd a6 3e
       0.21296485 0.22943988 0.006758676 0.32566407
0002d0 d4 1f d8 3d ed c7 89 bd ac 29 98 be b5 e9 93 be
       0.10552946 -0.06727586 -0.29719293 -0.28889242
0002e0 d7 57 f3 be af ad 10 be 8f 84 6f bd 90 34 31 bd
       -0.47527954 -0.14128755 -0.058476027 -0.043263018
0002f0 e2 97 18 3c df 6f 5c 3e b7 4d e0 3d 4d 7f 3c be
       0.009313555 0.2152705 0.10952323 -0.18407936
000300 ee 15 12 be 7a 58 06 be ac 38 70 be 59 c7 eb bd
       -0.14266178 -0.13119689 -0.23459119 -0.11512632
000310 83 81 ae bd 3d d9 48 3e d9 bc fa 3a 5e 3d 9f bd
       -0.08520796 0.1961412 0.0019129767 -0.07775377
000320 36 d5 6a 3e 56 5d 78 3e a2 e3 89 3e 0d 46 f0 bc
       0.22932896 0.24254355 0.26931483 -0.029330278
000330 c0 28 a3 be 00 5b 13 be 19 82 24 bf 23 0f c7 be
       -0.31867027 -0.14390182 -0.64261013 -0.38878736
000340 6c 1e a8 be 75 58 d2 be ed 42 d3 be 51 d1 86 3e
       -0.3283571 -0.41083112 -0.41261998 0.2633157
000350 d2 23 03 3e 47 e1 56 3d 5f f6 eb bb 0a 3e 25 3e
       0.12806633 0.052460935 -0.0072010006 0.16136947
000360 3d 3d 34 bc 8e 8f 81 be d0 df 9f 3d e5 0f 3c bc
       -0.0110009285 -0.25304836 0.07806361 -0.011478399
000370 1d a6 36 3e 2b d5 d9 3d 1e e9 23 3e 8e c4 0e be
       0.17836805 0.10636362 0.16006896 -0.13942167
000380 6e c9 4d be 97 5c 30 bd 11 ce b5 3d 59 4a 10 3e
       -0.2009637 -0.04305705 0.08877195 0.14090861
000390 fc b7 3b 3e 46 a3 34 3e f1 d0 b2 3d 1b 6d ca 3d
       0.18331903 0.17640409 0.08731259 0.098840915
0003a0 6b fb 6b bd 22 2e 8f 3d 4b 95 00 3e 03 d1 84 3d
       -0.057612818 0.06991221 0.12556951 0.06485178
0003b0 11 43 fe bd 59 c5 c4 3d 2b 01 50 3e c2 da 02 3e
       -0.12415136 0.096079536 0.20312946 0.12778762
0003c0 9e a9 3a 3c 00 5b c8 3d 1d 8a d9 3c 1d 8b 1f 3c
       0.011392979 0.09782982 0.026555115 0.009737757
0003d0 46 3e c0 3d 18 3b 66 3d c5 28 08 bd d4 eb 04 3d
       0.09386878 0.0562087 -0.033242006 0.032451466
0003e0 c1 c4 20 be 5b 3a 26 3e 22 7e c6 3e 75 8e 80 be
       -0.15700056 0.16233198 0.38768107 -0.25108686
0003f0 5b 78 04 be a6 7c 32 3d 26 9e 31 be 3e fd 0c be
       -0.12936537 0.043575905 -0.17345485 -0.13768479

bias f4 [128]
000000 6f 6e 1c bc ee 52 49 3e ee 70 bc bd 56 15 da 3d
       -0.009547814 0.19660541 -0.09201227 0.10648601
000010 64 cf 23 3e 7c c4 4d 3e cf f9 28 3d bc c4 e5 3d
       0.15997082 0.20094484 0.04125386 0.11219165
000020 d9 33 34 bc 6c d8 71 be e6 23 36 3e 82 19 28 3e
       -0.01099869 -0.23617715 0.17787132 0.1641598
000030 6b 6e 0b 3e d9 48 74 3d d1 79 91 3e 8c 41 45 3e
       0.1361634 0.059639785 0.2841325 0.19263285
000040 e2 bd af bd 0e 1d ad bd f6 77 f1 3d 6e 6c 71 3e
       -0.08581139 -0.08452807 0.11790459 0.23576519
000050 87 28 3a 3e bc ff e3 3d f2 33 b0 3d 11 5b 9f bd
       0.18179522 0.11132762 0.08603658 -0.077810414
000060 76 c7 95 3c 02 9e 9c bc bc 3c 5d 3e 26 0a d5 3d
       0.018283587 -0.019118313 0.216052 0.10402326
000070 e1 e3 4c bd 0d 97 e6 3d 5b 8a 9b 3d 8f 8a ba 3d
       -0.05002201 0.112592794 0.075947486 0.09108459
000080 81 5e 97 3d f9 2e ce bd d3 b6 b2 3b 03 53 1b bd
       0.07391072 -0.10067553 0.0054539233 -0.037920963
000090 6c ee 5c be 78 9b 2d 3e 77 67 24 3d 48 a5 10 3e
       -0.21575326 0.16953838 0.040137734 0.1412555
0000a0 af 7f 58 3e b3 e9 25 3e 8f 81 fa 3d 0e 6d 27 3e
       0.21142457 0.1620243 0.122317426 0.16350195
0000b0 4c 71 ab 3d 86 b0 68 bb b6 d9 27 bc d4 a0 16 be
       0.08371219 -0.0035505607 -0.010244777 -0.14709789
0000c0 ff f8 0c bd 11 4f 7d bd 8c 71 90 3c c5 1c cd 3d
       -0.03441715 -0.06184298 0.017632268 0.10015253
0000d0 67 f6 02 be c6 07 4d 3c fe 53 18 3d b7 84 56 3e
       -0.12789308 0.01251406 0.037189476 0.20949064
0000e0 52 75 c4 3d 84 9f f7 3c a0 3f b5 bc 0f 2e c2 3d
       0.095926896 0.03022743 -0.022125065 0.09481441
0000f0 fe 0b d7 3d f1 91 f1 3d 01 34 c6 bd ed f7 c7 3d
       0.10500334 0.11795414 -0.09677888 0.09764085
000100 97 1c ce 3d b9 61 f7 3d 24 7a d3 3d 40 a1 e5 3d
       0.10064047 0.12079186 0.10326031 0.112123966
000110 fc 44 7a 3d fd 31 f6 bb e6 60 61 3e c0 c6 62 bc
       0.061100945 -0.0075132833 0.2200962 -0.013841331
000120 87 ce 17 3c 8e 2a 2c 3e 62 37 6d bd 0b 23 85 3d
       0.009265549 0.16813108 -0.057914145 0.065008245
000130 9c c3 06 3e c3 6a 27 3e 41 b4 9c 3d 05 e7 14 bc
       0.13160557 0.1634932 0.07651568 -0.0090882825
000140 c1 fd cc bd 59 54 52 3e 75 e0 8b bd 89 a8 34 3d
       -0.10009337 0.20539989 -0.06829921 0.04410604
000150 0f cc 23 3e 7c 82 ba bc 0e c2 aa 3c 1e 24 7f 3a
       0.15995811 -0.022767298 0.020844486 0.000973286
000160 56 72 0f be 17 c3 a2 bd 96 74 4f 3e e4 3d a9 3d
       -0.1400846 -0.07947367 0.20259318 0.08263758
000170 82 09 03 bd ac c0 e3 3d dc dc 80 bc e9 2f 88 ba
       -0.03199149 0.111207336 -0.015730314 -0.0010390255
000180 7a 15 50 3a 7c 8f e0 bd 15 17 20 3e 47 23 bf 3d
       0.00079377706 -0.109648675 0.15633805 0.093329005
000190 5b 33 b9 3d eb 51 2b 3e bd 58 2c 3c 74 fe d1 3d
       0.090429984 0.16730468 0.010519204 0.10253611
0001a0 92 75 c2 3c c4 09 ba bd fb c1 23 3e 5c fb 31 3d
       0.023737703 -0.09083894 0.15991966 0.043452606
0001b0 28 ab a3 bd 48 ec f4 bd 50 14 8e 3d d8 42 f1 3d
       -0.0799163 -0.119591296 0.06937468 0.117803276
0001c0 67 14 d2 3b 78 46 7b be b0 62 76 3e f1 be f5 3d
       0.0064111236 -0.245386 0.24061084 0.1199931
0001d0 06 92 d7 3d dc f8 94 3d 51 8d f1 3d 75 f7 5a 3d
       0.10525899 0.07274029 0.11794532 0.05345865
0001e0 eb c8 00 3e 64 e6 f6 3d 69 a3 52 bb c6 e2 1d be
       0.12576644 0.12055662 -0.0032140857 -0.15418538
0001f0 c2 e6 b7 3c be 74 47 3e 96 68 b6 3d c6 c9 e9 3d
       0.022448901 0.19478127 0.08906667 0.11415438
