nn/checkpoints/main_objs_2023_04_23-11_04_11/2/model_30.pt (torch, 518706 bytes, 98 tensors)

weight f4 [8, 5, 3]
0	0xbc561dc9	-0.013068625
1	0x3da1964a	0.078899935
2	0xbe33bd4c	-0.1755268
3	0x3e601414	0.21882659
4	0x3c7bdc63	0.0153723685
5	0xbe09ae0f	-0.13445304
6	0x3e42f772	0.19039705
7	0xbcca95ac	-0.024729572
8	0xbe52eba3	-0.20597701
9	0xbd32ba1c	-0.04363452
10	0xbc0a1316	-0.008427402
11	0xbdea3a3e	-0.1143689
12	0x3e8a7626	0.27043265
13	0x3cfcd861	0.030864896
14	0xbea2e223	-0.31813154
15	0x3e8fa722	0.280572
16	0xbe22010b	-0.1582071
17	0xbe85788c	-0.26068532
18	0xbe21cd55	-0.15800984
19	0x3e577ade	0.21042964
20	0x3e32183f	0.17392062
21	0xbe30887e	-0.17239568
22	0x3de2c4e2	0.11072709
23	0xbdb49a78	-0.08818525
24	0xbdb5ff0b	-0.08886536
25	0x3e8b41e0	0.27198696
26	0xbd98ba81	-0.07457448
27	0xbce961eb	-0.028489074
28	0x3e98caab	0.29842123
29	0x3e715b4a	0.2356998
30	0x3e305869	0.17221226
31	0x3d67fe6d	0.056639124
32	0x3ea9a1c4	0.3313123
33	0x3d5eca9c	0.054392442
34	0xbd839081	-0.06424046
35	0x3e07a773	0.1324747
36	0x3dd00676	0.10157482
37	0x3e43e25e	0.19129321
38	0x3e7639bc	0.24045461
39	0x3c9c5b9c	0.019086652
40	0x3e380d26	0.17973766
41	0x3e8d6a0a	0.27619964
42	0xbc700535	-0.014649679
43	0x3e08fd7f	0.13377951
44	0x3cf654dd	0.030069763
45	0x3d9188e8	0.07106191
46	0xbe327782	-0.17428401
47	0x3ec63fde	0.38720602
48	0x3e51c199	0.20484008
49	0xbd0eea66	-0.03489151
50	0x3df640f2	0.12024106
51	0xbe81d02a	-0.2535413
52	0xbc06ae65	-0.00822029
53	0x3dd009df	0.10158133
54	0x3d940888	0.0722819
55	0xbd614041	-0.054992918
56	0xbd863d70	-0.06554687
57	0x3e99bf5b	0.30028805
58	0xbe531772	-0.20614412
59	0x3e98f9bb	0.2987803
60	0xbe86f2d1	-0.2635713
61	0xbe1bc288	-0.15210927
62	0x3df06040	0.11737108
63	0x3c494d07	0.012286431
64	0x3d979a1c	0.07402441
65	0x3e8e70b4	0.2782036
66	0x3d6612f5	0.056170423
67	0xbdfafe59	-0.12255544
68	0x3e61ab06	0.22037897
69	0xbe118b55	-0.14213307
70	0xbe3e26b6	-0.18569455
71	0xbc9fc7d5	-0.019504467
72	0xbe020a53	-0.12699251
73	0xbe9550c8	-0.29163194
74	0x3e70c839	0.23513879
75	0xbe9c0e65	-0.30479732
76	0x3df41d93	0.11919703
77	0xbcf05b28	-0.029340342
78	0xbe5a4842	-0.21316627
79	0xbd6034dd	-0.054737914
80	0xbdb4a634	-0.08820763
81	0xbe993154	-0.29920447
82	0x3bd300f7	0.006439324
83	0x3d40ec91	0.047100607
84	0xbeb32596	-0.34989613
85	0x3e19f763	0.15035777
86	0x3d372bfc	0.04471968
87	0xbe2e7f45	-0.17040737
88	0x3e867094	0.26257765
89	0x3cd0db13	0.025495088
90	0xbee605aa	-0.44926196
91	0x3e09be41	0.13451482
92	0x3eb86689	0.36015728
93	0x3d987e6a	0.074459866
94	0x3e17e5e1	0.14833786
95	0xbe235fb7	-0.15954481
96	0xbd13a923	-0.036049973
97	0x3e78786f	0.24264692
98	0x3dc9f7d5	0.09861723
99	0xbe328fe9	-0.1743771
100	0x3e6bbc30	0.23021007
101	0xbe13fa0f	-0.14450859
102	0x3de6ec73	0.11275568
103	0x3e192c93	0.1495841
104	0xbb86f5c7	-0.0041186544
105	0xbeb7c034	-0.35888827
106	0xbe136a3e	-0.14395997
107	0xbda9a572	-0.08283509
108	0xbe84e7f8	-0.25958228
109	0xbed871b7	-0.42274258
110	0x3e2745f0	0.16335273
111	0xbe6ebc86	-0.23314103
112	0xbe3ea7e1	-0.18618728
113	0x3dd5f98b	0.10447987
114	0xbe211ebd	-0.15734382
115	0x3cb29f3f	0.02180445
116	0x3e8be3a4	0.27322114
117	0xbdc7667d	-0.09736345
118	0x3e3b0ba3	0.18266158
119	0x3d81e4bc	0.06342456

bias f4 [8]
0	0xbc942833	-0.018085575
1	0xbec6cde1	-0.38828948
2	0x3e872a64	0.2639953
3	0x3bc505ac	0.006012639
4	0xbcbbccf2	-0.022924874
5	0x3d6b7bac	0.05749099
6	0xbec28224	-0.37989914
7	0x3b39a7f3	0.0028328865

weight f4 [8]
0	0x3f9610c8	1.1723871
1	0x3f4f4ec0	0.8097954
2	0x3f50fbae	0.8163403
3	0x3f663951	0.8993121
4	0x3f783a6e	0.96964157
5	0x3f95d474	1.170546
6	0x3f6c25bb	0.9224507
7	0x3f80ab68	1.0052309

bias f4 [8]
0	0x3da321a3	0.079654
1	0x3d8464d2	0.064645424
2	0xbe704927	-0.23465405
3	0x3eb6c8a5	0.35699955
4	0x3e459bd3	0.19297723
5	0xbdef0bcc	-0.11672172
6	0x3efb8e23	0.4913188
7	0xbd929169	-0.07156641

running_mean f4 [8]
0	0xbdcbf609	-0.09959037
1	0xbe58735d	-0.21137758
2	0x3f656bda	0.89617693
3	0x3e81104f	0.25207755
4	0xbe087faf	-0.13329957
5	0xbe6ff455	-0.23433049
6	0xbe3b9f7f	-0.18322562
7	0xbec466d9	-0.38359717

running_var f4 [8]
0	0x3e8e43c5	0.2778608
1	0x3e872371	0.26394227
2	0x3fec1b96	1.8445919
3	0x3ee10f08	0.4395678
4	0x3e98f650	0.29875422
5	0x3f43f085	0.7653888
6	0x3ede2b11	0.43392232
7	0x3f6e10a7	0.9299416

weight f4 [8, 8, 3]
0	0xbc08ffd0	-0.008361772
1	0xbe800e3e	-0.25010866
2	0x3c229310	0.009922758
3	0x3d7ea389	0.062167678
4	0x3e307541	0.17232229
5	0xbe29c4fa	-0.16579047
6	0xbd87f14f	-0.06637823
7	0x3e2b53ca	0.16731182
8	0xbd6fa16b	-0.05850355
9	0x3d98451b	0.07435056
10	0xbe022c55	-0.12712224
11	0x3e894155	0.26807657
12	0xbd150148	-0.036378175
13	0xbe9109c9	-0.28327778
14	0x3e5b0abe	0.21390817
15	0xbe7893f0	-0.24275184
16	0xbddc5598	-0.10758513
17	0xbe807b11	-0.25093892
18	0xbe6f65e4	-0.23378712
19	0xbdd6a9a7	-0.10481577
20	0xbd9598ea	-0.07304557
21	0xbdec7352	-0.11545433
22	0xbdcab0e1	-0.09897018
23	0x3e5c6c0b	0.2152559
24	0xbe870401	-0.26370242
25	0x3e7baafd	0.24576946
26	0x3e7593f9	0.23982228
27	0xbd4a4cc9	-0.049389634
28	0xbd7c0901	-0.061532024
29	0xbe39b6ae	-0.18136093
30	0x3e055ea7	0.13024388
31	0xbe49414a	-0.19653812
32	0xbd357903	-0.04430486
33	0x3dd95bc3	0.10613205
34	0xbdb5a4aa	-0.08869298
35	0xbc4a045f	-0.012330144
36	0xbd1bb664	-0.038015738
37	0xbe999b0b	-0.300011
38	0xbe45d026	-0.19317684
39	0xbda7a6f4	-0.08186141
40	0x3e409f37	0.18810736
41	0xbe5964e4	-0.21229893
42	0x3c645382	0.013935925
43	0xbcd95083	-0.026527649
44	0xbe5dcdba	-0.2166051
45	0xbcb661ed	-0.022263492
46	0xbe4f70f1	-0.20257927
47	0xbe493fe9	-0.19653286
48	0xbc89f830	-0.016841978
49	0xbd0ca4da	-0.034336902
50	0xbe9090d9	-0.2823551
51	0xbd47e08a	-0.04879812
52	0xbd8574cc	-0.06516418
53	0xbc30d0cb	-0.010791968
54	0x3ccfd270	0.0253689
55	0xbde8635e	-0.11347078
56	0x3e2fb9d3	0.1716073
57	0x3ad2a0b3	0.0016069621
58	0xbd7288de	-0.059212558
59	0x3e12c2cb	0.1433212
60	0xbe31b467	-0.17353974
61	0x3dcd3139	0.10019154
62	0x3e3e4af3	0.18583278
63	0x3f0fc0c1	0.56153494
64	0xbd525298	-0.0513483
65	0x3e3a835b	0.1821417
66	0xbce48f84	-0.027900465
67	0xbe366580	-0.17812157
68	0xbdb863b2	-0.0900339
69	0x3e3986fe	0.18117902
70	0x3dbc3445	0.09189657
71	0x3e87dd87	0.265362
72	0x3e9cf948	0.30658937
73	0x3e49e13a	0.19714823
74	0x3e006c2c	0.12541264
75	0x3e3cf0ae	0.18451187
76	0x3a776877	0.0009437869
77	0x3d3653f5	0.04451366
78	0xbe24c37c	-0.16090196
79	0x3da33ec1	0.07970954
80	0xbddddb9f	-0.10832905
81	0x3d91a4ca	0.07111509
82	0xbcfbd5eb	-0.030741652
83	0xbead17df	-0.33807275
84	0xbe95182c	-0.29120004
85	0xbe0476f6	-0.12936005
86	0xbe00d19b	-0.12579958
87	0xbe725ee5	-0.23669012
88	0xbd3c1952	-0.045922585
89	0x3d8d5220	0.0690043
90	0xbcdc03b2	-0.02685723
91	0xbdd752ab	-0.105138145
92	0xbe466c48	-0.19377244
93	0xbcc5aff1	-0.024131747
94	0xbc44ab3d	-0.012003717
95	0x3df6db03	0.12053492
96	0xbd5ad814	-0.053428724
97	0x3d6c8ceb	0.057751577
98	0xbe93f43d	-0.28897277
99	0x3b2eb464	0.0026657814
100	0xbe38ee5a	-0.18059674
101	0xbe6a7558	-0.22896326
102	0xbe388823	-0.18020682
103	0x3dba4dd9	0.090968795
104	0x3dfbd30d	0.12296114
105	0xbd384b17	-0.044993486
106	0xbe560358	-0.20899713
107	0xbe37154c	-0.17879218
108	0xbc17df5b	-0.009269561
109	0xbe272145	-0.16321285
110	0x3e89dde7	0.2692711
111	0xbe297ff3	-0.16552715
112	0xbde2f8a4	-0.11082581
113	0xbe4a4f65	-0.19756849
114	0x3da7c687	0.08192163
115	0xbe1ab651	-0.1510861
116	0xbe9ff86f	-0.31244227
117	0xbd7f6f7b	-0.062362175
118	0x3e0c2906	0.13687524
119	0x3de7756f	0.113016956
120	0x3e58504c	0.21124381
121	0x3e5d1426	0.21589717
122	0x3e389c14	0.18028289
123	0x3cdf40f2	0.027252648
124	0xbd06861f	-0.03284275
125	0x3d5e1239	0.054216597
126	0xbdf7db38	-0.121023595
127	0x3db237a0	0.08702016
128	0x3da7e9b1	0.0819887
129	0xbdf010f2	-0.11721982
130	0x3cce1156	0.02515475
131	0xbda7e9b8	-0.08198875
132	0x3e35df74	0.17761022
133	0xbe2de23c	-0.16980833
134	0xbd025da9	-0.031827603
135	0xbc5aebe7	-0.013361908
136	0x3e20623b	0.15662472
137	0xbe76a37c	-0.24085802
138	0x3e5d3153	0.21600847
139	0xbdacc766	-0.0843647
140	0x3e6458ac	0.2229945
141	0x3ca8912d	0.020577038
142	0xbe1d0e56	-0.153375
143	0xbdc20c8f	-0.094750516
144	0xbdfc3ae5	-0.12315921
145	0xbe1a6a0b	-0.15079515
146	0x3e96b8e5	0.29437938
147	0xbc029d1e	-0.00797203
148	0x3dc7adc0	0.09749937
149	0xbd5e4e6c	-0.054274008
150	0xbd56eb3c	-0.05247043
151	0x3e1e5130	0.15460658
152	0x3d455ad8	0.04818234
153	0x3d872cf2	0.066003695
154	0x3e0c6cfe	0.13713452
155	0xbb63338e	-0.003466818
156	0x3d0af471	0.033924524
157	0x3e8610ac	0.26184595
158	0x3ca401bd	0.02002036
159	0x3dca7f50	0.09887564
160	0x3dc60af2	0.096700564
161	0x3eab659c	0.3347596
162	0xbe08486f	-0.13308881
163	0x3e6e38f5	0.23263915
164	0x3e571d6f	0.21007322
165	0x3d7f70d2	0.062363453
166	0x3d7dad50	0.06193286
167	0x3d2412cc	0.04005699
168	0xbd93484f	-0.07191526
169	0x3ddf6d1c	0.10909483
170	0x3e1d6d94	0.15373832
171	0xbca32ae4	-0.019917913
172	0xbd812f33	-0.06307831
173	0x3e814fa5	0.25256076
174	0x3e3f8388	0.18702519
175	0x3e1c9f78	0.15295208
176	0x3e0bbfec	0.13647431
177	0x3e8bca3d	0.27302733
178	0x3db24673	0.08704843
179	0x3e63e832	0.22256544
180	0x3d855a02	0.06511308
181	0xbe0a2eee	-0.13494465
182	0xbc88ba9f	-0.01669055
183	0xbdd0f0cc	-0.10202178
184	0x3df56174	0.11981478
185	0x3c90d8f9	0.017681586
186	0x3e05e0ba	0.13074008
187	0x3e4495e9	0.19197811
188	0x3d2fca20	0.04291737
189	0xbcb7bbc3	-0.022428399
190	0xbc3a6e61	-0.011378855
191	0xbd0a1a45	-0.03371646

bias f4 [8]
0	0x3e3d5b3e	0.18491837
1	0x3de7e118	0.1132223
2	0x3e2cdfab	0.16882198
3	0x3e5625a6	0.20912799
4	0xbde8e457	-0.11371677
5	0xbe469ca6	-0.19395694
6	0xbe21bed2	-0.15795448
7	0xbdc5ac0d	-0.09651957

weight f4 [8]
0	0x3f85bb56	1.0447795
1	0x3f94803f	1.1601638
2	0x3f8a8055	1.0820414
3	0x3f868a00	1.0510864
4	0x3f62e8d6	0.8863653
5	0x3f5ff8d4	0.87489057
6	0x3f65a394	0.89702725
7	0x3f806bb0	1.0032864

bias f4 [8]
0	0x3e02581f	0.12728928
1	0x3c1a4ed7	0.009418211
2	0xbbe2fbed	-0.0069270045
3	0x3dd896ff	0.10575675
4	0x3e4e3dc9	0.20140757
5	0x3e61e058	0.22058237
6	0x3c970ef4	0.018439747
7	0x3e60b9a9	0.21945824

running_mean f4 [8]
0	0xbe23d91f	-0.16000794
1	0xbea99436	-0.33120888
2	0x3e6e5fa3	0.2327867
3	0xbdbbb0d8	-0.0916459
4	0xbf2ccd8d	-0.67501146
5	0x3d5b4ea0	0.05354178
6	0x3ec603a2	0.38674647
7	0x3ef0e517	0.47049782

running_var f4 [8]
0	0x3e78b437	0.24287497
1	0x3f046a5e	0.51724803
2	0x3e89f43e	0.26944155
3	0x3e82fd9b	0.2558411
4	0x3f4ca4a2	0.7993871
5	0x3e363981	0.17795373
6	0x3ee867ce	0.45391697
7	0x3f8c296c	1.0950141

weight f4 [8, 8, 3]
0	0x3e7b5e23	0.24547629
1	0x3df285fe	0.11841963
2	0xbe0dd246	-0.13849744
3	0x3e57c39a	0.2107071
4	0x3db93069	0.09042437
5	0x3db7921f	0.08963417
6	0x3dce1fe6	0.10064678
7	0x3d09afaa	0.033614792
8	0x3d3eeb4e	0.046611123
9	0xbdd4759a	-0.10373993
10	0x3cb11c2a	0.021619875
11	0xbe1cd1a0	-0.1531434
12	0xbdbaa44f	-0.091133706
13	0xbe91a946	-0.28449458
14	0x3dabaf57	0.08383053
15	0x3d85bd9a	0.06530304
16	0xbde795f8	-0.11307901
17	0x3e2427c0	0.16030788
18	0x3ddb3f4a	0.10705431
19	0xbd20b62d	-0.039236236
20	0xbcac2ff6	-0.021018963
21	0x3e90730d	0.28212777
22	0x3dbdec8b	0.092736326
23	0xbdc8fa81	-0.09813405
24	0xbccd1a5d	-0.025036985
25	0x3b2ac0be	0.0026054825
26	0xbe235175	-0.15949042
27	0xbe3df88e	-0.18551847
28	0x3e8b4c3c	0.272066
29	0x3e617a8d	0.22019406
30	0x3e28131f	0.16413544
31	0xbeb96ef8	-0.36217475
32	0x3d2cc708	0.042182
33	0xbe23bd98	-0.15990293
34	0xbe07b887	-0.13253985
35	0x3e708b9a	0.23490754
36	0xbce2bba2	-0.02767736
37	0xbe85496c	-0.2603258
38	0x3d944e8e	0.072415456
39	0x3d9c360f	0.07627498
40	0xbcd12386	-0.025529634
41	0xbd14a20e	-0.03628736
42	0xbd1ccb45	-0.03827979
43	0x3cd365d3	0.02580539
44	0x3d49034b	0.049075406
45	0xbe47c2cc	-0.19507903
46	0x3d41e2ef	0.04733556
47	0xbdbda432	-0.092598334
48	0x3c02dd80	0.00798738
49	0x3dea8fab	0.11453184
50	0x3d9e8f9c	0.07742235
51	0x3d37135d	0.0446962
52	0xbecba508	-0.39774346
53	0xbd34c791	-0.044135634
54	0x3e426a1c	0.1898579
55	0x3e21eb08	0.15812314
56	0x3d894f70	0.067046046
57	0xbe260094	-0.16211158
58	0x3ccaf0bc	0.024772994
59	0xbea7560d	-0.3268284
60	0x3e0ad6fe	0.13558576
61	0xbd140cf2	-0.036145158
62	0xbe9014f7	-0.28140995
63	0xbe45fceb	-0.19334762
64	0x3d1dfe80	0.03857279
65	0x3d799fd6	0.060943447
66	0xbe88e616	-0.26738042
67	0xbe442e9a	-0.19158402
68	0x3e87e85d	0.26544467
69	0xbe7ad6c0	-0.24495983
70	0xbda3c159	-0.079958625
71	0xbb6f44fb	-0.0036509621
72	0xbe470cd5	-0.19438489
73	0x3db0b664	0.08628538
74	0x3dedd769	0.11613352
75	0x3ab5e149	0.0013876344
76	0x3df8d41d	0.121498324
77	0x3e1c1975	0.15244086
78	0xbd4e2324	-0.05032648
79	0xbe0972a5	-0.1342264
80	0xbe3ea9cf	-0.18619464
81	0x3c308c95	0.010775705
82	0x3e26b721	0.16280796
83	0x3e53014b	0.20605962
84	0xbe1d3be7	-0.15354882
85	0xbdd7b5db	-0.10532733
86	0x3bd94458	0.0066304617
87	0x3e20c3cc	0.1569969
88	0xbceee5fd	-0.029162401
89	0xbd3d7e3a	-0.046262957
90	0xbd519631	-0.051168624
91	0x3d8bfe1a	0.068355754
92	0xbd414e0a	-0.047193564
93	0x3ec0e449	0.37674168
94	0xbe0433a1	-0.1291032
95	0xbe736b24	-0.2377134
96	0x3df1e43f	0.118111126
97	0xbc6a9c8a	-0.014319548
98	0x3e802777	0.2503011
99	0x3db9d49a	0.09073754
100	0x3e20d5e7	0.15706597
101	0xbd019559	-0.03163657
102	0x3d097f5c	0.033568725
103	0xbe53c0ed	-0.20679064
104	0x3db59ce2	0.08867814
105	0x3cbd9a46	0.023144852
106	0xbde159ec	-0.11003479
107	0xbd454ba9	-0.04816786
108	0xbd1b4833	-0.03791065
109	0xbdfe9ee9	-0.124326535
110	0xbe1f8142	-0.15576652
111	0xbe12f8a7	-0.14352666
112	0x3e784640	0.24245548
113	0xbd05f110	-0.0327006
114	0x3e376900	0.17911148
115	0x3d9f325e	0.07773279
116	0x3da85c9c	0.08220789
117	0xbe5d3af8	-0.21604526
118	0x3ea036d0	0.3129182
119	0xbd038897	-0.032112684
120	0xbeba21b7	-0.36353847
121	0x3e71fe59	0.23632182
122	0xbeb0869a	-0.34477693
123	0xbdd710fe	-0.10501288
124	0x3e2e977b	0.17049973
125	0x3e1e9df0	0.15489936
126	0x3e684d26	0.2268568
127	0x3d8bf4bd	0.068337895
128	0x3e2a4291	0.16626956
129	0x3dc53d7a	0.09630866
130	0x3e1b61a9	0.15173973
131	0xbdbf0579	-0.09327216
132	0xbd051465	-0.032490153
133	0x3e71f2a8	0.23627722
134	0x3d7295a4	0.05922474
135	0x3e3d585f	0.18490742
136	0xbd43f3d4	-0.047839954
137	0xbd89d3dd	-0.06729863
138	0xbda7d477	-0.08194821
139	0xbe2a4e32	-0.16631392
140	0xbd0ca578	-0.03433749
141	0xbdd17f84	-0.102294
142	0xbe039346	-0.12849149
143	0xbdd7fea9	-0.105466194
144	0xbe0adfed	-0.13561983
145	0x3d7ea8b3	0.062172603
146	0xbe8b3845	-0.27191368
147	0xbe963002	-0.29333502
148	0xbe2690a2	-0.1626611
149	0x3dc3bcce	0.09557496
150	0x3e0ab8fe	0.13547131
151	0x3d150031	0.036377136
152	0xbda36354	-0.0797793
153	0xbe36f3df	-0.17866467
154	0x3dc1dfee	0.09466539
155	0xbd454118	-0.04815778
156	0x3e84784f	0.25873038
157	0x3d26aa3e	0.0406897
158	0x3dfda15b	0.12384292
159	0x3d0567b6	0.03256961
160	0xbeb22289	-0.34791973
161	0xbd518841	-0.051155332
162	0xbe0a1259	-0.13483562
163	0xbe5cd126	-0.21564159
164	0x3d7eb327	0.06218257
165	0x3b39eeb8	0.0028371047
166	0x3d5f3b3c	0.05449985
167	0xbe1543a3	-0.14576583
168	0xbd2ff8a1	-0.04296172
169	0xbdfccc19	-0.12343616
170	0x3e41c705	0.18923576
171	0xbe4a1833	-0.19735794
172	0xbe0c8da1	-0.13725902
173	0x3e8cc954	0.2749735
174	0x3d90526e	0.07046972
175	0x3df4cb96	0.119528934
176	0xbeb0e08a	-0.3454631
177	0xbe887e9b	-0.26659092
178	0xbdd0e456	-0.101998016
179	0xbe8b658e	-0.27225918
180	0x3de74e6b	0.11294254
181	0xbcd5512e	-0.026039686
182	0xbcde9a6e	-0.027173247
183	0xbc1be2cc	-0.009514522
184	0xbda806c6	-0.08204417
185	0xbe74952c	-0.2388503
186	0xbdd34386	-0.103156134
187	0xbe5972fd	-0.21235271
188	0xbe206823	-0.15664725
189	0x3dbff1e9	0.093723126
190	0x3e45d81c	0.1932072
191	0x3de7708c	0.113007635

bias f4 [8]
0	0xbc219d12	-0.009864109
1	0x3e59f65b	0.21285383
2	0xbe00ac92	-0.1256583
3	0xbe8764b2	-0.26444012
4	0x3dadcaf3	0.08485975
5	0x3de7472c	0.11292872
6	0xbd0edea1	-0.034880284
7	0xbdaac59a	-0.08338471

weight f4 [8]
0	0x3f799704	0.97496057
1	0x3f84f6b8	1.0387793
2	0x3f8d9cb0	1.1063442
3	0x3f6072cf	0.87675184
4	0x3f6eeb02	0.93327343
5	0x3f78b7ea	0.9715563
6	0x3f925a19	1.1433746
7	0x3f805fae	1.0029199

bias f4 [8]
0	0x3e86322b	0.2621015
1	0x3df87baf	0.12132966
2	0x3d448328	0.047976643
3	0x3e84b4f6	0.25919312
4	0x3e08b07b	0.13348572
5	0xbd2e3d6f	-0.042539056
6	0x3e81f9c6	0.25385875
7	0x3e275f55	0.1634496

running_mean f4 [8]
0	0x3e2a5f04	0.16637808
1	0x3c61d32f	0.01378326
2	0xbee6ff11	-0.45116475
3	0xbe81aac0	-0.25325584
4	0x3e2d4011	0.1691897
5	0x3e32d862	0.17465356
6	0xbe942db2	-0.28941113
7	0xbecc5d38	-0.3991487

running_var f4 [8]
0	0x3e9b3c31	0.3031936
1	0x3e1fad8d	0.15593548
2	0x3ee56608	0.44804406
3	0x3de91c46	0.11382346
4	0x3e8dffff	0.27734372
5	0x3f0097f9	0.5023189
6	0x3efe85e9	0.4971154
7	0x3e4dd733	0.20101623

weight f4 [8, 8, 3]
0	0xbde1ef05	-0.110319175
1	0x3e01165d	0.12606187
2	0x3e249d76	0.16075692
3	0x3d9f5c99	0.077813335
4	0x3e03ee34	0.12883836
5	0x3e8f7533	0.28019103
6	0x3e6ee7cb	0.2333061
7	0x3e87ddfb	0.26536545
8	0x3d265943	0.04061247
9	0x3d94cd55	0.072657265
10	0xbde11e29	-0.10992081
11	0xbe0b3283	-0.13593487
12	0xbd3ee2fa	-0.04660318
13	0xbdb6e0cf	-0.089295976
14	0x3e57233c	0.21009535
15	0x3e78b0f5	0.24286254
16	0xbb9275c2	-0.004469604
17	0x3c7f6a82	0.015589358
18	0x3d69f474	0.057117894
19	0x3dabb4f8	0.083841264
20	0xbecd40aa	-0.40088397
21	0xbddec060	-0.10876536
22	0xbd5d84da	-0.054081775
23	0x3d8acfec	0.06777939
24	0xbe54d5bc	-0.20784658
25	0x3e4566c3	0.19277482
26	0x3e41f40b	0.18940751
27	0x3d076558	0.033055633
28	0x3ce4a72a	0.027911741
29	0x3e5a21b7	0.21301924
30	0x3e5acd55	0.2136739
31	0xbd6b7343	-0.05748297
32	0x3db0078d	0.0859519
33	0xbe0ed514	-0.1394847
34	0x3ae634ec	0.0017563379
35	0x3e16918d	0.1470396
36	0x3e23be83	0.15990643
37	0xbca4e90e	-0.02013066
38	0x3c32d90e	0.010916008
39	0x3ec0472b	0.37554297
40	0xbe5e4102	-0.21704486
41	0x3c21d3ad	0.009877128
42	0x3e93be55	0.2885615
43	0x3e35aac6	0.17740926
44	0x3dc50957	0.09620922
45	0x3e8d5b25	0.276086
46	0x3d047b46	0.032344125
47	0x3d099fc2	0.033599623
48	0xbc9fcb74	-0.019506194
49	0x3da31565	0.07963065
50	0xbdd0ed8f	-0.10201561
51	0xbe43192f	-0.19052576
52	0xbb1f6ecc	-0.0024327515
53	0xbe8d29b5	-0.27570882
54	0x3e927c77	0.28610584
55	0x3e6b3967	0.22971116
56	0x3de2451e	0.11048339
57	0x3e038e40	0.12847233
58	0x3bd46078	0.0064812265
59	0xbd633d16	-0.055478178
60	0x3e2e791f	0.17038392
61	0x3dacde6a	0.084408596
62	0xbdd90f46	-0.10598616
63	0x3e188879	0.1489581
64	0x3b4d6e3f	0.003134623
65	0x3e9799d9	0.29609564
66	0x3dffb0e3	0.1248491
67	0x3ee32f32	0.44371945
68	0x3e007613	0.12545042
69	0xbe2c4fb3	-0.16827278
70	0x3d2e48b8	0.04254982
71	0xbea27484	-0.3172952
72	0x3dacf947	0.084459834
73	0x3e0906af	0.13381456
74	0x3d37a5e5	0.044835944
75	0x3baf9989	0.005358879
76	0x3d240969	0.040048037
77	0x3e2b126e	0.16706249
78	0x3d960281	0.07324696
79	0xbb4bdffe	-0.0031108852
80	0x3db5ffaf	0.088866584
81	0x3e1e8d51	0.15483595
82	0x3e342d8c	0.175955
83	0x3e745596	0.23860773
84	0x3e5bbb36	0.21458134
85	0x3d856b56	0.06514613
86	0xbe1915da	-0.14949742
87	0x3d82c5af	0.063853614
88	0x3e1e4c50	0.15458798
89	0x3dc07904	0.09398082
90	0xbe29f087	-0.1659566
91	0x3e1cc92c	0.15311116
92	0xbb427f91	-0.0029678086
93	0x3e994523	0.2993556
94	0xbdd6357f	-0.10459422
95	0x3e97448e	0.2954449
96	0x3dee9bbc	0.11650798
97	0xbd7777ca	-0.060416974
98	0xbdc5c7b5	-0.09657232
99	0x3e836ff6	0.25671357
100	0xbe44c83e	-0.19217011
101	0x3c032943	0.008005443
102	0xbe5c47f3	-0.21511821
103	0xbe9d9d74	-0.3078419
104	0x3dc6e219	0.097110935
105	0x3d284a72	0.04108662
106	0xbde9821e	-0.11401771
107	0x3d2490a8	0.040177017
108	0x3dbad76b	0.09123119
109	0xbdd113f5	-0.102088846
110	0xbe198b40	-0.14994526
111	0x3eabda5c	0.33565032
112	0xbd28c8be	-0.041207068
113	0x3e38de21	0.18053485
114	0xbe0f6c11	-0.14006068
115	0xbea8d42e	-0.3297438
116	0x3de253b2	0.1105112
117	0x3cfc4c84	0.030798204
118	0xbe56b7c8	-0.20968544
119	0xbe83b07b	-0.2572058
120	0x3ea04e43	0.3130971
121	0x3e1912ca	0.14948574
122	0xbd1ec121	-0.0387584
123	0x3e9ef9fd	0.310501
124	0x3ccffe6e	0.025389876
125	0x3dec6d39	0.1154427
126	0x3bcbde4f	0.0062215696
127	0x3d2ef875	0.042717416
128	0x3e3c928b	0.18415277
129	0x3e04362d	0.12911291
130	0x3d09dd9e	0.033658616
131	0x3debed4e	0.11519872
132	0x3c050ac7	0.008120245
133	0x3dc12089	0.09430034
134	0xbe05bc0a	-0.13060012
135	0x3e27bb7a	0.1638011
136	0x3d0e152f	0.03468817
137	0xbe1c4512	-0.15260723
138	0x3e00fbe7	0.12596093
139	0x3cd07bca	0.025449652
140	0xbd2774b1	-0.04088277
141	0xbe01bab1	-0.12668873
142	0x3e1ab189	0.15106787
143	0x3e8fe2a8	0.28102612
144	0xbeab5ef5	-0.33470884
145	0xbe238a41	-0.15970708
146	0x3e1a9e54	0.1509946
147	0x3a778f07	0.0009443615
148	0xbe0f1b20	-0.13975191
149	0xbe98c60a	-0.29838592
150	0x3d1df2f7	0.038561787
151	0xbe48bbf7	-0.19602953
152	0x3e772723	0.24136023
153	0xbe61365e	-0.21993396
154	0x3dc61caf	0.0967344
155	0xbc8beb22	-0.017079893
156	0x3db694f4	0.08915129
157	0x3e286b0a	0.16447082
158	0xbb5e928e	-0.0033961865
159	0x3c0f7acd	0.008757305
160	0x3dbe4115	0.09289757
161	0xbe37c47c	-0.17946047
162	0xbde8d8a1	-0.11369444
163	0xbd3bab28	-0.045817524
164	0xbea63f4a	-0.3247016
165	0x3e037ec9	0.12841333
166	0xbc5884a2	-0.013215216
167	0x3cd6ec3c	0.026235692
168	0x3dca26ee	0.098707065
169	0x3e33d5cb	0.17562024
170	0xbd19d387	-0.037555244
171	0x3e40e615	0.1883777
172	0x3af50c73	0.0018695727
173	0x3da6b9fc	0.081409425
174	0xbeb9495c	-0.3618878
175	0x3dd8a425	0.10578183
176	0xbe52ec35	-0.20597918
177	0x3ebeed08	0.37290215
178	0xbcd641a5	-0.026154349
179	0xbe0ac2c5	-0.13550861
180	0xbdffa1f5	-0.12482063
181	0xbd97c92c	-0.07411417
182	0xbe244189	-0.16040625
183	0xbd457ece	-0.048216633
184	0x3d445f44	0.047942415
185	0x3e05437f	0.13014029
186	0xbda22c01	-0.07918549
187	0x3d274620	0.04083836
188	0x3e295eb4	0.16540033
189	0x3e0f661c	0.14003795
190	0xbe1eea59	-0.15519084
191	0x3d688320	0.056765676

bias f4 [8]
0	0x3d7605fc	0.0600643
1	0x3e971520	0.29508305
2	0x3da3746a	0.079811886
3	0xbe66ec5b	-0.225511
4	0x3e56814e	0.20947763
5	0xbda84189	-0.08215625
6	0xbe2393e7	-0.15974389
7	0x3b7db6a9	0.003871361

weight f4 [8]
0	0x3f818b68	1.0120668
1	0x3f5790ca	0.84205306
2	0x3f8cb4e4	1.0992703
3	0x3f84a861	1.0363885
4	0x3f80a2ef	1.0049723
5	0x3f83aa0c	1.0286269
6	0x3f609ba4	0.8773749
7	0x3f6b99f1	0.9203177

bias f4 [8]
0	0x3e5b4cc7	0.21416007
1	0x3d6267d2	0.055274792
2	0xbce10a1b	-0.027470639
3	0x3ed11713	0.40837917
4	0x3eaa91ed	0.33314458
5	0x3e7d48e0	0.24734831
6	0x3e100347	0.1406375
7	0x3e4d480d	0.20047016

running_mean f4 [8]
0	0x3eabdbd1	0.33566144
1	0x3f886fb4	1.0659089
2	0x3eeb14c3	0.45914277
3	0x3f095d6e	0.5365819
4	0xbe603b53	-0.2189763
5	0x3f1d0f29	0.6135126
6	0xbf1d079b	-0.6133973
7	0x3e040194	0.12891227

running_var f4 [8]
0	0x3e1b6ac5	0.15177448
1	0x3e323c1c	0.17405742
2	0x3e845852	0.25848633
3	0x3eeeeea5	0.46666446
4	0x3e49496d	0.19656916
5	0x3eb71f15	0.357659
6	0x3e1e7417	0.15473972
7	0x3e332bc4	0.17497164

weight f4 [8, 8, 3]
0	0xbe26af8a	-0.162779
1	0xbe695643	-0.22786812
2	0xbe57ea8f	-0.21085571
3	0x3db89c75	0.09014217
4	0xbe91146c	-0.28335893
5	0x3c05cd3d	0.008166608
6	0x3b1348fc	0.0022473922
7	0xbe0f78ec	-0.14010972
8	0xbe33b090	-0.17547822
9	0x3e9915b0	0.2989936
10	0xbd58a184	-0.05288841
11	0xbe830714	-0.25591338
12	0x3e802542	0.25028425
13	0xbe106f2e	-0.14104912
14	0x3df246cc	0.1182991
15	0x3d9532d9	0.07285089
16	0x3e172744	0.14761072
17	0xbd9a6689	-0.07539088
18	0xbdf2ef02	-0.11861993
19	0xbe32b028	-0.17450011
20	0xbe0ba9f1	-0.13639046
21	0xbce3bba0	-0.027799428
22	0xbcc386e0	-0.023868024
23	0xbe3034fa	-0.17207709
24	0x3c539533	0.01291399
25	0xbdaf9e34	-0.08575097
26	0xbeaa96d5	-0.333182
27	0xbcb28e44	-0.021796353
28	0xbe2a11cf	-0.16608356
29	0xbe45e478	-0.19325435
30	0xbe91837d	-0.2842063
31	0xbe5fa62b	-0.21840732
32	0x3d6a1a9c	0.057154283
33	0x3e1d0811	0.15335108
34	0x3ddd5a83	0.10808279
35	0x3d668a50	0.05628425
36	0x3de2bd3a	0.11071248
37	0x3d04812f	0.03234976
38	0x3c98ea5a	0.018666435
39	0x3e51036d	0.20411463
40	0xbdb24bc8	-0.087058604
41	0xbe3f03df	-0.1865382
42	0xbe0c2eab	-0.13689677
43	0xbc26ca53	-0.010180074
44	0xbdb029bd	-0.08601711
45	0x3df6df2b	0.12054285
46	0xbe0a05fd	-0.13478847
47	0x3d6e8279	0.058229897
48	0xbdac0227	-0.08398848
49	0x3e20bb85	0.15696533
50	0x3e393d9c	0.18089908
51	0x3e7d43dd	0.24732919
52	0x3d3dd414	0.04634483
53	0x3e67b012	0.22625759
54	0xbe639e06	-0.2222825
55	0x3df7480f	0.12074291
56	0xbe13daff	-0.14439009
57	0xbe6e6563	-0.23280863
58	0xbe3317b2	-0.17489508
59	0xbd827edf	-0.06371855
60	0x3ea036bd	0.31291762
61	0xbe1dac2f	-0.15397714
62	0x3e76dbc6	0.24107274
63	0xbe5bf46f	-0.21479963
64	0x3de2cb6b	0.11073955
65	0xbe372650	-0.17885709
66	0x3e3cc850	0.18435788
67	0xbe64afde	-0.22332713
68	0x3ddf4b3b	0.10903021
69	0xbcaf65b3	-0.021410799
70	0x3e080912	0.1328471
71	0xbe165cc3	-0.14683823
72	0x3d848047	0.064697795
73	0xbe2b4344	-0.16724879
74	0xbe7df8b6	-0.24801907
75	0xbdbd150a	-0.092325285
76	0x3e162cbe	0.14665505
77	0xbd14b915	-0.03630932
78	0xbdf6a5b0	-0.12043321
79	0xbe255c84	-0.16148573
80	0xbec9364d	-0.3929924
81	0xbe162134	-0.14661103
82	0x3e1b14fc	0.15144724
83	0xbdb17238	-0.086643636
84	0x3ccd798f	0.025082378
85	0x3e295d84	0.1653958
86	0x3e0364bb	0.12831394
87	0x3e4b2e46	0.1984187
88	0x3e0f573b	0.1399812
89	0x3df2d500	0.11857033
90	0xbc250cd3	-0.010073858
91	0x3e217ed6	0.1577104
92	0xbe3d637f	-0.18494986
93	0x3cecb323	0.028894013
94	0xbe41c32f	-0.18922113
95	0xbdfc2af5	-0.12312881
96	0xbe862ed8	-0.26207614
97	0xbc128399	-0.008942508
98	0x3e00be17	0.12572514
99	0xbd547720	-0.05187142
100	0x3da741d8	0.081668556
101	0xbd8172d8	-0.06320733
102	0x3d2e279e	0.04251825
103	0xbddaf5ed	-0.10691438
104	0x3b1589e8	0.0022817794
105	0xbc8ece25	-0.017432282
106	0x3ea47367	0.32119295
107	0xbc832519	-0.0160089
108	0x3e41b028	0.18914855
109	0xbe90d30e	-0.28286022
110	0x3e8c8327	0.2744381
111	0x3d85e243	0.065372966
112	0xbe82267e	-0.25419992
113	0x3c82faaf	0.015988676
114	0xbcd07221	-0.025445046
115	0xbccf5945	-0.025311122
116	0xbe5da291	-0.21644045
117	0xbdd0c2d5	-0.10193411
118	0x3dcaeb59	0.0990817
119	0x3d23a468	0.039951712
120	0xbc3f9f0f	-0.011695637
121	0x3e3699ee	0.17832157
122	0x3e5fc252	0.21851471
123	0xbda714e5	-0.08158282
124	0x3d2b1ca6	0.04177537
125	0x3b3916b4	0.0028242292
126	0x3e92a1d2	0.28639084
127	0xbe6131b9	-0.21991624
128	0x3e2e0b57	0.16996513
129	0x3da6532e	0.08121334
130	0xbcb6c11d	-0.02230888
131	0x3eae0ab2	0.33992535
132	0x3e475d2d	0.19469137
133	0xbe2f327d	-0.17109104
134	0xbdc14959	-0.09437818
135	0x3e408610	0.18801141
136	0xbdd8dfe3	-0.10589578
137	0x3ce1da45	0.0275699
138	0xbd2608e5	-0.040535826
139	0xbde20975	-0.1103696
140	0xbe08a43b	-0.13343899
141	0x3e653b75	0.22385962
142	0xbe67d284	-0.22638899
143	0x3e6ba8e2	0.23013642
144	0x3e6315c7	0.22176276
145	0xbd9cb40a	-0.07651527
146	0x3c44c1cd	0.012009096
147	0x3e079a3d	0.13242431
148	0x3d7246fc	0.059149727
149	0xbde05ca1	-0.109551676
150	0xbde3e024	-0.11126736
151	0x3dc47a06	0.095935866
152	0xbecbda70	-0.39815092
153	0xbe8eb6de	-0.27873892
154	0x3e26f8f5	0.16305907
155	0x3dd141fc	0.10217664
156	0xbe663e52	-0.22484711
157	0x3d01a453	0.031650852
158	0xbe800f17	-0.25011513
159	0xbe507c54	-0.20359927
160	0xbd985d5b	-0.07439681
161	0x3dab8c8d	0.08376417
162	0xbda205e8	-0.07911283
163	0x3e8b3f07	0.27196524
164	0xbc4bc39f	-0.012436776
165	0xbea03c58	-0.3129604
166	0x3d9cbfa3	0.07653739
167	0xbe1494f4	-0.14509946
168	0xbe305bda	-0.17222539
169	0xbcc1f975	-0.02367852
170	0xbe3791c6	-0.17926702
171	0xbe891527	-0.2677395
172	0xbdcd7765	-0.10032538
173	0xbe26b470	-0.16279769
174	0xbdd95464	-0.10611799
175	0xbd9a07ac	-0.075209945
176	0x3dcc87df	0.09986853
177	0xbe989a38	-0.2980516
178	0x3d8d7028	0.06906158
179	0xbe321bf4	-0.17393476
180	0xbc0122c5	-0.007881825
181	0x3dfa0036	0.122070715
182	0x3b4a2307	0.0030843632
183	0xbee5df66	-0.44897002
184	0x3d667ce0	0.056271434
185	0x3dcb57f8	0.09928888
186	0xbe622ec7	-0.22088157
187	0x3c87fc6b	0.016599854
188	0xbe558d54	-0.20854694
189	0xbe75e186	-0.24011812
190	0xbd166c77	-0.036724534
191	0xbdf767b1	-0.120803244

bias f4 [8]
0	0xbdf3afcf	-0.11898767
1	0x3d79e180	0.06100607
2	0x3ce7222c	0.028214537
3	0x3ce63c9e	0.028105076
4	0xbdf62b00	-0.1201992
5	0xbd09e6a3	-0.033667218
6	0xbd9c3bfe	-0.0762863
7	0x3daa1321	0.0830443

weight f4 [8]
0	0x3f76d777	0.96422523
1	0x3f856882	1.0422518
2	0x3f7d185c	0.98865294
3	0x3f706383	0.9390184
4	0x3f652da8	0.8952279
5	0x3f739ab3	0.9515793
6	0x3f8abca1	1.0838815
7	0x3f7b50a1	0.98169905

bias f4 [8]
0	0x3d228137	0.03967401
1	0x3e948e91	0.2901502
2	0x3dadd366	0.08487587
3	0x3e1a2b0d	0.15055485
4	0x3e0628fd	0.13101573
5	0xbe6b4302	-0.2297478
6	0x3ec5e57b	0.38651642
7	0x3eb7a39b	0.3586701

running_mean f4 [8]
0	0xbf1bb966	-0.6082977
1	0xbe7bd4b4	-0.24592859
2	0x3d21adc9	0.039472375
3	0xbe4ba8e2	-0.19888642
4	0xbdf95e78	-0.121762216
5	0x3ecf70ab	0.40515646
6	0xbf137d49	-0.57613045
7	0xbf4f17bf	-0.8089561

running_var f4 [8]
0	0x3efec6d6	0.49761075
1	0x3eb65dd2	0.35618454
2	0x3edb648f	0.42850158
3	0x3e85e61d	0.26152125
4	0x3e86553e	0.2623691
5	0x3f1b3f1f	0.6064319
6	0x3ef18888	0.47174478
7	0x3fb31c61	1.3993036

weight f4 [8, 8, 3]
0	0xbe60bfe1	-0.21948196
1	0xbe01d527	-0.12678967
2	0x3e5bbc4d	0.2145855
3	0xbdee56ff	-0.11637687
4	0x3e23cd17	0.15996204
5	0x3cbf5a6a	0.023358542
6	0x3e000000	0.125
7	0x3d870b97	0.065940075
8	0xbd743f4f	-0.05963069
9	0x3e8883e3	0.26663122
10	0x3d52cc8c	0.051464602
11	0x3bf7d2d8	0.0075629763
12	0xbe9b8375	-0.3037373
13	0x3e44f0fd	0.19232555
14	0x3e579b79	0.21055402
15	0xbe6cde5f	-0.23131703
16	0xbd636e23	-0.055524956
17	0xbce09e4e	-0.027419236
18	0x3e2da590	0.16957688
19	0xbe1c9e0e	-0.15294668
20	0xbe044bcd	-0.1291954
21	0x3daef6c3	0.0854316
22	0x3d8d8bc2	0.06911422
23	0xbe7b076e	-0.24514553
24	0xbab8cf47	-0.0014099859
25	0xbc2f6844	-0.010706011
26	0x3ceef19d	0.029167945
27	0x3da1f43c	0.07907912
28	0xbc4ab4b8	-0.012372188
29	0x3e8e68aa	0.27814227
30	0x3db6ec0a	0.0893174
31	0xbd4dd6a3	-0.05025352
32	0xbd69798e	-0.05700069
33	0x3ea3dc66	0.32004088
34	0x3caee87e	0.021351095
35	0x3d9f117b	0.07767006
36	0xbd3a28d3	-0.04544909
37	0x3dccefbd	0.10006664
38	0x3d4c411d	0.049866784
39	0xbe3bf395	-0.18354638
40	0x3de0690b	0.10957535
41	0xbd785645	-0.060629148
42	0x3eba3586	0.3636896
43	0xbc917293	-0.017754829
44	0x3ccab2e9	0.024743514
45	0xbe6f94b8	-0.23396575
46	0xbea20b83	-0.31649408
47	0xbeab3f3c	-0.33446681
48	0xbdef90d5	-0.116975464
49	0x3e0e834a	0.1391727
50	0x3e74009a	0.23828354
51	0x3d45ba01	0.04827309
52	0x3ec18b08	0.37801385
53	0x3e3e83ed	0.18605013
54	0x3e01e6ee	0.12685749
55	0x3d13de4d	0.036100674
56	0xbd9987fe	-0.074966416
57	0x3e33da27	0.17563687
58	0x3da0dd69	0.07854731
59	0xbdb2400f	-0.087036245
60	0x3c1c2984	0.0095313825
61	0x3d429fc6	0.047515653
62	0x3d995965	0.07487754
63	0x3b71e27b	0.0036908675
64	0x3e350060	0.17675924
65	0xbe2152d0	-0.15754247
66	0xbd7a6dfe	-0.061140053
67	0xbe3b9492	-0.18318394
68	0xbe1cc4bd	-0.15309425
69	0xbea0b10d	-0.3138508
70	0xbe3c468a	-0.18386284
71	0xbe6c8d6e	-0.23100826
72	0xbd77e0af	-0.06051701
73	0xbbc00cab	-0.005860885
74	0x3e013157	0.12616478
75	0x3cd6ede5	0.026236484
76	0xbe5b92fe	-0.21442792
77	0x3e3015db	0.17195837
78	0xbdaa3619	-0.083110996
79	0xbb258ba1	-0.0025260227
80	0x3ea9a0fd	0.33130637
81	0xbd1f9171	-0.038957063
82	0x3d8ab92a	0.067735985
83	0xbe387f07	-0.18017207
84	0xbda6b984	-0.08140853
85	0xbe489e1e	-0.19591567
86	0xbce750d4	-0.028236784
87	0x3d34b94e	0.044122033
88	0xbe84c24e	-0.25929493
89	0xbdbe7910	-0.093004346
90	0x3ea9f18f	0.33192107
91	0xbd20acb1	-0.03922719
92	0xbe4a146c	-0.19734353
93	0x3e1b2370	0.15150237
94	0xbe0e31fc	-0.13886255
95	0x3d1cf270	0.038317144
96	0x3e04d1da	0.12970677
97	0x3e0ac0f0	0.13550162
98	0xbdefea89	-0.11714656
99	0xbe987762	-0.29778582
100	0x3d12ab04	0.035807624
101	0xbbcc15cb	-0.006228184
102	0xbdccebfb	-0.10005947
103	0xbd488077	-0.04895064
104	0x3d7a70a4	0.06114258
105	0xbea16728	-0.31524014
106	0x39e42bea	0.00043520267
107	0xbe568219	-0.20948066
108	0xbcf51ac3	-0.029919988
109	0x3d8beac3	0.068318866
110	0x3c539870	0.012914762
111	0xbeb81a0e	-0.35957378
112	0xbbc28450	-0.005936183
113	0x3db462cf	0.08807909
114	0x3e30f882	0.17282298
115	0x3eaaf9c1	0.33393672
116	0xbe2a5e6d	-0.16637583
117	0x3e0acb5f	0.13554142
118	0x3d92c866	0.07167129
119	0xbe218ed0	-0.15777135
120	0xbda8e675	-0.08247081
121	0x3e30922b	0.17243259
122	0xbdc1f76f	-0.09471022
123	0xbe663348	-0.224805
124	0x3e3a98ec	0.18222398
125	0xbd44798e	-0.047967486
126	0xbce163a8	-0.02751334
127	0xbe6560f5	-0.22400267
128	0x3dbefdac	0.09325728
129	0xbd5dc5ab	-0.05414359
130	0xbde0267d	-0.10944841
131	0x3d0df34e	0.03465586
132	0xbe50a4eb	-0.20375411
133	0xbd8cddd2	-0.06878246
134	0x3e5aedf2	0.21379831
135	0xbd7482f6	-0.059695207
136	0x3e395bad	0.18101378
137	0x3e07f45e	0.13276812
138	0x3e65d9be	0.22446343
139	0x3ded445a	0.11585303
140	0xbe2f9107	-0.17145167
141	0xbe8b54c0	-0.27213097
142	0xbe5e3216	-0.21698794
143	0xbe93bf9d	-0.28857127
144	0xbd26ea54	-0.040750816
145	0xbd51e08d	-0.05123954
146	0x3e69d2ac	0.22834271
147	0x3e3edca1	0.18638851
148	0x3db29aa4	0.087209016
149	0x3e11ea7d	0.14249606
150	0x3d224632	0.039617725
151	0x3d0cc9fc	0.034372315
152	0x3d80075b	0.06251403
153	0x3e86abae	0.26302856
154	0xbe4ac07e	-0.19799992
155	0x3d907818	0.07054156
156	0x3e861363	0.26186666
157	0xbddb6703	-0.10713007
158	0xbdaa864e	-0.08326398
159	0xbb999ba7	-0.0046877447
160	0xbe317b54	-0.17332202
161	0xbe9e042a	-0.30862552
162	0x3dda03bb	0.10645243
163	0xbe8b681f	-0.27227876
164	0xbdca9458	-0.098915756
165	0x3dbc71a8	0.09201366
166	0x3e2b43ca	0.16725078
167	0xbd3d5c62	-0.04623068
168	0xbdf2a4d9	-0.118478484
169	0xbe9cd172	-0.30628544
170	0x3df0c80e	0.117569074
171	0xbe41c041	-0.18920995
172	0x3e4b4a22	0.19852498
173	0x3bf762e8	0.0075496323
174	0x3c756122	0.014976772
175	0x3bff9bbd	0.007800548
176	0x3e994687	0.2993662
177	0xbdca95e0	-0.09891868
178	0xbe00a69e	-0.1256356
179	0xbcbf2461	-0.023332777
180	0xbdd23d15	-0.10265557
181	0xbe50d2ad	-0.20392866
182	0x3e8b80a2	0.27246577
183	0xbe45deb3	-0.19323234
184	0x3e4b10c2	0.19830611
185	0xbe2d29d7	-0.16910492
186	0x3d98d77b	0.07462975
187	0x3e36f102	0.17865375
188	0xbd1c34c7	-0.03813627
189	0xbd00dac4	-0.03145863
190	0xbcb25c49	-0.02177252
191	0x3d794618	0.060857862

bias f4 [8]
0	0x3e3116c5	0.17293842
1	0x3d56bf55	0.052428562
2	0x3e154093	0.14575414
3	0xbd26e6f6	-0.040747605
4	0xbdd01c78	-0.1016168
5	0xbe28fb4f	-0.16502117
6	0x3c22ab52	0.009928541
7	0x3dd0e1c0	0.101993084

weight f4 [8]
0	0x3ef3580c	0.47528112
1	0x3f372dd6	0.71554315
2	0x3f3cee46	0.73801076
3	0x3f09a915	0.53773624
4	0x3f32bc82	0.6981889
5	0x3f344815	0.7042249
6	0x3f30493e	0.6886176
7	0x3f291d2e	0.6606015

bias f4 [8]
0	0xbeb7e7c0	-0.35919
1	0xbd950cf7	-0.072778635
2	0xbecb814d	-0.39747086
3	0xbe06b05c	-0.13153213
4	0xbec52afd	-0.3850936
5	0xbe96b8d8	-0.294379
6	0xbe07fb50	-0.13279462
7	0xbe823221	-0.2542887

running_mean f4 [8]
0	0x3e528212	0.2055743
1	0x3e013ef5	0.12621672
2	0x3d410ffb	0.04713438
3	0xbdd7597a	-0.10515113
4	0xbe875a00	-0.26435852
5	0xbf20ef74	-0.62865376
6	0x3e812bc9	0.25228718
7	0x3ddff576	0.1093549

running_var f4 [8]
0	0x3e6985df	0.22804974
1	0x3ef07f99	0.4697235
2	0x3eb2f90a	0.34955627
3	0x3e910044	0.28320515
4	0x3e67c194	0.22632438
5	0x3e8dad41	0.27671245
6	0x3eaa5dbe	0.33274645
7	0x3e617917	0.22018848

weight f4 [128, 25]
0	0xbea341c3	-0.3188611
1	0xbd8d1cfe	-0.068902954
2	0xbe0883ca	-0.13331524
3	0xbde2c6c3	-0.11073067
4	0x3decef19	0.11569042
5	0x3e02fb66	0.12791213
6	0x3d4958c1	0.049156908
7	0xbe58af3b	-0.21160595
8	0x3e7f20a9	0.24914803
9	0x3dc187dc	0.09449741
10	0x3c5f09c8	0.013613172
11	0xbe347726	-0.17623577
12	0x3c7a8c84	0.015292291
13	0x3d6a6b1b	0.05723105
14	0xbe3e78e1	-0.18600799
15	0xbd1503db	-0.03638063
16	0x3d832f21	0.064054735
17	0xbddfcefd	-0.10928152
18	0xbde9c165	-0.1141384
19	0x3b8705a0	0.0041205436
20	0xbe8b2041	-0.27173045
21	0x3dbf2127	0.09332495
22	0xbe877430	-0.26455832
23	0xbdfa1527	-0.12211066
24	0xbdbf5128	-0.09341651
25	0xbe26fb2b	-0.1630675
26	0xbe8e837e	-0.27834696
27	0x3def3443	0.1167989
28	0xbf1fe27e	-0.62454975
29	0xbf2f2685	-0.6841815
30	0xbeb0a5db	-0.34501538
31	0x3dfbf5bf	0.12302732
32	0xbe5d473a	-0.21609202
33	0x3e16d22f	0.14728616
34	0x3dd1dead	0.1024755
35	0x3d4e38b9	0.050347064
36	0xbc094f68	-0.008380748
37	0x3db8e18c	0.09027395
38	0x3da4034d	0.08008442
39	0xbe0f1419	-0.1397251
40	0x3d241c9a	0.04006634
41	0x3e09edc2	0.13469604
42	0xbe6470bb	-0.22308628
43	0xbf1da86c	-0.61585116
44	0xbe5dd8ba	-0.21664706
45	0xbd44ea99	-0.048075292
46	0x3d83fbd7	0.06444519
47	0xbe9cdf22	-0.30638987
48	0xbeaf3fbc	-0.34228313
49	0x3e0159d3	0.12631921
50	0xbd993dcb	-0.07482489
51	0x3e2a8ad6	0.16654524
52	0xbe261689	-0.16219534
53	0xbcb68baa	-0.022283394
54	0x3cce7575	0.025202492
55	0xbed8d9d0	-0.42353678
56	0xbecb90f8	-0.3975904
57	0xbdc0cb84	-0.094138175
58	0xbe33c218	-0.1755451
59	0x3e94a704	0.29033673
60	0x3eada04b	0.33911356
61	0xbe3bd041	-0.18341161
62	0xbe7d6f61	-0.24749519
63	0x3e6b7f8f	0.22997878
64	0x3d129943	0.035790693
65	0xbd1b9386	-0.037982486
66	0xbe393060	-0.1808486
67	0xbe77dd42	-0.24205497
68	0xbdcd805f	-0.100342505
69	0xbe8eb959	-0.27875784
70	0x3e8fc671	0.28081086
71	0xbe6f27d4	-0.23355037
72	0xbe1e0c66	-0.15434417
73	0x3d2444e7	0.040104773
74	0x3dd83775	0.105574526
75	0xbebce9f3	-0.3689724
76	0xbf05747d	-0.5213087
77	0xbeee9d29	-0.4660428
78	0xbe697cfa	-0.22801581
79	0x3e097a5c	0.13425583
80	0xbe64a132	-0.22327116
81	0xbea0fe98	-0.3144424
82	0xbe89a7ef	-0.26885936
83	0xbe8fd356	-0.28090924
84	0xbde511c8	-0.11185032
85	0xbe028877	-0.1274737
86	0x3e2595b5	0.1617039
87	0x3df529ef	0.11970889
88	0x3e068e9c	0.13140339
89	0x3c095b9d	0.008383659
90	0x3d82accc	0.06380615
91	0xbe0a2e74	-0.13494283
92	0x3d50e3ab	0.05099837
93	0x3e07c630	0.13259196
94	0xbd5227a9	-0.051307354
95	0x3deb7aac	0.11498007
96	0x3e1e9ab3	0.154887
97	0x3dfb1a5a	0.122608855
98	0x3d284f89	0.041091476
99	0xbe79f5b7	-0.24410139
100	0xbaf26a82	-0.0018494877
101	0x3ea78235	0.32716528
102	0x3d32cb27	0.043650772
103	0xbeccbb06	-0.39986438
104	0xbda5e056	-0.08099429
105	0xbea5c493	-0.32376537
106	0xbf14361b	-0.5789506
107	0xbe5d02db	-0.2158312
108	0xbe3c55f4	-0.18392164
109	0xbe021951	-0.1270497
110	0x3db06880	0.08613682
111	0x3e5e6d96	0.21721491
112	0x3dc9f94a	0.09862001
113	0xbd3b1aca	-0.045679845
114	0x3e66cbfa	0.22538748
115	0xbd99dbc1	-0.07512618
116	0x3cf9668a	0.030444402
117	0xbeb43665	-0.3519775
118	0x3deb272a	0.11482079
119	0xbd998361	-0.07495762
120	0xbe71020a	-0.23535934
121	0xbe888ae2	-0.2666846
122	0x3e464f87	0.19366275
123	0xbdedcaa0	-0.11610913
124	0x3a438984	0.0007459151
125	0xbdf1825b	-0.117924415
126	0x3df26bb4	0.11836949
127	0xbe723cea	-0.2365605
128	0x3d0a2887	0.033730056
129	0xbe292863	-0.16519313
130	0x3db6444d	0.08899746
131	0x3dbedb5f	0.093191855
132	0x3dd4cccf	0.10390627
133	0x3e5047d9	0.20339908
134	0x3c5183a3	0.012787732
135	0x3d868d67	0.06569939
136	0xbc892aff	-0.016744135
137	0x3bb067a5	0.005383449
138	0x3df4c72f	0.11952054
139	0x3d3fb229	0.046800766
140	0x3d668e58	0.056288093
141	0xbd93dd83	-0.072199844
142	0xbc92280b	-0.01784136
143	0x3dd8d801	0.105880745
144	0xbe028e4c	-0.12749594
145	0x3e6ae269	0.22937931
146	0xbcce5d40	-0.02519095
147	0xbf0468d2	-0.51722443
148	0x3e2fcf82	0.17169002
149	0xbe69fb94	-0.22849876
150	0xbe439f9e	-0.19103858
151	0x3c805690	0.015666276
152	0xbe85645f	-0.2605314
153	0xbe38b9ae	-0.18039581
154	0xbe88fc97	-0.2675521
155	0xbc16a958	-0.009195648
156	0xbd9f7aa1	-0.077870615
157	0x3c0e74cb	0.008694838
158	0x3d65d0a1	0.056107167
159	0xbdb18b76	-0.08669178
160	0x3d923309	0.071386404
161	0x3d9345da	0.071910575
162	0xbe0078cc	-0.1254608
163	0x3ddc0c3b	0.1074452
164	0xbe64bb75	-0.22337134
165	0x3d41d3ad	0.04732101
166	0x3dab5962	0.08366658
167	0xbd9bc810	-0.07606518
168	0x3e5ddcf5	0.2166632
169	0xbe65b456	-0.22432074
170	0x3c0b4ae5	0.008501743
171	0xbd8f0096	-0.06982534
172	0x3dd89970	0.10576141
173	0xbe917354	-0.284083
174	0xbd86488b	-0.06556805
175	0xbe83d59c	-0.2574891
176	0xbe62f378	-0.22163188
177	0x3e312f3f	0.17303179
178	0x3e04173d	0.1289949
179	0x3ea70654	0.32622015
180	0x3e902f40	0.2816105
181	0x3e4bc42f	0.19899057
182	0xbeebf425	-0.46084705
183	0xbe78228e	-0.24231932
184	0xbeeda690	-0.4641614
185	0xbf0ae289	-0.54251915
186	0xbeb1f6af	-0.34758517
187	0xbcd7b4ee	-0.026331391
188	0xba8c3b9a	-0.0010698915
189	0x3e58ee7d	0.21184726
190	0xbdafbfd6	-0.08581512
191	0xbc6e9c88	-0.014563687
192	0x3d91ef73	0.071257494
193	0x3d9cf375	0.07663623
194	0xbe69d659	-0.22835673
195	0xbe169c74	-0.1470812
196	0xbec218aa	-0.37909442
197	0xbd92b3ec	-0.071632236
198	0x3c01b6f3	0.007917154
199	0x3d829d85	0.06377701
200	0x3d9b4a03	0.07582476
201	0xbbdb1d73	-0.00668686
202	0x3e0ed573	0.13948612
203	0x3b2aebfa	0.0026080594
204	0xbe142109	-0.14465727
205	0xbe468966	-0.19388351
206	0xbefa15a8	-0.48844647
207	0xbd41915c	-0.047257766
208	0x3d9419ee	0.07231508
209	0x3ee00105	0.43750778
210	0xbd3a9e51	-0.04556114
211	0x3d985f35	0.07440034
212	0xbe0e19b9	-0.13877
213	0x3cac5d90	0.021040708
214	0x3da463d5	0.08026854
215	0xbdd13b8a	-0.10216434
216	0xbe7eb893	-0.24875097
217	0x3cdf486a	0.02725621
218	0xbd716830	-0.05893725
219	0x3e170b84	0.14750487
220	0x3e6cb73d	0.23116775
221	0xbec507ac	-0.38482416
222	0xbee84a07	-0.45368978
223	0x3e2b36dc	0.16720146
224	0xbcf5a7b8	-0.029987201
225	0xbe94a23d	-0.29030028
226	0xbecc43dc	-0.39895523
227	0xbede054e	-0.43363422
228	0xbe313da9	-0.17308678
229	0x3e065a57	0.131204
230	0xbd54da61	-0.051966075
231	0xbe9b798f	-0.3036618
232	0xbe953fd4	-0.2915026
233	0xbde50fb9	-0.111846395
234	0xbdb6b2b5	-0.089208044
235	0xbdca6585	-0.098826446
236	0x3e99f032	0.30066067
237	0x3de55fdd	0.11199925
238	0xbe2231b2	-0.1583927
239	0x3d3c538c	0.045978114
240	0x3ca7947a	0.020456541
241	0xbce31b57	-0.027722998
242	0xbe7460dc	-0.23865074
243	0xbde7a424	-0.11310604
244	0xbe9cfaf6	-0.30660218
245	0xbe8424e9	-0.2580941
246	0xbd150343	-0.036380064
247	0xbe8ca7df	-0.27471825
248	0x3e23de0e	0.16002676
249	0x3d9d9f5f	0.07696413
250	0xbdd32afe	-0.103109345
251	0xbe73d8a2	-0.23813108
252	0xbe84693d	-0.2586154
253	0x3d849d98	0.06475371
254	0xbeadd6f1	-0.3395305
255	0x3d10409c	0.035217866

bias f4 [128]
0	0x3e50e1e6	0.20398673
1	0x3e253af7	0.16135775
2	0x3ce6704c	0.02812972
3	0xbdcd7d54	-0.1003367
4	0x3d0334a9	0.032032643
5	0xbcb4dc7d	-0.022077793
6	0x3de64d10	0.11245167
7	0x3e41b93c	0.18918318
8	0xbd1bd91a	-0.03804884
9	0x3ce5769f	0.028010665
10	0xbdfe8763	-0.12428167
11	0x3d80a006	0.06280522
12	0x3e534691	0.20632388
13	0xbc7bbd81	-0.0153650055
14	0x3e3ba582	0.18324855
15	0x3e8d41f3	0.27589378
16	0x3e4c8afe	0.19974896
17	0xbdba6ec6	-0.091031596
18	0x3dfc76d0	0.12327349
19	0x3dcbd027	0.09951811
20	0x3e0e711c	0.13910335
21	0xbd19e38b	-0.037570518
22	0x3e5134a2	0.20430234
23	0xbdb6525f	-0.0890243
24	0xbe0534da	-0.13008443
25	0xbdd5a324	-0.10431507
26	0x3e8192db	0.25307354
27	0x3ddd8268	0.10815889
28	0xbd98bdee	-0.07458101
29	0xbdb28474	-0.0871667
30	0x3dfbfa2c	0.12303576
31	0x3e2e8523	0.17042975
32	0x3e06e62d	0.13173743
33	0x3d66b124	0.05632128
34	0x3dedf767	0.11619454
35	0x3dc92f0c	0.098234266
36	0x3dd2016e	0.10254179
37	0x3e755d98	0.23961484
38	0xbe0c1f12	-0.13683727
39	0xbdf39fcd	-0.11895714
40	0x3db78bdb	0.08962222
41	0x3d494a45	0.049143095
42	0xbda6327f	-0.081151
43	0xbd763bc5	-0.060115594
44	0xbdd60d67	-0.10451775
45	0x3d5264a3	0.051365506
46	0x3e2339e9	0.1594006
47	0x3e12312e	0.14276573
48	0x3d80f6ac	0.06297049
49	0x3d883dbe	0.066524014
50	0x3dc1f0ec	0.0946978
51	0x3ddb876b	0.10719188
52	0xbd1c1b3e	-0.038111918
53	0x3e1ba80a	0.1520082
54	0xbcac0175	-0.020996789
55	0xbde30b92	-0.11086191
56	0x3da48efb	0.08035084
57	0x3c2cc0b4	0.010543991
58	0x3d6932f7	0.05693337
59	0xbdb96457	-0.090523414
60	0xbd984e70	-0.07436836
61	0x3e23841d	0.15968366
62	0x3dd249af	0.1026796
63	0x3e4ad647	0.19808303
64	0x3dc2d80d	0.09513865
65	0x3dfea403	0.124336265
66	0x3e31b276	0.17353234
67	0x3d2190bb	0.039444666
68	0x3e662417	0.22474705
69	0xbdc85c84	-0.09783271
70	0x3e72669b	0.23671953
71	0x3d803b4b	0.06261309
72	0xbcf4de81	-0.029891254
73	0x3e216294	0.15760261
74	0x3d6c4564	0.057683364
75	0x3e005f92	0.12536457
76	0x3e2071c4	0.15668398
77	0x3db0617e	0.08612345
78	0x3e352134	0.17688447
79	0xbd0b4ea9	-0.034010563
80	0x3df975c9	0.12180669
81	0x3cb7aabe	0.022420283
82	0x3d8f7886	0.0700541
83	0xbc538b7d	-0.012911675
84	0xbd865eb5	-0.06561033
85	0x390816ff	0.00012978537
86	0x3d807ca0	0.0627377
87	0x3d438b9b	0.04774056
88	0x3e44cdd0	0.19219136
89	0xbb864d60	-0.0040985793
90	0xbe0c2d83	-0.13689236
91	0x3ddeb76e	0.1087483
92	0x3e0b5c29	0.13609375
93	0x3dae084f	0.084976785
94	0xbde55276	-0.11197369
95	0x3dd93e93	0.10607638
96	0x3e1758de	0.14779994
97	0x3e419b37	0.18906866
98	0x3d893043	0.06698658
99	0xba719015	-0.00092148903
100	0xbd557b96	-0.052119814
101	0x3d9dc570	0.07703674
102	0xbd0b9edc	-0.034087047
103	0x3c3b3518	0.011426233
104	0xbd87facc	-0.066396326
105	0xbcbc585c	-0.022991352
106	0x3e35643a	0.17714015
107	0x3d0e4eb2	0.03474302
108	0xbe4e7a04	-0.20163733
109	0x3d015da2	0.031583436
110	0x3dfde843	0.12397816
111	0xbc819241	-0.01581681
112	0xbdac78f8	-0.084215105
113	0x3daafa5c	0.083485335
114	0x3e70d0f0	0.23517203
115	0x3e6174c0	0.22017193
116	0x3d7f0d14	0.06226833
117	0x3c108680	0.00882113
118	0x3c93d309	0.018044965
119	0x3e0254d6	0.12727675
120	0xbd896ca6	-0.06710176
121	0xbda36872	-0.07978906
122	0xbdeedb0f	-0.11662876
123	0xbe00233e	-0.12513444
124	0x3c220f58	0.009891354
125	0x3df18e14	0.117946774
126	0xb97416eb	-0.00023278191
127	0x3cbc6ced	0.023001159
