nn/checkpoints/main_objs/3/model_30.pt (torch, 518706 bytes, 98 tensors)

weight f4 [8, 5, 3]
0	0xbe0a1b11	-0.13486888
1	0x3ceb370e	0.028712776
2	0x3e61d363	0.22053294
3	0x3be346a1	0.00693591
4	0xbd24971d	-0.040183175
5	0x3e4e42ec	0.20142716
6	0xbe623882	-0.22091869
7	0xbe4b4b60	-0.19852972
8	0x3e9427d5	0.2893664
9	0xbe2fd488	-0.17170918
10	0xbdb431e1	-0.08798576
11	0x3e8423f6	0.25808686
12	0xbdb89977	-0.09013646
13	0xbe13af1b	-0.14422266
14	0x3e0f846d	0.1401536
15	0xbdefb187	-0.117037825
16	0x3dace4dd	0.0844209
17	0x3e7eacf4	0.24870664
18	0xbdf55b07	-0.11980253
19	0x3da97ba9	0.082755394
20	0x3e8d217d	0.27564612
21	0xbcc9d354	-0.024636902
22	0x3dd847b1	0.10560549
23	0xbcebc8e3	-0.028782314
24	0xbe195f91	-0.14977862
25	0xbd0fda67	-0.035120394
26	0xbbb8da92	-0.00564129
27	0xbd24544f	-0.040119465
28	0x3e3f69a8	0.18692648
29	0x3ea7100a	0.32629424
30	0x3eca8336	0.3955323
31	0xbda390b1	-0.07986582
32	0x3e289714	0.16463882
33	0xbe4e4f89	-0.20147528
34	0x3d19aafa	0.03751657
35	0x3e5665b4	0.20937234
36	0x3e04319e	0.12909552
37	0x3d888fa9	0.06668026
38	0x3d8f0e88	0.069851935
39	0x3ea4c925	0.3218471
40	0xbdf6807d	-0.12036226
41	0xbda15d70	-0.0787915
42	0xbd872d2b	-0.06600412
43	0x3ceb6ae5	0.028737495
44	0x3e278caa	0.16362253
45	0xbdb462c6	-0.08807902
46	0xbe0a4d74	-0.13506109
47	0x3e3a2839	0.18179406
48	0xbdad6a0a	-0.08467491
49	0x3ca447bf	0.020053742
50	0xbcf3af37	-0.029746635
51	0x3dc51cea	0.096246555
52	0xbc1ed0de	-0.0096933525
53	0x3d54be3e	0.05193924
54	0x3dd34d8a	0.10317524
55	0xbe2fb31a	-0.17158166
56	0x3db19b90	0.08672249
57	0xbec92002	-0.39282233
58	0xbdcd4345	-0.10022596
59	0xbf07e0a2	-0.5307714
60	0x3c0b047a	0.008484954
61	0xbd34f839	-0.044182036
62	0xbe53d11d	-0.20685239
63	0x3e589943	0.21152215
64	0x3e0f068d	0.13967343
65	0x3e3bdcac	0.18345898
66	0x3e82840c	0.2549137
67	0x3e43d627	0.19124661
68	0x3e2c9c66	0.16856536
69	0x3e5370e8	0.20648539
70	0xbdce40b9	-0.100709386
71	0x3d31b88f	0.0433889
72	0x3ebeb22f	0.37245318
73	0xbd0b989b	-0.034081083
74	0x3e17af70	0.14813018
75	0xbe913f64	-0.28368676
76	0xbea53ec0	-0.32274437
77	0x3e71cedb	0.23614065
78	0xbdeaab5f	-0.11458468
79	0xbe032b03	-0.12809376
80	0x3dacec67	0.08443528
81	0xbe00fc2c	-0.12596196
82	0x3c8107f2	0.015750859
83	0x3cd367a9	0.025806265
84	0xbe08b9b0	-0.13352084
85	0x3c9b38f5	0.018948058
86	0x3e6ca145	0.23108394
87	0x3d4c2428	0.04983917
88	0x3dee691f	0.11641144
89	0x3d40aca9	0.04703966
90	0x3e9e304f	0.30896232
91	0xbd7a0bc6	-0.061046384
92	0xbe3dea86	-0.18546495
93	0x3e0ad30d	0.13557072
94	0xbdf89cd8	-0.121392906
95	0x3de8f12c	0.11374125
96	0xbd561536	-0.052266322
97	0xbe9b72e0	-0.3036108
98	0xbb948f66	-0.004533696
99	0xbd464569	-0.04840604
100	0x3c4743ac	0.01216213
101	0x3d690658	0.056890815
102	0x3e9a2e53	0.30113468
103	0xbe740743	-0.23830895
104	0x3e3ee263	0.18641047
105	0xbd9982ed	-0.07495675
106	0x3cff1e41	0.031142356
107	0xbe248084	-0.1606465
108	0x3da24c5d	0.079247214
109	0xbd953533	-0.072855376
110	0xbf01665f	-0.5054683
111	0x3bb80a7c	0.005616484
112	0xbdf09148	-0.1174646
113	0xbe33d0ab	-0.1756007
114	0xbdac29f9	-0.08406443
115	0x3df02072	0.117249385
116	0xbd07d80b	-0.03316502
117	0x3e960cc2	0.29306608
118	0x3df1dfa9	0.11810238
119	0xbe7b356b	-0.24532096

bias f4 [8]
0	0x3e0ffbed	0.14060946
1	0xbe84fc27	-0.25973627
2	0xbe34ca64	-0.17655331
3	0x3ebc8030	0.3681655
4	0xbe7f1337	-0.24909674
5	0x3dea4fee	0.11441027
6	0x3d3fa675	0.046789605
7	0xbd8a7bdd	-0.06761906

weight f4 [8]
0	0x3f745f9e	0.954584
1	0x3f6f8a71	0.9357062
2	0x3f6c7148	0.92360353
3	0x3f8c52a6	1.0962722
4	0x3f661994	0.8988278
5	0x3f812519	1.0089446
6	0x3f6dffaf	0.9296827
7	0x3f91b63a	1.1383736

bias f4 [8]
0	0x3e6f3fd5	0.23364194
1	0x3eeec9d2	0.46638352
2	0x3e62fcda	0.22166768
3	0xba819983	-0.0009887669
4	0x3ef9b2d8	0.4876926
5	0xbcf1589f	-0.029461203
6	0x3d8e45ac	0.069468826
7	0x3deec8cd	0.116593935

running_mean f4 [8]
0	0x3e2fb0ba	0.1715726
1	0x3e096da5	0.13420732
2	0x3eaa82c4	0.3330289
3	0xbdfce7c3	-0.123488925
4	0x3eeba0a4	0.46020997
5	0xbd256ba2	-0.04038585
6	0x3dd6a48e	0.10480605
7	0xbeeb9dfe	-0.46018976

running_var f4 [8]
0	0x3f0b3235	0.54373485
1	0x40046f00	2.069275
2	0x404a860e	3.164432
3	0x403185ba	2.773787
4	0x408f3772	4.475518
5	0x3f246567	0.6421723
6	0x3f0f7150	0.56032276
7	0x3ffa8921	1.9573098

weight f4 [8, 8, 3]
0	0xbe660a49	-0.22464861
1	0xbe49d973	-0.19711857
2	0xbd3635c6	-0.044484876
3	0x3e172bb7	0.1476277
4	0xbe59575c	-0.21224731
5	0xbd9642ba	-0.07336946
6	0x3da60955	0.08107249
7	0x3e09bdd8	0.13451326
8	0xbe974f44	-0.29552662
9	0xbe3b0430	-0.18263316
10	0x3df4a75b	0.11945983
11	0x3b0ade79	0.0021189733
12	0x3e3f42b4	0.18677789
13	0x3db6c2d6	0.08923881
14	0xbe0b35cc	-0.1359474
15	0xbdaeb056	-0.08529727
16	0xbd0339f5	-0.032037694
17	0xbd07896d	-0.033090044
18	0xbdd7b645	-0.10532812
19	0x3daa4235	0.08313409
20	0xbdce2985	-0.10066513
21	0x3c8118d4	0.01575891
22	0x3df3e781	0.1190939
23	0xbe14d5b9	-0.14534654
24	0xbdddff21	-0.108396776
25	0xbe242b42	-0.16032127
26	0xba8fb9f7	-0.0010965456
27	0xbd2d9af5	-0.042384107
28	0xbd18fc48	-0.03734997
29	0x3e3546f5	0.17702849
30	0x3d92f232	0.07175101
31	0xbe30404c	-0.17212027
32	0x3dc46ae7	0.095907025
33	0xbda90fb1	-0.08254946
34	0xbe9e91ef	-0.30970713
35	0xbe0b111a	-0.13580742
36	0xbe5270d4	-0.20550853
37	0xbdaf0c14	-0.085472256
38	0x3e36ca41	0.17850591
39	0x3e251c24	0.16124016
40	0xbe439b5b	-0.19102232
41	0xbd5a57e7	-0.053306486
42	0xbdbbda7d	-0.09172533
43	0xbe0b5886	-0.13607988
44	0x3d9386cb	0.07203444
45	0xbd88337f	-0.06650447
46	0xbb5c3b8f	-0.0033604836
47	0xbe5cdee1	-0.21569397
48	0xbe3f0323	-0.1865354
49	0x3e1307df	0.14358471
50	0xbdf8a868	-0.12141496
51	0x3d00d5d2	0.031453915
52	0xbe2f9655	-0.17147191
53	0xbe0e2db5	-0.13884623
54	0xbd80d350	-0.06290305
55	0x3c8f1eed	0.017470801
56	0x3e644d06	0.22295007
57	0x3e8678d8	0.2626407
58	0x3edb7929	0.42865875
59	0x3dae5602	0.085124984
60	0xbe19e7a0	-0.15029764
61	0x3e3f8f38	0.18706977
62	0xbc25df88	-0.010124095
63	0xbe4efd66	-0.20213851
64	0x3e3bc477	0.18336664
65	0xbcf66c60	-0.030080974
66	0x3d053dca	0.03252963
67	0xbdf8c2e5	-0.12146548
68	0xbdd5efeb	-0.10446151
69	0x3d85d5ff	0.06534957
70	0x3cf550ea	0.02994581
71	0x3ebe3f93	0.37157878
72	0x3e398ffe	0.18121335
73	0xbe865412	-0.26236016
74	0xbe84307e	-0.25818247
75	0x3c4c049a	0.012452269
76	0xbd97425f	-0.07385706
77	0x3d5c30cd	0.053757478
78	0x3e0d1a0b	0.13779466
79	0xbd49de41	-0.049284223
80	0xbd2aff90	-0.04174763
81	0xbd03f1ca	-0.03221301
82	0x3de004b4	0.10938397
83	0xbb696813	-0.0035615012
84	0xbc49d992	-0.012319939
85	0xbe163109	-0.14667143
86	0x3dbc407b	0.09191986
87	0x3d5b4df4	0.05354114
88	0xbead81f8	-0.3388822
89	0xbe7136b8	-0.2355603
90	0x3e6a668f	0.22890685
91	0xbd0532ea	-0.03251926
92	0x3cf24fd3	0.029579079
93	0xbe7e6f89	-0.24847235
94	0x3e7c6203	0.24646764
95	0x3dba3851	0.09092773
96	0x3dd9ffa0	0.1064446
97	0xbd39c4bb	-0.045353632
98	0x3df7bab4	0.12096158
99	0xbe84de25	-0.25950733
100	0x3d7aab05	0.061198253
101	0x3e549f7b	0.20763962
102	0xbd2b0bcc	-0.041759297
103	0xbd87f047	-0.06637626
104	0x3ce7a65b	0.028277567
105	0x3e16edee	0.147392
106	0x3da12dec	0.07870087
107	0xbe9df331	-0.30849603
108	0x3e0c42db	0.13697378
109	0xbd548839	-0.051887725
110	0x3e285733	0.16439514
111	0x3e38f614	0.18062621
112	0x3e1adeb5	0.15124018
113	0x3e0a3ed9	0.13500537
114	0x3df7a811	0.12092603
115	0xbda53740	-0.08067179
116	0x3d8b0fc0	0.067901134
117	0x3ccc655b	0.024950674
118	0x3d994386	0.07483582
119	0xbeba3cda	-0.3637455
120	0x3d1e7f5a	0.03869567
121	0xbe0733bd	-0.1320333
122	0x3e69581a	0.22787514
123	0x3dea8651	0.114514
124	0xbe29d94f	-0.16586803
125	0x3df76cd4	0.12081304
126	0xbe61608e	-0.22009489
127	0xbdbcf163	-0.09225728
128	0xbd882beb	-0.06649002
129	0x3e963215	0.29335085
130	0x3e58f511	0.21187235
131	0xbe2b700a	-0.16741958
132	0xbce37f6b	-0.027770719
133	0xbd6b7dd7	-0.057493057
134	0x3e43b2aa	0.19111124
135	0xbcc9a528	-0.024614885
136	0x3e04ce12	0.12969235
137	0x3e1803ac	0.1484515
138	0xbe82ed84	-0.25571835
139	0xbce9ea1a	-0.028554011
140	0xbda75f43	-0.081724666
141	0x3ddb914b	0.10721072
142	0xbdc4dc9c	-0.096123904
143	0xbe9cfc2f	-0.3066115
144	0xbd58e56d	-0.052953172
145	0xbe637107	-0.22211085
146	0x3e25eca1	0.16203548
147	0x3d29a368	0.041415602
148	0xbe58267c	-0.2110843
149	0xbe7ae1c2	-0.24500182
150	0x3e4c9895	0.1998008
151	0xbe512b0a	-0.20426574
152	0x3dbeaa66	0.09309845
153	0x3ca2d8a5	0.019878695
154	0xbe212fd4	-0.15740901
155	0xbe875ea3	-0.2643939
156	0x3e557b5c	0.20847839
157	0xbdf90e27	-0.121609025
158	0xbe5a48e9	-0.21316876
159	0x3e490c32	0.19633558
160	0xbe2a1e99	-0.16613235
161	0xbe405a39	-0.18784417
162	0x3de5ec29	0.112266846
163	0xbb2a1887	-0.002595456
164	0x3e10e07f	0.14148138
165	0x3c7ea669	0.015542605
166	0x3e22e7cd	0.15908737
167	0xbd817bdd	-0.06322453
168	0x3def39c1	0.116809376
169	0xbd914a1a	-0.07094212
170	0xbdc9e7b1	-0.09858645
171	0x3defc790	0.117079854
172	0x3e2f25c6	0.17104253
173	0xbe352422	-0.17689565
174	0x3e86c872	0.26324803
175	0xbcad0ed8	-0.021125242
176	0xbe79eb2e	-0.2440612
177	0x3d918442	0.07105304
178	0xbe032e4b	-0.12810628
179	0xbdb01b17	-0.08598917
180	0x3d93e489	0.07221324
181	0x3dcf016e	0.101076946
182	0xbde05720	-0.10954118
183	0x3d6e3d16	0.058163725
184	0xbddaa73c	-0.10676429
185	0x3dffc996	0.12489621
186	0x3e4e9747	0.20174895
187	0x3e14a4dc	0.14516014
188	0xbe86f0b3	-0.26355514
189	0xbe2cd283	-0.16877179
190	0xbe90b4ad	-0.28262845
191	0xbb2a9be1	-0.0026032852

bias f4 [8]
0	0x3da9be93	0.08288302
1	0xbe86fb4a	-0.26363593
2	0xb60e3db3	-2.1195563e-06
3	0x3e6abdbd	0.22923942
4	0x3e2b4b1f	0.16727875
5	0xbdb5515c	-0.08853409
6	0x3d3311dc	0.043718204
7	0xbd901d80	-0.07036877

weight f4 [8]
0	0x3f83a5a2	1.0284922
1	0x3f78eac9	0.97233254
2	0x3f91cdbe	1.1390913
3	0x3f85ba19	1.0447417
4	0x3f684644	0.90732217
5	0x3f81fcde	1.0155294
6	0x3f87c6f5	1.0607592
7	0x3f6f454b	0.9346511

bias f4 [8]
0	0x3e4bc45e	0.19899127
1	0x3da261a4	0.0792878
2	0xbd1b4339	-0.037905905
3	0xbc2b0e37	-0.010440401
4	0x3e1c5132	0.15265349
5	0x3e1ed023	0.15509085
6	0xbc2134ea	-0.009839276
7	0x3e9cc6d1	0.30620435

running_mean f4 [8]
0	0xbe5722bf	-0.21009348
1	0xbf3cebbf	-0.7379722
2	0x3e8eeec0	0.27916527
3	0x3d944618	0.07239932
4	0x3eb12e35	0.34605566
5	0xbdfb397c	-0.12266824
6	0xbe9c67a5	-0.30547825
7	0xbe49de57	-0.19713722

running_var f4 [8]
0	0x3e6a9c21	0.22911121
1	0x3e2a066f	0.16604017
2	0x3e8c6c6a	0.27426463
3	0x3ea58e5d	0.32335177
4	0x3e4416ae	0.19149277
5	0x3e9a501e	0.3013925
6	0x3ea57597	0.32316276
7	0x3e4c7767	0.19967423

weight f4 [8, 8, 3]
0	0xbd75b0a2	-0.059982903
1	0xbdded67f	-0.10880756
2	0x3de386a2	0.111096635
3	0x3c568822	0.01309398
4	0xbcc0b9fe	-0.023526188
5	0xbdc60a43	-0.09669926
6	0x3e8dac5d	0.27670565
7	0x3e008793	0.12551717
8	0x3e8f79d0	0.28022623
9	0xbde14963	-0.110003255
10	0xbdbb3232	-0.09140433
11	0xbda4b843	-0.08042958
12	0xbd6ba190	-0.057527125
13	0xbdfad88f	-0.122483365
14	0x3d50d918	0.050988287
15	0x3e46951c	0.19392818
16	0x3e13a6d0	0.14419103
17	0x3e81d3ae	0.2535681
18	0xbe9b2697	-0.3030288
19	0xbe86ab9c	-0.26302803
20	0xbd503413	-0.05083091
21	0x3e15a181	0.1461239
22	0xbaaf9a8c	-0.0013397499
23	0x3dd4d550	0.10392249
24	0x3e40c572	0.1882532
25	0xbc18c3a0	-0.009323984
26	0xbe2240f4	-0.1584509
27	0xbc19b2c3	-0.009380999
28	0xbd8131a7	-0.063082986
29	0x3bf8f301	0.0075973277
30	0xbcaa4190	-0.020783216
31	0xbc4ddee3	-0.012565347
32	0xbd2aeb81	-0.0417285
33	0xbdf76966	-0.1208065
34	0xbe2a71d8	-0.1664499
35	0x3cac0fd0	0.021003634
36	0xbe27c68f	-0.16384338
37	0xbe2166df	-0.15761898
38	0xbea780f1	-0.32715562
39	0x3e641020	0.22271776
40	0xbd91e092	-0.071229115
41	0xbce226f9	-0.027606474
42	0xbc82fb3c	-0.015988939
43	0xbe2a6667	-0.16640626
44	0x3e6717ba	0.22567645
45	0xbd3e2ff9	-0.04643247
46	0x3e7a6490	0.24452424
47	0x3e1f51a1	0.15558483
48	0xbce9955a	-0.0285136
49	0xbdf06241	-0.117374904
50	0x3e2a1b98	0.16612089
51	0x3e4f6e6b	0.20256965
52	0xbdf918fc	-0.121629685
53	0xbe2b44fd	-0.16725536
54	0xbe23a617	-0.15981327
55	0x3cc43b86	0.023954164
56	0xbd1660d8	-0.03671345
57	0xbe4865be	-0.19570062
58	0x3e31495f	0.17313145
59	0x3dc64e32	0.09682883
60	0xbce76132	-0.028244589
61	0xbc8e865c	-0.017398052
62	0xbadfe9f7	-0.0017083277
63	0xbe2e1495	-0.17000039
64	0xbebb40ee	-0.36572975
65	0x3e8b869c	0.27251136
66	0xbcacd32d	-0.02109679
67	0xbce07853	-0.027401125
68	0x3db1b169	0.086764164
69	0xbdef6724	-0.116895944
70	0x3e135b25	0.14390238
71	0xbdc43b48	-0.095816195
72	0x3e29bd5d	0.16576143
73	0x3e73f7fe	0.2382507
74	0x3d9006e1	0.07032562
75	0x3ccac00a	0.024749774
76	0xbe632dfb	-0.22185509
77	0x3d784335	0.06061097
78	0xbe9733f7	-0.29531834
79	0x3d9684a5	0.07349519
80	0x3e6b5c7e	0.22984502
81	0x3e84b350	0.25918055
82	0x3d861589	0.06547076
83	0xbb2424dc	-0.0025046384
84	0xbd7ff2e0	-0.062487483
85	0x3df32a14	0.1187326
86	0xbe034100	-0.12817764
87	0x3c1834be	0.0092899185
88	0xbd9104db	-0.07081004
89	0x3d0e66e7	0.034766104
90	0x3e8604af	0.26175448
91	0xbd70bb03	-0.0587721
92	0x3e242f1b	0.16033594
93	0x3e3b812a	0.18310991
94	0x3e47bed7	0.19506393
95	0xbdfa899c	-0.12233278
96	0xbd2ddef7	-0.042448964
97	0x3dd3ad2a	0.10335763
98	0x3d2e1867	0.04250374
99	0x3d2ba547	0.041905668
100	0xbdee5969	-0.116381474
101	0x3e243136	0.16034397
102	0x3c8892ca	0.016671557
103	0x3e377e29	0.1791922
104	0xbe8d9b4d	-0.27657548
105	0xbea0a92c	-0.31379068
106	0xbe4aff9e	-0.19824073
107	0xbe3b24ef	-0.18275808
108	0x3d81d467	0.06339341
109	0xbd145be3	-0.036220443
110	0x3dbf243b	0.09333082
111	0xbc6425bf	-0.013925015
112	0xbd99bde5	-0.07506923
113	0x3e82900e	0.2550053
114	0xbcab9cbe	-0.020948764
115	0xbe1a0045	-0.15039165
116	0x3e80a5d3	0.25126514
117	0x3c32ac32	0.010905312
118	0xbe108ff6	-0.14117417
119	0xbe57d158	-0.21075952
120	0xbe55e755	-0.20889027
121	0xbe0ba5d8	-0.13637483
122	0xbda5176a	-0.080611065
123	0x3e1c2055	0.15246709
124	0x3e18c98c	0.14920634
125	0x3e92bb5d	0.28658572
126	0x3e0f3992	0.13986805
127	0x3d9c165c	0.07621452
128	0xbd3982f3	-0.0452909
129	0x3e8d2591	0.27567723
130	0x3db1db8a	0.08684452
131	0xbd5322f8	-0.05154702
132	0x3c1a0264	0.009399984
133	0xbe1eeaea	-0.155193
134	0x3eb18608	0.3467257
135	0xbdfc128d	-0.12308226
136	0xbd9c5ddc	-0.0763509
137	0x3d4a98db	0.04946218
138	0xbdef23d2	-0.11676754
139	0x3e4ef27c	0.20209688
140	0xbe465711	-0.1936915
141	0x3e1496a8	0.14510596
142	0x3deb7d71	0.114985354
143	0x3db8f6ae	0.090314254
144	0xbe5a0357	-0.21290337
145	0xbe0de39f	-0.13856362
146	0xbec054c4	-0.3756467
147	0xbddfc79d	-0.10926745
148	0x3d8d9eda	0.06915064
149	0x3e5a5ee9	0.21325268
150	0x3e1d3829	0.15353455
151	0xbcecaaca	-0.028890032
152	0xbe5a8df9	-0.21343221
153	0xbe284cc4	-0.16435534
154	0x3d77c6fc	0.0604925
155	0x3e0a1254	0.13483554
156	0x3dea80a3	0.11450317
157	0xbc84d66c	-0.016215526
158	0xbd473092	-0.048630305
159	0x3ead7c1a	0.33883744
160	0x3c8da790	0.017291814
161	0xbd2538dd	-0.040337432
162	0xbe16b591	-0.147177
163	0x3e04bf46	0.1296359
164	0xbb5fc897	-0.003414666
165	0xbe366129	-0.17810501
166	0xbe16e13b	-0.14734356
167	0xbd0540ab	-0.032532375
168	0xbd3125cc	-0.043248937
169	0xbdb2b4c1	-0.08725882
170	0x3e6664fa	0.22499457
171	0x3e25a730	0.16177058
172	0x3e7ccafa	0.24686804
173	0xbc8038b0	-0.01565203
174	0x3ea8b3ab	0.32949576
175	0xbe38d20b	-0.18048875
176	0xbea5ef2e	-0.32409042
177	0x3e359efe	0.17736432
178	0xbd8ceb6b	-0.0688084
179	0x3dfbe1c6	0.12298922
180	0x3e85bdf2	0.2612148
181	0x3d756d6e	0.059918813
182	0x3dbd9c66	0.09258346
183	0xbdcb444e	-0.099251375
184	0x3e8ea372	0.27859074
185	0x3d70e102	0.058808334
186	0x3e83a953	0.25715122
187	0x3dd8cd9a	0.105860904
188	0x3d33d379	0.043902848
189	0x3e689090	0.22711396
190	0x3c397a73	0.011320698
191	0xbd6a55d0	-0.057210743

bias f4 [8]
0	0xbe3865cd	-0.18007584
1	0x3bebeca1	0.007199839
2	0x3c79dcfa	0.015250439
3	0x3db6b27e	0.089207634
4	0xbe02cb3d	-0.12772842
5	0xbc0d0ada	-0.008608544
6	0x3e98e12b	0.2985929
7	0xbd45c90b	-0.048287433

weight f4 [8]
0	0x3f772224	0.9653647
1	0x3f82a493	1.0206474
2	0x3f77d01a	0.9680191
3	0x3f814a5a	1.0100815
4	0x3f8fabcd	1.1224304
5	0x3f7338eb	0.95008725
6	0x3f8c96db	1.0983537
7	0x3f69e591	0.91365916

bias f4 [8]
0	0xbe826d1d	-0.25473872
1	0xbc171e4f	-0.009223535
2	0x3cf57b89	0.029966133
3	0x3e661bc8	0.22471535
4	0x3e1a0355	0.15040334
5	0x3e18d20e	0.1492388
6	0x3e6fd151	0.23419692
7	0xbe71efd4	-0.23626643

running_mean f4 [8]
0	0x3dbca709	0.09211547
1	0xbdfdbbd9	-0.12389345
2	0xbe44d9ba	-0.19223681
3	0x3f0197c3	0.50622195
4	0xbe98759a	-0.29777223
5	0x3e911653	0.28337345
6	0x3c052d07	0.008128411
7	0x3f083743	0.5320932

running_var f4 [8]
0	0x3e26bb87	0.16282474
1	0x3e8648bd	0.2622737
2	0x3e7cef3e	0.24700639
3	0x3e293011	0.16522242
4	0x3e4098da	0.18808308
5	0x3e9c76c8	0.30559373
6	0x3e4c71e4	0.19965321
7	0x3f059dc3	0.5219385

weight f4 [8, 8, 3]
0	0x3e0f6dae	0.14006683
1	0xbe70e437	-0.23524557
2	0xbe333d53	-0.17503862
3	0xbd4a7fcb	-0.04943828
4	0x3dbb7891	0.091538556
5	0x3dd8f162	0.10592915
6	0x3dadca32	0.08485831
7	0xbd292427	-0.041294243
8	0x3d825184	0.06363204
9	0x3e5365fa	0.2064437
10	0xbc599e90	-0.013282433
11	0x3e025e97	0.12731396
12	0x3e1466c4	0.14492327
13	0xbe503bf9	-0.20335378
14	0xbe5939ab	-0.21213405
15	0xbe36a50f	-0.17836402
16	0xbe5c37c0	-0.21505642
17	0x3cd5c0f9	0.026092993
18	0x3ea08e54	0.31358588
19	0xbde1dcdd	-0.110284545
20	0xbec1730a	-0.3778308
21	0xbe165083	-0.1467915
22	0xbd21fd73	-0.03954835
23	0xbc3e6475	-0.0116206305
24	0x3d449b8c	0.047999904
25	0xbd90f840	-0.070786
26	0x3e80594d	0.2506813
27	0x3c47cf40	0.012195408
28	0x3b6faa44	0.0036569992
29	0x3d321009	0.043472324
30	0xbde31ce9	-0.110894985
31	0xbe734f86	-0.23760805
32	0x3e6701bf	0.2255926
33	0x3e0a84a0	0.13527155
34	0x3dedcc74	0.11611262
35	0x3e0bdfa5	0.13659532
36	0xbe768c9b	-0.24077074
37	0xbda003aa	-0.07813199
38	0x3e5c9f16	0.21545061
39	0xbe631613	-0.2217639
40	0x3e36a28f	0.17835449
41	0x3e317401	0.17329408
42	0xbca7cb55	-0.020482698
43	0x3d92d32e	0.071691856
44	0xbdf16e06	-0.117885634
45	0xbe4dfbf5	-0.20115645
46	0x3e5b20bf	0.2139921
47	0xbdbcfbb2	-0.092276946
48	0xbe2665a3	-0.16249709
49	0x3caf8cff	0.021429537
50	0xbdb93c5d	-0.090447165
51	0x3e00799a	0.12546387
52	0x3ca5fd8a	0.020262498
53	0xbe3b84bd	-0.18312354
54	0xbe360163	-0.17773966
55	0xbe1269e7	-0.14298211
56	0xbe440bd3	-0.19145136
57	0xbea588e3	-0.32331
58	0xbcc3b15d	-0.023888284
59	0xbeb89828	-0.36053586
60	0x3daf383e	0.08555649
61	0x3e3b02f9	0.18262853
62	0xbe7147eb	-0.23562591
63	0x3e22b8d8	0.15890825
64	0x3d499ee3	0.04922379
65	0xbd0c0f6a	-0.034194387
66	0xbb486fa6	-0.0030584126
67	0x3dd14ad8	0.102193534
68	0xbe1f4c58	-0.15556467
69	0x3e0e03d7	0.13868652
70	0x3a314076	0.00067616196
71	0xbd6216f9	-0.05519769
72	0xbdd61d86	-0.1045485
73	0xbd8a8495	-0.06763569
74	0x3d8269dc	0.06367847
75	0x3e29ab87	0.16569339
76	0xbb9fd3cf	-0.0048775445
77	0x3e552f9a	0.2081894
78	0xbc88aaab	-0.016682943
79	0x3d889b7b	0.066702805
80	0x3e063dd9	0.1310953
81	0x3e7a029c	0.24415058
82	0x3d00b138	0.03141901
83	0x3e80875a	0.25103265
84	0xbecf3b21	-0.404748
85	0xbe181a0f	-0.1485369
86	0x3cf491f3	0.02985475
87	0xbd0a558c	-0.03377299
88	0xbd893da9	-0.06701214
89	0xbe71897b	-0.23587601
90	0xbe1c14c8	-0.15242302
91	0xbeb9005f	-0.36133096
92	0xbbda3e21	-0.0066602384
93	0xbd8642ac	-0.065556854
94	0xbdd09186	-0.101840064
95	0xbe47ef66	-0.19524917
96	0xbe4d1e5f	-0.20031117
97	0xbdfd4212	-0.123661175
98	0xbb36c748	-0.0027889777
99	0xbc83b9f3	-0.016079878
100	0xbe4458ef	-0.1917455
101	0x3de106c4	0.109876186
102	0xbc207a38	-0.009794764
103	0xbd3c8f2f	-0.046034988
104	0xbdb34b85	-0.087546386
105	0xbe6f3a33	-0.23362045
106	0xbc6d3149	-0.0144770825
107	0xbe5d427b	-0.21607392
108	0x3dc39368	0.095496
109	0xbe8c43fc	-0.27395618
110	0x3e497c1e	0.19676253
111	0xbe32df07	-0.1746789
112	0xbe668e58	-0.22515237
113	0xbe11b63b	-0.14229672
114	0xbc9663ed	-0.018358195
115	0xbe201e06	-0.15636453
116	0xbdb9ef92	-0.090788975
117	0x3dc9de48	0.0985685
118	0xbe054296	-0.13013682
119	0xbe3d7ad5	-0.18503888
120	0xbdbc6a89	-0.092000075
121	0xbe52c59d	-0.20583196
122	0xbd2d6b8e	-0.0423389
123	0xbef8ed8d	-0.48618737
124	0x3e95580c	0.29168737
125	0xbdd1aaef	-0.10237681
126	0x3d9048e7	0.07045155
127	0xbe92bf64	-0.28661644
128	0x3db01750	0.085981965
129	0x3c0c3272	0.008556949
130	0x3d475fc5	0.048675317
131	0xbe2d23e4	-0.16908222
132	0xbe98eda2	-0.298688
133	0xbcdc67c9	-0.026904957
134	0xbde5ff1f	-0.11230301
135	0x3d755ec0	0.059904814
136	0xbded680d	-0.11592112
137	0xbe02e683	-0.12783246
138	0xbe7d6ec7	-0.2474929
139	0x3c0b747d	0.00851166
140	0xbdc1c0bc	-0.09460589
141	0x3e10c39b	0.14137118
142	0xbda67906	-0.08128552
143	0xbc2ee047	-0.010673589
144	0x3e12b218	0.1432575
145	0xbdbfd731	-0.093672164
146	0xbe5cbda9	-0.21556725
147	0xbe3a0ef5	-0.18169768
148	0xbe2662ac	-0.16248578
149	0x3d263dad	0.040586162
150	0x3d060973	0.032723855
151	0x3d86e11c	0.06585905
152	0x3dadc0ae	0.08484016
153	0xbe30f976	-0.17282662
154	0xbd5bb7c7	-0.05364206
155	0xbe2da1b1	-0.16956212
156	0x3e456221	0.19275714
157	0x3ea6be29	0.32566956
158	0xbd8e5060	-0.06948924
159	0x3e26d55f	0.16292332
160	0x3de06078	0.109559
161	0xbd863fa7	-0.065551095
162	0x3e6dc0b8	0.23218048
163	0x3d5a41c6	0.053285383
164	0x3e58f648	0.21187699
165	0xbe720cf6	-0.23637757
166	0xbe00c097	-0.12573467
167	0xbe274bc9	-0.16337503
168	0xbdacbf20	-0.08434892
169	0xbe08b4f0	-0.13350272
170	0xbe72d72e	-0.23714897
171	0x3e193c30	0.14964366
172	0x3cca7624	0.024714537
173	0xbd10dbd5	-0.0353659
174	0x3e6a241e	0.2286534
175	0x3e2b325d	0.16718431
176	0xbd2a1cd2	-0.04153139
177	0xbe8aad03	-0.27085122
178	0xbdd554c5	-0.10416559
179	0x3d1eca5a	0.038767196
180	0xbe40d332	-0.18830565
181	0xbd830f4b	-0.06399401
182	0xbd94a869	-0.07258684
183	0xbcdfb9e2	-0.027310316
184	0x3e15ddcf	0.14635395
185	0x3e817b95	0.25289598
186	0x3d6eba56	0.058283173
187	0xbcf8447e	-0.030306097
188	0x3e336a34	0.17520982
189	0xbe102bb3	-0.1407917
190	0xbdbca78a	-0.09211643
191	0x3bef8bd6	0.007310371

bias f4 [8]
0	0xbc85b1f8	-0.016320214
1	0x3e5d9f61	0.2164283
2	0xbe9c8be0	-0.30575466
3	0x3da273a5	0.07932214
4	0x3d8fb76c	0.07017407
5	0x3dab464b	0.08363017
6	0x3e439804	0.19100958
7	0x3e59620a	0.21228805

weight f4 [8]
0	0x3f75afd2	0.95971406
1	0x3f58f9e8	0.84756327
2	0x3f73b14a	0.95192397
3	0x3f7de1ac	0.9917247
4	0x3f85845f	1.0431021
5	0x3f9677a2	1.1755259
6	0x3f88d4e5	1.068997
7	0x3f745b60	0.9545193

bias f4 [8]
0	0x3e5aa246	0.21350965
1	0x3d4dcd10	0.05024439
2	0xbd0970b2	-0.03355474
3	0x3e332063	0.17492823
4	0x3eab5888	0.3346598
5	0x3e2335c2	0.15938476
6	0x3d3bf541	0.04588819
7	0x3e217fb4	0.15771371

running_mean f4 [8]
0	0xbe8e20df	-0.27759454
1	0x3ebfc688	0.37456155
2	0xbf42840c	-0.7598274
3	0xbe8b6542	-0.2722569
4	0xbf2b6f9b	-0.6696717
5	0xbf1d478b	-0.6143729
6	0x3eb2b556	0.34903973
7	0x3e003cb3	0.12523155

running_var f4 [8]
0	0x3ea7c3b0	0.32766485
1	0x3e5035aa	0.20332971
2	0x3ea6d5ef	0.32585093
3	0x3ec9f98e	0.39448208
4	0x3f2df4a5	0.6795142
5	0x3eeef9b7	0.46674892
6	0x3e89a4fa	0.2688368
7	0x3e66cb26	0.22538432

weight f4 [8, 8, 3]
0	0x3e2c595f	0.16830967
1	0x3e6399ab	0.22226588
2	0x3e650142	0.22363761
3	0x3e031c2d	0.12803717
4	0xba4cca6a	-0.00078121445
5	0x3d6ea985	0.058267135
6	0xbdb760f0	-0.08954036
7	0xbe1f07af	-0.15530275
8	0xbe1235fa	-0.14278403
9	0xbe0f908b	-0.14019983
10	0xbded40ab	-0.115846
11	0xbd542024	-0.051788464
12	0xbe041b4a	-0.12901035
13	0xbbe6d625	-0.007044571
14	0x3d24148e	0.040058665
15	0x3e824316	0.25441808
16	0x3dfada12	0.12248625
17	0xbd87b2ee	-0.06625925
18	0x3e83c8de	0.25739187
19	0x3d42d7e7	0.04756918
20	0xbe3624b6	-0.17787442
21	0x3d73835c	0.059451446
22	0xbe14596a	-0.14487234
23	0xbcba34b4	-0.022730209
24	0xbe4039fb	-0.18772118
25	0xbe81df33	-0.253656
26	0xbe5a344f	-0.21309017
27	0xbe317c61	-0.17332603
28	0x3d93e985	0.07222275
29	0x3e1e35ae	0.15450165
30	0xbe6a36ee	-0.22872517
31	0xbcb5d763	-0.022197431
32	0xbe79cd39	-0.24394692
33	0xbe147c8f	-0.1450064
34	0xbdab3d54	-0.08361307
35	0x3e1235b2	0.14278296
36	0x3e08dde4	0.13365895
37	0xbe85c4f3	-0.26126823
38	0x3e403597	0.18770443
39	0xbe0c3bad	-0.1369464
40	0x3d578256	0.052614532
41	0xbe78cc8d	-0.2429678
42	0x3d5cdd18	0.05392179
43	0x3dbd828a	0.09253414
44	0x3d705c73	0.058681916
45	0xbd4a95d3	-0.04945929
46	0x3d7a0355	0.061038334
47	0xbdd5ce4f	-0.10439741
48	0xbdc62002	-0.09674074
49	0x3d79b7eb	0.060966413
50	0x3d31ec43	0.043438207
51	0x3da47f8c	0.0803214
52	0x3e2db8d9	0.16965045
53	0x3d980588	0.0742293
54	0xbd9323ad	-0.07184539
55	0x3e7874a1	0.2426324
56	0x3c73bb8c	0.014876258
57	0xbe119755	-0.14217885
58	0xbdd68678	-0.10474867
59	0xbe159ca9	-0.14610542
60	0xbe62e0fe	-0.2215614
61	0xbdf725e7	-0.12067776
62	0xbead1269	-0.33803108
63	0xbd2fb8c3	-0.042900812
64	0x3e5cf98e	0.21579573
65	0x3b5dee11	0.0033863822
66	0x3e8fdcac	0.28098047
67	0xbd16b534	-0.036793903
68	0x3d808c4a	0.06276758
69	0x3e579d03	0.21055989
70	0x3de4fece	0.11181413
71	0x3e98fdbc	0.29881084
72	0xbda0a567	-0.07844048
73	0xbe1fb1c5	-0.15595157
74	0xbe13b18d	-0.14423199
75	0xbe8550fa	-0.26038343
76	0xbe9fc9fc	-0.3120879
77	0xbd44c9c7	-0.048043992
78	0x3ddee3fb	0.108833276
79	0x3c79ce4b	0.015246938
80	0xbdefcf5e	-0.11709474
81	0x3c8277e7	0.015926315
82	0xbe145b0a	-0.14487854
83	0xbdfcd6c3	-0.1234565
84	0x3ddd7068	0.108124554
85	0x3e771862	0.24130395
86	0x3dae8cda	0.08522959
87	0x3e70f356	0.23530325
88	0xbebe524c	-0.37172163
89	0xbd9a8912	-0.07545675
90	0xbdd4d6ce	-0.10392533
91	0xbe281339	-0.16413583
92	0xbdae153f	-0.08500146
93	0xbb7b901c	-0.0038385456
94	0x3d9b990e	0.07597552
95	0xbe1fc84c	-0.15603751
96	0x3dff974b	0.12480029
97	0x3db510fa	0.08841129
98	0xbe635651	-0.22200896
99	0x3d30001e	0.04296886
100	0x3ded0a7c	0.11574265
101	0x3e163d13	0.14671735
102	0xbcb8ff31	-0.022582622
103	0x3e352981	0.17691614
104	0x3e339619	0.17537726
105	0x3da6f69c	0.08152506
106	0x3dc7c960	0.09755206
107	0xbe65f523	-0.22456793
108	0xbd2c96c3	-0.042135965
109	0x3e45f725	0.1933256
110	0xbd299d87	-0.041409995
111	0xbe3aca0c	-0.18241137
112	0xbe23b20f	-0.15985893
113	0xbdb5113b	-0.08841177
114	0x3d653d23	0.055966508
115	0x3e91dafd	0.28487387
116	0x3ec86b70	0.39144468
117	0x3d1aded1	0.03781015
118	0x3df5736c	0.119849056
119	0xbe6dce8f	-0.23223327
120	0x3e40757e	0.1879482
121	0x3cbf8205	0.023377428
122	0x3c6e2274	0.014534581
123	0x3df76567	0.12079888
124	0xbe1b2355	-0.15150197
125	0xbbbcab74	-0.0057577435
126	0x3d8fbb0f	0.070181005
127	0xbe8b62a6	-0.272237
128	0x3d9fdfa3	0.07806327
129	0x3e3a66a9	0.18203224
130	0xbde5154a	-0.11185701
131	0x3eb98139	0.36231402
132	0xbea5c682	-0.32378012
133	0x3ceb7bd1	0.028745564
134	0xbea3f472	-0.32022434
135	0xbc6f8457	-0.014618955
136	0x3e78b22b	0.24286716
137	0xbbf70dcf	-0.007539488
138	0xbd87b309	-0.06625945
139	0x3db9fa1a	0.09080906
140	0x3d94c5f9	0.07264323
141	0xbcab4101	-0.02090502
142	0xbdbd150c	-0.0923253
143	0x3dd15b64	0.102225095
144	0x3de5c85a	0.11219855
145	0x3d9c620b	0.07635888
146	0x3e51651a	0.20448723
147	0xbdc10152	-0.0942408
148	0x3da8227f	0.082097046
149	0xbe019b4f	-0.12656902
150	0x3dae789c	0.08519098
151	0xbdfbbc83	-0.12291815
152	0xbdbb083c	-0.0913243
153	0x3e4e35bb	0.20137684
154	0x3ddfd495	0.10929219
155	0x3c25e3d0	0.0101251155
156	0x3c5008c3	0.012697401
157	0xbe82b910	-0.25531816
158	0x3ba37001	0.004987717
159	0x3df1ca4f	0.118061654
160	0x3e531102	0.20611957
161	0x3dc3ef6d	0.09567151
162	0xbd11a626	-0.035558842
163	0xbe62f3d0	-0.2216332
164	0xbb91937c	-0.0044426303
165	0x3cd618c3	0.026134854
166	0xbe3060e9	-0.17224468
167	0xbe88423a	-0.26613027
168	0x3d893019	0.06698627
169	0xbdd9b4c5	-0.10630182
170	0xbe56dd5b	-0.20982878
171	0xbdb22953	-0.08699288
172	0x3c4fab6b	0.012675147
173	0xbe34d32f	-0.17658685
174	0x3ec45f0e	0.3835377
175	0xbc30b8a7	-0.010786212
176	0x3ced5b8a	0.028974313
177	0xbe1dda7a	-0.15415373
178	0xbd0c1de2	-0.034208186
179	0xbd0cb4a6	-0.034351967
180	0x3cd8cc41	0.026464583
181	0x3e110d7a	0.14165297
182	0x3e9813db	0.2970265
183	0xbe3e2607	-0.18569194
184	0xbd94af07	-0.07259946
185	0x3e8ee235	0.27906957
186	0x3e5a692d	0.21329184
187	0xbd87d27d	-0.06631944
188	0xbdcdaa49	-0.10042245
189	0x3e78d632	0.24300459
190	0x3e0d4538	0.13795936
191	0xbe2b4e08	-0.16728985

bias f4 [8]
0	0x3dc41b8d	0.095755674
1	0x3d35f0de	0.044419162
2	0x3e45505e	0.19268939
3	0x3e183042	0.14862159
4	0x3d90e4a9	0.070748635
5	0xbe4d5e25	-0.20055445
6	0x3e3ab3df	0.18232678
7	0x3d96f9d3	0.07371869

weight f4 [8]
0	0x3f59fbb2	0.8514968
1	0x3f89e31d	1.0772434
2	0x3f6b242a	0.91852057
3	0x3f8be8d6	1.0930431
4	0x3f7b1723	0.9808218
5	0x3f893c8f	1.0721606
6	0x3f82f8ef	1.0232219
7	0x3f8a15c7	1.0787896

bias f4 [8]
0	0x3e2aa5d6	0.16664824
1	0xbd64a5ac	-0.05582206
2	0x3dbbe56a	0.09174617
3	0x3e6e533b	0.23273937
4	0x3d33b6bc	0.04387544
5	0x3cdba308	0.026811138
6	0x3e2b95ce	0.16756365
7	0x3e5e5133	0.21710663

running_mean f4 [8]
0	0x3e8d291e	0.27570432
1	0xbf00ddee	-0.5033864
2	0x3e722691	0.23647524
3	0xbe9fd85a	-0.3121975
4	0x3e9cab17	0.3059928
5	0xbe3b6336	-0.18299565
6	0x3e63f91e	0.22263
7	0x3e983b92	0.2973295

running_var f4 [8]
0	0x3e0252ed	0.12726946
1	0x3e3211b7	0.1738957
2	0x3f01047e	0.5039748
3	0x3ed22e77	0.41051075
4	0x3e8e93c1	0.27847102
5	0x3e49bedc	0.19701713
6	0x3e788b48	0.24271882
7	0x3ea153e9	0.3150933

weight f4 [8, 8, 3]
0	0x3c395604	0.011312012
1	0x3cd93212	0.026513133
2	0x3dd863b1	0.105658896
3	0xbc3eacc6	-0.011637872
4	0x3c1d0a00	0.009584904
5	0xbdbcf6dd	-0.09226773
6	0x3e1af10b	0.15131013
7	0x3d2a5f9e	0.041595094
8	0xbe82ff07	-0.25585195
9	0xbe0ba54c	-0.13637275
10	0x3e748bde	0.2388148
11	0xbc59c57f	-0.013291716
12	0xbda4588a	-0.080247
13	0xbdd7e95d	-0.105425574
14	0xbe4998e9	-0.19687237
15	0x3e4196cd	0.18905182
16	0xbe3ea61f	-0.18618058
17	0x3e4e428b	0.20142572
18	0xbe16b005	-0.14715584
19	0x3e4338b4	0.190646
20	0x3e341067	0.17584382
21	0x3dac51d4	0.08414045
22	0x3e065542	0.13118461
23	0xbcb84160	-0.02249211
24	0xbe2d1a90	-0.16904664
25	0x3e363bc9	0.17796244
26	0x3dff4e86	0.12466149
27	0x3e1733bd	0.1476583
28	0xbe8382da	-0.2568577
29	0x3e4897e9	0.19589199
30	0x3dbfab60	0.09358859
31	0x3e6a8e89	0.22905935
32	0xbd79c59c	-0.06097947
33	0xbb74a757	-0.0037331188
34	0xbdee3990	-0.11632073
35	0xbe075aa8	-0.13218176
36	0x3d66cd67	0.05634823
37	0xbe2ff708	-0.17184079
38	0x3ba5b125	0.0050565177
39	0xbd9d5426	-0.07682066
40	0xbe0259e6	-0.12729606
41	0x3e18a3de	0.1490626
42	0xbd14c434	-0.036319926
43	0x3df8cd63	0.121485494
44	0xbdc02149	-0.09381349
45	0x3e0647ad	0.1311328
46	0xbddc1bca	-0.10747488
47	0xbe957fbb	-0.29199013
48	0xbe37e1c1	-0.17957212
49	0xbb75327a	-0.003741412
50	0x3cbcdb08	0.023053661
51	0xbd418eef	-0.047255453
52	0xbd76b25d	-0.060228694
53	0xbda661a1	-0.0812409
54	0x3cf3cc92	0.029760633
55	0x3e3240b9	0.17407502
56	0xbe69d62a	-0.22835603
57	0xbe5d9932	-0.2164047
58	0xbd86ef61	-0.06588627
59	0xbe3624d8	-0.17787492
60	0xbd898690	-0.06715119
61	0x3db6c058	0.089234054
62	0xbe130155	-0.14355977
63	0x3dc48cd1	0.09597171
64	0xbe1be51b	-0.15224116
65	0xbe6433bb	-0.22285359
66	0xbc8e4d3b	-0.01737081
67	0xbcb84b19	-0.022496747
68	0x3d068697	0.0328432
69	0x3ea6e3da	0.32595712
70	0xbed2d3b2	-0.41177136
71	0xbe28fed3	-0.16503458
72	0x3c80f798	0.015743062
73	0xbccb3758	-0.024806663
74	0xbdfda6ed	-0.12385354
75	0x3cba235a	0.022721935
76	0xbd9ef2be	-0.07761143
77	0xbe626a72	-0.22110918
78	0x3debc842	0.115128055
79	0xbd5a4956	-0.053292595
80	0xbe25bc50	-0.16185117
81	0x3c74b7c8	0.014936395
82	0x3e9f18b0	0.31073523
83	0x3e104ea5	0.140925
84	0x3d77c56e	0.060491018
85	0xbe339afd	-0.17539592
86	0xbe949305	-0.29018417
87	0x3e449fa8	0.19201529
88	0xbe2693b2	-0.16267279
89	0x3e84a576	0.25907487
90	0xbc7c79de	-0.015409915
91	0x3e043d6f	0.1291406
92	0x3e305e94	0.17223579
93	0xbdc70dfd	-0.09719465
94	0x3db2f964	0.08738974
95	0x3debb515	0.11509148
96	0xbe329129	-0.17438187
97	0x3dd90f6c	0.105986446
98	0x3d0474d6	0.032337986
99	0x3e7a5d65	0.2444969
100	0x3d133a31	0.035944168
101	0xbee97ad2	-0.45601517
102	0xbbd755ed	-0.0065715224
103	0xbdc34bfb	-0.095359765
104	0xbdecb845	-0.11558584
105	0xbde28c7b	-0.11061951
106	0x3dd51bfa	0.10405727
107	0xbe3ae2ac	-0.18250531
108	0x3df94708	0.12171751
109	0x3da69410	0.081337094
110	0xbe0e9385	-0.13923462
111	0xbe9ca18f	-0.3059201
112	0xbe333f58	-0.17504632
113	0x3c2f3191	0.01069297
114	0xbe0c41ec	-0.13697022
115	0xbcb6c6ca	-0.022311587
116	0xbc6fc3f4	-0.014634121
117	0xbd502066	-0.050812148
118	0xbddf04a2	-0.108895555
119	0x3e2e0e85	0.16997726
120	0xbd92dafe	-0.07170676
121	0x3dbb0f72	0.09133805
122	0x3e0f73f4	0.14009076
123	0x3c0e38af	0.008680507
124	0xbd94a873	-0.07258692
125	0xbdd7a9c7	-0.10530429
126	0x3e48232e	0.1954467
127	0xbd950173	-0.07275667
128	0x3d767601	0.06017113
129	0xbee60c8b	-0.44931445
130	0xbe6c949c	-0.23103565
131	0xbe3c5bbc	-0.18394369
132	0x3e13b78e	0.1442549
133	0xbe30475d	-0.17214723
134	0xbe2add57	-0.16685997
135	0xbd51cdb2	-0.051221557
136	0xbd257275	-0.040392358
137	0x3e12cdb4	0.14336282
138	0xbe4647e6	-0.19363365
139	0xbc183eed	-0.009292346
140	0xbd5097ea	-0.050926127
141	0x3dd69d2f	0.10479199
142	0xbd3e422b	-0.04644982
143	0xbeab6e2d	-0.33482495
144	0xbdb7ec62	-0.08980633
145	0x3d42fe95	0.04760607
146	0x3d33724d	0.043810178
147	0x3d151a64	0.03640212
148	0x3d1b3061	0.037887935
149	0xbd496cd7	-0.049176063
150	0x3de0f8f9	0.10984988
151	0x3c45493a	0.012041384
152	0xbe84de56	-0.2595088
153	0xbeccce24	-0.40001023
154	0xbdef6562	-0.11689259
155	0xbdecd512	-0.115640774
156	0x3e3792e6	0.17927131
157	0x3d162b3b	0.03666232
158	0xbe773569	-0.24141468
159	0xbc3071be	-0.010769306
160	0xbdbd6fc6	-0.09249835
161	0x3e32265c	0.17397445
162	0xbe9ad864	-0.30243218
163	0x3e40270d	0.18764897
164	0x3e3676dc	0.17818779
165	0xbd8ad671	-0.06779183
166	0xbe31af0c	-0.17351931
167	0x3cb68afd	0.022283072
168	0xbeb25302	-0.34828955
169	0xbdaf2eb5	-0.085538305
170	0xbe15c5ca	-0.14626232
171	0x3d9014e9	0.07035238
172	0xbda648f1	-0.08119381
173	0xbe415243	-0.18879037
174	0x3d15c2d2	0.03656275
175	0x3dbec831	0.09315527
176	0x3d886097	0.06659048
177	0xbe2060d5	-0.15661938
178	0xbe222433	-0.15834121
179	0xbe1fe735	-0.15615542
180	0x3e8901e1	0.26759246
181	0xbda7f50a	-0.08201034
182	0xbcfcd49c	-0.030863099
183	0xbe2163d1	-0.15760733
184	0xbe3c0469	-0.18361057
185	0x3e70a411	0.23500086
186	0xbe273537	-0.16328894
187	0xbd70d732	-0.058798976
188	0xbe656652	-0.22402313
189	0xbd22deb8	-0.039763182
190	0xbcd8a323	-0.026444977
191	0xbd022ab1	-0.031778995

bias f4 [8]
0	0x3debcfef	0.115142696
1	0x3da1348c	0.07871351
2	0xbceddc74	-0.029035784
3	0xbe4adef7	-0.19811617
4	0x3defd79f	0.11711048
5	0xbe902bd7	-0.28158447
6	0xbdd7ccb2	-0.105370894
7	0xbdca3af0	-0.09874523

weight f4 [8]
0	0x3f247ee8	0.64256144
1	0x3f1be17a	0.60890925
2	0x3f3651de	0.7121867
3	0x3f45e29b	0.772989
4	0x3f55790b	0.8338782
5	0x3f1dbbd2	0.61614716
6	0x3f551685	0.8323749
7	0x3f39ba1d	0.7254961

bias f4 [8]
0	0xbe9473d1	-0.2899461
1	0xbeda20ba	-0.42603093
2	0xbe4204aa	-0.18947092
3	0xbef0e3f3	-0.4704891
4	0xbe7c9aba	-0.24668398
5	0xbe8b6dd0	-0.27232218
6	0xbe8a9762	-0.2706862
7	0xbeac2919	-0.33625105

running_mean f4 [8]
0	0x3e9bf43a	0.30459768
1	0xbd9b5e98	-0.07586402
2	0xbf387599	-0.7205444
3	0x3c3e291f	0.011606484
4	0xbec8d057	-0.3922145
5	0xbf7fad3b	-0.99873704
6	0xbf0eb765	-0.5574859
7	0xbf56f8ef	-0.8397359

running_var f4 [8]
0	0x3e8971e0	0.26844692
1	0x3e7a674a	0.24453464
2	0x3e8201ba	0.25391942
3	0x3eb495fc	0.3527068
4	0x3e93bbd8	0.2885425
5	0x3eb25a7a	0.34834653
6	0x3e4e97b1	0.20175053
7	0x3e956f14	0.29186308

weight f4 [128, 25]
0	0x3e502e09	0.20330061
1	0x3dcd9ea1	0.10040022
2	0x3d2294a6	0.039692543
3	0xbdaef6f4	-0.08543196
4	0x3c34f754	0.011045296
5	0x3e79cec8	0.24395287
6	0x3da0498f	0.0782653
7	0x3dd9950c	0.106241316
8	0x3cf79cd9	0.030226158
9	0x3e5a431c	0.21314663
10	0x3e7c5186	0.24640474
11	0x3d920e29	0.07131607
12	0x3dfb1fce	0.12261926
13	0x3e2a6831	0.16641308
14	0x3e1a6250	0.15076566
15	0xbd385d1a	-0.045010664
16	0xbd2834c2	-0.04106594
17	0xbdfde4f5	-0.12397186
18	0xbe0e5748	-0.13900483
19	0xbe371689	-0.1787969
20	0xbcae8bd2	-0.021306906
21	0xbe092001	-0.13391115
22	0xbdbef650	-0.09324324
23	0x3dbf038a	0.09326847
24	0xbdaa2f3d	-0.08309791
25	0xbdfe52de	-0.124181494
26	0xbe19e207	-0.15027629
27	0xbe7dc544	-0.24782282
28	0xbe7009c5	-0.23441227
29	0xbe8cb930	-0.27485037
30	0x3db3ab8b	0.087729536
31	0xbda77376	-0.08176319
32	0x3de6db1d	0.11272261
33	0x3e6064d9	0.2191347
34	0x3e423bed	0.18968172
35	0x3d9c4e24	0.07632092
36	0x3dae984b	0.08525141
37	0x3dce912e	0.100862846
38	0x3d37788d	0.0447927
39	0x3d9cad6d	0.07650266
40	0x3d5d890f	0.054085787
41	0x3afbe9f3	0.0019219503
42	0x3e02a90a	0.12759796
43	0x3e12bbd5	0.14329465
44	0xbeb8502b	-0.35998663
45	0xbe0526c5	-0.1300307
46	0xbe7c78b6	-0.24655423
47	0xbe83c89b	-0.25738987
48	0xbe147b5c	-0.14500183
49	0xbe6f1878	-0.23349178
50	0x3d237db3	0.039914798
51	0x3e0b8096	0.1362327
52	0x3d9fbaff	0.077993385
53	0xbbf5fdf1	-0.007507079
54	0x3e05c34d	0.13062783
55	0xb921a24f	-0.00015414621
56	0xbd843f08	-0.06457335
57	0xbbc706ad	-0.006073794
58	0x3e055552	0.13020828
59	0x3d57190b	0.052514117
60	0x3e34a6d4	0.17641765
61	0xbe86e590	-0.26347017
62	0x3dc96f3c	0.098356694
63	0xbd35b87c	-0.04436539
64	0x3d8017bf	0.06254529
65	0x3d4661e0	0.048433185
66	0x3b605ad8	0.0034233835
67	0x3e0584c4	0.13038927
68	0x3e0259bd	0.12729545
69	0x3de0d0be	0.109773144
70	0xbb641062	-0.0034799804
71	0x3d5d2432	0.053989597
72	0x3d091bbf	0.033473726
73	0xbe828e9f	-0.25499436
74	0xbdcab7e6	-0.09898357
75	0x3cd27927	0.025692536
76	0x3c76fe0b	0.015075217
77	0xbe14f7d0	-0.14547658
78	0x3e85ebbd	0.26156417
79	0x3e3d2fa4	0.18475205
80	0x3d5a6ee8	0.053328425
81	0x3da5641d	0.08075736
82	0x3e315203	0.17316441
83	0xbc8c95a0	-0.01716119
84	0x3da1bddf	0.07897543
85	0xbd3ea1f6	-0.046541177
86	0xbdc26eef	-0.09493815
87	0xbd291945	-0.041283865
88	0x3e07f548	0.13277161
89	0xbe32284e	-0.17398188
90	0xbe9344b8	-0.28763366
91	0x3e2eb124	0.17059761
92	0xbc38a2e6	-0.011269307
93	0xbe3fa3fa	-0.18714896
94	0xbe53f479	-0.20698728
95	0xbdceff08	-0.10107237
96	0x3d249945	0.04018523
97	0xbdec6a35	-0.11543695
98	0x3e7cac9e	0.24675223
99	0xbead1074	-0.33801615
100	0xbe0252b0	-0.12726855
101	0x3d928e1d	0.07156012
102	0xbcbe6454	-0.0232412
103	0xbe839f70	-0.2570758
104	0xbf04fa12	-0.51944077
105	0xbe7b59d7	-0.2454599
106	0xbe83664c	-0.25663984
107	0xbebc0ba3	-0.36727628
108	0x3eba6a22	0.36409098
109	0xbe1623a8	-0.1466204
110	0x3d0b9f7d	0.034087647
111	0xbe8570a7	-0.2606251
112	0x3dd0c49b	0.101937495
113	0x3d6f22c0	0.05838275
114	0xbe12c1be	-0.1433172
115	0x3dc86545	0.09784941
116	0x3e222d7c	0.15837663
117	0x3db104f1	0.086435206
118	0xbe6a618c	-0.22888774
119	0xbe24cf1b	-0.1609463
120	0xbe115500	-0.14192581
121	0xbe49daae	-0.19712326
122	0xbe896f83	-0.2684289
123	0xbe14e17c	-0.1453914
124	0xbddf2a44	-0.108967334
125	0xbdd1b7db	-0.10240146
126	0x3e1ecfc9	0.15508951
127	0x3e60d249	0.21955217
128	0xbe864598	-0.2622497
129	0x3d03c84a	0.032173432
130	0xbda071e1	-0.07834221
131	0x3e37751d	0.17915769
132	0xbc49830c	-0.01229931
133	0xbea8886a	-0.32916576
134	0xbe967d97	-0.29392692
135	0xbea6ab76	-0.3255269
136	0xbeadcfae	-0.3394751
137	0x3e8cbb00	0.2748642
138	0xbe229980	-0.15878868
139	0xbeb16aea	-0.3465188
140	0xbdd069c8	-0.10176426
141	0x3cb73c78	0.022367701
142	0xbe8d218f	-0.27564666
143	0xbda3de78	-0.08001417
144	0xbd7b0c89	-0.06129125
145	0x3dc5e0f8	0.0966205
146	0x3db93fa3	0.09045341
147	0x3dd6c0cc	0.10485992
148	0x3e46c379	0.19410504
149	0xbcda0189	-0.02661206
150	0xbe2635b8	-0.1623143
151	0x3d6c0fd9	0.0576323
152	0xbeb9363a	-0.36174184
153	0x3cfda8ba	0.030964244
154	0xbdf12131	-0.11773909
155	0xbd26505c	-0.04060398
156	0xbe3cee63	-0.18450312
157	0x3cd27bf1	0.025693865
158	0xbe837209	-0.2567294
159	0x3d1529d9	0.036416862
160	0xbd583142	-0.05278135
161	0x3ecbc6a6	0.39799994
162	0xbe8b5e75	-0.27220502
163	0xbe962bbb	-0.2933024
164	0xbde643d9	-0.1124341
165	0x3e83a0f3	0.25708732
166	0x3d851ace	0.06499253
167	0xbb780633	-0.0037845492
168	0x3bc4676f	0.0059937756
169	0x3e232cef	0.1593511
170	0x3d69f78d	0.05712085
171	0xbdfdd01e	-0.12393211
172	0xbd1fb724	-0.038993016
173	0xbe9f9cd4	-0.31174338
174	0xbd829330	-0.0637573
175	0x3a9a62b1	0.001177868
176	0x3e70a5e1	0.23500778
177	0x3dc20638	0.094738424
178	0xbd1feff1	-0.039047185
179	0xbe53cd2b	-0.20683734
180	0xbe8d6375	-0.27614942
181	0xbdd5b4aa	-0.104348496
182	0x3e9d5a76	0.3073308
183	0x3df00c92	0.117211476
184	0xbd003940	-0.031304598
185	0xbca45a65	-0.020062635
186	0xbea6a7f4	-0.32550013
187	0xba614620	-0.0008593518
188	0xbe4f9123	-0.20270209
189	0xbda61c83	-0.08110907
190	0x3e0ffb66	0.14060745
191	0x3dff7d3a	0.12475057
192	0x3d95b478	0.07309812
193	0xbdc846ba	-0.09779115
194	0x3e0831b4	0.1330021
195	0xbe8fb806	-0.28070086
196	0xbe8c766d	-0.27434102
197	0xbedcbe19	-0.43113783
198	0xbdc8eb06	-0.09810452
199	0x3c2161f4	0.009850014
200	0xbe2bc93f	-0.16775988
201	0x3d6aae0e	0.057294898
202	0x3e1d34b4	0.15352136
203	0x3e8f65e3	0.2800742
204	0x3dc7b75e	0.097517714
205	0xbe0e74a2	-0.1391168
206	0x3eacaefa	0.33727247
207	0x3d923314	0.07138649
208	0x3d9a0b5b	0.07521697
209	0xbdcd1048	-0.10012871
210	0x3d068989	0.032846007
211	0xbe00e61f	-0.12587784
212	0x3dbf4bca	0.093406275
213	0x3e77538d	0.24152966
214	0x3e37e73e	0.17959306
215	0xbe100a3e	-0.14066407
216	0xbe068e04	-0.13140112
217	0x3dacb2ac	0.084325165
218	0x3c060adf	0.008181303
219	0x3d1d9cd8	0.038479656
220	0x3e1a4ed8	0.15069139
221	0xbe91f538	-0.285074
222	0x3dcf2af6	0.10115616
223	0xbe85cf51	-0.26134732
224	0xbc249a11	-0.010046498
225	0xbde95d06	-0.11394696
226	0x3d5b3319	0.053515527
227	0xbccfd882	-0.025371794
228	0xbe510de5	-0.20415457
229	0x3d9a21c3	0.07525971
230	0x3e848e7c	0.25889957
231	0x3e28fbaa	0.16502252
232	0x3ee2525a	0.44203454
233	0x3c1cd978	0.009573333
234	0x3dc769c5	0.09736971
235	0x3d1fa63b	0.03897689
236	0xbdd74711	-0.10511602
237	0xbd91ec63	-0.07125165
238	0x3e447267	0.19184266
239	0xbdacb652	-0.08433212
240	0xbe819d4e	-0.25315326
241	0xbcdd0d9d	-0.02698403
242	0x3df02ef8	0.117277086
243	0x3d14d006	0.0363312
244	0x3dc67ffc	0.0969238
245	0x3def10ec	0.116731495
246	0xbdebcd3a	-0.11513753
247	0xbe54e4b4	-0.20790368
248	0x3d993bd9	0.07482118
249	0xbe668de4	-0.22515064
250	0x3bc62246	0.006046566
251	0xbe71f0ab	-0.23626964
252	0xbe3c36a8	-0.18380225
253	0xbe8f098a	-0.27936965
254	0xbed96809	-0.42462185
255	0xbe969792	-0.29412514

bias f4 [128]
0	0xbdc91089	-0.09817607
1	0xbce749bd	-0.028233403
2	0xbd8886f0	-0.06666362
3	0x3e2311cf	0.15924762
4	0x3da3ff4c	0.080076784
5	0xbc9145a9	-0.017733412
6	0xbdd766a9	-0.10517628
7	0x3de6a72f	0.112623565
8	0xbe37e69f	-0.17959069
9	0xbc21f2a4	-0.00988451
10	0x3d45a7f3	0.048255872
11	0x3e0e573f	0.13900469
12	0x3d2feda8	0.042951256
13	0x3de18b5d	0.110129096
14	0x3e0f707f	0.14007758
15	0x3c693a89	0.014235147
16	0x3b0da39e	0.0021612416
17	0x3cb23065	0.021751592
18	0x3e0b5e38	0.1361016
19	0x3dcbdbfc	0.09954068
20	0xbca2c728	-0.019870356
21	0xbd9cb52a	-0.07651742
22	0x3e4ed8e1	0.2019992
23	0xbc2c548c	-0.010518204
24	0x3bd84ad2	0.006600716
25	0x3da8a912	0.082353726
26	0xbe0d5001	-0.1380005
27	0xbe0f39bc	-0.13986868
28	0x3d892c36	0.06697886
29	0x3d1517a1	0.036399487
30	0x3e1cc543	0.15309624
31	0x3e1babed	0.15202303
32	0x3dfcd32d	0.12344966
33	0x3db1127a	0.08646102
34	0xbd921bb5	-0.07134191
35	0xbd047cc2	-0.03234554
36	0x3d197d53	0.037473034
37	0xbd69ebf2	-0.05710978
38	0xbda285ec	-0.079357
39	0xbd8ac905	-0.06776623
40	0xbe170e19	-0.14751472
41	0xbdd26675	-0.102734484
42	0xbe5297db	-0.20565741
43	0x3e5cb0c8	0.21551812
44	0xbda33468	-0.0796898
45	0x3e2cac4f	0.16862606
46	0xbdbdef5e	-0.09274171
47	0xbe29c132	-0.16577604
48	0xb98ad840	-0.0002648253
49	0xbe12566f	-0.14290784
50	0x3dc1a791	0.09455789
51	0xbe34ae06	-0.1764451
52	0x3c64a7d7	0.013956032
53	0xbd1e40d2	-0.038636036
54	0x3d866e79	0.0656404
55	0x3be2f035	0.0069256076
56	0x3d1aba5b	0.03777538
57	0xbd3ada89	-0.045618568
58	0x3c5b41a6	0.013382351
59	0x3e333b61	0.1750312
60	0x3df20930	0.118181586
61	0x3e010424	0.12599236
62	0xbcac8106	-0.021057617
63	0x3d5af3ae	0.053455047
64	0xbd48f2b1	-0.049059574
65	0x3d8f91c5	0.07010225
66	0x3cc336a9	0.023829775
67	0x3e05f2cd	0.13080902
68	0xbd6f2eb2	-0.05839414
69	0x3e1c9aa5	0.15293367
70	0x3e0779fd	0.13230129
71	0x3d9cda00	0.07658768
72	0x3dad5939	0.084642835
73	0xbc7ee46d	-0.015557391
74	0x3c3dcb27	0.01158408
75	0x3dba82ea	0.09107001
76	0x3e12c6fb	0.14333718
77	0x3e3cf2b5	0.1845196
78	0x3e23da3d	0.1600122
79	0x3e0a3aa4	0.13498932
80	0xbe3ef255	-0.1864713
81	0x3dbd7a17	0.092518024
82	0xbc035027	-0.008014715
83	0xbddab7e8	-0.106796086
84	0xbdad8c2e	-0.08474003
85	0x3d23f8f2	0.040032335
86	0x3e5daa0e	0.21646902
87	0xbdc3be0e	-0.095577344
88	0x3d45ddb1	0.048307125
89	0xbdb64769	-0.08900339
90	0x3caf35fb	0.021388045
91	0x3c271abc	0.010199245
92	0x3dd865da	0.10566302
93	0x3ce66821	0.028125824
94	0xbe2d0c82	-0.16899303
95	0xbdfb6e62	-0.12276913
96	0x3dc05d42	0.093927875
97	0x3ce0f56b	0.027460774
98	0xbccb1d3b	-0.024794212
99	0x3d61c414	0.055118635
100	0x3e290fa2	0.1650987
101	0x3e1c6ecc	0.1527664
102	0x3d5bfb87	0.053706672
103	0x3e36ec2a	0.17863527
104	0xbdabdba4	-0.083915025
105	0x3d9abfc6	0.07556109
106	0x3d309011	0.043106142
107	0x3d84965c	0.06473991
108	0xbd58c493	-0.052921843
109	0xbe1798e4	-0.14804417
110	0xbbbc2478	-0.005741652
111	0x3dfaa449	0.12238366
112	0x3de9a2a6	0.11407976
113	0xbda6d5e3	-0.081462644
114	0x3d4c1739	0.049826834
115	0x3d252b51	0.040324513
116	0xbb38e3cd	-0.0028211952
117	0xbd98f873	-0.07469263
118	0x3d66e402	0.05636979
119	0x3d4e8521	0.05041993
120	0x3ca6b0ab	0.020347914
121	0x3d31fbc5	0.043452997
122	0x3cb8d2dc	0.022561483
123	0xbe0e4d7f	-0.1389675
124	0x3e550211	0.2080157
125	0x3e049826	0.12948665
126	0xbd381046	-0.044937395
127	0x3da1fba0	0.07909322
