nn/checkpoints/main_material_different/4/model_30.pt (torch, 451442 bytes, 98 tensors)

weight f4 [8, 5, 3]
000000 27 ed d4 bd cf 0d 7d 3e 20 17 3b be ca b6 8d be
       -0.10396796 0.24712299 -0.1827054 -0.2767852
000010 4e 0e 20 be b3 8b 96 bc 2a 21 7f be 2e 08 41 bd
       -0.15630457 -0.01837716 -0.24914995 -0.04712694
000020 e5 c3 15 be 34 af 04 be 43 8e 67 3e 6c 9d 09 3e
       -0.14625509 -0.1295746 0.22612862 0.13438958
000030 70 5d 6c be a6 81 35 be df a9 1b 3c ef 0e 79 be
       -0.23082519 -0.17725238 0.00950095 -0.24322103
000040 d0 c5 ac bd ae 4f fa bd 22 65 16 be 38 67 70 be
       -0.08436167 -0.12222229 -0.14687017 -0.23476875
000050 ff 22 67 3e 9d bf 1e be 13 a7 a2 3c 61 12 48 3c
       0.22571944 -0.15502782 0.019855058 0.012211413
000060 51 af cf bd 05 0e f9 bd f0 72 6b be 71 32 22 3e
       -0.10140861 -0.12160877 -0.22993064 0.15839554
000070 7e 86 41 be 8e f4 7d 3e d8 57 04 3e ad ac 65 3d
       -0.18898961 0.24800321 0.12924135 0.05607288
000080 8e c0 97 bd 54 16 4b 3c c5 ae cd 3c 4d a3 6a be
       -0.07409774 0.01239546 0.02510775 -0.22913857
000090 95 48 25 be 8d e8 71 3e d7 8c ad be bb 1e 2b 3e
       -0.16140969 0.23623867 -0.33896515 0.16710941
0000a0 c5 d8 5c bd b7 a8 32 be de ee 04 bd a1 41 9a 3e
       -0.053917665 -0.17447172 -0.032454364 0.30128196
0000b0 27 cc 0d bd 49 4b 65 3e 87 ff 92 be 77 35 7c bd
       -0.034618523 0.22392 -0.28710577 -0.061574426
0000c0 2c 40 1a be 95 7d 81 be b4 0c 0b be 25 05 be bd
       -0.15063542 -0.25291124 -0.13579065 -0.09278325
0000d0 8a d5 98 3c ac 7a 0b bd 5a 44 38 3d b3 be a0 bb
       0.01865651 -0.034052536 0.04498706 -0.0049055456
0000e0 a1 34 72 3e c4 f8 57 bc 15 8f a7 be fc 5c 25 3e
       0.23652889 -0.013181869 -0.3272635 0.16148752
0000f0 8a 87 65 3e 06 32 28 be ee 4e b2 be e7 41 f3 3d
       0.22414985 -0.16425332 -0.34825844 0.11877804
000100 6c 91 77 be 98 ed 21 be ef 98 b5 bb c1 df 19 3e
       -0.24176568 -0.15813291 -0.0055419127 0.15026762
000110 ba c8 0f 3e e5 4f 14 3e 67 d7 0d be a0 2b 06 be
       0.14041415 0.14483602 -0.138517 -0.13102579
000120 fe 2c 85 be da 65 97 bc 02 ad 6e 3e a7 f7 a2 be
       -0.2601089 -0.018481184 0.23308185 -0.3182957
000130 af 42 e6 bd e6 e4 4d 3e 91 cd 5c be 7d 26 85 3e
       -0.11243188 0.20106849 -0.21562792 0.26005927
000140 a7 8c a3 be 7c 05 88 bd 16 aa 03 3e 95 4a bd bd
       -0.31943247 -0.06641671 0.12857851 -0.09242741
000150 8c 30 67 3c e9 b5 f2 3a c4 98 6b bd df 10 5d be
       0.014110696 0.0018517348 -0.057518736 -0.21588467
000160 93 cc 0b 3b cf 06 6e 3d cd 2c 17 be b9 10 1c be
       0.0021331653 0.058111962 -0.14763184 -0.15240754
000170 ea e5 ac 3e 76 be 3e 3d f0 5a 36 be f9 71 7d bb
       0.3376916 0.046568356 -0.17808127 -0.003867267
000180 97 8e c9 3d e6 1f 49 3c 83 16 de bc 92 61 6e be
       0.0984165 0.012275672 -0.027110344 -0.23279408
000190 3b 94 bf 3b 39 7d 88 3d 3d 15 cb bd d9 f3 5d 3d
       0.005846528 0.06664509 -0.0991616 0.05418763
0001a0 37 d1 13 3e ec 96 06 be 29 72 95 3e bc 97 77 3d
       0.14435278 -0.1314351 0.2918866 0.06044744
0001b0 e3 ab 8e 3d ba bf 0d be 84 01 5f bd ab 8d 11 3a
       0.069663785 -0.13842669 -0.054444805 0.0005552421
0001c0 49 a3 97 be 58 a5 0f bc 87 76 5b be 29 9c 04 3e
       -0.29616764 -0.008767448 -0.21431933 0.12950195
0001d0 ff 0c ac 3d 48 9d 84 be e9 bc 26 be 4c 9c 28 3e
       0.08400916 -0.25901246 -0.16283001 0.16465873

bias f4 [8]
000000 c3 bf 8c 3e b5 24 42 be 64 91 19 3d cd a4 80 be
       0.27490053 -0.18959315 0.03749217 -0.25125733
000010 e2 e1 fd 3c 1d 59 36 be ee b5 c0 3d 80 b8 bd be
       0.030991498 -0.17807432 0.094097 -0.37054825

weight f4 [8]
000000 b2 af 81 3f d4 f7 6b 3f 1a 79 87 3f 2d 0d 6f 3f
       1.0131743 0.9217503 1.0583832 0.9337948
000010 46 24 81 3f b4 90 87 3f 3b f1 66 3f 4a cb 89 3f
       1.0089195 1.0591035 0.9021184 1.0765164

bias f4 [8]
000000 1b 60 02 3d 1e 05 bc 3d 36 13 1a 3e ef 7e aa bd
       0.031829935 0.091806635 0.15046391 -0.08324992
000010 5a f8 6d bd ed 6e 1b 3e 33 ff bc bd c4 5d 88 bd
       -0.058098175 0.15179034 -0.09228363 -0.066585094

running_mean f4 [8]
000000 b4 79 35 be ba 18 19 bf b9 65 09 bd 88 d6 06 bf
       -0.17722207 -0.59803355 -0.033544276 -0.526711
000010 42 01 21 be 0a ca f5 be d3 87 77 3d 5b 47 10 bf
       -0.15723136 -0.48005706 0.060432266 -0.5635888

running_var f4 [8]
000000 ac 65 1b 3f 13 f1 ed 3e 11 be 5f 3e d1 b1 96 3e
       0.60702014 0.46472988 0.21849848 0.29432538
000010 2b 9e 1f 3e 27 3d b6 3e 50 87 a8 3d 95 fe 13 3e
       0.1558768 0.3559353 0.08228934 0.14452584

weight f4 [8, 8, 3]
000000 aa 33 63 3e f4 79 53 3d 98 bc a3 bd b8 3a ee bd
       0.22187677 0.051629975 -0.07994956 -0.116322935
000010 f8 b5 96 bd 66 04 bc 3d dc 1e 55 3d 08 e6 c0 3d
       -0.073589265 0.091805264 0.052031383 0.09418875
000020 58 2e 93 bd 4e 65 03 be a5 79 61 3e 33 77 27 3e
       -0.07186574 -0.12831613 0.2201906 0.16354065
000030 0e f6 4f be 58 fe e5 3b 45 15 16 3e 08 d2 bc 3e
       -0.20308706 0.0070188455 0.14656551 0.3687899
000040 26 33 02 bd 7d 7e a5 3d c5 73 cb 3d ec f0 ce bd
       -0.03178706 0.08080766 0.09934191 -0.10104546
000050 9e 32 94 3d b7 db a5 3d da e4 3c be b8 e7 52 3e
       0.07236217 0.08098548 -0.18446675 0.20596206
000060 dd a2 19 3e cc b3 43 3c b0 21 e6 bd 69 05 88 3b
       0.15003534 0.011944722 -0.11236894 0.0041510356
000070 b7 00 49 3d e8 a9 a2 3e ac 3d 40 3e 79 2c 84 3d
       0.049072947 0.31770253 0.18773526 0.06453795
000080 a2 dc 27 3d c2 ea 8d bd 23 37 7c 3d 4b 41 20 be
       0.040981896 -0.06929542 0.06157602 -0.15649907
000090 33 1e b6 3d 7b 0d 9b 3e 05 84 9e be db 5a 28 be
       0.08892479 0.30283722 -0.30960098 -0.16440909
0000a0 0b d7 ce bd 09 44 21 3e 0d e3 3e 3d d1 a5 07 bd
       -0.1009961 0.1574861 0.04660325 -0.03311712
0000b0 b3 8b 78 3c f5 72 bc bd 43 d2 21 be 70 b8 4d be
       0.015170026 -0.09201614 -0.15802865 -0.20089889
0000c0 58 21 03 be 2a 6b 1a 3e 12 21 db bd d9 57 25 be
       -0.12805688 0.15079942 -0.10699667 -0.16146792
0000d0 90 b9 35 be 04 e4 cb 3d f4 4f 97 bc e3 07 a2 3e
       -0.17746568 0.099556 -0.018470742 0.31646642
0000e0 23 2c 36 3d 02 25 d0 bd de 46 18 3c a4 de b4 bd
       0.044475686 -0.10163309 0.00929424 -0.08831528
0000f0 89 d2 ba bc d2 be a9 3d f0 29 72 3d db 11 87 be
       -0.02280547 0.08288349 0.059122026 -0.2638081
000100 c0 72 1b be db 46 60 bc 20 e7 5c 3e dd 17 34 3e
       -0.15180492 -0.013688768 0.21572542 0.17587228
000110 a4 59 9a bd 2c 32 cc bb 12 8e 37 be 43 26 45 bd
       -0.07536629 -0.006231567 -0.1792529 -0.048132192
000120 62 d6 d3 3d e5 c5 b8 bd 56 3a 9e be 7c c6 10 be
       0.10343625 -0.090221204 -0.30903882 -0.14138216
000130 00 51 ca 3d d3 18 91 3d 03 1b 9c 3c eb 43 73 bd
       0.09878731 0.07084813 0.019055849 -0.059390943
000140 66 e7 0c 3e 97 6e d6 3d 1e 22 88 bb 8a ec 09 bc
       0.13760146 0.10470312 -0.0041544577 -0.008418212
000150 61 e6 0b 3e 77 f2 7d 3e 39 11 f2 bd ec d9 0f be
       0.13662101 0.24799524 -0.11819691 -0.14047974
000160 2c cb 2f bd 20 62 1b be a7 c9 3f ba e2 cf 72 3d
       -0.04291837 -0.1517415 -0.00073161203 0.059280284
000170 f0 49 3f be 55 5c ac 3c 41 99 4a be 7c 75 1f bb
       -0.18680549 0.021040121 -0.19785024 -0.00243315
000180 1d 04 56 bb 74 5a 99 bc 3c a1 c8 3b 22 8d 07 3e
       -0.003265626 -0.01871989 0.0061227363 0.13237432
000190 bd f4 94 bd b6 12 a7 bd 7e 29 69 be 5e 27 50 3e
       -0.072732426 -0.08157866 -0.22769734 0.20327517
0001a0 ff da 05 be b9 08 36 bc b3 0e 81 be 3d 11 b5 3d
       -0.13071822 -0.011110478 -0.25206527 0.088411786
0001b0 ce 76 f9 bb ff 3c 73 3e 7f 16 0c be 3d 7f 4d 3e
       -0.0076130396 0.23753737 -0.13680457 0.20068069
0001c0 ac 8a 48 3e a7 57 39 be d7 56 08 3e 2a 24 bf bd
       0.19584149 -0.18099843 0.13314377 -0.093330696
0001d0 ec bd ca 3d ec 67 63 3e 0e 81 6c be ec 90 8d be
       0.09899506 0.22207612 -0.23096105 -0.2764963
0001e0 15 88 36 be e6 f3 7a 3e fc 6d e6 3d 98 ed 46 be
       -0.17825349 0.24507102 0.112514466 -0.19426572
0001f0 38 bd e6 3c 61 8f 8f 3c f7 ad d3 3d e1 6f a5 bb
       0.028166398 0.017524423 0.103359155 -0.0050487374
000200 df cc bf 3d 06 43 8c be 01 b9 24 3e 31 b5 81 bc
       0.09365248 -0.27394885 0.16086198 -0.01583347
000210 90 b8 76 bc 53 91 c3 bc 97 b6 99 3c 21 03 ad be
       -0.015058652 -0.023873007 0.018763823 -0.3379145
000220 8c 3a 52 3e 46 61 71 3e 83 82 86 bd 24 eb 37 3d
       0.20530146 0.23572263 -0.06567862 0.044901982
000230 c4 b8 0e 3e 61 27 74 bd d9 3a 1f 3b 64 d0 a6 3d
       0.1393767 -0.059607867 0.002429655 0.08145216
000240 7f 8a 84 be 17 d3 6e 3e 4f 37 63 bd 8e 84 4c be
       -0.25886914 0.23322712 -0.05547267 -0.1997244
000250 13 12 a4 bd 6c d0 5f 3d 84 19 95 3e 8b da e1 bd
       -0.0801126 0.054642126 0.2912103 -0.11028012
000260 a1 b3 7a 3b 66 8a 91 3d 0b 30 1e be db a7 26 be
       0.003825404 0.071064755 -0.15448014 -0.1627497
000270 72 34 2f be 1d df 07 be 25 6e 8a bc 52 0d 7b bd
       -0.1710985 -0.13268705 -0.016898224 -0.061292
000280 1d c9 9b bd a5 95 09 3e c0 3f 58 3e 46 90 68 bd
       -0.07606719 0.13435991 0.21118069 -0.056778215
000290 b7 04 21 3c 26 ce 05 3d 6a 8d 31 bc 5a 56 0c be
       0.009827784 0.0326673 -0.010836938 -0.13704816
0002a0 db ed 3a 3e 21 b4 24 be f0 3e 63 be e6 4c 03 3d
       0.18254797 -0.16084339 -0.22191978 0.032055758
0002b0 83 db 3f 3e 7d d2 49 be d2 2d 0f be 69 55 f6 bd
       0.18736081 -0.19709201 -0.13982323 -0.120280094
0002c0 15 82 5e 3e 6b 3d 12 3e 2d 91 e9 3c a9 b5 63 be
       0.2172931 0.14281242 0.028511608 -0.22237267
0002d0 3c 5d 35 bd 4f 52 b6 bd 00 89 fa bd d6 6d 38 3e
       -0.04427837 -0.08902418 -0.12233162 0.18010649
0002e0 52 d4 e0 3b 9e c2 0f 3e d6 83 e8 bc bd 92 a5 bc
       0.006861248 0.14039084 -0.028383177 -0.020211572
0002f0 a2 2c b0 3b fd b9 90 3e 80 64 10 be 60 86 38 be
       0.0053764144 0.28266898 -0.14100838 -0.1802001

bias f4 [8]
000000 d6 62 72 3d 17 f4 5a bd 6c f7 b9 bd 38 dd e9 bd
       0.05917629 -0.05345544 -0.09080395 -0.11419147
000010 75 b2 82 bc 15 bd 3b be c9 62 ae 3d 93 bd 9b 3d
       -0.015954236 -0.18333848 0.085149355 0.07604518

weight f4 [8]
000000 05 fa 87 3f bd 1b 80 3f a6 4d 7e 3f 4a 9a 66 3f
       1.0623175 1.0008465 0.9933723 0.90079176
000010 6f 46 87 3f f6 1f 6d 3f 4c 08 6a 3f ad 48 88 3f
       1.056837 0.92626894 0.9141891 1.0647179

bias f4 [8]
000000 26 09 01 3d e2 cc a7 3d 1e 59 19 bc 6b ef c0 bd
       0.031502865 0.08193375 -0.009359626 -0.09420665
000010 35 b7 44 3e 12 17 d9 bb f7 d9 0e 3e 89 76 f1 3d
       0.19210513 -0.0066250646 0.13950334 0.11790187

running_mean f4 [8]
000000 be d9 c4 3e 19 b9 ef 3c 04 6b 8f be 63 6f 96 be
       0.38447374 0.029263066 -0.28011334 -0.29381856
000010 f4 64 82 bd 69 9d 85 bd b1 74 d5 bd 5a 2a 28 3d
       -0.063669115 -0.06524164 -0.10422648 0.041056015

running_var f4 [8]
000000 79 cb e4 3d d1 6c 4a 3d 1d 1c 23 3e 48 7a 1a 3d
       0.11171622 0.04942018 0.15928693 0.037714273
000010 bd dc 2a 3e 1f 43 37 3d b4 ef 8c 3d b2 55 29 3d
       0.16685767 0.044741746 0.06881657 0.04134149

weight f4 [8, 8, 3]
000000 10 8b 1e 3e 0d c8 3a be 9d 11 2f 3e 6f 06 84 3e
       0.15482736 -0.18240376 0.17096563 0.25786158
000010 6a b3 4f 3d 2c a0 e0 bd ba 1a 1a be df 46 0a 3e
       0.050708212 -0.1096805 -0.15049258 0.13503598
000020 4b 33 5e 3e ee 4a 29 bd 2f cc ef bd 16 42 03 3e
       0.21699254 -0.041331224 -0.11708867 0.12818179
000030 2f 06 c6 bb 5a 4a 5a 3e ef e6 45 bd 18 79 fa bc
       -0.0060432176 0.21317425 -0.04831594 -0.03057532
000040 e6 50 ab 3d c3 7f 51 be 92 c1 3d be d4 46 15 be
       0.083650395 -0.20458893 -0.18530872 -0.145778
000050 4e db 5e 3e 31 08 50 3e b7 2b bd 3d 3d bc 55 bc
       0.21763346 0.20315625 0.092368536 -0.013045368
000060 a1 7b 94 3b a5 ae 85 be 9b 14 4d bd 20 e3 54 3e
       0.0045313393 -0.26109806 -0.05006848 0.20789766
000070 3f ec 31 3e ee dc af 3d d0 5e 2b 3e 43 cc 18 3b
       0.17375277 0.08587061 0.16735387 0.002331511
000080 48 38 73 be 57 24 40 be 04 7d c3 bb 43 23 93 3d
       -0.23751938 -0.18763863 -0.0059658308 0.0718446
000090 ad f3 44 bd c8 ec 83 be 58 65 3f 3e b5 6c 56 3e
       -0.04808395 -0.25766587 0.18691003 0.20939906
0000a0 f0 d3 57 3d b4 c1 f7 bd 20 5d 0e 3e a3 8f 02 be
       0.052692354 -0.12097493 0.13902712 -0.12750106
0000b0 f2 16 35 be 67 fd 47 be 10 77 9c 3d ea f9 65 3e
       -0.17684534 -0.19530259 0.07639897 0.22458616
0000c0 e7 df 82 bc 37 1b 23 3e 7c 20 0a 3e 6a 54 c4 3d
       -0.015975906 0.1592835 0.13488954 0.09586413
0000d0 1a d9 08 3e 2b 40 31 3d 38 e3 dd bc 95 79 5a be
       0.13364068 0.043274086 -0.027085885 -0.21335442
0000e0 75 88 9b 3d 41 b2 a8 3d c9 95 22 bd dd a4 a5 bc
       0.075943865 0.08237124 -0.039693628 -0.020220215
0000f0 b4 fd 6d bd a0 82 40 bc 31 d2 79 be d9 6f b2 bd
       -0.05810328 -0.011749893 -0.24396588 -0.087127395
000100 ff f6 34 be 72 f8 d1 3b be fe 25 be f9 61 38 bd
       -0.17672347 0.006407791 -0.16210458 -0.04501531
000110 a1 de e8 bb e6 8a c7 be 47 fb 3c bd 98 23 74 be
       -0.0071066176 -0.3897316 -0.046138074 -0.23841703
000120 4b 62 a3 bd 5b c3 95 bd 39 a3 9e 3d 3a 0f ea 3d
       -0.07977732 -0.07312652 0.07745976 0.114286855
000130 3d f1 6a 3e a4 57 08 3e 23 50 96 3e 58 0e 4a 3d
       0.22943588 0.13314682 0.29358014 0.049330086
000140 1f 5a b4 bd 36 81 a4 3d 6e d2 72 bd 18 44 45 3e
       -0.08806252 0.080324575 -0.059282713 0.19264257
000150 2b 73 9c 3d 8a 4a 18 be 6b ab 78 be 6e 42 06 3e
       0.07639154 -0.14872184 -0.24284141 0.13111278
000160 2a 23 67 be 53 dd 84 3d 0f 98 32 3e f4 4e ae bd
       -0.22572008 0.06487527 0.17440818 -0.08511153
000170 96 db 45 3e 5e d6 0b be 9a f6 4e 3d 05 12 a3 3d
       0.19322047 -0.13655993 0.050528146 0.07962421
000180 ff bd 80 be 35 3b 26 3e 62 98 08 be a5 37 0f bd
       -0.25144956 0.16233523 -0.1333938 -0.034965176
000190 fd c7 b0 bd 31 b7 2a 3c 5c 76 34 3d 68 a4 0c bd
       -0.08631895 0.010419653 0.04405819 -0.034336478
0001a0 4e b1 22 be e5 52 bb 3c dd af 61 3d ad 43 ce 3d
       -0.15887949 0.022866676 0.055099357 0.10071502
0001b0 30 ee ee bd fe 4f 9a be a2 4f 3a 3e 40 0c 68 be
       -0.116665244 -0.30139154 0.1819444 -0.22660923
0001c0 78 df 7a bc 60 ae f4 3d 3f 68 bf bd d4 0a 8e 3d
       -0.015312068 0.11947322 -0.09346055 0.06935659
0001d0 1b 1c 12 3d 0f 44 3e be 1f 52 73 be 76 a5 4a be
       0.035671335 -0.1858065 -0.23761795 -0.19789681
0001e0 f4 2d 82 be 52 7a 9b 3d 2f 10 ee bd a6 ae 8c 3d
       -0.25425684 0.0759169 -0.116241805 0.06869249
0001f0 47 1e 3a be 2a 5b cc bd b2 b4 34 be 96 db 1e be
       -0.18175612 -0.09978326 -0.17647055 -0.15513453
000200 d9 27 32 be 0a 85 2f bd 2a 65 fb bd 1b 8c ea bd
       -0.17398013 -0.042851485 -0.12275155 -0.11452504
000210 5d 0c 7d be 09 85 bb bd c8 79 87 be aa df ef 3d
       -0.24711747 -0.09156234 -0.264601 0.117125824
000220 a0 8d ea 3d cd cc 1d bd 6a ab 34 3e ba 3a ef 3c
       0.11452794 -0.03852539 0.17643514 0.029202808
000230 10 10 e7 bd 64 ce 10 3e 12 ac d0 bd 5a 8f 7b bd
       -0.112823606 0.14141232 -0.1018907 -0.061416008
000240 01 12 1b 3e a3 f1 12 3e 47 04 8b bd ae e1 09 be
       0.15143587 0.1434999 -0.06787925 -0.13464996
000250 a2 23 13 3e 1b 8e a9 bd 88 cf d6 39 f4 5b 5f 3c
       0.14369062 -0.082790576 0.00040971884 0.013632763
000260 01 d5 69 3e d8 56 38 be b1 b3 6f 3e 64 6d 0d 3e
       0.22835161 -0.18001878 0.2340839 0.1381126
000270 1e 9c 8a bd 81 4f 1a be b4 7c e0 3b 44 d8 d9 3d
       -0.06768058 -0.15069391 0.0068508033 0.106369525
000280 8a c2 3c 3e 4a 75 cf bd b4 97 43 3e 09 75 19 be
       0.18433586 -0.10129793 0.19100839 -0.14986052
000290 cc 64 07 3e 1c e6 8c bc 72 15 3f 3e e4 21 a6 bd
       0.13222045 -0.017199568 0.18660524 -0.08111933
0002a0 46 d4 2e be c9 0e c0 bd 3f 04 7e 3e 6a 50 20 be
       -0.17073163 -0.0937782 0.24806307 -0.15655676
0002b0 f7 23 fd bd f2 da 35 be 8e 08 1c bd 9b 77 19 3e
       -0.123603754 -0.17759302 -0.038094096 0.14987032
0002c0 a5 20 f5 3c 03 91 0e be 88 2f 9a 3d c9 fc ac bd
       0.029922793 -0.13922505 0.07528597 -0.084466524
0002d0 75 0d 1a be db a8 3a 3e 72 b0 60 3d ed 54 68 be
       -0.15044196 0.18228476 0.05485577 -0.22688647
0002e0 0e 7b 18 3d f7 4f 8a 3d 79 f8 81 be 12 3f ef 3d
       0.03722673 0.06753533 -0.25384882 0.116819516
0002f0 26 a0 48 3d 99 b5 61 3e 2b 1d 1e 3e 07 39 e3 bd
       0.048980854 0.2204193 0.15440814 -0.110948615

bias f4 [8]
000000 fe 97 5f be c6 56 6f 3e 78 82 cf 3c 5b da 3e 3e
       -0.21835324 0.23372945 0.025330767 0.18637984
000010 18 4c 22 3e c9 cc 2c 3e 3d 2d 1d 3e 93 60 4d 3e
       0.1584934 0.16874994 0.15349288 0.20056371

weight f4 [8]
000000 d8 f4 72 3f 8b f8 8a 3f 96 66 82 3f ad ef 77 3f
       0.9490485 1.0857099 1.0187557 0.9685009
000010 07 a5 84 3f 17 51 84 3f a9 0f 75 3f c5 4d 80 3f
       1.0362862 1.0337247 0.9572702 1.0023733

bias f4 [8]
000000 98 11 1f 3e 2a 67 2d 3e d5 00 47 bc 1a 3d 05 3e
       0.15534055 0.16933885 -0.012146194 0.1301159
000010 ab 7e ad 3a a7 e3 9d 3d 76 55 01 3d 84 08 b1 bd
       0.0013236603 0.07709437 0.031575643 -0.08644202

running_mean f4 [8]
000000 7b 48 94 3d e7 fc 3f 3e 81 c4 c6 be ae 18 e3 3e
       0.07240387 0.18748818 -0.38821796 0.44354767
000010 a3 af bc be e1 50 ee be 43 55 dd 3e f1 08 de 3d
       -0.3685275 -0.4654608 0.43229112 0.10841549

running_var f4 [8]
000000 33 7a 8d 3e d0 ff 9d 3e 33 26 8a 3e bf f5 c4 3e
       0.27632293 0.30859232 0.2698227 0.3846874
000010 3f 20 7b 3e 90 39 fa 3e 92 c8 d1 3e 5e 85 55 3e
       0.2452402 0.48872042 0.40973336 0.20851657

weight f4 [8, 8, 3]
000000 a6 dc ac 3d b4 7a 29 be 4d 71 17 be d5 9b e4 3d
       0.08440523 -0.16550714 -0.14789315 0.11162535
000010 38 5d 8e 3e 3d 26 7a 3e 8b 51 74 be d0 8c f5 3d
       0.27805495 0.24428649 -0.23859231 0.119897485
000020 cf 87 aa 3d 78 67 33 3e dc 7d 66 3e 50 98 b7 bd
       0.08326685 0.17519939 0.22508949 -0.08964598
000030 cc 77 c2 3d 31 1f 0f be e1 31 59 bd 64 44 c0 bc
       0.09495506 -0.13976742 -0.053026084 -0.023470111
000040 77 5a cb bd 28 ae e9 3d d2 cf 02 bd f5 ef 4b 3e
       -0.09929364 0.11410171 -0.031936474 0.19915755
000050 07 86 14 bd 46 72 9d bd 78 c3 13 be be 0c c4 bb
       -0.03626063 -0.076878116 -0.14430034 -0.0059829643
000060 8f 11 ed 3d 88 de aa bd 30 5b 21 be e3 51 f9 bc
       0.11575615 -0.08343226 -0.15757442 -0.030434554
000070 53 5d d5 be dd 6d 6f 3c b2 56 9c bd 31 02 df 3d
       -0.41672763 0.014613596 -0.07633723 0.1088909
000080 4d fa 7d be 39 d9 20 be 77 26 3c be 6b 53 1e be
       -0.24802513 -0.15707864 -0.18374048 -0.15461509
000090 5a b2 39 be f5 4a 8e bc f0 e6 38 3b 5a 89 35 bc
       -0.18134442 -0.017369727 0.0028213821 -0.01108011
0000a0 f1 81 76 3e cc 21 2c 3d 6a 17 56 be 6e 67 78 bd
       0.24073006 0.04202442 -0.2090737 -0.060645513
0000b0 5e b2 05 3d 0c 77 9a 3d b7 4d 82 3d 84 a9 4b bc
       0.032640807 0.07542238 0.06362479 -0.012430552
0000c0 23 22 e3 bb 65 06 8f 3e 6b 53 f1 3a b6 e5 80 b8
       -0.0069315596 0.27934566 0.0018411701 -6.1463026e-05
0000d0 a8 83 ad 3d 22 6e dc bc 49 61 6b bd e2 c0 28 3e
       0.08472377 -0.026907984 -0.057465825 0.16479829
0000e0 9b 6f 98 be fe 0c 8b bd 06 3f f0 bd f3 06 87 3e
       -0.29772648 -0.067895874 -0.11730771 0.2637249
0000f0 1c 0f 6b 3d 2c ed 9d bd 3b 05 26 3c 5c cd 72 bc
       0.057387456 -0.077112526 0.010133083 -0.014819469
000100 ab 33 87 3d aa e3 9b be d2 e1 0a 3e a8 2e e3 3d
       0.06601652 -0.3044713 0.13562706 0.11092883
000110 9a 44 48 be 8f b9 50 3e 92 5c e3 3d e5 10 c2 3d
       -0.1955742 0.20383285 0.11101641 0.094758786
000120 1a 82 5c 3d cc cf 68 be 0a 73 c7 bd 3f 97 55 3e
       0.053835012 -0.22735518 -0.09738739 0.20858477
000130 a3 06 01 be f2 99 88 bd 53 7e 84 bd 00 30 09 bc
       -0.12600188 -0.06669988 -0.06469407 -0.0083732605
000140 e3 5f f9 bc ab 6d f9 3d a0 e6 0f bd 75 21 2a 3e
       -0.03044123 0.12179121 -0.03513205 0.16614325
000150 ef 31 b4 be 64 c7 3d 3e 41 c8 71 3c 51 f0 9c bd
       -0.35194346 0.18533093 0.014757217 -0.07663024
000160 40 6f cd bd 4d 44 47 3e 72 8d c7 bc 1a bb 19 be
       -0.10030985 0.19459648 -0.024359439 -0.1501278
000170 09 f4 22 be 5d aa 33 3e a9 c5 bf bd 3b 3b d6 bb
       -0.15913405 0.17545457 -0.093638726 -0.0065378225
000180 b9 66 85 3d 4d e2 67 be 60 66 d9 3d 09 ff 31 be
       0.065137334 -0.2264492 0.106152296 -0.17382444
000190 04 5a c3 3d 91 a3 ab bd 68 53 54 be 5d f3 28 be
       0.095386535 -0.08380807 -0.20734942 -0.16499086
0001a0 bc 50 ef 3d 02 a7 70 3d 8f 28 7b 3d f6 41 e0 3d
       0.11685321 0.05875302 0.061317977 0.10950081
0001b0 b8 a5 a7 be 18 6a 1a be de 2b 0d bc bb bd e9 3c
       -0.3274362 -0.15079534 -0.008616416 0.028532853
0001c0 4a b5 6f be ff 8e df 3d 7e 49 ea 3d a0 57 0a 3e
       -0.23409 0.10915946 0.11439799 0.13509989
0001d0 49 6a 0d be d1 25 57 3d 83 dc 30 3e 5c 23 ae 3e
       -0.13810076 0.0525263 0.17271619 0.34011352
0001e0 36 43 08 be 54 ed 37 bd 68 4b 5c bd 65 64 23 3e
       -0.13306889 -0.044904068 -0.05378285 0.15956266
0001f0 42 6d ac bd a0 95 d6 bd fe 79 38 3e d5 23 74 3e
       -0.08419277 -0.104777575 0.18015286 0.23841794
000200 e8 8c 69 3d 05 b7 f4 3d c1 21 09 be b2 fc e8 bd
       0.057019144 0.11948971 -0.13391782 -0.11376323
000210 36 94 37 3e 29 23 59 be 85 51 c4 bd 1f 7c 29 be
       0.17927632 -0.21204819 -0.09585861 -0.16551255
000220 6c 90 24 be e4 a8 37 3e 6b 82 96 3d 32 f5 ab bc
       -0.16070718 0.1793552 0.07349094 -0.020990942
000230 3d d8 8a 3b fa f8 ec bd c2 fd 12 be 76 69 c7 3c
       0.0042372034 -0.11570926 -0.14354613 0.02434228
000240 c6 dc 5c 3e d0 83 b4 3d 53 a1 42 be d0 9f 0c be
       0.21568593 0.08814204 -0.19006853 -0.13732839
000250 70 36 e7 3b af 9f 40 3e b4 b0 4c bc f1 26 97 bd
       0.00705605 0.18810914 -0.012493301 -0.07380474
000260 5c 56 25 3e 9b d2 eb 3d 50 8f 00 be a0 18 b1 bc
       0.16146225 0.11514779 -0.1255467 -0.021618187
000270 f1 49 e0 bc f3 27 12 be 44 a1 10 be ad 57 3e 3c
       -0.027379008 -0.14273052 -0.14124018 0.011617583
000280 21 6d 02 3d 16 c0 80 3e 31 f2 4b 3e a2 84 49 be
       0.031842355 0.2514655 0.19916607 -0.19679502
000290 d2 c0 23 3e 4a ff f6 3a 7f a9 8c bd ac 09 31 3e
       0.15991524 0.0018844393 -0.06868266 0.17288846
0002a0 28 9d 5b 3d e9 14 57 be cb 50 59 be ca a6 8c 3a
       0.053616673 -0.2100407 -0.21222226 0.0010730859
0002b0 23 87 34 3d 95 44 b4 bd b5 ae 1b bd 0d 7b b5 3b
       0.04407419 -0.088021435 -0.03800841 0.0055383504
0002c0 ae 7b 1b be ed 62 59 bb e4 0d 8b bd 94 5a 31 be
       -0.15183899 -0.0033170537 -0.06789759 -0.17319709
0002d0 0e 08 26 be ad 7b 0e 3e c6 94 19 3d e8 77 7a 3e
       -0.1621401 0.13914366 0.037495397 0.24459803
0002e0 89 c9 2f bd eb 68 d8 bd 66 a5 ba bd 5c 2e ed bd
       -0.04291681 -0.105668865 -0.091135785 -0.11581108
0002f0 70 8e 19 3e 68 3e 90 be 82 92 3a bd 9c 0e fa 3d
       0.14995742 -0.28172612 -0.045549877 0.12209818

bias f4 [8]
000000 fb eb b5 bd 82 a6 33 be 94 32 10 3d da 9b 6c be
       -0.088829 -0.17543986 0.035204485 -0.23106328
000010 b0 be a0 bd b8 be f2 3d 3f 58 ea 3a 78 80 12 3e
       -0.07848871 0.11852783 0.0017879083 0.1430682

weight f4 [8]
000000 c4 52 79 3f cd e4 73 3f 73 36 7a 3f e4 2e 86 3f
       0.97391915 0.95271 0.9773933 1.048306
000010 4f d9 7f 3f dc dd 8d 3f f9 9e 73 3f 3f 82 7e 3f
       0.9994096 1.1083331 0.9516445 0.9941749

bias f4 [8]
000000 49 c5 16 bd d9 de 91 bc 83 25 0e 3e 89 52 63 3d
       -0.03680924 -0.017806457 0.13881497 0.055498634
000010 76 06 31 3d 1c 95 8b 3d 3a fd 34 3e 95 80 14 3e
       0.043219052 0.0681555 0.17674723 0.14502175

running_mean f4 [8]
000000 a7 80 1b 3e 3d bd 2e bf ea 7c 16 3e c2 a7 c8 be
       0.15185796 -0.68257505 0.14696088 -0.3919049
000010 8b f5 4b be 9b 3d 0e 3a 30 a5 2e 3e fa e8 55 be
       -0.19917886 0.000542605 0.17055202 -0.20889655

running_var f4 [8]
000000 d9 69 8e 3e 14 ef 01 3f 4a af aa 3e da 16 ec 3d
       0.2781513 0.5075543 0.3333686 0.11527796
000010 46 9e 74 3e 78 5b 29 3e 35 b7 10 3e 1c 01 6b 3e
       0.23888502 0.16538799 0.14132388 0.22949642

weight f4 [8, 8, 3]
000000 61 45 a6 bc 56 0f 0e bd ba 1d 43 be 31 67 46 3e
       -0.020296754 -0.034682594 -0.19054309 0.19375302
000010 45 d4 86 3d 4e 85 d9 3d 29 ea 4a bd f6 44 7b be
       0.06583456 0.10621129 -0.04953972 -0.24538025
000020 2e 46 f3 bd 5a 63 80 be b8 f9 aa 3d da 0a 92 be
       -0.1187862 -0.250758 0.08348411 -0.28523904
000030 34 a9 8f be 1c bb 6a 3d 8e 37 6d be 10 18 d8 3d
       -0.2805878 0.057307348 -0.23165724 0.105514646
000040 ca d5 fe 3c 84 3d 44 3d 9e ef df 3d d7 26 a7 be
       0.031107802 0.04791023 0.10934375 -0.3264682
000050 e1 cb 37 be 25 0c 16 3e a7 30 05 3e 71 6b 35 3b
       -0.17948867 0.1465307 0.1300684 0.0027682448
000060 72 79 be bd f2 b7 90 3b d9 34 53 be 4e 92 28 3e
       -0.093005076 0.0044164592 -0.20625629 0.16462061
000070 1e 9b 71 3a ef 41 38 be 7e 1e aa 3d 01 fe 41 3d
       0.00092165347 -0.17993902 0.08306597 0.047361378
000080 da d7 b7 bd f7 12 3f be 27 2e 66 3e af 1c 7c bd
       -0.08976717 -0.18659578 0.22478543 -0.061550792
000090 cf ec 96 3d 44 a1 31 be c4 48 1a bd dd bc 35 be
       0.073693864 -0.17346674 -0.03766705 -0.17747827
0000a0 b0 54 d3 be 60 2b 7c 3e 7c ae 82 3c 3a b7 bc 3d
       -0.4127555 0.24625921 0.015952341 0.09214635
0000b0 ca c6 c2 3c 4e ac 88 3e 2f c0 bb 3d f6 da fe bd
       0.02377643 0.26693958 0.091675155 -0.12444107
0000c0 11 1d 37 be aa 4f f4 bd f7 e4 2e be a9 70 9c bb
       -0.17882182 -0.11929257 -0.1707953 -0.0047741723
0000d0 5c 8a 65 3c 5f be 9d 3c 8b 69 58 bd c9 2f 13 3e
       0.014010038 0.019255815 -0.05283503 0.14373697
0000e0 4c 65 d3 3c cb ae da bd 1e ae ab be d5 33 06 be
       0.025805138 -0.1067787 -0.33531278 -0.1310571
0000f0 f4 a0 20 3e 93 73 9e bd 04 5a 0a 3e 88 24 6d be
       0.15686399 -0.07736888 0.135109 -0.23158467
000100 64 15 33 bd c7 6e 41 be 84 bf 79 3d 65 b5 10 be
       -0.04372157 -0.18889914 0.06097366 -0.14131697
000110 ac 8a d7 3d 73 95 c0 bd 48 18 24 be 45 b2 cc 3d
       0.105244964 -0.09403505 -0.16024888 0.0999494
000120 5f de 10 bd c0 5f 67 3d 12 af 30 3b 79 6a d0 bc
       -0.03536832 0.0564878 0.0026959819 -0.025441395
000130 6a 66 e8 bd ec 33 9a 3c 95 ae 25 3e ad 9b 74 3e
       -0.11347659 0.018823586 0.16179879 0.2388751
000140 a9 2f b4 bc 6c 2a 14 3d 5f c1 07 3d 30 fd 8a bd
       -0.021995382 0.03617327 0.033143397 -0.06786573
000150 d2 ba 7b 3e bb 91 55 bd 69 b6 6b 38 6b b8 49 3d
       0.24582985 -0.052140933 5.619825e-05 0.04924814
000160 b7 cc 88 bd 0a 5c 1e be 0d 0c 07 bd ec 36 90 3e
       -0.06679671 -0.15464798 -0.032970477 0.28166902
000170 b1 4d ef bd 67 4b 3a be 1e 94 0c 3e e4 df 51 be
       -0.1168474 -0.18192826 0.13728377 -0.20495564
000180 65 31 61 bd 9e 7b bd bd df c7 1c be 87 bd 22 be
       -0.054978747 -0.09252094 -0.1531062 -0.15892611
000190 af c5 33 3c b3 63 1c 3e 23 72 78 3d b7 36 a3 bd
       0.010972424 0.15272407 0.060655724 -0.079694204
0001a0 d5 9a 10 3e c3 e9 80 be 18 e3 81 3d d0 53 22 3d
       0.14121564 -0.25178346 0.06342143 0.03963071
0001b0 c4 6a 44 3d 6d 04 ef 3d ee f7 69 be a7 e2 66 be
       0.047953382 0.11670766 -0.22848484 -0.22547399
0001c0 13 c5 09 bd d6 84 19 be 44 21 c6 bc 06 0c 5d bd
       -0.03363521 -0.14992079 -0.024185784 -0.053966545
0001d0 5c 00 48 be 75 45 b3 bd 9e 3c bb bd e9 52 40 be
       -0.19531387 -0.08753482 -0.09142421 -0.18781628
0001e0 49 44 39 3e 52 ee 6b bd f8 5b ec 3d 62 02 bf 3d
       0.18092455 -0.057600327 0.11540979 0.09326626
0001f0 33 c3 76 3c 86 8b 06 3d 8f f4 3d 3e e1 dd 4f 3e
       0.015061188 0.032847904 0.18550323 0.20299484
000200 ca dc 87 be d7 8a e2 3d c6 26 75 3d b4 d3 94 be
       -0.26535636 0.11061638 0.05985143 -0.29067767
000210 90 ac 36 3e 54 c1 b2 bc cf 9c 71 3d 00 35 0c 3e
       0.17839265 -0.021820702 0.058987435 0.13692093
000220 be 80 90 bd 76 20 c3 bd da 0a 0f bd 42 4b 82 3d
       -0.070558056 -0.09527676 -0.03492246 0.063620105
000230 d9 24 90 bc 6e 0e c8 3c 3a 7d 0a 3e 25 f8 46 be
       -0.017595695 0.024420943 0.13524333 -0.19430597
000240 e8 74 86 bd 1a 63 ec bd b0 f2 2e 3e 6b 47 8b be
       -0.06565267 -0.115423396 0.17084765 -0.27202925
000250 b0 3d 27 bc 22 e5 5f be ff 98 72 3e 76 76 4b 3d
       -0.010207579 -0.21864751 0.23691176 0.04967352
000260 e6 99 f6 bc 91 62 e1 bc 9b 45 c5 3d 6b 70 7e 3d
       -0.030102681 -0.02751282 0.09632417 0.06211893
000270 dd ba 5e 3d 1a d6 07 be 72 40 65 3d 8c 9b 52 be
       0.054377425 -0.13265267 0.055969663 -0.20567149
000280 22 bb 8a 3d 1b 97 3f be 07 56 0b bc 6e 3e 42 3c
       0.06773974 -0.18709986 -0.008504397 0.011855705
000290 78 be 5b be 07 ab 7c 3e 7b 49 34 be 40 71 74 be
       -0.21459377 0.24674617 -0.17606156 -0.23871326
0002a0 62 38 07 3e d7 34 4e 3d 78 42 3a 3d ab 55 8e be
       0.13205102 0.05034336 0.045473546 -0.27799734
0002b0 fd 54 df bd 05 ef 13 3e 9f 36 2c be 6d 42 ab 3d
       -0.10904882 0.14446647 -0.16817711 0.08362279
0002c0 e0 ef 80 3b 77 0b 7c bd 44 c6 cb 3d 6e 1b d7 bd
       0.0039348453 -0.06153437 0.099499255 -0.10503279
0002d0 f9 74 0c be aa 5f 93 3e 36 5a 87 3d 0e 10 80 3e
       -0.13716497 0.28783923 0.06609003 0.2501225
0002e0 7d 25 ec bd 69 9c c7 bd 5c 8b 84 3e 0c fb a0 bd
       -0.11530588 -0.0974663 0.25887573 -0.078603834
0002f0 45 dd 47 bd ec 22 96 3d fb 50 4f 3c 15 96 f5 3c
       -0.048795003 0.073308796 0.012653585 0.029978791

bias f4 [8]
000000 30 33 11 3d a4 8f c2 bd 56 28 26 be c0 59 e7 bd
       0.035449207 -0.095000535 -0.16226324 -0.11296415
000010 28 79 f5 3a bf 62 6c 3c 8a 4b 4a bd b1 cc e5 3c
       0.0018728124 0.01442784 -0.049388446 0.028051706

weight f4 [8]
000000 c0 5a 8d 3f 74 06 81 3f 7a 71 81 3f 55 61 78 3f
       1.104332 1.0080094 1.0112755 0.97023517
000010 92 a3 77 3f 10 2c 7c 3f 57 ec 81 3f b7 cb 83 3f
       0.96733963 0.98504734 1.015025 1.0296544

bias f4 [8]
000000 9a 1c bc 3d 94 7e 06 3e 06 cf 19 bd 78 e6 f9 bc
       0.09185143 0.13134223 -0.03755095 -0.030505404
000010 9c 49 da 3d c8 7f b7 bd 4d 90 0f 3d 35 fa b4 3d
       0.10658571 -0.08959919 0.035049725 0.08836786

running_mean f4 [8]
000000 df 22 bc be d7 09 80 be 6f 28 27 bf e9 67 82 bd
       -0.36745355 -0.25007507 -0.6529607 -0.063674755
000010 ea 20 10 bf 58 da 44 3e 2b 45 bd be b4 f3 2a 3e
       -0.5630022 0.19223917 -0.36966833 0.16694528

running_var f4 [8]
000000 af 49 83 3f 86 1d 14 3e 6b 04 3c 3e d3 56 b4 3e
       1.0256861 0.14464387 0.1836106 0.35222492
000010 be 0c 1a 3e ef 14 75 3e 2c 0e 55 3e 54 96 5f 3e
       0.15043923 0.23933767 0.20806187 0.2183469

weight f4 [8, 8, 3]
000000 43 aa 81 be 95 94 e7 bd 7b e3 75 be 58 fc 80 be
       -0.25325212 -0.11307637 -0.24012558 -0.25192523
000010 ee dc 0a 3e dd 30 a2 3c d5 b1 cb 3d 5f 1d f5 3d
       0.1356084 0.01979869 0.09946028 0.11968493
000020 b9 88 6d 3c 0d 6f dc 39 05 84 8f bd 46 92 20 bd
       0.014497929 0.0004204441 -0.070076026 -0.039201997
000030 9c 46 7e 3e d7 c7 5b 3d 9e cc 88 be e2 a9 05 be
       0.24831623 0.05365738 -0.2671861 -0.13053086
000040 9f 5f 7e bd cb fe 15 be fe e5 45 3e 24 2c 66 3e
       -0.06210291 -0.14647977 0.19326016 0.22477776
000050 af 77 2a 3e 36 28 82 bb 4d d6 2a bd 88 02 92 be
       0.16647218 -0.0039720787 -0.04170828 -0.28517556
000060 9a f8 c2 bd 3e 23 51 3d 35 70 96 bd 70 71 ee bd
       -0.09520073 0.051059 -0.073456205 -0.1164273
000070 52 6a fb 3c 91 e0 6d 3e 76 3d 31 3b d9 52 39 3d
       0.030690346 0.23230197 0.002704469 0.045245025
000080 b7 5a a6 bd 92 df 8e bd 39 1d d3 3d 46 24 8f 3d
       -0.08122771 -0.069762364 0.10308308 0.069893405
000090 cc 73 55 3e 05 73 05 be 6b 36 c3 bd 7d df 55 be
       0.20844954 -0.13032158 -0.09531864 -0.20886035
0000a0 88 85 bf bd 10 9b 43 3e 7d 9d fa 3c 5a 4a 7e bd
       -0.09351641 0.1910212 0.030592674 -0.062082626
0000b0 18 93 f0 bb 34 fb 6d be 92 c6 1b bd 72 f2 1e be
       -0.0073417537 -0.23240358 -0.03803117 -0.15522173
0000c0 da 7f 96 be 98 65 d8 bc cf 85 eb bd fe 8e 7e 3c
       -0.29394418 -0.026415631 -0.11500131 0.015537022
0000d0 c3 41 87 3e 90 4f 83 3e c6 17 4d bd a9 d5 59 bd
       0.2641736 0.2564664 -0.0500715 -0.053182278
0000e0 db 5b 5f be a3 5f 2e be 0e cf 17 3e 26 b9 11 be
       -0.21812384 -0.1702867 0.14825079 -0.14230785
0000f0 54 d6 92 bd 22 30 7e 3d 7c b1 17 bd 95 0d 64 be
       -0.07169786 0.06205762 -0.037034497 -0.22270806
000100 e3 26 d6 bd e3 79 6e be 1c 44 af bd cc 53 2e 3c
       -0.10456636 -0.23288684 -0.08557913 0.010640096
000110 42 27 69 be 38 75 bc 3d 12 16 43 bd d6 99 90 bd
       -0.22768882 0.09202045 -0.04762847 -0.07060592
000120 01 dd c7 bd cc 36 25 be 4e 9b 84 3d 1c 3e 97 3d
       -0.0975895 -0.16134185 0.064749345 0.07384893
000130 26 15 03 be 76 97 2a 3d 90 aa f0 3d 91 4a 31 be
       -0.12801036 0.04164835 0.11751282 -0.17313601
000140 03 79 fd 3d ba 6c e3 3d 41 f7 1e 3e 66 5c 4e 3e
       0.12376597 0.11104722 0.15524007 0.20152435
000150 a8 94 ba bb a3 6b 1d 3d c2 35 b2 3c 4a 1f 95 bd
       -0.0056939907 0.03843273 0.02175415 -0.072813585
000160 a1 8f 48 3e 55 34 4c 3e b9 74 14 be 45 5c ab bd
       0.1958604 0.19941838 -0.14497651 -0.083672084
000170 53 14 a0 3e 88 52 17 be 2a 9a 03 be 78 94 8e be
       0.31265506 -0.14777577 -0.12851778 -0.27847648
000180 b0 a2 a4 3d b9 89 c5 3d 15 1b 1e be d5 b0 d6 3d
       0.08038843 0.09645409 -0.15440018 0.10482947
000190 d1 14 85 3e 26 e9 2f 3d de 5f 43 3d a9 62 35 3e
       0.25992444 0.042946957 0.047698848 0.17713417
0001a0 92 25 e9 bc 44 bb 76 bd fe 16 78 be 40 a3 ff 3d
       -0.028460298 -0.060237184 -0.24227521 0.12482309
0001b0 61 36 99 3e d6 4a de 3d 32 6f 84 be 51 b5 8e bd
       0.299243 0.108541176 -0.25866085 -0.06968177
0001c0 12 d5 f6 bd cc 3b 44 be a2 9b 1c bd ec 4e 18 be
       -0.12052359 -0.19163436 -0.03823436 -0.14873856
0001d0 4a 58 d7 3d 34 d4 1a 3d ad 53 f6 3d 76 65 10 be
       0.10514887 0.03780003 0.12027679 -0.14101204
0001e0 87 eb 4f be 97 60 86 3d ed d7 1c be e7 67 a5 3b
       -0.2030469 0.06561392 -0.15316744 0.0050477865
0001f0 23 5a 54 bd cb c4 b3 3d 9c 7b 28 3c 4e f7 b4 3d
       -0.051843774 0.0877777 0.010283377 0.08836232
000200 ee 16 b5 bd 31 73 02 be 39 7a 14 bd c2 bf 61 3e
       -0.08842264 -0.12739255 -0.036249373 0.22045806
000210 f5 f0 a0 3b 7e f3 12 bd 6e 53 ad bd a1 53 76 be
       0.004911537 -0.035876743 -0.084631786 -0.2405534
000220 30 80 34 bc c2 f6 c5 bd 63 79 32 3e b8 f1 e9 bd
       -0.01101689 -0.09666206 0.17429118 -0.11423057
000230 25 37 84 3e 09 19 a2 3c 47 ee aa bc 46 39 cc bc
       0.25823322 0.019787328 -0.020865573 -0.024929654
000240 0d 51 1f be 92 d1 c6 bb 21 57 00 be e6 85 85 be
       -0.15558262 -0.006067463 -0.12533237 -0.2607872
000250 bc 83 39 bd 9c 6a 0f 3d 45 73 c5 3d 16 a9 2d 3e
       -0.045291647 0.03501378 0.096411265 0.16959032
000260 3d b0 9b 3d bd 8f 92 bd 72 05 9d 3d 38 a6 2b 3e
       0.07601974 -0.07156322 0.07667054 0.16762626
000270 f5 18 89 bd ad 99 44 3d 1a 91 83 be 19 a5 b2 bd
       -0.06694213 0.04799812 -0.2569664 -0.08722896
000280 c4 d5 3b 3e c4 d2 e8 3c 04 8c 14 be d1 06 d2 3d
       0.18343264 0.028420813 -0.14506537 0.102552064
000290 7a e7 99 3d e9 8a 90 3c b0 5f 23 be 4c 52 3d be
       0.07514854 0.017644363 -0.1595447 -0.18488425
0002a0 a5 1b cf be af 0a da bc fc 0a 0d be 66 6b 6a bc
       -0.4045078 -0.026616422 -0.13773721 -0.014307832
0002b0 44 08 02 be 7c e2 dd 3d 55 2c 42 3e a5 c3 74 3e
       -0.12698466 0.10834214 0.18962224 0.23902757
0002c0 ed 5e 24 bb 47 49 06 3e 84 5c a9 3c 00 d5 29 be
       -0.0025080994 0.1311389 0.020673998 -0.1658516
0002d0 12 fd 8e 3e 20 89 a3 bd 2d 9a 8e bc bb 74 32 be
       0.27927452 -0.07985139 -0.017407501 -0.17427342
0002e0 dc 79 e4 3c 26 71 de bc 25 5f 54 3d a8 49 6f 3d
       0.027890138 -0.027153563 0.05184855 0.058419853
0002f0 f7 7b 21 3e 33 1d 65 bd 06 65 8f bc 12 91 57 be
       0.15769945 -0.05593605 -0.017504226 -0.21051434

bias f4 [8]
000000 99 dc de 3d b6 cd 8e bd c5 64 25 3e 8a 84 a3 bd
       0.108819194 -0.0697283 0.16151722 -0.07984264
000010 26 da 5a be d7 ae 73 bd 11 30 97 3c d0 76 b1 3d
       -0.2137228 -0.059492912 0.018455537 0.0866524

weight f4 [8]
000000 9a 30 51 3f 9d f1 35 3f 05 c8 47 3f 54 5f 5b 3f
       0.81714785 0.710718 0.7803958 0.85692334
000010 1c 2c 47 3f b5 bf 4a 3f 29 d8 44 3f cc 67 53 3f
       0.7780168 0.7919877 0.76892334 0.82580256

bias f4 [8]
000000 4b fc a6 bd 82 cb 8f bd 9c bb 3f be 2b 08 98 bd
       -0.0815359 -0.07021238 -0.18723911 -0.07423433
000010 3d 74 0c be fd 2a 09 be a6 e9 6c be 2c ba 5d bd
       -0.13716216 -0.13395305 -0.23136005 -0.054132625

running_mean f4 [8]
000000 11 8f 08 be f2 c4 76 be 8f ec 5e be 13 b6 a2 bd
       -0.13335826 -0.24098566 -0.21769927 -0.07944884
000010 2c 94 93 bd f1 22 33 be b9 f9 80 be 3d b9 a9 bc
       -0.07205996 -0.17493798 -0.25190523 -0.020718211

running_var f4 [8]
000000 3a c6 9d 3e fe 1b 6c 3e 34 fb fe 3e 23 2b 9a 3e
       0.30815297 0.23057553 0.49801028 0.30111036
000010 c5 0a bb 3e 0e d1 55 3e b1 11 a4 3e 97 72 64 3e
       0.36531654 0.2088053 0.32044747 0.22309338

weight f4 [128, 25]
000000 00 f1 25 3e 9e ac 13 3d 15 97 09 bd 74 f1 5c 3e
       0.16205215 0.036053292 -0.03359135 0.21576482
000010 c0 a5 46 be 6a be c1 3d 05 ab 0d 3d 8c 6f e4 bb
       -0.19399166 0.09460147 0.034586925 -0.0069713052
000020 3f e9 84 be 81 36 19 3e 4b 74 22 3e 06 35 72 be
       -0.25959203 0.14962198 0.15864675 -0.2365304
000030 19 38 4d be 65 4d da 3d 8a 62 df 3d c5 3e dc 3d
       -0.20040931 0.10659293 0.10907467 0.1075416
000040 4f 81 c4 3c a5 b0 73 be 74 71 6b 3e 4b d0 08 3e
       0.02398744 -0.23797853 0.22992498 0.13360707
000050 f1 2c 7c 3e f4 99 29 be 39 37 06 be 84 74 fd 3c
       0.24626519 -0.16562635 -0.13107003 0.030939348
000060 1f 3a 9e 3c 9a c5 20 be c8 8d fe bc 8d 67 de bd
       0.019314824 -0.15700379 -0.031073466 -0.108595945
000070 45 37 44 3e 2b d4 1f bd 31 14 e7 3d 24 33 1b 3b
       0.19161709 -0.0390207 0.11283148 0.0023681605
000080 5b 51 15 be 98 6d c3 be 44 73 87 be 91 aa b1 be
       -0.14581816 -0.3816955 -0.26455128 -0.34700444
000090 91 3c 9a be 78 75 f2 bd 6f 11 ef 3d 2d 56 b4 3d
       -0.30124334 -0.11838812 0.11673247 0.08805499
0000a0 cd 6e 39 3d 55 ce 0b 3d 74 9b 60 bd 24 b5 ac 3d
       0.045271683 0.03413232 -0.05483575 0.08432987
0000b0 1e ca 04 3e fc 35 81 be 48 41 63 3d e9 db fa 3d
       0.12967727 -0.252365 0.05548218 0.12248976
0000c0 3b 7f 0c 3c 40 8e ca 3d 5b 99 bd bd 75 69 54 3e
       0.008575256 0.09890413 -0.09257766 0.20743354
0000d0 5d a8 b8 be 60 9c 56 be a6 8a 5a be 86 c6 18 be
       -0.3606595 -0.2095809 -0.21341953 -0.1491948
0000e0 a8 63 9c bd b7 be aa bd 30 dd 92 bc 4f b1 4d 3d
       -0.076361954 -0.08337157 -0.017927736 0.050217923
0000f0 da f9 15 3e 11 47 ac 3d b7 c9 ee 3c 70 e9 d3 bd
       0.14646092 0.08411992 0.02914892 -0.10347259
000100 9f be 2e 3e 61 1d 45 bd 41 62 7b bc 70 77 66 bd
       0.17064904 -0.04812372 -0.01534325 -0.05626625
000110 24 be 87 3d a5 38 14 bd e8 0b b1 3e 65 eb 6a 38
       0.06628063 -0.036186833 0.34579396 5.6009176e-05
000120 57 ac f0 bd a6 58 9b 3d e3 52 f3 bd ee 4f 39 bd
       -0.11751621 0.07585268 -0.11881044 -0.045242243
000130 9f d3 4d 3e 7e 12 2f 3e 56 df eb bd 51 a6 ac bd
       0.20100258 0.17096898 -0.11517207 -0.0843016
000140 4d 36 9f 3d 91 b0 0a 3e 83 cf 8a 3d c8 8b a7 3c
       0.07774029 0.13543917 0.06777861 0.020452395
000150 7d 47 a3 3d 12 8f 35 be de 53 f3 3d f0 a4 c9 bd
       0.0797262 -0.17730358 0.11881231 -0.098459125
000160 09 77 9e be 42 4d 70 bd 5d 05 ba bc 4b d4 85 bd
       -0.30950192 -0.05866743 -0.022707636 -0.06534632
000170 eb 8c 2c bc 29 c9 0c bf b5 d9 ce bd 59 59 62 bd
       -0.010531644 -0.54994446 -0.10100118 -0.05526099
000180 7c 3e ab 3d 15 1f 93 be 8d d8 07 bd d3 20 db be
       0.08361527 -0.2873465 -0.033165503 -0.4279848
000190 aa 8b a3 bd 9d 74 0f 3e 76 fb bb be 3f 68 29 be
       -0.07985623 0.14009328 -0.36715287 -0.16543673
0001a0 01 71 82 3d 21 a1 ad bd f6 f7 3b be b6 0a 96 bd
       0.0636921 -0.084779985 -0.18356308 -0.07326262
0001b0 a2 ae 65 3e 54 5d 53 3e f8 0e bb 3d 6c 3b 9a 3c
       0.22429898 0.2064107 0.091337144 0.018827163
0001c0 b3 52 fb 3d e8 67 0a 3e 0f ae e6 bd a3 dc 5f 3e
       0.12271633 0.135162 -0.11263668 0.2186151
0001d0 70 df 86 be d2 b2 38 be 18 1f 3e bd b7 ab 1e be
       -0.26342344 -0.18036965 -0.046416372 -0.15495192
0001e0 c7 21 f5 3d 99 71 61 3e c1 44 75 3e c9 08 2f bc
       0.11969333 0.2201599 0.23952009 -0.010683247
0001f0 cb 67 9b bd 98 6d 92 bd 17 a6 3d 3d d8 09 1b be
       -0.07588156 -0.071498096 0.046300974 -0.15140474
000200 b9 62 33 3d 89 1f 08 3d fa 50 d0 3d f6 d5 55 be
       0.04379532 0.0332332 0.10171695 -0.20882401
000210 aa 4c ee bd 11 2a b2 be 7c 9f cd bd db 13 f9 3d
       -0.11635716 -0.3479772 -0.10040185 0.1216199
000220 75 e8 80 be f5 46 a2 bd a4 22 af 3d f6 9d c2 3c
       -0.2517735 -0.0792369 0.08551529 0.023756962
000230 c3 62 23 bd 6c a8 c2 bd 4c 12 6f 3c 71 68 1a 3e
       -0.03988911 -0.0950478 0.014591765 0.15078904
000240 51 f2 fa bd 24 53 30 3e 09 e0 16 bd fb 89 68 be
       -0.122532494 0.17219216 -0.03683475 -0.22708885
000250 20 ae 15 be 2c d9 04 3e 33 de 20 3e 90 a5 ab be
       -0.14617205 0.1297347 0.15709762 -0.33524752
000260 cd dc a7 bd 0a 0a f3 bd 92 74 f6 be ec 31 c3 3d
       -0.08196411 -0.11867149 -0.4813581 0.09531006
000270 c8 fe 8d be 9a 8e 18 be b2 3b ba be 13 c6 1a bf
       -0.27733445 -0.14898148 -0.3637367 -0.6045849
000280 e2 83 8e be fb aa 16 3e cd 73 54 3b 90 42 4f bc
       -0.27834994 0.14713661 0.0032417655 -0.012650147
000290 06 b3 bd 3d 2c d8 96 3d 07 ba 14 3e f2 e0 f0 be
       0.09262662 0.0736545 0.14524089 -0.4704662
0002a0 d7 c0 53 3e ec e1 2c be 2c 91 0b be 8f 99 fb 3d
       0.20679031 -0.16883057 -0.13629597 0.12285148
0002b0 f1 44 00 3e e8 de 8f bd f0 c1 26 be bf 51 0e be
       0.12526299 -0.07024938 -0.16284919 -0.13898371
0002c0 dd d0 2a be c5 b5 b8 be e0 e1 4b 3e 03 4c c3 bd
       -0.16681238 -0.3607618 0.19910383 -0.095359825
0002d0 97 bb 47 bd 02 59 8b bd 72 9e 90 be ba a4 2f 3d
       -0.048762884 -0.06804086 -0.28245884 0.042881705
0002e0 b4 86 f6 3d f4 20 41 bc 28 db ea be 79 11 92 bd
       0.12037411 -0.011787642 -0.45870328 -0.07132239
0002f0 4f 85 30 3e e4 ab 7d bd ca 5e 89 be 9c 73 5a bd
       0.17238353 -0.061931506 -0.2683013 -0.05333291
000300 fc 04 32 3e 8f c4 6a bc e6 10 88 3d 34 4b 0c 3d
       0.17384714 -0.01432909 0.06643848 0.034251407
000310 bc 29 4d 3e dc 44 5f bd aa 77 d5 bd 17 01 e7 3d
       0.20035452 -0.05450903 -0.10423215 0.11279505
000320 39 75 61 3e 50 92 a3 bd 0a 47 49 3d 52 64 b6 3d
       0.22017373 -0.07986891 0.049140014 0.08905853
000330 c4 b3 cb 3d e9 22 20 3e bd 51 3e bc 0f 12 6d 3c
       0.09946397 0.15638317 -0.011616168 0.014469638
000340 58 7f 17 3e 8f a1 8b be e9 d7 c8 bd e7 44 78 be
       0.14794672 -0.27271697 -0.098068066 -0.24245034
000350 3b e6 b3 be 7e 69 23 be 40 64 47 bd 2f 85 26 3e
       -0.3513659 -0.15958211 -0.04867959 0.16261743
000360 2b b3 d4 3d 76 38 84 bd 8f 4e 53 be 15 59 e0 bd
       0.10385736 -0.064560816 -0.20635436 -0.10954491
000370 16 05 59 be 24 49 4c 3e de 47 a6 3d d3 85 57 be
       -0.21193346 0.19949776 0.08119176 -0.21047144
000380 16 f5 1f 3d 3d 16 98 3e b0 c4 a6 be d3 ec 20 3e
       0.03905209 0.29704466 -0.32571936 0.15715341
000390 44 51 98 be c2 ba 77 be 1e 62 23 be 99 3b 45 be
       -0.297495 -0.24192336 -0.15955397 -0.19261016
0003a0 3d 5d 10 3e cf 62 06 be 86 b5 5d 3d 97 20 25 3e
       0.14098068 -0.1312363 0.054128192 0.16125713
0003b0 da bd 1a bd ca eb 3d be 4c 6d dd bd 89 ab b0 bd
       -0.037778713 -0.18546978 -0.10811862 -0.08626468
0003c0 3c 89 56 3e 23 f0 8a 3d 21 bd ad 3d f3 4b a7 bd
       0.20950788 0.06784084 0.08483339 -0.08168783
0003d0 de c4 3b 3e 60 c8 01 3e a1 20 85 3e 77 55 25 be
       0.18336818 0.12674093 0.26001456 -0.16145884
0003e0 31 0b 40 be c3 ea 83 bd db 9d e0 bd f3 54 1d 3d
       -0.18754269 -0.064412616 -0.109676085 0.038411092
0003f0 28 25 14 3e ee 3b a9 3d d9 a7 5c bc 85 bf 72 3d
       0.14467299 0.08263384 -0.013467752 0.05926468

bias f4 [128]
000000 27 29 46 3b 98 58 a1 3d 21 7d 04 bd 2d 80 84 3e
       0.003023693 0.07878226 -0.032345895 0.2587904
000010 08 66 64 be ac 66 13 3e 57 1d cc 3d d9 44 e0 3d
       -0.22304547 0.14394635 0.09966534 0.10950632
000020 61 57 c5 3d e7 62 c5 ba f6 28 11 3e 48 5e 71 3d
       0.09635807 -0.0015059382 0.14175782 0.058927804
000030 c8 1f 15 3e d5 27 84 bd e1 56 2a be 70 2c 1a 3d
       0.14562905 -0.0645291 -0.16634704 0.037640035
000040 f3 46 46 3c 15 2d 57 3e 5d b7 ed bd eb 52 13 bd
       0.012101877 0.21013291 -0.116072394 -0.03596775
000050 e9 af a1 3d 6c 99 31 bd dd fe f0 bd a9 5e 18 bd
       0.0789488 -0.043359205 -0.11767361 -0.03719965
000060 5c 20 bc 3d d2 1f 56 3e ba ba 17 3e 77 3e ec 3d
       0.091858596 0.20910576 0.14817324 0.11535352
000070 9e 12 7b bd bd 1c 10 3e e7 23 db bd 5c 21 12 be
       -0.06129705 0.14073463 -0.10700207 -0.14270538
000080 74 22 80 bb 3e 23 94 bd 51 8f b1 bd 83 b2 ed 3d
       -0.003910357 -0.072332844 -0.086699136 0.11606314
000090 bf b3 d5 3d d1 b8 20 3d b3 4a 72 bd ce f6 31 3c
       0.104346745 0.039238755 -0.05915327 0.0108620655
0000a0 b6 f7 d6 bd 76 f2 10 3e 34 8d 2f 3e 24 d3 32 3e
       -0.10496466 0.14154992 0.17143708 0.17463356
0000b0 71 8f 5c 3e c1 53 89 3d 52 1b e5 3c a1 2d 3c be
       0.21539094 0.06705428 0.027967129 -0.18376781
0000c0 a0 08 54 3d f2 35 ab 3d c9 5d 21 3e ec cc d4 3d
       0.051766038 0.083598986 0.15758432 0.10390648
0000d0 9c ce ae 3d 69 86 32 3e 9e 72 30 3e 3d 1e 5a bb
       0.08535501 0.17434086 0.17231223 -0.0033282184
0000e0 60 51 4c bd d7 8f 49 3d 4e c5 33 bd af 71 0e bd
       -0.049882293 0.049209442 -0.043889336 -0.034776386
0000f0 a9 f6 62 3d 59 ca 55 3c 69 5c c8 bb 0a ab 91 3d
       0.055411015 0.013048732 -0.006114532 0.07112701
000100 ea 1e b9 bd af 63 f0 bc e6 21 43 3d ef 58 10 be
       -0.090390995 -0.029344408 0.04763975 -0.14096425
000110 1d f5 99 bd c9 4b ca bd 7b d7 dd bd 4b 96 d5 3c
       -0.07517455 -0.09877736 -0.10832115 0.026072642
000120 86 b1 bd 3d 38 27 9a 3d 99 6c 4f be 74 73 36 3d
       0.092623755 0.07527012 -0.2025627 0.0445437
000130 d5 c0 7b bd 62 6e 82 be e8 f8 08 3e 7f 05 63 be
       -0.061463196 -0.2547484 0.133762 -0.22170065
000140 57 50 d3 3d 6f 4a 6c be 6c 02 3b 3e 63 bb d2 3d
       0.10318058 -0.23075269 0.18262643 0.102896474
000150 47 28 bb bc 21 52 97 3d dc 45 9d bd 5b b8 5d 3d
       -0.022846354 0.07388712 -0.0767934 0.054130893
000160 2f 98 6a bd 52 7b 32 3c 4f 4a 08 3e 09 f5 17 3e
       -0.05727404 0.01089366 0.13309596 0.14839567
000170 8f 70 d0 3d 24 bf 9e 3d d7 26 c7 bd 86 ef 37 3d
       0.10177719 0.07751301 -0.09724205 0.04490616
000180 49 d1 94 bd 37 3c 56 3e 6d f4 08 3e 82 8b 9f bd
       -0.072664805 0.20921408 0.13374491 -0.07790281
000190 1f ba cf 3d a6 66 d4 3d 20 cd fb bd 1c c8 30 bd
       0.10142922 0.10371141 -0.12294984 -0.04315959
0001a0 83 df 84 bb ac 87 f2 bd 74 bf 50 bd a7 e3 78 3d
       -0.004054965 -0.118422836 -0.050963834 0.06076398
0001b0 8f 14 0f bc 38 12 9e 3d d9 1b 34 3d 35 c8 c6 3d
       -0.008732929 0.07718319 0.04397187 0.09706155
0001c0 08 26 b5 bc 06 ac b7 3d f1 d5 85 ba 21 c8 a5 3d
       -0.022112861 0.08968358 -0.0010210854 0.08094812
0001d0 b5 eb 11 3e ba 9f ca 3d 58 8c a0 bd 74 fd 25 be
       0.14250071 0.09893747 -0.078392684 -0.16209966
0001e0 bd 01 32 3e 7b ff 26 3d 5b 84 ce 3d 18 de 3b bd
       0.17383476 0.04077099 0.100838386 -0.045866102
0001f0 0c 70 c8 3c 24 29 9f 3d 61 50 dd 3d dc a8 48 3d
       0.02446749 0.07771519 0.10806347 0.04898916
